W3-Design/checkpoints/epoch_17.pt (torch, 384725 bytes, 24 tensors)

encoder_cnn.0.weight f4 [32, 3, 3]
000000 7e ba 2c be 68 95 58 bc 0d 9b 3f be d6 c9 94 3e
       -0.16868016 -0.013219215 -0.18711491 0.2906024
000010 12 8f 46 be 9d ac 59 3e 5e 4b 4b 3e 82 f6 70 3e
       -0.19390514 0.21257253 0.19852969 0.23531535
000020 cd 08 25 3e 7c 2b 30 3e 10 d8 33 3e fa 95 2c 3d
       0.16116638 0.17204088 0.1756289 0.042135216
000030 f7 93 88 be 9b cd 9d be cc a0 3c b9 e0 c2 82 be
       -0.26675388 -0.30820927 -0.00017988979 -0.25539303
000040 58 a2 1a 3e b8 26 1f be 47 2a bc 3d 9d b0 68 3e
       0.15100992 -0.15542114 0.09187751 0.22723623
000050 63 2d d4 3e 85 d1 2c 3d 94 68 30 3e a8 d8 d5 be
       0.41440877 0.042192 0.17227393 -0.41766858
000060 86 39 84 be b8 0d bd 3c 60 e4 34 be fa 96 ce bd
       -0.25825137 0.02307783 -0.17665243 -0.1008739
000070 29 e6 86 3d 75 e8 0f be 60 01 9d bd 5a 25 03 bd
       0.06586868 -0.14053519 -0.07666278 -0.032018043
000080 79 96 7e 3c 35 1a ef 3d 18 23 5f 3e 88 7d 6c 39
       0.015538805 0.116749205 0.21790731 0.00022553478
000090 bb b9 5b bd 0f 32 4c 3e f7 61 ea bd 94 b2 11 3f
       -0.053643923 0.19940971 -0.114444666 0.56913114
0000a0 3c 1c 38 bd 12 5f f4 3e 34 a4 0f 3d 61 62 da 3d
       -0.0449488 0.47728783 0.035068706 0.106632955
0000b0 80 45 c3 be 33 0f 20 3c a1 ae 16 be a8 14 b0 3e
       -0.38138962 0.009769249 -0.14715053 0.3439076
0000c0 19 b7 b4 be 5d b0 a2 be d7 e0 81 3d e1 be a7 3d
       -0.35295942 -0.3177518 0.06341713 0.08190704
0000d0 31 2a 22 3e ac 8a a2 be 34 c3 c5 3c 8d df f8 bd
       0.15836407 -0.31746423 0.024140932 -0.12152014
0000e0 41 dc 92 3e e0 bd 72 3e 97 93 12 3e f0 11 f3 bd
       0.28683665 0.23705244 0.14314114 -0.11868656
0000f0 41 fb 97 bd 7a a2 25 3e 26 62 96 be 99 6b 15 3e
       -0.0742097 0.16175261 -0.29371756 0.14591826
000100 9a 74 24 be 6c d4 36 3e 47 80 42 3e f2 31 b8 be
       -0.16060105 0.1785447 0.18994246 -0.35975605
000110 5d 56 0a bf 9d d1 20 be 59 c5 04 be c9 d3 a1 3e
       -0.5403803 -0.15704961 -0.12965907 0.31606892
000120 0b 72 34 3d d3 6c 21 3e 1e 10 2c bd 10 e9 8e bd
       0.044054072 0.1576417 -0.042007558 -0.06978047
000130 46 18 78 be 96 27 b1 3e 37 1e 86 be 99 74 95 3e
       -0.2422801 0.34600514 -0.26194927 0.2919052
000140 f5 7b d4 bc 81 b0 0c bc 4f f7 b2 3e 34 49 91 3d
       -0.025938014 -0.008587004 0.34954306 0.070940405
000150 bf 81 ba 3e 68 9a 7b bd 12 3a 8c be e9 0a e7 3d
       0.36427113 -0.06142655 -0.27388054 0.11281378
000160 ec 8c 22 3d 3e 41 42 bd f0 3f 9a bd a3 60 b3 3c
       0.039685175 -0.0474255 -0.07531726 0.021896666
000170 e6 78 b1 3d 4d 51 b6 3e 2c 82 44 be 97 3f 56 be
       0.08665638 0.35608903 -0.19190282 -0.20922695
000180 08 54 68 be 7a d7 18 3e 58 bd 8b bd 5a 88 26 be
       -0.22688305 0.14925948 -0.06823224 -0.16262951
000190 fd d4 33 bd 44 2e 1c 3e f1 30 04 bd 75 67 89 3e
       -0.043904293 0.15252024 -0.032273237 0.26836744
0001a0 21 6e 64 bd 17 78 9d be 0c f3 b4 be d9 57 46 bd
       -0.05576909 -0.30755684 -0.3534168 -0.04842362
0001b0 e3 06 bb bd 3e 26 8f 3e 33 64 2a 3e 65 59 83 bd
       -0.09132173 0.27958864 0.16639785 -0.06413535
0001c0 10 5f a4 be 3a ad d0 be 73 a7 ba 3e e7 0d 8c bc
       -0.32103777 -0.4075716 0.3645588 -0.017096473
0001d0 8f 72 3c be a3 ef 00 3e 09 7f 0b bd 66 c1 0f 3e
       -0.18403076 0.12591414 -0.034056697 0.1403862
0001e0 63 04 ae 3d 5c 07 23 be 10 97 58 be f2 46 aa bc
       0.084969305 -0.15920776 -0.21151376 -0.020785782
0001f0 3b 06 ea bd 05 92 3f be b3 09 16 be a4 7c 32 be
       -0.114269696 -0.18708046 -0.14652137 -0.17430359
000200 04 e8 84 bd b6 c2 b2 3e 55 5e d9 bc 77 f3 44 be
       -0.06489566 0.34914178 -0.026534239 -0.192335
000210 93 8f 42 3e cd 73 5e 3e 7c c2 d7 bd 3f d0 97 3e
       0.19000082 0.21723862 -0.10535142 0.29651067
000220 41 5a 1a 3e c4 54 3d be 9c 9f 01 bf 32 c2 5c bd
       0.15073492 -0.18489367 -0.5063417 -0.053896137
000230 58 7a 94 be a5 0c ff be 72 17 fe bd e0 4f 24 be
       -0.2899959 -0.49814335 -0.124068156 -0.16046095
000240 b6 b6 20 3e 35 43 2b be 89 97 98 be 92 ef 39 3e
       0.15694699 -0.16724856 -0.29803112 0.18157795
000250 cc 12 78 3a a9 d5 8b bd 1a 5b 7d 3e 38 04 ae bd
       0.000946325 -0.06827862 0.24741784 -0.084968984
000260 73 5f 5d 3e f8 a1 4d bd 1d fa 30 3e 6d 10 41 bd
       0.21618442 -0.050203294 0.1728291 -0.047134805
000270 bc df 92 3d 05 c7 07 bf d0 9a 1c 3e 39 37 48 be
       0.0717158 -0.53038055 0.15293431 -0.19552316
000280 c4 02 e2 be e6 e4 2b be 4d 45 7e 3e 5c 3b 2b 3e
       -0.44142735 -0.16786537 0.24831124 0.16721863
000290 82 f8 69 be 66 5e 2d be 10 ac ea be 6f b4 28 be
       -0.22848704 -0.16930541 -0.45834398 -0.1647508
0002a0 95 a7 dc 3d d9 7d 75 be 76 7f ad bd ee 47 cf bd
       0.10774151 -0.23973788 -0.08471577 -0.101211414
0002b0 38 d6 33 3e c3 b3 ad 3d ee 1c 64 bd 4a 41 51 be
       0.17562187 0.084815525 -0.055691652 -0.20435062
0002c0 2c 2e 63 3e 94 a0 18 be 10 e6 2d 3e 04 ae 4d 3e
       0.22185582 -0.14905006 0.16982293 0.20085913
0002d0 75 e1 12 be 53 39 03 be ed b3 19 be 16 d1 1c be
       -0.14343818 -0.12814836 -0.15010042 -0.15314135
0002e0 6c 70 89 3e f6 27 2f 3d a5 d8 85 3e 6f b3 71 3e
       0.26843584 0.04276272 0.2614185 0.23603605
0002f0 af 5f 1f be 5e 46 46 3e 56 92 65 be 9b b4 36 be
       -0.15563844 0.1936278 -0.22419104 -0.17842333
000300 e1 62 82 be 2a 39 25 3e 80 29 d8 3c 7c 32 66 be
       -0.25466064 0.16135088 0.026386976 -0.22480196
000310 4c 62 03 bf 93 3d c4 be 2e 64 3a 3e 01 df 71 be
       -0.51321864 -0.38328227 0.18202278 -0.23620225
000320 98 a1 5e 3e 87 ce 55 3e d3 d3 99 3e 3b ab 8d 3c
       0.2174133 0.20879565 0.30044422 0.017293563
000330 81 78 17 bb fd 2c 03 be ef 95 6d be 90 d5 07 3e
       -0.0023112597 -0.1281013 -0.23201726 0.13265061
000340 d6 ab 73 be 1f 0d 63 be 57 fb 0b be 2b fd 28 3d
       -0.23796019 -0.22172974 -0.13670097 0.041257065
000350 c7 a4 86 bd e2 6f 03 3e 41 7a 74 3e 89 55 96 3e
       -0.065743975 0.12835649 0.23874761 0.29362133
000360 a3 83 7b 3d 32 61 25 3e 82 b2 06 be d8 2c 4f 3e
       0.061404835 0.16150358 -0.13154033 0.2023195
000370 f1 c6 ea 3d 1b 47 0a be d2 62 c5 3c ae c2 49 3d
       0.11463726 -0.13503687 0.024094973 0.049257927
000380 9e 97 90 3d ab e0 01 3f 34 78 7a 3e 97 7f dc 3e
       0.07060169 0.5073344 0.24459916 0.43066093
000390 84 7b 83 3e c4 cd 76 3e ca 51 ff 3c 4b 2a c3 be
       0.25680172 0.24101931 0.03116693 -0.38118204
0003a0 c5 8e d6 bc 57 6d 61 3e 9c fe dc be f0 db 71 bc
       -0.026191125 0.22014366 -0.43163002 -0.01476191
0003b0 ae fd 24 be 7b 6c bc 3e 7e b2 56 3e fe 7c 26 be
       -0.16112396 0.36801514 0.20966527 -0.16258618
0003c0 2c e0 bc 3e ed 63 35 3d 75 d8 9f bd ac 3c 3c be
       0.3688978 0.04428475 -0.07804958 -0.1838252
0003d0 00 94 45 3d 30 b5 ab bb 43 2b a2 bd 25 43 43 bd
       0.048236847 -0.005240105 -0.07918408 -0.047671456
0003e0 7b 96 81 3e 27 6b f4 bd b4 59 b1 3e 77 a5 e4 3d
       0.2531012 -0.119345 0.3463875 0.111643724
0003f0 16 7d 7e 3e 06 59 c0 bd a4 d9 59 bc 37 a4 54 bd
       0.24852404 -0.0939198 -0.0132965185 -0.05191442

encoder_cnn.0.bias f4 [32]
000000 73 e5 b4 be b7 13 b5 bd b1 00 8f 3f d3 8d 96 bf
       -0.35331306 -0.08841651 1.1172086 -1.1762031
000010 f8 c8 99 bc 98 97 8f 3d 04 9d 58 bf 05 c9 04 be
       -0.018772587 0.07011336 -0.84614587 -0.12967308
000020 2a 2f 7a be fc 96 cb be 55 86 18 be 27 ac e7 bd
       -0.24432054 -0.3976363 -0.14894994 -0.11312132
000030 ed 8f 39 bc dd 96 19 bf 78 bd 4b bf 18 17 d9 3e
       -0.0113258185 -0.59995824 -0.7958598 0.42400432
000040 04 9c 4f bf b6 0e 9b 3e 8e 67 93 bc 6c 68 56 bf
       -0.81097436 0.3028466 -0.017993715 -0.83753085
000050 09 3e 37 bf 74 71 1b 3f 69 10 64 bd a1 e3 34 bf
       -0.71579033 0.6071999 -0.055679712 -0.70659834
000060 f2 57 03 bf 22 9b cc 3e ce 13 3a bf 56 34 52 bf
       -0.5130607 0.39962107 -0.7268647 -0.8211111
000070 e0 13 50 bf 2e cb bb be d2 53 fe bd de b3 a2 3d
       -0.81280327 -0.3667845 -0.12418331 0.07944463

encoder_cnn.2.weight f4 [64, 32, 3]
000000 d8 a3 04 be d3 6b 0c 3d 3a 43 3a 3d 72 e3 82 3e
       -0.12953126 0.034282517 0.04547427 0.25564152
000010 ed f2 53 3e fc 32 2b 3e af 4f bd 3e 27 96 12 3e
       0.20698138 0.16718668 0.36974856 0.14315091
000020 15 8d 95 3c c0 45 4b bc 7b 05 c6 be 1d d5 ab bd
       0.01825575 -0.012406766 -0.38676056 -0.083902575
000030 0d 6b 17 3d 74 fb 54 3d ca 35 f2 bd 9e 78 4e be
       0.036967326 0.051997617 -0.11826666 -0.201632
000040 61 db 83 be 8f 40 3b be 3d 43 46 3e 62 99 93 3d
       -0.2575331 -0.18286346 0.19361587 0.0720699
000050 f7 f9 5f 3e 30 d2 3d be cf 5c 59 be 68 95 a4 be
       0.21872698 -0.18537211 -0.2122681 -0.32145238
000060 d8 11 a4 3e 97 e2 73 3d d1 a7 ef 3d af 4d 05 3e
       0.32044864 0.059542265 0.1170193 0.13017915
000070 fa ca a3 3d 0b 67 5a 3d 27 b2 06 be 9d 3c 70 3d
       0.07997699 0.053320926 -0.13153897 0.058651555
000080 c8 4d 44 bd d4 b8 96 3d ce 6c 8c bd b8 f6 58 be
       -0.04792574 0.07359472 -0.0685669 -0.21187866
000090 b2 ee 52 bc e2 7b 77 be 64 01 45 be 19 f3 35 3e
       -0.012874292 -0.24168351 -0.19238812 0.17768516
0000a0 c2 47 c9 3d 83 0b 98 3d fb 09 ed 3d 05 70 83 bd
       0.0982814 0.07424071 0.11574169 -0.064178504
0000b0 ac 3d d5 3d 80 72 6d 3e 4b 5e 50 3e 0a 27 0e be
       0.104121536 0.2318821 0.2034847 -0.1388208
0000c0 ec c2 59 3e 99 0e 2b 3e 03 3b 01 3e b5 ae 54 3e
       0.21265763 0.16704787 0.12620167 0.2076977
0000d0 09 25 c2 3d 6a 78 fb bd ec ab 40 be 69 6b 0e be
       0.0947972 -0.122788265 -0.18815583 -0.13908161
0000e0 ca a4 75 be 7c ff 39 be a3 c3 21 be b8 e4 19 3d
       -0.23988643 -0.18163866 -0.15797286 0.03757164
0000f0 b5 c7 a3 3d 35 51 c3 bd fe 8c ee 3d 1e f6 40 bd
       0.079970755 -0.095369734 0.11647986 -0.047109716
000100 04 d2 61 bd 0e 54 92 be 4b f3 3b 3e 57 58 c1 bc
       -0.055131927 -0.28579754 0.18354528 -0.023601694
000110 4c ce b8 3d 68 ad 34 be 53 ba 4b be 05 4a 2b bd
       0.09023723 -0.17644274 -0.19895296 -0.041818637
000120 fd e3 c9 3e 0f 61 71 3d 5c ac ad 3e 6c 45 80 3d
       0.39431754 0.058930453 0.33920562 0.06263241
000130 91 b5 d2 3d 0f f0 3c be ed 29 c8 bd 1d 96 87 3d
       0.10288537 -0.1845095 -0.09773622 0.06620429
000140 86 cf bc bc 7c 84 06 3e 68 c8 e3 bc bc 99 67 3d
       -0.023048174 0.13136476 -0.027805522 0.056543097
000150 2b af cb bd cd d6 80 be c3 99 21 be e7 27 57 3e
       -0.0994552 -0.2516388 -0.15781312 0.21011315
000160 b9 e4 bf bd 77 19 0d 3e 84 54 df 3e 34 a1 de 3d
       -0.09369797 0.13779245 0.43619168 0.10870591
000170 44 96 56 3c a1 7e a8 3d 6c 4e c7 bc 37 af a4 bd
       0.01309735 0.082272775 -0.024329387 -0.08041232
000180 9c a5 6b bd 3b a8 5a bc 75 91 99 3d 53 68 a6 bd
       -0.057530984 -0.013345773 0.07498447 -0.08125367
000190 82 cd 74 bd 69 37 e4 bc 7c d3 ff be bb 9e 75 be
       -0.0597663 -0.027858453 -0.49966037 -0.23986332
0001a0 f0 55 3e be 1f a9 83 bd 78 ef ef 3c 20 43 ba bd
       -0.1858747 -0.06428742 0.029288992 -0.09094834
0001b0 ec 8f a2 be d8 b8 93 be 92 4c 5d be a3 0d 38 bd
       -0.3175043 -0.28851962 -0.2161124 -0.04493488
0001c0 ad f5 bb bb 5b 66 91 3d 93 8e 70 3d e0 96 02 be
       -0.005736074 0.07099601 0.05872972 -0.12752867
0001d0 f3 de 42 be 82 72 77 be cf 4e 9f 3d 91 01 1d 3c
       -0.19030361 -0.24164775 0.077787034 0.009582893
0001e0 39 cb c3 3d 7b 40 4b be 1e 1e 46 bd 98 c8 c5 3c
       0.09560246 -0.19848816 -0.048368566 0.024143502
0001f0 ad 8d 19 3d 09 b0 7b bc ec a7 53 bd ef 9d 9b bd
       0.03748863 -0.015361794 -0.051673815 -0.07598483
000200 58 10 9d bd 4f 71 af be fe 5b 38 be 8f 70 f4 be
       -0.07669133 -0.34266135 -0.18003842 -0.47742125
000210 24 d6 c8 bb ea 4f 81 bc a9 a7 32 bd 32 e0 12 bd
       -0.006129043 -0.015785176 -0.043616924 -0.03585834
000220 d6 34 83 3c 47 50 23 3d 01 8c fa bd 83 35 5a bd
       0.016016405 0.03987148 -0.12233735 -0.05327369
000230 37 46 13 be d3 be 2c be f7 48 9e bd 88 26 2a be
       -0.14382254 -0.16869669 -0.07728761 -0.16616261
000240 56 9a 35 be cc a4 45 3d e5 2f 7e bd b7 99 a6 be
       -0.17734656 0.048252866 -0.062057395 -0.3253915
000250 c7 fb b8 be 18 21 b2 be cb e5 54 3b 46 45 f6 3c
       -0.3612959 -0.34790874 0.00324856 0.030062329
000260 f5 47 35 3d 3e 16 dc 3d 18 37 88 3d 63 6c 96 3d
       0.044258077 0.1074643 0.06651133 0.07344892
000270 ee 9e f4 bc 9d c9 1b bc e1 41 f5 bc 30 2c 9a be
       -0.02986094 -0.009508518 -0.02993864 -0.30111837
000280 82 b9 8b be 3c bb 8e be 62 26 ae bc 74 8e e3 bd
       -0.2728997 -0.27877223 -0.021258537 -0.11111155
000290 8a bc f1 bd 1c 8f 32 3d b3 12 16 bd d2 31 c0 3c
       -0.11803539 0.04359351 -0.036638927 0.023461256
0002a0 2d 4a 05 bd 0b 09 5a 3d 2c f0 4b 3d 18 11 7f be
       -0.032541443 0.05323128 0.049789593 -0.24908864
0002b0 95 c6 20 3d 68 93 88 3d 08 00 38 bd 6e 65 35 bd
       0.039251883 0.066687405 -0.044921905 -0.044286184
0002c0 b2 1e 41 be c3 d7 44 be 51 20 ab bd 16 ce 96 bd
       -0.18859366 -0.19222932 -0.08355773 -0.073635265
0002d0 73 7c 34 be 29 d5 9b bd 5a 63 88 3d e6 f0 2f bc
       -0.17625599 -0.076090164 0.06659575 -0.010738587
0002e0 58 d2 d7 bd 21 d2 29 bc b5 06 0b be 95 2d e0 bd
       -0.10538167 -0.01036504 -0.13576777 -0.10946194
0002f0 03 6c 36 be de f3 2c be 44 fc 2e be 5a b7 62 be
       -0.1781464 -0.16889903 -0.17088419 -0.22140256
000300 32 b5 ab 3e ce bc 52 3e e0 d1 ab bd ce e7 61 3d
       0.3353668 0.20579836 -0.0838964 0.055152707
000310 4f 72 7b 3e c2 9c ad bd aa 67 3c be 70 b0 71 be
       0.24555324 -0.08477165 -0.1839892 -0.23602462
000320 aa 83 8f be 1e 45 25 3d 9b b6 47 be cc a6 03 be
       -0.2803014 0.04034912 -0.19503252 -0.12856597
000330 8e 1f 65 be 62 43 ca be 49 2d 99 bf ee ff dc bd
       -0.22375318 -0.39504534 -1.1966945 -0.10791002
000340 bd 1c 19 3f 14 64 fb bd fb 8c 12 be 5c 05 96 3e
       0.59809476 -0.12274948 -0.14311592 0.29300964
000350 da fc ef bc 11 30 2a 3c bb e1 71 3e c5 e9 0f bf
       -0.029295374 0.0103874365 0.23621266 -0.5621608
000360 75 87 f5 3b d1 37 58 be ca f3 04 be 4b 91 8d 3d
       0.0074929544 -0.21115042 -0.12983623 0.06912478
000370 05 24 12 be a6 9a c5 be 8d 44 2c be 00 fc 36 3d
       -0.14271553 -0.3859455 -0.16823025 0.04467392
000380 f1 07 5e be c2 48 6c bd 72 1e 06 3e 29 f3 8e be
       -0.21682717 -0.057686575 0.13097551 -0.2791989
000390 a1 5a 8c be 11 48 3a be 42 4d 1e be 47 81 e0 be
       -0.27412894 -0.18191554 -0.15459159 -0.4384863
0003a0 09 ba 29 be 12 13 a3 be f4 14 d6 3e a6 2f d0 3d
       -0.16574873 -0.31850487 0.4181286 0.10165338
0003b0 95 40 84 be ec 56 98 3b 6d d0 18 3d 7c 86 bb be
       -0.25830522 0.004649034 0.037308145 -0.3662604
0003c0 8f 24 82 3e f8 fc 94 3c 2e 7f c7 be 95 11 37 3e
       0.25418517 0.018187031 -0.38964218 0.17877801
0003d0 2d ce 08 bd a8 5a 65 be a1 f4 cb be 79 4b ec be
       -0.03339975 -0.22397864 -0.39835075 -0.4615133
0003e0 b3 d0 62 be ce 33 6b be ea 43 41 3e cf 1f ab bc
       -0.22149925 -0.2296898 0.18873563 -0.020889191
0003f0 19 5c 9a 3e 3a 8f 4c 3e 40 c3 6a be b0 d2 1f be
       0.3014839 0.19976512 -0.22926044 -0.15607715

encoder_cnn.2.bias f4 [64]
000000 44 99 aa bd b7 a8 15 be 35 04 f4 bb 62 e2 89 bd
       -0.08330014 -0.14615141 -0.0074467906 -0.06732632
000010 48 3c 57 3e 5d 57 1f 3e 2e 54 8c be 9c 59 c1 bd
       0.21019089 0.1556067 -0.27407974 -0.0944092
000020 b0 9a 41 be eb c6 81 bc ec 8a 88 bc 36 7b 33 be
       -0.18906665 -0.015841922 -0.016667806 -0.1752747
000030 b8 c7 42 3d dc e8 eb bd 76 a7 45 be b9 65 c0 bc
       0.047553748 -0.11519024 -0.19302163 -0.023486005
000040 c2 ae 71 3e 95 b7 2d 3d 50 02 1f be c1 5f b4 bd
       0.23601821 0.042411406 -0.15528226 -0.08807326
000050 da c0 12 be b2 b3 3c 3e 84 1e 80 3e fc c5 ad 3e
       -0.1433138 0.18427923 0.25023282 0.33940113
000060 74 d6 2b be cb 07 0f bd 23 d2 78 be 20 04 6c be
       -0.16781026 -0.03491954 -0.24298911 -0.23048449
000070 0d e2 8f 3e 94 fa fb bd 77 0f a5 bd 69 bf af be
       0.2810215 -0.12303653 -0.0805959 -0.34325722
000080 6a 63 1e be 45 3a 23 3d 36 6a 38 3e 45 a9 56 be
       -0.15467611 0.039850492 0.18009266 -0.20963009
000090 e7 04 d2 bc c6 d5 a7 be 4f 74 54 3e 56 fa e0 ba
       -0.025637103 -0.32780284 0.20747493 -0.001716445
0000a0 88 02 44 be 59 b3 da be de 7a 02 3e 0f 0b e0 bd
       -0.1914159 -0.42714956 0.12742183 -0.10939609
0000b0 40 e8 f3 bd 7c 01 a8 be e9 e1 95 be 44 03 2a be
       -0.119095325 -0.32813632 -0.29273918 -0.16602808
0000c0 4e 29 70 be 13 fe f4 3d d2 69 a6 be 43 26 d5 be
       -0.23453256 0.11962523 -0.3250261 -0.41630754
0000d0 7e 53 8e be b3 7c b5 bd 57 7e 9b bd ab c6 d3 3c
       -0.27798074 -0.08861675 -0.07592457 0.025851568
0000e0 7a 58 65 bd 3a 4d 4c be a6 c3 11 be 28 87 02 be
       -0.05599258 -0.19951335 -0.1423479 -0.1274687
0000f0 cc 7d 61 be 7c 91 77 3e 07 b4 a4 be f4 ed 60 be
       -0.22020644 0.24176592 -0.321686 -0.21965772

encoder_lstm.weight_ih_l0 f4 [128, 64]
000000 fe bc d4 3e 4c d8 48 3d 73 28 4d 3e c6 71 03 be
       0.4155044 0.0490344 0.20034961 -0.1283637
000010 5f 0b 4b 3e 58 11 de bc ca 09 80 ba 2f 84 42 3e
       0.19828556 -0.02710788 -0.0009768542 0.18995737
000020 4c 2a 92 3e fe ab 59 3d 81 23 72 3e 51 54 ef be
       0.28547895 0.05314254 0.23646356 -0.46744016
000030 f2 37 04 3e 86 a9 22 be c5 69 c6 3c 27 ab a3 3e
       0.12911966 -0.1588498 0.024220357 0.31966516
000040 33 a6 23 3f 71 e1 2c be 80 70 96 bd 6b eb 56 3c
       0.63925475 -0.16882874 -0.073456764 0.013117651
000050 d6 b5 4c bc 0c d1 8e 3d 49 a9 73 3f 07 bf 4b bf
       -0.012494525 0.06973466 0.95180184 -0.7958836
000060 e2 c5 e9 3e 9b fa 47 3e 5e 7f 9a be 32 56 02 3e
       0.45658785 0.19529192 -0.30175298 0.12728193
000070 03 cc b6 be fa f1 cc bd 7e f6 5a 3e 7e 2e 18 3e
       -0.35702524 -0.10007091 0.21383092 0.14861485
000080 cb 9f 2d 3e 3a 99 54 3e e9 c8 88 bd 8e 10 5c 3c
       0.16955487 0.20761576 -0.066789456 0.013431681
000090 8d 1e 0e 3f b8 f7 49 bd 98 58 b2 3e 96 c5 01 be
       0.55515367 -0.04930851 0.34833217 -0.1267303
0000a0 eb da 80 3d ee d8 41 3e c6 71 0d bd 93 51 b8 3d
       0.06291755 0.18930408 -0.03453233 0.08999934
0000b0 8f 6f a0 be d6 00 a2 3d a9 2b 75 bd 10 4c 6b 3e
       -0.31335112 0.07910316 -0.05985609 0.22978234
0000c0 24 3d a2 3e 65 15 33 bd 85 09 b0 3d c8 07 c6 3d
       0.31687272 -0.043721575 0.08595566 0.09669453
0000d0 7a 05 3f 3e 03 9f 19 bd 49 21 18 3e fc 5c 45 bd
       0.18654433 -0.03750516 0.14856447 -0.04818438
0000e0 2f 39 eb ba 2b e9 4f be c7 12 63 bd 67 c3 2b bd
       -0.0017946119 -0.2030379 -0.05543783 -0.041934397
0000f0 04 ae 51 bd b6 ab 2f bb b5 65 b5 bd ad 0e e2 bd
       -0.051191345 -0.0026805229 -0.0885729 -0.110379554
000100 f4 40 29 be 98 3f 58 3c 04 99 76 be 55 b4 9c bd
       -0.16528684 0.013198756 -0.24081808 -0.07651583
000110 76 de 19 3e 20 52 d3 3d 7b 36 5e 3d f5 a9 6d 3e
       0.15026268 0.103183985 0.054251175 0.23209365
000120 56 d3 eb 3d 39 b9 20 3e 47 bd 6f 3c 05 f6 81 be
       0.115149185 0.15695657 0.01463253 -0.2538301
000130 c5 ed af 3d b0 a9 3e bd 9a 08 ca 3d 03 9b 3c 3e
       0.08590273 -0.046548545 0.09864922 0.18418507
000140 a8 1e b1 3e e0 b3 18 be 3c 5d 5b be 02 84 44 bd
       0.345937 -0.14912367 -0.21422285 -0.047977455
000150 6e c3 53 3e 75 cb af 3e c5 27 6f be 3f 8d 55 3d
       0.2068002 0.34334913 -0.23355015 0.052136656
000160 87 8a 57 3e 20 6b 8b be e9 c9 04 3e ea 5f 09 3e
       0.21048938 -0.27230167 0.12967648 0.13415495
000170 28 6d 5c 3e 88 ae 68 bd 06 5e 03 bf dc 74 b1 3d
       0.21526015 -0.05680707 -0.51315343 0.08664867
000180 ef 46 4a 3e 97 b6 42 3e 61 9a 3e bd ee ac 70 bd
       0.19753622 0.19014965 -0.046533946 -0.05875867
000190 e0 90 83 be 9d 47 8c bd dd 97 b4 3e 91 f5 22 3b
       -0.25696468 -0.06849597 0.35272112 0.0024865607
0001a0 4d 82 69 bd b4 89 8a 3d 4f 55 9c 3d b9 ca cb bd
       -0.05700903 0.06764546 0.07633459 -0.09950776
0001b0 ef 74 2e 3e 63 65 0c 3e b1 f2 a9 3e 06 b8 00 bd
       0.17036794 0.13710551 0.3319297 -0.0314255
0001c0 bf fa 04 be 9f 0d bb 3c 09 ce 8e bd 0f 6c 58 3e
       -0.12986277 0.022833643 -0.06972892 0.21134971
0001d0 1b e9 28 be db 9a 8b bd a3 f9 bd bc a8 c7 55 3e
       -0.16495173 -0.06816646 -0.023190325 0.20876944
0001e0 d8 0e 6b 3d 3b 54 7c 3d 81 7b 0c 3e 02 d7 1b be
       0.057387203 0.061603766 0.13718988 -0.15218738
0001f0 5b 7b d2 3d 6f df 83 bd 18 17 db be d8 73 41 be
       0.102774344 -0.06439101 -0.42791057 -0.18891847
000200 d6 0c bb 3d 3f 4f 82 bd 08 6b 99 3e 29 ad 31 bd
       0.09133308 -0.06362771 0.2996447 -0.04337803
000210 79 37 a0 3e d6 0c e1 3d d1 79 9a 3d aa f0 ad 3d
       0.31292322 0.109887764 0.07542766 0.08493169
000220 e9 00 87 bd f2 40 10 3e b5 fd 0e 3e fe 2f e4 3c
       -0.065919705 0.14087275 0.13963969 0.027854916
000230 4a f5 bf be a7 32 a2 bd a1 60 11 3d 12 cf c0 bd
       -0.37491828 -0.079198174 0.035492543 -0.094144955
000240 32 9b 5e 3e ef 10 1c 3e e0 80 3a bd 57 18 55 3e
       0.2173889 0.15240835 -0.04553306 0.20810066
000250 1e 40 eb 3d a8 41 24 3c 84 f2 be 3d 9c 0b 51 be
       0.11486839 0.010025419 0.093236 -0.20414585
000260 62 85 1a be 45 04 39 3d 3d 4e 2f 3e fc b0 aa bc
       -0.15089944 0.045170087 0.1711969 -0.020836346
000270 41 48 b4 3d 1f 31 ff 3d 5a 51 43 be 85 94 9e bb
       0.08802844 0.12460541 -0.19074002 -0.0048394823
000280 87 64 46 be 8c c6 5b 3b 7f a6 ee 3c 36 0d c5 3b
       -0.19374286 0.0033535091 0.029132126 0.0060135378
000290 dd 3f ca 3e 6d c6 61 bd f8 56 08 be 29 d2 b1 3c
       0.3950185 -0.055120874 -0.13314426 0.021706657
0002a0 b1 a4 b3 3e 45 3c e0 3d dc a7 95 3d eb 1c 15 bc
       0.35086587 0.109489955 0.07307407 -0.009101133
0002b0 9c 38 92 3e dd 27 08 bf 76 10 28 3e 12 d8 ed bd
       0.28558815 -0.53185827 0.1641253 -0.11613478
0002c0 b0 df 9f 3d 13 e0 08 3e b1 1d 88 3e 4d 7a 6d 3d
       0.07806337 0.13366728 0.26585153 0.057977963
0002d0 b1 28 c1 bd 16 e3 2a bd 07 a4 ef 3e aa 95 67 3e
       -0.094315894 -0.041720472 0.4680483 0.22615686
0002e0 d1 1a 58 3b 9b 11 80 be 8b 82 2e 3c 93 0c fd bc
       0.0032974968 -0.25013432 0.010651241 -0.030889785
0002f0 6c 16 90 bd f9 9d 4b be dd ed d9 3d 84 d2 b7 bd
       -0.07035527 -0.1988448 0.10641072 -0.089756995
000300 f6 fa 82 be c9 f0 71 3e 3e 7e d5 3d 4c ce 71 3b
       -0.25582093 0.23627008 0.104244694 0.0036896644
000310 97 a6 00 3e 2b 72 2f be 86 3d f2 bd 3f 77 3d be
       0.12563549 -0.17133395 -0.11828141 -0.1850252
000320 af 96 c6 3b 24 0d 1a 3d 1b 4d f2 bd 27 42 e7 3e
       0.0060604434 0.037610188 -0.11831113 0.45167658
000330 aa e4 a1 3e 11 29 d1 bd a3 31 cc 3d fb b9 1c 3d
       0.3161977 -0.10212911 0.09970405 0.038263302
000340 64 4e 84 bd fc 26 fd 3e 0c 33 7e bc 5a 12 e2 3d
       -0.06460264 0.49443805 -0.0155151 0.110386565
000350 7e f1 71 3c 66 d0 9b 3e 5d a5 80 3e 80 dd 09 3e
       0.014767049 0.30432433 0.25126162 0.13463402
000360 84 d7 e1 3e 5f bd 8c be 0a 82 1f be 31 f3 d4 3d
       0.44109738 -0.2748823 -0.1557695 0.103979476
000370 d8 d9 5c 3d 1c 18 00 3e 46 c1 31 be 53 5d b3 3d
       0.05391869 0.12509197 -0.17358884 0.087580346
000380 5f 0a ab be 19 7b bb be a7 4f ae 3d f7 aa 94 bd
       -0.3340635 -0.36617354 0.08511286 -0.072591715
000390 f5 71 63 bc 75 ea 62 be c8 9e 4f be 1e ab 98 3d
       -0.01388215 -0.22159751 -0.20275414 0.07454513
0003a0 4a 9d 4a 3e 59 8d 96 3d 3f 47 ed 3d f0 04 95 3e
       0.19786564 0.07351179 0.11585855 0.2910533
0003b0 21 fb 0a be f1 ee 9a 3e 19 4a 08 3d 62 1e 8c 3d
       -0.1357236 0.30260423 0.03327379 0.068417326
0003c0 95 7a 28 3e 04 f7 dc 3d 03 2f 64 bb c1 e0 2b bb
       0.16453011 0.10789302 -0.003481806 -0.0026226493
0003d0 f4 e5 2b 3e 0b 48 e5 3c 25 37 a8 bd ba 93 66 3d
       0.16786939 0.027988454 -0.08213643 0.056293227
0003e0 79 f6 96 3d 4b 4a 67 3d bd c1 8c 3e 2e 69 b4 bd
       0.0737123 0.056467336 0.2749156 -0.08809124
0003f0 4c 54 df bd 8e 3e 81 bd 2c 59 de be d7 1e 63 be
       -0.1090475 -0.063107595 -0.43427408 -0.22179733

encoder_lstm.weight_hh_l0 f4 [128, 32]
000000 22 57 1b 3d 14 96 17 3e 17 fe ba be 07 16 04 3f
       0.037924893 0.14803344 -0.3652198 0.5159611
000010 e9 4c fc 3e f0 4e 6f be 63 75 01 3d fc 65 5b be
       0.49277428 -0.23369956 0.03160609 -0.21425623
000020 f0 8c 03 3d a7 01 d7 3e 40 2a be 3e 60 44 e2 be
       0.03211683 0.41993448 0.3714161 -0.4419279
000030 99 e8 af bd b6 cc 52 be ef 0a 67 bd 48 89 cb 3d
       -0.08589286 -0.20585904 -0.05640691 0.09938294
000040 6d 75 9a 3d 5b ba 89 be ba 0b ab 3e b1 8e b0 bd
       0.075419284 -0.2689999 0.33407384 -0.08620966
000050 ac 62 08 3f 65 04 93 3e 1f 2b e0 3e de 2b bc 3c
       0.5327556 0.2871429 0.437829 0.022970136
000060 58 41 55 be 99 3d 64 bf 34 30 59 bb ff 17 3f be
       -0.20825708 -0.8915649 -0.0033140304 -0.18661498
000070 7f dd 50 3e 2f 73 11 3f 75 57 ec be 9a be 00 bf
       0.20396994 0.5681638 -0.46160474 -0.50290835
000080 39 93 a4 bd 90 0a 26 3e 1a 50 06 bf 46 59 d2 3e
       -0.08035893 0.16214967 -0.52465975 0.41083735
000090 93 ec 5c 3e 58 55 52 bc 97 69 57 3c 68 0a 68 be
       0.21574621 -0.01283773 0.013147733 -0.2266022
0000a0 c1 35 ae 3e d0 71 11 bc d0 6c ea 3d 46 a4 2f bd
       0.34025386 -0.008877233 0.114465356 -0.042881273
0000b0 ea 71 b3 3c f4 29 2b 3f 4b 0d 98 3e 3f 8f 84 3d
       0.021904904 0.6686089 0.29697642 0.064726345
0000c0 52 97 c9 bb 7a 3f 7e 3e 28 5a 88 3e 41 73 28 be
       -0.006152072 0.24828902 0.26631284 -0.16450216
0000d0 f3 a1 c0 bc c3 de 50 bc 20 8c c9 bd 72 95 a1 bb
       -0.023514723 -0.012748423 -0.0984118 -0.0049311453
0000e0 b6 14 db 3d 1b b6 32 3e be a0 01 3c bc 88 91 3d
       0.1069731 0.1745228 0.007911859 0.07106158
0000f0 f5 8a 35 3e 27 71 56 be 14 2c 10 3c 93 60 32 bd
       0.17728789 -0.20941602 0.008799572 -0.04354913
000100 cf 58 b1 be a9 3d 6d 3e 1c bb 1e be e4 5f ac be
       -0.34638068 0.23168053 -0.15501064 -0.3366691
000110 f1 d5 4c 3e 39 9e 23 3d 65 c1 ec 3d 91 88 ff 3e
       0.20003487 0.039945815 0.115603246 0.4990888
000120 f3 49 4a 3e 6a b6 1f bd f7 03 a6 be c7 3a d9 3d
       0.19754772 -0.038992323 -0.324249 0.10606914
000130 1a f1 c5 3e 9a dd 84 3e 70 f7 9e be 54 ac ae 3d
       0.38660508 0.2595032 -0.31048155 0.08528963
000140 8e eb 82 be 66 40 ab 3e 1b 97 03 bf 68 af ec bd
       -0.2557034 0.3344757 -0.51402444 -0.115568936
000150 76 7b 0c be e1 86 ff be 18 31 7a be e9 e1 9f be
       -0.13718972 -0.49907592 -0.2443279 -0.31227043
000160 20 e2 b0 3e 30 54 2e 3e 35 8f 2e bf f9 0b 41 be
       0.3454752 0.17024302 -0.68187267 -0.18852223
000170 be 6b 4a be 01 f2 04 be 4d 1e f9 be 85 26 dd 3d
       -0.19767663 -0.12982942 -0.4865593 0.10798363
000180 7c 08 03 bf f4 2a 26 bf 2a a3 25 3d bf 59 48 3f
       -0.5118482 -0.6490929 0.04043881 0.7826194
000190 ac c6 b4 be 6e 28 44 3d 61 3c b3 be f2 aa 78 3f
       -0.35307825 0.04789012 -0.35007003 0.9713584
0001a0 f5 60 30 bf b9 d5 00 bf 79 08 bd be 92 ab 4a bd
       -0.68897945 -0.50326115 -0.36920527 -0.04948003
0001b0 c0 c5 0e 3f 5f df 00 3f 9b 92 bb be e2 c8 7d be
       0.5577049 0.5034084 -0.3663529 -0.24783662
0001c0 aa d5 11 3f 87 3d 90 be 08 a6 02 bf e1 17 d5 be
       0.5696665 -0.28171942 -0.51034594 -0.4161978
0001d0 e3 65 00 be 1b aa 40 bf e8 4f 1e bf cc 73 2d bf
       -0.12538867 -0.7525956 -0.6184068 -0.67754817
0001e0 73 56 7c 3f 1a 42 b3 3e 3d 8b 4c bf ee ba fe bd
       0.9856941 0.3501137 -0.7989996 -0.12437998
0001f0 aa 7f a2 be 90 e0 0b 3f 1b 1e ff 3e f2 1d ce bd
       -0.31738025 0.5463953 0.49827656 -0.10064305
000200 ed 51 07 3f 58 a6 10 be 41 28 dc 3e 7f 86 7a 3e
       0.52859384 -0.14125955 0.4299946 0.24465369
000210 35 e3 ee 3d f1 ff 88 be 40 64 db bb b5 70 3a 3d
       0.1166443 -0.26757768 -0.0066953003 0.045517642
000220 b5 76 8e 3e 32 c1 92 be 40 67 99 3d f5 b5 1e 3f
       0.2782494 -0.2866302 0.074903965 0.61996394
000230 43 5b ba bd 71 51 a5 bd fc 70 ba 3e 37 d4 4a bf
       -0.09099438 -0.08072174 0.36414325 -0.79230064
000240 17 72 6b 3e 13 d2 78 3c 1f 3d d8 3e 0d 18 27 bf
       0.2299274 0.015186804 0.42234132 -0.65271074
000250 0b a7 0b 3e bb 78 9d 3e fe 39 88 be 7a ba 16 3d
       0.1363794 0.30756173 -0.26606745 0.03679893
000260 45 66 12 3e 8a ae 95 bc 6e 04 3a 3c a6 23 19 be
       0.14296825 -0.018271703 0.011353595 -0.14955005
000270 f3 05 1d 3f 64 66 18 bd 5f b2 03 3d bd 03 46 be
       0.613372 -0.037207022 0.03215253 -0.19337364
000280 fa 01 b8 3e 24 02 a0 3e 1d 2e c5 3e 90 1c d3 be
       0.35939008 0.31251633 0.38511744 -0.4123273
000290 cf 6f a6 3e ac 9d a2 be 23 c2 8f be e5 a6 ab be
       0.32507178 -0.3176092 -0.28077802 -0.33525768
0002a0 a3 14 d2 3e cc 04 89 3e 81 25 27 3f 65 da d8 bc
       0.4103137 0.26761472 0.652916 -0.026471326
0002b0 96 b9 2c 3d e0 1c a0 be 1a 42 07 3f 20 4d 23 be
       0.042169176 -0.3127203 0.5283524 -0.1594739
0002c0 1f b3 63 be 3c f7 8d 3e 91 8b 38 3e af f8 f9 3e
       -0.22236298 0.27727687 0.1802199 0.48822543
0002d0 63 b2 74 3e 0e 9d db 3e fd d9 1f 3f 96 c0 39 3f
       0.23896174 0.4289326 0.62442 0.7255949
0002e0 ee bc b1 be f5 64 6c 3e db 92 c2 3e 32 6c 7e be
       -0.34714454 0.23085387 0.38002667 -0.2484596
0002f0 68 c1 02 3f f7 38 65 be 2f 55 a3 be 99 7a 11 3e
       0.51076365 -0.22385012 -0.31900927 0.14206924
000300 66 e9 6f 3e 24 56 ac be 91 f7 28 3f 6a 29 bb 3e
       0.23428878 -0.3365947 0.66002756 0.36555034
000310 8e e8 d9 3c c4 f8 a3 3d 3d 2f 83 3f 5a 40 80 3d
       0.026600149 0.08006433 1.0248791 0.06262274
000320 bf 16 13 be 4a 2f 72 3e 46 03 ae bd c9 55 0d bf
       -0.14364146 0.23650852 -0.08496718 -0.5520902
000330 65 12 84 3e 01 05 1c 3e ac d9 d3 3b 1b 0e 3b bf
       0.25795284 0.15236284 0.0064651575 -0.730684
000340 b3 48 a3 bd 66 8b 26 bf cf 88 1b bd 82 dc 5f be
       -0.07972851 -0.65056455 -0.037972268 -0.21861461
000350 64 4e 9d bd dd 3c d6 3e 9d bb ba 3e 9f 4d 06 be
       -0.076809675 0.4184331 0.36471263 -0.13115548
000360 24 86 2e 3e 3a 63 3d be 8c b9 3f 3e 51 92 36 3d
       0.17043358 -0.18494883 0.18723124 0.044573132
000370 b9 6e 6f be 1a b1 c2 3d 57 fb 87 bd e0 ec 93 3d
       -0.23382081 0.09506436 -0.06639736 0.07222915
000380 39 4f a1 3b 92 5b e1 3d 6c bf 10 be 86 ad b3 bd
       0.004922774 0.11003794 -0.14135522 -0.08773331
000390 73 7a 42 3e 29 ea e5 be a2 05 00 be 18 d3 d9 3e
       0.18992023 -0.44905213 -0.12502149 0.42543864
0003a0 c4 8d 02 be 9f 63 e4 be 17 d3 1e 3e 3a 04 cb bd
       -0.12749392 -0.44607255 0.15510212 -0.099129155
0003b0 ca e5 47 be ec ee aa 3e f9 06 14 3e d6 02 d3 3e
       -0.19521251 0.33385408 0.14455785 0.412131
0003c0 d1 00 8a 3e a1 28 3c 3e ce 8f 42 be 2f 43 05 3e
       0.26953748 0.18374874 -0.1900017 0.1301391
0003d0 65 e2 66 3e e9 8a 02 be b2 3f 98 3e 72 7a 43 3e
       0.225473 -0.12748303 0.29736096 0.19089678
0003e0 83 70 a6 3e 23 64 fa bc cf e0 04 3e 56 ed ac be
       0.32507715 -0.030565327 0.12976383 -0.33774823
0003f0 76 dc 84 3e 38 c1 76 be 33 e6 9e bd 8e 96 a2 be
       0.25949448 -0.24097145 -0.07758751 -0.3175549

encoder_lstm.bias_ih_l0 f4 [128]
000000 e7 0b 30 be 11 e7 2a 3e 1c 80 02 bd d4 b7 c2 bc
       -0.1719204 0.16689707 -0.031860456 -0.023769297
000010 0c 2d 9d 3d a3 76 1d 3f ba 79 0f 3d c9 86 88 3e
       0.07674608 0.6150915 0.035028197 0.26665333
000020 0d 59 d0 be c5 ff 84 3e 8e 81 32 3d 75 4e 5a 3c
       -0.4069294 0.25976387 0.043580584 0.01332437
000030 30 9d 03 3d 10 27 b9 3c a4 54 94 be db 78 f0 bc
       0.032132328 0.022601634 -0.28970826 -0.029354503
000040 48 95 b2 bd 32 87 1d 3e f7 0e 9d 3d 94 33 57 bc
       -0.087198794 0.15383604 0.0766887 -0.013134856
000050 1e 67 dd 3d 81 ae 66 3e 11 ed 7b 3e 2e 1d 86 3e
       0.10810684 0.22527505 0.24602152 0.26194137
000060 5a 27 09 3f 18 8f f5 bd d0 6e 4d be c5 55 24 bd
       0.5357567 -0.119901836 -0.20061803 -0.04012086
000070 f4 4d 13 be b0 a1 5d 3d a0 8e 11 3c b3 af 98 bd
       -0.14385206 0.054109275 0.008884102 -0.07455387
000080 50 f0 09 3f ba 12 6d 3e 59 72 37 be 71 29 b6 3e
       0.5388231 0.23151675 -0.17914714 0.35578492
000090 46 b3 51 3e 07 0b 34 3e 31 bc 2d 3d dd 61 1d 3e
       0.20478544 0.17582332 0.0424158 0.15369363
0000a0 1c d6 f2 3d 13 1a 01 be 03 79 c6 3e 75 3a 5e be
       0.11857244 -0.12607603 0.387642 -0.21701987
0000b0 44 c2 40 3e 62 8b 29 be c3 22 b2 bd c9 48 72 be
       0.18824106 -0.16557077 -0.086980365 -0.23660578
0000c0 1f 57 4f bd 12 49 7a be 94 b0 e0 3e 6e 22 45 3c
       -0.050620195 -0.24441937 0.43884718 0.012032134
0000d0 6f 05 78 bd 90 47 d1 bd 6b 4b 86 3d 61 d7 b1 3d
       -0.060552057 -0.102187276 0.065573536 0.086836584
0000e0 6c 15 76 bd b4 bb ad be 7c 2b 62 bc 83 7c af be
       -0.060079023 -0.3393227 -0.013804313 -0.34274682
0000f0 60 6a 84 bd b9 d4 6f 3e a9 d6 4a 3d 3a 0f 05 3f
       -0.06465602 0.23420991 0.049521122 0.5197636
000100 77 fd 73 be 07 36 c3 3e 7c a9 80 be f2 5d f3 3b
       -0.23827158 0.38127157 -0.25129306 0.0074269706
000110 c1 c5 d4 3d 15 85 ea be dc 12 ef bd 33 4e 03 bf
       0.10389281 -0.4580466 -0.11673519 -0.512912
000120 b5 3f 19 3e cd 89 2b 3e d5 01 53 bd 78 bb a1 3b
       0.14965709 0.16751786 -0.05151542 0.004935678
000130 bc 79 28 bf f8 96 04 bf 55 7f 8e bd d7 76 22 bd
       -0.6581075 -0.5179286 -0.069578804 -0.039664116
000140 0a eb 4f 3d 6b 8a 77 3d 9f 8a dd 3d 25 e2 5f bd
       0.05076126 0.06043474 0.108174555 -0.054659028
000150 43 af c9 bd 25 a3 3f 3e ed 70 3e 3d 29 b4 24 3e
       -0.09847882 0.18714578 0.046494413 0.1608435
000160 3a dc 17 be 36 e1 1c 3e 22 12 19 3e bc da 97 be
       -0.14830104 0.15320286 0.14948323 -0.2965907
000170 eb 95 90 3e f4 3f 42 be 4d e2 a9 bd 1a f0 72 be
       0.28239378 -0.18969709 -0.082951166 -0.23724404
000180 06 f1 36 3e 53 d6 f8 bc 5b fc 03 bf 83 34 9f 3d
       0.1786538 -0.030375635 -0.5155694 0.07773688
000190 90 b8 6e 3e e3 7d 94 3e 89 f4 69 3e ac 74 10 3f
       0.23312593 0.29002294 0.22847189 0.5642803
0001a0 4a 3e e2 bd 67 88 b8 3c ee ea b9 3e 2b 3d 6a be
       -0.11047037 0.02252598 0.3631205 -0.22874896
0001b0 8d 51 20 bd 9c cd 16 bd 3c 65 34 ba 12 a3 63 be
       -0.039140273 -0.036817178 -0.000688154 -0.22230175
0001c0 ec 10 2f bb 89 c0 3c 3d 93 cc b4 3e 1d cc 1f be
       -0.0026712967 0.046082053 0.35312328 -0.15605207
0001d0 35 58 29 be 8f 37 21 bd 63 59 f7 bd ed ac c9 3e
       -0.16537555 -0.039359625 -0.12077596 0.39389744
0001e0 aa 44 29 be 21 d1 4d be 7f 97 18 be ab 53 56 3e
       -0.165301 -0.20099308 -0.14901541 0.20930354
0001f0 ab ea 53 3f ab 48 ff 3d 91 28 a7 be 4b 81 3d 3e
       0.8277995 0.12465032 -0.32648137 0.18506353

encoder_lstm.bias_hh_l0 f4 [128]
000000 d6 55 90 3d e4 82 24 bb 62 75 ef bd 4c a4 3c bd
       0.07047622 -0.002510243 -0.11692311 -0.046055123
000010 04 7b ff 3d 0c 7c ae 3e 70 78 8e 3e 0a 35 0a 3e
       0.12474635 0.34079015 0.27826262 0.13496795
000020 e0 16 12 be f5 5b 40 3e 15 a3 07 bd 1f 5a 38 be
       -0.14266539 0.18785079 -0.03311451 -0.18003128
000030 9e df 35 bd de 32 43 3e b9 b2 c2 be 39 34 4a bb
       -0.04440271 0.19062373 -0.3802698 -0.003085388
000040 56 ab 61 be 0e 73 f2 3d e2 3b b7 3c 14 b9 c9 bd
       -0.22038016 0.11838351 0.022367422 -0.09849754
000050 f2 ca a5 bc a6 a9 47 3e 51 3b 7e 3e 15 7f 25 3e
       -0.020238373 0.1949831 0.24827315 0.16161759
000060 22 d3 e6 3e dd 5d 0e 3e 57 48 c3 be 7c c3 e5 bc
       0.45082957 0.13902994 -0.38141128 -0.028047316
000070 05 ee 77 3c 42 6b 2d be 66 d8 67 be 2c 22 42 3e
       0.015132432 -0.16935447 -0.22641143 0.18958348
000080 c5 d3 dd 3e 17 76 c1 3e 50 17 52 be a0 48 69 3e
       0.4332563 0.37785408 -0.20516706 0.2278161
000090 81 88 fa 3c b3 ba 11 3e ef bd b6 bd f2 9a f8 3d
       0.030582668 0.14231376 -0.08922946 0.121389285
0000a0 e7 27 9b 3e 5b fe 10 3d 8e 02 c9 3e c0 22 7a be
       0.3030388 0.035398822 0.39259762 -0.24427319
0000b0 ec 79 9d 3e d8 62 14 be ce 29 5e 3e c0 e9 8b be
       0.30757082 -0.14490831 0.21695635 -0.27326775
0000c0 05 16 8c be 36 71 03 bf 93 ed dd 3e 8c ad 00 be
       -0.2736055 -0.5134462 0.43345317 -0.12566203
0000d0 50 48 46 be eb 84 80 bb 44 1c 9c 3c 77 b6 aa 3d
       -0.19363523 -0.003922095 0.019056447 0.08335584
0000e0 04 db 0a 3d b0 f7 e0 be c1 e2 29 be c4 bd 0c bf
       0.033900276 -0.4393897 -0.16590406 -0.5497706
0000f0 45 73 81 3e de 6e ab 3e e2 f3 78 3e 3e dd c0 3e
       0.25283256 0.33483022 0.24311784 0.37668794
000100 6b ed 99 bc 50 87 65 3e c7 9c 31 bd f7 0d 87 be
       -0.018789968 0.22414899 -0.043362405 -0.26377842
000110 9e 70 0b be 2e 1e bf be d1 36 ea bd 6b 3f e5 be
       -0.13617179 -0.37327713 -0.11436237 -0.44774947
000120 f8 46 d1 3e ab f3 8d 3d 87 91 9d 3d 45 10 98 3d
       0.40874457 0.069312416 0.07693773 0.07424978
000130 40 25 24 bf 15 66 96 be 20 09 51 3c ab f7 ce 3c
       -0.6411934 -0.29374757 0.012758523 0.025264582
000140 18 30 b3 3d 73 90 2b be 3d cd 31 3e 83 62 87 be
       0.087494075 -0.16754322 0.17363448 -0.26442346
000150 6e a1 65 bc c6 36 64 bc 3f fc e0 bc ea d4 cd 3e
       -0.014015539 -0.013929075 -0.02746403 0.40201503
000160 20 b6 63 be 8a d6 3a bc 47 7b bb 3d ee 62 77 be
       -0.22237444 -0.011403689 0.09154373 -0.24158832
000170 30 ce 8b 3e f2 56 e3 be a9 93 d0 be b4 46 3b bd
       0.27305746 -0.44402272 -0.40737656 -0.045721725
000180 30 08 29 3e 10 9d 32 3e af ab ac be 6d af 8c 3e
       0.1650703 0.17442727 -0.33724734 0.2747759
000190 6e f8 52 3e b7 f6 e1 3e 94 4f 9d 3e 7d b0 eb 3e
       0.20602581 0.4413354 0.30724776 0.46033087
0001a0 a0 90 7e be 26 61 07 be a7 a4 1f 3e 3d 82 1e bd
       -0.24859858 -0.13220653 0.15590154 -0.038698424
0001b0 79 bc 8a 3e d0 17 77 bd 75 32 b8 3d ee 2e f3 bd
       0.27096918 -0.060325444 0.08993999 -0.118741855
0001c0 6f a4 8f be b6 36 80 3e 5c 13 96 3e db d8 cf 3c
       -0.2805514 0.2504174 0.29311645 0.02537196
0001d0 0e f0 af bd b0 4c bb 3c 0c 92 eb bb 6d ca 74 3e
       -0.08590709 0.022863716 -0.007189041 0.23905344
0001e0 ea 12 69 bd 29 94 2f be 83 2b cf bc 67 8f a9 3e
       -0.056902803 -0.17146362 -0.025289303 0.3311722
0001f0 48 a7 4b 3f 44 09 e3 3d e4 b5 46 be 46 d4 46 3e
       0.79552126 0.11085752 -0.19405323 0.19416913

encoder_lstm.weight_ih_l1 f4 [128, 32]
000000 19 cb 3d 3e 11 2d df bd e3 e7 87 3e 85 3d 59 be
       0.18534507 -0.108972676 0.26544103 -0.21214874
000010 40 ee 8d 3e f3 f4 4c 3e f0 f3 90 be df 33 98 3e
       0.27720833 0.20015316 -0.2831111 0.29727075
000020 b8 3c fd bb e7 f1 2e 3d 40 02 c5 3d 5e 5d 1d 3d
       -0.0077281855 0.042711165 0.0961957 0.03841912
000030 8c a5 72 bd ba d0 00 bf 34 cd c0 3d 1f 63 87 bb
       -0.05923991 -0.5031849 0.094141394 -0.004131689
000040 e7 50 7d bd 4f 28 3e be 3c 6f 98 be 6f 78 bb 3c
       -0.061844733 -0.18570064 -0.29772365 0.022884576
000050 6e c1 6a 3e 15 cb 37 3e df c5 98 3d 58 37 35 3d
       0.2292535 0.17948563 0.07459616 0.044242233
000060 13 9f d2 3e 51 82 14 3e f4 23 fa 3e 2c 3b f5 be
       0.4113699 0.14502837 0.48855555 -0.47896707
000070 bd 70 c0 3e a6 0d 50 be 65 f1 f8 bd 6d c1 da 3c
       0.37586012 -0.20317706 -0.12155417 0.02670356
000080 6b 39 23 3e 77 ec e8 bd 05 99 7c 3d cc 4c 87 bc
       0.15939872 -0.11373227 0.06166937 -0.016516112
000090 ea df 1d 3f ec b3 b3 be e0 0a e3 be f8 4b 94 3e
       0.6166979 -0.35098207 -0.44344234 0.2896421
0000a0 c8 bc 63 be 5f 6f 25 be 7d be ab 3d 82 f1 07 3e
       -0.22239983 -0.16155766 0.08385942 0.13275722
0000b0 f2 82 1c 3e 9b 92 b7 3d e3 3b 3b be 7b a6 f4 bc
       0.15284327 0.0896351 -0.18284564 -0.02986454
0000c0 8d 1a 48 be b5 b9 a6 be 51 37 9b 3d 84 fd 84 be
       -0.19541378 -0.32563558 0.0757891 -0.25974667
0000d0 a4 1d 18 3e 93 96 9f be 8c c0 a5 bd 03 a7 8b 3c
       0.14855057 -0.31169567 -0.08093366 0.01704741
0000e0 50 e7 b7 3e 49 ed cf be f4 94 6a be 69 2b 18 be
       0.35918665 -0.40610722 -0.22908384 -0.1486031
0000f0 7f fc 82 3e 55 aa a5 bd df 42 3e bf ab 7f 63 3e
       0.25583264 -0.08089129 -0.7432079 0.2221667
000100 5b df d7 bd d6 91 55 3e 9a b1 8a 3c 57 a5 19 3f
       -0.105406485 0.20856413 0.01693039 0.60017914
000110 b0 28 54 3e dd b9 34 3f dd 57 99 3e 3e 5a df 3e
       0.20718646 0.70596105 0.29949847 0.43623537
000120 26 18 7e 3d 49 e4 9b 3d 53 7b 3d bd 43 c6 98 3c
       0.06203475 0.07611901 -0.04626019 0.018649226
000130 7c bb b8 3d 17 bb 3d be 69 cb 8b 3e c8 46 84 bd
       0.09020135 -0.185284 0.27303627 -0.06458813
000140 e7 83 d8 3d 75 27 ec 3d 5e a3 28 3c 7b 73 73 3e
       0.105720334 0.11530963 0.010292856 0.23774521
000150 a3 b8 a3 3d ec 2c 96 be 95 10 12 be f2 cd 73 be
       0.07994201 -0.29331148 -0.14264138 -0.2380903
000160 80 91 56 be ae ba 57 bc 08 0d 71 be e3 0c 9b 3e
       -0.20953941 -0.0131670665 -0.23540127 0.3028327
000170 52 81 e7 3a 55 59 08 bf 71 a6 2f bd c6 99 2e 3e
       0.0017662442 -0.5326131 -0.04288334 0.17050847
000180 40 fa 29 3d c2 4f 03 3f b3 6c 90 be cb 09 c3 bd
       0.041498423 0.51293576 -0.2820793 -0.09523352
000190 63 fe 09 3f d1 6f b7 be 4c 14 a4 be 8f 2e 51 bd
       0.5390379 -0.35827497 -0.32046735 -0.051069792
0001a0 f3 b0 40 be dc 58 86 bc f1 a1 a8 3e 03 5f b1 bd
       -0.18817501 -0.016399793 0.3293605 -0.086607
0001b0 c9 d9 24 3f 3d b7 96 bd b4 96 91 3e 0f 4b 39 3d
       0.64394814 -0.07359169 0.2843529 0.045237597
0001c0 f0 74 8f be 4e 2c 30 bc 11 d1 7f 3e 77 d7 98 be
       -0.28018904 -0.010752751 0.24982096 -0.29851887
0001d0 df 5f 5e 3e cb ff 2f be da 28 fd 3d be 11 74 3e
       0.2171626 -0.17187421 0.123613074 0.23834893
0001e0 41 ee cf 3d dd 14 c3 3d e0 30 67 be 90 3c 47 3e
       0.10152865 0.09525464 -0.22577238 0.19456697
0001f0 5b 8b e7 3e 56 59 b7 be b2 ad ee 3d e6 93 39 3e
       0.45223507 -0.35810345 0.116542235 0.18122825
000200 3e 0f 3d bd ad 9b 93 3e da a2 ad be 5a d3 b5 bd
       -0.046157114 0.2882971 -0.33913308 -0.08878203
000210 3f 40 18 3e 36 02 38 be 8e 19 06 be e8 4f 9c be
       0.14868258 -0.17969593 -0.13095686 -0.30529714
000220 1c 5b 62 bf 4a ab 19 be ce e0 8f 3e 53 88 59 be
       -0.8842027 -0.15006748 0.281012 -0.2124341
000230 ff c5 37 be 4c 88 a1 3d cb ff 1d 3e b0 58 20 3e
       -0.17946623 0.07887325 0.15429609 0.15658832
000240 9d f3 13 be 07 7c 28 3e 74 22 63 3e 96 89 2d bd
       -0.144484 0.16453563 0.22181112 -0.04236754
000250 17 c6 88 be 61 20 d5 be f3 f9 35 be 22 1b f5 3d
       -0.2671363 -0.41626266 -0.1777113 0.11968066
000260 fe 41 a7 bd 31 0c ac 3e 45 a4 61 be f8 40 e3 3d
       -0.08166884 0.3360305 -0.2203532 0.11096376
000270 91 b0 87 3e b3 ef fb be 97 3a a8 3d dc 9f cc 3e
       0.26501897 -0.49206313 0.082143 0.39965713
000280 75 da d1 bd a9 91 1f 3e 75 34 5b be ff f0 5c bc
       -0.102467455 0.15582909 -0.2140673 -0.013485192
000290 2e 4b 0a bd f5 68 44 bd 85 9c 99 3d 57 49 a7 bd
       -0.033763103 -0.047951657 0.07500557 -0.08168285
0002a0 a1 13 b4 bd 0d df 26 be 7f ed 04 3b d5 d3 1a be
       -0.087928064 -0.16296025 0.002028316 -0.1511987
0002b0 67 46 4d 3d ea d2 d5 bd a0 00 b9 bd 2e 6a 6a 3e
       0.05011597 -0.10440619 -0.09033322 0.22892067
0002c0 9f 1e 9d bd d7 b0 b3 3e 54 a0 f4 3e 6d 8c c6 3e
       -0.07671856 0.35095856 0.4777857 0.3877901
0002d0 0e 3c e2 bd 02 a5 48 be 74 a0 9f 3c b6 5f 64 3d
       -0.11046611 -0.19594195 0.01948569 0.05575534
0002e0 50 2a 58 be 30 af 19 3e f7 55 c7 3d 1c af ac 3e
       -0.21109891 0.15008235 0.09733193 0.33727348
0002f0 78 21 68 be 7a c9 8d 3d d1 dd 8e 3d 02 24 19 3c
       -0.22669017 0.06923194 0.06975902 0.009346964
000300 6f 4a 8f bb 1b 47 3e 3e 81 8a 91 be cc b9 27 3f
       -0.004372887 0.18581812 -0.28425983 0.6551788
000310 9a df de be f5 da e1 3e c6 07 36 be 4e 0d 15 3e
       -0.4352997 0.44112363 -0.17776403 0.14555857
000320 b9 35 cc 3d 63 0b ac 3d ef 3a 63 3e fa a1 a5 3d
       0.09971184 0.08400609 0.2219045 0.08087535
000330 40 fb d4 3d 0e 54 02 3e 92 dc db 3d 15 9d 45 be
       0.10399485 0.12727377 0.1073543 -0.19298203
000340 32 66 25 3e 6f 16 70 be 48 86 6d be ad 9c a5 3e
       0.16152266 -0.23446058 -0.23195755 0.32346097
000350 b5 04 31 3e 76 de 1e 3d 93 25 81 bd 55 2e 64 3e
       0.17286952 0.038786374 -0.06305995 0.222833
000360 24 ed 78 3d 2e ec 52 bd 65 09 29 3e a9 45 97 be
       0.06077303 -0.05149477 0.1650749 -0.29545334
000370 42 29 8c be db 5c 92 3e 40 1d 58 3e fd f4 12 bf
       -0.27375227 0.28586468 0.21104908 -0.5740507
000380 c3 24 0b be d1 29 88 3e 98 c8 1c be 17 e3 fd 3d
       -0.13588242 0.26594403 -0.15310895 0.123968296
000390 6b d4 5f 3e d6 ad 77 3e ea 15 b1 3e 94 b6 b5 3e
       0.21858375 0.24187407 0.34587032 0.3549086
0003a0 c1 70 f8 be 44 a0 b6 be ac c0 b1 bd b2 dc 73 3d
       -0.48523524 -0.35669148 -0.08679327 0.059536643
0003b0 db bb bd 3d ff cc 08 3d c4 8a 09 be 7f 61 18 be
       0.09264346 0.033398625 -0.13431841 -0.14880942
0003c0 24 16 b0 3e 28 4c 26 be f3 f6 82 be 51 d4 d2 3c
       0.34391892 -0.16239989 -0.25579032 0.025736006
0003d0 d1 e5 3b 3d 94 01 20 3d 14 f6 21 bb f0 0a 97 be
       0.045873467 0.039064005 -0.0024713324 -0.29500532
0003e0 94 63 96 3e 98 39 60 3d ae b0 3e be 9e 43 99 bc
       0.29372847 0.054742426 -0.18622085 -0.018709
0003f0 46 e5 55 3e 5c 44 28 3e c0 d0 1a 3e a5 f6 02 3e
       0.20888242 0.16432327 0.15118694 0.127894
