W3-Design/checkpoints/epoch_2.pt (torch, 384133 bytes, 24 tensors)

encoder_cnn.0.weight f4 [32, 3, 3]
-0.18364601 -0.0211308 -0.17276354 0.24245305 -0.2280377 0.23068991 0.18468776 0.23738876
0.24349356 -0.17404357 -0.2176545 -0.24359512 -0.28358895 -0.3287315 -0.08157232 -0.11010968
0.29739252 -0.026389534 -0.11019184 0.10864887 0.38752827 0.2744879 0.32314608 -0.2374982
-0.052240733 0.18799496 0.010382188 -0.05700929 0.0879183 -0.27676523 0.061033696 0.11060095
0.007942704 0.1415676 0.23917723 -0.008767494 -0.09675572 0.1547323 0.07595488 0.41450244
-0.17448144 0.26471344 0.105582744 0.14296974 -0.2437521 0.047622483 -0.017811336 0.32368505
-0.2694127 -0.22947986 0.0066777403 0.19981878 0.27216795 -0.31585476 -0.064300165 -0.061296914
0.19825149 0.100789204 0.07158197 -0.20866518 -0.0458586 0.14551546 -0.21505909 0.11087435
-0.1104554 0.3840126 0.29747266 -0.24613453 -0.32982048 -0.10939836 -0.0530433 0.42125955
-0.04228076 0.063055985 -0.21933928 -0.0018112159 -0.1798574 0.27801338 -0.25155044 0.28853276
-0.10092428 -0.22406122 0.1398052 -0.2683666 0.303443 0.035821002 -0.2261371 0.21650763
0.22011913 0.070813105 -0.06208937 0.05153899 0.09504659 0.15077493 -0.4007054 -0.374298
-0.2945788 0.07592863 -0.11303138 -0.046341747 0.045225184 0.16663623 0.07365279 0.35043937
0.0842999 -0.16797058 -0.25196216 0.12624972 -0.1319086 0.26277393 0.19606431 -0.07375935
-0.34944692 -0.40584686 0.39970636 -0.01776616 -0.20404637 0.13374525 -0.08157331 0.2169385
-0.015434717 -0.3093009 -0.22444735 -0.21597284 -0.3634584 -0.3441668 -0.096861266 -0.1656374
-0.08582075 0.35080257 -0.023577979 -0.2158396 0.023753082 0.08818147 -0.22570953 0.48549616
0.28589377 0.032189127 -0.15765004 0.26951227 0.011012871 -0.2834756 0.041426525 -0.07942992
0.07456622 -0.24492031 -0.39834237 0.017625012 -0.17587116 -0.23828033 0.058127627 -0.27533004
0.044164438 -0.011270606 0.21131477 0.011887596 0.40960363 -0.17434373 0.3961385 0.09667162
-0.13301246 0.019913597 0.37673262 0.36163476 -0.026129996 -0.034608033 -0.3312756 -0.011813982
0.21812227 -0.14938495 0.028722273 -0.065349095 0.20038709 0.104305774 -0.28995788 -0.4413851
0.102140784 -0.31875244 0.0002779 0.14415127 -0.11584503 -0.18003866 -0.2745867 -0.1606327
0.22713792 -0.04145592 0.19370985 0.17164995 -0.17966348 0.269387 -0.10934724 -0.028608903
0.04853194 0.45140046 0.26192278 0.090607524 -0.21834971 -0.14036371 0.115427405 -0.4171799
0.02328813 0.06042904 0.15560551 -0.14685696 -0.18177217 -0.27597472 -0.35177574 0.16426355
-0.20555556 -0.24032335 -0.18360992 0.008920149 -0.10781888 0.10231127 0.20541112 0.2735729
-0.13576666 0.031534303 -0.21904837 -0.06807995 -0.08775164 -0.32061985 0.039935548 0.07755108
0.09112639 0.100075506 -0.15823425 0.268082 0.22482742 0.24362944 -0.047701225 -0.25231168
0.14933291 0.26871634 -0.39697874 -0.04109814 -0.137518 0.34688887 0.17117675 -0.18440469
0.2556113 -0.05321158 -0.13220067 -0.2402492 -0.048438586 -0.05966681 -0.1290158 -0.11287111
0.333921 -0.21171957 0.24972013 0.14756355 0.24075805 -0.09396756 -0.1274641 -0.09363488
00000000: b30d 3cbe 801a adbc ede8 30be 9d45 783e
00000010: b782 69be fa39 6c3e ca1e 3d3e 0a16 733e
00000020: 6056 793e 7a38 32be d2e0 5ebe 0071 79be
00000030: 9232 91be 7f4f a8be 630f a7bd 2f81 e1bd
00000040: d543 983e dd2e d8bc 42ac e1bd 4c83 de3d
00000050: 1b6a c63e ae89 8c3e 6773 a53e ba32 73be
00000060: 61fa 55bd c081 403e 0d1a 2a3c 9382 69bd
00000070: 820e b43d 2cb4 8dbe 78fe 793d c082 e23d
00000080: 1d22 023c 19f7 103e e0ea 743e 89a5 0fbc
00000090: dd27 c6bd 2572 1e3e 3b8e 9b3d aa39 d43e
000000a0: 43ab 32be 8588 873e c43b d83d a966 123e
000000b0: 279a 79be cb0f 433d 14e9 91bc 0cba a53e
000000c0: 76f0 89be c5fc 6abe f2d0 da3b 4b9d 4c3e
000000d0: 9959 8b3e b7b7 a1be ceaf 83bd 7912 7bbd
000000e0: 7002 4b3e 926a ce3d 9199 923d 53ac 55be
000000f0: 3ad6 3bbd 0102 153e 7338 5cbe 1712 e33d
00000100: 7136 e2bd 4d9d c43e 564e 983e b10a 7cbe
00000110: 3bde a8be 3f0c e0bd ee43 59bd 55af d73e
00000120: 972e 2dbd 7f23 813d 7a9a 60be 5266 edba
00000130: 8a2c 38be c557 8e3e 38cb 80be 91ba 933e
00000140: 64b1 cebd 4e70 65be 1829 0f3e 5967 89be
00000150: e25c 9b3e 0bb9 123d 7c90 67be 2db4 5d3e
00000160: e966 613e 7606 913d 6c51 7ebd 8c1a 533d
00000170: c9a7 c23d be64 1a3e 4229 cdbe fda3 bfbe
00000180: 08d3 96be 7880 9b3d ff7c e7bd d8d0 3dbd
00000190: 0b3e 393d b0a2 2a3e 46d7 963d ca6c b33e
000001a0: 6da5 ac3d 7b00 2cbe 2f01 81be 9b47 013e
000001b0: 0c13 07be 4e8a 863e 15c5 483e 240f 97bd
000001c0: b5ea b2be 29cb cfbe 50a6 cc3e 578a 91bc
000001d0: 88f1 50be 84f4 083e e80f a7bd 2025 5e3e
000001e0: e5e1 7cbc b05c 9ebe 87d5 65be fc27 5dbe
000001f0: 3817 babe a136 b0be 335f c6bd da9c 29be
00000200: cac2 afbd 659c b33e 9b26 c1bc 0e05 5dbe
00000210: d395 c23c 7d98 b43d 6620 67be f492 f83e
00000220: ab60 923e bfd8 033d 036f 21be 83fd 893e
00000230: 546f 343c b723 91be dcae 293d 27ac a2bd
00000240: 2db6 983d 64cc 7abe 88f3 cbbe 5462 903c
00000250: 9217 34be c2ff 73be 3c17 6e3d 0ff8 8cbe
00000260: c5e5 343d 59a8 38bc e662 583e 31c4 423c
00000270: 91b7 d13e 2a87 32be aad2 ca3e c5fb c53d
00000280: 6b34 08be d721 a33c 19e3 c03e 3128 b93e
00000290: 930e d6bc 27c1 0dbd f59c a9be 6f8f 41bc
000002a0: 725b 5f3e 5ef8 18be f94a eb3c bfd5 85bd
000002b0: 4632 4d3e 449e d53d 5c75 94be 3afd e1be
000002c0: 302f d13d 8533 a3be 1bb3 9139 649c 133e
000002d0: 2940 edbd 0e5c 38be a196 8cbe e67c 24be
000002e0: d896 683e afcd 29bd e05b 463e 01c5 2f3e
000002f0: b4f9 37be 18ed 893e 72f1 dfbd 385d eabc
00000300: 6dc9 463d f61d e73e be1a 863e 7090 b93d
00000310: 1197 5fbe 81bb 0fbe 3465 ec3d 9b98 d5be
00000320: c0c6 be3c 7184 773d 0d57 1f3e ac61 16be
00000330: 7c22 3abe 8f4c 8dbe f31b b4be b434 283e
00000340: 287d 52be 5317 76be 3d04 3cbe d125 123c
00000350: 25d0 dcbd 9288 d13d 4b57 523e bf11 8c3e
00000360: 6a06 0bbe 1d2a 013d 374e 60be 806d 8bbd
00000370: 22b7 b3bd 4928 a4be 7593 233d 1ad3 9e3d
00000380: 79a0 ba3d 63f4 cc3d 2908 22be 0b42 893e
00000390: 2939 663e ff79 793e 5c62 43bd ff2e 81be
000003a0: baea 183e 3095 893e cc40 cbbe 8656 28bd
000003b0: 85d1 0cbe 6b9b b13e f548 2f3e 95d4 3cbe
000003c0: 7cdf 823e 63f4 59bd 9d5f 07be e303 76be
000003d0: 8a67 46bd 2f65 74bd b81c 04be f828 e7bd
000003e0: b1f7 aa3e 04cd 58be a2b6 7f3e e61a 173e
000003f0: 4789 763e 1072 c0bd f385 02be a5c3 bfbd

encoder_cnn.0.bias f4 [32]
0.065173775 0.12605755 0.16548875 -0.48255363 -0.3062009 0.2028138 -0.32123303 -0.06853057
0.14983228 0.06360043 0.40022674 0.043579757 0.35710502 -0.009924418 -0.20558785 0.2688816
-0.22700736 0.16505109 0.29979548 -0.13318662 -0.11455949 0.41267717 0.30629423 -0.18096225
0.010151172 -0.079684414 -0.31296828 -0.26731387 -0.32170737 0.054608025 -0.37219945 0.15105273
00000000: d479 853d 3b15 013e e275 293e 4511 f7be
00000010: 5dc6 9cbe 6cae 4f3e a878 a4be c159 8cbd
00000020: a26d 193e f140 823d 85ea cc3e b080 323d
00000030: 78d6 b63e 079a 22bc 9f85 52be d9aa 893e
00000040: 9e74 68be 2703 293e cb7e 993e 1362 08be
00000050: 2a9e eabd 6c4a d33e 99d2 9c3e 2b4e 39be
00000060: 1a51 263c 9531 a3bd 613d a0be 5ddd 88be
00000070: d4b6 a4be aaac 5f3d ed90 bebe 91ad 1a3e

encoder_cnn.2.weight f4 [64, 32, 3]
-0.15396793 0.03619134 -0.051577225 -0.14901571 -0.10695759 -0.039174773 0.16814299 0.11758912
0.1035856 -0.005940094 -0.15233718 -0.13128418 0.06343914 0.06878119 -0.015758585 -0.10330273
0.01685561 -0.07629373 0.06594659 0.11043132 0.12372952 -0.027332118 -0.06263542 -0.009293203
0.038904957 0.008902624 -0.008606413 -0.0121191945 -0.022138717 0.03852621 -0.078527346 0.05654352
-0.03613458 0.09710812 0.09573938 0.0890592 0.0057309573 -0.0854136 -0.07020708 0.10514962
0.07226221 0.048363805 0.01955173 -0.1221621 -0.0013788437 0.20800182 0.2045287 0.13039628
-0.0076629147 -0.0052292496 -0.036777493 0.084407836 0.0061081294 0.06336604 -0.06993348 -0.08436273
-0.07318938 -0.061181452 -0.080177315 0.0030264147 -0.041941334 -0.19138695 -0.057575762 0.08151728
0.06944429 0.061294783 0.13183178 -0.06912326 0.063741125 -0.089922756 -0.1589225 -0.112551466
-0.050673395 -0.1603061 -0.111300655 -0.0021625746 0.12508011 -0.069039635 -0.17709374 -0.026290985
-0.13937463 -0.011768317 -0.103307635 -0.11056926 -0.18612753 -0.1646934 -0.06475378 -0.044284154
-0.06920301 0.033718828 -0.07657129 -0.08736462 -0.037675347 0.05302673 0.03934549 -0.027341425
-0.0028883195 0.035227533 0.08231369 0.034073986 0.04466154 0.043652993 -0.12152976 -0.09594379
-0.09627878 -0.033089563 0.043139603 -0.07800297 -0.2331118 -0.19969535 -0.116030976 0.06433595
0.14199479 0.1313971 0.123156264 0.14672492 -0.009980781 0.12652989 0.20083822 0.17048514
0.053820603 -0.1678392 0.06291943 0.099525295 0.055985164 -0.00083143194 0.06129723 0.061386812
0.08027446 -0.06307517 -0.037736394 -0.1794801 0.12120823 0.14634821 0.099194035 0.04888206
0.13503855 0.15536472 0.03524601 0.09368969 -0.035041913 -0.0106575955 0.050243013 -0.015766552
-0.042829372 0.13830927 0.02371142 -0.1723752 -0.1601064 -0.14398953 0.11712055 0.14479126
0.18018064 0.18392922 0.11788242 0.1629449 0.073621824 0.050842296 0.020985505 -0.14650153
-0.13167958 -0.13378477 0.120902024 0.070502676 0.021076402 0.11162044 -0.030268941 0.047857687
-0.030665928 -0.027791765 0.049575724 -0.083694465 -0.088989675 -0.057283077 0.024634322 0.014327432
-0.15923418 -0.055890195 0.0027952865 -0.003947586 -0.010207917 -0.035950344 0.07818169 0.1297712
0.06270363 0.055500373 0.01629488 0.052358758 -0.062463265 0.1234247 -0.06137066 -0.07299
0.07134385 0.021614278 0.06697271 0.0001745118 0.17164387 -0.09205172 -0.12212229 -0.051028118
-0.16371392 -0.006397838 -0.0055075446 -0.04395836 -0.028115489 -0.09687254 -0.1936577 -0.26807502
0.081997596 -0.09822852 -0.0584729 -0.0620916 -0.06931434 -0.097863756 0.30028757 -0.041390184
0.054924008 -0.14289677 0.018428126 0.06040299 -0.050870966 -0.10585451 -0.088847406 0.019820567
-0.022445912 -0.10245154 0.07686439 -0.049896825 -0.17662752 -0.12777282 -0.028148552 -0.22779623
-0.20458281 -0.17562108 0.25794902 0.033186115 -0.10707319 -0.07519945 -0.1813478 -0.059041552
0.14886388 0.105490945 -0.19916742 -0.05002052 -0.10892924 -0.13627158 -0.29845846 -0.3179372
-0.025163773 -0.25415665 0.0024460822 0.09219835 0.07726023 0.08389286 -0.064340785 -0.02592828
00000000: c5a9 1dbe 5f3d 143d a442 53bd 9397 18be
00000010: 950c dbbd ba75 20bd ad2d 2c3e 91d2 f03d
00000020: b024 d43d 1fa5 c2bb 47fe 1bbe 5c6f 06be
00000030: 61ec 813d 27dd 8c3d 2618 81bc 6290 d3bd
00000040: c714 8a3c e33f 9cbd 010f 873d d129 e23d
00000050: e765 fd3d 9be7 dfbc 0047 80bd 8542 18bc
00000060: ce5a 1f3d 50dc 113c ea01 0dbc 968f 46bc
00000070: 415c b5bc a9cd 1d3d f2d2 a0bd 2e9a 673d
00000080: da01 14bd 9fe0 c63d 0213 c43d ab64 b63d
00000090: c1ca bb3b 53ed aebd bbc8 8fbd af58 d73d
000000a0: 36fe 933d 2019 463d f32a a03c 2030 fabd
000000b0: 51ba b4ba 6efe 543e f96f 513e 9a86 053e
000000c0: 3019 fbbb 205a abbb ffa3 16bd 04de ac3d
000000d0: b426 c83b 0ec6 813d 4939 8fbd 5ec6 acbd
000000e0: 50e4 95bd 6799 7abd 0134 a4bd d056 463b
000000f0: adca 2bbd f1fa 43be 90d4 6bbd 88f2 a63d
00000100: cf38 8e3d 3d10 7b3d e9fe 063e 7f90 8dbd
00000110: b58a 823d 6c29 b8bd 94bc 22be 6281 e6bd
00000120: e88e 4fbd 4827 24be 99f1 e3bd fbb9 0dbb
00000130: 0015 003e a764 8dbd 1058 35be 3160 d7bc
00000140: 39b8 0ebe e6cf 40bc f492 d3bd 2372 e2bd
00000150: 3798 3ebe 63a5 28be a19d 84bd 4d63 35bd
00000160: 4fba 8dbd c11c 0a3d 69d1 9cbd 39ec b2bd
00000170: 7751 1abd 8e32 593d bd28 213d 20fb dfbc
00000180: f649 3dbb bf4a 103d 1494 a83d 2a91 0b3d
00000190: 05ef 363d 7bcd 323d 98e4 f8bd 2e7e c4bd
000001a0: cf2d c5bd ec88 07bd 27b3 303d 05c0 9fbd
000001b0: dcb4 6ebe f07c 4cbe a6a1 edbd 91c2 833d
000001c0: 1567 113e f68c 063e 5a39 fc3d 0f3f 163e
000001d0: 6e86 23bc 0d91 013e 89a8 4d3e a893 2e3e
000001e0: fe72 5c3d 0ade 2bbe e7db 803d ebd3 cb3d
000001f0: b350 653d 74f4 59ba ce12 7b3d bd70 7b3d
00000200: f066 a43d 8e2d 81bd 7a91 1abd a2c9 37be
00000210: 053c f83d 4edc 153e 3e26 cb3d 8e38 483d
00000220: 8c47 0a3e ee17 1f3e 1f5e 103d 61e0 bf3d
00000230: 1c88 0fbd 329d 2ebc 9ecb 4d3d db28 81bc
00000240: da6d 2fbd f2a0 0d3e 743e c23c 2083 30be
00000250: eff2 23be fe71 13be e6dc ef3d 2944 143e
00000260: 4681 383e f157 3c3e 576c f13d 07db 263e
00000270: 0ac7 963d 0340 503d cbe9 ab3c 7f04 16be
00000280: 03d7 06be e0fe 08be 7b9b f73d b563 903d
00000290: 6ba8 ac3c 4299 e43d 92f6 f7bc 6c06 443d
000002a0: 1d37 fbbc 8eab e3bc ea0f 4b3d 0168 abbd
000002b0: 3840 b6bd a9a1 6abd ebcd c93c 9bbd 6a3c
000002c0: 490e 23be 1eed 64bd 2031 373b c05a 81bb
000002d0: 1b3f 27bc ab40 13bd b91d a03d bee2 043e
000002e0: c36a 803d 5c54 633d d77c 853c 2376 563d
000002f0: 7bd9 7fbd 17c6 fc3d cd5f 7bbd c87b 95bd
00000300: b91c 923d 6d10 b13c fd28 893d 28fd 3639
00000310: 69c3 2f3e 9d85 bcbd 401b fabd dc02 51bd
00000320: 9fa4 27be f4a4 d1bb a278 b4bb ae0d 34bd
00000330: 7452 e6bc 1c65 c6bd 344e 46be 2141 89be
00000340: 5bee a73d 092c c9bd 4881 6fbd c353 7ebd
00000350: adf4 8dbd cb6c c8bd 4bbf 993e c188 29bd
00000360: fff7 603d 8853 12be 95f6 963c 2069 773d
00000370: 135e 50bd 40ca d8bd a1f5 b5bd be5e a23c
00000380: 7de0 b7bc 1dd2 d1bd 146b 9d3d 9d60 4cbd
00000390: d8dd 34be e1d6 02be cb97 e6bc 6a43 69be
000003a0: 287e 51be 03d6 33be e511 843e 2aee 073d
000003b0: 3049 dbbd 2b02 9abd 3db3 39be 8ed5 71bd
000003c0: c66f 183e a30b d83d 8bf2 4bbe 51e2 4cbd
000003d0: 4b16 dfbd c78a 0bbe 8ccf 98be aac8 a2be
000003e0: 4224 cebc d220 82be 734e 203b 7dd2 bc3d
000003f0: 9d3a 9e3d 05d0 ab3d 1ac5 83bd 8b67 d4bc

encoder_cnn.2.bias f4 [64]
0.05187687 0.0011506524 0.029618433 0.032110088 0.08882355 0.2114372 0.08352178 -0.018594982
-0.038113292 0.034288168 0.08765545 -0.1442909 0.030451084 -0.0930824 0.043585084 0.08000179
0.04077173 -0.07836389 -0.027346887 -0.08207746 -0.14290912 0.015134978 -0.072249286 0.06823393
-0.1397367 0.07014544 0.0017130718 0.006224212 -0.043321595 -0.114612535 0.06530142 -0.18581659
-0.060344253 0.10315265 0.1499242 -0.01165085 -0.01694012 -0.01991849 -0.01479106 0.001395038
-0.12037705 -0.040474232 0.06020917 -0.053435456 0.05367349 -0.24436668 -0.1325908 -0.14919046
0.026139844 0.12672782 -0.005822595 -0.09778026 -0.19227372 -0.01149541 -0.09681657 0.034393497
-0.043318387 0.0022965213 -0.007516363 -0.09922532 -0.1692289 0.19217877 -0.21610573 -0.09148896
00000000: d77c 543d 7dd1 963a 5ba2 f23c de85 033d
00000010: 1fe9 b53d fe82 583e 780d ab3d 8154 98bc
00000020: af1c 1cbd c071 0c3d b384 b33d fec0 13be
00000030: 8d74 f93c fca1 bebd 4686 323d fad7 a33d
00000040: 4200 273d 3f7d a0bd 9406 e0bc 3a18 a8bd
00000050: c556 12be b3f8 773c 6ff7 93bd 3bbe 8b3d
00000060: 2317 0fbe 6aa8 8f3d 2789 e03a 79f4 cb3b
00000070: fc71 31bd fab9 eabd c0bc 853d b446 3ebe
00000080: 892b 77bd b241 d33d bb85 193e 35e3 3ebc
00000090: 02c6 8abc 1a2c a3bc 3456 72bc b5d9 b63a
000000a0: 3e88 f6bd 4fc8 25bd e49d 763d 23df 5abd
000000b0: bcd8 5b3d 423b 7abe e2c5 07be 62c5 18be
000000c0: 3a23 d63c f0c4 013e 78cb bebb 0441 c8bd
000000d0: 67e3 44be 3f57 3cbc c447 c6bd 32e0 0c3d
000000e0: 9f6e 31bd 3c81 163b d34b f6bb a536 cbbd
000000f0: 574a 2dbe 83ca 443e d24a 5dbe 905e bbbd

encoder_lstm.weight_ih_l0 f4 [128, 64]
0.09686127 -0.08946435 0.15940171 0.03273072 0.3055917 -0.034937758 -0.00112911 0.17971364
0.21853766 0.054333992 0.04128635 0.0718709 0.14949776 -0.1430401 -0.16227867 0.115001775
0.18688852 0.046866372 -0.10054819 -0.010548843 -0.01272542 0.08454563 0.20239222 -0.1409318
-0.046786282 0.011031921 -0.32621342 0.1983005 -0.07002301 -0.10007091 0.11203614 0.10164257
-0.0044728047 0.23638001 -0.1620669 -0.068230316 -0.025642704 -0.009246065 0.07423846 -0.1267303
0.03414494 0.2250254 0.2083578 -0.08977386 -0.07907505 -0.12783353 -0.054298908 0.229782
0.24576639 0.089774884 0.06873983 -0.08507809 0.21761301 -0.06641229 -0.12927327 0.106126785
-0.0017946826 -0.14667112 -0.007955728 -0.042658787 0.047882844 0.36193842 -0.04010688 0.019186629
-0.08220357 0.027310237 -0.14289476 -0.088620715 -0.14009088 -0.16928335 0.08797899 0.081144474
0.09727303 0.16297948 -0.04144409 -0.14640024 -0.06187608 -0.025916956 0.060258754 0.2023512
0.11669569 0.10649307 -0.20038678 -0.047076132 0.2068002 -0.1253204 0.007959324 8.374627e-06
0.18873954 -0.24875298 0.103084475 0.10316217 0.018713402 -0.056806516 -0.10434929 0.08583315
0.0073661706 0.003620458 -0.25229558 -0.0316425 -0.16237965 -0.16413394 -0.009480106 0.0024865612
-0.055322006 -0.0793808 0.06257196 0.013756434 0.2525094 -0.13146822 0.36367548 -0.0314255
-0.06430411 -0.022145048 -0.058328748 0.02222773 -0.16599251 -0.056138676 0.16123804 0.14732769
0.0576288 -0.057006758 0.007266612 -0.12293094 0.1482986 -0.2499955 -0.2762998 -0.19748384
0.07892534 0.039114635 0.22641648 -0.11753106 0.16074018 0.006736038 0.21464336 0.04079301
0.16345783 0.1404773 0.11110528 0.05294833 -0.13020793 -0.12133311 0.0999963 0.024912057
0.07602529 0.080911376 -0.0914409 0.20139892 0.11486839 -0.025327677 0.13827153 -0.0818405
0.21885577 -0.14463983 0.07137369 0.008141513 -0.030331975 0.12460541 -0.20886002 0.026302299
-0.064662725 0.05856532 -0.04843533 0.079626754 -0.0012161498 -0.10406497 0.045910172 0.02240276
0.12392342 0.09057116 -0.08774387 0.11517635 0.2885675 -0.00840483 -0.05554425 -0.11627729
0.10925039 0.19504532 0.23248918 0.009964865 -0.11898659 -0.051926468 0.10454419 0.014829456
1.8716231e-05 -0.02019207 0.072625585 -0.029733054 0.04326074 0.0027517271 0.08841707 -0.111618415
-0.087963566 0.177886 0.17555004 0.18238983 0.004276688 0.14075936 0.04309219 0.07774542
0.17984182 0.03822968 0.0072179893 0.22123304 0.14268821 -0.17202324 0.05313003 -0.09844571
0.11785723 -0.14694577 0.0054061343 0.10564734 0.0459086 0.105600394 0.18256834 0.14817585
0.16670612 -0.06863507 0.032936007 0.15084113 0.043698024 0.09884635 -0.12570928 0.2034419
0.15665063 -0.042164885 -0.031841047 0.007192363 -0.03211882 0.08425 0.10456285 0.07454513
0.16584328 0.26929063 0.031609327 0.33577573 0.09319234 0.18198028 0.19910689 0.06844023
0.19477835 0.23353855 0.08010417 0.0058659506 0.15123777 0.061730836 -0.03783761 -0.1252055
0.07384184 0.18772875 0.22197872 -0.076485656 0.10395808 -0.048862837 0.08024399 -0.09131255
00000000: 345f c63d 1639 b7bd 343a 233e a610 063d
00000010: 8476 9c3e e51a 0fbd a5fe 93ba da06 383e
00000020: 56c8 5f3e 528d 5e3d e01b 293d 0d31 933d
00000030: f115 193e 1b79 12be 612c 26be 0d86 eb3d
00000040: b45f 3f3e f4f6 3f3d 36ec cdbd 0ed5 2cbc
00000050: 487e 50bc 4226 ad3d e83f 4f3e 6d50 10be
00000060: f9a2 3fbd 3bbf 343c 7205 a7be 490f 4b3e
00000070: 3968 8fbd faf1 ccbd 3473 e53d fb29 d03d
00000080: 9b90 92bb 9a0d 723e def4 25be 56bc 8bbd
00000090: a610 d2bc cf7c 17bc 550a 983d 96c5 01be
000000a0: 91db 0b3d 0f6d 663e bf5b 553e 5cdb b7bd
000000b0: 1af2 a1bd cbe6 02be 8868 5ebd f94b 6b3e
000000c0: 2faa 7b3e e5db b73d 78c7 8c3d 6c3d aebd
000000d0: f2d5 5e3e 2b03 88bd 3660 04be 0059 d93d
000000e0: 8e3b ebba f430 16be be58 02bc fbba 2ebd
000000f0: cd20 443d fe4f b93e 1d47 24bd 472d 9d3c
00000100: 585a a8bd b8b9 df3c 0153 12be c77e b5bd
00000110: fc73 0fbe 9d58 2dbe 542e b43d 132f a63d
00000120: 1537 c73d 18e4 263e 47c1 29bd f2e9 15be
00000130: c671 7dbd cc4f d4bc e2d1 763d 2735 4f3e
00000140: 26fe ee3d 0a19 da3d 3132 4dbe e7d2 40bd
00000150: 6ec3 533e fe53 00be d367 023c c080 0c37
00000160: f044 413e 1ab9 7ebe f41d d33d b046 d33d
00000170: d94c 993c f3ad 68bd 15b5 d5bd 4ac9 af3d
00000180: eb5f f13b 3545 6d3b e32c 81be 919b 01bd
00000190: da46 26be ba12 28be 7252 1bbc 93f5 223b
000001a0: 5499 62bd 6792 a2bd ba25 803d ab62 613c
000001b0: e948 813e 9b9f 06be ac33 ba3e 06b8 00bd
000001c0: e0b1 83bd 8869 b5bc 20ea 6ebd ee16 b63c
000001d0: f1f9 29be abf1 65bd 961b 253e 12dd 163e
000001e0: 2d0c 6c3d eb7f 69bd c21c ee3b 37c3 fbbd
000001f0: 97db 173e d2fe 7fbe 2b77 8dbe 3439 4abe
00000200: 9ca3 a13d ab36 203d b9d9 673e 20b4 f0bd
00000210: 1399 243e fbb9 dc3b 78cb 5b3e 9216 273d
00000220: 7d61 273e 48d9 0f3e 2a8b e33d 59e0 583d
00000230: 3a55 05be 7e7d f8bd dcca cc3d 5f14 cc3c
00000240: 26b3 9b3d ddb4 a53d 5e45 bbbd 853b 4e3e
00000250: 1e40 eb3d fd7b cfbc 0d97 0d3e fe9b a7bd
00000260: ba1b 603e 771c 14be 5f2c 923d fb63 053c
00000270: c37a f8bc 1f31 ff3d 67df 55be eb77 d73c
00000280: e46d 84bd 30e2 6f3d 2064 46bd 5a13 a33d
00000290: 3767 9fba 0420 d5bd 4e0c 3c3d fe85 b73c
000002a0: 90cb fd3d 5f7d b93d 0fb3 b3bd 94e1 eb3d
000002b0: 1fbf 933e 69b4 09bc 5e82 63bd ca22 eebd
000002c0: abbe df3d f6b9 473e a511 6e3e ac43 233c
000002d0: 3eaf f3bd d9b0 54bd 441b d63d 3ff7 723c
000002e0: cd00 9d37 d769 a5bc b9bc 943d bc92 f3bc
000002f0: 2c32 313d 5256 343b 0214 b53d 3298 e4bd
00000300: 3e26 b4bd bf27 363e 64c3 333e 66c4 3a3e
00000310: 7623 8c3b 3923 103e 7081 303d fe38 9f3d
00000320: 7428 383e ba96 1c3d e284 ec3b ea8a 623e
00000330: dc1c 123e dc26 30be e09e 593d e89d c9bd
00000340: 225f f13d f478 16be f125 b13b a25d d83d
00000350: a80a 3c3d 0545 d83d 32f3 3a3e 69bb 173e
00000360: 02b5 2a3e 8b90 8cbd e8e7 063d 1976 1a3e
00000370: b3fc 323d f56f ca3d efb9 00be 1353 503e
00000380: 0669 203e 16b5 2cbd c26b 02bd eaad eb3b
00000390: 068f 03bd 448b ac3d 0c25 d63d 1eab 983d
000003a0: d2d2 293e 76e0 893e c878 013d ccea ab3e
000003b0: a0db be3d 0a59 3a3e ade2 4b3e 642a 8c3d
000003c0: fa73 473e bb24 6f3e a80d a43d 2937 c03b
000003d0: 13de 1a3e 79d9 7c3d 9cfb 1abd df35 00be
000003e0: 643a 973d f73b 403e 644e 633e 83a4 9cbd
000003f0: f9e7 d43d 6624 48bd f656 a43d 1302 bbbd

encoder_lstm.weight_hh_l0 f4 [128, 32]
0.0063683633 0.03008791 -0.17480065 0.047567245 0.05718386 0.0828398 -0.1245112 0.07344709
-0.0037368725 0.17149776 0.006647258 -0.014423691 -0.06749454 -0.05166573 -0.029571807 -0.18950969
-0.14761232 -0.011682765 0.13645634 -0.06299936 0.21352302 -0.047014356 0.20193167 -0.16135484
-0.1937158 -0.19553873 -0.13024391 -0.24521661 0.055574924 0.11065464 0.1687242 -0.17681351
-0.07518447 -0.1264885 -0.18380067 0.17059752 -0.022035569 0.04573475 0.12420796 -0.13153562
0.08795378 -0.0021682782 -0.042993665 0.120363794 0.16566071 0.057113968 0.19357246 0.15200892
0.06137428 0.06385209 -0.13196805 -0.0018995143 -0.11268729 0.1072601 -0.07788056 -0.14052217
-0.043221984 -0.054836627 0.10348126 0.011881419 -0.00047975927 -0.06484283 0.03497472 0.036799144
-0.13804197 0.02116673 -0.013186156 -0.108033225 0.043996274 -0.0806714 0.043067362 0.18211809
0.008634615 0.034801204 -0.05736324 0.10111165 0.08758568 0.08472659 -0.08086419 -0.11350491
-0.004197517 0.057226613 -0.019838335 -0.11247033 0.025091743 -0.018083928 -0.049593125 -0.10756827
0.10027553 0.043792013 -0.19349113 0.055506095 0.08483083 0.0016622769 -0.09802935 -0.1945128
0.10239194 -0.124892555 -0.07568209 -0.015071151 -0.07781393 -0.0989578 -0.14757816 -0.0007285649
0.023160161 -0.023730729 0.0010371357 -0.1396619 -0.120533295 0.14134122 -0.03000973 -0.045608602
0.07328753 -0.0060234354 0.14592977 -0.03066988 0.25675568 0.1782368 0.14529032 -0.19203004
0.06747264 -0.035005294 -0.05954929 -0.03170899 -0.014667936 -0.14578171 0.08250897 0.14603807
0.23129253 0.064825624 0.052138034 -0.112906426 0.071735665 -0.15184556 0.052625455 0.04802334
0.13503103 0.073941216 -0.045778297 0.109276846 -0.32014972 0.118118376 0.12684008 -0.01606899
0.18033656 -0.1047962 0.010062484 0.022194955 0.20860757 0.13916883 0.042760056 -0.17413041
-0.018533336 0.09983235 0.070526905 -0.078787684 0.32940274 -0.016795788 0.006345149 -0.054100905
-0.1685387 -0.15626058 0.19770335 0.049480926 0.1457211 0.06165031 0.030867422 0.17325121
-0.0032754124 0.01780842 -0.0047249277 -0.12850913 0.12010323 0.021865575 0.1998795 0.053164896
0.08793432 -0.06847655 -0.14969145 0.15688567 0.018675413 0.10401375 0.08744093 0.11591008
-0.12819937 -0.016003128 0.059476353 -0.06562684 -0.019703409 0.06001553 0.07573443 0.054434426
-0.056703936 -0.034570303 0.10852304 -0.04867308 -0.14556797 0.014721614 0.12498303 -0.1325259
0.06587186 0.1067232 0.16643992 -0.031879686 0.0718397 -0.1597862 -0.04775884 -0.14902228
-0.23053373 -0.19653468 -0.02562254 -0.092369564 -0.10839662 0.12068107 0.10581427 -0.2655115
0.009723789 -0.18987511 0.07232107 -0.109788656 -0.14812197 -0.13549277 0.1561054 0.095512204
-0.08186181 -0.0815116 -0.2055859 0.03362444 0.032469492 0.057983015 0.040022504 0.0953309
-0.15975384 -0.0805281 0.017881613 0.05484349 0.012179465 0.010551999 -0.03146119 0.0074372985
-0.019907905 0.059083324 -0.1733017 0.14238931 0.14126961 -0.19374825 0.11990093 0.042594407
-0.006222957 -0.16464919 0.12628838 -0.058279052 0.080328085 -0.30164674 0.09368867 0.19861981
00000000: b4ad d03b ec7a f63c f1fe 32be dfd5 423d
00000010: a039 6a3d eaa7 a93d baff febd 6e6b 963d
00000020: 51e6 74bb 1c9d 2f3e 3ed1 d93b 5851 6cbc
00000030: 943a 8abd 729f 53bd 9340 f2bc d40e 42be
00000040: af27 17be 1169 3fbc 36bb 0b3e cf05 81bd
00000050: c7a5 5a3e 2092 40bd 2dc7 4e3e 343a 25be
00000060: 6f5d 46be 4e3b 48be a95e 05be 101a 7bbe
00000070: 88a2 633d e69e e23d 09c6 2c3e 9a0e 35be
00000080: 51fa 99bd 3486 01be 3e36 3cbe 1eb1 2e3e
00000090: f083 b4bc 5c54 3b3d be60 fe3d 46b1 06be
000000a0: 1d21 b43d ac19 0ebb 201a 30bd 4b81 f63d
000000b0: f6a2 293e 56f0 693d dc37 463e 3aa8 1b3e
000000c0: 9963 7b3d e2c4 823d a222 07be 20f9 f8ba
000000d0: 98c8 e6bd 2fab db3d d87f 9fbd 0be5 0fbe
000000e0: 8909 31bd 5f9c 60bd fced d33d 49aa 423c
000000f0: 3388 fbb9 51cc 84bd a741 0f3d b3ba 163d
00000100: e05a 0dbe da65 ad3c bf0a 58bc 8640 ddbd
00000110: 7035 343d 0c37 a5bd 6767 303d 2a7d 3a3e
00000120: 3378 0d3c b58b 0e3d b7f5 6abd a013 cf3d
00000130: 1f60 b33d 2285 ad3d 209c a5bd 4375 e8bd
00000140: 538b 89bb 7466 6a3d 0184 a2bc d856 e6bd
00000150: 338d cd3c bf24 94bc 2922 4bbd c14c dcbd
00000160: 425d cd3d 415f 333d 8a22 46be 5c5a 633d
00000170: c9bb ad3d c2e0 d93a 9dc3 c8bd 5d2e 47be
00000180: deb2 d13d abc7 ffbd 36ff 9abd fdec 76bc
00000190: e95c 9fbd 63aa cabd bb1e 17be 2afd 3eba
000001a0: 61ba bd3c f266 c2bc 80f0 873a 8703 0fbe
000001b0: 29da f6bd c1bb 103e f7d6 f5bc 16d0 3abd
000001c0: c617 963d 3d60 c5bb 9d6e 153e 663f fbbc
000001d0: 7b75 833e b583 363e fcc6 143e 86a3 44be
000001e0: 182f 8a3d b661 0fbd f5e9 73bd 49e1 01bd
000001f0: c851 70bc cd47 15be 76fa a83d 018b 153e
00000200: f3d7 6c3e 4cc3 843d b18e 553d 7c3b e7bd
00000210: 26ea 923d 677d 1bbe ca8d 573d 1fb4 443d
00000220: 9345 0a3e 7e6e 973d 0682 3bbd 8acc df3d
00000230: aaea a3be 0ce8 f13d 5ee2 013e 1da3 83bc
00000240: 26aa 383e 649f d6bd 1edd 243c 32d2 b53c
00000250: 399d 553e 4682 0e3e 2b25 2f3d 3e4f 32be
00000260: 39d3 97bc e774 cc3d 6970 903d 705b a1bd
00000270: 7aa7 a83e 5297 89bc f8ea cf3b e998 5dbd
00000280: 6995 2cbe c602 20be bf72 4a3e 83ac 4a3d
00000290: e937 153e 0985 7c3d addd fc3c c468 313e
000002a0: 4da8 56bb f7e2 913c 91d3 9abb e697 03be
000002b0: aff8 f53d 6f1f b33c 36ad 4c3e 6fc3 593d
000002c0: e916 b43d 6f3d 8cbd b748 19be a3a6 203e
000002d0: 2efd 983c 2905 d53d 3b14 b33d 4462 ed3d
000002e0: b246 03be fe18 83bc 7a9d 733d 5d67 86bd
000002f0: 0b69 a1bc d8d2 753d a71a 9b3d a2f6 5e3d
00000300: 6342 68bd 9799 0dbd 5441 de3d 6c5d 47bd
00000310: c50f 15be ed32 713c 1af7 ff3d dfb4 07be
00000320: d3e7 863d b191 da3d 3a6f 2a3e 4694 02bd
00000330: b120 933d fe9e 23be c69e 43bd 4c99 18be
00000340: 0911 6cbe 6340 49be 5ce6 d1bc 412c bdbd
00000350: 0cff ddbd a327 f73d 27b5 d83d 20f1 87be
00000360: 8750 1f3c 9f6e 42be 121d 943d e0d8 e0bd
00000370: 49ad 17be 9ebe 0abe 18da 1f3e e79b c33d
00000380: 2aa7 a7bd 8eef a6bd 1c85 52be c8b9 093d
00000390: bbfe 043d 997f 6d3d a3ee 233d d93c c33d
000003a0: 8396 23be ebeb a4bd 767c 923c 91a3 603d
000003b0: 618c 473c 4be2 2c3c 73dd 00bd 95b4 f33b
000003c0: e715 a3bc 5b01 723d 0076 31be 81ce 113e
000003d0: fba8 103e f165 46be 9e8e f53d 7977 2e3d
000003e0: f2e9 cbbb cc99 28be be51 013e 04b6 6ebd
000003f0: 0d83 a43d 7171 9abe d8df bf3d fe62 4b3e

encoder_lstm.bias_ih_l0 f4 [128]
-0.054327603 0.06175133 0.059599236 -0.0023787592 0.16754605 0.17890647 -0.12635279 0.07155093
0.015518041 0.2063417 -0.096850224 -0.0007431843 -0.03443542 -0.12777902 -0.0058328677 0.037775956
0.004752101 0.07439814 -0.32235914 0.0044213138 -0.07347269 0.2669816 0.019564023 0.22459131
0.100752905 -0.113720894 0.17713936 -0.19210094 0.14652996 0.2190462 0.1282904 -0.13670388
0.09052179 -0.026558846 -0.13768409 0.14527465 0.13189828 0.17050564 0.13502814 -0.0189733
-0.10368691 0.01769313 0.07847898 0.071514465 -0.078495175 -0.1487377 -0.25410944 0.051792894
0.27576914 0.08924066 -0.01603771 0.13104127 0.028918931 0.07898612 -0.08759111 -0.1490539
0.042088576 -0.018551616 0.097005084 0.0076664872 -0.05143498 -0.021189934 -0.011678249 0.10728447
0.080438964 0.11389531 -0.024476536 0.0029824148 0.16991225 -0.26965925 -0.14586823 -0.21237525
-0.09324637 0.22554094 0.032108553 -0.049468834 -0.25538796 -0.119069345 0.07143429 -0.15088125
0.14790665 0.036296625 0.13214745 0.050872296 -0.08028898 0.15896006 0.008640751 -0.010084174
-0.08693108 0.13489035 -0.04671948 -0.11935603 0.14004906 0.12921077 0.12604323 -0.084439136
0.0643053 -0.21878615 -0.21515094 -0.083079115 0.102066524 -0.16092442 -0.01325476 0.14064391
0.050051555 0.34052345 0.047836345 0.06067783 -0.16203275 -0.09837474 0.027159993 -0.06254198
0.18893738 0.01738288 -0.03488846 -0.11516979 -0.0056491275 0.18488717 -0.16477159 0.28444037
-0.2394849 0.012215022 -0.096528105 0.049252044 0.30650494 0.009410298 -0.19781032 0.14987236
00000000: 9f86 5ebd f6ee 7c3d 541e 743d f5e4 1bbb
00000010: 3191 2b3e 4233 373e a062 01be 4b89 923d
00000020: 623f 7e3c 3d4b 533e 6959 c6bd 41d2 42ba
00000030: 280c 0dbd 81d8 02be a421 bfbb f6ba 1a3d
00000040: 83b7 9b3b 0d5e 983d 420c a5be abe0 903b
00000050: da78 96bd d0b1 883e bb44 a03c 44fb 653e
00000060: 8a57 ce3d 80e6 e8bd 0564 353e 1cb6 44be
00000070: f30b 163e a64d 603e 8f5e 033e 1afc 0bbe
00000080: 7d63 b93d f091 d9bc 0ffd 0cbe e1c2 143e
00000090: 5810 073e 0899 2e3e d144 0a3e e56d 9bbc
000000a0: cd59 d4bd 2ff1 903c 96b9 a03d 2d76 923d
000000b0: 14c2 a0bd b24e 18be a21a 82be c924 543d
000000c0: 9d31 8d3e cfc3 b63d 8461 83bc af2f 063e
000000d0: 65e7 ec3c 7ac3 a13d f862 b3bd 96a1 18be
000000e0: 1265 2c3d 8ff9 97bc 9aaa c63d 2837 fb3b
000000f0: 7cad 52bd 8396 adbc 2056 3fbc f6b7 db3d
00000100: 2fbd a43d f241 e93d 0483 c8bc 9e74 433b
00000110: 7afd 2d3e c710 8abe 7b5e 15be e678 59be
00000120: f4f7 bebd 34f4 663e 4284 033d d59f 4abd
00000130: 36c2 82be a1da f3bd 244c 923d 9d80 1abe
00000140: d774 173e c5ab 143d a951 073e 785f 503d
00000150: 8c6e a4bd 6dc6 223e f091 0d3c 1738 25bc
00000160: ec08 b2bd b220 0a3e ed5c 3fbd ef70 f4bd
00000170: 0569 0f3e d44f 043e 7a11 013e 6dee acbd
00000180: 7fb2 833d 7a09 60be 8750 5cbe 6225 aabd
00000190: 4108 d13d 5fc9 24be 7e2a 59bc f504 103e
000001a0: dc02 4d3d 1759 ae3e 0bf0 433d 5189 783d
000001b0: eaeb 25be b278 c9bd a27e de3c 0216 80bd
000001c0: cd78 413e 8b66 8e3c 34e7 0ebd 24de ebbd
000001d0: 511c b9bb 1053 3d3e e2b9 28be 2ba2 913e
000001e0: 883b 75be 8421 483c 87b0 c5bd 83bc 493d
000001f0: 37ee 9c3e a72d 1a3c ca8e 4abe 2478 193e

encoder_lstm.bias_hh_l0 f4 [128]
0.1880687 -0.10765594 -0.025463091 -0.024665691 0.21554857 -0.09539423 0.116880246 -0.06013442
0.27978176 0.13442947 -0.17354551 -0.19409902 -0.11097091 0.04024525 -0.096395604 0.06404464
-0.12843034 0.038944434 -0.37668133 -0.080942415 -0.20181786 0.23668976 0.021815619 0.124267146
0.015820961 0.14521018 -0.003655153 -0.1800274 0.30551276 -0.004418639 -0.10700154 0.1274361
-0.015042409 0.119779356 -0.16370565 0.017305331 -0.042304706 0.13699582 0.0033819152 -0.05127763
0.0807817 0.17916809 0.08343497 0.04426158 0.040834792 -0.12807493 0.04982717 0.015129561
0.052780814 -0.17978196 -0.021432085 -0.0066525773 -0.10416527 0.17725168 -0.13410823 -0.15253462
0.13606818 -0.11861933 -0.055095803 -0.19935599 0.26605782 0.07943003 0.18191747 -0.035793584
0.29992113 -0.043226138 0.18345183 -0.26822284 -0.07015349 -0.18488969 -0.14349557 -0.14720933
0.16583745 0.12733564 0.16056117 0.019845197 -0.23847224 0.10510987 0.15377203 -0.085951835
0.18464063 -0.19168046 0.19760601 -0.15889709 0.004173502 -0.042113286 -0.065317966 0.23108265
-0.16100398 -0.029717661 -0.1046584 -0.064352795 0.13071372 -0.12511571 -0.19838366 0.10708383
0.050721563 -0.013983501 -0.036826942 0.11395884 0.07496671 -0.009610267 0.06552064 0.03669348
-0.08807553 0.18578993 -0.15938333 0.25073028 0.14807546 -0.121882446 0.11778836 0.041017573
-0.08894347 0.22171572 -0.0948964 0.06625457 0.07381896 0.24711013 -0.051182788 0.12959464
-0.13108732 0.041743994 0.027196048 0.17112246 0.27422944 -0.0043819733 -0.065381244 0.15897799
00000000: 1595 403e b87a dcbd f997 d0bc b40f cabc
00000010: c4b8 5c3e 0d5e c3bd e95e ef3d 824f 76bd
00000020: 8e3f 8f3e e1a7 093e eab5 31be e5c1 46be
00000030: b744 e3bd 34d8 243d 0f6b c5bd d629 833d
00000040: 3e83 03be 3384 1f3d 60dc c0be 23c5 a5bd
00000050: 57a9 4ebe cd5e 723e abb6 b23c c67f fe3d
00000060: f69a 813c fab1 143e 4b8b 6fbb 1a59 38be
00000070: 2b6c 9c3e 3bca 90bb a023 dbbd 9c7e 023e
00000080: 7074 76bc e14e f53d 74a2 27be e9c3 8d3c
00000090: b347 2dbd a248 0c3e 1fa3 5d3b 7e08 52bd
000000a0: e070 a53d d777 373e f4df aa3d a14b 353d
000000b0: 6242 273d 1326 03be 9317 4c3d fae1 773c
000000c0: b230 583d c318 38be 5792 afbc ddfd d9bb
000000d0: 9a54 d5bd 7781 353e ab53 09be 0932 1cbe
000000e0: 7555 0b3e b1ee f2bd 23ac 61bd fa23 4cbe
000000f0: bb38 883e 36ac a23d 9348 3a3e 4b9c 12bd
00000100: 438f 993e e40d 31bd ccda 3b3e 8154 89be
00000110: a2ac 8fbd b953 3dbe 81f0 12be 0bbe 16be
00000120: 4bd1 293e 4664 023e 266a 243e 6592 a23c
00000130: 1132 74be d843 d73d 6a76 1d3e 8407 b0bd
00000140: 6f12 3d3e e247 44be 3b59 4a3e ebb5 22be
00000150: dfc1 883b fb7e 2cbd 6dc5 85bd eea0 6c3e
00000160: 3ade 24be 7472 f3bc 2557 d6bd 66cb 83bd
00000170: d1d9 053e 551e 00be 1625 4bbe c44e db3d
00000180: 6ac1 4f3d 0e1b 65bc d9d7 16bd 4163 e93d
00000190: 2588 993d 6274 1dbc af2f 863d e74b 163d
000001a0: f260 b4bd b73f 3e3e 6235 23be b85f 803e
000001b0: 18a1 173e 819d f9bd 063b f13d 0b02 283d
000001c0: fe27 b6bd 7209 633e 0b59 c2bd 7ab0 873d
000001d0: 652e 973d 700a 7d3e 0ba5 51bd 75b4 043e
000001e0: c13b 06be c0fb 2a3d 3fca de3c ba3a 2f3e
000001f0: cd67 8c3e a896 8fbb 9ae6 85bd 20cb 223e

encoder_lstm.weight_ih_l1 f4 [128, 32]
-0.11373584 -0.07901506 0.1616594 -0.0036447041 0.21405101 0.1292596 -0.19402401 0.046273656
0.04031845 -0.057878766 0.2528013 -0.16132435 -0.19755915 0.07677306 0.054388687 0.18729456
-0.0010254679 -0.0035207847 -0.11556481 0.11888438 -0.0041538286 0.062086053 -0.19354863 -0.06285665
0.049325693 0.02798468 0.3054409 -0.22288612 0.27881688 -0.2616731 0.021324296 -0.064407885
0.21847038 -0.016041258 -0.12139623 0.1691622 0.0439102 0.013997065 -0.13974963 -0.07823684
-0.06647751 -0.020245291 0.012289269 -0.03758409 0.041557956 -0.12487742 -0.124236375 0.08726414
-0.048923895 -0.040646948 0.026115086 -0.0067452793 0.08449014 -0.13597801 -0.049793284 0.09740656
-0.16322085 -0.0022118818 0.058010496 -0.0054946854 0.008665219 0.056519296 -0.17336708 -0.1670713
0.21401401 0.027951494 -0.28565 -0.0470386 0.23900636 0.22798006 0.09813819 0.04155579
-0.026000932 0.24568218 -0.0037863255 -0.040336423 -0.22270624 -0.07625564 0.2240915 -0.10462836
0.08646451 -0.015783066 0.13771002 0.04756739 0.20857532 -0.20447989 -0.08815419 -0.15071069
-0.10100839 0.019018756 -0.055261884 0.06151933 0.004312343 -0.25362378 0.06428337 -0.016435966
0.07858111 0.22015178 -0.15352827 0.19809622 0.17237502 0.25604007 0.06311707 0.028590502
-0.10166622 -0.053670146 -0.15424474 -0.060613196 0.3293149 0.03932927 -0.12799996 0.14901786
-0.09566382 -0.007997441 0.012974535 -0.11292711 -0.0064979536 -0.12223414 0.049643837 0.21789563
0.049158327 -0.0488526 0.008065023 0.18300049 0.21643347 -0.32010537 0.15485527 0.1969032
0.111617014 -0.033635277 -0.2649208 -0.026254483 0.24370782 0.022369768 -0.26210195 -0.021061506
-0.32896444 -0.083155625 0.02413371 -0.051689778 -0.032289743 0.24311805 0.27327278 -0.0116495965
0.0014176898 -0.06538184 -0.13541315 0.34757444 0.12416416 -0.12775181 -0.142805 0.16127315
-0.0010274212 0.035787664 0.11897644 -0.1348817 0.020727023 -0.17678651 0.12900963 0.15583146
0.01589364 0.073795155 -0.0035732167 0.08567017 0.09875269 -0.02659065 0.070072114 0.12959579
-0.106921405 -0.3410922 -0.15458955 -0.004805199 0.17365637 -0.221174 -0.18487872 0.04706669
-0.12583604 0.0037905702 -0.014008628 0.10311579 -0.19546331 -0.06703227 0.20236458 0.07612535
0.09583377 0.0017563362 0.027744455 0.2879396 -0.0790002 0.12774158 -0.052466437 0.13257425
0.14112678 0.22542675 -0.19076002 0.13568653 -0.05675181 0.058137983 -0.18770762 0.02736795
0.055605624 0.16272834 0.2078526 -0.21117912 0.11483319 -0.045080744 -0.0078070047 -0.015105728
0.17989336 -0.12145156 -0.047960356 0.032453682 -0.097363606 0.017064048 -0.19745672 0.14331545
-0.1951329 -0.10326713 0.060398616 -0.26673034 0.11297593 0.021763997 -0.034726568 -0.10838027
0.08354524 0.14983892 -0.032645784 0.23284331 0.16498064 0.1204887 0.068916254 0.15416652
-0.13287027 0.1512748 -0.0076095657 -0.12443297 0.11793101 0.05791386 0.10176273 -0.030435992
0.12471875 -0.089105494 0.02245685 0.010397102 0.078194335 -0.034956485 -0.07597014 -0.07615816
0.10705987 -0.0051861927 -0.16854152 -0.043606542 0.23294736 -0.11972155 0.12803954 0.2149315
00000000: 56ee e8bd a6d2 a1bd 0b8a 253e fddb 6ebb
00000010: 3030 5b3e a15c 043e 3bae 46be 7289 3d3d
00000020: f624 253d 4912 6dbd 2c6f 813e 3632 25be
00000030: f24c 4abe 323b 9d3d acc6 5e3d 25ca 3f3e
00000040: fe68 86ba f7bc 66bb 3ead ecbd a779 f33d
00000050: d71c 88bb f24d 7e3d 9d31 46be fdba 80bd
00000060: bd09 4a3d 2140 e53c c062 9c3e 423c 64be
00000070: 16c1 8e3e 04fa 85be 4ab0 ae3c 48e8 83bd
00000080: b3b6 5f3e f568 83bc 969e f8bd db38 2d3e
00000090: 2fdb 333d f253 653c 871a 0fbe a33a a0bd
000000a0: 5c25 88bd 74d9 a5bc ee58 493c c6f1 19bd
000000b0: ad38 2a3d bcbf ffbd a46f febd 8bb7 b23d
000000c0: 6c64 48bd 6a7d 26bd 4eef d53c 8107 ddbb
000000d0: 2b09 ad3d d23d 0bbe 0bf4 4bbd 177d c73d
000000e0: 5e23 27be 38f5 10bb 6a9c 6d3d c30c b4bb
000000f0: 90f8 0d3c c780 673d 2487 31be bd14 2bbe
00000100: 7d26 5b3e 88fa e43c b840 92be 8cab 40bd
00000110: 15be 743e 9b73 693e adfc c83d 6736 2a3d
00000120: e8ff d4bc 1c94 7b3e 0024 78bb ce37 25bd
00000130: 1b0d 64be eb2b 9cbd 3e78 653e 6547 d6bd
00000140: 4e14 b13d 7d4b 81bc db03 0d3e 06d6 423d
00000150: c594 553e 2d63 51be 2f8a b4bd e753 1abe
00000160: 7ddd cebd 39cd 9b3c 495a 62bd b1fb 7b3d
00000170: 8e4e 8d3b fada 81be 00a7 833d b8a4 86bc
00000180: 22ef a03d 786f 613e 8436 1dbe bcd9 4a3e
00000190: 1483 303e af17 833e 8643 813d a136 ea3c
000001a0: 6136 d0bd 3ad5 5bbd 55f2 1dbe 8b45 78bd
000001b0: f69b a83e bb17 213d 6c12 03be 2398 183e
000001c0: 65eb c3bd b307 03bc 2593 543c 5446 e7bd
000001d0: c9ec d4bb e555 fabd 5657 4b3d 0820 5f3e
000001e0: 3e5a 493d aa19 48bd 2923 043c 7b64 3b3e
000001f0: bca0 5d3e dae4 a3be 6192 1e3e fea0 493e
00000200: 7697 e43d 25c5 09bd b3a3 87be a413 d7bc
00000210: 8b8e 793e ce40 b73c 3a32 86be 2e89 acbc
00000220: 076e a8be 7f4d aabd 0fb4 c53c a9b8 53bd
00000230: 4042 04bd f0f3 783e 69ea 8b3e f3dd 3ebc
00000240: c7d1 b93a eae6 85bd bfa9 0abe 47f5 b13e
00000250: c749 fe3d 5fd1 02be 793b 12be ca24 253e
00000260: 89aa 86ba 1696 123d eba9 f33d 6e1e 0abe
00000270: b8cb a93c 8607 35be 1a1b 043e 4892 1f3e
00000280: 6133 823c ea21 973d a12c 6abb d873 af3d
00000290: da3e ca3d a3d4 d9bc f881 8f3d c2b4 043e
000002a0: 9cf9 dabd a3a3 aebe b94c 1ebe ee74 9dbb
000002b0: fad2 313e 707b 62be d950 3dbe 00c9 403d
000002c0: 2adb 00be 376b 783b 7284 65bc 5f2e d33d
000002d0: 8927 48be 3748 89bd a938 4f3e 9ce7 9b3d
000002e0: 7f44 c43d dd34 e63a 5748 e33c d26c 933e
000002f0: dbca a1bd b0ce 023e 0ce7 56bd 8bc1 073e
00000300: 8a83 103e 45d6 663e 9856 43be 69f1 0a3e
00000310: 9674 68bd 1822 6e3d 6d36 40be c032 e03c
00000320: b9c2 633d 42a2 263e 50d7 543e 573f 58be
00000330: aa2d eb3d 96a6 38bd e7d1 ffbb 047e 77bc
00000340: f735 383e 98bb f8bd 1472 44bd 27ee 043d
00000350: 9266 c7bd e7c9 8b3c 1832 4abe 49c1 123e
00000360: ebd0 47be b87d d3bd 8a64 773d e190 88be
00000370: ed5f e73d 694a b23c 723d 0ebd 7af6 ddbd
00000380: c419 ab3d 606f 193e 96b7 05bd 7a6e 6e3e
00000390: aff0 283e c8c2 f63d f723 8d3d d4dd 1d3e
000003a0: 250f 08be c8e7 1a3e aa59 f9bb b7d6 febd
000003b0: d085 f13d 1537 6d3d fa68 d03d e754 f9bc
000003c0: 8b6c ff3d f17c b6bd 6ef7 b73c 9b58 2a3c
000003d0: 5a24 a03d 882e 0fbd 3c96 9bbd cff8 9bbd
000003e0: 3542 db3d f0f0 a9bb 2696 2cbe c69c 32bd
000003f0: c189 6e3e 9230 f5bd cc1c 033e 0117 5c3e

encoder_lstm.weight_hh_l1 f4 [128, 32]
-0.02951477 -0.025696421 -0.065415554 -0.25392997 0.12716265 0.047573507 -0.0101722395 -0.070835024
0.077764064 0.12703137 0.15746409 0.14822322 -0.08070776 -0.047666576 0.16145441 -0.009354464
-0.2604783 0.12419954 -0.20338479 0.039913733 0.107829265 -0.11845563 0.029766731 0.12246135
0.0010462217 -0.2613206 -0.03454757 0.24047905 -0.16683799 0.0060237935 -0.0632948 -0.17244169
0.152889 -0.112961724 0.09645157 -0.0831167 0.0438059 0.09623153 -0.18244947 0.08303802
0.07191418 0.044787887 -0.09939615 0.04983533 0.054119144 0.0033962878 0.09543349 -0.05680814
0.22800896 0.19011225 -0.17167766 0.08648736 -0.042350955 0.13828342 0.04867773 0.049780287
-0.13819255 0.28014824 -0.056956254 0.16421764 0.00027036946 -0.07855385 -0.06934408 0.179773
-0.050241966 0.020090967 -0.03217669 -0.20567894 -0.16589159 0.25978032 0.016677663 -0.14068665
-0.01243998 -0.008726924 0.17385495 -0.043772776 0.10668773 -0.020742906 -0.030729266 0.15274797
0.24729563 0.22728601 -0.045168348 -0.07369862 0.08318855 -0.057010733 0.076209225 -0.031021439
-0.06345591 0.22531416 0.095786326 0.0503762 0.25297087 -0.0011606372 0.088301346 -0.08352549
-0.059665453 0.06998239 0.017597077 -0.19200854 0.03844693 -0.08916194 -0.12124498 -0.18845388
0.20907098 -0.03692737 0.064393036 -0.0635647 0.21120289 0.14020655 0.19210435 -0.10929792
0.15805025 0.14140385 -0.10430878 -0.19541663 0.08881519 0.18918718 0.13022278 -0.20883635
0.050102346 0.23191711 0.086850435 -0.21131139 -0.06830873 -0.12043113 -0.0035766712 0.12814423
0.08721308 -0.18623625 -0.1844182 -0.080761254 -0.06955826 -0.109481774 -0.022381138 -0.074515335
-0.033876903 0.0054578413 -0.076169595 -0.0010269815 -0.103114866 0.18982282 -0.18178388 0.086135305
0.332626 -0.037683375 -0.12666333 -0.04630681 0.11584428 -0.012197463 -0.16303574 0.0041597653
-0.041350186 0.12408592 -0.19560573 0.12091682 0.13915445 -0.1637232 -0.08237978 0.32591802
-0.16413036 -0.11617026 -0.020205835 -0.015596947 -0.15157509 -0.22412632 -0.31978628 0.2535845
0.21129279 0.22472052 0.0644182 -0.098591566 0.18256089 0.1516577 -0.18678325 -0.00066846097
0.19391096 -0.15891883 0.07245882 -0.030260472 0.005638226 0.10638014 -0.037312105 0.12004034
0.11529567 0.17359349 0.16758446 -0.20903747 -0.17639197 0.078864485 -0.12081798 -0.10973969
0.17453362 -0.13924229 0.15488416 -0.1539793 -0.19522025 0.2264803 -0.03677826 0.08759706
-0.028277634 -0.012237864 0.030052856 0.021877099 0.10017648 0.056752592 -0.1570094 0.08301188
-0.009479641 -0.09237773 -0.051170062 0.1058843 0.020659735 0.20095982 0.13219087 0.027673524
-0.015216893 -0.012177678 -0.24721958 0.11002333 0.080663994 -0.071298644 0.2568493 0.111213036
-0.18061027 -0.030690432 0.13790932 0.099939235 -0.20702364 0.2779232 0.0032912034 -0.20741752
-0.099925846 -0.2268265 -0.07011415 -0.14302583 -0.037525617 -0.11990566 -0.047726166 0.01600929
-0.033601124 0.1251374 -0.025379408 0.22286701 0.011235792 -0.06255311 0.019988159 0.11580839
0.15784408 0.090928905 -0.031544812 -0.0106803775 -0.16925818 0.106078915 0.07391081 -0.21946807
00000000: f5c8 f1bc 4d81 d2bc 97f8 85bd 1c03 82be
00000010: ed36 023e 70dc 423d 77a9 26bc f411 91bd
00000020: c442 9f3d 8314 023e 443e 213e d4c7 173e
00000030: 1c4a a5bd 073e 43bd 4e54 253e 7743 19bc
00000040: 695d 85be 545c fe3d 1a44 50be 957c 233d
00000050: 97d5 dc3d de98 f2bd 5cd9 f33c 04cd fa3d
00000060: 6021 893a d0cb 85be c181 0dbd 2440 763e
00000070: 94d7 2abe 3e63 c53b b4a0 81bd 8e94 30be
00000080: ef8e 1c3e 7a58 e7bd 6788 c53d 1739 aabd
00000090: d16d 333d 0915 c53d 09d4 3abe d60f aa3d
000000a0: be47 933d 8173 373d 3590 cbbd 2220 4c3d
000000b0: 09ac 5d3d 4194 5e3b a272 c33d a7af 68bd
000000c0: 2e7b 693e c9ac 423e 45cc 2fbe 4920 b13d
000000d0: 3278 2dbd 2b9a 0d3e 4d62 473d 6ae6 4b3d
000000e0: 5982 0dbe 976f 8f3e f64a 69bd ab28 283e
000000f0: 60c0 8d39 d7e0 a0bd 4504 8ebd 6a16 383e
00000100: 85ca 4dbd d095 a43c b4cb 03bd 809d 52be
00000110: 7cdf 29be ed01 853e 989f 883c 2910 10be
00000120: 0fd1 4bbc 5ffb 0ebc 0807 323e 154b 33bd
00000130: 197f da3d 07ed a9bc f1bb fbbc f769 1c3e
00000140: 113b 7d3e aabd 683e 7202 39bd 4def 96bd
00000150: c25e aa3d 1684 69bd 9513 9c3d ac20 febc
00000160: 2cf5 81bd c1b8 663e 9f2b c43d 4657 4e3d
00000170: 6685 813e 8620 98ba 56d7 b43d 690f abbd
00000180: c363 74bd ed52 8f3d bf27 903c e39d 44be
00000190: 877a 1d3d 899a b6bd 4a4f f8bd 0efa 40be
000001a0: b416 563e 2741 17bd 7fe0 833d 362e 82bd
000001b0: 9245 583e 4e92 0f3e 01b7 443e 96d7 dfbd
000001c0: edd7 213e 2ccc 103e d79f d5bd 4c1b 48be
000001d0: bde4 b53d 49ba 413e 1f59 053e 32d9 55be
000001e0: 1e38 4d3d ae7b 6d3e a4de b13d 0362 58be
000001f0: 73e5 8bbd 99a4 f6bd 9666 6abb 3e38 033e
00000200: c59c b23d b7b4 3ebe 20d8 3cbe 2866 a5bd
00000210: 9074 8ebd fb37 e0bd a658 b7bc 7f9b 98bd
00000220: 82c2 0abd b1d7 b23b cefe 9bbd c89b 86ba
00000230: e32d d3bd ea60 423e 8e25 3abe b567 b03d
00000240: f44d aa3e e259 1abd 08b4 01be 36ac 3dbd
00000250: c43f ed3d ded7 47bc d7f2 26be a44e 883b
00000260: d05e 29bd c220 fe3d de4c 48be 3da3 f73d
00000270: 817e 0e3e 0ea7 27be bbb6 a8bd bade a63e
00000280: ca11 28be acea edbd b586 a5bc 568a 7fbc
00000290: 8036 1bbe 5f81 65be 07bb a3be d4d5 813e
000002a0: 235d 583e 231d 663e b0ed 833d 60ea c9bd
000002b0: 3ef1 3a3e 284c 1b3e 1c44 3fbe a83b 2fba
000002c0: 9890 463e 9ebb 22be 4a65 943d cfe4 f7bc
000002d0: dec0 b83b d5dd d93d 94d4 18bd b6d7 f53d
000002e0: 2320 ec3d 7ec2 313e 439b 2b3e eb0d 56be
000002f0: 19a0 34be b483 a13d 6b6f f7bd 34bf e0bd
00000300: f1b8 323e 8895 0ebe f499 1e3e c0ac 1dbe
00000310: d1e7 47be 74ea 673e cda4 16bd 1666 b33d
00000320: 7fa6 e7bc 5281 48bc 6831 f63c 9a37 b33c
00000330: 5429 cd3d 6875 683d 12c7 20be 2202 aa3d
00000340: 7f50 1bbc 8930 bdbd b397 51bd ded9 d83d
00000350: 9b3e a93c 69c8 4d3e 0b5d 073e 96b3 e23c
00000360: 4650 79bc e284 47bc 2127 7dbe e953 e13d
00000370: 2a33 a53d 0605 92bd c081 833e a9c3 e33d
00000380: e6f1 38be 806a fbbc 1a38 0d3e f1ac cc3d
00000390: 01fe 53be f34b 8e3e 3bb1 573b 4265 54be
000003a0: eca5 ccbd 3545 68be 0298 8fbd 5d75 12be
000003b0: 76b4 19bd 1991 f5bd 837c 43bd ea25 833c
000003c0: 55a1 09bd 0524 003e 7ae8 cfbc 4037 643e
000003d0: 5416 383c d81b 80bd 35be a33c f32c ed3d
000003e0: e1a1 213e ef38 ba3d 2235 01bd c0fc 2ebc
000003f0: 0452 2dbe e73f d93d 8d5e 973d 3dbc 60be

encoder_lstm.bias_ih_l1 f4 [128]
-0.01644713 -0.06796723 -0.083110966 -0.13230555 0.19130541 0.14230467 0.03211727 0.09888756
-0.14432919 0.030979779 0.13380824 -0.06921292 0.19627412 0.14333674 0.058473773 -0.12190169
0.21549736 -0.06870501 -0.045782622 0.035766896 0.11477885 -0.0051030256 -0.08136896 -0.16136606
0.10819842 0.07350299 -0.030031916 0.1409597 -0.067196876 -0.059527054 0.036474988 0.11523562
0.13648918 0.02753406 0.082573794 0.03080371 0.082255766 0.09441291 0.030533927 -0.007718155
0.17752795 -0.18953441 0.06296154 0.0997644 0.072875515 0.20241576 0.1837943 -0.07898425
-0.04900173 0.06677299 0.18662834 -0.050748326 -0.008401704 -0.03854479 0.12930962 -0.050282177
-0.06935828 0.12228764 -0.15006085 0.3226843 0.19205628 -0.12017306 -0.060142092 0.06503953
0.02411179 -0.107221216 0.013334309 -0.074483566 -0.05050207 -0.05312382 -0.019535448 -0.001981503
-0.1664697 0.022894377 0.16093726 0.21003015 0.014130748 -0.009811346 -0.15732244 0.110718384
-0.055349663 0.09605594 -0.1221077 -0.012233281 0.03717912 0.09535602 0.05082752 -0.14941472
-0.031648852 0.03621922 -0.13932677 -0.09441055 0.015477488 -0.03677736 -0.0022864083 -0.1283553
-0.10597807 0.20569329 -0.08214663 0.032363318 0.23685923 -0.15243615 0.08147716 0.063067794
0.02134469 -0.0149379205 0.040117953 0.020384872 0.17944495 0.005460193 -0.099280804 0.13672456
0.01686031 0.16748749 0.18356432 0.15887305 0.15003075 0.2600415 0.057923384 -0.09761485
0.1308772 -0.0008699134 0.14409938 0.21187358 -0.10367544 -0.014497565 -0.05322848 0.06529696
00000000: 22bc 86bc 6732 8bbd 1536 aabd 1b7b 07be
00000010: 91e5 433e 51b8 113e 668d 033d 9085 ca3d
00000020: 08cb 13be 4ec9 fd3c 0705 093e 81bf 8dbd
00000030: 15fc 483e dec6 123e 3282 6f3d 98a7 f9bd
00000040: 57ab 5c3e 36b5 8cbd 8f86 3bbd 4f80 123d
00000050: 2c11 eb3d 4837 a7bb c5a4 a6bd 253d 25be
00000060: 2297 dd3d bc88 963d 7e05 f6bc bd57 103e
00000070: 849e 89bd a4d2 73bd cc66 153d a700 ec3d
00000080: d2c3 0b3e 1c8f e13c 731c a93d 1058 fc3c
00000090: b675 a83d 8e5b c13d 4922 fa3c 94e8 fcbb
000000a0: e3c9 353e 4f15 42be fbf1 803d 4751 cc3d
000000b0: c23f 953d 1446 4f3e 9334 3c3e 7fc2 a1bd
000000c0: 0ab6 48bd 47c0 883d 801b 3f3e 7add 4fbd
000000d0: 4da7 09bc 24e1 1dbd be69 043e aff4 4dbd
000000e0: b70b 8ebd f171 fa3d 8da9 19be e036 a53e
000000f0: 67aa 443e 4b1d f6bd 8e57 76bd 7233 853d
00000100: 1786 c53c cc96 dbbd 2578 5a3c d78a 98bd
00000110: 42db 4ebd 5d98 59bd ce08 a0bc 1bdc 01bb
00000120: 0877 2abe fd8c bb3c bdcc 243e 2512 573e
00000130: a784 673c c5bf 20bc 2219 21be 52c0 e23d
00000140: 54b6 62bd fab8 c43d 9a13 fabd 196e 48bc
00000150: 2249 183d 044a c33d 8530 503d 2c00 19be
00000160: 3aa2 01bd 9b5a 143d adab 0ebe 525a c1bd
00000170: 4a95 7d3c dba3 16bd 91d7 15bb 926f 03be
00000180: 080b d9bd 43a1 523e 7e3c a8bd 668f 043d
00000190: 3a8b 723e 3918 1cbe 7fdd a63d b029 813d
000001a0: 0fdb ae3c 2ebe 74bc b952 243d 2dfe a63c
000001b0: 6bc0 373e 6beb b23b bc53 cbbd 8601 0c3e
000001c0: a21e 8a3c d781 2b3e 49f8 3b3e 9eaf 223e
000001d0: a9a1 193e 2924 853e 1241 6d3d 4bea c7bd
000001e0: ac04 063e e60a 64ba ca8e 133e 63f5 583e
000001f0: ca53 d4bd 3287 6dbc 1b06 5abd 6aba 853d
