W3-Design/checkpoints/epoch_1.pt (torch, 384133 bytes, 24 tensors)

encoder_cnn.0.weight f4 [32, 3, 3]
0	0xbe8be6b0	-0.27324438
1	0xbde21ff1	-0.110412486
2	0xbe8e8d27	-0.27842066
3	0x3e4af5b7	0.19820295
4	0xbe8b3d65	-0.27195278
5	0x3e327a50	0.17429471
6	0x3e081b11	0.13291575
7	0x3e3e8ac1	0.18607618
8	0x3e42f7fa	0.19039908
9	0xbe091af6	-0.13389191
10	0xbe2fce25	-0.17168482
11	0xbe42d81f	-0.19027756
12	0xbe8fe3e5	-0.28103557
13	0xbea6a6bc	-0.32549083
14	0xbd955f54	-0.07293573
15	0xbe0ff718	-0.14059103
16	0x3e88c703	0.26714334
17	0xbd5c7869	-0.05382577
18	0xbe2d8fd6	-0.169494
19	0x3d4e7793	0.050407004
20	0x3eb0ca3b	0.3452929
21	0x3e7d9249	0.24762835
22	0x3e98d2e9	0.29848412
23	0xbe84a800	-0.25909424
24	0xbe0f8720	-0.1401639
25	0x3dc911a3	0.09817817
26	0xbd8dd61c	-0.06925604
27	0xbdf94cfd	-0.121728875
28	0x3cccd01b	0.025001576
29	0xbeada7a6	-0.33916968
30	0x3c1c8f08	0.009555586
31	0x3d746fc9	0.05967692
32	0xbd454120	-0.04815781
33	0x3e10a3c9	0.14124979
34	0x3e793c67	0.24339448
35	0xbad7fae4	-0.001647797
36	0xbdc61478	-0.09671873
37	0x3e1dd29f	0.15412377
38	0x3d977577	0.073954515
39	0x3ec449f7	0.3833768
40	0xbe50e0f2	-0.2039831
41	0x3e77f714	0.24215347
42	0x3d932777	0.07185262
43	0x3ddfebc8	0.109336436
44	0xbe828aac	-0.25496423
45	0x3d6c7f5f	0.057738658
46	0xbbdbb394	-0.006704757
47	0x3eaa46d3	0.3325716
48	0xbe46ed37	-0.19426428
49	0xbe1effbd	-0.15527244
50	0x3d9b9d88	0.07598406
51	0x3e8da72a	0.276666
52	0x3eb2655c	0.34842956
53	0xbe79fd7e	-0.24413106
54	0xbd995e4c	-0.07488689
55	0xbd9c87a2	-0.076430574
56	0x3e2381c5	0.15967472
57	0x3e26f537	0.1630448
58	0x3e0b7baa	0.13621393
59	0xbe245a7e	-0.16050145
60	0xbd06f3a9	-0.032947216
61	0x3e24eba6	0.16105518
62	0xbe6da307	-0.23206721
63	0x3d1b7040	0.037948847
64	0xbe3b7dee	-0.18309757
65	0x3e9b5b5c	0.3034314
66	0x3e894fcf	0.26818702
67	0xbe8de85a	-0.27716333
68	0xbead2801	-0.33819583
69	0xbe4ca2e0	-0.19984007
70	0xbe1274c8	-0.14302361
71	0x3eab8d80	0.33506393
72	0xbcfe911f	-0.031075059
73	0x3da1bd54	0.078974396
74	0xbe5456e3	-0.2073627
75	0x3d300874	0.04297681
76	0xbe084f9b	-0.13311617
77	0x3e9e6da0	0.30943012
78	0xbe820a01	-0.25398257
79	0x3e95cc2a	0.29257327
80	0xbe069b7d	-0.13145252
81	0xbea3c0ae	-0.3198294
82	0x3d3b3300	0.045702934
83	0xbeb99942	-0.3624974
84	0x3e92d132	0.28675228
85	0x3cae1376	0.021249514
86	0xbe76b843	-0.24093728
87	0x3e65cd53	0.22441606
88	0x3e6918f9	0.22763433
89	0x3d99f829	0.07518036
90	0xbcb761da	-0.022385526
91	0x3db2a58f	0.08722984
92	0x3dcb9851	0.099411614
93	0x3e37fd82	0.179678
94	0xbebf1a9f	-0.37324998
95	0xbea719fe	-0.32637018
96	0xbe90244d	-0.28152695
97	0x3dbae6c1	0.09126044
98	0xbd8645f8	-0.06556314
99	0xbd6fe9fc	-0.058572754
100	0x3cf0c3c0	0.029390216
101	0x3e3f5608	0.18685162
102	0x3dd84ffc	0.10562131
103	0x3ec498d4	0.3839785
104	0x3dea3c5a	0.114372924
105	0xbe223bdc	-0.15843147
106	0xbe7629e3	-0.24039416
107	0x3e0d4e8f	0.13799499
108	0xbdf8d034	-0.121490866
109	0x3e8ebcf2	0.2787853
110	0x3e57d1b1	0.21076085
111	0xbca795aa	-0.020457108
112	0xbe9884f6	-0.2978894
113	0xbeb7265a	-0.35771447
114	0x3ecedb52	0.40401703
115	0xbc6e4469	-0.014542677
116	0xbe58258b	-0.21108072
117	0x3e27f389	0.16401495
118	0xbd6680b9	-0.056275103
119	0x3e7fddcf	0.24986957
120	0x3c0e741a	0.008694673
121	0xbe92907c	-0.28625858
122	0xbe43df7d	-0.19128223
123	0xbe48597f	-0.1956539
124	0xbeaf6745	-0.34258476
125	0xbea0e300	-0.31423187
126	0xbd9087c7	-0.070571475
127	0xbe048054	-0.12939578
128	0xbd1f7480	-0.038929462
129	0x3eafcfba	0.3433817
130	0xbcf612ab	-0.030038198
131	0xbe6622d6	-0.22474226
132	0x3cccc0d4	0.024994291
133	0x3db43dd1	0.08800853
134	0xbe744610	-0.23854852
135	0x3eb42ca7	0.35190317
136	0x3e13e8c5	0.14444263
137	0xbdc0c945	-0.09413389
138	0xbe128572	-0.14308718
139	0x3e997fb9	0.29980257
140	0x3d884b27	0.06654959
141	0xbe9da3ad	-0.30788937
142	0x3c9b345e	0.018945869
143	0xbdc34646	-0.09534888
144	0x3db112e1	0.08646179
145	0xbe689216	-0.22711977
146	0xbec224fb	-0.3791884
147	0xbd0d2454	-0.034458473
148	0xbe68daf2	-0.22739771
149	0xbe93c90a	-0.28864318
150	0x3c589515	0.013219138
151	0xbea43adb	-0.32076153
152	0xbb97c425	-0.0046315365
153	0xbcb62263	-0.022233194
154	0x3e4c0a7f	0.19925879
155	0x3c486b7c	0.0122326575
156	0x3ec3fa71	0.3827701
157	0xbe4aa5fe	-0.19789883
158	0x3ebdfc5e	0.37106603
159	0x3d8136d9	0.063092895
160	0xbe29900e	-0.16558859
161	0xbc5a458e	-0.013322247
162	0x3e9d8470	0.30765104
163	0x3e968906	0.29401416
164	0xbd9b027b	-0.075688325
165	0x38f89268	0.00011852832
166	0xbe982dfa	-0.29722577
167	0x3cada1c9	0.02119531
168	0x3e6a04ee	0.22853443
169	0xbe0eac68	-0.13932955
170	0x3d05b878	0.032646626
171	0xbd7abf47	-0.061217573
172	0x3e4e118a	0.20123878
173	0x3e093304	0.13398367
174	0xbe6cdda1	-0.2313142
175	0xbec51b57	-0.3849742
176	0x3e27e116	0.16394457
177	0xbe93eea6	-0.28893012
178	0x3cec40f4	0.028839566
179	0x3e42c1b0	0.19019198
180	0xbe082a4e	-0.13297388
181	0xbe4a5321	-0.19758274
182	0xbe9921f6	-0.29908723
183	0xbe1af2b1	-0.15131642
184	0x3e722f41	0.23650838
185	0xbd154552	-0.036443062
186	0x3e3a1f71	0.18176056
187	0x3e22aa43	0.15885262
188	0xbe471596	-0.19441828
189	0x3ead739e	0.3387727
190	0xbd26db77	-0.04073664
191	0x3d16937e	0.036761753
192	0xbcb88649	-0.02252497
193	0x3ec55f4a	0.38549262
194	0x3e506319	0.20350303
195	0x3da20401	0.0791092
196	0xbe6a9133	-0.22906952
197	0xbe186c06	-0.14884958
198	0x3e4c76e3	0.19967227
199	0xbeac7c1d	-0.3368844
200	0x3dd36a99	0.10323066
201	0x3d33f01d	0.04393016
202	0x3e0c680a	0.13711563
203	0xbe28278b	-0.16421334
204	0xbe26c675	-0.16286643
205	0xbe83a29e	-0.25710005
206	0xbeacf5a9	-0.33781174
207	0x3e0456d9	0.12923755
208	0xbe755382	-0.23957637
209	0xbe8f370e	-0.2797169
210	0xbe3cea98	-0.18448865
211	0x3c035b8a	0.00801743
212	0xbde62287	-0.11237054
213	0x3de52317	0.111883335
214	0x3e5bd99e	0.21469733
215	0x3e8f069a	0.27934724
216	0xbe363d96	-0.1779693
217	0xbbb70261	-0.0055850004
218	0xbe88baf0	-0.26705122
219	0xbd232e5c	-0.039839134
220	0xbd704a31	-0.058664504
221	0xbe95b1be	-0.2923717
222	0x3d922470	0.07135856
223	0x3ddffb64	0.10936621
224	0x3df1769a	0.117901996
225	0x3da7fce7	0.08202534
226	0xbe364389	-0.177992
227	0x3e657733	0.22408752
228	0x3e5c512f	0.21515344
229	0x3e7303c6	0.23731908
230	0xbd428cfa	-0.047497727
231	0xbea1ea86	-0.3162424
232	0x3db2b31e	0.0872557
233	0x3e6eaba6	0.23307666
234	0xbec2e51d	-0.38065425
235	0xbcbe77d5	-0.0232505
236	0xbdeb5c4e	-0.11492215
237	0x3ea5d815	0.3239142
238	0x3e185f4e	0.14880106
239	0xbe5648a7	-0.20926152
240	0x3e56cb87	0.20976077
241	0xbdcba3b8	-0.09943336
242	0xbe3a1923	-0.18173651
243	0xbe5aa5e1	-0.2135234
244	0xbc90facc	-0.017697714
245	0xbd3a26ce	-0.045447163
246	0xbe062c0c	-0.1310274
247	0xbde85816	-0.11344926
248	0x3eac1bf2	0.3361507
249	0xbe82174d	-0.25408402
250	0x3e5504d9	0.2080263
251	0x3df1b50c	0.1180211
252	0x3e685437	0.22688375
253	0xbdddc789	-0.10829074
254	0xbe104ff6	-0.14093003
255	0xbd9c7dbd	-0.0764117

encoder_cnn.0.bias f4 [32]
0	0x3e0a7930	0.13522792
1	0x3e244934	0.1604355
2	0x3e20b892	0.15695408
3	0xbeb106d0	-0.3457551
4	0xbe9e59d5	-0.3092791
5	0x3e526cd9	0.20549335
6	0xbe72b3de	-0.23701426
7	0xbd709808	-0.05873874
8	0x3e47e2bd	0.19520088
9	0x3e44a91a	0.19205132
10	0x3e9cf54e	0.30655903
11	0x3dccc055	0.09997622
12	0x3e955053	0.29162845
13	0xbcb2ad01	-0.02181101
14	0xbe2e7583	-0.17037015
15	0x3e91ffa8	0.28515363
16	0xbe3873ce	-0.18012926
17	0x3e1d6c10	0.15373254
18	0x3e6a213c	0.2286424
19	0xbe4f558c	-0.20247477
20	0xbd6c68be	-0.057717077
21	0x3ebd11b8	0.3692758
22	0x3e8f7396	0.28017873
23	0xbdc14eaa	-0.09438832
24	0x3d8eaf3d	0.06967018
25	0xbd858741	-0.06519938
26	0xbea8473c	-0.32866848
27	0xbe35efdb	-0.17767279
28	0xbe7c406a	-0.24633947
29	0x3db1836f	0.08667647
30	0xbe9645d7	-0.2935016
31	0x3e1c68be	0.15274331

encoder_cnn.2.weight f4 [64, 32, 3]
0	0xbe0d42e6	-0.13795051
1	0x3d601e5f	0.054716464
2	0xbcf248a5	-0.029575655
3	0xbd95a64c	-0.07307109
4	0xbd0694bd	-0.03285669
5	0x3cc003ec	0.02343937
6	0x3e26d0a0	0.16290522
7	0x3dcd8bb6	0.10036413
8	0x3ddeeaac	0.10884604
9	0x3c516e8d	0.012782705
10	0xbe071eec	-0.1319539
11	0xbde0cd90	-0.10976708
12	0x3d308eb0	0.043104827
13	0x3d81f914	0.06346336
14	0xbc9333f1	-0.017969104
15	0xbd89d798	-0.06730574
16	0x3d45422e	0.048158817
17	0xbd455d41	-0.048184637
18	0xba8a5ecf	-0.001055682
19	0x3d091736	0.0334694
20	0x3e004521	0.1252637
21	0x3cde2245	0.02711595
22	0xbc97b1af	-0.018517343
23	0x3d31e4b0	0.043430984
24	0x3d4391d4	0.047746494
25	0x3cfbed21	0.03075272
26	0x3cb0669f	0.021533309
27	0x3bfec74e	0.007775224
28	0xbb8349f9	-0.004006621
29	0x3d751fa3	0.059844624
30	0xbc6ef014	-0.014583606
31	0x3df27411	0.11838544
32	0x3ccb9728	0.02485235
33	0x3d89b1fd	0.06723402
34	0x3d9158df	0.07097029
35	0x3db1bf5d	0.08679078
36	0x3d88b0c8	0.06674343
37	0xbcf2f690	-0.029658586
38	0xbc9f02f5	-0.01941059
39	0x3e16b660	0.14718008
40	0x3df0a63d	0.117504574
41	0x3dc87714	0.09788337
42	0x3d307979	0.043084595
43	0xbdc4188a	-0.09574993
44	0x3d4502e7	0.04809847
45	0x3dedc255	0.116093315
46	0x3e020135	0.12695773
47	0x3d97f9f9	0.074207254
48	0x3d737734	0.059439853
49	0x3d64f99b	0.055902105
50	0x3ca66a7b	0.020314446
51	0x3d885f14	0.0665876
52	0xbb00f8aa	-0.0019679465
53	0x3d8e74f3	0.069559
54	0xbd76e5e7	-0.060277846
55	0xbd9fd96d	-0.078051426
56	0xbd6fdc0b	-0.05855946
57	0xbc42b5a1	-0.011884124
58	0xbcef0a6a	-0.02917977
59	0x3d51e5d3	0.051244568
60	0xbb15f2ab	-0.0022880237
61	0xbe1ae237	-0.15125357
62	0xbccffd36	-0.025389295
63	0x3d20da57	0.039270725
64	0x3d40cad3	0.04706843
65	0x3d6a1fd7	0.05715927
66	0x3e1ff265	0.1561981
67	0xbd21ad28	-0.039471775
68	0x3de0121b	0.10940953
69	0xbdb81019	-0.089874454
70	0xbe1c9b2e	-0.15293571
71	0xbdf110a1	-0.1177075
72	0x3bbf938a	0.0058464454
73	0xbde59a05	-0.112110175
74	0xbd9305ca	-0.071788386
75	0xbb21c65b	-0.002468488
76	0x3de083fb	0.10962673
77	0xbd818adc	-0.063253134
78	0xbe272434	-0.16322404
79	0xbc85a792	-0.016315255
80	0xbde25b88	-0.110526145
81	0x3cee8f38	0.029121026
82	0xbd2b8a0a	-0.04187969
83	0xbd08e6c3	-0.033423197
84	0xbe3910d6	-0.18072829
85	0xbe2045db	-0.15651648
86	0xbd418e9f	-0.047255155
87	0xbcc2a793	-0.023761546
88	0xbd5d6a9f	-0.05405676
89	0x3d0f5726	0.03499522
90	0xbd738500	-0.05945301
91	0xbd9b732a	-0.07590325
92	0xbd041318	-0.03224477
93	0x3d71dcae	0.059048347
94	0x3d28cd9a	0.041211702
95	0xbcc1cb57	-0.02365653
96	0x3cb211a1	0.021736922
97	0x3d6c93f6	0.057758294
98	0x3dcc07e3	0.09962442
99	0x3d0e9005	0.034805316
100	0x3d389a02	0.04506875
101	0x3d2e92b6	0.042620383
102	0xbd6b2fa0	-0.057418466
103	0x3cd95b83	0.026532894
104	0xbd37c25d	-0.044863094
105	0xbc88f634	-0.016718961
106	0x3d73554d	0.05940752
107	0xbd85953d	-0.065226056
108	0xbdfee9e5	-0.124469556
109	0xbdfd32d2	-0.12363209
110	0xbd9f285e	-0.07771371
111	0x3d80d224	0.06290081
112	0x3e0f7cc3	0.14012437
113	0x3e05c470	0.13063216
114	0x3e070546	0.13185605
115	0x3e086569	0.13319935
116	0xbcb05eef	-0.021529643
117	0x3dbf4a32	0.093403235
118	0x3e389e4b	0.18029134
119	0x3e0e0fe1	0.13873245
120	0x3ddb5f99	0.10711593
121	0xbde26546	-0.110544726
122	0x3db0f014	0.08639541
123	0x3dfa3f56	0.122191116
124	0x3d9c4217	0.07629793
125	0x3c78bd62	0.015181871
126	0x3d8afed7	0.06786888
127	0x3d792247	0.060823705
128	0x3d954d06	0.07290082
129	0x3c9f3c8b	0.019438049
130	0x3d2c0b51	0.04200298
131	0xbe112b88	-0.14176762
132	0x3dcba6ed	0.09943948
133	0x3dfe5908	0.12419325
134	0x3d9c41b5	0.0762972
135	0x3d9543c9	0.072883196
136	0x3e22624b	0.15857808
137	0x3e2e7a4b	0.17038839
138	0x3d2b52eb	0.041827124
139	0x3db6811d	0.08911345
140	0xbcdd1cc5	-0.026991257
141	0x3be14549	0.0068747145
142	0x3d534af3	0.05158515
143	0xbd471c05	-0.048610706
144	0xbd34e557	-0.044164028
145	0x3e0eda5a	0.13950482
146	0x3c8761b9	0.01652609
147	0xbdbb13b0	-0.091346145
148	0xbdda6632	-0.106640235
149	0xbde58d28	-0.11208564
150	0x3d8ae368	0.067816556
151	0x3dc27a21	0.094959505
152	0x3e04bdd4	0.12963039
153	0x3e2ecbbb	0.17069905
154	0x3def1966	0.11674766
155	0x3e17668d	0.14785214
156	0x3dc0e9cb	0.094195925
157	0x3d931bd5	0.07183043
158	0x3d2cb1e1	0.042161826
159	0xbd19e5c3	-0.037572633
160	0xbd453e79	-0.04815528
161	0xbdafff7e	-0.08593653
162	0x3e27460a	0.16335312
163	0x3dca0a0d	0.09865198
164	0x3d0def49	0.03465203
165	0x3e0934ac	0.13398999
166	0xbc230380	-0.009949565
167	0x3d85c3d2	0.065314904
168	0xbcfc7412	-0.030817065
169	0xbcd533f4	-0.02602575
170	0x3d5b0db6	0.053479873
171	0xbd06a5e5	-0.032873053
172	0xbcb35992	-0.021893296
173	0xbcb1f347	-0.021722449
174	0x3d227cd1	0.039669815
175	0x3ce9f33a	0.028558362
176	0xbe0afa99	-0.13572158
177	0xbcecdea9	-0.028914766
178	0x3d21e11d	0.039521325
179	0x3c652bff	0.01398754
180	0x3c641f8a	0.013923535
181	0xbc352a70	-0.011057481
182	0x3dcb9649	0.09940774
183	0x3e27c349	0.16383089
184	0x3dc4de90	0.09612763
185	0x3db0bbc8	0.086295664
186	0x3d6b2127	0.057404663
187	0x3db68f23	0.0891402
188	0xbd015dd2	-0.031583615
189	0x3e0ed6f4	0.13949186
190	0xbd3e00c5	-0.046387453
191	0xbd6d4ad6	-0.057932697
192	0x3c02a30e	0.007973446
193	0xbd2b1ecf	-0.04177743
194	0x3d88f9fc	0.06688306
195	0xbdecf3e3	-0.11569955
196	0x3d630610	0.055425704
197	0xbde769e3	-0.11299493
198	0xbd998e6f	-0.0749787
199	0xbd98f906	-0.074693725
200	0xbd96d2eb	-0.07364448
201	0xbdb6bc32	-0.08922614
202	0x3d1a14a0	0.037617326
203	0xbd1e85ee	-0.038701944
204	0x3c9e37f5	0.019313792
205	0x3bb866f7	0.0056275087
206	0xbdd34dd4	-0.10317579
207	0xbdef6d8f	-0.116908185
208	0x3d9423d8	0.07233399
209	0xbd92ab5c	-0.071615905
210	0xbb90e10f	-0.0044213603
211	0xbda03d80	-0.0782423
212	0xbd69615b	-0.05697761
213	0x3cb84c1c	0.02249723
214	0x3d597e06	0.0530987
215	0xbc78a8c8	-0.015176959
216	0xbd58d4c9	-0.052937303
217	0xbdbedbaa	-0.09319241
218	0x3d8d52f8	0.06900591
219	0xbc0f0911	-0.008730189
220	0xbd5aea22	-0.053445943
221	0xbdb7008e	-0.08935653
222	0xbd26e2d1	-0.040743653
223	0xbd7990f9	-0.060929272
224	0xbc4a656e	-0.012353284
225	0xbdb6336a	-0.08896525
226	0x3d973d0b	0.0738469
227	0x3c863e10	0.016387016
228	0xbe1fd83c	-0.1560983
229	0xbd8d71c4	-0.06906465
230	0xbd01e45f	-0.031711932
231	0xbdcf3a0a	-0.10118492
232	0xbde13a5b	-0.109974585
233	0xbd88ff6c	-0.06689343
234	0x3d81bdb0	0.06335008
235	0xbd358f54	-0.04432614
236	0xbcb30e5d	-0.021857435
237	0x3c2a99e1	0.010412664
238	0xbcbc6df7	-0.023001654
239	0xbc9c1252	-0.019051705
240	0xbdc3b0fb	-0.09555241
241	0xbe047beb	-0.12937896
242	0xbd48241e	-0.04886257
243	0xbca3805e	-0.019958671
244	0xbcb0fa5d	-0.021603758
245	0xbd055e84	-0.03256084
246	0xbcb9a6f2	-0.022662614
247	0xbc8b9c0c	-0.017042182
248	0xbc1594ff	-0.009129762
249	0xbdd7035a	-0.10498686
250	0x3cdfa89e	0.027302083
251	0x3d2a7b37	0.041621413
252	0xbc8708d4	-0.016483702
253	0x3cf5de82	0.030013327
254	0xbd589508	-0.052876502
255	0xbc46edc5	-0.01214165

encoder_cnn.2.bias f4 [64]
0	0x3dee776e	0.11643873
1	0x3d1ad621	0.037801865
2	0x3d02a7c8	0.03189829
3	0x3d038111	0.03210551
4	0x3d518756	0.051154457
5	0x3e34c027	0.17651425
6	0x3dfdc686	0.12391381
7	0xbd61dbea	-0.055141367
8	0xbc5fb0b8	-0.013652973
9	0x3d0c71c0	0.034288168
10	0x3d9a874a	0.075453356
11	0xbd75a2e9	-0.059969816
12	0x3ccf21c6	0.02528466
13	0xbdbea1fc	-0.0930824
14	0x3da61a5b	0.08110496
15	0xbb0c69f0	-0.0021425448
16	0x3daf9fa1	0.08575369
17	0xbda07b6e	-0.07836042
18	0x3c91af91	0.017783912
19	0xbd469aa7	-0.04848733
20	0xbe0a7ac0	-0.13523388
21	0x3d1c5af7	0.03817269
22	0xbd8fa50b	-0.07013901
23	0x3ce8a69a	0.028399754
24	0xbd980258	-0.07422322
25	0xbb823abc	-0.003974287
26	0xbc1fc4fb	-0.009751554
27	0xba81701b	-0.0009875329
28	0xbd314bed	-0.0432853
29	0xbdeab9fa	-0.114612535
30	0x3cd8c489	0.026460903
31	0xbdd37f1d	-0.10326979
32	0xbc9d3812	-0.019191775
33	0x3bb47425	0.0055070096
34	0x3db6d84c	0.08927974
35	0xbcd4d3a3	-0.025979823
36	0xbc5bc1df	-0.013412922
37	0xbd17f3c3	-0.037097704
38	0xbbc247e9	-0.0059289825
39	0x3b434e81	0.002980143
40	0xbdf52816	-0.119705364
41	0xbd1d3e7c	-0.038389668
42	0x3d147d0f	0.036252078
43	0xbc14e367	-0.00908742
44	0x3c8c4134	0.017120935
45	0xbe0aada9	-0.13542809
46	0xbda2cc04	-0.07949069
47	0xbe1183b6	-0.142104
48	0x3d20c6eb	0.039252203
49	0x3dfd4790	0.12367165
50	0xbcc3b2ff	-0.023889063
51	0xbc95f563	-0.018305486
52	0xbde03d5b	-0.109492026
53	0x3d0d4130	0.034485996
54	0xbdbfdcd5	-0.09368292
55	0x3d1bd3ba	0.038043715
56	0xbd241e23	-0.040067803
57	0xbddace7f	-0.10683917
58	0x3d809edc	0.062803
59	0xbdcaeb63	-0.09908178
60	0xbd9b1dba	-0.07574029
61	0x3e045150	0.12921643
62	0xbe23fcf5	-0.16014464
63	0xbd5e137a	-0.054217793

encoder_lstm.weight_ih_l0 f4 [128, 64]
0	0x3e0093b2	0.12556341
1	0xbda3a30c	-0.07990083
2	0x3d255105	0.04036047
3	0x3d061305	0.032732982
4	0x3e4f51ee	0.20246097
5	0xbe3d78d3	-0.18503122
6	0x3d6fcf35	0.058547217
7	0x3e0317db	0.12802069
8	0x3e8124ca	0.2522338
9	0x3d5e8d52	0.054333992
10	0xbc99b8c3	-0.018764859
11	0x3d3f7258	0.046739906
12	0x3cc54343	0.024079924
13	0xbe12791b	-0.1430401
14	0xbdeb8413	-0.114998005
15	0x3da918da	0.08256693
16	0x3daddbf9	0.08489222
17	0x3d3ff6f4	0.046866372
18	0xbdddfbd2	-0.108390465
19	0x3d4dc4fe	0.050236695
20	0x3ba7e773	0.0051240264
21	0xbcd1f86a	-0.025631148
22	0xbdc8aa1f	-0.09798073
23	0xbddcca85	-0.10780815
24	0xbdba672f	-0.09101712
25	0x3d49cdff	0.04926872
26	0xbe436884	-0.19082838
27	0x3e5d7f6c	0.21630639
28	0xbd9b1f39	-0.075743146
29	0xbdccf1fa	-0.10007091
30	0x3e13adf7	0.14421831
31	0x3e2e5357	0.17023979
32	0x3d3674f1	0.044545118
33	0x3e53ed8b	0.20696084
34	0x3d6b2210	0.05740553
35	0xb92ab392	-0.00016279359
36	0x3d1c99ba	0.038232543
37	0xbd036a7f	-0.032083984
38	0x3d45707f	0.048202988
39	0xbe09ce11	-0.13457514
40	0x3d0c5e6a	0.034269728
41	0x3e42a50d	0.19008274
42	0x3e3e043e	0.18556306
43	0xbd43297c	-0.047646984
44	0xbd8ae246	-0.067814395
45	0xbd9a32ab	-0.075291954
46	0x3b42f431	0.00297476
47	0x3e6b295f	0.22965
48	0x3d88e605	0.06684498
49	0x3d6f1ddc	0.058378085
50	0x3e01615a	0.12634793
51	0xbcc65ef4	-0.024215199
52	0x3de7faff	0.113271706
53	0x3dba709e	0.09103511
54	0xbe04f680	-0.12984657
55	0x3dda5b27	0.10661917
56	0xbaec0a05	-0.0018008357
57	0x3c20d4e6	0.009816384
58	0x3dc76e61	0.0973785
59	0xbd31ab80	-0.043376446
60	0x3ddea9c8	0.10872227
61	0x3e66f679	0.2255496
62	0x3b6ba15c	0.0035954332
63	0x3dc15a08	0.09441
64	0xbb32f5ea	-0.002730722
65	0x3d4979e5	0.049188513
66	0xbe095b63	-0.13413768
67	0xbdb57ec7	-0.088620715
68	0xbdfa96ac	-0.1223577
69	0xbde5a061	-0.112122305
70	0x3db5012e	0.08838116
71	0x3de6c0e7	0.11267262
72	0x3da9ee7f	0.08297443
73	0x3e26e418	0.16297948
74	0x3cc734a0	0.024317086
75	0xbdb6b0e6	-0.089204594
76	0xbc85f0eb	-0.01635023
77	0xbcd44fcc	-0.025916956
78	0x3d0fee5c	0.035139427
79	0x3e6e3ad9	0.23264636
80	0x3e3d9d5a	0.18517056
81	0x3dda190a	0.10649307
82	0xbe0f71bc	-0.1400823
83	0xbcc3a3f3	-0.023881888
84	0x3e53b6a2	0.20675138
85	0xbd92f5e7	-0.071758084
86	0xbdf58006	-0.11987309
87	0x3cfeae20	0.031088889
88	0x3e059b21	0.13047458
89	0xbe574ed3	-0.21026163
90	0x3dea40b7	0.114381246
91	0x3defdcab	0.11712011
92	0x3c8f9164	0.017525382
93	0xbd68adf3	-0.056806516
94	0xbd59c0a5	-0.053162236
95	0x3e085c5d	0.13316484
96	0xbbcb1ac6	-0.00619826
97	0xbc57ac06	-0.013163572
98	0xbdedb7c0	-0.11607313
99	0x3b988707	0.0046547684
100	0xbdc33245	-0.095310725
101	0xbdfaa808	-0.12239081
102	0xbdb760a2	-0.08953978
103	0x3b0954d6	0.0020955107
104	0xbd627893	-0.05529077
105	0xbcf05d70	-0.02934143
106	0x3dde2839	0.108475156
107	0x3bea2713	0.0071457713
108	0x3df76590	0.120799184
109	0xbd8e82f1	-0.06958569
110	0x3e4aeac5	0.1981612
111	0xbd00b229	-0.031419907
112	0xbcd95028	-0.02652748
113	0xbdc39b4c	-0.09551105
114	0xbd80a0ce	-0.06280671
115	0x3d64b994	0.055841044
116	0xbdc4de48	-0.09612709
117	0xbc998b37	-0.01874314
118	0x3e2525d8	0.16127717
119	0x3e227291	0.15864016
120	0x3d6c0e99	0.05763111
121	0x3d6d54ec	0.057942316
122	0x3cc4433d	0.023957843
123	0xbdfbcae8	-0.12294561
124	0x3e290a0b	0.16507737
125	0xbe650d59	-0.22368373
126	0xbe84ae3d	-0.25914183
127	0xbe1239b7	-0.14279829
128	0x3dfec24b	0.12439402
129	0x3dc75f3e	0.09734963
130	0x3e1731e5	0.14765127
131	0xbdf0b3e4	-0.117530614
132	0x3e301cba	0.17198458
133	0x3d883b3e	0.066519246
134	0x3e610a9c	0.21976703
135	0xbc072dff	-0.008250712
136	0x3e1fbbdc	0.15599006
137	0x3e0fd948	0.1404773
138	0x3e31ccb1	0.1736324
139	0x3c822be2	0.015890066
140	0xbdd42240	-0.10358095
141	0xbdf87d7e	-0.12133311
142	0x3e0c1047	0.13678084
143	0x3dcec3c1	0.10095931
144	0x3d1751ef	0.036943372
145	0x3da5b4dd	0.080911376
146	0xbe0b1789	-0.13583197
147	0x3e52eac6	0.20597371
148	0x3deb422b	0.1148723
149	0xbd972016	-0.07379167
150	0x3e0d998b	0.13828103
151	0x3b7024de	0.0036643068
152	0x3e4a5185	0.1975766
153	0xbdb845fc	-0.089977235
154	0x3de4f853	0.111801766
155	0x3c20e06c	0.009819131
156	0xbcf8aebd	-0.03035676
157	0x3dff311f	0.12460541
158	0xbe08ac06	-0.13346872
159	0x3d86f3aa	0.06589444
160	0xbd68c5ac	-0.05682914
161	0x3d2f064e	0.042730622
162	0xbd186641	-0.037206892
163	0x3e29e32d	0.16590567
164	0x3da17d61	0.07885242
165	0xbdd89a0c	-0.10576257
166	0x3d4081ac	0.046998665
167	0x3cb72add	0.022359306
168	0x3dfdc9bd	0.12391994
169	0x3d9e7f1f	0.0773909
170	0xbd81c175	-0.06335727
171	0x3e2cf603	0.16890721
172	0x3e496e4f	0.19670986
173	0x3da84439	0.082161374
174	0xbd02804f	-0.031860646
175	0xbdee2220	-0.116276026
176	0x3d0b857a	0.03406284
177	0x3d539fd2	0.05166609
178	0x3e2eda65	0.17075498
179	0x3d877668	0.06614381
180	0xbdfa3add	-0.122182585
181	0xbc1e3b82	-0.009657742
182	0x3dd61a8c	0.10454282
183	0x3c459cfc	0.012061354
184	0x370b32aa	8.296842e-06
185	0x3c7c45d4	0.015397508
186	0x3d1f0302	0.038821228
187	0xbcb41118	-0.021980807
188	0x3dfc4536	0.123178884
189	0xbceb2026	-0.028701853
190	0x3db101de	0.08642934
191	0xbd80eafd	-0.062948205
192	0xbdf74d7a	-0.12075324
193	0x3e0f94ee	0.14021656
194	0x3e1806e7	0.14846383
195	0x3e3ac453	0.18238954
196	0xbd514a74	-0.051096395
197	0x3dd57216	0.10422151
198	0xbd7ee3d0	-0.062228978
199	0x3c9c1294	0.019051827
200	0x3e3872eb	0.18012588
201	0x3d1c96ba	0.03822968
202	0xbca4c29c	-0.020112328
203	0x3e5e223f	0.21692751
204	0x3da52a88	0.08064753
205	0xbe3026dc	-0.17202324
206	0x3c4d0260	0.012512773
207	0xbe057e7f	-0.13036536
208	0x3d8ba0c5	0.06817774
209	0xbe1678f4	-0.14694577
210	0xbb536cee	-0.0032260972
211	0x3dd81def	0.105525844
212	0x3d318f26	0.043349408
213	0x3dd16da2	0.10225989
214	0x3e3ae94d	0.1825306
215	0x3decc521	0.11561037
216	0x3e0703e1	0.13185073
217	0xbdcfe209	-0.10150535
218	0xbcfdcb2d	-0.03098067
219	0x3d9aa5a1	0.075511225
220	0x3d32f844	0.043693796
221	0x3dca6ff5	0.09884635
222	0xbe2b3fe5	-0.16723593
223	0x3e2da909	0.16959013
224	0x3e1ff776	0.15621743
225	0xbdc9956b	-0.09842952
226	0xbdc61df7	-0.09673684
227	0xbcc1a631	-0.023638817
228	0xbd927c5b	-0.07152625
229	0x3cc88b2d	0.024480427
230	0x3dd856cf	0.105634324
231	0x3d908138	0.070558965
232	0x3e29d4f4	0.16585141
233	0x3e479ea7	0.19494115
234	0xbd08de8c	-0.033415362
235	0x3e928599	0.28617552
236	0x3d6024a3	0.05472244
237	0x3dd48d04	0.10378459
238	0x3e2f563d	0.17122741
239	0x3d8c2883	0.068436645
240	0x3e46b340	0.19404316
241	0x3e56fe6e	0.20995495
242	0x3d35d07b	0.044388276
243	0xbcdde8b0	-0.027088493
244	0x3e40e7b5	0.18838389
245	0x3d09e221	0.03366292
246	0xbd1affc0	-0.03784156
247	0xbe0030ef	-0.12518667
248	0x3d9746f3	0.07386579
249	0x3e11a129	0.14221634
250	0x3e60e1ac	0.21961087
251	0xbda2f70e	-0.07957278
252	0x3d8e23ae	0.06940399
253	0xbdb73020	-0.08944726
254	0x3d99af94	0.07504192
255	0xbdeb0df7	-0.11477273

encoder_lstm.weight_hh_l0 f4 [128, 32]
0	0xbc020ecd	-0.007938099
1	0x3c6a3a25	0.014296089
2	0xbe2b8e76	-0.16753563
3	0x3d93c738	0.07215732
4	0xbce07400	-0.027399063
5	0x3e089654	0.13338596
6	0xbd44a785	-0.04801132
7	0x3dcb70f4	0.099336535
8	0x3d7323d3	0.059360337
9	0x3e1a7444	0.15083414
10	0xbcc3cf3b	-0.023902526
11	0x3d4fcc19	0.050731752
12	0xbca08b5d	-0.019597704
13	0xbdc7f5ff	-0.09763717
14	0xbe003aa2	-0.12522367
15	0xbe109980	-0.14121056
16	0xbddf674c	-0.10908374
17	0x3d5c8f1d	0.05384742
18	0x3e685ce5	0.22691686
19	0xbda043ef	-0.07825457
20	0x3e610ce0	0.21977568
21	0xbdd173dd	-0.10227177
22	0x3e2a137d	0.16608997
23	0xbe023bd3	-0.12718134
24	0xbe24515f	-0.16046666
25	0xbe1cf543	-0.15327935
26	0xbdaecb9d	-0.0853493
27	0xbe46c3da	-0.19410649
28	0xbc2dbe9c	-0.010604527
29	0x3df30916	0.118669674
30	0x3e0a748c	0.13521022
31	0xbe58010c	-0.2109415
32	0xbd90337d	-0.070410706
33	0xbdf49bc9	-0.11943776
34	0xbe0c0616	-0.13674197
35	0x3deafd74	0.114741236
36	0x3d40d4f0	0.047078073
37	0x3d2a8852	0.04163391
38	0x3dd898ba	0.10576005
39	0xbdf31266	-0.118687436
40	0x3e0398ba	0.1285123
41	0x3bab595e	0.0052291593
42	0x3c5957ad	0.013265532
43	0x3d5f936e	0.05458396
44	0x3e243d3d	0.16038986
45	0x3de3b9ee	0.11119448
46	0x3e59bff0	0.21264625
47	0x3ddb9292	0.107213154
48	0xbc8c5a1d	-0.017132813
49	0x3ca52792	0.02016047
50	0xbe16e094	-0.14734107
51	0x3d1548f7	0.036446538
52	0xbd982499	-0.074288554
53	0x3e1b604d	0.15173455
54	0xbcb08795	-0.021549026
55	0xbe2532cf	-0.16132663
56	0xbd82c99d	-0.06386111
57	0xbdecf517	-0.11570185
58	0x3dd74df3	0.105129145
59	0xbd29b3e1	-0.04143131
60	0x3d5b7bc4	0.05358483
61	0xbd73cedd	-0.059523452
62	0x3b3c7d9b	0.002876139
63	0x3d945585	0.07242874
64	0xbdd01551	-0.10160316
65	0xbced4fba	-0.02896868
66	0x3c8835b4	0.01662717
67	0xbe0074d8	-0.12544572
68	0x3e1344dc	0.14381737
69	0xbe0ba886	-0.13638505
70	0x3d8a19c4	0.06743196
71	0x3e40f3e6	0.1884304
72	0xbcad9d33	-0.021193122
73	0x3d2618b6	0.04055091
74	0xbd683522	-0.056691296
75	0x3d845130	0.06460798
76	0x3cf36aec	0.02971407
77	0x3df47d9c	0.119380206
78	0xbd877e54	-0.06615892
79	0xbdeeb589	-0.11655719
80	0xbca37282	-0.019952063
81	0x3d73a704	0.05948545
82	0xbd60f109	-0.05491737
83	0xbdc22905	-0.0948048
84	0x3d08cb39	0.033396933
85	0xbafb01c7	-0.001915031
86	0xbd108471	-0.035282556
87	0xbe020c1a	-0.12699929
88	0x3e1e5c48	0.1546489
89	0x3cfbdec1	0.030745866
90	0xbe5fee00	-0.21868134
91	0x3d19a4d6	0.037510715
92	0x3df01e59	0.11724538
93	0xbd152869	-0.03641549
94	0xbd44255e	-0.0478872
95	0xbe505f57	-0.2034887
96	0x3d7784e4	0.06042947
97	0xbde39ba0	-0.111136675
98	0xbdcb69f1	-0.09932316
99	0x38dbf49f	0.00010488298
100	0xbdf67438	-0.12033886
101	0xbda433d3	-0.08017697
102	0xbe0bae87	-0.13640796
103	0xbc3be081	-0.0114671
104	0xbd9e0bd6	-0.07717101
105	0xbd06d22c	-0.03291528
106	0x3c8f78ff	0.01751375
107	0xbdccad1b	-0.09993955
108	0xbdcbdc8c	-0.09954175
109	0x3de1e298	0.110295475
110	0xbd7c3ef5	-0.061583478
111	0xbc321182	-0.010868432
112	0x3dd1ab11	0.102377065
113	0x3cdde9da	0.027089048
114	0x3df18e22	0.11794688
115	0xbdad96a5	-0.08475999
116	0x3e3813b1	0.17976262
117	0x3e1e4575	0.15456183
118	0x3ddd5a5f	0.108082525
119	0xbe49cdbc	-0.19707388
120	0x3d2c1ddb	0.04202066
121	0x39b5f154	0.00034702814
122	0xbd8419c3	-0.06450226
123	0xbb550595	-0.0032504548
124	0xbccc5cc5	-0.02494658
125	0xbdf16b88	-0.11788088
126	0x3dc01110	0.093782544
127	0x3e042cfb	0.12907784
128	0x3e018c62	0.12651208
129	0x3d4149c0	0.047189474
130	0x3a1f9705	0.00060878723
131	0xbcfbd312	-0.030740295
132	0x3cdadeff	0.026717661
133	0xbd1ce448	-0.038303643
134	0x3df80567	0.121104054
135	0x3de7ce78	0.11318678
136	0x3e21b1c1	0.15790464
137	0xbd389564	-0.045064345
138	0xbd89911d	-0.06717131
139	0x3dfd639e	0.12372516
140	0xbe4f0e8b	-0.20220391
141	0x3dffe837	0.12495463
142	0x3da7f3c3	0.08200791
143	0x3d9a74ca	0.07541807
144	0x3db4bd2c	0.08825144
145	0xbd4adc2b	-0.049526375
146	0xbd127426	-0.0357553
147	0x3e3ddee4	0.18542057
148	0x3e24a4f5	0.16078551
149	0x3ce02316	0.02736048
150	0x3cbd3467	0.023096276
151	0xbdfdc91e	-0.12391876
152	0x3c80ab96	0.015706819
153	0x3e02e4a9	0.1278254
154	0x3be86a8b	0.007092779
155	0xbb7a5da4	-0.0038202787
156	0x3e513df0	0.20433784
157	0xbd6dee7a	-0.058088757
158	0xbd01befd	-0.03167628
159	0xbcfbed84	-0.030752905
160	0xbe3fc3d4	-0.18727046
161	0xbe0f20f0	-0.13977408
162	0x3e29067d	0.16506381
163	0x3db0a6a9	0.08625538
164	0x3e09a08b	0.13440149
165	0x3d2ebcd0	0.042660534
166	0x3d899d87	0.06719499
167	0x3e5ec290	0.21753907
168	0xbd49a134	-0.049226
169	0x3d548213	0.05188186
170	0xbd6dac41	-0.058025602
171	0xbdbcc9e2	-0.092181936
172	0x3dbbed30	0.09176099
173	0x3d234e17	0.039869394
174	0x3e223567	0.15840684
175	0x3dbc0589	0.09180743
176	0x3e05304f	0.1300671
177	0xbce24978	-0.027622923
178	0xbdf194a9	-0.11795933
179	0x3dc874aa	0.09787877
180	0x3c22ede6	0.009944415
181	0x3d81ec70	0.06343925
182	0x3d49beba	0.049254157
183	0x3dde4c97	0.10854452
184	0xbe324a21	-0.1741109
185	0x3ced7164	0.028984733
186	0x3d62d078	0.055374593
187	0xbd030027	-0.031982567
188	0xbd76a7f0	-0.06021875
189	0x3d579649	0.052633557
190	0x3d9ee4be	0.07758473
191	0x3d3f1364	0.04664935
192	0xbc86a1dc	-0.016434602
193	0x3dc23c30	0.09484136
194	0x3da722dc	0.08160946
195	0xbd5cba4e	-0.05388861
196	0xbdd4635b	-0.10370513
197	0x3c1a1cdb	0.009406294
198	0x3dc2551b	0.09488889
199	0xbe0db83d	-0.13839813
200	0x3d8c4d2e	0.06850658
201	0x3df2dbd1	0.11858333
202	0x3e35cdb7	0.17754255
203	0x3c492936	0.012277892
204	0x3daf9efc	0.08575246
205	0xbe106187	-0.14099704
206	0xbb3fa3b0	-0.0029241852
207	0xbe0c8141	-0.13721181
208	0xbdea90ea	-0.114534214
209	0xbe3baa6b	-0.18326728
210	0xbd23c18a	-0.039979495
211	0x3ad4473e	0.0016195548
212	0xbd5241b8	-0.051332206
213	0x3e174a8b	0.1477453
214	0x3d83aac2	0.06429054
215	0xbe46885f	-0.19387959
216	0xbc00e4f1	-0.007867084
217	0xbe050c62	-0.12993005
218	0x3ddac255	0.10681597
219	0xbd955096	-0.07290761
220	0xbe02445a	-0.12721387
221	0xbe088ed7	-0.13335739
222	0x3cca97d0	0.024730593
223	0x3e0978de	0.13425013
224	0xbd4a3d17	-0.049374666
225	0xbe0e80d8	-0.13916337
226	0xbe1c2a0e	-0.15250418
227	0xbd19d394	-0.037555292
228	0x3d42fecc	0.047606274
229	0xbc783de7	-0.015151477
230	0x3cb5e16c	0.022202216
231	0x3c90c2c8	0.017671004
232	0xbdf06ad6	-0.11739127
233	0xbc62f3a7	-0.013852037
234	0x3c69623f	0.014244615
235	0x3bca4288	0.006172482
236	0xbcc63cb2	-0.024198864
237	0xbd061e9d	-0.03274404
238	0x3d403e4b	0.046934407
239	0xbd54ebff	-0.051982876
240	0xbc85f94f	-0.016354231
241	0xbbcbe44b	-0.006222283
242	0xbe6ad155	-0.22931416
243	0x3dadb0f1	0.084810145
244	0x3dddd4ed	0.10831628
245	0xbdf765bb	-0.120799504
246	0x3dfbf29d	0.12302134
247	0xbd2b13a9	-0.041766796
248	0x3d447202	0.04796029
249	0xbe6fc178	-0.23413646
250	0x3de6ac94	0.112633854
251	0xbe0e5e13	-0.13903074
252	0x3e353ac8	0.17698205
253	0xbe566ca4	-0.2093988
254	0x3e0f0374	0.13966161
255	0x3de83515	0.113382496

encoder_lstm.bias_ih_l0 f4 [128]
0	0xbdce8881	-0.1008463
1	0x3dde9466	0.108681485
2	0x3d96e0b2	0.07367076
3	0xbd02c98a	-0.031930484
4	0x3d9456c7	0.07243114
5	0x3e0c7f6e	0.13720486
6	0xbde4febb	-0.111813985
7	0x3e08c157	0.13355003
8	0xbdcb9090	-0.099396825
9	0x3e29c322	0.16578344
10	0xbdd663cf	-0.10468256
11	0x3e05f043	0.13079934
12	0xbcc8edcd	-0.024527455
13	0xbddf125b	-0.10892173
14	0xbd03b7da	-0.032157756
15	0x3d11be92	0.035582133
16	0xbc3130eb	-0.010814886
17	0x3d436150	0.047700226
18	0xbe1e98b7	-0.15487944
19	0xbd1fa2fa	-0.038973786
20	0xbd286a13	-0.041116785
21	0x3e888428	0.26663327
22	0x3daec2a7	0.08533221
23	0x3e3b6c42	0.18303016
24	0x3d9ac678	0.07557386
25	0xbca18a85	-0.019719372
26	0x3e6958cb	0.22787778
27	0xbd3cdcd3	-0.046109032
28	0x3db704e9	0.089364834
29	0x3e19f417	0.15034519
30	0x3e1d1865	0.15341337
31	0x3a9cf6d0	0.0011975411
32	0x3d7caac3	0.06168629
33	0x3d8a8592	0.06763758
34	0xbde777c3	-0.113021396
35	0x3e03c15d	0.12866731
36	0x3df29e2a	0.11846574
37	0x3e32f318	0.17475545
38	0x3dee90d4	0.116487175
39	0x3d3077b3	0.043082904
40	0xbd3a477a	-0.04547832
41	0x3ce3a03a	0.027786363
42	0x3d2eb297	0.042650785
43	0x3e315257	0.17316566
44	0xbd3b3064	-0.045700446
45	0xbd9fa163	-0.07794454
46	0xbe8441fe	-0.25831598
47	0x3d36312d	0.04448049
48	0x3e3494ec	0.17634934
49	0x3e3ffa07	0.18747722
50	0x3dcd4d59	0.100245185
51	0x3dbe8e4a	0.09304483
52	0x3db0a627	0.08625441
53	0x3d66419a	0.056214906
54	0xbd52643c	-0.051365122
55	0xbd60fb1f	-0.054926988
56	0x3d480d1f	0.04884064
57	0x3dfb758a	0.12278278
58	0x3e3a7a50	0.18210721
59	0x3e3a3dde	0.18187663
60	0xbdbb8f17	-0.091581516
61	0xbc4a82c3	-0.012360278
62	0x3d872b06	0.06600003
63	0x3d93005c	0.07177803
64	0x3c5b6789	0.013391384
65	0x3dc7f1e9	0.097629376
66	0xbd107ceb	-0.03527538
67	0x3cc7b678	0.024379
68	0x3e0e784e	0.1391308
69	0xbe895a0e	-0.2682652
70	0xbe44b46b	-0.19209449
71	0xbe1f902f	-0.15582345
72	0xbde98d9f	-0.11403965
73	0x3e13d3d4	0.14436275
74	0x3d17b6be	0.03703951
75	0x3cc24514	0.02371458
76	0xbe59c09f	-0.21264885
77	0xbe13f691	-0.14449526
78	0x3d0cb25a	0.034349777
79	0xbe19a4c9	-0.15004267
80	0x3d87a80f	0.066238515
81	0x3cca2faa	0.024680931
82	0x3dd16950	0.10225165
83	0x3d78225c	0.060579643
84	0xbe0f9eb7	-0.14025389
85	0x3e1dcf6e	0.1541116
86	0x3d76966e	0.060202055
87	0xbdf45252	-0.11929764
88	0xbd0a2612	-0.033727713
89	0x3bca0097	0.006164621
90	0xbda01e2f	-0.07818257
91	0xbe3bff75	-0.18359168
92	0x3dfbbdb2	0.12292041
93	0x3e0cd136	0.13751683
94	0x3e165f4c	0.1468479
95	0xbc938b78	-0.01801084
96	0x3c03d67d	0.008046743
97	0xbdfda1d2	-0.123843804
98	0xbe0b69e3	-0.13614611
99	0xbc6abc8a	-0.014327178
100	0x3c55e373	0.013054716
101	0xbe169154	-0.14703876
102	0x3c353880	0.011060834
103	0x3e18d862	0.14926293
104	0x3d740c6e	0.059582166
105	0x3e4d79bd	0.2006597
106	0x3d9a20a1	0.07525755
107	0xbb963178	-0.004583534
108	0xbe043645	-0.12911327
109	0xbd834210	-0.06409085
110	0x3da4870f	0.08033573
111	0xbd5c3da5	-0.053769726
112	0x3dfc298c	0.12312612
113	0x3d19ffbb	0.0375974
114	0xbc2f8ed5	-0.010715206
115	0xbc51c1c5	-0.012802546
116	0x3bec2635	0.007206703
117	0x3e1f3bbf	0.15550135
118	0xbdc0b5b4	-0.09409657
119	0x3e85799a	0.26069337
120	0xbe1f429e	-0.15552756
121	0x3dfe2572	0.12409486
122	0xbe0e4d80	-0.13896751
123	0x3c836621	0.01603991
124	0x3e83edb7	0.257673
125	0x3d05a3b8	0.032626837
126	0xbe15d101	-0.1463051
127	0x3e41d8ff	0.18930434

encoder_lstm.bias_hh_l0 f4 [128]
0	0x3e10f27d	0.14155002
1	0xbd78bb86	-0.06072571
2	0xbc3aa3d5	-0.0113916
3	0xbd5e1313	-0.05421741
4	0x3df6a5f6	0.12043373
5	0xbe0c62df	-0.13709591
6	0x3e0692c6	0.13141927
7	0x3af467eb	0.0018646693
8	0x3e28d2fe	0.16486737
9	0x3dc03f71	0.093871005
10	0xbe39bb14	-0.18137771
11	0xbd801d6c	-0.06255612
12	0xbdcefa1c	-0.10106298
13	0x3d721558	0.059102386
14	0xbdfb54ef	-0.12272059
15	0x3d7d5748	0.061850816
16	0xbe1373fc	-0.14399713
17	0x3c48a58b	0.0122465
18	0xbe5638f5	-0.20920165
19	0xbdfea495	-0.12433735
20	0xbe2d8773	-0.16946201
21	0x3e72031f	0.23634003
22	0x3db35f24	0.08758381
23	0x3da961eb	0.082706295
24	0xbc195204	-0.009357933
25	0x3e74f3c0	0.23921108
26	0x3d40da7b	0.04708336
27	0xbd0b68d3	-0.034035515
28	0x3e7e4ee0	0.24834776
29	0xbd95bfdc	-0.07311985
30	0xbda7afd6	-0.08187835
31	0x3e87da5d	0.26533785
32	0xbd33b92b	-0.04387776
33	0x3e5b1c63	0.21397547
34	0xbe0e6146	-0.13904294
35	0x3a36edb2	0.00069781684
36	0xbd644ce3	-0.055737387
37	0x3e10a2b2	0.14124563
38	0xbc785ccc	-0.015158843
39	0x3c309876	0.010778537
40	0x3e0e537e	0.13899037
41	0x3e41cdc6	0.18926153
42	0x3d42ff54	0.04760678
43	0x3e156a27	0.14591275
44	0x3d96cb15	0.073629536
45	0xbd6aa057	-0.05728182
46	0x3d3adc87	0.045620468
47	0x3c0013c5	0.007817213
48	0xbd3f0890	-0.046639025
49	0xbda70122	-0.08154513
50	0x3dc24123	0.0948508
51	0xbd36e1d1	-0.04464895
52	0xbd3fd063	-0.046829592
53	0x3e1e3030	0.1544807
54	0xbdc87684	-0.0978823
55	0xbd6f3ceb	-0.058407705
56	0x3e123f75	0.1428202
57	0x3cba14d8	0.022715017
58	0x3cf5d180	0.030007124
59	0xbccdff7d	-0.02514624
60	0x3e675535	0.22591098
61	0x3db4c163	0.08825948
62	0x3e84e9c5	0.25959602
63	0xbd9205cf	-0.07130014
64	0x3e6e764c	0.23287314
65	0xbd73ae20	-0.05949223
66	0x3e30cbdb	0.17265265
67	0xbe7cc034	-0.24682695
68	0xbdceb6e1	-0.10093475
69	0xbe3be61c	-0.18349499
70	0xbe424671	-0.18972184
71	0xbdb9aad7	-0.09065788
72	0x3e14867f	0.14504431
73	0x3d3d0fbb	0.04615758
74	0x3e2976a2	0.16549161
75	0x3dbe85e7	0.093028836
76	0xbe486e3d	-0.19573303
77	0x3da33163	0.07968404
78	0x3deefa09	0.11668784
79	0xbdae502d	-0.08511386
80	0x3dd2e32d	0.102972366
81	0xbe502cd2	-0.20329598
82	0x3e2bbc10	0.16770959
83	0xbe18c531	-0.14918973
84	0xbd64852d	-0.05579107
85	0xbd405b57	-0.04696211
86	0xbc616382	-0.013756635
87	0x3df99667	0.1218689
88	0xbddcc691	-0.10780061
89	0xbe223ee3	-0.15844302
90	0xbe0b636e	-0.13612148
91	0xbe03aca9	-0.12858833
92	0x3de89f3f	0.11358499
93	0xbdef39d4	-0.11680952
94	0xbe35d744	-0.17757899
95	0x3e31ad21	0.173512
96	0xbbb56f5c	-0.0055369567
97	0x3da5ce13	0.08095946
98	0x3d2cc319	0.042178247
99	0x3e3b1869	0.1827103
100	0xbc661d49	-0.014045068
101	0x3b8c16f5	0.0042751976
102	0x3db7fc04	0.08983615
103	0x3d399953	0.045312237
104	0xbda0dc07	-0.07854467
105	0x3d3c1d7b	0.045926552
106	0xbe07211d	-0.13196225
107	0x3e3debaa	0.1854693
108	0x3e3956bd	0.18099494
109	0xbdb366dd	-0.08759854
110	0x3e2f1135	0.17096408
111	0x3d4bf06e	0.04978984
112	0xbe1e7810	-0.15475488
113	0x3e77bc9b	0.24193041
114	0xbd90d766	-0.07072334
115	0x3e2cab57	0.16862236
116	0x3db1828c	0.08667478
117	0x3e5ef31f	0.21772431
118	0x3c9faea5	0.019492457
119	0x3dd8c6ec	0.10584816
120	0xbd410ad9	-0.047129486
121	0x3e1d4f90	0.15362382
122	0xbc79c08d	-0.015243662
123	0x3e0d382d	0.1379096
124	0x3e66ce81	0.22539712
125	0x3c9a4af0	0.018834561
126	0xbc63588c	-0.013876092
127	0x3e4b2bfb	0.19840996

encoder_lstm.weight_ih_l1 f4 [128, 32]
0	0xbe164f71	-0.14678742
1	0xbd6bc023	-0.057556283
2	0x3e6bf2f5	0.230419
3	0xbc989877	-0.018627388
4	0x3e2e3262	0.17011407
5	0x3db3b0ff	0.08773994
6	0xbe5d5ce5	-0.21617468
7	0x3b175977	0.0023094097
8	0xbc5b4dd3	-0.013385254
9	0xbe216618	-0.15761602
10	0x3e46bdf4	0.19408399
11	0xbe179a0c	-0.14804858
12	0xbe2aa0ea	-0.16662946
13	0x3d2182d6	0.039431415
14	0x3e0c2584	0.13686186
15	0x3dd5119f	0.104037516
16	0x3ce6119c	0.028084569
17	0xbdb4da0d	-0.088306524
18	0xbe067719	-0.1313137
19	0x3e176d27	0.14787732
20	0xbcc25bcf	-0.023725418
21	0x3e0e1039	0.13873376
22	0xbe178d8e	-0.14800093
23	0x3d604fdf	0.05476367
24	0x3de1661c	0.11005804
25	0xbd534e3d	-0.051588286
26	0x3df832e0	0.12119079
27	0xbe13caf6	-0.14432892
28	0x3e8714ea	0.26383144
29	0xbe33dd36	-0.17564854
30	0x3d9f5924	0.07780674
31	0xbdb22d5c	-0.08700058
32	0x3e319302	0.17341235
33	0xbc43c7a4	-0.0119494535
34	0xbd118e6a	-0.035536207
35	0x3df485f6	0.119396135
36	0x3dc31862	0.09526135
37	0xbc8961da	-0.016770292
38	0xbe2cb9f9	-0.16867818
39	0xbe1cc9c2	-0.1531134
40	0x3d8addf8	0.067806184
41	0x3d0fa64b	0.0350707
42	0x3ddaceb8	0.1068396
43	0xbdf43950	-0.11924994
44	0xbd04d8f3	-0.03243346
45	0xbe2824eb	-0.16420333
46	0xbdd7ac7c	-0.10530946
47	0x3d823e22	0.06359507
48	0xbd6c9f71	-0.057769243
49	0xbd8550fb	-0.065095864
50	0x3c483980	0.01222074
51	0x3c9070ec	0.01763197
52	0x3d7b4fe0	0.06135547
53	0xbdd39d80	-0.10332775
54	0xbd5b258e	-0.05350261
55	0xbd97e4e7	-0.074167065
56	0xbdac8ae9	-0.084249325
57	0xbd250172	-0.04028458
58	0x3da9b0fa	0.08285709
59	0xbdec696e	-0.115435466
60	0x3d9f494f	0.077776544
61	0x3e0c0490	0.13673615
62	0xbde75cf7	-0.112970285
63	0xbe71e98b	-0.23624246
64	0x3e6b7a51	0.22995879
65	0x3c0e060c	0.008668434
66	0xbe621cfb	-0.22081368
67	0xbdf17652	-0.11790146
68	0x3e3fc935	0.18729098
69	0x3e40cca3	0.18828063
70	0x3d905f83	0.070494674
71	0xbcdf4ce7	-0.02725835
72	0x3b6b4107	0.0035896914
73	0x3e626a4d	0.22110863
74	0xbca46106	-0.020065796
75	0x3ab33438	0.0013672179
76	0xbe16059c	-0.14650577
77	0xbd8dd860	-0.06926036
78	0x3e875f28	0.26439786
79	0xbe1290f1	-0.14313103
80	0x3dd0337c	0.1016607
81	0xbd4f1994	-0.050561503
82	0x3e24c60a	0.16091171
83	0x3dc9a7fa	0.09846492
84	0x3e3c025a	0.18360272
85	0xbe12a870	-0.14322066
86	0xbd910180	-0.07080364
87	0xbe20c47c	-0.15699953
88	0xbd45ddc3	-0.04830719
89	0xbccfa2b6	-0.025346141
90	0xbbec2ae4	-0.0072072614
91	0x3d47c15f	0.048768397
92	0x3d117245	0.035509367
93	0xbe2e3421	-0.17012073
94	0x3da82cc4	0.08211663
95	0xbd4cefdf	-0.050033446
96	0x3d9af49b	0.07566186
97	0x3e5d71c7	0.21625434
98	0xbd90a902	-0.07063486
99	0x3e167b7a	0.1469554
100	0x3e321e3a	0.17394343
101	0x3e6673a3	0.2250505
102	0x3d07407b	0.033020478
103	0xbd0f7dd2	-0.0350321
104	0xbbe905b1	-0.007111274
105	0xbd8230bd	-0.06356952
106	0xbd98790d	-0.074449636
107	0xbdbc3a7f	-0.09190845
108	0x3eaca112	0.33716637
109	0x3c9775ae	0.018488731
110	0xbd9391e9	-0.072055645
111	0x3de84b23	0.11342456
112	0xbd98bc4f	-0.07457792
113	0xbd3ca5fb	-0.04605673
114	0x3b713928	0.003680775
115	0xbdbb2875	-0.09138576
116	0xbca1e3ff	-0.019762037
117	0xbdae75f3	-0.08518591
118	0x3d40b753	0.04704983
119	0x3e0f793a	0.14011088
120	0x3debf277	0.11520856
121	0xbdc72896	-0.09724538
122	0xbc5d221c	-0.013496902
123	0x3e1569b5	0.14591105
124	0x3e3b50f3	0.18292598
125	0xbe653caf	-0.2238643
126	0x3e4451b1	0.19171788
127	0x3e144965	0.14481123
128	0x3d7b240b	0.06131367
129	0xbdf08ebd	-0.11745975
130	0xbe556f0a	-0.2084314
131	0xbd59347e	-0.053028576
132	0x3e6bbbb1	0.23020817
133	0x3d17e662	0.037084945
134	0xbe5d2a8f	-0.21598266
135	0xbc4f0b8f	-0.012637033
136	0xbe813cd3	-0.25241718
137	0xbddd53de	-0.10807012
138	0xbb3ed5a9	-0.002911905
139	0xbd2ae02c	-0.041717693
140	0xbc883a4f	-0.016629366
141	0x3e8c09f5	0.27351347
142	0x3e80c7bd	0.25152388
143	0xbb636519	-0.003469771
144	0xbd62c25c	-0.055361137
145	0xbd921c42	-0.07134296
146	0xbdda2246	-0.106510684
147	0x3ecd1d78	0.40061545
148	0x3e14167f	0.14461707
149	0xbe0ab080	-0.13543892
150	0xbe0e6f8a	-0.13909736
151	0x3de481a0	0.111575365
152	0x3ce7dfed	0.028305018
153	0x3c792ea5	0.015208875
154	0x3df544ca	0.11976011
155	0xbe1472c1	-0.144969
156	0xbd5850b8	-0.052811354
157	0xbdcbe5a2	-0.09955908
158	0x3df315b3	0.11869373
159	0x3e346ebb	0.17620365
160	0x3c8c263f	0.01710808
161	0x3dab1da2	0.083552614
162	0xbd067e3b	-0.032835227
163	0x3de771b3	0.11300983
164	0x3dfd0b6e	0.12355696
165	0x3b3f6b36	0.002920819
166	0x3dc8f576	0.09812443
167	0x3e20475b	0.1565222
168	0xbe0b0b0a	-0.1357843
169	0xbe80a4bc	-0.25125682
170	0xbe343fe7	-0.17602502
171	0xbd40fbe2	-0.047115214
172	0x3d8c3c07	0.06847387
173	0xbe5f25f1	-0.21791817
174	0xbe62d353	-0.22150926
175	0x3d998c73	0.07497492
176	0xbdb46bf6	-0.088096544
177	0x3d0d2c8c	0.03446631
178	0xbd67ae5c	-0.056562766
179	0x3d98d506	0.07462506
180	0xbe5f30b6	-0.21795925
181	0xbdb6eb23	-0.089315675
182	0x3e2b8f40	0.16753864
183	0x3d50debe	0.050993674
184	0x3d9a8123	0.07544162
185	0x3cf37aca	0.029721636
186	0x3d2c9dc8	0.04214266
187	0x3e821ea7	0.2541401
188	0xbd737399	-0.059436414
189	0x3dc57698	0.096417606
190	0xbcdf1509	-0.02723171
191	0x3ddb7574	0.10715762
192	0x3dbdcc74	0.09267512
193	0x3e4cfc9e	0.20018241
194	0xbe1dde85	-0.15416916
195	0x3ddd2f7f	0.10800075
196	0xbe05aa8c	-0.1305334
197	0x3d0ea9f0	0.034830034
198	0xbe289307	-0.16462336
199	0xbd624e04	-0.055250183
200	0x3da38bef	0.079856746
201	0x3de1f089	0.110322066
202	0x3e6e61c7	0.23279487
203	0xbe1249f9	-0.14286031
204	0x3e040e92	0.12896183
205	0xbd580f16	-0.052748762
206	0x3cd4a26e	0.025956359
207	0xbd0ba7f6	-0.034095727
208	0x3e328841	0.17434789
209	0xbe131605	-0.14363869
210	0xbc9570de	-0.018242296
211	0x3d840a56	0.06447284
212	0xbdee29ab	-0.11629041
213	0x3d0b18ac	0.033959076
214	0xbe301d4c	-0.17198676
215	0x3e0697d3	0.13143854
216	0xbe272680	-0.1632328
217	0xbdfa077b	-0.12208458
218	0x3d7ecf73	0.062209558
219	0xbe511b3b	-0.20420544
220	0x3d48c882	0.049019344
221	0x3d8842ac	0.06653342
222	0xbd6c29b7	-0.05765697
223	0xbddac779	-0.10682578
224	0x3dac844f	0.08423673
225	0x3e191f4f	0.1495335
226	0x3b0bc4f8	0.002132712
227	0x3e4a043a	0.19728175
228	0x3df08b44	0.11745313
229	0x3d9d356f	0.07676207
230	0x3d73dcc9	0.05953673
231	0x3db1ddc3	0.08684876
232	0xbde7a623	-0.11310985
233	0x3d0404da	0.03223119
234	0x3ca162dc	0.01970046
235	0xbd9d4519	-0.07679195
236	0x3dee3d0d	0.11632738
237	0x3cbcbab9	0.023038255
238	0x3e1bd062	0.1521621
239	0xbd764bf7	-0.06013104
240	0x3e3bca70	0.18338943
241	0xbdf2b5a9	-0.11851055
242	0xbbaeaaa3	-0.0053304
243	0x3d335931	0.04378623
244	0x3dabe3f0	0.08393085
245	0xbc9dbf52	-0.019256268
246	0xbd5a6550	-0.053319275
247	0xbdacdf46	-0.084410235
248	0x3e1ca326	0.15296611
249	0xbcff7680	-0.031184435
250	0xbe2f7d88	-0.1713773
251	0x3b8c389d	0.0042792098
252	0x3e3cbf31	0.18432309
253	0xbd9f05b3	-0.07764759
254	0x3e15260b	0.14565293
255	0x3e33efda	0.17571965

encoder_lstm.weight_hh_l1 f4 [128, 32]
0	0xbd90d5ca	-0.07072027
1	0xbdbb138c	-0.09134588
2	0xbd0e3164	-0.03471507
3	0xbe2606fc	-0.16213602
4	0x3d66fe2f	0.056394752
5	0xbda9b64d	-0.08286724
6	0xbd01978b	-0.031638663
7	0xbd89a86b	-0.06721576
8	0x3c8c81f5	0.017151812
9	0x3e0b01d6	0.13574919
10	0x3e330fad	0.17486449
11	0x3de8110e	0.11331378
12	0xbd9d119e	-0.07669376
13	0x3cf30070	0.029663295
14	0x3d65e3d1	0.056125466
15	0xbbc7d20f	-0.006098039
16	0xbe001e4b	-0.12511556
17	0x3d8c659e	0.068553194
18	0xbdf2bd3b	-0.11852499
19	0x3da9595f	0.08268999
20	0x3cf66341	0.030076625
21	0xbc8fe87b	-0.01756691
22	0xbd17c0a0	-0.037048936
23	0x3dfcde61	0.12347103
24	0xbc187e68	-0.009307481
25	0xbe6cb337	-0.2311524
26	0xbdec7d8f	-0.11547386
27	0x3e163dcc	0.14672011
28	0xbd8c35f7	-0.068462305
29	0x3cd91d4b	0.026503226
30	0xbda99942	-0.08281185
31	0xbdbe80b1	-0.0930189
32	0x3dc289f5	0.094989695
33	0xbdd315f9	-0.10306925
34	0x3dd28e5a	0.10281058
35	0xbd93d428	-0.072182
36	0x3c9b7fe1	0.018981876
37	0x3d83902b	0.06423982
38	0xbe1cc7ab	-0.15310542
39	0x3d49d674	0.049276784
40	0x3c8b53df	0.017007766
41	0xbcc675f9	-0.024226176
42	0xbdb63445	-0.08896688
43	0x3d9ab227	0.07553511
44	0x3c88dd1c	0.016706996
45	0xbd1ae2a7	-0.03781381
46	0x3dc12d34	0.0943245
47	0xbde3d818	-0.11125201
48	0x3e1d259a	0.15346375
49	0x3e62d037	0.2214974
50	0xbe674571	-0.22585084
51	0x3def733a	0.116918996
52	0xbda16a33	-0.07881584
53	0x3e1369bd	0.14395805
54	0x3dd46e1f	0.103725664
55	0x3d60615b	0.054780345
56	0xbdf87a44	-0.12132695
57	0x3e26c262	0.16285089
58	0xbd42f368	-0.04759541
59	0x3e5b4f97	0.2141708
60	0xbd48205a	-0.048858978
61	0xbd597604	-0.053091064
62	0xbdef9f23	-0.11700275
63	0x3e3fc4af	0.18727373
64	0xbe0191d6	-0.12653288
65	0x3c878e0d	0.016547227
66	0xbbdc5461	-0.006723926
67	0xbe3a97be	-0.18221948
68	0xbdd8f3e0	-0.105933905
69	0x3e661865	0.22470243
70	0x3dab8a49	0.08375985
71	0xbe2719a8	-0.16318381
72	0x3c2c014d	0.010498357
73	0xbdb2686e	-0.08711325
74	0x3e0db4d0	0.13838506
75	0xbd8f1789	-0.06986911
76	0x3d83f589	0.064433165
77	0xbce19f4c	-0.027541779
78	0xbd7c8bca	-0.06165675
79	0x3d983e8f	0.07433807
80	0x3e462311	0.19349314
81	0x3e571811	0.21005274
82	0x3c84576b	0.016154965
83	0xbce75e13	-0.0282431
84	0x3d2d13b8	0.042255133
85	0xbcb36185	-0.021897087
86	0x3d844523	0.06458499
87	0x3d0e1160	0.03468454
88	0xbb1b1ea1	-0.002366938
89	0x3e375e88	0.17907155
90	0x3d8c9adc	0.068654746
91	0x3c4dcd29	0.012561121
92	0x3e63e2fd	0.22254558
93	0x3d40015b	0.046876293
94	0x3c1f55c9	0.009725043
95	0xbd54cecf	-0.05195504
96	0xbdea704c	-0.114472
97	0x3c4cd424	0.01250175
98	0xbc33b769	-0.010969021
99	0xbe0c32ba	-0.13691226
100	0x3d484352	0.048892327
101	0xbe1b706a	-0.15179601
102	0xbe00169c	-0.12508625
103	0xbdfc99c1	-0.12334014
104	0x3e3cb42e	0.18428108
105	0xbd231124	-0.03981127
106	0x3df3bc95	0.119012035
107	0xbdbe614d	-0.092959024
108	0x3e41fd4c	0.18944281
109	0x3e2a0cba	0.16606417
110	0x3e11ec97	0.14250408
111	0xbe080ddd	-0.13286538
112	0x3e3176ff	0.1733055
113	0x3db0c7c8	0.08631855
114	0xbda605b9	-0.0810656
115	0xbe1014ca	-0.1407043
116	0x3cd5a1b1	0.026078077
117	0x3e81bd73	0.2533985
118	0x3dfa432b	0.122198425
119	0xbe5cacd4	-0.21550304
120	0x3d2e7686	0.0425935
121	0x3e117493	0.14204626
122	0x3d2f5074	0.042801335
123	0xbe8dfade	-0.2773046
124	0xbd4999ab	-0.049218815
125	0xbda889ad	-0.082293846
126	0xb98359d1	-0.00025053186
127	0x3e284177	0.16431223
128	0xbc622405	-0.013802533
129	0xbe248265	-0.16065367
130	0xbe1b290d	-0.15152378
131	0xbda179ea	-0.078845814
132	0xbe00fdff	-0.12596892
133	0xbd8cf837	-0.06883281
134	0xbc7878b5	-0.015165498
135	0xbd95bcff	-0.07311439
136	0x3c03211b	0.008003498
137	0xbc8b1356	-0.016976994
138	0xbde48e27	-0.11159926
139	0xbd26ebeb	-0.040752333
140	0xbe036168	-0.12830126
141	0x3e88266f	0.26591823
142	0xbe147e77	-0.14501368
143	0x3d7cdf83	0.061736595
144	0x3eb34f90	0.3502164
145	0xbd16e93d	-0.036843527
146	0xbe0d88cb	-0.13821714
147	0xbd07829a	-0.033083536
148	0x3de7977e	0.11308192
149	0xbd154f6a	-0.03645269
150	0xbe694db8	-0.22783554
151	0x3d1eddfa	0.038785912
152	0xbcacbca3	-0.021086043
153	0x3d1e30f6	0.03862091
154	0xbe30eab9	-0.1727704
155	0x3e00853d	0.12550826
156	0x3dc37629	0.09544022
157	0xbe0fa50f	-0.14027809
158	0xbd85e780	-0.06538296
159	0x3ead479d	0.338437
160	0xbe03c918	-0.1286968
161	0xbe0f5dde	-0.14000651
162	0xbd442997	-0.047891226
163	0x3b5622ee	0.0032674628
164	0xbe310249	-0.17286028
165	0xbe50c17c	-0.20386308
166	0xbeb4d255	-0.3531672
167	0x3e8b192b	0.2716764
168	0x3deca3de	0.11554693
169	0x3e602271	0.21888138
170	0x3d8c6140	0.068544865
171	0xbd67108f	-0.056412276
172	0x3e54d6c1	0.20785047
173	0x3dd5d762	0.10441472
174	0xbe5a8e78	-0.2134341
175	0x3d540fb9	0.051772807
176	0x3e02d296	0.12775645
177	0xbe1e11ff	-0.15436552
178	0x3cff6370	0.031175345
179	0xbd2c5cfe	-0.04208087
180	0x3ce49980	0.027905226
181	0x3d8e5b09	0.06950957
182	0x3c93b36a	0.018029887
183	0x3dc54dd6	0.09633987
184	0x3dfabd69	0.12243158
185	0x3de5ed60	0.11226916
186	0x3e3be8d1	0.18350531
187	0xbe151200	-0.14557648
188	0xbe19fcd5	-0.15037854
189	0x3d9df643	0.07712986
190	0xbdadf40d	-0.084938146
191	0xbe1e551c	-0.15462154
192	0x3e1886c7	0.14895163
193	0xbe04acb8	-0.12956512
194	0x3e320c72	0.1738756
195	0xbe065235	-0.13117297
196	0xbe11ecff	-0.14250563
197	0x3e4181ce	0.18897173
198	0xbc5b2378	-0.013375156
199	0x3db7e833	0.08979835
200	0x3cc59f46	0.024123799
201	0xbcfa9e4d	-0.030593062
202	0x3ce772eb	0.02825304
203	0xbd16ea66	-0.036844634
204	0x3da6c141	0.08142329
205	0x3dd6f184	0.10495284
206	0xbe27fc60	-0.16404867
207	0x3d73a20e	0.05948072
208	0x3c43093c	0.011904057
209	0xbe0b70f2	-0.13617304
210	0xbc029231	-0.007969425
211	0x3e032e5e	0.12810656
212	0xbb8dd24c	-0.004328048
213	0x3e5efd16	0.21776232
214	0x3db3cf0e	0.08779727
215	0x3d818a13	0.06325164
216	0x3bc25117	0.005930077
217	0xbd54414d	-0.05182009
218	0xbe859a6e	-0.26094383
219	0x3d951799	0.072798915
220	0x3d30861c	0.043096647
221	0xbd67f21d	-0.05662738
222	0x3e7d58b4	0.24740869
223	0x3e124c59	0.14286937
224	0xbe3d25bc	-0.18471426
225	0xbd4d3e2b	-0.050108116
226	0x3e0afa0a	0.13571945
227	0x3e1c9898	0.15292585
228	0xbe67913d	-0.22613998
229	0x3e61be69	0.22045292
230	0xbc0ec92d	-0.008714956
231	0xbe1cc6ac	-0.15310162
232	0xbdb7879d	-0.08961413
233	0xbe5e7fbb	-0.21728413
234	0xbabaf625	-0.0014264031
235	0xbe63e56e	-0.22255489
236	0xbd33ff2f	-0.043944534
237	0xbcad453e	-0.021151181
238	0xbda1dc7e	-0.07903384
239	0xbad6df7a	-0.0016393506
240	0x3d24251f	0.040074464
241	0x3d2cec89	0.042217765
242	0x3d451796	0.048118196
243	0x3e7f090f	0.249058
244	0xbd0d5ab4	-0.03451033
245	0x3d0f2d74	0.034955457
246	0xbce0d0ed	-0.027443374
247	0x3dda7779	0.10667319
248	0x3e008279	0.12549771
249	0x3dab2279	0.083561845
250	0xbdaac28b	-0.083378874
251	0xbdeeb872	-0.11656274
252	0xbde0213f	-0.10943841
253	0x3ddc5836	0.107590124
254	0x3de4fb7a	0.11180778
255	0xbe362b1a	-0.1778988
