W3-Design/checkpoints/epoch_3.pt (torch, 384133 bytes, 24 tensors)

encoder_cnn.0.weight f4 [32, 3, 3]
00000000: fbb0 39be 08a4 83bc 265e 26be 8ebe 6e3e
00000010: 6fe3 72be ebfd 633e 76d0 393e a5a4 6f3e
00000020: 1c72 753e 6e2e 1fbe ff3a 4bbe 0695 68be
00000030: 890a 68be 92aa 8bbe 58bf e4bc 17bf aebd
00000040: fe9b a43e 9a3b b1ba 9fb7 c0bd 564d 003e
00000050: d793 cd3e 25aa 893e 8c6b a23e 9ce0 78be
00000060: 8055 56bd d959 403e 005c 1e3c affe 81bd
00000070: ad3e a83d 603f 8fbe 60a3 db3c 2878 993d
00000080: 2359 cebc 9626 0d3e 125c 703e 56ca cdbc
00000090: f18c c2bd e61c 203e 368c 983d 8c3d d33e
000000a0: 238d 34be c459 873e 4721 d63d f24d 113e
000000b0: 4424 7cbe 4437 203d 72f6 e0bc 84cf 9d3e
000000c0: deec 90be 5ea6 78be e385 c8bb d19b 443e
000000d0: a45a 873e 708f a5be 8016 d8bc a2e8 efbc
000000e0: 0ce7 703e caf5 023e 4194 c83d c1a1 38be
000000f0: 4a50 eebc f9cd 283e 4cd8 43be 216a e43d
00000100: 9832 ddbd 1558 c63e 7aa8 973e 2491 7bbe
00000110: 9029 a8be e425 f6bd 2d57 82bd cd66 d13e
00000120: bedc 03bd 3e11 973d 4144 58be 896a 993c
00000130: ed3e 23be 00d5 963e 7398 4abe a2eb af3e
00000140: c688 8ebd 9617 7fbe c882 eb3d 7766 95be
00000150: e9f6 813e 5e33 5cbc 62c1 89be b433 533e
00000160: 5e66 563e ff65 703d 1021 26bd a11c 913d
00000170: 22a5 ff3d 8088 3e3e c3fa babe 526d acbe
00000180: a377 78be 0aee 023e d1cc 8bbd d618 b9bc
00000190: 1427 8f3d 6f43 5d3e 913c 853d 024a ae3e
000001a0: 23aa 833d ce9d 3abe aa34 88be 63af db3d
000001b0: bdb7 c9bd b655 963e e50d 6a3e 5881 82bd
000001c0: 081b adbe 7198 cabe 0986 c93e b634 b5bc
000001d0: 2b48 51be d14b 183e 7a0d 8dbd 1e3a 6b3e
000001e0: 14e4 bcbb 8c01 99be 5674 5cbe 1a3f 46be
000001f0: 1fb8 adbe 0ae4 a5be e6fd b2bd afda 1fbe
00000200: 70f6 9ebd 33d1 c13e 75f2 853b 2463 40be
00000210: 31b7 463d 6ead e63d e383 4fbe 2e4a fa3e
00000220: d4cf 933e d349 933c 7751 40be 0f27 763e
00000230: 05ee 77bb 9c6b 76be 6cc9 af3d 93dd edbc
00000240: b852 bc3d 67c0 68be 3ab9 c4be 87a1 533d
00000250: 1e06 11be f063 53be 61e6 b43d e646 7bbe
00000260: 6c23 943d f6b5 18bc a84f 5a3e aa81 1c3c
00000270: 3f97 d03e 294d 35be 7239 ca3e 7c69 b43d
00000280: e423 11be a113 533c 5523 9d3e 56b2 953e
00000290: b7a1 b0bd 6f8e bdbd 0cb6 c6be 2ba6 8bbd
000002a0: 17fd 2f3e a6a5 47be 7ac0 7cbc 4faf e6bc
000002b0: a5d8 713e f6e8 103e 77af 8fbe dbc7 dcbe
000002c0: a48d e63d 9bec 9bbe 37f2 843c ea19 283e
000002d0: 8f61 bcbd b333 1dbe 025f 77be f8f0 0bbe
000002e0: 4d6e 803e 573a 85bc 8856 613e 1759 4a3e
000002f0: 9e2f 1dbe 8560 8d3e 54c3 d9bd 3f08 cdbc
00000300: b886 453d 6aac e63e 4aa6 853e 6dd1 b73d
00000310: 2d82 60be 9163 10be f8f0 203e 8082 c0be
00000320: 0a4f 883d 35d2 eb3d 5749 573e 4ce4 c0bd
00000330: 37b9 02be 1cf1 62be 34ae 98be 8e53 0e3e
00000340: d3db 69be 32c7 87be 1a19 43be c6be 273b
00000350: 8c4a edbd 7a0a cc3d 275a 4f3e b2c7 8a3e
00000360: 3f39 08be 44bb 083d 3ae8 5dbe 5533 2bbd
00000370: b4c8 7ebd 764a 9abe 11d8 653d 0fa6 bf3d
00000380: c4b8 d93d 7f86 d43d 01f7 1bbe c79d 883e
00000390: 423c 653e 0ac7 773e 51c8 46bd d95b 83be
000003a0: 8c3c 143e a8ae 873e eece d3be ca62 6fbd
000003b0: 811f 22be a57c af3e 8aeb 2a3e f09a 41be
000003c0: dcfe 823e 88a5 59bd a912 08be 3889 81be
000003d0: bf04 7bbd d3ff a1bd 37a7 0abe 5da2 f4bd
000003e0: 4125 a53e 5ef2 4dbe 7255 853e 671a 173e
000003f0: 7d43 783e 2af3 bdbd a252 f8bd f504 bdbd
-0.18133919 -0.016069427 -0.16246852 0.23314878 -0.23719572 0.22264831 0.18145928 0.2340265
0.2396931 -0.15545055 -0.19846724 -0.22713098 -0.22660269 -0.27278572 -0.027923271 -0.08532541
0.32150263 -0.0013521791 -0.09410023 0.12529501 0.40151855 0.26887622 0.31722677 -0.24304432
-0.052327633 0.18784274 0.009665489 -0.06347405 0.082150795 -0.2797804 0.026811302 0.07493621
-0.025188988 0.1378425 0.23472622 -0.025120895 -0.09499539 0.15636024 0.07448618 0.41257894
-0.17631964 0.26435673 0.10455566 0.1418989 -0.24623209 0.039115205 -0.027461264 0.30822384
-0.28305715 -0.24282214 -0.006119476 0.19200064 0.2643634 -0.32335997 -0.026377916 -0.029285733
0.23525637 0.12789074 0.09793902 -0.18030454 -0.02909102 0.16484822 -0.1912548 0.11153055
-0.108006656 0.38739076 0.29620725 -0.24567086 -0.3284421 -0.12018946 -0.06364284 0.40898743
-0.032192938 0.073763356 -0.21119787 0.018727558 -0.15941973 0.2945938 -0.19784717 0.3435946
-0.06959681 -0.24911341 0.11499554 -0.29179737 0.2538369 -0.013439981 -0.26905352 0.20625192
0.20937487 0.05869102 -0.040558875 0.07085539 0.124826685 0.18606758 -0.3651944 -0.33677155
-0.24264388 0.12786117 -0.06826175 -0.02259485 0.069898754 0.21607755 0.06505693 0.34040838
0.064289354 -0.1822426 -0.2660268 0.10726812 -0.098494984 0.29362267 0.22856863 -0.063723266
-0.33809686 -0.3956943 0.39360073 -0.022119861 -0.20437686 0.14872672 -0.06887336 0.22971389
-0.0057644937 -0.29883993 -0.21528754 -0.19360009 -0.33929536 -0.32400542 -0.087398335 -0.15610765
-0.07761848 0.3785492 0.004087741 -0.18787819 0.04851455 0.11263548 -0.20265155 0.4888472
0.28869498 0.017979538 -0.18781076 0.24038337 -0.003783108 -0.24064487 0.0858334 -0.029036319
0.09195465 -0.22729646 -0.38422567 0.051667716 -0.1416249 -0.20643592 0.08833004 -0.24538764
0.07233319 -0.009320727 0.21319449 0.009552399 0.40740392 -0.17705216 0.39496952 0.08809182
-0.14173847 0.012883098 0.3069102 0.29237622 -0.08624595 -0.09255683 -0.38810766 -0.068188034
0.1718639 -0.19496784 -0.015426749 -0.028159766 0.236178 0.14151368 -0.28063557 -0.43121228
0.112574846 -0.30453953 0.016228778 0.16416135 -0.09198295 -0.15351753 -0.24157336 -0.13666141
0.25084153 -0.01626317 0.22005665 0.19760548 -0.15350196 0.276127 -0.10632959 -0.025028346
0.04822418 0.45053416 0.2610343 0.08975492 -0.21924658 -0.14100482 0.15716922 -0.37599564
0.066557005 0.11514703 0.2102407 -0.09418544 -0.12765966 -0.22162288 -0.29820406 0.13899061
-0.22837763 -0.2651916 -0.19052544 0.0025595888 -0.11586484 0.09962936 0.20249234 0.2710548
-0.13303088 0.033381715 -0.21670619 -0.041797 -0.062203124 -0.30134934 0.05611426 0.09357845
0.10630944 0.103772156 -0.15230943 0.26682875 0.22386268 0.24197021 -0.04853088 -0.25656012
0.14476222 0.2650044 -0.41368812 -0.058443822 -0.1583233 0.34274784 0.16691414 -0.1890676
0.25585067 -0.05313638 -0.13288368 -0.25300002 -0.061283823 -0.07910123 -0.1354035 -0.11945031
0.32254985 -0.20111987 0.26041752 0.14756165 0.24244495 -0.092748955 -0.12125136 -0.09229461

encoder_cnn.0.bias f4 [32]
00000000: 88dd 253d f4ca f13d d48a 2d3e 3397 07bf
00000010: 9c9b 9ebe f9f8 4f3e 3b1c cebe 71a7 a1bd
00000020: 80cc ba3d 168f d53c 16e1 ad3e 557c 4e3d
00000030: 85ec bd3e faa4 adbd f8a3 6dbe 9494 5f3e
00000040: da5e 80be 6235 283e d122 a73e a386 3abe
00000050: 0bc8 17be 4d6c d33e d188 7c3e 33c3 3bbe
00000060: f88c 883a 21ba b4bd afe5 a2be 585b 9cbe
00000070: 795b a5be f820 4b3d d776 c3be 1b87 1e3e
0.04049447 0.11806288 0.1694749 -0.52965087 -0.30978096 0.2030982 -0.40255913 -0.07893265
0.091210365 0.026069205 0.3396079 0.05041154 0.37094513 -0.084787324 -0.2320708 0.21834022
-0.25072366 0.16426614 0.3264375 -0.18215422 -0.14822404 0.41293564 0.24661566 -0.18336181
0.0010417989 -0.08824564 -0.3181586 -0.3053844 -0.3229635 0.04959199 -0.38176605 0.15481226

encoder_cnn.2.weight f4 [64, 32, 3]
00000000: 5364 dbbd 88ee 8c3d ce92 dcbc 2dbd e4bd
00000010: 6d4d 8bbd 2ea4 7a3a 7c54 423e dadd 263e
00000020: 0c74 db3d 4f54 053d 82f8 febd 291f debd
00000030: c654 8a3d 1c07 803d 5905 b5bc 51e3 ecbd
00000040: 2298 493c 7a90 9ebd 3e49 523e 1397 7c3e
00000050: 3b9c 473e 49b9 2cbd f2be b1bd 233f 9abc
00000060: 4d8b 4d3d 16e0 253c 8251 e9ba 8d92 d53c
00000070: ae9b 653c b840 523d 7a17 46bd ef99 b13d
00000080: 4fe8 60bb af2a cf3d a55b bb3d 1689 9e3d
00000090: 04b7 363c 17bd 9fbd db59 70bd d944 1d3e
000000a0: 85ff f23d 0459 bf3d 04d4 913d 9050 6ebd
000000b0: 97e6 dd3c 7e4a 343e 4ba7 2f3e 707f 9c3d
000000c0: 42ba 243d 3ae6 363d 0317 543c d41e bc3d
000000d0: 04eb d7b9 5a7d 5a3d e583 b3bd df38 d1bd
000000e0: e23f b6bd ce5d 18bd 925d 6bbd b8c4 053d
000000f0: 2dd0 c2bb b0a1 25be cbe0 2cbd f4fd 963d
00000100: 1201 5b3d dd8e 0c3d aafa 493e 5996 aabb
00000110: 9bc3 f33d 7c98 9bbd 0656 f3bd 0195 9abd
00000120: fe05 22bc 13f1 f0bd 7560 8cbd cf9a c33c
00000130: 72b4 193e baa4 8bbd 0a41 25be d0bf 8cbb
00000140: e6b5 1bbe da52 8d3d 5905 f2bd bef4 a1bd
00000150: 09b1 5ebe d551 4ebe b2eb f2bd fd7e bbbd
00000160: 91fe aabd 9935 4d3c c4b1 bdbc 25e0 81bd
00000170: f20c 813b 4c20 3c3d 27d9 583d 98e0 30bc
00000180: c07c 24bc ad1e eb3c ee10 9b3d 3614 aa3a
00000190: 0a89 0c3c 4777 c3bb 53d9 01be d26b d2bd
000001a0: f72f cfbd c72e 1abd cf3d 213d b646 afbd
000001b0: 6fea 6ebe 468f 4abe 5afc f2bd c424 443d
000001c0: dbfb f73d 38fe cc3d b243 cf3d c840 f73d
000001d0: 1936 06bd 7c37 d73d c6db 323e bbbc 123e
000001e0: 5ee0 003d 0d5e 42be c8fc 1e3c 7551 c13d
000001f0: 59fe 4f3d 28c4 fabb 5ae1 053d bd8e eb3c
00000200: e6be 4d3d c841 21be 8cb6 8bbd 8876 97be
00000210: 9c92 c83d 65d1 ed3d 273e 913d 0ea0 a13c
00000220: eb4c d23d 528e fb3d 3a25 9d3a d619 713d
00000230: df99 b0bd 8e7b b23b 2068 8b3d aba0 9cbc
00000240: 2f3a 95bd 497f ce3d b43a b2bc 3f91 32be
00000250: 5e6e 26be 35e6 14be ab7a fc3d d5de 153e
00000260: d58b 293e 97c1 2d3e 6dd7 da3d 3911 083e
00000270: 3cc1 613d 918c 003d d22a 12bc 5f2b 20be
00000280: 16f8 0fbe dc3d 10be b63a 9d3d 357f e63c
00000290: 1ddc abbc 2e11 d13d 7719 20bd 39c5 173d
000002a0: e5e9 75bd 87c1 92bd 006a 64ba c53d b4bd
000002b0: fc76 bebd 191c 75bd 61a5 1d3c bc3e 6fba
000002c0: cf99 3cbe dd03 95bd 8096 cfbb 791e 04bd
000002d0: e17d 84bc 2ec2 23bd 94bf 8b3d ac75 fc3d
000002e0: 7f6b 683d fea7 3d3d 0be2 4b3c c3a0 473d
000002f0: 7baa 89bd cfac dc3d 301e a7bd ba08 c4bd
00000300: 5d2d 373d 7276 4fbc 664a e03c a17e c7bc
00000310: e4a4 0e3e cb5a 04be f6b1 c7bd f107 7abc
00000320: 4cd6 27be 1009 11bd 6c79 33bd ab51 aabd
00000330: 68e5 133b 09dd adbd faad 59be c0fa 5cbe
00000340: ff41 ac3d efc5 aebd 7efa e2bb 35de 0abd
00000350: 2e84 83bb 924b 8fbd 1761 963e 7ded 5dbc
00000360: 5d6f f93c e6b6 38be a671 acbc b47b f33c
00000370: 209f b3bd c626 17be 204a 93bd 90bb 203d
00000380: b75d c23a e2a5 b2bd e1f6 b03d 32a3 2fbe
00000390: 7c7a 20be 99f8 d1bd 0c0c 9e3b a2b0 54be
000003a0: 0320 3bbe 662f 12be a185 633e a306 cebb
000003b0: 69fd 1fbe 2184 85bd 46ca 3abe 7eae 72bd
000003c0: 1f42 fa3d 37dc 873d 2a5f 73be ff57 99bc
000003d0: 275a b7bd 6efb 1ebe c5dd 8bbe 3354 8bbe
000003e0: a6b7 f6bb 2d5f 74be c31b 5d3c 2a7d f83d
000003f0: 79dc 393d 5572 353d ef32 dfbd 4219 1fbb
-0.10712495 0.06881434 -0.02692547 -0.11168895 -0.06801877 0.0009561208 0.1897754 0.16295567
0.107154936 0.032551106 -0.12449743 -0.10845787 0.067544505 0.06251356 -0.022097277 -0.11566795
0.012304338 -0.077424005 0.20535752 0.24667005 0.19493191 -0.04216889 -0.08678998 -0.018828934
0.050181676 0.010124227 -0.001780078 0.026070857 0.014014168 0.05133125 -0.048362233 0.08671939
-0.0034318154 0.10115563 0.09148339 0.07740991 0.011152033 -0.07799738 -0.058679443 0.15358295
0.11865143 0.0934315 0.07120517 -0.0581823 0.027087493 0.17606542 0.17153661 0.07641494
0.04021669 0.044653155 0.01294494 0.091855675 -0.00041183096 0.0533422 -0.08765391 -0.102159254
-0.088989034 -0.037198834 -0.057462282 0.03265831 -0.0059452266 -0.1617496 -0.042206567 0.073726565
0.053467818 0.034315933 0.19724527 -0.005205911 0.11902543 -0.075974435 -0.11881642 -0.075479515
-0.009889124 -0.11764731 -0.06854335 0.02387753 0.1501024 -0.068185285 -0.16138092 -0.004295327
-0.15206107 0.06900568 -0.11817426 -0.07908009 -0.21747221 -0.20148404 -0.118613616 -0.091550805
-0.08349336 0.012524986 -0.023156054 -0.0634158 0.003938311 0.04592924 0.052941468 -0.010795735
-0.010039508 0.02870115 0.075715885 0.0012975994 0.0085775945 -0.0059651467 -0.12680559 -0.10274471
-0.101165704 -0.037642267 0.039365586 -0.08558409 -0.23331617 -0.19781217 -0.118645385 0.047886625
0.121085845 0.10009426 0.10120334 0.12072903 -0.032766435 0.1050863 0.1746665 0.14329807
0.031463973 -0.1898119 0.009703822 0.09439365 0.050779674 -0.007652778 0.032685615 0.028754586
0.050230883 -0.1574775 -0.068219274 -0.2958262 0.097935885 0.116122045 0.07091933 0.01972964
0.10268577 0.12283005 0.0011989244 0.05886253 -0.086230986 0.005446858 0.0680697 -0.019119581
-0.07286488 0.100828715 -0.021756507 -0.1743822 -0.16253039 -0.14540942 0.123280846 0.14635785
0.16557248 0.1696838 0.106856205 0.1328782 0.055115923 0.031384055 -0.008921342 -0.15641545
-0.14059481 -0.14086097 0.07677214 0.028136829 -0.020978982 0.10208355 -0.039086785 0.03705332
-0.060037512 -0.07165819 -0.0008713305 -0.08800844 -0.09300038 -0.05984125 0.009621949 -0.00091264746
-0.18418048 -0.072761275 -0.0063350797 -0.032255623 -0.016173305 -0.039980106 0.0682365 0.12327132
0.05674314 0.046302788 0.01244403 0.0487373 -0.0672197 0.10775148 -0.08160055 -0.09571977
0.044720996 -0.012662517 0.027379226 -0.024352374 0.13930088 -0.1292526 -0.0975074 -0.015260682
-0.16390342 -0.035409033 -0.04381697 -0.08316358 0.0022567157 -0.08489425 -0.21257773 -0.21580029
0.08411025 -0.085338466 -0.0069268337 -0.03390332 -0.00401356 -0.06996836 0.2937095 -0.013545391
0.03044861 -0.1803852 -0.021050286 0.029722072 -0.08770585 -0.14760885 -0.071918726 0.039241374
0.0014828955 -0.08723046 0.086408384 -0.17152098 -0.15671724 -0.10252494 0.0048232134 -0.20770505
-0.1827393 -0.14275894 0.22218944 -0.0062874123 -0.15624012 -0.06519342 -0.18241224 -0.05924844
0.12219643 0.066337995 -0.23766771 -0.018718718 -0.08952742 -0.155256 -0.27317634 -0.27212676
-0.007529217 -0.23864432 0.013495388 0.12133248 0.045376275 0.04429849 -0.10898387 -0.002427653

encoder_cnn.2.bias f4 [64]
00000000: d941 903d 2119 8abc 833f 013d af33 033d
00000010: 0f81 b73d 4636 5c3e d16b a53d 8e2c 6ebc
00000020: 21be 32bd ebc6 81bc 86fc c23d c316 17be
00000030: 9dcf ce3c fca1 bebd 834c e53c b992 693d
00000040: 37e5 e23c 576b f4bc 8949 11bd ea77 a7bd
00000050: c556 12be a059 453c 17ba a0bd fd5c 803d
00000060: 67aa 1bbe 69e4 a33d 2456 88bc 5a99 273b
00000070: 6443 24bd fab9 eabd 6186 9d3d 5736 4fbe
00000080: ac5f 00be 6c4c cd3d 8bee 543e 072b 88bc
00000090: d233 32bd 40ac f1bc 0b58 18bd b5d9 b63a
000000a0: e3c9 f6bd 40d1 49bd 56a6 6a3d b066 82bd
000000b0: 5d57 443d d126 82be 341b 2bbe a0c1 18be
000000c0: ec0e 05bc d9c6 0c3e 5fd3 d23b 5f4e cbbd
000000d0: 7abf 69be 3e23 86bc c447 c6bd 980d de3c
000000e0: 9f6e 31bd 31b8 e5bb 2df1 03bc a536 cbbd
000000f0: f122 4abe 4c59 4d3e 39e5 34be a387 d7bd
0.070438094 -0.016857686 0.03155471 0.03203171 0.08960163 0.21505079 0.08077205 -0.01453699
-0.043638352 -0.015841922 0.09520821 -0.14754777 0.025245482 -0.0930824 0.027990585 0.05702469
0.027697189 -0.02983634 -0.03547052 -0.08177169 -0.14290912 0.012045294 -0.07847994 0.06267736
-0.15201722 0.0800255 -0.016642638 0.0025573582 -0.04010333 -0.114612535 0.07691646 -0.20235573
-0.12536496 0.10024342 0.20794122 -0.01662208 -0.04350645 -0.02950108 -0.03719334 0.001395038
-0.120502256 -0.049271822 0.057287537 -0.06367242 0.04793488 -0.2542024 -0.16709596 -0.14917612
-0.008121233 0.1374773 0.006433889 -0.099270575 -0.22826949 -0.016374227 -0.09681657 0.027106091
-0.043318387 -0.0070104827 -0.008053106 -0.09922532 -0.19739892 0.20053595 -0.17665567 -0.105239175

encoder_lstm.weight_ih_l0 f4 [128, 64]
00000000: cd5f 433e 4e24 1ebd 07e6 ec3d 5ff0 053d
00000010: 631a 9d3e 6d98 cc3c 0373 0bbd cc65 1d3e
00000020: fab2 853e feab 593d eb21 513d cadb 913d
00000030: dd06 193e 1b79 12be 4d0f 14be 9cad 2f3e
00000040: 8c3b 413e f4a8 47bd 957b cebd 786b 22bc
00000050: 307e 50bc 5ca4 9f3d e83f 4f3e a938 e2bd
00000060: e825 9abb 5022 033d 1e4f b8be 7141 2c3e
00000070: 8d02 88bd faf1 ccbd c6f2 fc3d 1199 d03d
00000080: b5fb e73b a7d8 653e 6e8d 94bd 1adc 65bd
00000090: a5ec 08bd 8322 29bd be76 5c3d 96c5 01be
000000a0: c9de 0b3d 9bed 4b3e 1580 523e 03ed 6fbd
000000b0: 18bf 76bd 86ae febd be03 9abd 104c 6b3e
000000c0: 268a 973e b770 393e 1fd1 023e bcfc 54bd
000000d0: 24c2 5f3e 2696 0fbd 3660 04be 5242 d93d
000000e0: 8e3b ebba c64a 54be d188 02bd fbba 2ebd
000000f0: 631f 233d 271c c33e bcee 8fbd 9126 70bd
00000100: 83e0 a8bd c446 de3c 6a3a cdbd c87e b5bd
00000110: 9be5 18be a9d2 15be 5423 e03d eea7 883d
00000120: 50c5 833d 39b9 203e f086 1ebd fbc6 15be
00000130: 8e96 89bd cc4f d4bc 857e 983d acc3 563e
00000140: b88c e73d 94f4 323e 2196 4dbe cbd1 40bd
00000150: 6ec3 533e 6d0b f3bd 5799 4b3b 60a8 be3b
00000160: 9c20 473e 0e6a 75be 14c6 f33d 7d91 fb3d
00000170: c305 a73c f3ad 68bd e1f0 d7bd 71cb c53d
00000180: cb74 9abd 66fa a4bc 184b a0be 83d9 f7bb
00000190: 24b5 27be de3c 24be 69d5 1c3e 93f5 223b
000001a0: b8a1 62bd 33dd 4cbd 306b 603d d0bf f53c
000001b0: 32a0 673e 4f00 10be 3508 d63e 06b8 00bd
000001c0: 92a3 babd 388e 17bd 6bda a3bd f0fb 083d
000001d0: 08d7 29be efae 73bd 961b 253e a3e5 0e3e
000001e0: 2d0c 6c3d 5dec 59bd af5f 033c 37c3 fbbd
000001f0: 9490 3a3e bc41 8bbe 10cb 84be abeb 33be
00000200: 011b b83c 37ef d53c 8cbd 9f3e f7b8 f0bd
00000210: 06aa f33d 2aec 0abd 7eaa 633e 17e9 1f3d
00000220: b896 1e3e f240 103e 3698 db3d 3799 573d
00000230: 5411 13be 7e7d f8bd 75e0 cd3d 1511 e1bb
00000240: 6173 e93c e6b2 2c3d 7c1e bfbd 7fe6 4d3e
00000250: 1e40 eb3d 3d5e 0cbd 3896 0d3e 6e1e b7bd
00000260: 8c36 593e 8b75 1abe 9ef5 b23d fc9b 483c
00000270: a656 f7bc 1f31 ff3d 8550 52be 263d d83c
00000280: 45a4 81bd 84e3 663d 5ff8 ddbd abef a63d
00000290: 0c4e a63c d352 bbbd e177 5ebd fe85 b73c
000002a0: 04cc fd3d 77fb ef3d b0e6 bebd 984e ca3d
000002b0: 2275 923e 90dd 84bc c0a6 41bd ca22 eebd
000002c0: 9b8b cc3d ec31 fb3d cd00 4d3e 93fe b03a
000002d0: 27bb f7bd e459 43bd 441b d63d 0cf4 803c
000002e0: cd00 9d37 12e0 d1ba 4bc2 943d bc92 f3bc
000002f0: 6283 553d 74f7 a3bc 10a3 793d 88a7 a3bd
00000300: e81f 13be ffa7 3f3e b1ca fe3d 53c5 3a3e
00000310: 4a71 9bbd 8c61 9dbd 4a8e 0a3d c6bb 80bd
00000320: 3c8c 943e 240d 1a3d 01bd edbc 79dc 633e
00000330: e9a1 be3d dc26 30be 5f13 893d 7ddf d9bd
00000340: cabe a6bd 7e1b 65be a91b 86bd 4f81 d83d
00000350: a80a 3c3d cc37 8f3d 31f3 3a3e 1ce8 eb3d
00000360: 502f 483e a8ea 06be dd9d 1a3d 00bb 663e
00000370: 2054 303d f56f ca3d 0758 41be afc2 273e
00000380: ed0d 253e 836e f8bb 8244 9abc f757 79bc
00000390: 3e42 a1bd af82 9e3d c9e4 bf3d 1eab 983d
000003a0: f7c5 293e 87d6 723e b57f 883c 6b3d ad3e
000003b0: 1c0c fc3d af08 3c3e f8e2 aa3e 642a 8c3d
000003c0: d062 b23d ed99 383e 152f 033e bfde c53c
000003d0: 8ba3 563e ccc1 513d 9cfb 1abd a638 00be
000003e0: 643a 973d e1c4 e33d bd76 633e 83a4 9cbd
000003f0: 095d d53d d10b 49bd dc08 00bd 7f8a cbbd
0.19079514 -0.03860884 0.11567312 0.03269994 0.30684194 0.024975026 -0.03404523 0.15370864
0.2611311 0.05314254 0.051057737 0.071219996 0.14944024 -0.1430401 -0.14458962 0.1715607
0.18870372 -0.04874511 -0.10082165 -0.009913318 -0.012725398 0.07795021 0.20239222 -0.11045963
-0.004704226 0.032015145 -0.35997862 0.16821839 -0.066411115 -0.10007091 0.12350993 0.10185445
0.0070795664 0.22445928 -0.07253538 -0.05611811 -0.033428807 -0.04129268 0.05382418 -0.1267303
0.03414801 0.19914858 0.20556672 -0.05857564 -0.060240835 -0.124356315 -0.07520245 0.22978234
0.29597586 0.18109404 0.12775086 -0.05199884 0.21851403 -0.035055302 -0.12927327 0.10608353
-0.0017946826 -0.20731649 -0.03186876 -0.042658787 0.039824855 0.38107416 -0.07027957 -0.05863053
-0.08245947 0.027133353 -0.10020907 -0.08862072 -0.14931338 -0.14631142 0.10944238 0.06672655
0.06434119 0.15695657 -0.038702905 -0.14626686 -0.06718169 -0.025916956 0.07446007 0.2097308
0.11306137 0.17476112 -0.20076801 -0.047075074 0.2068002 -0.11867414 0.003106674 0.0058184117
0.19446033 -0.23966238 0.11903015 0.12283609 0.02038849 -0.056806516 -0.10543991 0.09657944
-0.07541808 -0.02013893 -0.31307292 -0.007563771 -0.16377693 -0.16038844 0.15315785 0.0024865612
-0.05533001 -0.05001564 0.054789722 0.02999869 0.22619703 -0.14062618 0.41803136 -0.0314255
-0.0911323 -0.037000865 -0.08000644 0.03344339 -0.16585934 -0.059493 0.16123804 0.13954787
0.0576288 -0.05320393 0.008018418 -0.12293094 0.18219215 -0.2719859 -0.25936174 -0.17570369
0.022473814 0.026115043 0.311993 -0.11754029 0.11897664 -0.03391663 0.22233006 0.03904065
0.15487182 0.14087275 0.10722391 0.05263635 -0.14362079 -0.12133311 0.100525774 -0.0068684914
0.0284974 0.0421628 -0.09331986 0.20107459 0.11486839 -0.03426956 0.13826835 -0.08941351
0.21212214 -0.15083902 0.08738254 0.012244221 -0.030192684 0.12460541 -0.20538528 0.026396345
-0.0633016 0.05636932 -0.10838389 0.08151182 0.020300888 -0.09146657 -0.054313544 0.02240276
0.123924285 0.11717885 -0.09321344 0.09878272 0.2860499 -0.01621893 -0.047278166 -0.11627729
0.09987565 0.12265381 0.20019837 0.0013503603 -0.12096243 -0.04769315 0.10454419 0.01574137
1.8716231e-05 -0.0016012213 0.07263621 -0.029733054 0.05212725 -0.020015456 0.060946524 -0.079909384
-0.1436764 0.18716429 0.12441004 0.18239336 -0.075899675 -0.07684621 0.033827104 -0.06285815
0.2901324 0.037610188 -0.029020788 0.22252072 0.09308226 -0.17202324 0.06693148 -0.1063833
-0.08141859 -0.22373769 -0.065482445 0.10571539 0.0459086 0.06993064 0.18256833 0.11518881
0.19549298 -0.13175452 0.037748206 0.22532272 0.043048978 0.09884635 -0.18881236 0.1638286
0.16118594 -0.0075815334 -0.018831495 -0.015218726 -0.07873963 0.0773977 0.09369809 0.07454513
0.16579424 0.23714648 0.016662458 0.3383592 0.12306997 0.18362688 0.33376288 0.06844023
0.08710253 0.18027468 0.12810929 0.024154065 0.20960824 0.05121021 -0.03783761 -0.1252161
0.07384184 0.11121536 0.22213264 -0.076485656 0.10418136 -0.049083535 -0.03125845 -0.099385254

encoder_lstm.weight_hh_l0 f4 [128, 32]
00000000: 096a 4d3d ec29 7c3c 0315 1bbe 86ae 40bb
00000010: a48b f63d e6d5 f33c ac07 0abe 41cb 7a3d
00000020: a410 8dbd a529 633e 9fb8 8e3c 2210 a3bd
00000030: 148f 17be 5543 24bd cf8a 02bc 3dea 80be
00000040: bbec efbd 9a1c 45bd e936 103e 69e6 d0bd
00000050: b92b 5e3e f4bf 953b cc65 703e 9a9d 39be
00000060: fa00 33be d025 4fbe 8ff0 14be b859 73be
00000070: 2d53 ec3d 8a24 fc3d c7f9 6f3e 5ca7 80be
00000080: dc77 e3bd 4bf0 e5bd ba79 48be e07e 323e
00000090: 60b8 e8bc e09b 473d f8ea 253e d850 eebd
000000a0: ec12 d83d 03e7 8cbc 4e29 88bd d1ef fb3d
000000b0: af9a 453e 4688 633d 299a 193e ff1d 2a3e
000000c0: fc7a 5a3d f6cc 453d 055d 18be 122b c63b
000000d0: d167 f1bd b7ac ab3d a5c3 aebd 16d5 14be
000000e0: a782 70bc 7220 79bd a678 c83d f2c6 1a3b
000000f0: 5993 e6bc a484 9fbd 5c89 a6bd 6bed bd3d
00000100: 86bf 5fbe e2d4 803c 88c2 f5bc fb5f a6bd
00000110: 962e e93b 3dda 3ebd cfac 2d3e 20dd 463e
00000120: 5451 8c3d 091c 883a 4319 cabd 98a3 0a3e
00000130: 6a64 0f3e ca16 993d 2f03 f1bd 8761 84bd
00000140: ea09 93bd 07ea cd3d 5308 2cbc c078 b8bd
00000150: 9948 d83c 4aae 6bbd b143 8abd 0034 cfbd
00000160: 945c cd3d 4208 533d 3157 5fbe ea18 503d
00000170: 7b3f d23c d46b a3bc 9d28 56be 230d ee3c
00000180: b7bd a3bd f5e1 26be fbe8 6abd 1d25 513c
00000190: 6f5a 7fbe 8c39 633d 2ea8 903c 29be f83c
000001a0: 63ed 5cbe b46e 0fbe 9ddd 7dbc 0724 c4bc
000001b0: 5d83 f3bc 5f58 c93d 2c38 21be 109c 123d
000001c0: 01ef 98bd adcc 563d 241c 0c3e 6143 07bd
000001d0: 78b5 003e d386 133d 1534 d83d cabd 8abe
000001e0: 9f32 073d e98a 11bd 3159 0dbe 53ea f4bb
000001f0: 6e2e 2abe 426a 7cbd a242 263e 4f62 f43d
00000200: a94e 8b3e 6103 9e3d da71 7f3d fb76 eabd
00000210: 04ce fa3d cb18 3bbe 7422 e73c 553b c33c
00000220: a002 1f3e d652 ce3d 3ebb 24bd 04ba a13d
00000230: ae9b b0be 3717 003e 6fcb 293e 4942 22bd
00000240: d2f7 593e 00f0 eabd 821a 893c 563f e63c
00000250: 7feb 6f3e 3510 313e 15cf 143d 09be 13be
00000260: 43bd e9bc a190 d93d 4948 9f3d dc72 a3bd
00000270: 2f35 ba3e 43db 5c3c 6def 913a e240 95bd
00000280: 8f72 12be d9b9 19be 4159 4b3e c77e 353d
00000290: dbb4 103e febb 513d b604 af3c de80 2c3e
000002a0: c4c0 463c a6a6 d73c 4d36 fb3b 4f1b 06be
000002b0: c5b7 103e ded6 ba3c f5da 583e a647 493d
000002c0: 8d73 c03d aad0 8abd 8c08 1abe 4981 283e
000002d0: 6102 153d d892 f53d f1e6 b53d 651a 153e
000002e0: eb39 07be 50a5 84bc 18b7 a03d fa53 86bd
000002f0: 65a7 0cbc 675e 503d cd42 763d 3b16 1f3d
00000300: c5cb 5fbd bade cdbe 9680 d73d dc5a 3a3e
00000310: fa4e b4bd 7032 20be ebf9 223e 6d29 4ebd
00000320: d6ce 43bd dc98 663e 0edd 2abd 9e1a b1be
00000330: 5c94 49bc 6d51 71bc ec97 01be a9be 1dbe
00000340: 414a 02be 3100 02bf 4d0b 3538 6e07 febd
00000350: d03a 28be c33e 1b3e 3791 fc3d 9153 82be
00000360: 1d9b 783e b06f 71be d3bb 453d b021 46be
00000370: 1e90 07be c118 393e 2f10 183e 6a5e 0c3e
00000380: cf78 9fbd 4cab 9dbd 9747 4bbe 8cc1 b53c
00000390: b51d ce3c 9e4d 793d 2f3c 803d c20a cd3d
000003a0: fbc0 3cbe fe5f 9bbd 3ba9 163c ae3b 683d
000003b0: dc5c 853c 67d2 ea3b 93b3 ccbc c113 d83b
000003c0: 8b3c df3a 90e8 413d e9c9 37be fcc9 163e
000003d0: 2c58 fd3d 0762 44be db7c ed3d 3f2e 4c3d
000003e0: 52e5 85ba c71d 28be 15c0 0d3e 0211 7cbd
000003f0: b4c0 9e3d 2cab 92be 44c2 e93d 5029 383e
0.05014995 0.015390854 -0.15144734 -0.00294009 0.12038353 0.02976508 -0.13479489 0.061228994
-0.068879396 0.22183855 0.017422019 -0.079620615 -0.14800674 -0.040103275 -0.007967665 -0.2517871
-0.11715075 -0.04812298 0.14083447 -0.10200197 0.21696366 0.0045700017 0.23476332 -0.18126526
-0.17480841 -0.20229268 -0.14544891 -0.23764694 0.11539302 0.12311657 0.23435126 -0.25127685
-0.11106846 -0.11227473 -0.19577685 0.17431211 -0.02840823 0.04873264 0.16202915 -0.116365135
0.10550484 -0.017199999 -0.06648503 0.12301601 0.19297288 0.055549882 0.15000214 0.16613005
0.053339943 0.04829117 -0.14879234 0.006047615 -0.117873795 0.08382552 -0.0853341 -0.14534411
-0.014679587 -0.060821958 0.09788637 0.0023617116 -0.028146433 -0.07788971 -0.08131668 0.092737995
-0.21850404 0.01572651 -0.029999986 -0.081237756 0.007116149 -0.046594847 0.16960452 0.1942029
0.068514496 0.0010384332 -0.098680995 0.13538969 0.14003149 0.0747505 -0.11768185 -0.06463914
-0.07179625 0.10054403 -0.0105000315 -0.09007406 0.026401805 -0.057539262 -0.06751192 -0.1011734
0.100274235 0.051521547 -0.21810605 0.05080501 0.025665035 -0.019948877 -0.2091393 0.029058998
-0.079951696 -0.16297133 -0.057351094 0.012765196 -0.24936841 0.055474803 0.01765832 0.030364113
-0.21574931 -0.14007074 -0.015494731 -0.02394296 -0.029725725 0.098313086 -0.15744084 0.035793364
-0.074674614 0.052441288 0.1368261 -0.033023242 0.12569225 0.03601725 0.10556809 -0.27097923
0.03300726 -0.035532866 -0.13803555 -0.0074742227 -0.16619274 -0.061624773 0.16236356 0.119328134
0.2720845 0.07715488 0.062364437 -0.11448475 0.122463256 -0.18271177 0.02821467 0.023832003
0.15528345 0.100743935 -0.04021763 0.07896808 -0.34493774 0.12508856 0.1658151 -0.039613996
0.21285942 -0.114715576 0.016736273 0.028106373 0.23429678 0.17291339 0.0363303 -0.14427961
-0.02853263 0.10623289 0.07777459 -0.07980892 0.363687 0.01348001 0.0011133977 -0.07287766
-0.14301513 -0.15012302 0.19858266 0.044310357 0.14131491 0.051204674 0.021364551 0.16846034
0.01213092 0.026324581 0.0076663853 -0.13096355 0.14132603 0.022807535 0.21177275 0.049140595
0.093970396 -0.06778081 -0.15042323 0.16455568 0.03637922 0.11990899 0.08881939 0.1456085
-0.13205688 -0.016192108 0.07847422 -0.06558986 -0.008584832 0.05087128 0.0601223 0.03883956
-0.05463769 -0.4020899 0.10522573 0.18198723 -0.08804126 -0.1564424 0.15915649 -0.050332475
-0.047804676 0.22519249 -0.04171472 -0.3459062 -0.012303438 -0.014728886 -0.1265561 -0.15404762
-0.12723638 -0.5078154 4.3164287e-05 -0.12403761 -0.16428685 0.1516066 0.12332385 -0.2545438
0.24277921 -0.23577762 0.048274826 -0.19348788 -0.1323857 0.18075849 0.14849924 0.13707891
-0.07786714 -0.07698688 -0.19851528 0.022187017 0.02516065 0.060865037 0.06261479 0.100118175
-0.18432991 -0.075866684 0.009195621 0.05669754 0.01627963 0.007166195 -0.024987971 0.0065941517
0.0017031593 0.04734093 -0.17948116 0.14725488 0.12370333 -0.1917802 0.1159608 0.04984879
-0.0010215438 -0.16417609 0.13842805 -0.061539657 0.07751599 -0.2864622 0.11414006 0.1798451

encoder_lstm.bias_ih_l0 f4 [128]
00000000: 8c77 a0bb 311b 1d3d 663b a93c 91c1 e9bd
00000010: 3281 4e3e 3d67 453e f60a b1bd 951c 973d
00000020: 8d13 203c 21cd 553e a658 c4bd 7ad1 2bbb
00000030: 8ae4 60bd 2353 24be 3cf0 2f3d ae03 b43c
00000040: 544a 1b3d 46c1 8f3d 6393 aebe 992a 1bba
00000050: ca1b 8fbd adc6 8b3e e48b 20bd 04bb 653e
00000060: 86ac c13d 8d41 2abe 270e 1c3e d426 7cbe
00000070: de30 163e 31c5 543e 4033 d93d 90f7 e0bd
00000080: 5be6 d83d ebb6 08bd 486d 1ebe b257 e73d
00000090: 33e9 1c3e 43e9 373e 584b 293e d23e 8bbc
000000a0: 75f5 c5bd b48a ccbc 38fb 983d 9f25 623d
000000b0: 463d e5bd 11e6 24be de73 76be 3ce9 ef3c
000000c0: e2c9 853e 9ba6 b13d a895 27bd fa94 123e
000000d0: 603e 19bc cbee b93d 035c f4bd 8618 abbd
000000e0: 6801 283d 5603 f5bc 4de9 1e3d 8d08 2ebd
000000f0: 96c2 5fbd 852e 87bc 68e5 d0bc 7b77 1e3e
00000100: 9221 b23d 9177 e93d 29c2 debc 6bb1 573c
00000110: b4d4 403e 5be2 8abe a466 36be b681 6ebe
00000120: 8962 b7bd 3612 6a3e e047 993d 9e11 f7bd
00000130: acd0 86be 3d00 dfbd 20f7 873d 5da0 20be
00000140: c703 fd3d 47e8 8a3c ef43 073e 4179 523d
00000150: a638 a6bd d7fc 373e 6a98 d2bc 27bd f33c
00000160: cad0 b0bd 6a55 fd3d 8b19 8fbc fd84 f6bd
00000170: 79fe 0e3e e419 053e 6c8d ff3d c731 cdbd
00000180: f97b 913d 4135 71be 370f 7fbe 5135 9cbd
00000190: bf80 f63d 5849 0cbe ec75 323c 175c 143e
000001a0: cc3e 393d 1718 6c3e a2f8 2a3d a30e 773d
000001b0: 8cf2 2fbe 3835 cbbd d4b0 133d 9b47 a4bd
000001c0: 8f21 573e 3e60 1d3b 040d 27bd 3c11 0ebe
000001d0: 6242 94bc 7fc2 693e 45d1 25be a056 963e
000001e0: 45bd 7cbe 501d 2dbd 29f6 cebd ca55 323d
000001f0: 2ba9 a53e 8d59 d3ba 86b4 4ebe 8ae3 513e
-0.0048970636 0.03835601 0.020658206 -0.11413873 0.20166472 0.19277664 -0.08644669 0.073784985
0.009770286 0.20879032 -0.09587221 -0.0026217387 -0.05490545 -0.16047339 0.042953715 0.02197441
0.03791268 0.07019286 -0.34096822 -0.00059191283 -0.06987722 0.27300015 -0.03919591 0.22434622
0.09456734 -0.16626568 0.15239774 -0.24624187 0.14667079 0.20778348 0.10605478 -0.10984719
0.10590812 -0.03337757 -0.15471375 0.112960234 0.15323333 0.17960076 0.16532648 -0.016997728
-0.09665958 -0.024968483 0.07469791 0.05521166 -0.111933276 -0.16103388 -0.24067637 0.02928602
0.26130587 0.086743556 -0.040914208 0.14314643 -0.00935325 0.09078749 -0.11931612 -0.08354287
0.041016966 -0.029908817 0.03879671 -0.042488623 -0.05462893 -0.016501674 -0.025500014 0.15475266
0.08697809 0.113997586 -0.027192192 0.013164858 0.1883114 -0.2712582 -0.17812592 -0.23291668
-0.08954341 0.2285851 0.07484412 -0.12063907 -0.2633108 -0.10888717 0.06638932 -0.15686174
0.12354236 0.016956462 0.13209508 0.051385168 -0.081162736 0.17967544 -0.025707442 0.02975328
-0.08633573 0.12369807 -0.017468235 -0.12037084 0.13964261 0.12998158 0.12478146 -0.1001926
0.07103724 -0.23555471 -0.24908148 -0.07627357 0.12036275 -0.13699853 0.010892373 0.14488254
0.045225903 0.23056065 0.04174102 0.060316693 -0.17182368 -0.0992226 0.03605731 -0.0802147
0.21008895 0.0024013664 -0.040783897 -0.13873762 -0.01809806 0.228281 -0.16193111 0.29362965
-0.24681576 -0.042264283 -0.10105545 0.043538846 0.32355627 -0.0016124711 -0.20186052 0.20496956

encoder_lstm.bias_hh_l0 f4 [128]
00000000: 0133 733e 5932 06be 51e6 83bd 26b3 0bbe
00000010: c1a8 7f3e 2ef6 a6bd af8c 203e 1329 6dbd
00000020: 284e 8c3e c529 0c3e 8db5 30be 43ae 48be
00000030: 6f98 06be 3b6d f73b ba01 43bd 869a 453d
00000040: db1c c3bd ed4a 0e3d 8163 cabe 6e09 b0bd
00000050: d1fa 4abe b888 783e eb52 17bd 4aff fd3d
00000060: b4de 1d3c 99c7 bd3d 88a0 e8bc d2c9 6fbe
00000070: b47e 9c3e 6776 80bc cb56 04be defe 1d3e
00000080: 204e b439 db57 e73d ad12 39be 05e7 75bc
00000090: 1ac8 abbc dd98 153e c1f4 093d 02f1 49bd
000000a0: 38d5 b33d 57c8 0b3e 9621 a33d 100a e53c
000000b0: fb5e f23b 72bd 0fbe 2c8f 813d 10be f1bb
000000c0: fff2 1c3d 63a7 3abe 10ae 3dbd bda8 b23b
000000d0: 1bdb 11be 3997 413e 1bd0 29be 7139 b2bd
000000e0: 803c 0a3e 9c18 05be 080c e8bd d07f 7fbe
000000f0: 0996 863e 4146 ac3d 4521 2c3e c345 3f3c
00000100: 74e8 9c3e a0a2 30bd e912 393e cc1d 84be
00000110: 4bfc 53bd 1ef7 3ebe aaf8 33be dbc6 2bbe
00000120: e09b 2d3e 4882 053e ef2c 503e 453a 52bd
00000130: fc4e 7cbe 3c1e ec3d be4b 183e f746 bcbd
00000140: 781f 243e e715 58be 814b 4a3e 7f2f 22be
00000150: fc3d 583b 414c afbc c31d ccbd 0fb6 8a3e
00000160: 4642 24be fa90 27bd 106f 9abd 7adf 85bd
00000170: 456f 053e 51a8 febd ce6f 4cbe 6a0b bb3d
00000180: 8854 6b3d 95eb fbbc 1fe9 90bd 5253 f73d
00000190: 9800 bf3d d38b 6a3c cba3 b73d cca8 273d
000001a0: f342 bebd 164b 9b3d 1773 29be 6230 803e
000001b0: 769a 0d3e 075a fbbd e7b9 013e 8a3d bf3c
000001c0: 5bd6 8abd 35b2 533e 066c cebd 85d8 2e3d
000001d0: 1c5f 7b3d eabc 943e dd02 46bd ad1d 0e3e
000001e0: 7ebd 0dbe eea7 50bc 50b3 b93c 1261 293e
000001f0: c122 953e 1f64 7cbc 0632 8ebd 8636 5b3e
0.23749925 -0.13105144 -0.06440414 -0.13642558 0.24966718 -0.08152424 0.15678667 -0.0579005
0.27403378 0.13687809 -0.17256756 -0.19597726 -0.13144086 0.007550863 -0.04760907 0.04824307
-0.09526988 0.034739424 -0.3952904 -0.085955486 -0.19822241 0.24270904 -0.03694431 0.12402208
0.009635616 0.09266586 -0.02839686 -0.23416832 0.30565417 -0.015681459 -0.12923734 0.15429255
0.00034390483 0.11296054 -0.1807353 -0.015008693 -0.02096944 0.14609094 0.03368068 -0.04930211
0.087809026 0.13650642 0.079653904 0.0279589 0.0073965765 -0.14037111 0.06326136 -0.0073773935
0.038317677 -0.18227915 -0.046308577 0.005452244 -0.14243738 0.18905343 -0.16583292 -0.08702362
0.13499641 -0.12997669 -0.1133042 -0.249511 0.26286343 0.08411837 0.16809566 0.011674347
0.30646098 -0.04312384 0.1807362 -0.25803983 -0.051754277 -0.18648955 -0.17575327 -0.16775076
0.16953993 0.1303798 0.20329641 -0.0513251 -0.24639505 0.11529204 0.14872643 -0.09193223
0.1602763 -0.21102105 0.19755365 -0.15838431 0.003299593 -0.021398665 -0.09966614 0.27092025
-0.16040906 -0.040909745 -0.07540715 -0.065367654 0.13030727 -0.124344476 -0.19964525 0.091330364
0.057453662 -0.030751983 -0.07075714 0.12076439 0.09326285 0.014315563 0.08966788 0.04093246
-0.09290113 0.07582681 -0.1654781 0.25036913 0.13828453 -0.12273031 0.12668572 0.023344774
-0.06779166 0.2067345 -0.100791976 0.042686958 0.06137 0.2905038 -0.048342574 0.13878508
-0.13841817 -0.01273535 0.02266851 0.16540936 0.29128078 -0.01540473 -0.06943135 0.21407518

encoder_lstm.weight_ih_l1 f4 [128, 32]
00000000: c014 b6bd 3347 a1bd eeed 233e 9b95 91bb
00000010: 35c4 603e c743 033e 3610 60be e4e5 3d3d
00000020: 4b9f 2bbc 299a 67bd 708d 813e 22f0 28be
00000030: 8822 53be ab46 9c3d c1eb 623d 0ea1 3b3e
00000040: fe15 af3c 6414 00bc 9a00 3abe 8834 e13d
00000050: 545f 2e3d 5a6c 843d 6939 46be 5968 61bd
00000060: 4749 493d 9d97 dc3c 1b9d a03e 9ab4 42be
00000070: 8ff7 983e 829a 86be bb54 413d c5ea a1bd
00000080: 216d 5d3e 51bd 8abb 1248 08be 0c99 313e
00000090: cc11 a13d 4e06 973b 5ff5 2cbe d6ac a3bd
000000a0: 0a95 a4bd b80b 9ebc 5ca2 4c3c adbe d3bc
000000b0: 1b17 c13c 62cb fdbd 3c75 f0bd cdcf 9c3d
000000c0: a7a2 58bd e2fe 4ebd 91cb 023d 92de cabc
000000d0: 07a8 033e 7241 03be e2da 41bd 3d1c c83d
000000e0: 631f 1ebe bdb4 6ebb 4f58 e93c 8c21 e63b
000000f0: 65e8 db3c 3af4 583d 0244 39be ddf1 3dbe
00000100: fc84 653e 6dbf 073d 6537 97be f54d 6dbd
00000110: 916b 8c3e 547a 673e 0838 ca3d 3e31 233d
00000120: 0a64 c4bc edb9 7d3e df8a 213c 0744 99bd
00000130: fec7 81be 056b a1bd 644e 6a3e 872a 00be
00000140: eee6 943d 58b1 f8bc 0243 173e a025 8b3d
00000150: 1a39 693e 3307 4bbe 6032 b0bd 8664 1abe
00000160: 2c2a bcbd d1f1 323c 77fc e2bd 2eab 703d
00000170: 4650 113d 3809 8bbe b792 923d 7f95 233b
00000180: 505a d93d 79c2 6c3e 3ec2 32be b474 363e
00000190: 16c7 613e e2ab 653e 6fbb 343c 1f66 be3c
000001a0: 407d ffbd 702d 9fbc 2855 0cbe 24e5 b5bd
000001b0: e78c 953e 69b5 283d 1312 e5bd 4fe2 fa3d
000001c0: b658 b6bd 8076 dcbc d5d5 0c3d 31df d7bd
000001d0: a836 87bc 252a b2bd 5a44 863d 7f79 553e
000001e0: d69b 643d 3a48 29bd f809 5fbc 8679 4f3e
000001f0: 366e 823e 824e a4be f939 163e a219 3a3e
00000200: 8f4a 103e fb63 8cbc 329a 90be f75c 15bd
00000210: 602b 8d3e aa5c 8d3c 795e 98be ae3b 27bd
00000220: 953d b7be a7ee 84bd cd60 8e3c 93ee c6bd
00000230: 33eb 81bd ac3d 793e 6e82 9f3e 7ac4 b3bc
00000240: f62a c2ba e800 71bd bfbc cfbd 005b ae3e
00000250: e1f3 573d 3811 d0bd e547 05be cce7 583e
00000260: f054 053d f5b7 a03d e667 953d 8bd5 aabd
00000270: 22f7 8a3d 1e9b 2cbe 6ed3 2f3e b469 d33d
00000280: 2ba6 893d 9d68 943d 22f4 b0ba 85d6 a43d
00000290: c7c7 d73d 7471 fabc 02de a73d d810 053e
000002a0: d72b edbd 119a acbe b718 24be a446 e3bb
000002b0: d57f 293e 8524 63be 7586 3dbe 94d7 3c3d
000002c0: 731c 49bd 800e 813b fa4e c4bb 97cf d33d
000002d0: 6bf2 62be b879 7fbd fa4a 4e3e 2a12 8f3d
000002e0: af8b c13d 34b3 053b 8141 823d 3e4b 943e
000002f0: c411 89bd 4ed3 053e b8b8 e7bc 26b6 af3d
00000300: 6dd2 0f3e e7a9 693e bfdd 46be 8b95 093e
00000310: 2fbb 4cbd 141b 6d3d abdd 3cbe 98d9 dd3c
00000320: c153 ad3c 29f8 243e 0a73 573e 4dc3 59be
00000330: c59a d93d 32e0 37bd 1255 03bc ce8a 8fbc
00000340: 7252 3a3e f3b4 fbbd 93fb 23bd 42a3 d23c
00000350: 4f39 b1bd 16c6 8d3c ec5b 4abe 6708 113e
00000360: 85ca 46be 3bd0 d4bd 7810 e53c e147 89be
00000370: 0812 003e 0dc0 8d3c 64c2 0abd d64b cfbd
00000380: 131f b93d 52c7 133e 6031 c9bc 503f 623e
00000390: aea0 2b3e be27 eb3d 5ffa ac3d 9239 1e3e
000003a0: 2297 13be 1f7c 1e3e 2225 143c 55b3 ffbd
000003b0: a116 f93d 3637 703d 5e59 cf3d b093 05bd
000003c0: e041 083e 02b5 bcbd fc52 d93c a777 d33b
000003d0: ddfd e43d a3f9 febc 100b 9cbd 092f b6bd
000003e0: 55c1 e03d 038d 2bbc ad73 0dbe 962f 63bd
000003f0: 93ef 6c3e 1820 f2bd 8681 1e3e 726e 6f3e
-0.088906765 -0.07874908 0.16008732 -0.004442883 0.21949847 0.12818824 -0.21881184 0.04636182
-0.01047499 -0.056543503 0.2530322 -0.16497853 -0.20618641 0.07630666 0.055400614 0.18323156
0.021372791 -0.0078173615 -0.18164292 0.10996348 0.04257138 0.06465979 -0.19357838 -0.055031154
0.04914215 0.026927764 0.31369862 -0.19014207 0.29876372 -0.26289755 0.047199946 -0.07906107
0.2162366 -0.004233994 -0.13308743 0.17343539 0.078647226 0.004608906 -0.16890477 -0.0799195
-0.080362394 -0.019292697 0.012489881 -0.025847757 0.023570588 -0.12392308 -0.11741111 0.07656822
-0.052889492 -0.050536044 0.031932417 -0.024764333 0.12857066 -0.12817934 -0.047327884 0.09771011
-0.1544166 -0.0036423646 0.028484492 0.007023042 0.026844213 0.052967288 -0.18092349 -0.18549295
0.22414011 0.033141542 -0.2953445 -0.057935674 0.27425817 0.22605258 0.09873968 0.039841883
-0.023973484 0.24777956 0.00985977 -0.07483678 -0.25347894 -0.078817405 0.22881466 -0.12516223
0.07270609 -0.030358002 0.14771655 0.06794286 0.22775689 -0.19826965 -0.08603358 -0.15077409
-0.09187731 0.010921911 -0.1108331 0.058757 0.035476945 -0.2715547 0.0715689 0.0024960933
0.10612929 0.2312106 -0.1745691 0.17817956 0.22048602 0.2242885 0.011031016 0.023242055
-0.124750614 -0.019430846 -0.1370436 -0.08881596 0.29209062 0.04118863 -0.11185088 0.12250196
-0.08903639 -0.026911974 0.034383614 -0.10540617 -0.016505554 -0.08699445 0.06556006 0.20847128
0.05581268 -0.041328646 -0.013613217 0.20261201 0.2547471 -0.32091147 0.14670552 0.1817384
0.14090942 -0.017137518 -0.28242642 -0.03646561 0.27572155 0.0172561 -0.29759577 -0.0408284
-0.3578917 -0.06490832 0.017380143 -0.09713473 -0.06343689 0.24339932 0.31154197 -0.021944273
-0.0014813829 -0.058838755 -0.10143422 0.34053802 0.052722815 -0.10159534 -0.13015707 0.21182173
0.032551706 0.07847587 0.07295208 -0.08341511 0.06785418 -0.16856048 0.17170498 0.10322896
0.06721147 0.07246516 -0.0013500492 0.08048729 0.105361514 -0.030571677 0.081966415 0.12994707
-0.115806274 -0.33711293 -0.16025053 -0.0069359113 0.1655267 -0.221819 -0.18508323 0.04610403
-0.049099397 0.003938496 -0.00599086 0.10342329 -0.22162788 -0.06237194 0.20145789 0.069858864
0.09450471 0.0020401003 0.0636015 0.28963655 -0.06692842 0.13068888 -0.028286323 0.08579664
0.14045115 0.22818719 -0.19420527 0.13435952 -0.0499832 0.05788715 -0.18443935 0.027081296
0.021158101 0.1611029 0.21039978 -0.21265908 0.10625223 -0.044891544 -0.008015888 -0.017522242
0.18195513 -0.12290373 -0.04003484 0.025712613 -0.08653509 0.017306369 -0.19761628 0.14163361
-0.19413193 -0.10391279 0.027961954 -0.26812652 0.12506878 0.017303491 -0.03387679 -0.101218864
0.0903913 0.14431503 -0.024559677 0.22094464 0.16760513 0.114821896 0.08446192 0.15451649
-0.14413121 0.15477036 0.009042056 -0.12485377 0.12162519 0.058646403 0.10124467 -0.03261155
0.1330638 -0.09214212 0.026528828 0.0064534727 0.11181233 -0.031124895 -0.076192975 -0.0889569
0.10974375 -0.0104706315 -0.13813658 -0.055465303 0.23138265 -0.11822528 0.15479097 0.23381975

encoder_lstm.weight_hh_l1 f4 [128, 32]
00000000: ac50 e6bc 29dc 81bc 6009 70bd d64a 86be
00000010: f02e 183e 489b 3a3d 3cb9 bfbb 7918 d4bd
00000020: 7b57 033d a9fd 0c3e cc15 1d3e bc21 2e3e
00000030: 4ee9 acbd 549c 65bd a2b6 223e 7717 69bb
00000040: 148e 8dbe c02e 023e b269 4ebe 58ab 193d
00000050: 1d4b df3d e2ce f0bd 21e5 043d 6b97 ee3d
00000060: 0851 59bc 88b5 6fbe 5f47 12bd 198c 783e
00000070: 766e 1ebe 3d1a 043b 655f 21bd e18a 33be
00000080: 7fd3 243e 67cb d8bd 840b e83d a1e7 c0bd
00000090: 8e84 663d c7a6 b63d e0c3 32be 54d1 8b3d
000000a0: 099e 813d d31b 773d 9bb1 ddbd 7910 993c
000000b0: 08d4 4f3d e33e 81bb 08dd c13d bc4a 60bd
000000c0: cc44 663e ca26 453e e822 32be 27e7 b83d
000000d0: b7b4 21bd bfbc 0e3e e5bd 5c3d 2b13 3c3d
000000e0: f8a4 18be 6f16 8c3e 43ab 69bd 2c0b 2e3e
000000f0: ad09 353b 74ef abbd cdd8 8ebd 8d97 343e
00000100: ba65 86bd 98e3 b73c 0d93 d0bc eb20 62be
00000110: 6e1a 31be 233a 813e 913d 9a3c 62e0 21be
00000120: 24cb 84bc 4fc7 acbb 9c70 2d3e bf06 f0bd
00000130: 43c6 ce3d d228 f5bc ed29 04bd a2e3 133e
00000140: e603 7c3e 7926 713e f50a 54bd 0b57 83bd
00000150: 308c b13d 4ee8 5abd 8722 9f3d 1535 f3bc
00000160: 62a8 5abd 650d 593e 1d6f bc3d b410 693d
00000170: c584 7e3e ec96 b3bb f732 b03d c6be a6bd
00000180: f1da 0dbc 05ea d63d 8740 663d 76d4 61be
00000190: 23dd a53d 9942 d6bd 998d b0bd 08b4 6cbe
000001a0: 355d 323e 9388 c0bc a34f ca3c 41c6 acbd
000001b0: 2f8d 363e 0a65 d23d 3086 443e b5f6 fabd
000001c0: 9bb7 f53d 97c1 323e 8a57 0dbe 9f46 28be
000001d0: 4d05 ea3d e957 363e 01fa 233e cc53 3abe
000001e0: 204d 3c3d 36ec 7a3e 7819 b63d 6b0e 38be
000001f0: 2207 c1bd e8c5 d3bd 18a3 b53c 7f2f c33d
00000200: 1764 063e 6ffa 22be 4b22 29be 1c28 e6bd
00000210: d349 77bc 5e0a 09be 5408 9ebc 5de1 b9bd
00000220: 8af9 6abd 46f1 753d 0080 b0bd ad4e f33b
00000230: 1137 e9bd 99ff 273e 8148 3cbe faf4 b83d
00000240: fbf9 a13e 697a d0bc 5065 08be 8c07 65bd
00000250: 9067 0e3e d415 08bd 35e7 25be e520 723b
00000260: 62ee e4bd e51d 283e d49a 48be bd72 083e
00000270: 58f8 1f3e 9fa7 47be 0be0 7fbd 9914 963e
00000280: 9897 1cbe a6b1 d6bd c5ff 8dbc 843f 89bc
00000290: 7573 0abe 2c46 64be 18c4 a0be 82b6 783e
000002a0: 5154 483e 9a08 653e 7a55 793d 7fc2 c0bd
000002b0: 3db1 353e 68d4 123e 757e 40be b969 f8b9
000002c0: 4621 353e 4ed3 1ebe f71d 873d 7d5e dfbc
000002d0: 2cec f13b 3a24 d53d fd4b dbbc c2df f73d
000002e0: e33c ee3d 7381 1f3e e34e 2c3e 664d 51be
000002f0: 3d10 41be b53b a73d dd4f c2bd cc13 ebbd
00000300: 551f 393e 31c3 08be 940b 223e 5cf7 22be
00000310: a9d9 3ebe 2ff6 673e ae80 12bd 2cf7 b03d
00000320: d4cd 06bd 7fbc b1bb 67a2 f63c 856e 3c3d
00000330: 4787 cb3d ac2d 5d3d eb41 1fbe 9789 ad3d
00000340: e80a edbb 1e2c babd 146e 53bd 9be2 d63d
00000350: c961 ae3c 5290 4f3e cfcf 083e 857e ce3c
00000360: e38b a1bc 48af 053d 0a55 7dbe 8c03 df3d
00000370: 7a2b bc3d 5998 98bd 636e 8a3e 8b39 e23d
00000380: afe2 36be 98a5 a7bc 73ea 133e 4598 bd3d
00000390: 5322 5abe 0606 903e 7a1c 843c 5778 59be
000003a0: af89 dcbd 5942 6bbe dd2e 92bd d891 04be
000003b0: f5ec 29bd 7f5f 01be dbda 3dbd 86af 383c
000003c0: ea71 1bbd febf 023e 29e8 05bd c785 6a3e
000003d0: 8eef 5f3c 57f8 56bd 870d ed3c cc89 f13d
000003e0: df48 283e 25a3 ce3d b9e5 edbc 7c2a febb
000003f0: 982c 30be 5f2d e63d cfeb b13d 3311 62be
-0.02811464 -0.01585205 -0.05860269 -0.2622897 0.14861655 0.045558244 -0.005850939 -0.1035623
0.03206585 0.13768639 0.15340346 0.17005056 -0.08442937 -0.05605729 0.15889981 -0.0035566965
-0.2764746 0.12713146 -0.20157507 0.03751692 0.109029986 -0.1175821 0.032445077 0.116499744
-0.013263948 -0.23409092 -0.035712596 0.24272193 -0.15471825 0.002015724 -0.039397616 -0.17533447
0.16096304 -0.10585671 0.113303214 -0.0941918 0.056278758 0.08918529 -0.17457533 0.068270355
0.06328971 0.06032927 -0.10824891 0.018684613 0.050739318 -0.0039442643 0.094659865 -0.054758772
0.22487181 0.19253078 -0.17396128 0.09028464 -0.039478984 0.13939188 0.053892035 0.045916717
-0.1490668 0.27360865 -0.057048094 0.16996449 0.0027624175 -0.083952814 -0.06974945 0.17635937
-0.065623716 0.022447392 -0.025460744 -0.2208287 -0.17295238 0.25239667 0.018828185 -0.15808252
-0.016210146 -0.005272783 0.16937488 -0.11720037 0.10096409 -0.029926691 -0.032266546 0.14442304
0.24610862 0.23549832 -0.051768262 -0.064130865 0.08669317 -0.0534442 0.077702574 -0.029688397
-0.05338324 0.21196516 0.09200881 0.056900695 0.24855335 -0.005480638 0.08603471 -0.08141856
-0.008658157 0.104938544 0.05621388 -0.22053704 0.08098819 -0.10461921 -0.086207576 -0.23115551
0.17418368 -0.023502624 0.024696177 -0.084362514 0.17827295 0.10273178 0.19191813 -0.12254087
0.119979106 0.17456661 -0.13802925 -0.1643319 0.11426792 0.17806973 0.16013338 -0.18196028
0.04597199 0.2450417 0.088915765 -0.1797425 -0.094251886 -0.10340482 0.022172496 0.095305435
0.13124119 -0.15915845 -0.16516988 -0.11238119 -0.015093285 -0.13382861 -0.01929108 -0.09076188
-0.057366885 0.06004455 -0.08618164 0.0074251504 -0.11387456 0.16406097 -0.18387033 0.090311006
0.31636032 -0.025448995 -0.13319898 -0.0559154 0.13906693 -0.033223942 -0.1620148 0.0036945876
-0.111782804 0.16417654 -0.19590312 0.13325019 0.1562208 -0.19497536 -0.062469523 0.2931259
-0.15292203 -0.104831025 -0.017333874 -0.01675392 -0.13520606 -0.22292393 -0.31399608 0.24288371
0.19563414 0.22366562 0.060872532 -0.09412097 0.17743392 0.14338839 -0.1879824 -0.00047381016
0.17688474 -0.15510294 0.06597512 -0.027266735 0.00738289 0.104073 -0.026769632 0.12103225
0.11632707 0.15576725 0.16826968 -0.20439681 -0.1885385 0.08165685 -0.09487889 -0.11478385
0.18078358 -0.1335571 0.15824729 -0.15914673 -0.18637718 0.22652505 -0.03576725 0.08640894
-0.032911137 -0.005424082 0.030106736 0.046003837 0.099379115 0.053998634 -0.1555249 0.08473509
-0.007233966 -0.09090446 -0.05161865 0.1049244 0.021286862 0.20269898 0.13360523 0.025206814
-0.019720023 0.032637864 -0.24739471 0.108893484 0.0918798 -0.07450933 0.27037343 0.11046132
-0.1785991 -0.020464703 0.14444904 0.09257559 -0.21302156 0.28129596 0.01612686 -0.21237312
-0.107684486 -0.22974528 -0.07137845 -0.1294626 -0.041485745 -0.12634085 -0.046351295 0.011272317
-0.037950434 0.12768552 -0.03269211 0.22902595 0.013667954 -0.05248293 0.028937114 0.11793861
0.16434048 0.10089711 -0.029040204 -0.0077565294 -0.17204511 0.112391226 0.08687555 -0.22076873

encoder_lstm.bias_ih_l1 f4 [128]
00000000: 890b 6fbc b925 81bd 6d17 a6bd eca4 cabd
00000010: d6f8 573e 560a 163e d597 003d a5aa d43d
00000020: 0fc2 15be abca 6c3d f794 073e 14ac 80bd
00000030: 8d64 4b3e 9fba 163e 1ced 553d 0f21 e8bd
00000040: 0d6a 5a3e 1e71 a1bd c9d5 2dbd 5678 8b3c
00000050: c782 ea3d ce69 3cbb 23c9 cdbd d048 21be
00000060: 1ed0 ee3d ad47 b93d acd1 0bbd 9bc0 0e3e
00000070: 8f85 90bd 1fff 80bd a96d 623d ebe9 e73d
00000080: 6ce0 253e 62fe 043d 9613 e43d 79ec 673d
00000090: 6cd8 df3d f996 c23d 51e5 063d 5152 b5b9
000000a0: 86a0 3f3e 01d5 1ebe f6c4 7f3d f77a 5a3e
000000b0: cf97 9b3d ffb6 533e 3a69 3a3e 0dc2 92bd
000000c0: ccea 4bbd 5ad9 813d e9b8 443e 240e 6dbd
000000d0: 9042 31bc cbee 17bd 6dc6 e33d 2bcb 3fbd
000000e0: 7433 47bd 50d9 043e c845 1bbe 1e03 a53e
000000f0: e396 563e 32ca f8bd 8001 5ebd 40f7 813d
00000100: 527b 363d abf9 d9bd 96d3 a13c 55e0 a6bd
00000110: f8de 79bd 8951 52bd 86bc a0bc 6f62 43bb
00000120: 5494 2bbe 1fe2 883d d8a9 243e f085 613e
00000130: a427 7e3c e830 92bb ccd5 1dbe 066f d53d
00000140: b49b 6abd 3f12 e33d ba66 03be cd37 31bc
00000150: eab8 1c3d 86da c33d aaeb 3e3d 942b 19be
00000160: b942 18bd 298b 303d 73da 0dbe ac35 bcbd
00000170: ec66 e43c d269 39bd 1a29 2ebc 398a fcbd
00000180: eaab aebd 2ba2 563e 50ae 62bd c6ff 773d
00000190: 4b63 863e f83c 18be a304 a93d bee9 903d
000001a0: 767f df3c dd21 843c 2a5d 273d db57 523d
000001b0: 5428 393e 1dab 843c 0f37 d3bd c926 143e
000001c0: 5db3 863c 9fdf 213e 8f6b 333e ef30 223e
000001d0: fd42 183e 84de 853e e055 4d3d 4a32 bcbd
000001e0: dde2 133e db25 943c 99f9 0e3e 070f 5d3e
000001f0: b62c bfbd ccf9 86bc b210 77bd dd2d 883d
-0.014590153 -0.06306023 -0.08109937 -0.098947376 0.21091017 0.1465238 0.0313948 0.1038411
-0.14624809 0.057810467 0.1324042 -0.06282821 0.19862576 0.14719628 0.05222808 -0.113344304
0.21329518 -0.078829035 -0.04244021 0.017025154 0.11450725 -0.0028749588 -0.100481294 -0.15750432
0.11660789 0.09046874 -0.034135506 0.1394066 -0.07056724 -0.062986605 0.05528036 0.11323913
0.16198891 0.03246916 0.11136548 0.056622002 0.10929951 0.09501452 0.032933537 -0.0003458434
0.18713579 -0.15510942 0.062443696 0.2133597 0.075973146 0.20675276 0.18204203 -0.071659185
-0.049784467 0.06340285 0.19211163 -0.057874814 -0.010819092 -0.037092965 0.11121831 -0.046824615
-0.048633054 0.12973523 -0.15163338 0.3222894 0.20955996 -0.12147941 -0.05420065 0.06345987
0.0445512 -0.106433235 0.019754212 -0.08148257 -0.061003655 -0.05134729 -0.019621145 -0.002981331
-0.16755801 0.06683754 0.16080415 0.2202375 0.015512381 -0.0044613965 -0.15413588 0.10421567
-0.057277396 0.110874645 -0.12832156 -0.010816527 0.038262285 0.095631644 0.046611466 -0.1495803
-0.037173007 0.043101463 -0.13852863 -0.091899246 0.027881108 -0.045266934 -0.010629917 -0.123310514
-0.08528884 0.209603 -0.05534202 0.06054666 0.2624763 -0.14867008 0.082528375 0.07075833
0.027282458 0.016129429 0.040860333 0.051353317 0.1808179 0.016194874 -0.10313236 0.1446792
0.016442949 0.15807961 0.17521499 0.15838979 0.14869304 0.26146328 0.050130725 -0.091892794
0.1444201 0.018084457 0.13962401 0.21587764 -0.093347 -0.016476534 -0.060318656 0.06649373
