W3-Design/checkpoints/epoch_7.pt (torch, 384133 bytes, 24 tensors)

encoder_cnn.0.weight f4 [32, 3, 3]
000000 8e fe 52 be eb 5c 89 bd b7 6f 44 be fa dd 5b 3e
       -0.20604917 -0.06707176 -0.19183241 0.21471396
000010 70 7c 8a be b8 52 5a 3e 24 e3 fd 3d 61 7c 2e 3e
       -0.27048063 0.21320617 0.12396839 0.17039634
000020 20 01 3a 3e fa c3 36 bc d8 45 39 bc 7a c0 e5 bd
       0.18164492 -0.011155123 -0.011308156 -0.112183526
000030 dd fc 9f bd 6a 8e f2 bd ee 68 e0 3d 7a 39 af bd
       -0.07811902 -0.118435696 0.10957514 -0.08555885
000040 d8 f3 a3 3e 15 31 67 bc 7e ed ac 3c c1 a3 63 3e
       0.32021976 -0.014110823 0.021109339 0.22230436
000050 e7 2b f8 3e bf 32 91 3e c2 07 ad 3e ca 97 73 be
       0.48470995 0.2835903 0.3379498 -0.23788372
000060 62 f4 9e bd 25 36 30 3e 73 1a 09 bc 12 19 10 bd
       -0.07761456 0.17208154 -0.008368122 -0.03518016
000070 b4 e5 00 3e c0 e2 1b be ee a1 1a 3d 32 59 9a 3d
       0.12587625 -0.15223217 0.037752084 0.07536544
000080 2e 6f 07 3d 02 6f eb 3d 5f 5e 52 3e b6 25 35 bd
       0.033065014 0.114957824 0.20543812 -0.044225417
000090 f1 34 05 bc f4 12 79 3e 31 ea b5 3d 56 8f d9 3e
       -0.008130298 0.24323636 0.08882559 0.4249217
0000a0 03 66 35 be b6 0b 98 3e 31 1b df 3d 1a 9f 14 3e
       -0.17714696 0.29696435 0.10893858 0.14513817
0000b0 55 6e 92 be f6 04 a6 bc 0c 52 b4 bd 80 0f 9f 3e
       -0.28599802 -0.020266037 -0.08804712 0.31066513
0000c0 89 81 89 be 71 83 68 be a0 b1 99 3b 46 a1 51 3e
       -0.2685664 -0.22706391 0.004690364 0.20471677
0000d0 dd 80 8d 3e f4 4d 95 be 07 ab b7 bd 8c cc 98 bd
       0.27637377 -0.29161036 -0.08968168 -0.07460889
0000e0 95 9c 67 3e 93 c2 2c 3e c4 bb fc 3d a3 e3 19 be
       0.22618325 0.16871099 0.12340501 -0.15028243
0000f0 38 35 b3 3b a3 12 35 3e 3e cb 75 be f4 c9 05 3e
       0.0054689907 0.1768289 -0.24003312 0.1306532
000100 e3 36 8f bd 61 ff af 3e 8d 5b b3 3e 3f 37 3d be
       -0.06992891 0.34374526 0.35030785 -0.18478106
000110 20 a0 93 be 4e 66 99 bd 53 b4 68 bc 95 1d e6 3e
       -0.28833103 -0.07490216 -0.014203149 0.44944444
000120 1d 41 09 3d 21 ea 1e 3e 9d a6 d0 bd 3e c5 7e bd
       0.033509362 0.15519 -0.10188029 -0.062199824
000130 dc d0 78 be 3c 8a c4 3e b1 d6 82 be 40 78 8f 3e
       -0.24298424 0.38386714 -0.25554422 0.2802143
000140 65 a4 0c bd 05 ca 14 be 6f 25 0c 3e d2 79 41 be
       -0.034336466 -0.1453019 0.13686155 -0.18894127
000150 7c fb 92 3e 15 0f 0f bc a3 22 4b be a8 b4 1d 3e
       0.28707492 -0.008731623 -0.19837432 0.15400946
000160 54 0e 21 3e 9f 90 27 3d 55 c8 b0 bd e3 77 71 3c
       0.15728122 0.040909406 -0.0863196 0.014738056
000170 4d 6b 4f 3d 9a a3 3d 3e 6b 3b c0 be e3 cd c9 be
       0.05063944 0.1851944 -0.37545332 -0.39414892
000180 17 a2 a8 be 73 73 44 3d cd eb 39 be 31 f9 80 bc
       -0.32936165 0.047961663 -0.18156357 -0.015743824
000190 ce f4 67 3d 19 86 78 3e 62 57 2e 3d bd 3c 9d 3e
       0.05662995 0.24269904 0.042563803 0.30710402
0001a0 e9 fa 87 3c 04 68 83 be 1a 41 ad be 3d 4b bc 3c
       0.016599135 -0.25665295 -0.3383873 0.022985095
0001b0 66 34 2a be a5 ff 5f 3e 01 ea f2 3d a1 87 db bd
       -0.16621551 0.21874864 0.11861039 -0.107192285
0001c0 1e 71 c6 be ef a5 f1 be d3 59 ad 3e bc 94 95 bd
       -0.38758177 -0.4719691 0.33857593 -0.073037595
0001d0 c8 2f 7d be 8e 97 03 3e 39 09 8c bd ad b1 8a 3e
       -0.24725258 0.12850782 -0.068376966 0.2708868
0001e0 c0 75 55 bc 0b 63 a0 be 6c 6c 64 be f9 85 5c be
       -0.013028562 -0.31325564 -0.22306985 -0.21535482
0001f0 97 4c b9 be d5 99 ab be b6 e7 07 be 52 89 4f be
       -0.36191246 -0.33515802 -0.13271984 -0.20267227
000200 35 72 0e be 33 39 9d 3e 6b 4a 7e bd da 71 7c be
       -0.13910754 0.30707702 -0.06208269 -0.24652806
000210 09 79 72 3d 67 be e7 3d 0d 59 4e be f1 f2 fa 3e
       0.05919746 0.11315613 -0.20151158 0.49013475
000220 02 48 90 3e 32 11 51 3b 56 58 9e be 71 f1 ed 3d
       0.28179938 0.0031901118 -0.3092677 0.11618317
000230 28 51 f3 bd b6 aa ac be 57 b0 bf 3b 69 47 8a bd
       -0.11880714 -0.33723992 0.005849879 -0.06751902
000240 5d 5b 1b 3e 98 fa 59 be 64 c7 c8 be 51 9a 72 3d
       0.15171571 -0.21287 -0.39214623 0.0592292
000250 71 0a 1a be f9 d5 69 be 6a c4 8e 3d 2d 75 8c be
       -0.15043046 -0.2283553 0.06971057 -0.27433148
000260 74 ac 03 3d 31 86 1f 3e 48 aa c2 3e 1e 0f 01 3e
       0.032146886 0.15578534 0.3802054 0.12603423
000270 92 b8 80 3e ef 84 b4 be 14 53 9c 3e 35 d4 4b bd
       0.25140816 -0.3525767 0.30532134 -0.049762923
000280 b6 8f 98 be 38 a0 95 bd 9c 94 8a 3e a5 a5 5d 3e
       -0.29797143 -0.0730595 0.27066505 0.2164522
000290 2d f1 0f be 61 1a 11 be ff 49 e5 be d5 f2 02 be
       -0.14056845 -0.14170219 -0.44783017 -0.12787946
0002a0 d6 86 09 3e a4 5a 6f be 07 1b 11 bd df 56 ea bd
       0.13430342 -0.2337442 -0.035426166 -0.114423506
0002b0 3e 52 19 3e b9 a8 d8 3d 11 c2 87 be a4 a1 d8 be
       0.14972779 0.10579056 -0.26515248 -0.42310822
0002c0 f2 09 f9 3d 57 eb b4 be 56 3e 16 bd 8c 30 01 3e
       0.121601 -0.353358 -0.036680542 0.12616175
0002d0 1a 5b c3 bd 9e cd 0e be 24 6a 00 be 3f c5 ee bd
       -0.095388606 -0.13945624 -0.1254049 -0.116587155
0002e0 e6 5f 8b 3e a0 07 9f 3d e7 28 57 3e 9a c0 37 3e
       0.27221602 0.07765126 0.21011697 0.17944565
0002f0 92 38 23 be 8b 6f be 3e 4c 0c da bc 4a c0 e7 bc
       -0.15939549 0.37194476 -0.026617192 -0.028289933
000300 72 81 f6 bd ad db 8f 3e ab 07 d6 3d 9d f1 92 bd
       -0.120364085 0.28097287 0.10450681 -0.0717499
000310 09 1c c3 be ea 93 90 be 11 07 0d 3e e6 a0 cb be
       -0.38107327 -0.2823785 0.13772227 -0.39771193
000320 23 07 aa 3d 1d 50 9d 3d 55 1e 1c 3e 41 99 f5 bd
       0.083021425 0.07681296 0.15245946 -0.119921215
000330 2b 70 ec bd cb ad 62 be ad 33 9b be 3d e3 25 3e
       -0.11544832 -0.2213661 -0.30312863 0.16199966
000340 eb 0e 7f be f9 b5 41 be bb 1b 0c be 9f 22 e9 3c
       -0.24908035 -0.18917073 -0.13682453 0.028458891
000350 e2 8e f8 bc 81 5e 7f 3d ca 48 24 3e 0c d9 79 3e
       -0.03034157 0.062345985 0.16043392 0.24399203
000360 62 7d 7c 3d 7e 72 04 3e df 6f d2 bd e9 57 0e 3e
       0.061643012 0.129343 -0.10275244 0.13900723
000370 72 15 80 3d 1d f0 35 be b0 9e 3e 3c 5c fd 3a 3d
       0.0625409 -0.17767377 0.011634514 0.04565178
000380 f0 1f 90 3d 41 47 83 3e a8 e2 2e 3c 63 63 b7 3e
       0.070373416 0.256403 0.010674156 0.35818014
000390 30 2d 4b 3e bb 7c 4e 3e 84 51 9d bd 66 f2 86 be
       0.19841456 0.20164768 -0.076815635 -0.2635681
0003a0 2a e6 f5 3d 24 ff 8b 3e cf f5 e2 be f5 1e 6d bd
       0.12006791 0.27343094 -0.44328162 -0.05789085
0003b0 de 43 4e be 0f ba 9c 3e 07 9a 0b 3e ad 20 69 be
       -0.20143077 0.306107 0.13632976 -0.22766371
0003c0 dd d2 86 3e ad ee 7a bd 63 5e 1f be 24 7a 7a be
       0.2633275 -0.061262775 -0.1556335 -0.24460655
0003d0 4b 28 4c bd 89 2a a2 bd b3 49 09 be 44 93 ee bd
       -0.049843114 -0.07918269 -0.1340702 -0.116491824
0003e0 61 82 84 3e 64 cc 5d be 70 10 7a 3e a8 40 c4 3d
       0.2588072 -0.2166 0.24420333 0.09582645
0003f0 97 80 7c 3e be 24 b7 bc 2a 3b 3f bd 40 c3 30 bd
       0.24658428 -0.022356387 -0.046687283 -0.043154955

encoder_cnn.0.bias f4 [32]
000000 d4 75 97 bd b1 e2 8b bd e7 83 e3 3e 2c f9 58 bf
       -0.07395521 -0.06830347 0.4443657 -0.84755206
000010 f6 c3 62 be 59 3f ef 3d bf 92 11 bf c5 e0 30 be
       -0.22145066 0.116820045 -0.5686454 -0.17273243
000020 b6 b2 82 3d a3 23 74 be fd d4 78 3e 4f 4c 9c 3d
       0.06381743 -0.2384172 0.24299999 0.07631742
000030 bd 0d ba 3e c0 32 01 be d1 89 d9 be 38 c3 f0 3e
       0.36338606 -0.12617016 -0.42487958 0.4702394
000040 a6 c2 8e be e8 11 85 3e 75 c5 ad 3e ee b0 a8 be
       -0.2788288 0.25990224 0.3393971 -0.32947487
000050 4b b3 be be d0 f5 09 3f 54 fd 56 3e 42 26 d5 be
       -0.37246165 0.53890705 0.20995075 -0.4163075
000060 2e 9d 49 be 14 1b b1 bd 31 14 e0 be 79 00 f8 be
       -0.19688866 -0.08647743 -0.43765405 -0.4843786
000070 19 f1 ef be 3b f2 0e be f1 2f e7 be a1 4f c9 3d
       -0.4686363 -0.13959591 -0.45153764 0.09829641

encoder_cnn.2.weight f4 [64, 32, 3]
000000 c0 20 4d be 84 c6 9d 3b d4 ae 8b bc c2 57 07 bb
       -0.20032024 0.0048149247 -0.017051138 -0.0020651673
000010 af 85 44 3d 9d c7 f7 3d 40 d0 61 3e 4f 31 1c 3e
       0.047979053 0.1209862 0.22052097 0.15253185
000020 e4 f9 e8 3b d9 1b e2 39 eb 49 36 be 91 45 89 bc
       0.0071098674 0.00043126827 -0.17801635 -0.016756805
000030 48 64 6f 3d b8 27 d7 3c d6 ef 11 be 92 f2 c6 bc
       0.058445245 0.026264057 -0.14251646 -0.024285588
000040 cd f4 c8 3d e3 40 ac bc ab 88 ac 3e 41 46 59 3e
       0.09812317 -0.021027034 0.3369802 0.21218206
000050 5e a3 18 3e ee c2 5d bc 92 e8 89 bd 69 92 15 be
       0.1490607 -0.013535244 -0.067338124 -0.14606632
000060 e2 b3 1d 3e 23 c6 cd 3c 42 e2 db 3d ac 4c 9d 3b
       0.15400651 0.025118893 0.10736515 0.0048003998
000070 57 5b f3 3c 4b 16 10 3e dc 19 ac 3d fa 97 60 3e
       0.02970664 0.14071004 0.0840337 0.21932974
000080 75 20 fe 3d d4 5e 03 3e 80 73 a7 3d 18 f5 09 bd
       0.124085344 0.12829143 0.08176327 -0.033681005
000090 02 fd f8 3d ed 74 0c 3d 2d 40 4a 3d 4d bc 8e 3e
       0.121576324 0.034291197 0.04937761 0.27878037
0000a0 51 0c 7a 3e aa 82 6b 3e 78 c8 1d 3e 40 c4 2f bd
       0.24418761 0.22999063 0.15408504 -0.042911768
0000b0 a2 93 b7 3d f9 0c 94 3e 00 95 86 3e 3c c0 88 3d
       0.089637056 0.28916147 0.26285553 0.06677291
0000c0 ee 53 42 3e f4 28 1b 3e c1 81 15 3e 2d 70 32 3e
       0.18977329 0.15152341 0.14600278 0.17425604
0000d0 2b bf bf 3d d9 c8 04 3d 25 b9 30 3c c9 71 78 3c
       0.09362634 0.032418106 0.010786329 0.015163847
0000e0 56 01 64 bc 27 94 bf 3d 04 b6 73 3d 0c 5e 1f 3e
       -0.013916334 0.0935443 0.059499756 0.1556322
0000f0 1c 6d f0 3a 21 33 26 be 8e f8 2c 3d 2d fd 15 3e
       0.0018343064 -0.16230442 0.042229228 0.1464736
000100 6a 23 b9 3d 73 fe 2d 3c 76 a9 9f 3e 2c eb 6f 3d
       0.09039958 0.010619747 0.31183976 0.058573887
000110 ef 40 35 3e ea 2e a3 bd 5c a0 11 be 0b 88 b3 3c
       0.17700551 -0.079679325 -0.14221328 0.021915456
000120 ce d5 c0 3d e5 e8 45 bd 1a 7c b6 3d b7 78 44 3d
       0.0941578 -0.04831781 0.08910389 0.047966685
000130 23 40 12 3e 3d d2 16 be 11 6d e3 bd 03 0d 61 3d
       0.14282279 -0.14728637 -0.11104787 0.05494405
000140 51 b2 97 bd 47 46 e0 3d 89 46 00 bc de d7 81 bd
       -0.07407058 0.10950904 -0.007829317 -0.063400015
000150 92 7a 18 be 37 25 c0 be bf d8 42 be 89 0b 3a 3d
       -0.14890507 -0.37528393 -0.19027995 0.045421157
000160 7c 38 c4 3c 17 e5 f6 3d f3 5d 45 3e b6 6b 75 3c
       0.023952715 0.12055414 0.1927412 0.014979294
000170 0e a5 e1 3d 8d 34 01 3e 90 23 44 3d fb e2 41 3d
       0.1101781 0.12617703 0.047885478 0.047335606
000180 e7 d9 70 bd 61 5c 59 3b ce 18 c5 3d e1 58 d9 bc
       -0.058801558 0.0033166634 0.09623872 -0.026531639
000190 92 8c da 3a 63 94 c2 3c 9f fd 9a be 11 f7 73 be
       0.0016673973 0.023752397 -0.30271623 -0.23824717
0001a0 74 af 2b be a5 17 84 bd f7 60 ef 3c b3 14 b9 bd
       -0.16766149 -0.06449822 0.029221041 -0.09037151
0001b0 cc d5 a3 be 4f 11 aa be be 31 57 be 51 da a1 3d
       -0.31999052 -0.3321633 -0.21015069 0.07902969
0001c0 5a 6e b2 3d d3 24 da 3d b2 5b e1 3d cf ce 0b be
       0.08712454 0.10651555 0.110038176 -0.1365311
0001d0 d7 fb 55 be 8b 6f c3 bc 35 44 03 3d c2 f7 f3 3d
       -0.2089685 -0.023856899 0.03204747 0.119124904
0001e0 68 6f 15 3e c1 4a 27 be 91 2c b0 bb 62 a1 03 3d
       0.1459328 -0.1633711 -0.0053764065 0.03213633
0001f0 7e 44 0c 3d 6e 83 7f bc 13 ed 26 3d d1 bd c9 3c
       0.034245007 -0.0155953 0.040753435 0.024626644
000200 2c 57 2e 3d a9 fe 9e be a5 c5 1a be bf ab cd be
       0.042563602 -0.31053665 -0.15114458 -0.40170094
000210 00 71 c2 3d 95 b4 ba 3d 6b 8d 8d 3d c5 c9 39 3d
       0.09494209 0.091164745 0.06911739 0.045358438
000220 31 e8 ca 3d 88 0e 17 3e b1 81 57 bd 12 55 9f 3b
       0.09907568 0.14751637 -0.052613918 0.004862436
000230 4b ca d3 bd b4 15 aa bd 50 e0 8b bb a8 6c c0 bd
       -0.10341319 -0.08304921 -0.0042686835 -0.093957245
000240 04 3d b6 bd 8e b9 e6 3d a5 db 55 bc c1 fe 3e be
       -0.088983566 0.112658605 -0.013052856 -0.18651868
000250 13 e3 88 be f6 d2 57 be f3 64 b5 3d ad 59 03 3e
       -0.26735744 -0.21076569 0.08857145 0.12827177
000260 29 0e 20 3e a4 d6 47 3e b7 51 0c 3e 64 14 2f 3e
       0.15630402 0.19515473 0.13703047 0.17097622
000270 b4 ab a2 bc dc 55 44 bc 05 24 05 bd 59 d7 50 be
       -0.019857265 -0.011983361 -0.032505054 -0.20394649
000280 24 85 35 be f5 4c 27 be 8b ed 36 3d d7 7d df bc
       -0.1772657 -0.1633795 0.044660132 -0.027281685
000290 e6 01 95 ba 9b 41 e7 3c 00 8a 39 bd 45 27 97 3c
       -0.0011368364 0.028229525 -0.045297623 0.018451342
0002a0 38 43 fa bc 6c 3a 9d bc 79 85 1b 3d 17 17 2a be
       -0.03054963 -0.019192897 0.037969086 -0.1661037
0002b0 80 fa 0c be d3 6d 66 bd ee 94 bb bc 4c e6 8b bc
       -0.13767433 -0.05625708 -0.022898164 -0.017077588
0002c0 2b 4a 34 be 32 c4 05 be 0a b7 33 bd 2f 11 60 bb
       -0.17606418 -0.13063124 -0.04387573 -0.003418993
0002d0 7d a8 b7 bd 01 e5 b8 bd 5b 00 b4 3d de 23 0f 3d
       -0.089676835 -0.09028054 0.0878913 0.034946315
0002e0 62 f4 29 3d c3 5f 4c 3c 2b bc 83 bd 25 04 48 bd
       0.041492827 0.012474003 -0.064323746 -0.048832078
0002f0 be 18 b3 bd ee e8 8a 3d 95 b8 43 be d0 e6 02 be
       -0.087449536 0.06782709 -0.19113381 -0.1278336
000300 65 50 98 3e 27 0d 6e 3e e0 a0 bb 3d 15 db 4e 3e
       0.29748836 0.23247205 0.09161544 0.2020076
000310 6d 32 b5 3e 64 d8 79 bd 1d 1a 78 be 5d 06 02 be
       0.35390034 -0.06099738 -0.24228711 -0.1269774
000320 2f e1 9e be 54 54 15 3e a0 37 a1 bd 97 ec 5a bd
       -0.31031176 0.1458295 -0.07871938 -0.053448286
000330 49 e8 ea bd 0f 47 6c be d3 e6 f1 be 3b 44 f7 bd
       -0.11470086 -0.23073982 -0.47246417 -0.12073561
000340 fd 98 c7 3e 55 c4 75 bd 25 7a a0 bd 7f 8c 44 3d
       0.38983908 -0.06000169 -0.07835797 0.04798555
000350 d8 25 5d 3d 1d 2b 51 bd 72 1c ac 3e af ab 36 be
       0.05399117 -0.051066507 0.33615452 -0.1783893
000360 be 3b c4 3d 89 74 45 be eb e8 67 bd 00 95 8a 3e
       0.095817074 -0.19282736 -0.056618612 0.27066803
000370 79 d7 5f bc 84 75 8f bd c0 68 ca 3d 6e 72 81 3e
       -0.0136622125 -0.07004836 0.09883261 0.25282615
000380 ca 50 be 3d 73 e5 8a bd 44 87 27 3e 09 0a 3a be
       0.09292753 -0.06782045 0.16360193 -0.1816789
000390 61 c1 ff bd d2 c2 cc 3b cb ba db 3d 26 ec 81 be
       -0.12488056 0.0062488103 0.10728987 -0.2537548
0003a0 bb 46 0e be 92 45 0d be ed 59 f1 3e 1e 7b 20 3e
       -0.13894169 -0.1379607 0.4713892 0.15671965
0003b0 2a a4 90 bd bf ff f7 3d ca bd d5 bd c0 46 9a be
       -0.07062562 0.121093266 -0.1043659 -0.30132103
0003c0 e4 c1 bc 3e 03 3b 3c 3e 9b 67 1b be 6c 23 fe bc
       0.36866677 0.18381886 -0.15176241 -0.03102275
0003d0 2c 33 b4 bd c5 ea c7 be cb cc 67 be ba 0e 5d be
       -0.08798823 -0.39046302 -0.22636716 -0.21587649
0003e0 e4 f6 6b 3d 70 d6 35 be 64 63 15 3e 1d e3 3b 3e
       0.0576085 -0.17757583 0.14588696 0.18348356
0003f0 56 45 99 3e 75 9b 79 3e 07 2f 44 bd 9b a1 f8 3c
       0.29935712 0.24375708 -0.04789641 0.030350497

encoder_cnn.2.bias f4 [64]
000000 87 86 10 3e 77 0e 5e bd 56 98 81 3d cd 14 c2 3c
       0.14113818 -0.054213013 0.06327884 0.02369156
000010 86 0c 58 3b f9 67 de 3d f0 ee 34 bc 90 a7 0b bd
       0.003296645 0.10859675 -0.011043295 -0.034095347
000020 84 19 21 be eb c6 81 bc 81 27 62 3e a9 8e e9 bd
       -0.1573239 -0.015841922 0.22085382 -0.114041634
000030 c4 99 19 3d fc a1 be bd 78 56 d5 bd 00 03 dc bd
       0.037500158 -0.0930824 -0.10416883 -0.1074276
000040 06 9d ac 3d eb 85 42 bc 78 b8 74 bd c1 5f b4 bd
       0.08428387 -0.011872749 -0.059746236 -0.08807326
000050 da c0 12 be a1 a0 a6 3b a5 a9 64 bd 4c ea a7 3d
       -0.1433138 0.0050850664 -0.055825848 0.081989855
000060 90 4c 60 be bd 85 f4 3d 49 74 13 be 4c 98 53 bd
       -0.21904206 0.11939571 -0.14399828 -0.051658913
000070 9d c5 cc 3d fa b9 ea bd d1 1c c0 3c c3 b5 85 be
       0.09998629 -0.114612535 0.02345124 -0.26115236
000080 77 2a fc bd 88 ab d9 3d 69 71 09 3e 99 f3 d3 bd
       -0.12312787 0.1062842 0.13422169 -0.10349197
000090 74 11 92 bd 5b 77 45 be e2 d1 13 3e c5 f1 a7 3a
       -0.07132235 -0.19283812 0.14435533 0.0012813142
0000a0 fc dd 1a be 58 95 2d be d7 b0 cc 3d 62 9d 1b be
       -0.15123743 -0.16951501 0.09994667 -0.15196756
0000b0 b0 40 86 3c 86 16 c2 be 31 0b 5a be 69 be 18 be
       0.016388267 -0.3790781 -0.21293332 -0.14916386
0000c0 8b c3 17 be 9d ab 80 3e 38 35 8d bd 41 1e 66 be
       -0.14820687 0.2513093 -0.06894916 -0.22472478
0000d0 7e 53 8e be 3b 8a 69 bd c4 47 c6 bd 3c 6d f6 3c
       -0.27798074 -0.057016592 -0.09681657 0.030081384
0000e0 7a 58 65 bd 7e 38 1a be 06 f7 11 bc 98 6d cb bd
       -0.05599258 -0.15060613 -0.008908993 -0.09933013
0000f0 83 7e 97 be 3e ef 92 3e ba 62 42 be c2 3b 4f be
       -0.29588708 0.28698152 -0.18982974 -0.2023764

encoder_lstm.weight_ih_l0 f4 [128, 64]
000000 af 17 8b 3e 17 bf 36 3d 0e 2f 7e 3d 95 db 20 3d
       0.27166507 0.04461583 0.062056594 0.03927191
000010 e5 77 c7 3e 4c 4d cf 3d 6f 12 c2 bd 0e b8 48 3e
       0.3895866 0.10122165 -0.09476172 0.19601461
000020 96 b1 94 3e fe ab 59 3d 6d 09 43 3e 99 e5 55 3e
       0.29041737 0.05314254 0.19046564 0.20888366
000030 1f 6d 89 3e 1b 79 12 be 94 53 e9 bd ed 21 70 3e
       0.26841065 -0.1430401 -0.113928944 0.23450442
000040 bc ad 6a 3e c2 21 05 be 08 71 96 bd 6b eb 56 3c
       0.22917837 -0.13001159 -0.07345778 0.013117651
000050 d6 b5 4c bc 6e 38 e4 3d 11 a5 5d 3e ab db 9c bd
       -0.012494525 0.111435756 0.21644999 -0.07659086
000060 40 8e d8 3d 2a 89 eb 3d e6 08 bd be 62 5e d1 3d
       0.10574007 0.11500771 -0.3692085 0.1022308
000070 55 48 14 3e fa f1 cc bd 41 f8 19 3e 7f 27 06 3e
       0.14480717 -0.10007091 0.15036108 0.13101004
000080 6d 1e 1a 3e bd b4 69 3e e4 c0 5c bd db ac b8 bc
       0.15050669 0.22822852 -0.053894892 -0.022543361
000090 da ee e0 bc 43 24 c9 bd 4a 0f 37 3e 96 c5 01 be
       -0.027457643 -0.098213695 0.17876926 -0.1267303
0000a0 86 9d 80 3d 66 49 0e 3e f8 34 93 3e 47 95 c5 bc
       0.06280045 0.13895187 0.2875135 -0.024119033
0000b0 26 79 83 3c 5c 50 81 bb c5 1c f9 bd 10 4c 6b 3e
       0.016048979 -0.003946347 -0.121636905 0.22978234
0000c0 b6 b6 a2 3e 72 15 82 3e ef 6b 46 3e b8 14 f2 bc
       0.31780022 0.25406986 0.19377111 -0.029550895
0000d0 7a 05 3f 3e 03 9f 19 bd 36 60 04 be 52 42 d9 3d
       0.18654433 -0.03750516 -0.12927327 0.10608353
0000e0 2f 39 eb ba ae ca 57 be f8 17 aa bd 5a c5 2e bd
       -0.0017946119 -0.2107341 -0.08305353 -0.042668678
0000f0 c8 98 c3 3c 87 83 a0 3e 1e 02 60 bd ad 0e e2 bd
       0.023876563 0.31350347 -0.05468952 -0.110379554
000100 f8 5a 16 be 03 55 4f bd b3 68 09 be ea bb b5 bd
       -0.1468314 -0.050618183 -0.13418846 -0.088737324
000110 72 f8 0d bd 67 2a 81 be 2c 79 f8 3d 68 7f da 3d
       -0.034660764 -0.25227663 0.12132487 0.10668832
000120 ac da f0 3d 39 b9 20 3e 6f 35 a3 bd 09 d2 01 be
       0.11760458 0.15695657 -0.07969176 -0.12677778
000130 1f c3 b3 3d cc 4f d4 bc a5 29 64 3d f9 e7 71 3d
       0.08777451 -0.025916956 0.055703778 0.059059117
000140 6d b0 44 3e aa af 11 3e a7 aa 86 be 02 84 44 bd
       0.19207926 0.14227167 -0.26302072 -0.047977455
000150 6e c3 53 3e 4f a3 c6 bd 63 74 1a bf 07 ed 2c bd
       0.2068002 -0.096991174 -0.6033384 -0.042218234
000160 6c 51 3c 3e 4a 83 92 be de 3d 4c 3e de a5 32 3e
       0.18390435 -0.2861579 0.19945475 0.17446086
000170 67 ef 13 3c f3 ad 68 bd 80 01 35 be 80 cb 79 3d
       0.009029246 -0.056806516 -0.17676353 0.06098509
000180 a8 28 83 bc 6c ca f5 3c c7 f0 87 be 07 e4 13 bd
       -0.016010597 0.030003749 -0.26550886 -0.036106136
000190 ee be 3a be 2d 02 bb bd 53 27 1c 3e 91 f5 22 3b
       -0.18236896 -0.09131274 0.15249376 0.0024865607
0001a0 0b ce d1 bc 15 e0 b2 3d 74 7f b2 3d c2 40 9d bd
       -0.025610944 0.087341465 0.08715716 -0.07678367
0001b0 39 a7 9f 3e a2 60 06 bc e2 2e dd 3e 06 b8 00 bd
       0.31182268 -0.00820175 0.4319983 -0.0314255
0001c0 04 80 e2 bd 84 55 15 be b5 fc 21 be ff c0 92 3d
       -0.11059573 -0.14583403 -0.15819056 0.07165717
0001d0 1b e9 28 be db 9a 8b bd 96 1b 25 3e 75 fd ea 3d
       -0.16495173 -0.06816646 0.16123804 0.11474124
0001e0 d8 0e 6b 3d c4 94 7c 3c ad f2 bb 3d 5d c3 fb bd
       0.057387203 0.015416328 0.09177146 -0.12293122
0001f0 88 79 0a 3e df d2 65 be 27 77 03 bf d8 73 41 be
       0.13522923 -0.22443722 -0.5135369 -0.18891847
000200 3e fc ee 3d a4 92 88 bd 78 0b 6c 3e 03 61 f3 bd
       0.11669205 -0.066685945 0.2305125 -0.11883738
000210 5c ae 52 3e a8 5c b5 bc 44 f1 7d 3e c8 34 ca bd
       0.20574325 -0.022138909 0.24799067 -0.098733485
000220 9c 7d 87 bd f2 40 10 3e cb f9 ba 3b 3c b2 05 3d
       -0.06615755 0.14087275 0.005706047 0.03264068
000230 30 23 4b be 7e 7d f8 bd f3 32 44 3d 80 5c 0d bd
       -0.19837642 -0.12133311 0.04790015 -0.034512043
000240 28 b7 59 3d 8a 8b 4b 3d b7 6f b4 bd 57 18 55 3e
       0.053153187 0.04969362 -0.088103704 0.20810066
000250 1e 40 eb 3d 82 fd 89 bd ab 6f b8 3d 44 43 1e be
       0.11486839 -0.06737806 0.09005674 -0.15455347
000260 7b dd 52 3d 1b c0 2c bd 33 91 14 3e 8c e3 9a bb
       0.05148075 -0.042175394 0.14508514 -0.0047268327
000270 97 3a 1e 3e 1f 31 ff 3d 5b 36 52 be 88 df 4b 3c
       0.15452038 0.12460541 -0.20528547 0.012443431
000280 e8 f2 4c be 7a 7a ca bb ef 4e 7c be 8d 8e a4 39
       -0.20014536 -0.006179151 -0.24639486 0.00031386726
000290 c5 5a f2 3d 81 57 ca bc 60 e1 b7 bd 29 d2 b1 3c
       0.11833719 -0.024699928 -0.08978534 0.021706657
0002a0 44 7c a4 3e 1d ed 11 3e 6f fe 16 be f8 40 b6 3b
       0.32126057 0.14250608 -0.14745496 0.005561944
0002b0 bc 4b 24 3e a6 92 d7 be 5f 19 d3 3b 12 d8 ed bd
       0.16044515 -0.4210407 0.0064422335 -0.11613478
0002c0 2a 0b 8e 3b 59 f6 be 3c db 1f 45 3e ce 7f d1 bc
       0.004334827 0.023310827 0.19250433 -0.025573637
0002d0 b1 28 c1 bd 53 36 2b bd 44 1b d6 3d 34 48 11 3c
       -0.094315894 -0.041799854 0.10454419 0.008867312
0002e0 d1 1a 58 3b 8d c8 d1 3d 43 7d 2c 3c 1e 93 f3 bc
       0.0032974968 0.1024333 0.010527912 -0.029733237
0002f0 42 1a 6f bd 7e 9c 70 be e7 04 9f 3d 84 d2 b7 bd
       -0.05837465 -0.23497197 0.07764607 -0.089756995
000300 10 a8 5a be 80 3d ee 3d b6 37 3d be fb 41 3c 3e
       -0.21353173 0.11632824 -0.18478283 0.18384545
000310 2f 3d 83 be 67 0e ab bd c9 a2 fa bd 63 8d a0 be
       -0.25632617 -0.083523564 -0.1223808 -0.3135787
000320 0c 1a bb bc 24 0d 1a 3d dd 22 41 be 36 00 02 3f
       -0.022839569 0.037610188 -0.18860956 0.5078157
000330 11 a9 ca 3c dc 26 30 be 52 96 88 bd e2 66 9a bd
       0.02473882 -0.17202324 -0.06669296 -0.075391546
000340 42 9f 0d be 4e c5 f7 be 65 ed 85 be 5a 12 e2 3d
       -0.13830283 -0.4839272 -0.2615768 0.110386565
000350 7e f1 71 3c 69 84 fe 3b 8e 7b 85 3d a2 cd ef bb
       0.014767049 0.0077672494 0.06517707 -0.0073182145
000360 56 18 5f 3e ad e8 2f be 61 fb 04 be 91 e2 00 3e
       0.21786627 -0.17178603 -0.12986518 0.12586428
000370 23 7c 22 3e f5 6f ca 3d 48 f7 a4 be 16 60 82 3d
       0.15867667 0.09884635 -0.3221991 0.06365983
000380 59 68 27 be 74 0d 84 be 61 d0 8c bd 45 ee fc bd
       -0.16348399 -0.25791514 -0.068756826 -0.12350134
000390 6b 51 1c be ac 1b 49 bd ec ca cb bd 1e ab 98 3d
       -0.15265433 -0.049098656 -0.09950814 0.07454513
0003a0 8a 6f 2e 3e 65 cb d0 3d 49 94 c0 bd 6c 80 9b 3e
       0.17034736 0.101950444 -0.09403283 0.30371416
0003b0 ae eb 06 be 6d 16 ea 3d 30 3a e7 3d 62 1e 8c 3d
       -0.13175842 0.11430059 0.11290395 0.068417326
0003c0 fb 41 0c 3d 40 8c 21 3e 57 88 ad 3d 9e ba 8a bd
       0.03424261 0.15776157 0.084732704 -0.06773876
0003d0 f4 e5 2b 3e 14 54 e8 3c 9c fb 1a bd 36 18 f1 bd
       0.16786939 0.028360404 -0.03783761 -0.11772196
0003e0 79 f6 96 3d d3 1e 69 3d a5 dc 99 3e a3 a6 9c bd
       0.0737123 0.056914162 0.3005115 -0.07648971
0003f0 a4 4a e1 bc 23 f4 48 be 46 f1 9b be d7 1e 63 be
       -0.027501412 -0.19624381 -0.30457515 -0.22179733

encoder_lstm.weight_hh_l0 f4 [128, 32]
000000 94 8e e3 3d b6 77 e9 3c 47 a4 4c be 35 bd 26 bb
       0.11111179 0.028499465 -0.19984542 -0.0025442366
000010 ec 8d 35 3e 12 e5 07 bd 87 17 55 be ff a1 20 bd
       0.1772992 -0.033177443 -0.20809756 -0.03921699
000020 00 4b b2 bd 9d 57 9b 3e 32 b4 bf 3d 8e 22 aa bd
       -0.08705711 0.3034028 0.093605414 -0.08307372
000030 64 1c 5a be 3b 67 49 bc f4 1e 55 3d 99 7c a9 be
       -0.21299893 -0.0122926785 0.052031472 -0.33102873
000040 24 70 83 bd 5a 46 71 bd ca ad 2e 3e 99 75 98 bd
       -0.064178735 -0.058904983 0.17058483 -0.07444305
000050 be 2c 8d 3e d2 31 ac 3d bc 97 93 3e ae c2 c4 bd
       0.27573198 0.0840794 0.28826702 -0.09607445
000060 a7 91 30 be f6 4a 66 be a3 6d 36 be a0 4a 72 be
       -0.17243062 -0.22489533 -0.1781526 -0.2366128
000070 29 6a 29 3e 2b 1e 42 3e 5b 72 90 3e eb 2f b4 be
       0.16544403 0.1895682 0.28212246 -0.35192809
000080 66 c3 2f be e8 0c 76 3d b3 2e 9c be f1 5e 6d 3e
       -0.17164382 0.060070902 -0.3050438 0.23180749
000090 6e 58 79 3c 1d 8f c7 3c f1 e4 37 3e 42 b8 aa bd
       0.015218837 0.024360234 0.17958428 -0.08335926
0000a0 a0 a6 7b 3e e8 db 28 bd b2 38 f0 bd 3c 15 42 3d
       0.24575281 -0.041225344 -0.11729564 0.047383532
0000b0 c3 64 98 3e ba 1f 06 3e 93 99 b9 3d 6a 37 51 3e
       0.29764375 0.1309804 0.09062495 0.20431295
0000c0 21 35 07 be 52 16 d8 3d ce 17 d4 3d 8a 47 f5 bd
       -0.13203861 0.10551132 0.10356103 -0.119765356
0000d0 72 32 1b be 52 ac 42 3c af db 43 3d 54 8f 3d be
       -0.15155962 0.011881905 0.04781693 -0.18511707
0000e0 f3 22 58 3d bf 2d df bd 4d b2 36 3e 98 a1 17 be
       0.052767705 -0.10897397 0.17841454 -0.14807737
0000f0 fc f8 8b bc 85 83 75 be 46 8f 99 be fd f9 84 3e
       -0.017086498 -0.23975952 -0.2999212 0.25971976
000100 38 72 a6 be c0 96 f5 3d 58 53 0e be 98 42 94 bd
       -0.32509017 0.11991644 -0.1389898 -0.07239264
000110 26 93 b7 bd 56 ce 76 3d f0 d7 c7 3e 40 f8 c0 3e
       -0.08963613 0.06025537 0.39031935 0.376894
000120 6b 5a 9c 3d 86 72 72 bc b1 5d cb be b4 27 83 3e
       0.07634433 -0.014797812 -0.39719918 0.2561623
000130 01 53 45 3d f3 75 f7 3d 35 3b b6 be 24 a8 c6 3d
       0.04817486 0.12083044 -0.35592046 0.09700039
000140 78 8e 77 be ba b9 91 3e 9f e8 3e be 3b 0d 09 be
       -0.24175441 0.2846201 -0.18643425 -0.13383953
000150 6a 06 17 be c5 e3 3e be 1e 00 da bd 1c 6b 8d be
       -0.1474854 -0.18641575 -0.106445536 -0.2762078
000160 2e 9a 25 3e a3 39 cd 3d 99 e5 a9 be 9a 74 c2 bb
       0.16172096 0.10020759 -0.33182982 -0.00593431
000170 7a f6 fc bd d0 03 40 be 4e 9b c9 be ca 47 60 3e
       -0.12351699 -0.18751454 -0.393763 0.21902385
000180 f3 93 55 be a6 2f 42 be 7b ac 88 be ec a2 df 3d
       -0.2085722 -0.18963489 -0.26694092 0.10919747
000190 87 b3 96 be 71 65 03 3e 1c 92 81 3d 61 0f cb 3e
       -0.29433843 0.12831666 0.06326696 0.3966017
0001a0 0a 2e ee be f2 b1 89 be 2a e4 ac be 5b 7d cd 3c
       -0.465195 -0.26893574 -0.33767825 0.025084188
0001b0 63 01 47 3d 88 a9 b7 bb ab 2a 86 be 62 dd e1 3d
       0.048585307 -0.0056049265 -0.26204428 0.110285535
0001c0 02 f7 fc bc 11 20 1e 3e d0 4d 67 bd 9a ee 57 be
       -0.030879501 0.1544192 -0.056470692 -0.21087113
0001d0 17 d0 96 3d d2 de e0 bd ab 1d 17 be 7e 64 cc be
       0.07363909 -0.109799996 -0.14757411 -0.3992042
0001e0 c7 63 61 3e 2c 9a 19 3d 87 11 c4 be 1b 73 f9 3c
       0.22010718 0.037500545 -0.38294622 0.030450394
0001f0 24 d4 7b be 01 fb a5 bd 4e 2f 72 3e 5b ae 34 3e
       -0.24592644 -0.08104516 0.23650858 0.17644636
000200 62 71 99 3e 68 13 37 3d ac b3 e1 bd 2d 7a 1a 3e
       0.29969317 0.04469624 -0.11020598 0.15085669
000210 b6 ee 56 3e 02 d2 6c be 7b d0 e6 bb a7 8b 10 3d
       0.20989498 -0.23126987 -0.007043896 0.035289433
000220 06 e1 25 3e 69 d0 b7 3d 62 c8 59 3c 24 69 5b 3e
       0.16199121 0.08975298 0.013292404 0.21426827
000230 5d ed a4 be eb 2d 51 3d 5c 0a 3c 3e 4a 13 bf bc
       -0.32212344 0.05106918 0.18363327 -0.023324627
000240 09 77 0d 3e a8 79 0d be 11 72 c9 3c 12 3a 81 3b
       0.1381494 -0.1381594 0.024590524 0.00394369
000250 0b b0 9b 3e 39 59 15 3e 1c 31 52 be b4 99 00 be
       0.30407748 0.14584817 -0.20526546 -0.12558633
000260 ec d4 14 be 80 da cd 3d 7a 3f db 3c b8 05 ae bd
       -0.14534348 0.10051441 0.026763666 -0.084971845
000270 93 6f ca 3e a2 04 0f be e2 46 35 be 1a 1f 5c bc
       0.3953825 -0.13966611 -0.17702821 -0.01343515
000280 27 64 2f bd 0f a4 2e 3d ff c8 60 3e 53 fb be 3d
       -0.042820122 0.042636927 0.21951674 0.0932528
000290 81 ee 85 3e a7 dd fb 3c 02 94 cf bd bb 4f 6a 3d
       0.26158527 0.03074534 -0.10135652 0.057204943
0002a0 61 6e ee 3d 2b 98 29 3c 11 65 9d 3e 2b 4a 6e be
       0.11642147 0.010351221 0.3074117 -0.2327048
0002b0 af 12 ae 3e 6e 2f b6 3d 85 1e a2 3e 53 2f 31 3c
       0.3399863 0.08895765 0.3166391 0.010814506
0002c0 7e 51 1f 3c ae ae 96 3c 05 32 98 bd 93 3a 90 3e
       0.009724019 0.01839384 -0.074314155 0.2816969
0002d0 2a 41 31 3e d5 5a 2b 3e c4 10 76 3d 9a ae 8a 3e
       0.17310014 0.16733868 0.060074583 0.27086335
0002e0 9c b8 df bd 10 14 59 3e ec 1c bc 3d 4b 72 03 bc
       -0.10923883 0.2119906 0.09185204 -0.008022855
0002f0 2a fc 20 3e 28 21 b7 bd 15 a2 97 3d d3 32 ec 3d
       0.15721193 -0.08941871 0.074039616 0.115331315
000300 18 0d 0c 3e 2b 72 93 be d7 f4 19 3e 6b e9 1e 3e
       0.1367687 -0.2879804 0.15034805 0.1551873
000310 26 7e d9 3d 25 12 c1 be 34 f1 77 3b cc 54 14 be
       0.10619764 -0.37709156 0.0037832977 -0.14485472
000320 7a a0 14 be f0 c6 b4 3e d6 4b ac 3d cf 01 0d bf
       -0.14514342 0.35308027 0.08412902 -0.55080885
000330 52 ab a3 bc 9e 91 47 3e 13 b4 74 3d 71 c5 c6 be
       -0.019979153 0.19489142 0.059742045 -0.3882251
000340 ca a1 ef bd 59 73 e5 be 56 5c 94 3e 29 fd dc bd
       -0.11700781 -0.44814566 0.28976697 -0.10790474
000350 89 07 29 3c 50 68 a5 3e 24 d7 84 3e 55 36 6f bd
       0.010316738 0.32306147 0.2594539 -0.058401424
000360 79 de 06 3e da 25 5e bd 53 e6 e0 3d b1 d3 4e be
       0.13170804 -0.054235317 0.10981431 -0.20197941
000370 03 5f 6c 3d 26 ca 05 3e 34 51 0f bd 30 87 c6 3d
       0.057707798 0.13065395 -0.03498955 0.09693754
000380 8b 5b 25 be 9f 59 8e 3d 67 ff 34 be b4 ce b9 3a
       -0.16148202 0.069506876 -0.17675553 0.0014175982
000390 fa 60 83 bd 2d 28 9e 3d e4 81 de 3d 3d 5b 8b 3e
       -0.06414981 0.07722507 0.108646184 0.27218047
0003a0 08 6c 9e be 86 e5 8f be 54 8e 33 3c db 88 95 bd
       -0.30941796 -0.281048 0.010959227 -0.07301494
0003b0 06 c6 08 3e c6 bd 04 3e cb 8d 2e bd f3 0d 9e bc
       0.1335679 0.12963018 -0.042615693 -0.01929376
0003c0 a7 d1 0e 3e e1 e2 8f bd 63 15 2d be 97 79 00 3e
       0.13947164 -0.070256956 -0.1690269 0.12546383
0003d0 ec 8b a9 3d db 59 90 be 69 e6 f3 3c 89 b0 82 bb
       0.08278641 -0.28193554 0.029772954 -0.00398833
0003e0 67 4d bd 3d 76 5a 3e be be 49 da 3d 30 9f ff bd
       0.09243279 -0.18589196 0.106585965 -0.124815345
0003f0 11 fc 4c 3c 34 51 9f be 53 01 2c 3e 0f de 94 3d
       0.012511269 -0.3111664 0.1679738 0.07268917

encoder_lstm.bias_ih_l0 f4 [128]
000000 91 7d 83 3d d3 7f 7c bc a9 63 02 be 3d 3e 77 be
       0.06420434 -0.015411335 -0.1273333 -0.24144836
000010 c4 0e 48 3e b2 13 8c 3e 79 6a b8 3b e0 c9 3a 3d
       0.19536883 0.27358776 0.005627927 0.04560268
000020 d3 8e b3 3d 82 c1 c5 3d b3 79 ef bc 8b 63 97 bd
       0.08767476 0.09656049 -0.029232835 -0.07392033
000030 6b a5 2e be 42 24 a3 be 92 19 03 3e aa ac 48 bd
       -0.1705529 -0.318636 0.12802723 -0.04899279
000040 c3 a9 9e 3d 45 cd 1d 3e 7a 74 3d be ad 35 cf bd
       0.07747223 0.15410335 -0.18501464 -0.1011766
000050 bf 31 12 bc 8f 81 50 3e ed 5a 8c bd 7d d2 87 3e
       -0.008922993 0.20361923 -0.0685328 0.26527777
000060 67 ef 6f 3e 67 94 d0 bd 2f 61 57 3d 65 6c 24 be
       0.23431168 -0.101845555 0.052582916 -0.16056974
000070 70 70 2e 3e f4 93 36 3d bf 5f 28 3d b4 26 9f bd
       0.17035079 0.044574693 0.041106936 -0.07771054
000080 e2 ff 90 3e 9c c7 0c be 9a 9c 94 be eb cc 24 3d
       0.28320223 -0.1374802 -0.29025728 0.040234488
000090 88 94 6f 3e d1 ad 11 3d e5 6b ae 3e 63 0f 54 bd
       0.23396504 0.035566155 0.34066692 -0.051772486
0000a0 5c e2 c2 3c 8c 97 14 be 32 39 92 3e e0 4d eb bd
       0.023789577 -0.14510936 0.28559262 -0.11489463
0000b0 54 28 3b be d4 c0 92 be fb 43 11 be e4 34 2d be
       -0.18277103 -0.2866274 -0.14186089 -0.16914707
0000c0 00 c7 1c 3e 86 57 4b 3d 21 a0 bf 3d d5 e3 22 3e
       0.15310287 0.049644016 0.09356714 0.15907224
0000d0 bc 8a 3f 3d c6 30 5e 3d 16 f6 3e be cf f8 4a 3d
       0.046763167 0.054245733 -0.18648562 0.04955369
0000e0 b0 f6 41 bd 17 ed 26 be 01 b0 c4 bd 1a 13 da bd
       -0.0473544 -0.1630138 -0.096038826 -0.106481746
0000f0 55 94 05 be 2d 9f 56 3e d0 e7 d4 bc b5 32 82 3e
       -0.13044865 0.20959158 -0.025989443 0.2542931
000100 cb 65 d0 3d f9 66 61 3e e1 1b 3a be 86 56 65 3c
       0.101756655 0.22011937 -0.18174697 0.01399768
000110 86 11 84 3e 87 d5 b2 be 56 61 8f be 2f c5 a6 be
       0.2579462 -0.34928533 -0.2800395 -0.32572314
000120 01 f4 a4 bd 09 c3 4c 3e df fb 7d 3e b9 14 c9 3c
       -0.080543526 0.19996275 0.24803112 0.024546014
000130 24 34 8c be f0 56 e6 bd 7a 1a 15 3e 9a c8 8c be
       -0.2738353 -0.11247051 0.14560881 -0.27496797
000140 8f c5 04 3e b3 71 97 3d 66 09 73 3e 84 d6 60 3d
       0.12965988 0.07394733 0.23734054 0.054892078
000150 cc 0a 48 3d e8 70 51 3e 50 f0 bb bd 32 16 15 3e
       0.04883842 0.20453227 -0.09176695 0.14559248
000160 04 55 0c be 5a 10 35 3e af a9 15 3e 2d 37 38 be
       -0.13704306 0.17682019 0.1461551 -0.17989798
000170 7b 3b 8e 3e 97 d0 0a bc 1d d1 15 3e 11 70 4a be
       0.27779755 -0.008472583 0.14630552 -0.19769312
000180 3b da f5 3d c8 2f bd be c6 e9 d2 be 02 f2 dd bd
       0.12004515 -0.36950517 -0.4119398 -0.10837175
000190 cd 3f 75 3e 9b 3c 81 3c 2d 7a d0 3d 07 86 54 3e
       0.2395012 0.01577597 0.10179553 0.20754252
0001a0 70 d0 c3 bb c4 a0 85 3d a5 c3 9a 3e ae 99 1f bd
       -0.0059757754 0.06524804 0.3022739 -0.03896492
0001b0 db 66 9f be a2 87 8e be a8 5a 06 3e a0 40 25 be
       -0.3113316 -0.27837855 0.1312052 -0.16137934
0001c0 3e 04 8e 3d 67 d7 93 3d 24 43 c0 3d d4 12 93 be
       0.06934403 0.07218819 0.09387806 -0.28725302
0001d0 b9 c1 e7 3c 52 43 c2 bd 25 45 57 be 67 f6 da 3e
       0.028290616 -0.094854966 -0.2102247 0.42766115
0001e0 da a6 ab be 59 2e b3 3d ca be dd bd 24 f3 5f bc
       -0.33525735 0.087490745 -0.10827406 -0.013668809
0001f0 2d 8b ff 3e 6b 11 aa bd e0 39 86 be aa 00 7b 3e
       0.4991087 -0.083041035 -0.2621603 0.24511972

encoder_lstm.bias_hh_l0 f4 [128]
000000 da fa 9c 3e fe 40 3d be 4d 7e 59 be 3e 08 87 be
       0.30660135 -0.18481824 -0.21239586 -0.26373476
000010 0c 36 79 3e 2e 6d 3a ba 4d d5 7e 3e 1b 4c b0 bd
       0.24337023 -0.0007111606 0.24886055 -0.08608266
000020 2f 31 b4 3e 1c ea c9 3c b7 f0 d8 bd 45 d8 88 be
       0.35193774 0.024647765 -0.10592788 -0.267275
000030 a9 04 7d be 08 3a 1a be 34 74 19 3d f3 27 ba bc
       -0.24708809 -0.150612 0.037464336 -0.022724127
000040 69 30 64 bd 38 ff f2 3d ca 14 75 be 35 04 3f be
       -0.05571023 0.11865085 -0.23933712 -0.18653949
000050 18 90 0c be da 7c 31 3e 6e be 87 bd e1 e9 28 3e
       -0.13726842 0.17332783 -0.066281185 0.16495468
000060 3b f7 18 3e 85 db 20 3e ed 49 03 be 57 0f 18 be
       0.14938061 0.1570874 -0.12821169 -0.14849602
000070 95 9e a8 3e 04 2f 37 be ae d8 46 be f3 e6 3e 3e
       0.32933488 -0.17889029 -0.19418594 0.18642788
000080 d4 e6 35 3e 1e 20 11 3c 24 ef a1 be ec ad b3 bd
       0.17763835 0.008857755 -0.31627762 -0.08773407
000090 88 c9 74 3d 60 ca 06 3b ed 09 56 3e 93 30 ac bd
       0.059762508 0.0020567402 0.20902224 -0.08407702
0000a0 93 41 55 3e c8 10 86 3c bd c2 94 3e 25 8f 11 be
       0.20825796 0.016365424 0.29054824 -0.14214762
0000b0 1a ed 81 bd 81 2c 88 be 6c f7 25 3e f0 bf 52 be
       -0.06344052 -0.26596454 0.16207665 -0.20581031
0000c0 90 1f 8f bd 04 a5 60 be f0 93 b4 3d 46 21 af 3c
       -0.06988442 -0.21937948 0.08817279 0.02137817
0000d0 23 c9 b0 bd e9 2b 1c 3e 3a 98 6e be f7 b6 3c 3d
       -0.08632114 0.15251125 -0.23300257 0.046072926
0000e0 ea f9 3e 3d a0 b2 86 be 4b 18 7e be 7b 83 a0 be
       0.046625055 -0.26308155 -0.24813955 -0.31350312
0000f0 b1 87 3f 3e f8 d3 9e 3e 17 a1 2b 3e ac c4 e3 3d
       0.18704106 0.31021094 0.1676067 0.111214966
000100 3e 79 a4 3e 37 05 81 3d 02 7a d6 3c b7 b0 83 be
       0.3212375 0.06299823 0.026181225 -0.2572076
000110 a1 7a 92 3c d4 6e 87 be 56 2a 8e be f9 67 85 be
       0.01788074 -0.26451743 -0.27766675 -0.26055887
000120 21 d3 36 3e 97 66 d0 3d b0 c2 c0 3e b2 39 c0 3d
       0.17853977 0.101758175 0.37648535 0.093860045
000130 0b 8b 83 be f6 c7 e4 3d b7 6a 69 3e 8e 14 57 be
       -0.2569202 0.11170952 0.22794615 -0.21003935
000140 32 63 2a 3e e5 b9 1d be 76 08 9b 3e 08 98 1e be
       0.16639403 -0.15402944 0.30279893 -0.15487683
000150 30 80 08 3e f0 95 62 3b 15 b4 29 be 93 05 c6 3e
       0.1333015 0.0034574233 -0.16572602 0.38676128
000160 13 2f 58 be 50 19 48 3c d3 aa b4 3d ff c8 ff bd
       -0.21111707 0.012213066 0.08821645 -0.12489509
000170 df 73 89 3e 60 8d 86 be 6d 65 36 be c7 34 ca bb
       0.26846215 -0.26279736 -0.17812128 -0.0061708423
000180 a3 08 da 3d 33 a8 28 be c8 38 6f be ad 96 b5 3d
       0.106461786 -0.16470413 -0.23361504 0.0886663
000190 a4 7f 59 3e a8 19 2b 3e 89 e7 38 3e 53 28 d4 3d
       0.21240097 0.16709006 0.18057074 0.10359254
0001a0 be 8f 13 be 55 44 b7 bd 1c ac c2 3d 95 b6 1a 3e
       -0.14410302 -0.0894858 0.095054835 0.15108712
0001b0 08 55 a0 ba f3 90 9a be 5d 28 63 3e a6 d4 6c bd
       -0.0012232373 -0.30188712 0.22183366 -0.057819985
0001c0 9f 8a 55 be 1f 94 8d 3e 0b bb 0a 3d 70 bc d8 bd
       -0.20853661 0.2765207 0.033869784 -0.105828166
0001d0 b6 b0 dc 3d e2 a8 05 bd 73 e9 c5 bd a8 ae 8b 3e
       0.107758924 -0.032631762 -0.096636675 0.2728169
0001e0 d9 4d 68 be ea a7 ef 3d 18 23 7d 3c 8a 98 dd 3d
       -0.22685947 0.11701949 0.0154502615 0.1082011
0001f0 af 04 ef 3e 86 50 c6 bd 4a d8 04 be d4 29 82 3e
       0.4668326 -0.096833274 -0.12973133 0.25422537

encoder_lstm.weight_ih_l1 f4 [128, 32]
000000 f4 9c a2 bc 01 06 4e bd cb 73 f5 3d e3 71 68 3d
       -0.019850232 -0.050298695 0.119849764 0.056749236
000010 ec 5c f2 3e d7 95 68 3d f0 5c c8 be fb 54 ec 3d
       0.4733652 0.056783523 -0.39133406 0.11539646
000020 20 12 b1 bd 8f e4 da bd 66 f4 a7 3e 07 7b 31 be
       -0.08646035 -0.10688125 0.3280365 -0.17332087
000030 cc 10 1a be a0 33 03 3d 56 e3 63 3d 86 cc 6d 3c
       -0.1504547 0.032031655 0.055636726 0.014514094
000040 0b 0d a2 3d 12 80 5d bd ea 10 91 be 11 b9 1b bc
       0.07912644 -0.054077215 -0.28333217 -0.0095045725
000050 35 4b 90 3e 7d b9 8a 3d b0 32 11 be a9 e3 3c 3d
       0.28182378 0.0677366 -0.14179492 0.04611555
000060 76 7b c2 3d e1 62 2d 3d ca c2 85 3e 20 f0 41 be
       0.094962046 0.042330626 0.26125175 -0.18939257
000070 f6 71 02 3f 73 7c 8c be 2d ca 53 3e e7 91 05 bd
       0.5095514 -0.27438697 0.20682593 -0.032609846
000080 44 5f 03 3e e6 5b 29 3d b2 58 39 be d2 f1 67 3e
       0.1282931 0.041347407 -0.18100241 0.22650841
000090 b1 84 73 3e 96 47 95 bd ed c8 3f be b6 0e a3 3d
       0.23781087 -0.072890446 -0.18728991 0.0796179
0000a0 ec f3 0a be 98 f2 0a be cf 0c e9 3d d8 f7 02 3d
       -0.13569611 -0.13569105 0.11379396 0.031974643
0000b0 28 0e 0b 3e 28 b5 11 be 4e 4a 88 bd 65 20 e0 3d
       0.13579619 -0.14229262 -0.066547975 0.10943679
0000c0 f3 ff 0f be 0a f9 15 be 83 3c 90 bc 1c 95 81 bd
       -0.1406248 -0.14645782 -0.01760698 -0.063272685
0000d0 52 b8 21 3e 72 f9 91 be b9 47 fb bd 82 3e 2a 3d
       0.15792969 -0.28510624 -0.122695394 0.04156352
0000e0 ba 62 be 3d 92 ba 53 bd cf b3 ce bd ba 8f 3b 3d
       0.09296174 -0.0516916 -0.100928895 0.045791365
0000f0 f7 ab e8 3d 2c b7 f3 bd 0b 49 88 be 29 71 6f bd
       0.11360925 -0.11900172 -0.26618227 -0.058457527
000100 b1 b1 a2 3d e9 fa b6 3d 9c 9d 64 be 54 dc d6 3d
       0.07944048 0.08934576 -0.22325748 0.10491243
000110 b8 ef 80 3e 62 72 c9 3e de a6 4d 3e 2a 14 c5 3d
       0.2518289 0.3934508 0.20083186 0.096229866
000120 c7 92 b1 3d d8 e0 0a 3e 6d eb 2c bc e1 14 c2 3c
       0.08670574 0.13562334 -0.010554177 0.023691596
000130 26 34 66 be 07 4a e5 bd a5 2f 80 3e 82 2f 30 be
       -0.2248083 -0.1119576 0.2503635 -0.17205623
000140 45 e9 9a bd 5e 5b 1a 3d c0 11 7f 3e 81 de ff 3d
       -0.07564024 0.03768479 0.24909115 0.12493611
000150 a6 bb 40 3e a6 3d 8d be 18 12 24 bd a6 36 33 be
       0.18821582 -0.27586097 -0.040056318 -0.17501315
000160 e6 13 98 be 24 93 da bd 7b bf 1a be b8 0a 8a 3d
       -0.2970268 -0.10672596 -0.15112107 0.06740326
000170 bd 8d a5 bc 53 7e b6 be ad 4d 71 bd 77 ad b3 3d
       -0.020209188 -0.35643253 -0.058911968 0.0877332
000180 9f 52 16 3d 51 d7 91 3e 8b b1 34 be 77 d0 8d 3e
       0.036699887 0.28484586 -0.17645852 0.2769811
000190 f1 07 d0 3e d9 9f ea 3d e7 c1 aa bd 3c 76 cb 3d
       0.4063106 0.1145627 -0.08337765 0.09934661
0001a0 d2 c8 23 be 60 08 df bd ec 38 3a 3e 96 b9 ce bd
       -0.15994576 -0.10890269 0.18185776 -0.100939915
0001b0 56 ed ea 3e 97 58 11 3d 6f 8c c4 3d 8a 68 42 3d
       0.45884198 0.035484876 0.09597098 0.047462977
0001c0 fd e4 57 be a1 3f 6d 3d 8f 03 96 3d 1f fc 03 be
       -0.21083446 0.05792201 0.073248975 -0.12889145
0001d0 30 57 26 3d d6 6f 19 be 79 3f c4 3d 0e 4d 54 3e
       0.040610492 -0.14984068 0.09582419 0.20732519
0001e0 c5 ad 2a 3e 20 6a 56 3d e0 9f 02 be 80 7e 70 3e
       0.1666785 0.052347302 -0.127563 0.23485756
0001f0 c5 6a cd 3e e4 55 dc be 92 ba 3a 3e 90 81 8e 3e
       0.4012052 -0.4303428 0.18235233 0.27833223
000200 bb 52 42 3e 4b b4 7e 3d 50 6d 27 be 61 0d de bc
       0.18976872 0.06218366 -0.16350293 -0.027105989
000210 d2 ab a9 3e 67 bd a6 ba 6f 38 cb be 30 f5 19 bc
       0.331389 -0.0012721241 -0.39691493 -0.009396836
000220 c3 4b ef be e2 ed f7 bd 45 72 9d 3e bc a6 9e bc
       -0.4673749 -0.121059194 0.30751243 -0.019366615
000230 36 db b7 3d ec a4 82 3e da 49 d9 3e 7d 35 f4 bc
       0.08977358 0.2551645 0.42439157 -0.029810661
000240 d6 81 19 bd 1d 7c af 3d dd 71 ac 3b 67 aa a0 3e
       -0.037477337 0.085685946 0.005262597 0.31380007
000250 d2 14 64 bc e9 25 18 be 1f 29 b4 bc ee 20 a7 3e
       -0.01392098 -0.14858212 -0.021992264 0.3264231
000260 2d 8b 85 3e 7b 77 d7 3d 79 52 82 3b f3 1f 19 be
       0.26082745 0.10520836 0.0039771167 -0.14953594
000270 c1 a4 b9 3d fb b1 47 be c8 cf 2d 3e 79 1d 2f 3e
       0.090646274 -0.19501488 0.16973794 0.17101087
000280 e5 8e 52 3c f1 1f fa 3c ec 09 6a be 0f 5f e6 3d
       0.0128514515 0.030532809 -0.22855347 0.112486
000290 f2 a9 e9 bd 8e 59 16 3e ea b2 45 3e b3 34 85 3d
       -0.114093676 0.146826 0.19306532 0.06504192
0002a0 3f 80 da bd e8 76 a6 be 3e 90 05 be 59 59 cc 3d
       -0.10668992 -0.32512593 -0.13043305 0.09977979
0002b0 6f d5 32 3e f0 14 65 be f7 ea 75 be b8 b5 31 3e
       0.17464231 -0.22371268 -0.24015413 0.17354476
0002c0 84 a1 b9 bd 76 cb 27 3e 97 f6 5a 3e 07 57 1a 3e
       -0.0906401 0.16386208 0.21383129 0.15072261
0002d0 1c 27 75 be 83 70 bd bd 8d 08 eb 3d fe 8d 9d bc
       -0.239407 -0.092499755 0.1147624 -0.019232746
0002e0 01 99 e4 bc ae d0 0a 3d b0 6b 0b 3e 1a c6 8d 3e
       -0.02790499 0.03389042 0.13615298 0.27690202
0002f0 3c c3 93 be ff 64 c1 3d 66 dc 89 bd 9b 77 db 3d
       -0.2885989 0.094430916 -0.06731491 0.10716172
000300 cf 51 88 3e ca 90 83 3e f6 b8 58 bd bd 80 1d 3e
       0.26624915 0.25696403 -0.052910767 0.15381141
000310 75 01 b2 3d 1f 53 43 3a 91 1c 80 be b2 3e 8d 3d
       0.08691684 0.00074510457 -0.25021794 0.06896724
000320 dd 03 80 bd 7a 07 3a 3d a6 bf 90 3e 80 63 0e be
       -0.06250737 0.045417286 0.28271216 -0.13905144
000330 34 4f 77 3c 43 cc 37 bd 6b 26 b5 3d 5e c4 4e be
       0.015094567 -0.044872534 0.08845218 -0.20192096
000340 fc 0f 97 3e 87 e4 e5 bd 5d bf 38 bd b3 8a 10 bb
       0.29504383 -0.11225229 -0.045104373 -0.0022055327
000350 7c 7c 0a 3c 44 2b c3 3d 6a d3 00 be 0a e2 4f 3e
       0.008452531 0.09529737 -0.12580648 0.20301071
000360 b7 d6 eb bd 9c 11 8f bd 2c 7e 94 3c 5d ca 92 be
       -0.11515563 -0.069857806 0.01812657 -0.28670016
000370 74 19 88 3e 63 97 58 3d 70 aa 6d 3d 1f 5a 59 be
       0.2658192 0.05287875 0.05802387 -0.21225785
000380 3a 3c bc 3d 73 30 51 3e 6a 62 97 3b da a3 69 3e
       0.09191175 0.20428638 0.004619886 0.2281641
000390 65 e2 7d 3e 8a 44 c2 3d 38 0d c4 3d e6 2b b0 3e
       0.24793394 0.09485729 0.09572834 0.34408492
0003a0 e2 76 a2 be 96 a1 d7 bc 60 d9 b6 bd 76 33 9e bd
       -0.31731325 -0.026322167 -0.0892818 -0.07724659
0003b0 13 a1 42 3d 2a 8f 48 3d f1 28 7c 3d ba 68 41 be
       0.047516894 0.048964657 0.061562482 -0.18887606
0003c0 a7 1c 35 3e 5d 75 46 bd 3b c7 29 3d 29 81 97 bd
       0.17686711 -0.04845177 0.041449767 -0.07397682
0003d0 27 ed f4 3d 26 9a 23 bd 95 29 ed bb 56 ec 48 be
       0.11959296 -0.03994193 -0.007237623 -0.19621405
0003e0 3a 43 65 3e b5 6e 94 3d 20 57 17 be f1 ee a2 3d
       0.22388926 0.07247678 -0.1477933 0.07955731
0003f0 b6 ed 93 3e ea ae ea bd 35 85 17 3e 90 69 15 3e
       0.28892297 -0.114591435 0.14796908 0.1459105
