W3-Design/checkpoints/epoch_16.pt (torch, 384725 bytes, 24 tensors)

encoder_cnn.0.weight f4 [32, 3, 3]
0	0xbe83c06a	-0.25732738
1	0xbddc0789	-0.10743625
2	0xbe890f52	-0.267695
3	0x3e643c2f	0.22288583
4	0xbe8689c3	-0.2627698
5	0x3e1dcef7	0.15410982
6	0x3e05071a	0.1299099
7	0x3e2af6c3	0.16695695
8	0x3dd21d11	0.1025945
9	0x3e43b6b2	0.19112661
10	0x3e474e4e	0.19463465
11	0x3c9a6ae7	0.018849803
12	0xbe7c1725	-0.24618204
13	0xbe92a38c	-0.286404
14	0x3bb64bd0	0.005563237
15	0xbe6880b9	-0.22705354
16	0x3e3862e1	0.1800647
17	0xbe054601	-0.13014986
18	0x3dd91d39	0.10601277
19	0x3e82e247	0.2556326
20	0x3eeada29	0.45869568
21	0x3dc3deed	0.09564004
22	0x3e57eef8	0.21087253
23	0xbec7f46e	-0.39053673
24	0xbe609ad2	-0.2193406
25	0x3d5f6b2c	0.054545566
26	0xbe17b1f0	-0.14813972
27	0xbe10d260	-0.14142752
28	0x3d0023ca	0.03128413
29	0xbe324c51	-0.17411925
30	0xbdfcd651	-0.12345565
31	0xbd99fbf0	-0.075187564
32	0xbcb60e96	-0.022223752
33	0x3da6744d	0.08127651
34	0x3e3a62d7	0.18201767
35	0xbce5e349	-0.02806248
36	0xbd8c865d	-0.06861565
37	0x3e334765	0.17507704
38	0xbdaefb00	-0.08543968
39	0x3f0b6e11	0.54464823
40	0xbd7ff970	-0.06249374
41	0x3ee437df	0.44573876
42	0x3c3a666c	0.011376958
43	0x3d990206	0.07471089
44	0xbeb623f4	-0.35574305
45	0xbb8c63de	-0.004284366
46	0xbdf22601	-0.11823655
47	0x3ec0efa6	0.37682837
48	0xbe9fe4b0	-0.31229162
49	0xbe8c2777	-0.2737386
50	0x3dd35523	0.10318973
51	0x3e0c7660	0.13717031
52	0x3e54fb19	0.20798911
53	0xbe8a2ed6	-0.26988858
54	0xbd8de957	-0.06929272
55	0xbe11f230	-0.14252543
56	0x3e93b822	0.2885142
57	0x3e71a9b5	0.23599894
58	0x3e251fc1	0.16125394
59	0xbddb023d	-0.10693786
60	0xbd1b390f	-0.037896212
61	0x3e3e9a7a	0.18613616
62	0xbe764132	-0.24048308
63	0x3e21456d	0.1574914
64	0xbdefca1a	-0.1170847
65	0x3e6c0563	0.2304893
66	0x3e667911	0.2250712
67	0xbe9f5200	-0.3111725
68	0xbef9028d	-0.4863476
69	0xbddcde4e	-0.10784589
70	0xbda34756	-0.079725906
71	0x3ebfe276	0.37477463
72	0x3d1e2bd7	0.038616028
73	0x3e1dbb1c	0.15403408
74	0xbd846acc	-0.064656824
75	0xbdbbf9c6	-0.091785
76	0xbe86ca4e	-0.2632622
77	0x3e9e338e	0.30898708
78	0xbe97b1ca	-0.2962783
79	0x3e851717	0.2599418
80	0xbd7b5fdb	-0.06137071
81	0xbbe773b7	-0.007063355
82	0x3eaeb7de	0.34124655
83	0x3d0fe0bb	0.03512643
84	0x3eb4ab71	0.3528705
85	0xbd75216a	-0.05984632
86	0xbe8c0c73	-0.27353248
87	0x3df8e734	0.121534735
88	0x3d8eeafa	0.06978412
89	0xbc9ad8d1	-0.018902214
90	0xbd56359a	-0.052297212
91	0x3d50870c	0.05091004
92	0x3dc31ff7	0.09527581
93	0x3eb5ad81	0.35483935
94	0xbe3b9ae5	-0.18320806
95	0xbe543895	-0.2072471
96	0xbe455204	-0.19269568
97	0x3e54703e	0.20745942
98	0xbc7d270e	-0.015451206
99	0xbddbdc30	-0.10735357
100	0xbc8cbcdb	-0.017179897
101	0x3e49e4ca	0.19716182
102	0xbc3c284b	-0.011484216
103	0x3e8a6f43	0.2703801
104	0xbd3523b2	-0.044223495
105	0xbe95b023	-0.29235944
106	0xbeb563c6	-0.35427684
107	0xbd37fd17	-0.0449191
108	0xbdbe8e42	-0.09304477
109	0x3e90721d	0.28212062
110	0x3e28c669	0.16481937
111	0xbd600a49	-0.05469731
112	0xbea2b9cf	-0.31782386
113	0xbecf0c68	-0.40439153
114	0x3ebf7f3a	0.37401754
115	0xbc79e2b7	-0.015251807
116	0xbe37ec68	-0.17961276
117	0x3e0c4269	0.13697208
118	0xbdad4187	-0.08459764
119	0x3e1d61ee	0.15369388
120	0x3daea1d8	0.08526963
121	0xbe51bb1b	-0.20481531
122	0xbe47943c	-0.1949014
123	0xbc55a06a	-0.013038734
124	0xbe03b3dd	-0.12861581
125	0xbe23cf16	-0.15996966
126	0xbe28a5f2	-0.16469553
127	0xbe4ae80a	-0.19815078
128	0xbda7683a	-0.081741765
129	0x3ea72770	0.32647276
130	0xbd5220f9	-0.051300976
131	0xbe5bcd01	-0.21464922
132	0x3e26ab2a	0.16276231
133	0x3e40764d	0.18795128
134	0xbe074aa8	-0.13212073
135	0x3ea7b689	0.3275645
136	0x3e2daa8f	0.16959594
137	0xbe224198	-0.15845335
138	0xbeec7c49	-0.46188572
139	0xbc5da007	-0.013526923
140	0xbe7eb8dc	-0.24875206
141	0xbeec4ff1	-0.4615474
142	0xbdb37bd5	-0.087638535
143	0xbdfcbd51	-0.12340797
144	0x3e059d4c	0.13048285
145	0xbe6395fe	-0.22225186
146	0xbeacb6c2	-0.33733183
147	0x3e1ba6d4	0.15200359
148	0xbd1ee5c4	-0.03879334
149	0xbdc9db82	-0.09856321
150	0x3e59e840	0.21280003
151	0xbdfb457b	-0.12269112
152	0x3e3c778f	0.18404983
153	0x3d37d091	0.04487664
154	0x3e862658	0.2620113
155	0x3d222cb6	0.03959342
156	0x3e0d8a20	0.13822222
157	0xbeeb96f0	-0.46013594
158	0x3e6018eb	0.21884505
159	0xbe13ea67	-0.14444886
160	0xbec551b2	-0.3853889
161	0xbdefeaa9	-0.1171468
162	0x3e53b56f	0.2067468
163	0x3de698e2	0.11259629
164	0xbe822c98	-0.25424647
165	0xbe31b34f	-0.17353557
166	0xbef06526	-0.4695217
167	0xbe2f0e16	-0.17095217
168	0x3ddf9255	0.109165825
169	0xbe73bb6a	-0.23801962
170	0xbda2ceb9	-0.079495855
171	0xbe0a0d17	-0.13481556
172	0x3e0e8659	0.13918437
173	0x3db99846	0.09062247
174	0xbdbb9659	-0.09159536
175	0xbe782afc	-0.24235147
176	0x3e67e48d	0.22645779
177	0xbe426b1e	-0.18986174
178	0x3e067d49	0.1313373
179	0x3e62f31b	0.2216305
180	0xbe3209a2	-0.17386487
181	0xbe2ed7e0	-0.17074537
182	0xbe11a973	-0.14224796
183	0xbe328a8b	-0.17435662
184	0x3e73cb59	0.2380804
185	0x3d19bf56	0.037535988
186	0x3e7ae4eb	0.24501388
187	0x3e58b233	0.21161728
188	0xbe2ada0c	-0.16684741
189	0x3e9662a6	0.29372138
190	0xbe0cd3dc	-0.13752693
191	0xbdb943ad	-0.09046111
192	0xbe4e5666	-0.20150146
193	0x3e4fd027	0.20294248
194	0x3d7b592c	0.061364338
195	0xbe3f71ae	-0.18695709
196	0xbef7ddca	-0.484114
197	0xbeb71f2b	-0.35765967
198	0x3e57fb90	0.21092057
199	0xbe8fd5ea	-0.2809289
200	0x3e75c2e2	0.24000123
201	0x3e500f73	0.20318393
202	0x3e910e62	0.28331286
203	0x3c5dc5b4	0.013535906
204	0xba52f10c	-0.0008046783
205	0xbe06a2e0	-0.1314807
206	0xbe4975c7	-0.19673835
207	0x3dad8fa7	0.08474665
208	0xbe9af305	-0.30263534
209	0xbe860754	-0.26177466
210	0xbe2f3bd7	-0.17112671
211	0x3adc23da	0.0016795353
212	0xbdbac329	-0.09119255
213	0x3db87931	0.090074904
214	0x3e4b3c51	0.19847228
215	0x3e868625	0.2627422
216	0x3da25b3a	0.07927556
217	0x3e48be35	0.19603808
218	0xbd33c469	-0.043888483
219	0x3e23ebda	0.16007939
220	0x3d561e64	0.052275077
221	0xbe34417a	-0.17603102
222	0xbc7ab530	-0.0153019875
223	0xbb9a6366	-0.0047115562
224	0x3d00bb84	0.03142883
225	0x3ef5ce1e	0.48008817
226	0x3e6761dd	0.22595926
227	0x3eeb4d43	0.45957384
228	0x3e70a10b	0.23498933
229	0x3e5e6097	0.21716534
230	0xbcacfa7f	-0.02111554
231	0xbecd7f03	-0.40135965
232	0xbd34806f	-0.044067796
233	0x3e5ac721	0.21365024
234	0xbef9354a	-0.4867347
235	0xbd844160	-0.06457782
236	0xbe52a7f1	-0.20571877
237	0x3ea067d0	0.31329203
238	0x3e228fc1	0.1587515
239	0xbe593775	-0.21212561
240	0x3ea1604c	0.3151878
241	0xbbac21e8	-0.0052530654
242	0xbe0091e0	-0.12555647
243	0xbe81cecc	-0.25353086
244	0xbcb0fc0c	-0.02160456
245	0xbd93e1a3	-0.07220771
246	0xbe040fb0	-0.1289661
247	0xbdc7b1e6	-0.09750728
248	0x3e533031	0.20623852
249	0xbe23a463	-0.15980677
250	0x3e9d0b3b	0.3067263
251	0x3d9a56c3	0.0753608
252	0x3e81f900	0.25385284
253	0xbd52b797	-0.051444616
254	0xbcb3f7c1	-0.021968724
255	0xbd358376	-0.044314824

encoder_cnn.0.bias f4 [32]
0	0xbe89a358	-0.26882434
1	0xbddaca85	-0.10683159
2	0x3f8b8d47	1.090249
3	0xbf8f8cf9	-1.1214896
4	0xbd852a7f	-0.06502246
5	0x3cf1f23b	0.02953445
6	0xbf58f828	-0.84753656
7	0xbe3247a7	-0.17410146
8	0xbe470716	-0.19436297
9	0xbebf4648	-0.37358308
10	0xbe057243	-0.13031869
11	0xbdca15dd	-0.09867451
12	0x3c3be16d	0.01146732
13	0xbf0daf13	-0.5534527
14	0xbf3fe92c	-0.7496517
15	0x3ecf6f56	0.4051463
16	0xbf40d074	-0.75318074
17	0x3e85e20c	0.26149023
18	0x3c885785	0.016643295
19	0xbf42ed4b	-0.7614333
20	0xbf210813	-0.62902945
21	0x3f1753ca	0.59112227
22	0xbc5234b6	-0.01282995
23	0xbf235b2e	-0.63811004
24	0xbf08d1b6	-0.53444993
25	0x3ecd9c81	0.40158466
26	0xbf270ef4	-0.6525719
27	0xbf4288c0	-0.75989914
28	0xbf47f404	-0.78106713
29	0xbec9bc06	-0.39401263
30	0xbe439083	-0.19098096
31	0x3c67d25c	0.014149275

encoder_cnn.2.weight f4 [64, 32, 3]
0	0xbe1c2893	-0.15249853
1	0x3ca9d4ff	0.020731447
2	0x3ce60d02	0.028082374
3	0x3e6a76b1	0.2289684
4	0x3e3287ea	0.1743466
5	0x3e11563c	0.14193052
6	0x3e904961	0.28180984
7	0x3d36bda6	0.044614457
8	0xbd1baf3d	-0.038008917
9	0x3d9224c2	0.07135917
10	0xbea4ffbd	-0.32226363
11	0xbd4ea757	-0.050452556
12	0x3c4c3b13	0.012465256
13	0x3c3f3fd7	0.011672935
14	0xbe159aa7	-0.14609776
15	0xbe4b4098	-0.1984886
16	0xbe44b8aa	-0.19211069
17	0xbe461d4f	-0.19347118
18	0x3e6757b7	0.22592054
19	0x3d348782	0.044074543
20	0x3e83af29	0.25719574
21	0xbe37e16c	-0.17957085
22	0xbe3a2f43	-0.18182091
23	0xbea1b8ca	-0.31586295
24	0x3ea1a974	0.31574595
25	0x3d90e031	0.07074011
26	0x3db0fa62	0.08641507
27	0x3e11bd61	0.14232399
28	0x3cf23025	0.029563973
29	0x3dc0af0e	0.09408389
30	0xbd9e3ed6	-0.07726829
31	0x3d80038d	0.06250677
32	0xbc8650a9	-0.016395884
33	0x3e02393d	0.12717147
34	0x3b53af98	0.0032300707
35	0xbe600f2d	-0.21880789
36	0xbcd584b3	-0.026064252
37	0xbe902c1e	-0.2815866
38	0xbe49060d	-0.19631214
39	0x3e23029f	0.15918969
40	0x3d70bd2c	0.05877416
41	0x3d2f557a	0.042806126
42	0x3e007ea2	0.12548307
43	0xbda69c0b	-0.081352316
44	0x3dca3c2b	0.098747574
45	0x3e7c45ec	0.24636048
46	0x3e49c3ee	0.19703647
47	0xbe1f9f2e	-0.15588066
48	0x3e484f60	0.19561529
49	0x3e1c9c92	0.15294102
50	0x3e00d250	0.12580228
51	0x3e6cf069	0.23138584
52	0x3df4e955	0.11958567
53	0xbe185255	-0.14875157
54	0xbe2eb5bc	-0.17061514
55	0xbe1bc846	-0.15213117
56	0xbe804bc9	-0.2505782
57	0xbdf898ce	-0.1213852
58	0xbdb3dc53	-0.08782258
59	0x3da95c58	0.08269566
60	0x3db2bd0f	0.08727466
61	0xbdc87b52	-0.097891465
62	0x3de1f6d6	0.11033408
63	0x3b453372	0.0030090478
64	0xbc9917fd	-0.018688196
65	0xbe88d7e2	-0.26727206
66	0x3e36ff24	0.17870766
67	0xbd503a99	-0.050837133
68	0x3da0c4ef	0.07850062
69	0xbe0b268b	-0.13588922
70	0xbe33ccf9	-0.1755866
71	0xbcd87c74	-0.026426531
72	0x3ebb948a	0.36636764
73	0xbcb6a1ec	-0.022294007
74	0x3ead7869	0.33880928
75	0xbc61184e	-0.013738705
76	0x3d9302a9	0.07178242
77	0xbe6407ef	-0.22268651
78	0xbddd3232	-0.108005896
79	0x3cea81c7	0.028626336
80	0xbd16f884	-0.036858097
81	0x3dfcd810	0.12345898
82	0x3b927e46	0.0044706194
83	0x3d26e139	0.040742133
84	0xbded2f73	-0.11581316
85	0xbe6edfc1	-0.23327543
86	0xbe25061a	-0.16115609
87	0x3e5f6ef5	0.2181967
88	0xbdf028cb	-0.11726531
89	0x3debabc8	0.11507374
90	0x3ecf1710	0.40447283
91	0x3dc70128	0.097170174
92	0xbbc76eb8	-0.0060861968
93	0x3ddcf247	0.10788398
94	0x3cf1de5e	0.029524978
95	0xbcdfe08b	-0.02732875
96	0xbd6ba59c	-0.057530984
97	0xbc5aa83b	-0.013345773
98	0x3d999175	0.07498447
99	0xbda66853	-0.08125367
100	0xbd74cd82	-0.0597663
101	0xbce43769	-0.027858453
102	0xbeffd37c	-0.49966037
103	0xbe759ebb	-0.23986332
104	0xbe3e55f0	-0.1858747
105	0xbd83a91f	-0.06428742
106	0x3cefef78	0.029288992
107	0xbdba4320	-0.09094834
108	0xbea28fec	-0.3175043
109	0xbe93b8d8	-0.28851962
110	0xbe5d4c92	-0.2161124
111	0xbd380da3	-0.04493488
112	0xbbbbf5ad	-0.005736074
113	0x3d91665b	0.07099601
114	0x3d708e93	0.05872972
115	0xbe0296e0	-0.12752867
116	0xbe42def3	-0.19030361
117	0xbe777282	-0.24164775
118	0x3d9f4ecf	0.077787034
119	0x3c1d0191	0.009582893
120	0x3dc3cb39	0.09560246
121	0xbe4b407b	-0.19848816
122	0xbd461e1e	-0.048368566
123	0x3cc5c898	0.024143502
124	0x3d198dad	0.03748863
125	0xbc7bb009	-0.015361794
126	0xbd53a7ec	-0.051673815
127	0xbd9b9def	-0.07598483
128	0xbd9d1058	-0.07669133
129	0xbeaf714f	-0.34266135
130	0xbe385bfe	-0.18003842
131	0xbef4708f	-0.47742125
132	0xbbc8d624	-0.006129043
133	0xbc814fea	-0.015785176
134	0xbd32a7a9	-0.043616924
135	0xbd12e032	-0.03585834
136	0x3c8334d6	0.016016405
137	0x3d235047	0.03987148
138	0xbdfa8c01	-0.12233735
139	0xbd5a3583	-0.05327369
140	0xbe134637	-0.14382254
141	0xbe2cbed3	-0.16869669
142	0xbd9e48f7	-0.07728761
143	0xbe2a2688	-0.16616261
144	0xbe359a56	-0.17734656
145	0x3d45a4cc	0.048252866
146	0xbd7e2fe5	-0.062057395
147	0xbea699b7	-0.3253915
148	0xbeb8fbc7	-0.3612959
149	0xbeb22118	-0.34790874
150	0x3b54e5cb	0.00324856
151	0x3cf64546	0.030062329
152	0x3d3547f5	0.044258077
153	0x3ddc163e	0.1074643
154	0x3d883718	0.06651133
155	0x3d966c63	0.07344892
156	0xbcf49eee	-0.02986094
157	0xbc1bc99d	-0.009508518
158	0xbcf541e1	-0.02993864
159	0xbe9a2c30	-0.30111837
160	0xbe8bb982	-0.2728997
161	0xbe8ebb3c	-0.27877223
162	0xbcae2662	-0.021258537
163	0xbde38e74	-0.11111155
164	0xbdf1bc8a	-0.11803539
165	0x3d328f1c	0.04359351
166	0xbd1612b3	-0.036638927
167	0x3cc031d2	0.023461256
168	0xbd054a2d	-0.032541443
169	0x3d5a090b	0.05323128
170	0x3d4bf02c	0.049789593
171	0xbe7f1118	-0.24908864
172	0x3d20c695	0.039251883
173	0x3d889368	0.066687405
174	0xbd380008	-0.044921905
175	0xbd35656e	-0.044286184
176	0xbe411eb2	-0.18859366
177	0xbe44d7c3	-0.19222932
178	0xbdab2051	-0.08355773
179	0xbd96ce16	-0.073635265
180	0xbe347c73	-0.17625599
181	0xbd9bd529	-0.076090164
182	0x3d88635a	0.06659575
183	0xbc2ff0e6	-0.010738587
184	0xbdd7d258	-0.10538167
185	0xbc29d221	-0.01036504
186	0xbe0b06b5	-0.13576777
187	0xbde02d95	-0.10946194
188	0xbe366c03	-0.1781464
189	0xbe2cf3de	-0.16889903
190	0xbe2efc44	-0.17088419
191	0xbe62b75a	-0.22140256
192	0x3e8fc988	0.28083444
193	0x3e1a4bba	0.1506795
194	0xbde84df4	-0.113429934
195	0x3d928a30	0.071552634
196	0x3eab4efd	0.334587
197	0xbe66550f	-0.22493385
198	0xbda135df	-0.07871603
199	0xbe55d62e	-0.20882484
200	0xbe8536e1	-0.26018432
201	0xbc56ca42	-0.013109745
202	0xbe5e3981	-0.21701623
203	0xbe1ba601	-0.15200044
204	0xbe4ed3f8	-0.20198047
205	0xbebfd54b	-0.37467417
206	0xbf753a03	-0.95791644
207	0xbd85a8bf	-0.065263264
208	0x3f09ebcc	0.5387542
209	0xbdfc5f88	-0.12322909
210	0xbe06c99d	-0.13162847
211	0x3e735571	0.23763062
212	0xbd7ecb4b	-0.062205594
213	0x3d984b10	0.07436192
214	0x3e3b29f9	0.1827773
215	0xbef65931	-0.48114923
216	0x3da30d20	0.07961488
217	0xbe50f44f	-0.20405696
218	0xbe0e1f66	-0.13879165
219	0x3e556417	0.20838962
220	0xbdb9a85d	-0.09065316
221	0xbe84daff	-0.2594833
222	0xbd4dcd92	-0.050244875
223	0x3e00fdcf	0.1259682
224	0xbe00f1d5	-0.12592252
225	0xbd89e990	-0.06734002
226	0x3db00b0c	0.08595857
227	0xbe9fb6ab	-0.31194052
228	0xbe88bc26	-0.26706046
229	0xbe064299	-0.13111342
230	0xbddb68d2	-0.10713352
231	0xbeeb3826	-0.45941275
232	0xbe701206	-0.23444375
233	0xbea30ea2	-0.318471
234	0x3ebdefec	0.37097108
235	0x3d468cc2	0.04847408
236	0xbe93fda9	-0.28904465
237	0xbd30fc25	-0.043209214
238	0x3c1a685e	0.009424297
239	0xbea6594d	-0.32490006
240	0x3e4e7559	0.20161952
241	0xbd152b9b	-0.03641854
242	0xbece676e	-0.40313286
243	0x3e08f9c8	0.13376534
244	0xbd5b800c	-0.053588912
245	0xbe528a6f	-0.2056062
246	0xbee410d7	-0.44544098
247	0xbedf78df	-0.43646905
248	0xbe27af82	-0.16375545
249	0xbe5f1d65	-0.21788557
250	0x3e208571	0.15675904
251	0xbd32cca0	-0.043652177
252	0x3e81622e	0.25270218
253	0x3e11bfaa	0.1423327
254	0xbe89d06f	-0.26916835
255	0xbe4ce028	-0.20007384

encoder_cnn.2.bias f4 [64]
0	0xbdeeb91a	-0.11656399
1	0xbe15a8b7	-0.14615141
2	0xbcf0d33a	-0.029397596
3	0x3c28a77f	0.01029384
4	0x3e36126e	0.17780468
5	0x3e27e43c	0.16395658
6	0xbe93880a	-0.28814727
7	0xbd1b5c5b	-0.037929874
8	0xbe419ab0	-0.18906665
9	0xbc81c6eb	-0.015841922
10	0x3d427189	0.047471557
11	0xbe404253	-0.187753
12	0x3ca3c041	0.019989135
13	0xbdebe8dc	-0.11519024
14	0xbe57dd77	-0.21080576
15	0xbd011bb0	-0.031520545
16	0x3e545237	0.20734487
17	0x3ccb60b5	0.024826387
18	0xbe1f0250	-0.15528226
19	0xbdb45fc1	-0.08807326
20	0xbe12c0da	-0.1433138
21	0x3e1bab37	0.15202032
22	0x3e707100	0.23480606
23	0x3ea7c3c0	0.32766533
24	0xbe2bd674	-0.16781026
25	0x3cb87455	0.022516409
26	0xbe4622f9	-0.19349279
27	0xbe20e9da	-0.15714207
28	0x3e8754d5	0.2643191
29	0xbdfbfa94	-0.12303653
30	0xbe31712a	-0.17328325
31	0xbeafbf69	-0.34325722
32	0xbe1c0fce	-0.15240404
33	0x3d94bd37	0.07262652
34	0x3e386a36	0.18009266
35	0xbe09421f	-0.1340413
36	0xbc2aa182	-0.010414483
37	0xbea3fda5	-0.32029453
38	0x3e4cb034	0.19989091
39	0xbae0fa56	-0.001716445
40	0xbe440288	-0.1914159
41	0xbedd141f	-0.43179414
42	0x3e1cf522	0.15327886
43	0xbd552ea6	-0.05204644
44	0xbdfde73f	-0.12397622
45	0xbebb473f	-0.36577794
46	0xbe4fb7ac	-0.20284909
47	0xbe2a0344	-0.16602808
48	0xbe7a46d3	-0.2444108
49	0x3e067255	0.13129552
50	0xbeae8313	-0.34084377
51	0xbeb351a8	-0.35023236
52	0xbe8e537e	-0.27798074
53	0xbdb57cb3	-0.08861675
54	0xbd314279	-0.043276284
55	0x3d96dc43	0.0736623
56	0xbd65587a	-0.05599258
57	0xbe0ac1d8	-0.13550508
58	0xbe11c3a6	-0.1423479
59	0xbe028728	-0.1274687
60	0xbe7c42d6	-0.24634871
61	0x3e8095f5	0.25114408
62	0xbea4b407	-0.321686
63	0xbe60edf4	-0.21965772

encoder_lstm.weight_ih_l0 f4 [128, 64]
0	0x3eabbdb3	0.33543167
1	0x3d48d84c	0.0490344
2	0x3e0b8cb1	0.13627888
3	0xbda3b3f2	-0.07993306
4	0x3e7b3f02	0.24535754
5	0x3d9ebebb	0.07751223
6	0x3cb2f80e	0.021846797
7	0x3e62086a	0.22073522
8	0x3e922a4c	0.28547895
9	0x3d59abfe	0.05314254
10	0x3e4ddc74	0.20103627
11	0xbecd0830	-0.4004531
12	0x3e18aa80	0.1490879
13	0xbe22a986	-0.1588498
14	0x3cc669c5	0.024220357
15	0x3e96cc99	0.2945297
16	0x3e993909	0.29926327
17	0xbe31ce06	-0.17363748
18	0xbd967080	-0.073456764
19	0x3c56eb6b	0.013117651
20	0xbc4cb5d6	-0.012494525
21	0x3d6422e3	0.055697333
22	0x3f493882	0.7860185
23	0xbf39ed85	-0.7262805
24	0x3ee9c5e2	0.45658785
25	0x3e5a8cff	0.21342848
26	0xbe9686b3	-0.29399642
27	0x3e08c67e	0.13356969
28	0xbeac4298	-0.33644557
29	0xbdccf1fa	-0.10007091
30	0x3e4abfae	0.19799682
31	0x3e182e7e	0.14861485
32	0x3dadf221	0.08493448
33	0x3e6cfc6e	0.2314317
34	0xbd88c8e9	-0.066789456
35	0x3d5b04e7	0.053471472
36	0x3f0e203d	0.5551794
37	0xbc9c0293	-0.019044196
38	0x3e2d8359	0.16944636
39	0xbe01c596	-0.1267303
40	0x3d80daeb	0.06291755
41	0x3e4b58cf	0.19858097
42	0xbd586cdf	-0.052838203
43	0x3e117336	0.14204106
44	0xbe72bc4e	-0.23704645
45	0x3df28b50	0.11842978
46	0xbcf6fe5f	-0.03015059
47	0x3e6b4c10	0.22978234
48	0x3e9680bc	0.29395092
49	0xbbb5b595	-0.005545328
50	0x3df9e0cd	0.122010805
51	0x3d8b24fc	0.067941636
52	0x3e3f057a	0.18654433
53	0xbd199f03	-0.03750516
54	0x3e16a89e	0.1471276
55	0xbe291e5b	-0.16515486
56	0xbaeb392f	-0.0017946119
57	0xbe3308fe	-0.17483899
58	0xbd6312c7	-0.05543783
59	0xbd2bc367	-0.041934397
60	0xbd0b1c96	-0.03396281
61	0x3d96a052	0.073547974
62	0xbdb565b5	-0.0885729
63	0xbde20ead	-0.110379554
64	0xbe2912d6	-0.16511092
65	0x3c583f98	0.013198756
66	0xbe769936	-0.24081883
67	0xbd9cb810	-0.07652295
68	0x3e1f1028	0.15533507
69	0x3ddb6ac9	0.10713727
70	0x3d5e9192	0.054338045
71	0x3e6e0ed0	0.23247838
72	0x3debd356	0.115149185
73	0x3e20b939	0.15695657
74	0x3c625093	0.013813156
75	0xbdebeb18	-0.1151945
76	0x3db59b46	0.08867507
77	0xbd3ea9b0	-0.046548545
78	0x3dc9d88b	0.098557554
79	0x3e6d9185	0.23200043
80	0x3eb168fc	0.3465041
81	0x3c57aedd	0.013164249
82	0xbe5b5d3c	-0.21422285
83	0xbd448402	-0.047977455
84	0x3e53c36e	0.2068002
85	0x3e967fb1	0.29394296
86	0xbe6f6789	-0.2337934
87	0xbc99f9f4	-0.018795945
88	0x3e578a87	0.21048938
89	0xbe8b6b34	-0.27230227
90	0x3e051b27	0.12998639
91	0x3e09b0a6	0.13446292
92	0x3e684073	0.22680835
93	0xbd68ae88	-0.05680707
94	0xbf035e06	-0.51315343
95	0x3db174dc	0.08664867
96	0x3e47e61b	0.19521372
97	0x3e431c25	0.19053705
98	0xbd3e9a61	-0.046533946
99	0xbd71645e	-0.05893361
100	0xbe8390e0	-0.25696468
101	0xbd8c1572	-0.06840028
102	0x3eb05242	0.34437758
103	0x3b22f591	0.0024865607
104	0xbd69824d	-0.05700903
105	0x3d8ae61f	0.06782173
106	0x3e458107	0.19287501
107	0xbdcc29ef	-0.09968936
108	0x3ee3aee0	0.44469357
109	0x3e80b4a0	0.25137806
110	0x3ea9f29d	0.33192912
111	0xbd00b806	-0.0314255
112	0xbe04d456	-0.12971625
113	0x3cb9e871	0.022693845
114	0xbd8f29d0	-0.06990397
115	0x3e586b13	0.21134596
116	0xbe28e91b	-0.16495173
117	0xbd8b9adb	-0.06816646
118	0xbcbdfa5d	-0.023190672
119	0x3dde0b54	0.108420044
120	0x3d6b0ed8	0.057387203
121	0x3d7c4da6	0.06159749
122	0x3e0c7b81	0.13718988
123	0xbe1bd702	-0.15218738
124	0x3dd23eb8	0.10265869
125	0xbcb45c83	-0.02201677
126	0xbedb1718	-0.42791057
127	0xbe4173d8	-0.18891847
128	0xbd4a3ccc	-0.049374387
129	0xbd824f3f	-0.06362771
130	0x3e7ac0ab	0.2448756
131	0xbd9db188	-0.07699877
132	0x3e98083c	0.29693782
133	0x3daf7aa0	0.08568311
134	0x3d41c393	0.047305655
135	0x3d99d582	0.075114265
136	0xbd8700e9	-0.065919705
137	0x3e1040f2	0.14087275
138	0x3e0c762a	0.13716951
139	0xbdce1f39	-0.10064549
140	0xbed43f3a	-0.41454488
141	0xbda232a7	-0.079198174
142	0x3d743d04	0.0596285
143	0x3cda7209	0.026665704
144	0x3e49f531	0.1972244
145	0x3df9d9a4	0.12199715
146	0xbd3a80e0	-0.04553306
147	0x3e551857	0.20810066
148	0x3deb401e	0.11486839
149	0xbc78273e	-0.015146075
150	0x3dbfffef	0.09374987
151	0xbe93546c	-0.28775346
152	0xbe1a8562	-0.15089944
153	0x3d22639c	0.039645776
154	0x3e13b9e6	0.14426383
155	0xbd3baddd	-0.045820106
156	0x3da4a713	0.080396794
157	0x3dff311f	0.12460541
158	0xbe5b4f44	-0.21416956
159	0xbb9e9485	-0.0048394823
160	0xbe42410a	-0.18970123
161	0xbbfe88a5	-0.007767754
162	0x3ceea67f	0.029132126
163	0x3ae10e1a	0.001717034
164	0x3d232dfb	0.039838772
165	0xbd980be8	-0.07424146
166	0xbe0835dc	-0.13301796
167	0x3cb1d229	0.021706657
168	0x3eb3a4b1	0.35086587
169	0x3dd790f3	0.10525694
170	0x3d867372	0.06564988
171	0xbc8f72d0	-0.017510802
172	0x3e8f8a3e	0.28035158
173	0xbf0cbf83	-0.54979724
174	0x3e19fef9	0.1503867
175	0xbdedd812	-0.11613478
176	0x3d91cf09	0.07119567
177	0x3dfffa59	0.12498922
178	0x3e863cf1	0.2621837
179	0x3d4649bf	0.048410174
180	0xbdc128b1	-0.094315894
181	0xbd2ae316	-0.041720472
182	0x3ecbb82e	0.39788955
183	0x3e3e178c	0.1856367
184	0x3b581ad1	0.0032974968
185	0xbe8aaf39	-0.2708681
186	0x3c2e828b	0.010651241
187	0xbcfd0c93	-0.030889785
188	0xbdbb9813	-0.09159865
189	0xbe2a2f30	-0.16619563
190	0x3dd9eddd	0.10641072
191	0xbdb7d284	-0.089756995
192	0xbe93cf1c	-0.2886895
193	0x3e71f0c9	0.23627008
194	0x3df312cc	0.118688196
195	0x3ca89697	0.02057962
196	0x3debe8f0	0.11519039
197	0xbe88208f	-0.2658734
198	0xbdccba6a	-0.09996493
199	0xbe509fa0	-0.20373392
200	0x3bc696af	0.0060604434
201	0x3d1a0d24	0.037610188
202	0xbde09d45	-0.10967497
203	0x3edc4abe	0.43025774
204	0x3ea99fbb	0.33129677
205	0xbdd12911	-0.10212911
206	0x3dcd0e63	0.1001251
207	0x3de1225c	0.10992882
208	0xbdb0bfb6	-0.08630316
209	0x3ede010e	0.4336018
210	0xbc7e330c	-0.0155151
211	0x3de2125a	0.110386565
212	0x3c71f17e	0.014767049
213	0x3eb26123	0.34839734
214	0x3e8b555f	0.2721357
215	0x3df63ef2	0.120237246
216	0x3ee1d784	0.44109738
217	0xbe8d135d	-0.27553836
218	0xbe1bf641	-0.15230657
219	0x3dbd0f6a	0.092314556
220	0x3d1abfb8	0.037780493
221	0x3e00181c	0.12509197
222	0xbe308f77	-0.17242227
223	0x3db35d53	0.087580346
224	0xbe99e87d	-0.30060187
225	0xbec81460	-0.39078045
226	0x3dae4fa7	0.08511286
227	0xbd8f6bfd	-0.07003019
228	0x3c3e5782	0.011617543
229	0xbe8a3a2b	-0.26997504
230	0xbe5508e5	-0.20804174
231	0x3d98ab1e	0.07454513
232	0x3e4a9d4a	0.19786564
233	0x3ded04c5	0.11573175
234	0x3dc53c0f	0.09630596
235	0x3ea033f0	0.31289625
236	0xbe1e18b1	-0.15439107
237	0x3e9bf223	0.30458173
238	0x3d0a2d30	0.0337345
239	0x3d8c1e62	0.068417326
240	0x3e3aae24	0.18230492
241	0x3de4f1bb	0.11178919
242	0x3aa46703	0.0012542907
243	0x398c4516	0.00026754354
244	0x3e2be5f4	0.16786939
245	0x3ce5480b	0.027988454
246	0xbda53035	-0.080658354
247	0x3d968e93	0.073514126
248	0x3d96f679	0.0737123
249	0x3d66ac3f	0.05631661
250	0x3e8cc1bd	0.2749156
251	0xbdb4692e	-0.08809124
252	0xbdebd0ad	-0.11514411
253	0xbdb2a85b	-0.087235175
254	0xbede592c	-0.43427408
255	0xbe631ed7	-0.22179733

encoder_lstm.weight_hh_l0 f4 [128, 32]
0	0x3d8c6891	0.06855882
1	0x3e10f490	0.14155793
2	0xbe9f0acb	-0.31062922
3	0x3f062718	0.524034
4	0x3ea93458	0.33047748
5	0xbdefe146	-0.117128894
6	0xbd95869b	-0.073010646
7	0xbe42bdd2	-0.19017723
8	0x3c0ba963	0.008524272
9	0x3eda09d1	0.42585614
10	0x3e875a6b	0.2643617
11	0xbf04a761	-0.518179
12	0xbd07a2a4	-0.03311409
13	0xbe324322	-0.17408422
14	0xbe7f209d	-0.24914785
15	0x3e0eb050	0.13934445
16	0x3d88a9d4	0.06673017
17	0xbe8adbe7	-0.27120897
18	0x3e473a5a	0.19455853
19	0xbde674b5	-0.11252729
20	0x3f07a32d	0.5298336
21	0x3e8bd73f	0.27312657
22	0x3ee1e97e	0.44123453
23	0xbcd6394f	-0.026150374
24	0xbe6dbd63	-0.23216777
25	0xbf7c4497	-0.9854216
26	0xbcb63d5f	-0.02224606
27	0xbe614e2a	-0.22002473
28	0x3e5c931e	0.21540496
29	0x3f15cd68	0.5851655
30	0xbf03c3e0	-0.51470757
31	0xbf1eadca	-0.6198393
32	0xbda430a4	-0.0801709
33	0x3e333ce1	0.17503692
34	0xbf064c77	-0.52460426
35	0x3ed7e0f2	0.42163807
36	0x3e5af2f9	0.21381749
37	0xbca8ee34	-0.020621397
38	0x3c59fd11	0.013304965
39	0xbe6700d0	-0.22558904
40	0x3eaddd61	0.3395796
41	0xbc4304cb	-0.011902998
42	0x3dea5f6d	0.11443982
43	0xbd2204bf	-0.039555307
44	0x3cd0fbed	0.025510753
45	0x3f2b3ffb	0.668945
46	0x3e981999	0.2970703
47	0x3dc6b2f8	0.09702104
48	0xbbb8b7d8	-0.0056371503
49	0x3e7cfe60	0.24706411
50	0x3e867fd7	0.2626941
51	0xbe292cc3	-0.16520981
52	0xbcc13b55	-0.023587862
53	0xbc5c454d	-0.013444257
54	0xbdca259d	-0.098704554
55	0xbba3f9e2	-0.0050041536
56	0x3ddcfb27	0.10790091
57	0x3e314a2d	0.17313452
58	0x3be7f0f7	0.007078286
59	0x3da5670c	0.08076295
60	0x3e303521	0.17207767
61	0xbe55cdef	-0.20879339
62	0x3c0844c1	0.008317173
63	0xbd34c391	-0.04413182
64	0xbeb33881	-0.35004047
65	0x3e67631e	0.22596404
66	0xbde9b4fb	-0.114114724
67	0xbe949d6d	-0.29026356
68	0x3e135ca5	0.1439081
69	0x3dce8e24	0.10085705
70	0x3deeed85	0.11666397
71	0x3f016518	0.5054488
72	0x3e33d645	0.17562206
73	0xbcc70bc5	-0.024297604
74	0xbeb2d1dc	-0.34925735
75	0xbe339f23	-0.17541175
76	0x3ec89c0b	0.3918155
77	0x3e8b87e9	0.2725213
78	0xbea5709f	-0.32312486
79	0x3d9d2592	0.076731816
80	0xbe740d9a	-0.23833314
81	0x3ea17e0f	0.31541488
82	0xbf05211a	-0.52003634
83	0xbe3f2cb5	-0.18669398
84	0xbdf9c7bf	-0.12196302
85	0xbf008a62	-0.50211155
86	0xbe8a8b5b	-0.27059445
87	0xbea02447	-0.31277677
88	0x3eb46c87	0.3523905
89	0x3e2d5275	0.16925986
90	0xbf359a1b	-0.7093827
91	0x3cb181d0	0.021668345
92	0xbe4c86d5	-0.1997331
93	0xbde17214	-0.11008087
94	0xbefc7860	-0.4931059
95	0x3deebe8a	0.11657436
96	0xbefe18fa	-0.4962843
97	0xbf1c1e50	-0.60983753
98	0xbd66776c	-0.056266233
99	0x3f36b5f3	0.7137138
100	0xbe965d03	-0.29367837
101	0x3c73414c	0.014847111
102	0xbeb75322	-0.35805613
103	0x3f6ccd9e	0.92501247
104	0xbf319864	-0.69373155
105	0xbeaa9608	-0.3331759
106	0xbea67a43	-0.32515153
107	0xbdd4e503	-0.10395243
108	0x3effac25	0.49936023
109	0x3ec074e0	0.3758917
110	0xbeb9c49e	-0.3628282
111	0xbe7aace9	-0.24480022
112	0x3f184839	0.59485203
113	0xbe87192f	-0.263864
114	0xbeed5777	-0.46355793
115	0xbed17e05	-0.40916458
116	0xbe0161e3	-0.12634997
117	0xbf37c976	-0.7179178
118	0xbf164553	-0.5869953
119	0xbf22c4b8	-0.6358142
120	0x3f786790	0.97033024
121	0x3ee0a2f8	0.43874335
122	0xbf3c4f96	-0.7355894
123	0xbd8189f1	-0.06325138
124	0xbe5d0a36	-0.21585926
125	0x3f069e99	0.5258575
126	0x3f16c16b	0.5888888
127	0xbe071505	-0.13191612
128	0x3f097448	0.53693056
129	0xbe01f731	-0.12691952
130	0x3ec1dd10	0.3786397
131	0x3e85b418	0.26113963
132	0x3e2fa8f1	0.1715429
133	0xbeada9d8	-0.33918643
134	0xbe00920f	-0.12555717
135	0x3d07324f	0.033006962
136	0x3e9f5f6e	0.31127495
137	0xbec380ea	-0.3818429
138	0x3e63b019	0.22235145
139	0x3f1d7180	0.6150131
140	0xbd963f21	-0.0733626
141	0xbbffae01	-0.0078027253
142	0x3ef03f36	0.46923226
143	0xbf338207	-0.7012028
144	0x3e770428	0.24122679
145	0x397a72d5	0.00023884636
146	0x3eedac2d	0.46420422
147	0xbeff9b95	-0.49923387
148	0x3e996b53	0.29964694
149	0x3e86f4bc	0.26358593
150	0xbe6f1285	-0.23346908
151	0x3d889af8	0.06670183
152	0x3dfc5047	0.12319999
153	0x3ddb4269	0.10706026
154	0x3cb2217f	0.021744488
155	0xbdfd89b0	-0.123797774
156	0x3f074c8c	0.52851176
157	0xbcaff7d1	-0.021480473
158	0xba4749d8	-0.0007602251
159	0xbe2bca00	-0.16776276
160	0x3e71ee22	0.23625997
161	0x3e673e9c	0.22582477
162	0x3ec219ee	0.37910408
163	0xbeb0685e	-0.34454626
164	0x3e879b91	0.26485875
165	0xbe212a04	-0.15738684
166	0xbe7ab078	-0.2448138
167	0xbe82a60d	-0.25517312
168	0x3ebee2f7	0.37282535
169	0x3e7b9784	0.24569517
170	0x3f1a882e	0.60364044
171	0x3d3f0153	0.046632122
172	0x3de2fd41	0.110834606
173	0xbe78032e	-0.24219963
174	0x3eff9248	0.4991629
175	0xbe526289	-0.205454
176	0xbe2c5674	-0.16829854
177	0x3e5ba996	0.2145141
178	0x3d53c285	0.05169918
179	0x3eef7a32	0.46772915
180	0x3e7966f9	0.24355687
181	0x3eb7f86f	0.35931727
182	0x3f07a95c	0.52992797
183	0x3f1eb868	0.6200013
184	0xbe8c55b8	-0.27409148
185	0x3e24d2dc	0.16096061
186	0x3ee8090a	0.45319396
187	0xbe8ddaea	-0.2770608
188	0x3eb51cf6	0.35373658
189	0xbe1f8c42	-0.15580848
190	0xbe38bd7d	-0.18041034
191	0x3dd517fd	0.10404966
192	0x3e3af302	0.18256763
193	0xbec10b4a	-0.37703925
194	0x3f2887ce	0.6583222
195	0x3ead8bf5	0.3389584
196	0x3dc7e136	0.097597525
197	0x3e0a9a88	0.13535511
198	0x3f6fe85d	0.93713933
199	0x3d9651d7	0.073398285
200	0xbe59f013	-0.21282987
201	0x3e157f13	0.14599256
202	0xbd09c52a	-0.033635296
203	0xbf0a550f	-0.5403604
204	0x3e8d11b8	0.2755258
205	0x3e611679	0.21981229
206	0xbd07ada0	-0.033124566
207	0xbf2bf067	-0.671637
208	0xbd93dfd2	-0.07220425
209	0xbf27bf7e	-0.6552657
210	0xbd64487c	-0.05573319
211	0xbe8a2ee1	-0.2698889
212	0xbda6866f	-0.0813111
213	0x3ebad098	0.3648727
214	0x3eadc659	0.3394039
215	0xbe1bd8b2	-0.15219381
216	0x3e57bf71	0.21069123
217	0xbe13af3d	-0.14422317
218	0x3e2034df	0.15645169
219	0xbdc91550	-0.09818518
220	0xbe69858a	-0.22804847
221	0x3dd64de4	0.10464075
222	0xbd4efff1	-0.050537053
223	0x3e383124	0.17987496
224	0x3c80dc70	0.015730113
225	0x3dec5563	0.11539724
226	0xbdf6c882	-0.120499626
227	0xbdbe2312	-0.09284033
228	0x3e41c882	0.18924144
229	0xbeffd340	-0.49965858
230	0xbdc20201	-0.094730385
231	0x3edb7a73	0.4286686
232	0xbdf6cd33	-0.120508574
233	0xbed5aef4	-0.4173504
234	0x3e5e07fb	0.21682732
235	0xbde16067	-0.110047154
236	0xbe5b3c2b	-0.21409671
237	0x3e7b6c42	0.24553016
238	0x3e1f70ba	0.15570346
239	0x3ed724ec	0.42020357
240	0x3e9302f9	0.28713205
241	0x3e2edc71	0.17076279
242	0xbdd32cb1	-0.103112586
243	0x3e1f010e	0.15527746
244	0x3e807fd6	0.2509753
245	0xbd12200a	-0.035675086
246	0x3e9e2233	0.30885467
247	0x3e4ea6ce	0.20180818
248	0x3e9864d3	0.29764423
249	0xbd0ec40a	-0.034854926
250	0x3e0ec119	0.13940848
251	0xbeb33601	-0.3500214
252	0x3e94e830	0.29083395
253	0xbe607a7e	-0.21921727
254	0xbd5b5acf	-0.0535534
255	0xbea2c29f	-0.3178911

encoder_lstm.bias_ih_l0 f4 [128]
0	0xbe1a3321	-0.15058567
1	0x3e41c226	0.18921718
2	0xbd338e8a	-0.043837108
3	0xbd40e671	-0.047094766
4	0x3d9e5340	0.077307224
5	0x3f19ad47	0.60030025
6	0x3bad0487	0.0052800807
7	0x3e8d4a18	0.27595592
8	0xbeb2fd19	-0.34958723
9	0x3e74ef3f	0.2391939
10	0x3d395d8c	0.04525523
11	0x3ab9b70b	0.0014168931
12	0x3cc48d97	0.023993297
13	0xbd16b359	-0.036792133
14	0xbe8d9f31	-0.27660516
15	0xbd0d541d	-0.034504045
16	0xbdcbd3a2	-0.09952475
17	0x3e138360	0.14405584
18	0x3d96218e	0.07330619
19	0xbc85bd5a	-0.016325641
20	0x3d07c680	0.03314829
21	0x3e60fb82	0.21970943
22	0x3e61b359	0.22041072
23	0x3e9b7d3e	0.3036899
24	0x3f04f052	0.519292
25	0xbdf5f796	-0.12010114
26	0xbe3fc373	-0.18726902
27	0xbd5b71c8	-0.053575307
28	0xbe1be749	-0.15224947
29	0x3d0b1147	0.033952024
30	0xbd524a52	-0.05134041
31	0xbd602f9c	-0.054732904
32	0x3f107c37	0.56439537
33	0x3e3a9a68	0.18222964
34	0xbe29e54b	-0.16591375
35	0x3e885fa5	0.2663547
36	0x3e83623e	0.2566089
37	0x3e30ab67	0.17252885
38	0x3cfc9728	0.030833796
39	0x3e00daa5	0.12583406
40	0x3e1fb768	0.15597308
41	0xbd94bdad	-0.0726274
42	0x3ed1d549	0.40983036
43	0xbe5adcef	-0.21373342
44	0x3e1eec78	0.15519893
45	0xbe4e12b6	-0.20124325
46	0xbd3f26ba	-0.046667792
47	0xbe681442	-0.22663978
48	0x3c0efcb0	0.008727238
49	0xbe775ecb	-0.24157254
50	0x3ecdf2b7	0.4022424
51	0x3baab060	0.005209014
52	0xbd87d0b7	-0.06631606
53	0xbd917bfb	-0.071037255
54	0x3c9e0bed	0.019292796
55	0x3d6c2181	0.05764914
56	0xbbd63088	-0.006536547
57	0xbe91e3f5	-0.2849423
58	0x3bac7d5d	0.005263968
59	0xbe98fdb7	-0.2988107
60	0xbddad193	-0.10684504
61	0x3e7d05dc	0.24709266
62	0x3d48e617	0.049047556
63	0x3efac2f2	0.48976856
64	0xbe4a10a0	-0.19732904
65	0x3ea81d00	0.32834625
66	0xbe83a7ed	-0.25714055
67	0x3dd91ada	0.10600825
68	0x3d8181f2	0.06323613
69	0xbefe44b5	-0.49661794
70	0xbdeffe5f	-0.11718439
71	0xbefb9aa0	-0.49141407
72	0x3e532690	0.20620179
73	0x3e106bbf	0.14103602
74	0xbdaa1ad0	-0.08305895
75	0xbcda14b0	-0.026621193
76	0xbf26a7be	-0.65099704
77	0xbef80d86	-0.48447818
78	0xbdacb1fc	-0.08432385
79	0x3b845a5a	0.004039091
80	0x3da5215f	0.08063006
81	0x3d7d603b	0.06185935
82	0x3e0d8eea	0.13824049
83	0xbe381638	-0.17977226
84	0xbd68bc5d	-0.056820262
85	0x3e399eb7	0.18126951
86	0x3d2a10c3	0.04151989
87	0x3e29434a	0.16529575
88	0xbe1054ef	-0.140949
89	0x3e8fc968	0.28083348
90	0x3e37ce9c	0.17949909
91	0xbe83c615	-0.25737062
92	0x3e84f493	0.25967845
93	0xbe2685aa	-0.16261926
94	0xbd92a896	-0.071610615
95	0xbe978b3b	-0.29598412
96	0x3e15c009	0.14624037
97	0xbdb12bc7	-0.08650928
98	0xbefec7b7	-0.49761745
99	0x3d977cd3	0.07396855
100	0x3e28140f	0.16413902
101	0x3e6e90b6	0.2329739
102	0x3e3b88f7	0.18313967
103	0x3f3bb21b	0.7331864
104	0xbddb74e3	-0.10715654
105	0x3bbed176	0.0058233095
106	0x3ebf6341	0.37380412
107	0xbe8ed67f	-0.27898023
108	0xbd77725a	-0.06041179
109	0xbd6fc0ad	-0.05853336
110	0xbc09e6c0	-0.0084168315
111	0xbe421116	-0.1895183
112	0xbca26408	-0.01982309
113	0x3d55c2f8	0.05218789
114	0x3ea27f5c	0.31737792
115	0xbe1e6120	-0.15466738
116	0xbe0ce673	-0.13759784
117	0xbdb9402a	-0.090454414
118	0xbdd687d5	-0.10475127
119	0x3eb1ce87	0.3472788
120	0xbdcfbf31	-0.10143889
121	0xbdfb3c96	-0.12267415
122	0xbe2ee8e3	-0.17081027
123	0x3e56c2a4	0.20972687
124	0x3f4a28ba	0.78968394
125	0x3de9ea01	0.11421586
126	0xbe85229a	-0.2600296
127	0x3e43a91a	0.19107476

encoder_lstm.bias_hh_l0 f4 [128]
0	0x3dbc0792	0.091811314
1	0x3ca248f4	0.019810177
2	0xbe03fe48	-0.1288997
3	0xbd8e1778	-0.0693807
4	0x3e0050af	0.12530778
5	0x3ea6e963	0.32599935
6	0x3e7e7a6f	0.24851392
7	0x3e13bba5	0.1442705
8	0xbdaebdce	-0.08532296
9	0x3e2b4b8e	0.1672804
10	0xbd00c730	-0.03143996
11	0xbe448b90	-0.19193864
12	0xbd573612	-0.0525418
13	0x3e066118	0.13122976
14	0xbebbfd46	-0.3671667
15	0xbc06ebcd	-0.00823493
16	0xbe6e4a8c	-0.23270625
17	0x3dde6b68	0.1086033
18	0x3c9b864a	0.018984932
19	0xbdd04216	-0.10168855
20	0xbdc2f69a	-0.09519692
21	0x3e41f6a7	0.18941747
22	0x3e640195	0.22266228
23	0x3e503f1e	0.20336577
24	0x3ede6504	0.43436444
25	0x3e0e29b0	0.1388309
26	0xbebc72cd	-0.36806336
27	0xbd29fdbd	-0.04150175
28	0x3bdcaf54	0.006734768
29	0xbe420f73	-0.18951206
30	0xbe92c1e1	-0.28663543
31	0x3e566e11	0.20940425
32	0x3eeaeb96	0.45882863
33	0x3ea839d0	0.32856607
34	0xbe448a42	-0.19193366
35	0x3e0db4fe	0.13838574
36	0x3da8c4df	0.08240675
37	0x3e0e5b15	0.13901933
38	0xbdce7648	-0.10081154
39	0x3dbf8c74	0.09352961
40	0x3eae4e08	0.34043908
41	0x3db5f5a4	0.08884743
42	0x3ed45ed4	0.41478598
43	0xbe76c53a	-0.24098673
44	0x3e8c8f1b	0.2745293
45	0xbe38ea33	-0.1805809
46	0x3e83b8af	0.2572684
47	0xbe86cf7e	-0.2633018
48	0xbe5b6683	-0.21425824
49	0xbf02b68c	-0.51059794
50	0x3ecb2fb6	0.39684838
51	0xbe07aa41	-0.1324854
52	0xbe4c2f42	-0.19939902
53	0x3cdf0cf6	0.02722786
54	0xbcdf0586	-0.027224313
55	0x3d5ddfab	0.054168385
56	0x3db3153b	0.08744284
57	0xbec51ff1	-0.38500932
58	0xbe165c2f	-0.14683603
59	0xbf017e62	-0.5058347
60	0x3e57b2e4	0.21064335
61	0x3eb2075d	0.34771243
62	0x3e7877b1	0.24264409
63	0x3eb18186	0.3466913
64	0x3cb57930	0.022152513
65	0x3e2f5549	0.17122377
66	0xbd49905d	-0.04920994
67	0xbe29295e	-0.16519687
68	0xbe35127f	-0.17682837
69	0xbed2ddc4	-0.4118482
70	0xbdeb2255	-0.11481158
71	0xbeda3d74	-0.4262501
72	0x3eee3a1a	0.46528703
73	0x3d2f6f28	0.042830616
74	0x3d39efa8	0.04539457
75	0x3d2ededf	0.042693015
76	0xbf225342	-0.6340829
77	0xbe8545d8	-0.2602985
78	0xbb0231e5	-0.0019866165
79	0x3d8d3efb	0.06896778
80	0x3df05bf6	0.1173629
81	0xbe2a1b03	-0.16611867
82	0x3e5096d0	0.2037003
83	0xbec77170	-0.38953733
84	0x3ce273d8	0.02764313
85	0xbca23ee1	-0.019805374
86	0xbd04de5d	-0.032438625
87	0x3ed01c70	0.40646696
88	0xbe5c2ed5	-0.2150224
89	0x3dee0886	0.116227195
90	0x3df8f452	0.121559754
91	0xbe4f39a0	-0.20236826
92	0x3e802ce6	0.25034255
93	0xbed5799d	-0.41694346
94	0xbecac542	-0.3960362
95	0xbdd5f095	-0.10446278
96	0x3e07d733	0.13265686
97	0x3df243a4	0.11829308
98	0xbea37a86	-0.31929415
99	0x3e8ac177	0.27100727
100	0x3e0c53f3	0.13703899
101	0x3ec4c143	0.38428697
102	0x3e8619a1	0.26191428
103	0x3f2115a7	0.62923664
104	0xbe7b2bd8	-0.24528444
105	0xbe187ba1	-0.1489091
106	0x3e2a9598	0.16658628
107	0xbdb6205f	-0.08892893
108	0x3e7fb0cf	0.24969791
109	0xbda80581	-0.08204175
110	0x3da85e7f	0.08221149
111	0xbdb00b14	-0.08595863
112	0xbe986c82	-0.29770285
113	0x3e835705	0.25652328
114	0x3e83c625	0.2573711
115	0x3cdb3156	0.026756924
116	0xbd6e1846	-0.058128618
117	0xbce744b9	-0.028231012
118	0x3c10c427	0.008835829
119	0x3e450d72	0.1924341
120	0x3be40b0d	0.006959325
121	0xbdbec297	-0.09314459
122	0xbd40db2c	-0.04708402
123	0x3ea9c6da	0.33159524
124	0x3f41e557	0.7574057
125	0x3dcdaa94	0.10042301
126	0xbe02a9bb	-0.1276006
127	0x3e4cfc15	0.20018037

encoder_lstm.weight_ih_l1 f4 [128, 32]
0	0x3e21941f	0.1577916
1	0xbe05b51c	-0.13057369
2	0x3e74fa72	0.23923662
3	0xbe7a5b76	-0.24448952
4	0x3e49058c	0.19631022
5	0x3e223ad3	0.15842752
6	0xbe8af238	-0.27137923
7	0x3eab429a	0.3344925
8	0xbd0e3c2b	-0.03472535
9	0x3c988c69	0.01862164
10	0x3dd500c5	0.104005374
11	0x3c8be52a	0.017077047
12	0xbd051f5a	-0.032500602
13	0xbef1fdc3	-0.47263917
14	0x3d2a21bd	0.04153608
15	0xbd8fa7dd	-0.07014439
16	0xbd4f64ea	-0.05063335
17	0xbe676894	-0.22598487
18	0xbeba751b	-0.3641747
19	0x3b499ece	0.003076482
20	0x3e54eb16	0.20792803
21	0x3e6e365c	0.23262924
22	0x3ccd27e2	0.025043432
23	0x3b8794e3	0.0041376217
24	0x3edea99e	0.43488783
25	0x3d2dae2f	0.042402443
26	0x3ef516c6	0.47868937
27	0xbed867d8	-0.42266726
28	0x3ea05322	0.31313425
29	0xbe3818d2	-0.17978218
30	0x3bc8f5dc	0.0061328243
31	0xbc1160ad	-0.008873147
32	0x3e73f8c4	0.23825365
33	0xbdd440e1	-0.10363937
34	0x3e10d468	0.14143527
35	0xbd1b6e9c	-0.037947282
36	0x3f25cf41	0.6476937
37	0xbe9e92aa	-0.3097127
38	0xbf03c39c	-0.5147035
39	0x3e63d5cc	0.22249526
40	0xbe159a39	-0.14609613
41	0xbe0064af	-0.12538408
42	0x3e22f750	0.15914655
43	0x3e040c16	0.12895235
44	0x3e03e939	0.12881936
45	0x3c03a0c8	0.008033939
46	0xbdd5ed56	-0.10445659
47	0xbbe34eef	-0.0069369
48	0xbe0b8132	-0.13623503
49	0xbebb18a2	-0.3654223
50	0x3e0e0108	0.13867581
51	0xbe8db885	-0.2767984
52	0x3e5e048b	0.2168142
53	0xbe790099	-0.24316634
54	0xbc16e92d	-0.009210867
55	0x3dbd5d06	0.092462584
56	0x3edbdb80	0.42940903
57	0xbeca152e	-0.39469284
58	0xbe2e461e	-0.17018935
59	0xbd9aba9d	-0.07555125
60	0x3e84b224	0.2591716
61	0xbd6e3d62	-0.058164008
62	0xbf11747c	-0.56818366
63	0x3e092f48	0.13396943
64	0xbdc934ef	-0.098245494
65	0x3e607593	0.21919851
66	0x3c5046ea	0.01271222
67	0x3f0c63d6	0.5483984
68	0x3e429afb	0.19004433
69	0x3f31d1c6	0.69460714
70	0x3e9e4e6d	0.3091921
71	0x3eed8eef	0.46398112
72	0x3d8da028	0.06915313
73	0x3d2e9d73	0.042630624
74	0xbd733d2f	-0.05938452
75	0xbd01bd7a	-0.03167484
76	0x3dbfd835	0.0936741
77	0xbe3fc561	-0.18727638
78	0x3e8d0af8	0.2754743
79	0xbdd1066a	-0.102063015
80	0x3da94b7a	0.08266349
81	0x3def457d	0.11683176
82	0x3bfa11c0	0.0076315105
83	0x3e92085d	0.28522006
84	0x3e380572	0.17970827
85	0xbe8f1a5c	-0.27949798
86	0xbe0ffbd8	-0.14060915
87	0xbe83e8a5	-0.2576343
88	0xbe5392a1	-0.20661403
89	0xbd2bea90	-0.041971743
90	0xbe6cbeae	-0.23119614
91	0x3e7ea1d9	0.24866427
92	0xbcf00645	-0.029299865
93	0xbf22af2c	-0.6354854
94	0xbd429035	-0.047500808
95	0x3e2e3a4e	0.17014429
96	0x3cd601ea	0.02612396
97	0x3ed22ea3	0.41051206
98	0xbe7d4d39	-0.2473649
99	0xbde4b7de	-0.111678824
100	0x3f0cbc89	0.5497518
101	0xbe4fb80d	-0.20285054
102	0xbe9e9b00	-0.3097763
103	0xbd60dcc2	-0.05489803
104	0xbe58acf5	-0.21159728
105	0xbd26e977	-0.040749993
106	0x3ea06f6c	0.31335008
107	0xbdd892a7	-0.10574847
108	0x3f3f52af	0.7473554
109	0xbd9edd62	-0.07757069
110	0x3e85105d	0.25989047
111	0x3c518446	0.012787884
112	0xbe900ac4	-0.28133214
113	0xbd3effc9	-0.046630654
114	0x3e4d89a2	0.20072034
115	0xbea0a3d9	-0.31375006
116	0x3e236e9d	0.15960164
117	0xbe2ede03	-0.17076878
118	0x3dd70929	0.10499794
119	0x3e644ea5	0.22295626
120	0x3dfc26eb	0.123121105
121	0x3d7088e1	0.058724288
122	0xbe6b1818	-0.2295841
123	0x3e5db845	0.21652324
124	0x3ee4c5c9	0.44682148
125	0xbe8f815f	-0.2802839
126	0x3de60ee5	0.1123331
127	0x3e599110	0.21246743
128	0x3ca51e99	0.020156192
129	0x3e9fff59	0.31249502
130	0xbe8e78d1	-0.2782655
131	0xbd3234f4	-0.04350753
132	0x3e29ac9b	0.1656975
133	0xbe404f94	-0.18780357
134	0xbe301dee	-0.17198917
135	0xbe9fa33f	-0.31179234
136	0xbf56b005	-0.83862334
137	0xbe13ff3a	-0.1445283
138	0x3e94f5cb	0.29093775
139	0xbe3d4b13	-0.1848567
140	0xbe0b5f84	-0.13610655
141	0x3c812ac7	0.015767468
142	0x3e39336f	0.18086027
143	0x3e1335e3	0.14376025
144	0xbe279368	-0.16364825
145	0x3df96165	0.1217678
146	0x3e14bf1b	0.14526026
147	0x3cd7c00b	0.02633669
148	0xbe69218a	-0.227667
149	0xbe98e556	-0.2986247
150	0xbe209306	-0.15681085
151	0x3e05e3b8	0.13075149
152	0xbd96b3c6	-0.07358508
153	0x3e7c3451	0.24629332
154	0xbde204e6	-0.110360906
155	0x3df98ece	0.12185441
156	0x3e4f467e	0.20241734
157	0xbf0aa505	-0.5415805
158	0x3d21d9ca	0.03951434
159	0x3eb188cc	0.3467468
160	0xbe0f5603	-0.13997655
161	0x3e655776	0.22396645
162	0xbe87421e	-0.2641763
163	0x3d63909d	0.055557836
164	0xbd858b2d	-0.06520686
165	0xbd92e7a1	-0.07173086
166	0x3e098c68	0.13432467
167	0xbcf6066b	-0.030032357
168	0xbe069b4f	-0.13145183
169	0xbe31c1f8	-0.1735915
170	0xbd317ac7	-0.04332998
171	0xbe26f246	-0.16303357
172	0x3aebddf4	0.0017995224
173	0xbd490176	-0.04907366
174	0xbe029bec	-0.12754792
175	0x3e7ced1e	0.24699828
176	0xbda2ee01	-0.07955552
177	0x3ed07150	0.4071145
178	0x3f07292d	0.52797204
179	0x3ed192c6	0.40932292
180	0xbdd41662	-0.10355832
181	0xbe6dca25	-0.23221643
182	0xbc65ae30	-0.01401858
183	0x3ccb2d38	0.024801835
184	0xbe894001	-0.26806644
185	0x3e50757e	0.2035732
186	0x3d793329	0.060839806
187	0x3e9d25bf	0.3069286
188	0xbe2cb330	-0.1686523
189	0x3d71277d	0.05887555
190	0x3dbc5170	0.091952205
191	0x3d4e891f	0.050423738
192	0x3d178624	0.03699316
193	0x3e3b804c	0.1831066
194	0xbe64e192	-0.22351673
195	0x3f110c9b	0.5665986
196	0xbec283a9	-0.37991074
197	0x3ec76f1a	0.3895195
198	0xbe2eaa2a	-0.170571
199	0x3e1187b5	0.14211924
200	0x3df0cf50	0.11758292
201	0x3dc638e7	0.09678822
202	0x3e709c02	0.23497012
203	0x3dd2b754	0.10288873
204	0x3dda4ed4	0.106595665
205	0x3da01b33	0.07817688
206	0x3dd29393	0.10282054
207	0xbe30e72c	-0.17275685
208	0x3e57809e	0.21045157
209	0xbe85d9f9	-0.26142862
210	0xbe71d82d	-0.23617621
211	0x3e5328bf	0.20621012
212	0x3e0794d6	0.1324037
213	0x3d634688	0.055487186
214	0xbcd31670	-0.025767535
215	0x3e6a4382	0.22877315
216	0x3dc7eb52	0.09761681
217	0xbd26fb45	-0.040766973
218	0x3e25d6dc	0.16195244
219	0xbe866455	-0.26248422
220	0xbe6f0431	-0.23341443
221	0x3e8d8e7a	0.27647763
222	0x3e7313a1	0.23737957
223	0xbf092e33	-0.5358612
224	0xbe109e06	-0.14122781
225	0x3e919250	0.2843194
226	0xbe7a36e7	-0.24435006
227	0x3e0b1361	0.13581611
228	0x3e535dc8	0.20641243
229	0x3e758f48	0.23980439
230	0x3e816fd3	0.25280628
231	0x3e831d1e	0.25608152
232	0xbef26fd1	-0.47350934
233	0xbe90476a	-0.28179485
234	0xbda76531	-0.081735976
235	0x3d99b716	0.07505624
236	0x3d631d9d	0.055448163
237	0x3d67d53b	0.056599837
238	0xbdf1bc56	-0.118035
239	0xbe1d28c0	-0.15347576
240	0x3e8e6bd6	0.27816647
241	0xbe328c48	-0.17436326
242	0xbe3fc86a	-0.18728796
243	0x3c9a2a21	0.018818917
244	0x3d4b09aa	0.049569763
245	0x3d269e48	0.040678293
246	0xbb4784e9	-0.003044421
247	0xbe95b58f	-0.2924008
248	0x3ea16a04	0.31526196
249	0x3d99bc60	0.07506633
250	0xbe64847e	-0.22316167
251	0xbc772303	-0.015084031
252	0x3e47fa3c	0.1952905
253	0x3da19501	0.07889748
254	0x3e5502de	0.20801875
255	0x3df0c390	0.117560506

encoder_lstm.weight_hh_l1 f4 [128, 32]
0	0xbd6bd347	-0.057574537
1	0xbe3a2978	-0.18179882
2	0xbe750d5f	-0.23930882
3	0xbce81430	-0.028329939
4	0xbe950a13	-0.2910925
5	0x3db058d0	0.0861069
6	0x3e3e659d	0.1859345
7	0xbe4d4276	-0.20044884
8	0xbc44703b	-0.011989648
9	0x3cc68399	0.024232673
10	0x3e68dffd	0.22741695
11	0x3e2da7e6	0.1695858
12	0xbddf0e17	-0.10891359
13	0xbdf70b18	-0.12062663
14	0x3e8c3104	0.27381146
15	0xbe24f9a9	-0.16110863
16	0xbec4059b	-0.38285527
17	0x3e97e9bb	0.2967051
18	0xbe5e3289	-0.21698965
19	0x3e4cc225	0.19995935
20	0x3d44d5e3	0.04805554
21	0xbe5dcda8	-0.21660483
22	0xb9c8edc1	-0.00038324113
23	0x3e611a40	0.2198267
24	0x3da14e48	0.07876259
25	0xbe7ce1d2	-0.24695519
26	0x3e081890	0.1329062
27	0x3e93a25f	0.28834817
28	0xbe5ceb5b	-0.21574156
29	0x3e863f18	0.26220012
30	0x3dd77a78	0.10521406
31	0xbeb97cb6	-0.3622796
32	0x3e11f1e5	0.14252432
33	0xbe37d61e	-0.17952773
34	0x3e9a9acb	0.30196223
35	0xbd73f9d7	-0.059564438
36	0xbe48e5c9	-0.19618906
37	0x3e798b66	0.24369583
38	0xbe156a55	-0.14591344
39	0xbe30b1d8	-0.17255342
40	0x3e73d194	0.23810416
41	0xbe891a1d	-0.26777735
42	0xbe12d327	-0.1433836
43	0x3e0a4c18	0.1350559
44	0xbd6c842a	-0.05774323
45	0xbb54722e	-0.003241669
46	0x3dfbbb71	0.12291611
47	0xbe09ed15	-0.13469346
48	0x3e5d027f	0.21582983
49	0x3e48d12d	0.19611044
50	0xbe48573f	-0.19564532
51	0x3e6a564d	0.22884484
52	0x3d819ae0	0.06328368
53	0x3dba23fc	0.09088895
54	0x3d7a5722	0.061118253
55	0x3e09288e	0.13394377
56	0xbe691b24	-0.2276426
57	0x3e6a46c2	0.22878554
58	0x3de33c7c	0.11095521
59	0x3e3aeaf0	0.18253684
60	0xbd1fb5a0	-0.03899157
61	0xbbf93044	-0.0076046307
62	0x3dceae4d	0.10091839
63	0x3df804bb	0.12110277
64	0xbe2bab03	-0.16764455
65	0x3c26c8bf	0.010179698
66	0xbeb1d8f0	-0.34735823
67	0xbe1a50c3	-0.1506987
68	0xbe9e720f	-0.30946395
69	0x3e215b8b	0.15757577
70	0xbdd7a02e	-0.10528599
71	0xbd07ee10	-0.03318602
72	0x3e979228	0.29603696
73	0x3e311b3a	0.17295542
74	0x3dd7200c	0.10504159
75	0xbe7991fc	-0.24372095
76	0x3d4214ee	0.04738324
77	0x3e083205	0.13300331
78	0xbdaecc72	-0.085350886
79	0x3ecd7b08	0.40132928
80	0x3ed4b923	0.41547498
81	0xbe1ca80e	-0.15298483
82	0x3e4e0ecb	0.2012283
83	0xbd9bbe4a	-0.07604654
84	0x3e0731eb	0.13202636
85	0xbe230104	-0.15918356
86	0x3daefea4	0.085446626
87	0x3d03490e	0.032052092
88	0xbd5737b7	-0.05254337
89	0x3e1dc475	0.15406974
90	0x3e52e778	0.20596111
91	0x3d09d447	0.03364971
92	0x3de9dd4d	0.11419163
93	0xbca09c88	-0.01960589
94	0xbcf477d7	-0.0298423
95	0xbd6b79d1	-0.05748922
96	0xbdc1a2a7	-0.094548516
97	0x3e298cd8	0.16557634
98	0x3dbf9013	0.09353652
99	0xbe8e1c03	-0.27755746
100	0x3e8c8f07	0.2745287
101	0xbed60bdb	-0.4180592
102	0xbe0b8de4	-0.13628346
103	0xbe323895	-0.17404397
104	0x3e91d8bb	0.28485665
105	0xbe30cbda	-0.17265263
106	0x3d6e4652	0.05817253
107	0xbdaade92	-0.08343233
108	0x3dafe26c	0.085881084
109	0x3e3593d0	0.17732167
110	0x3e35644b	0.1771404
111	0xbe584eca	-0.21123806
112	0x3dd5f9e5	0.10448054
113	0x3de3f32c	0.11130366
114	0xbd1049d4	-0.035226658
115	0xbe9d535a	-0.30727655
116	0x3e248307	0.16065608
117	0x3e86367e	0.2621345
118	0xbd8fdae1	-0.0702417
119	0x3dad525d	0.08462975
120	0x3e493737	0.19649969
121	0x3e38d02b	0.1804816
122	0x3d000bff	0.03126144
123	0xbe24aa8b	-0.16080682
124	0xbdf25783	-0.11833098
125	0xbe8b0090	-0.27148867
126	0xbdfd3805	-0.123642005
127	0x3e928d07	0.2862322
128	0xbe5a339f	-0.21308754
129	0xbecdb25c	-0.4017514
130	0xbe6fe0ad	-0.23425551
131	0x3dfef111	0.124483235
132	0xbcebec92	-0.028799329
133	0xbe34e85f	-0.17666768
134	0xbb18fe07	-0.0023344771
135	0xbe0aa917	-0.13541065
136	0x3df8b2fe	0.12143515
137	0xbdc29a99	-0.095021434
138	0xbe2834eb	-0.16426437
139	0xbe8080b4	-0.25098193
140	0xbdda0ef6	-0.10647385
141	0x3ec8a098	0.39185023
142	0xbc4e5ed1	-0.012595848
143	0x3db8a106	0.09015088
144	0x3f244ccd	0.6417969
145	0x3da87ac8	0.08226544
146	0x3d88ae6a	0.06673892
147	0xbe85744e	-0.26065296
148	0xbaa2ebc2	-0.001242988
149	0xbe143844	-0.14474589
150	0xbe58b259	-0.21161784
151	0xbaf9bcea	-0.0019053493
152	0xbe0648ef	-0.1311376
153	0x3e1b0cf2	0.15141657
154	0xbd7d43cb	-0.06183223
155	0xbd160228	-0.03662315
156	0x3cbcc38f	0.023042468
157	0xbd962461	-0.073311575
158	0x3d94d761	0.07267643
159	0x3e31d605	0.17366798
160	0xbda471e4	-0.080295354
161	0xbe1727df	-0.14761303
162	0xbe8e77de	-0.27825826
163	0xbe1cf1d6	-0.15326628
164	0x3cdf3bb8	0.027250156
165	0xbdd3d077	-0.10342496
166	0xbea57246	-0.32313746
167	0x3ed3ac6b	0.41342482
168	0x3e916b83	0.28402337
169	0x3e91f1c4	0.28504765
170	0x3d898659	0.06715078
171	0xbdd176f0	-0.10227764
172	0x3e1bd795	0.15218957
173	0x3d4d3700	0.05010128
174	0x3b9ba90a	0.0047503756
175	0x3d25d1e5	0.040483374
176	0x3e874e6a	0.26427013
177	0xbe9ffa32	-0.3124557
178	0xbcbe1645	-0.023203978
179	0xbe0d5049	-0.13800158
180	0xbdd57803	-0.10423281
181	0x3d643eec	0.05572407
182	0xbdd9639c	-0.10614702
183	0xbdd56845	-0.104202785
184	0x3e5b1937	0.21396337
185	0x3e793ca9	0.24339546
186	0x3e34a8b0	0.17642474
187	0xbe5ecca6	-0.21757755
188	0xbd35f625	-0.044424195
189	0xbc81dbf3	-0.01585195
190	0xbea6ccbc	-0.32578075
191	0x3bfe4e36	0.0077607883
192	0x3ea36ff3	0.31921348
193	0xbdf007bc	-0.11720225
194	0xbde9fa39	-0.11424679
195	0xbe79e973	-0.2440546
196	0xbeabac48	-0.33529878
197	0x3e98f89c	0.29877174
198	0x3e31adc0	0.17351437
199	0x3dbf60fb	0.093446694
200	0xbe8dbf32	-0.27684933
201	0xbdc38f3d	-0.09548805
202	0x3e77c923	0.24197821
203	0x3dcda43f	0.10041093
204	0x3ea2f206	0.31825274
205	0xbe38cc94	-0.1804679
206	0xbd2c8bdd	-0.04212557
207	0xbdf1b58f	-0.11802208
208	0xbe558f0f	-0.20855354
209	0xbe1716dc	-0.14754814
210	0xbd86d35e	-0.06583284
211	0x3db4f899	0.08836479
212	0x3def39e3	0.11680963
213	0x3ea609cf	0.32429358
214	0x3e4c5952	0.19955948
215	0xbd6c003a	-0.057617404
216	0xbe0d982e	-0.13827583
217	0x3d42ad27	0.047528412
218	0xbed72fbc	-0.42028606
219	0x3e50b1d5	0.20380338
220	0x3edef781	0.43548205
221	0xbe696049	-0.22790636
222	0x3ea4f721	0.32219794
223	0x3cf6ee3c	0.030142896
224	0xbe8469b9	-0.2586191
225	0xbe0420ad	-0.1290309
226	0xbe4b4adb	-0.19852774
227	0x3e15a428	0.14613402
228	0xbe8c4478	-0.27395988
229	0x3ea8f85e	0.3300199
230	0xbde338f1	-0.11094845
231	0xbd591b9d	-0.05300485
232	0xbe00eab5	-0.12589534
233	0xbe12b311	-0.14326121
234	0xbcd2f4d7	-0.025751514
235	0xbe20af5f	-0.15691899
236	0x3e0c7be7	0.1371914
237	0xbe89d623	-0.26921186
238	0xbe4b1ca1	-0.1983514
239	0x3e7ae437	0.2450112
240	0x3d6d6b09	0.057963405
241	0xbc1277b6	-0.008939674
242	0x3dd2f774	0.10301104
243	0x3e3be72f	0.18349908
244	0x3c586417	0.013207457
245	0xbdb533f7	-0.08847802
246	0x3dd0a626	0.1018794
247	0xbd938a4d	-0.07204113
248	0x3e42473d	0.18972488
249	0xbdd6bbeb	-0.10485061
250	0xbdb70c98	-0.08937949
251	0xbde6b01b	-0.11264058
252	0xbe75076c	-0.23928612
253	0x3e3848de	0.17996547
254	0x3e81d851	0.2536035
255	0xbe9c4b23	-0.30526075
