W3-Design/checkpoints/epoch_26.pt (torch, 384725 bytes, 24 tensors)

encoder_cnn.0.weight f4 [32, 3, 3]
-0.22157434 -0.06484389 -0.24065574 0.25083306 -0.23630343 0.16968262 0.18483222 0.22795157
0.14897625 0.18197183 0.17269596 0.048294347 -0.29150724 -0.30762902 0.02951949 -0.28824547
0.13962734 -0.14995556 0.02235874 0.12677084 0.29137823 -0.10445647 0.10331142 -0.47586876
-0.39913395 -0.06316708 -0.24705891 0.031242946 0.12022555 -0.18054342 0.027320294 0.028589658
0.03927665 0.17771634 0.27147272 0.050015733 -0.07890959 0.08105394 -0.08936183 0.57908434
-0.045256637 0.5740914 0.14264719 0.13805321 -0.29829386 0.01525521 -0.15741928 0.32320586
-0.3705935 -0.32862458 0.04155416 0.107570745 0.16762467 -0.31248078 0.041515924 -0.080990106
0.31351292 0.24426067 0.09387328 -0.20527229 -0.13322477 0.11975008 -0.37810355 0.21373671
-0.10321667 0.19822843 0.286488 -0.2917835 -0.49294245 -0.050369147 -0.060601853 0.35248002
0.08051214 0.21245146 -0.061475806 -0.09950772 -0.28472748 0.27736795 -0.3047917 0.2476267
-0.11679143 0.1542894 0.33587587 0.066011585 0.10590894 -0.27892086 -0.45425823 0.014761422
-0.030029392 -0.094129 0.037419714 0.016884793 0.047929917 0.4344129 -0.15215819 -0.17977169
-0.17159964 0.23367748 0.0028325657 -0.10130316 0.02149603 0.22999558 0.096951574 0.38890174
0.090124235 -0.1464977 -0.19747366 -0.03001865 -0.10456581 0.26655352 0.10580023 -0.07545346
-0.32902515 -0.45751825 0.3486655 -0.04470123 -0.23356362 0.18331237 -0.034124427 0.092123434
0.0867808 -0.0068968073 -0.05300683 -0.059046075 0.07978596 -0.012181207 -0.17050385 -0.18415222
-0.116312064 0.31611884 -0.052102268 -0.21129371 0.21197747 0.2438836 -0.08284601 0.26857007
0.15125462 -0.19118321 -0.4252702 0.04520358 -0.2464073 -0.40398768 -0.04755979 -0.16027452
0.12220602 -0.21367858 -0.32865214 0.14660634 -0.044174615 -0.13313618 0.22127874 -0.11885902
0.15868093 -0.049379773 0.17619076 0.009047195 0.1613442 -0.44868124 0.17803623 -0.11878783
-0.35681581 -0.17624976 0.19068775 0.05221543 -0.38033718 -0.20639117 -0.508897 -0.2585206
0.09211047 -0.2824806 -0.17858024 -0.11862573 0.17815636 0.07778016 -0.023002816 -0.13672923
0.05905169 -0.05420109 0.26518926 0.2008054 -0.21103185 -0.18133183 -0.17191842 -0.18316607
0.23170574 0.032690093 0.24899267 0.21517055 -0.15911396 0.19845845 -0.23126471 -0.095383
-0.18784283 0.22201517 0.08371807 -0.12015699 -0.409486 -0.30879748 0.08459265 -0.33398467
0.075666934 0.10158154 0.17914398 -0.11377091 -0.054982886 -0.15307486 -0.3083648 0.15243538
-0.26699612 -0.30887583 -0.13512878 0.02533519 -0.102272265 0.1629378 0.25832075 0.3079894
0.10589941 0.33097044 0.0021503007 0.3376471 0.2546638 -0.09729215 0.03079537 0.07783974
0.14292929 0.44420338 0.21888088 0.36457556 0.19902381 0.19589823 -0.0012786826 -0.48898757
-0.14018016 0.1209674 -0.3945472 0.01262357 -0.22924119 0.3789177 0.21562307 -0.18843794
0.3542648 0.022370253 -0.1127664 -0.2033689 0.057458237 0.12704599 -0.13260926 -0.0815071
0.27890807 -0.09754228 0.38117543 0.18184532 0.25306532 -0.068906374 0.095450096 -0.0327762
00000000: 62e4 62be e0cc 84bd 756e 76be 316d 803e
00000010: 87f9 71be 48c1 2d3e a844 3d3e 236c 693e
00000020: 3b8d 183e d356 3a3e 36d7 303e 4bd0 453d
00000030: 7040 95be 8d81 9dbe dcd2 f13c e994 93be
00000040: 78fa 0e3e f38d 19be ad29 b73c 37d0 013e
00000050: 872f 953e 46ed d5bd f094 d33d 12a5 f3be
00000060: 495b ccbe be5d 81bd 03fd 7cbe 35f1 ff3c
00000070: d038 f63d 60e0 38be cfce df3c dc34 ea3c
00000080: 8de0 203d 46fb 353e 79fe 8a3e 4cdd 4c3d
00000090: 5a9b a1bd 9cff a53d 5603 b7bd df3e 143f
000000a0: 065f 39bd a7f7 123f 1b12 123e d25d 0d3e
000000b0: f9b9 98be fdf0 793c 8532 21be 3d7b a53e
000000c0: 6ebe bdbe 7b41 a8be b234 2a3d 0d4e dc3d
000000d0: cda5 2b3e 7bfd 9fbe 9a0c 2a3d 24de a5bd
000000e0: c484 a03e 781f 7a3e a240 c03d e632 52be
000000f0: 136c 08be 883f f53d ca96 c1be ccdd 5a3e
00000100: 4363 d3bd 65fc 4a3e 8eae 923e a664 95be
00000110: f462 fcbe e14f 4ebd a639 78bd 4378 b43e
00000120: 8de3 a43d e08c 593e 0ece 7bbd b4ca cbbd
00000130: cdc7 91be 2c03 8e3e a80d 9cbe db91 7d3e
00000140: 5830 efbd 0afe 1d3e ecf7 ab3e 1531 873d
00000150: c9e6 d83d b7ce 8ebe 8994 e8be e4d9 713c
00000160: 3300 f6bc b5c6 c0bd 6a45 193d fa51 8a3c
00000170: 2952 443d 5e6b de3e 5bcf 1bbe 1216 38be
00000180: d1b7 2fbe 2649 6f3e 91a2 393b 0878 cfbd
00000190: 7118 b03c f683 6b3e 8c8e c63d 211e c73e
000001a0: 0e93 b83d 7e03 16be 8936 4abe ace9 f5bc
000001b0: 9926 d6bd b479 883e caad d83d 5887 9abd
000001c0: fc75 a8be d53f eabe 4984 b23e a318 37bd
000001d0: 4d2b 6fbe 3db6 3b3e 0ec6 0bbd 36ab bc3d
000001e0: 22ba b13d 9dfe e1bb b11d 59bd 4cda 71bd
000001f0: d266 a33d af93 47bc 9098 2ebe 6692 3cbe
00000200: 0535 eebd 54da a13e 3069 55bd 615d 58be
00000210: 9f10 593e 9fbc 793e 2bab a9bd 0482 893e
00000220: 7ee2 1a3e 88c5 43be 04bd d9be 6427 393d
00000230: 3252 7cbe 79d7 cebe 0ece 42bd 011f 24be
00000240: 2647 fa3d 8fce 5abe 1845 a8be f91f 163e
00000250: 71f0 34bd da54 08be e596 623e 5c6c f3bd
00000260: 417d 223e 7242 4abd 5a6b 343e b03a 143c
00000270: 6a37 253e 8cb9 e5be 214f 363e 0947 f3bd
00000280: 90b0 b6be d17a 34be a643 433e d9df 553d
00000290: 8ebb c2be 3558 53be 1347 02bf d05c 84be
000002a0: 6aa4 bc3d 4ca1 90be bddd 36be 0cf2 f2bd
000002b0: 9f6e 363e 344b 9f3d 6770 bcbc bf02 0cbe
000002c0: 2fe0 713d f601 5ebd e3c6 873e ee9f 4d3e
000002d0: bc18 58be 0daf 39be 620b 30be e38f 3bbe
000002e0: 4544 6d3e 0ce6 053d eff7 7e3e ab55 5c3e
000002f0: c5ee 22be b138 4b3e a8d0 6cbe 2a58 c3bd
00000300: df59 40be f257 633e 6174 ab3d de14 f6bd
00000310: 26a8 d1be b41a 9ebe e93e ad3d 0a00 abbe
00000320: 44f7 9a3d fc09 d03d 8571 373e b900 e9bd
00000330: bc35 61bd a8bf 1cbe fee1 9dbe 0518 1c3e
00000340: b7b3 88be f924 9ebe 335f 0abe bf8b cf3c
00000350: 1f74 d1bd 2bd9 263e 9e42 843e c9b0 9d3e
00000360: cae1 d83d f574 a93e 0fec 0c3b 15e0 ac3e
00000370: 4b63 823e 1b41 c7bd 9246 fc3c 716a 9f3d
00000380: 0e5c 123e a06e e33e 4f22 603e a6a9 ba3e
00000390: e6cc 4b3e 8c99 483e 7899 a7ba 945c fabe
000003a0: 638b 0fbe c2bd f73d 1702 cabe 17d3 4e3c
000003b0: 34be 6abe 8001 c23e 4bcc 5c3e e0f5 40be
000003c0: 3262 b53e d241 b73c 12f2 e6bd f03f 50be
000003d0: 5459 6b3d 5818 023e b9ca 07be 32ed a6bd
000003e0: 0acd 8e3e 3fc4 c7bd 6d29 c33e a935 3a3e
000003f0: c791 813e c91e 8dbd 577b c33d 5640 06bd

encoder_cnn.0.bias f4 [32]
-0.34433126 -0.25219285 1.3845723 -1.4598466 0.02740614 0.036336888 -0.9428646 -0.20653257
-0.34377435 -0.35661843 -0.42605492 -0.3347211 -0.15141986 -1.0003653 -0.8757481 0.21403387
-0.94216996 0.058618043 -0.086320736 -1.087165 -0.80202675 0.44190595 -0.11535097 -0.75219697
-0.55765736 0.7443503 -0.8097793 -0.89176595 -1.0436244 -0.08717203 0.21954237 0.22975227
00000000: 304c b0be 6c1f 81be aa39 b13f 41dc babf
00000010: d782 e03c fdd5 143d 935f 71bf 467d 53be
00000020: 3103 b0be b196 b6be df23 dabe 9060 abbe
00000030: cf0d 1bbe f80b 80bf 0731 60bf b22b 5b3e
00000040: 0d32 71bf 7919 703d edc8 b0bd 3928 8bbf
00000050: a051 4dbf 7f41 e23e 213d ecbd fb8f 40bf
00000060: a2c2 0ebf be8d 3e3f b24d 4fbf c64a 64bf
00000070: 7c95 85bf 4087 b2bd b7cf 603e 2e44 6b3e

encoder_cnn.2.weight f4 [64, 32, 3]
-0.1829834 -0.23335727 -0.0028204946 0.37041944 0.38457325 0.3077918 0.6602728 0.27721447
0.19532607 0.1349497 -0.56570786 -0.085340805 0.005685622 0.07774368 -0.33688337 -0.036567368
-0.17527473 0.005231129 0.0011234847 0.22288048 0.14806674 -0.10651902 -0.17216018 -0.23044142
0.36058414 0.20609832 0.017157327 0.47338706 0.06350379 -0.053854395 -0.009988241 0.15625563
0.11398436 0.02923102 -0.12816621 -0.15892027 0.19221775 -0.16686653 -0.012150459 0.21618922
0.26545104 0.09966022 0.0049866904 -0.12180579 -0.009780361 0.3653741 0.35267287 0.050354037
0.27261448 0.20085308 0.097677335 0.3514863 0.23599221 0.05187163 -0.055665035 -0.00831936
-0.07195564 -0.35138547 -0.2935064 0.08089267 0.00564854 -0.23204672 0.051574513 0.08710334
0.09515603 -0.09629305 0.22620994 -0.010955321 0.09126386 -0.3128464 -0.28728682 -0.07300205
0.2973932 0.09819491 0.30037314 -0.09002996 0.005672249 -0.26843798 -0.12539746 -0.045164794
-0.11705652 0.17215507 -0.31095588 -0.15730041 -0.052149054 -0.20819853 -0.41536966 0.05223976
-0.012078375 0.048273012 0.38514155 -0.066466115 -0.17015386 0.25670037 -0.043120615 -0.0860626
-0.057530984 -0.013345773 0.07498447 -0.08125367 -0.0597663 -0.027858453 -0.49966037 -0.23986332
-0.1858747 -0.06428742 0.029288992 -0.09094834 -0.3175043 -0.28851962 -0.2161124 -0.04493488
-0.005736074 0.07099601 0.05872972 -0.12752867 -0.19030361 -0.24164775 0.077787034 0.009582893
0.09560246 -0.19848816 -0.048368566 0.024143502 0.03748863 -0.015361794 -0.051673815 -0.07598483
-0.07669133 -0.34266135 -0.18003842 -0.47742125 -0.006129043 -0.015785176 -0.043616924 -0.03585834
0.016016405 0.03987148 -0.12233735 -0.05327369 -0.14382254 -0.16869669 -0.07728761 -0.16616261
-0.17734656 0.048252866 -0.062057395 -0.3253915 -0.3612959 -0.34790874 0.00324856 0.030062329
0.044258077 0.1074643 0.06651133 0.07344892 -0.02986094 -0.009508518 -0.02993864 -0.30111837
-0.2728997 -0.27877223 -0.021258537 -0.11111155 -0.11803539 0.04359351 -0.036638927 0.023461256
-0.032541443 0.05323128 0.049789593 -0.24908864 0.039251883 0.066687405 -0.044921905 -0.044286184
-0.18859366 -0.19222932 -0.08355773 -0.073635265 -0.17625599 -0.076090164 0.06659575 -0.010738587
-0.10538167 -0.01036504 -0.13576777 -0.10946194 -0.1781464 -0.16889903 -0.17088419 -0.22140256
0.20115359 0.091998234 -0.11865929 0.058566175 0.22112659 0.20328598 -0.4307389 -0.19818625
-0.27317798 0.008833266 -0.1984261 -0.0060227565 -0.26775524 -0.27176 -1.7133145 -0.22644241
0.4338561 -0.16251613 -0.08809423 0.3566175 0.11102692 0.06601163 0.17038271 -0.45096985
-0.11736859 -0.26520464 -0.24552903 -0.06990547 0.052547675 -0.2876911 -0.207071 0.059556067
-0.14428031 -0.18268037 -0.043946743 -0.45867872 -0.27337393 0.113474704 0.0016647852 -0.34863374
-0.15934004 -0.34889743 0.27321804 -0.016337851 -0.273157 -0.11917034 0.10674202 -0.29220757
0.14093691 -0.008302587 -0.3023636 0.077335976 -0.115534924 -0.11468368 -0.5925442 -0.48381367
-0.11562975 -0.09035025 0.20919399 -0.09821224 0.15804294 0.06434778 -0.27302635 -0.36749786
00000000: 0060 3bbe 35f5 6ebe 0cd8 38bb 9ea7 bd3e
00000010: c9e6 c43e e396 9d3e a307 293f 0eef 8d3e
00000020: 8f03 483e 4130 0a3e 3bd2 10bf 29c7 aebd
00000030: 744e ba3b 1438 9f3d fa7b acbe aac7 15bd
00000040: 387b 33be e469 ab3b e441 933a c83a 643e
00000050: cf9e 173e a526 dabd c24a 30be d6f8 6bbe
00000060: 7c9e b83e 700b 533e 868d 8c3c ca5f f23e
00000070: 460e 823d 6d96 5cbd b8a5 23bc 7a01 203e
00000080: a270 e93d e475 ef3c 013e 03be ffbb 22be
00000090: bbd4 443e 0fdf 2abe b812 47bc b560 5d3e
000000a0: 33e9 873e a81a cc3d 6467 a33b 5075 f9bd
000000b0: cf3d 20bc 5012 bb3e 8a91 b43e 0940 4e3d
000000c0: 2094 8b3e 6eac 4d3e 0e0b c83d 03f6 b33e
000000d0: f1a7 713e 5977 543d 0501 64bd ed4d 08bc
000000e0: 7b5d 93bd cce8 b3be 7946 96be 0eab a53d
000000f0: 6317 b93b a89d 6dbe cc3f 533d 3c63 b23d
00000100: 2ae1 c23d 4a35 c5bd 94a3 673e f27d 33bc
00000110: 8ce8 ba3d 672d a0be 4217 93be 1982 95bd
00000120: ec43 983e 6a1a c93d 82ca 993e a161 b8bd
00000130: 46de b93b b470 89be 3168 00be b8fe 38bd
00000140: 54bb efbd 6b49 303e 9c35 9fbe 5c13 21be
00000150: 3f9a 55bd ff31 55be 55ab d4be 5cf9 553d
00000160: 60e4 45bc ecb9 453d 4631 c53e 631f 88bd
00000170: d03c 2ebe 3b6e 833e 3e9f 30bd 9741 b0bd
00000180: 9ca5 6bbd 3ba8 5abc 7591 993d 5368 a6bd
00000190: 82cd 74bd 6937 e4bc 7cd3 ffbe bb9e 75be
000001a0: f055 3ebe 1fa9 83bd 78ef ef3c 2043 babd
000001b0: ec8f a2be d8b8 93be 924c 5dbe a30d 38bd
000001c0: adf5 bbbb 5b66 913d 938e 703d e096 02be
000001d0: f3de 42be 8272 77be cf4e 9f3d 9101 1d3c
000001e0: 39cb c33d 7b40 4bbe 1e1e 46bd 98c8 c53c
000001f0: ad8d 193d 09b0 7bbc eca7 53bd ef9d 9bbd
00000200: 5810 9dbd 4f71 afbe fe5b 38be 8f70 f4be
00000210: 24d6 c8bb ea4f 81bc a9a7 32bd 32e0 12bd
00000220: d634 833c 4750 233d 018c fabd 8335 5abd
00000230: 3746 13be d3be 2cbe f748 9ebd 8826 2abe
00000240: 569a 35be cca4 453d e52f 7ebd b799 a6be
00000250: c7fb b8be 1821 b2be cbe5 543b 4645 f63c
00000260: f547 353d 3e16 dc3d 1837 883d 636c 963d
00000270: ee9e f4bc 9dc9 1bbc e141 f5bc 302c 9abe
00000280: 82b9 8bbe 3cbb 8ebe 6226 aebc 748e e3bd
00000290: 8abc f1bd 1c8f 323d b312 16bd d231 c03c
000002a0: 2d4a 05bd 0b09 5a3d 2cf0 4b3d 1811 7fbe
000002b0: 95c6 203d 6893 883d 0800 38bd 6e65 35bd
000002c0: b21e 41be c3d7 44be 5120 abbd 16ce 96bd
000002d0: 737c 34be 29d5 9bbd 5a63 883d e6f0 2fbc
000002e0: 58d2 d7bd 21d2 29bc b506 0bbe 952d e0bd
000002f0: 036c 36be def3 2cbe 44fc 2ebe 5ab7 62be
00000300: 35fb 4d3e 9269 bc3d a403 f3bd 16e3 6f3d
00000310: 026f 623e 332a 503e cf89 dcbe 56f1 4abe
00000320: fcdd 8bbe 67b9 103c 3630 4bbe 8b5a c5bb
00000330: 3717 89be 2024 8bbe e44d dbbf 85e0 67be
00000340: 6322 de3e a16a 26be bf6a b4bd 9296 b63e
00000350: 1562 e33d 1b31 873d ce78 2e3e 85e5 e6be
00000360: f15e f0bd e7c8 87be f66b 7bbe 992a 8fbd
00000370: 3b3c 573d 3f4c 93be 6c0a 54be 10f1 733d
00000380: 38be 13be 9010 3bbe 8001 34bd f0d7 eabe
00000390: abf7 8bbe 6d65 e83d ec34 da3a 1f80 b2be
000003a0: 092a 23be afa2 b2be 3ce3 8b3e f5d6 85bc
000003b0: 3cdb 8bbe 940f f4bd 8f9b da3d 3b9c 95be
000003c0: c451 103e 9307 08bc 67cf 9abe 5362 9e3d
000003d0: 939d ecbd 47df eabd fab0 17bf 6db6 f7be
000003e0: 4acf ecbd 8d09 b9bd f336 563e 8023 c9bd
000003f0: 02d6 213e c5c8 833d 1cca 8bbe ae28 bcbe

encoder_cnn.2.bias f4 [64]
0.0031758815 -0.14615141 -0.128722 0.01688344 0.115043744 0.09742765 -0.50265616 -0.13148868
-0.18906665 -0.015841922 0.051632263 -0.13944432 0.21895832 -0.11519024 -0.10896174 0.1935603
0.14417005 0.09870638 -0.16213386 -0.11969517 -0.1433138 0.09559613 0.40743288 0.32566085
-0.16781026 -0.18847814 -0.33890074 -0.17237028 0.3886858 -0.12303653 -0.05334083 -0.34325722
-0.22012225 -0.22393574 0.18009266 -0.338049 -0.04300915 -0.476071 0.04043197 -0.001716445
-0.1914159 -0.43487287 0.17578492 -0.19435807 -0.27324826 -0.5409284 -0.42682898 -0.16602808
-0.3137755 0.08851212 -0.4075927 -0.34516427 -0.27798074 -0.08861675 -0.3358856 -0.13946207
-0.05599258 -0.2068881 -0.1423479 -0.1274687 -0.42349342 0.14840272 -0.321686 -0.21965772
00000000: 7322 503b b7a8 15be b3cf 03be 244f 8a3c
00000010: 0e9c eb3d 2688 c73d 13ae 00bf f8a4 06be
00000020: b09a 41be ebc6 81bc 5a7c 533d 7eca 0ebe
00000030: 9c36 603e dce8 ebbd 5527 dfbd ac34 463e
00000040: 50a1 133e 9226 ca3d 6b06 26be be22 f5bd
00000050: dac0 12be e7c7 c33d 0b9b d03e 05bd a63e
00000060: 74d6 2bbe 6a00 41be 6684 adbe d681 30be
00000070: d301 c73e 94fa fbbd ea7b 5abd 69bf afbe
00000080: ba67 61be 694f 65be 366a 383e c214 adbe
00000090: 5d2a 30bd 94bf f3be fe9b 253d 56fa e0ba
000000a0: 8802 44be a8a7 debe f600 343e cd05 47be
000000b0: 32e7 8bbe 497a 0abf 5489 dabe 4403 2abe
000000c0: 2fa7 a0be d845 b53d feaf d0be 5fb9 b0be
000000d0: 7e53 8ebe b37c b5bd 33f9 abbe 25cf 0ebe
000000e0: 7a58 65bd 79da 53be a6c3 11be 2887 02be
000000f0: 21d4 d8be e2f6 173e 07b4 a4be f4ed 60be

encoder_lstm.weight_ih_l0 f4 [128, 64]
0.4507742 0.0490344 0.17918465 -0.18377595 0.21834467 -0.5355453 0.60980546 -0.11751979
0.28547895 0.05314254 0.21294403 -0.38524085 0.12873419 -0.1588498 0.11341621 0.23743509
-0.4680604 -0.07671498 -0.07345593 0.012746684 -0.012494525 -0.013528197 1.76287 -1.0941533
0.45658785 0.23530822 -0.032885354 0.032143746 -0.39071348 -0.10007091 0.21837963 0.14861485
0.22741893 0.2493795 -0.066789456 0.3539994 0.55515367 -0.0013432929 0.045438293 -0.1267303
0.06291755 0.5693316 0.19536467 -0.15956706 -0.32990235 0.24390121 -0.015340165 0.22978234
0.33336833 0.07351584 0.30821297 0.30594823 0.18654433 -0.03750516 0.19043206 0.23515992
-0.0017946119 -0.073100336 -0.05543783 -0.041934397 0.19263656 -0.18591101 -0.0885729 -0.110379554
0.2325076 0.013198756 -0.16145535 0.10593744 0.020507509 0.35379982 -0.0667293 0.17247614
0.115149185 0.15695657 0.1338282 -0.28866476 0.092367984 -0.046548545 0.1504488 -0.08378181
0.38156474 -0.31043082 -0.2142334 -0.048549235 0.2068002 0.0658928 -1.1186563 -0.261809
0.21048938 -0.24437676 0.18452524 0.14742272 0.14526492 -0.05680707 -0.4858943 0.08664867
0.30988073 0.055934835 -0.046533946 -0.16748565 -0.19459723 -0.33893088 0.15711859 0.0024865607
-0.05700903 -0.04321832 -0.28382877 -0.12776542 0.17148481 0.20462655 0.35411426 -0.0314255
-0.3546303 0.14338908 -0.22158882 0.2083886 -0.16495173 -0.06816646 -0.025976352 0.20484582
0.057387203 0.09371026 0.13718988 -0.15218738 0.09401642 -0.22300206 -0.42791057 -0.18891847
0.11704697 -0.06362771 0.30219504 -0.16694477 0.41212624 0.03041524 -0.044996064 -0.046384186
-0.065919705 0.14087275 -0.026940148 0.13623264 -0.41610834 -0.079198174 -0.090242036 0.23433442
-0.060806185 0.5482207 -0.034713417 0.20801158 0.11486839 0.01684975 0.072626024 -0.007555712
-0.15089944 -0.030978968 0.12747277 -0.12597217 0.28808412 0.12460541 -0.17481428 -0.0048394823
-0.124253735 0.16337441 0.029132126 -0.09273832 0.23797117 -0.03767554 -0.00930957 0.021706657
0.35086587 0.0065391236 0.408362 -0.08955608 -0.018985333 -0.62090266 0.11177134 -0.11613478
0.29547063 0.096108116 0.3746718 -0.019596543 -0.094315894 -0.041720472 0.53660256 0.121098526
0.0032974968 -0.33518133 0.010651241 -0.030889785 0.037306044 -0.1685157 0.10641072 -0.089756995
-0.09275196 0.23627008 0.28899595 -0.02024839 0.016920522 0.03463312 0.04473485 -0.15734805
0.0060604434 0.037610188 -0.0636772 0.33369556 0.33014792 -0.10212911 0.22528416 0.101995766
-0.16439451 0.44420922 -0.008521001 0.113063455 0.014767049 0.29951182 0.3180238 0.34969425
0.44109738 -0.076510906 -0.012700024 0.21017928 0.18779524 0.12509197 0.08259828 0.087580346
-0.3311585 -0.18264091 0.08511286 -0.11943992 -0.18934993 -0.23366429 -0.11254684 0.07454513
0.19786564 -0.13924664 0.11712946 0.10432826 0.5748551 0.6180313 0.07255379 0.068417326
0.3926997 0.0699007 -0.0007207852 0.0833782 0.16786939 0.027988454 -0.10763268 0.0415414
0.0737123 0.13806492 0.2749156 -0.08809124 -0.08815251 0.0055040377 -0.43427408 -0.22179733
00000000: e0cb e63e 4cd8 483d 2e7c 373e c32f 3cbe
00000010: bf95 5f3e 7f19 09bf 361c 1c3f 37ae f0bd
00000020: 4c2a 923e feab 593d 000e 5a3e 4a3e c5be
00000030: e5d2 033e 86a9 22be c246 e83d 2f22 733e
00000040: 9da5 efbe be1c 9dbd 1070 96bd 78d7 503c
00000050: d6b5 4cbc 5fa5 5dbc b9a5 e13f 370d 8cbf
00000060: e2c5 e93e a3f4 703e cbb2 06bd 29a9 033d
00000070: 990b c8be faf1 ccbd e99e 5f3e 7e2e 183e
00000080: 82e0 683e 575d 7f3e e9c8 88bd 693f b53e
00000090: 8d1e 0e3f 6e11 b0ba 811d 3a3d 96c5 01be
000000a0: ebda 803d b7bf 113f ad0d 483e 8c65 23be
000000b0: f6e8 a8be 3dc1 793e 5155 7bbc 104c 6b3e
000000c0: 41af aa3e 798f 963d 17ce 9d3e 3fa5 9c3e
000000d0: 7a05 3f3e 039f 19bd 9f00 433e c3cd 703e
000000e0: 2f39 ebba a1b5 95bd c712 63bd 67c3 2bbd
000000f0: 8542 453e 755f 3ebe b565 b5bd ad0e e2bd
00000100: 7916 6e3e 983f 583c 8d54 25be bbf5 d83d
00000110: 5dff a73c 4025 b53e 5fa9 88bd 969d 303e
00000120: 56d3 eb3d 39b9 203e 420a 093e decb 93be
00000130: 6d2b bd3d b0a9 3ebd 400f 1a3e cc95 abbd
00000140: 745c c33e caf0 9ebe 0060 5bbe 90db 46bd
00000150: 6ec3 533e cef2 863d 2130 8fbf d40b 86be
00000160: 878a 573e e73d 7abe 2ff4 3c3e fbf5 163e
00000170: 54c0 143e 88ae 68bd 23c7 f8be dc74 b13d
00000180: b0a8 9e3e ed1b 653d 619a 3ebd 5c81 2bbe
00000190: 7f44 47be 5988 adbe b2e3 203e 91f5 223b
000001a0: 4d82 69bd b105 31bd 0152 91be f0d4 02be
000001b0: b799 2f3e 9f89 513e 774e b53e 06b8 00bd
000001c0: 1a92 b5be 96d4 123e 2ee8 62be d263 553e
000001d0: 1be9 28be db9a 8bbd 5ccc d4bc 1ac3 513e
000001e0: d80e 6b3d 2aeb bf3d 817b 0c3e 02d7 1bbe
000001f0: ae8b c03d a75a 64be 1817 dbbe d873 41be
00000200: 52b6 ef3d 3f4f 82bd 4fb9 9a3e 92f3 2abe
00000210: 3602 d33e 6229 f93c cb4d 38bd 58fd 3dbd
00000220: e900 87bd f240 103e 96b1 dcbc 9280 0b3e
00000230: 270c d5be a732 a2bd d1d0 b8bd 5df5 6f3e
00000240: e80f 79bd 3158 0c3f a82f 0ebd fd00 553e
00000250: 1e40 eb3d 7d08 8a3c f4bc 943d e895 f7bb
00000260: 6285 1abe 9bc7 fdbc 3988 023e d9fe 00be
00000270: c37f 933e 1f31 ff3d 8402 33be 8594 9ebb
00000280: be78 febd 9f4b 273e 7fa6 ee3c 97ed bdbd
00000290: b7ae 733e ab51 1abd 2b87 18bc 29d2 b13c
000002a0: b1a4 b33e 2546 d63b d314 d13e 2e69 b7bd
000002b0: 2187 9bbc 7af3 1ebf 5fe8 e43d 12d8 edbd
000002c0: ed47 973e 55d4 c43d fbd4 bf3e ee88 a0bc
000002d0: b128 c1bd 16e3 2abd c95e 093f 8102 f83d
000002e0: d11a 583b e39c abbe 8b82 2e3c 930c fdbc
000002f0: 39ce 183d 618f 2cbe dded d93d 84d2 b7bd
00000300: bdf4 bdbd c9f0 713e 47f7 933e f4df a5bc
00000310: e89c 8a3c 75db 0d3d e43b 373d d91f 21be
00000320: af96 c63b 240d 1a3d 3169 82bd 25da aa3e
00000330: 2609 a93e 1129 d1bd e4b0 663e 28e3 d03d
00000340: 0957 28be 646f e33e ab9b 0bbc d08d e73d
00000350: 7ef1 713c 9d59 993e 04d4 a23e 200b b33e
00000360: 84d7 e13e c0b1 9cbd c313 50bc 3d39 573e
00000370: 654d 403e 1c18 003e 4929 a93d 535d b33d
00000380: 9b8d a9be 3806 3bbe a74f ae3d eb9c f4bd
00000390: f3e4 41be b145 6fbe f57e e6bd 1eab 983d
000003a0: 4a9d 4a3e ac96 0ebe 92e1 ef3d 0eaa d53d
000003b0: b429 133f 4d37 1e3f 1597 943d 621e 8c3d
000003c0: ef0f c93e 1928 8f3d 13f3 3cba 31c2 aa3d
000003d0: f4e5 2b3e 0b48 e53c 866e dcbd 5127 2a3d
000003e0: 79f6 963d e460 0d3e bdc1 8c3e 2e69 b4bd
000003f0: 4e89 b4bd 375b b43b 2c59 debe d71e 63be

encoder_lstm.weight_hh_l0 f4 [128, 32]
-0.5955766 0.6840486 -0.13164417 0.08445338 1.5272008 -0.34745055 0.6316276 -0.6584699
0.5491573 0.31239882 0.48522663 -0.8319684 -0.0053289817 -0.4121424 0.20603824 1.3054595
-0.452419 0.42010453 -0.050774764 0.3733742 0.74454665 0.6853455 0.82326794 0.46843874
-0.5970801 -0.9469606 0.8082529 -0.6642305 0.5872687 -0.119403355 -0.62623966 -0.004183424
-0.17225061 -0.15943602 -0.5715167 -0.32524785 -0.020861747 -0.14820617 -0.5158353 -0.58693606
0.6545111 0.5360775 0.21196702 -0.28753015 -0.13880639 0.44159305 0.4770811 0.43910107
-0.33380008 0.81258833 -0.5735606 0.3307956 0.08250982 0.56669945 0.45658737 -0.12263463
-0.33713526 0.7672017 0.46125072 -0.67444295 0.21127966 -0.5158011 0.0038811185 -0.06436305
-0.3284594 0.37542084 -0.22706197 -0.34926888 0.42132518 -0.00424623 -0.15903866 0.40550146
-0.029576385 -0.19320136 -0.26128834 0.00060984114 0.28134498 0.2126061 -0.17911594 0.10801972
-0.26062146 0.16766895 -0.3773767 -0.22777055 -0.66567737 -0.35022238 -0.12105227 -0.23371051
0.22577389 0.28989297 -0.6550102 -0.435883 -0.08614356 -0.094598934 -0.50524133 -0.039595447
-0.7930947 -0.6354956 -0.43820813 0.85143733 -0.24938494 0.05980432 -0.3381103 1.1036123
-0.7528408 -0.17675348 -0.5706731 0.1958233 0.6549078 0.6658887 -0.24638125 -0.013619767
0.34654862 -0.12926513 -0.55022204 -0.22820064 -0.1529935 -0.88435465 -0.64175147 -0.77549464
1.0788655 0.22629878 -0.82605416 -0.1723087 -0.35410437 0.48079482 0.32699674 -0.15581022
0.6358291 -0.08515801 0.016278636 0.1615486 -0.39896494 -0.1943877 0.083496645 -0.065572165
0.4796457 -0.6550662 -0.14423214 0.8186895 -0.17750031 0.23694117 0.38420588 -0.8097003
0.07992539 0.14571 0.46155027 0.043861583 0.2302616 0.45238215 -0.039608616 0.16659065
0.03977375 -0.13699417 -0.09609421 -0.7414442 0.8849192 -0.08462891 -0.08952848 -0.20674191
0.44164973 0.67265457 -0.19703898 -0.47947165 0.6432387 -0.93342984 -0.5891155 -0.5964599
0.37308347 0.36894372 0.7848191 -0.27742144 -0.2578271 -0.65936726 0.3478028 -0.3001126
0.038446233 0.15697558 0.51820344 0.40010628 0.24373405 0.40759423 0.90911067 1.2932354
-0.39051634 0.2509671 0.3306605 -0.36831963 0.95197976 -0.012120894 -0.41843817 0.042327497
0.33499357 -0.28863183 0.38182122 0.5607247 -0.2557207 0.1324377 1.0336287 0.27418903
-0.18753259 0.41273957 -0.20220944 -1.150877 0.42030442 0.13906239 -0.08509396 -0.7086652
0.06344195 -0.7043649 -0.25948057 -0.4196472 -0.24686481 0.7790902 0.2516684 -0.33278129
0.4027759 -0.35757196 0.04518517 0.12711838 -0.36723647 0.04079425 -0.091292374 0.34439617
0.24496195 -0.057948705 -0.18833126 -0.4071112 0.18949427 -0.7057647 0.16274442 0.29987547
0.121948175 -0.32558215 0.35642037 0.07537321 -0.22701627 0.19717842 0.42441723 0.40971485
0.2578572 0.19346584 -0.04148672 0.4002585 0.40523505 5.0222963e-05 0.51171005 0.42612588
0.46667656 -0.03037818 0.2959104 -0.8407138 0.049740247 -0.33670273 -0.3340914 -0.47490916
00000000: b577 18bf cf1d 2f3f bbcd 06be e5f5 ac3d
00000010: 517b c33f 0ae5 b1be 59b2 213f 7c91 28bf
00000020: 9395 0c3f bdf2 9f3e a06f f83e e2fb 54bf
00000030: bd9e aebb 5404 d3be b0fb 523e 4c19 a73f
00000040: 77a3 e7be f117 d73e 33f9 4fbd e72a bf3e
00000050: 9c9a 3e3f cd72 2f3f b0c1 523f 34d7 ef3e
00000060: 3eda 18bf 036c 72bf a9e9 4e3f 030b 2abf
00000070: 3e57 163f bf89 f4bd 3e51 20bf 1b15 89bb
00000080: 7762 30be 3243 23be eb4e 12bf e386 a6be
00000090: 41e6 aabc 5cc3 17be c80d 04bf 7141 16bf
000000a0: 0a8e 273f 603c 093f e20d 593e 2737 93be
000000b0: 4323 0ebe 7c18 e23e f943 f43e dbd1 e03e
000000c0: d8e7 aabe ca05 503f ded4 12bf 0a5e a93e
000000d0: e9fa a83d 3713 113f d2c5 e93e dd27 fbbd
000000e0: fe9c acbe 5567 443f 0e29 ec3e 4ba8 2cbf
000000f0: b259 583e 8a0b 04bf 5d5a 7e3b c6d0 83bd
00000100: d52b a8be 2937 c03e ef82 68be 5fd3 b2be
00000110: efb7 d73e f523 8bbb 08db 22be e39d cf3e
00000120: 2d4a f2bc 94d6 45be 96c7 85be bfdd 1f3a
00000130: 730c 903e 6ab5 593e 2b6a 37be 7139 dd3d
00000140: 2d70 85be 69b1 2b3e 8537 c1be af3c 69be
00000150: d569 2abf 5950 b3be 41ea f7bd cf51 6fbe
00000160: 4531 673e da6c 943e c0ae 27bf 0e2c dfbe
00000170: 096c b0bd 16bd c1bd 7f57 01bf d62e 22bd
00000180: 4108 4bbf d7af 22bf d15c e0be ccf7 593f
00000190: c45e 7fbe 60f5 743d cb1c adbe 2b43 8d3f
000001a0: 2dba 40bf ddfe 34be a217 12bf e785 483e
000001b0: 0aa8 273f af77 2a3f 5e4b 7cbe 7125 5fbc
000001c0: d26e b13e 145e 04be 5adb 0cbf 6ead 69be
000001d0: 54aa 1cbe 1165 62bf d349 24bf d186 46bf
000001e0: 4418 8a3f deba 673e 4978 53bf b171 30be
000001f0: 2b4d b5be bd2a f63e 1e6c a73e b78c 1fbe
00000200: b2c5 223f 5367 aebd c65a 853c ff6c 253e
00000210: 2245 ccbe 920d 47be 4a00 ab3d b34a 86bd
00000220: 1f94 f53e 6bb2 27bf 97b1 13be a395 513f
00000230: a4c2 35be b5a0 723e a2b6 c43e 8548 4fbf
00000240: ecaf a33d 0135 153e 5150 ec3e 34a8 333d
00000250: b2c9 6b3e a29e e73e a53c 22bd bd96 2a3e
00000260: cde9 223d 3348 0cbe 0bcd c4bd 49cf 3dbf
00000270: 118a 623f ec51 adbd b55a b7bd 27b4 53be
00000280: ea1f e23e 1733 2c3f 96c4 49be 4f7d f5be
00000290: 4bab 243f 42f5 6ebf 46d0 16bf 99b1 18bf
000002a0: cc04 bf3e 31e6 bc3e e8e9 483f 2f0a 8ebe
000002b0: ea01 84be 4bcc 28bf 3513 b23e 5ca8 99be
000002c0: cc79 1d3d 35be 203e fba8 043f bbda cc3e
000002d0: 6b95 793e 31b0 d03e 7abb 683f bd88 a53f
000002e0: c2f1 c7be c27e 803e 554c a93e 6494 bcbe
000002f0: f2b4 733f b796 46bc 873d d6be 995f 2d3d
00000300: 4784 ab3e 8dc7 93be 127e c33e a78b 0f3f
00000310: d3ed 82be c09d 073e f24d 843f 8162 8c3e
00000320: 8b08 40be 9a52 d33e fe0f 4fbe f04f 93bf
00000330: 2432 d73e 5f66 0e3e be45 aebd 156b 35bf
00000340: daed 813d 4251 34bf a3da 84be ffdb d6be
00000350: 21ca 7cbe 7572 473f aeda 803e 4f62 aabe
00000360: a538 ce3e ac13 b7be 1614 393d 522b 023e
00000370: 6b06 bcbe df17 273d 7ff7 babd b254 b03e
00000380: 4ed7 7a3e 9f5b 6dbd e9d9 40be e170 d0be
00000390: c90a 423e ffac 34bf 79a6 263e 4789 993e
000003a0: f7bf f93d b4b2 a6be bb7c b63e 455d 9a3d
000003b0: f476 68be 24e9 493e 374d d93e 25c6 d13e
000003c0: dc05 843e e91b 463e fbed 29bd afee cc3e
000003d0: f87a cf3e 7fa6 5238 6eff 023f 2c2d da3e
000003e0: 3bf0 ee3e a9db f8bc 9181 973e 0539 57bf
000003f0: 6ebc 4b3d 4d64 acbe 070e abbe 4b27 f3be

encoder_lstm.bias_ih_l0 f4 [128]
-0.29081985 -0.03822454 0.05018968 0.16210835 0.16128407 1.0704658 0.007593889 0.51725775
-0.4581855 0.19104089 -0.059449106 0.010371321 0.06884283 0.030000927 -0.33882448 -0.24296658
-0.075749844 0.017158374 0.056648333 0.051537562 0.39532053 0.45236427 0.4872791 0.463759
0.44347823 -0.11283647 -0.27521706 0.08512298 -0.040982928 -0.021991482 0.007959961 -0.17458768
0.45092276 0.23495163 -0.33828235 0.6319506 0.32378668 0.15242542 0.13261394 0.22398178
0.15347685 -0.28267813 0.19656771 0.046565074 0.2465053 -0.24174549 -0.14334026 -0.29994252
-0.08819071 -0.29512066 0.44513452 -0.11842801 0.009552847 -0.020302132 0.11672721 -0.11450438
-0.14408088 -0.30978397 -0.08847387 -0.27723816 -0.05140602 0.30148646 0.041595947 0.54455066
-0.31254074 0.48602983 -0.4734438 -0.3876013 0.09178019 -0.36751705 0.05042841 -0.26878378
0.08831638 0.26171228 0.06551155 -0.015172879 -0.47671986 -0.5210974 -0.07500259 0.078269064
0.08669079 0.24904038 0.06443757 0.11909619 -0.2776883 0.30329958 0.22874327 0.30763948
-0.2587455 0.14226602 0.28992814 -0.4517035 0.24392761 -0.20631453 -0.16952127 -0.36164615
0.13588792 -0.14823873 -0.6206335 0.15489987 0.41301483 0.39064714 0.21156965 0.39311895
-0.021270147 0.09477371 0.41656265 -0.26143962 0.014484023 -0.13004275 -0.007983217 -0.16930799
-0.06310244 0.033722196 0.44372207 -0.24320072 -0.18405606 -0.025360357 0.02592754 0.3951026
-0.13892733 -0.31140554 -0.22890906 0.107586876 0.9491872 0.11983062 -0.28640077 0.21304382
00000000: 57e6 94be 5691 1cbd b293 4d3d bbff 253e
00000010: a727 253e 0605 893f 28d6 f83b 016b 043f
00000020: 4a97 eabe 39a0 433e e880 73bd 79ec 293c
00000030: 78fd 8c3d 81c4 f53c 677a adbe 3bcc 78be
00000040: bc22 9bbd b88f 8c3c 1508 683d 0d19 533d
00000050: 7467 ca3e 4a9c e73e a57c f93e d271 ed3e
00000060: 940f e33e cf16 e7bd 40e9 8cbe f554 ae3d
00000070: b7dd 27bd 7b27 b4bc 7f6a 023c 1dc7 32be
00000080: 59df e63e 2997 703e 5833 adbe 84c7 213f
00000090: 5ec7 a53e 6915 1c3e f3cb 073e 7b5b 653e
000000a0: 0929 1d3e 30bb 90be 0c49 493e 05bb 3e3d
000000b0: e36b 7c3e 218c 77be cac7 12be 1192 99be
000000c0: 559d b4bd 0e1a 97be ace8 e33e 628a f2bd
000000d0: 8b83 1c3c a850 a6bc ad0e ef3d 4681 eabd
000000e0: f089 13be 019c 9ebe ca31 b5bd 29f2 8dbe
000000f0: 1e8f 52bd 6f5c 9a3e 8360 2a3d ac67 0b3f
00000100: 5705 a0be e7d8 f83e 3a67 f2be ad73 c6be
00000110: 41f7 bb3d 322b bcbe 058e 4e3d 079e 89be
00000120: 38df b43d 27ff 853e eb2a 863d ab97 78bc
00000130: a014 f4be a466 05bf f59a 99bd 884b a03d
00000140: f18a b13d 7104 7f3e d8f7 833d b4e8 f33d
00000150: 292d 8ebe 154a 9b3e ad3b 6a3e ec82 9d3e
00000160: 4a7a 84be 2fae 113e 7671 943e ae45 e7be
00000170: 29c8 793e 1e44 53be fc96 2dbe af29 b9be
00000180: 3426 0b3e e5cb 17be d6e1 1ebf 129e 1e3e
00000190: ae76 d33e e702 c83e b7a5 583e e346 c93e
000001a0: bb3e aebc b818 c23d b347 d53e 6adb 85be
000001b0: 654e 6d3c ed29 05be 0acc 02bc 135f 2dbe
000001c0: da3b 81bd 4920 0a3d 8a2f e33e 9c09 79be
000001d0: 3179 3cbe 86c0 cfbc fe65 d43c e34a ca3e
000001e0: f742 0ebe 8c70 9fbe 2367 6abe 8256 dc3d
000001f0: effd 723f c269 f53d 1fa3 92be 2928 5a3e

encoder_lstm.bias_hh_l0 f4 [128]
-0.048423063 -0.20763126 -0.03487293 0.13982269 0.20928434 0.79617697 0.25082704 0.38556924
-0.19392264 0.11912651 -0.13614511 -0.1829843 -0.0076921205 0.19802374 -0.4293864 -0.21669912
-0.20893143 -0.018294087 0.0023273837 -0.033825178 0.2669759 0.42207247 0.4895307 0.3634343
0.35854828 0.14609602 -0.45601094 0.09719626 0.11800312 -0.24545518 -0.22733597 0.089550115
0.34535444 0.38128865 -0.36430255 0.5039828 0.14958285 0.11891606 0.00096787815 0.19167727
0.3379405 -0.1212035 0.20152315 0.019311942 0.36583152 -0.22108349 0.16059646 -0.3366034
-0.31117454 -0.564151 0.43973944 -0.25611985 -0.123528 0.07796284 0.07020894 -0.1179847
-0.05010169 -0.40985098 -0.24057315 -0.48426068 0.2660829 0.40210783 0.23519109 0.4014724
-0.0930603 0.32890818 -0.26551163 -0.6588044 -0.14828467 -0.2827476 0.052801322 -0.20362246
0.34740508 0.16350587 0.19396533 0.054141227 -0.4598057 -0.29691556 0.0073351157 0.14319767
0.12342475 0.02106224 0.12989849 -0.09066683 -0.19322476 0.1022236 0.1547855 0.5488131
-0.33282092 -0.022340544 0.23198992 -0.39670065 0.23459154 -0.46064147 -0.49394292 -0.17012234
0.12230424 0.05656242 -0.442313 0.3519417 0.3859157 0.5419615 0.29034588 0.28916916
-0.15939894 -0.059956543 0.20934425 -0.07138848 0.3245933 -0.1535502 0.082644634 -0.06574785
-0.34098303 0.23805651 0.38371515 -0.061777193 -0.10458765 0.036863256 0.13951378 0.24025875
-0.030531308 -0.28187552 -0.10518566 0.22945309 0.916909 0.10603762 -0.15397316 0.22214991
00000000: 4357 46bd 4a9d 54be ebd6 0ebd ae2d 0f3e
00000010: a24e 563e 41d2 4b3f 676c 803e 5569 c53e
00000020: a893 46be 9af8 f33d a069 0bbe 3d60 3bbe
00000030: 2f0e fcbb bcc6 4a3e 89d8 dbbe 60e6 5dbe
00000040: 1ff2 55be 7bdd 95bc 0587 183b 458c 0abd
00000050: 11b1 883e e219 d83e c5a3 fa3e 1014 ba3e
00000060: a493 b73e 329a 153e 447a e9be d50e c73d
00000070: 9fab f13d 9a58 7bbe c3ca 68be 0d66 b73d
00000080: 4cd2 b03e 4438 c33e dd85 babe 0405 013f
00000090: 3f2c 193e 438a f33d 34b9 7d3a 0c47 443e
000000a0: 8a06 ad3e 8a39 f8bd 165c 4e3e 1434 9e3c
000000b0: 454e bb3e b663 62be 6673 243e 4857 acbe
000000c0: 4552 9fbe 336c 10bf 8725 e13e 2422 83be
000000d0: 40fc fcbd fbaa 9f3d b4c9 8f3d f6a1 f1bd
000000e0: 6e37 4dbd fdd7 d1be cf58 76be 04f1 f7be
000000f0: 053c 883e 14e1 cd3e efd5 703e ca8d cd3e
00000100: 6696 bebd a766 a83e 24f1 87be 68a7 28bf
00000110: f0d7 17be 4bc4 90be 3346 583d 6882 50be
00000120: 14df b13e 156e 273e d99e 463e 31c3 5d3d
00000130: a76b ebbe 5105 98be 695b f03b 69a2 123e
00000140: 1ec6 fc3d b88a ac3c 1c04 053e 88af b9bd
00000150: b6dc 45be 9b5a d13d 1780 1e3e 047f 0c3f
00000160: 8167 aabe 8403 b7bc c48e 6d3e 591c cbbe
00000170: c438 703e 33d9 ebbe 16e6 fcbe 8d34 2ebe
00000180: a57a fa3d ffad 673d d976 e2be b431 b43e
00000190: be96 c53e fdbd 0a3f 37a8 943e fb0d 943e
000001a0: 7a39 23be fe94 75bd 575e 563e 2034 92bd
000001b0: 1831 a63e 433c 1dbe 9741 a93d cfa6 86bd
000001c0: 5495 aebe 16c5 733e 5076 c43e 150a 7dbd
000001d0: 0d32 d6bd edfd 163d b3dc 0e3e 6406 763e
000001e0: cb1c fabc fd51 90be 946b d7bd c0f5 6a3e
000001f0: 8cba 6a3f 402a d93d 24ab 1dbe 447b 633e

encoder_lstm.weight_ih_l1 f4 [128, 32]
0.45010194 -0.03973579 0.074011385 -0.23840228 0.3428209 0.1878621 -0.20479615 0.27220175
0.09550687 0.13133654 0.14316843 0.09618037 -0.08156436 -0.67048556 0.11747392 -0.046597034
0.13267556 -0.27908334 -0.31110108 0.081945896 0.3815878 0.27673092 0.10509778 0.08293339
0.3544759 0.3327679 0.42302984 -0.6753892 0.42638236 -0.19352846 -0.019446136 -0.2248144
0.36648506 -0.15030254 -0.07946546 -0.026656423 0.43617675 -0.41007957 -0.3920777 0.32634068
-0.1487448 -0.21278822 0.1980003 -0.06191978 0.25645196 0.08266115 -0.14447308 0.0487458
-0.16494387 -0.34557647 0.14415205 -0.3069438 0.42680794 -0.32455638 0.16147725 -0.05885673
0.5818941 -0.5103064 -0.055588555 0.044054743 0.19647008 -0.4164195 -0.7240119 0.17246321
-0.09015431 0.21107943 -0.010055646 0.70378494 -0.019802086 0.60652393 0.4736239 0.5345783
0.091029264 -0.07859436 -0.02531772 0.22128949 0.12317651 -0.033522464 0.30801368 0.1293866
0.050821513 -0.031204779 -0.07640309 0.21397448 0.1242056 -0.33181465 -0.093400195 -0.32657745
-0.18006797 -0.051368702 -0.22641931 0.6834044 -0.017776383 -0.5073812 -0.036955275 0.25133398
-0.027773123 0.4816198 -0.31795076 -0.2667592 0.5521738 -0.40437824 -0.3622137 -0.12274995
-0.17906213 -0.09752094 0.5181758 0.15170006 0.46814993 0.022715306 0.3062462 -0.07374472
-0.14476424 -0.15715402 0.112673976 -0.39971384 0.21627153 -0.18324469 0.13831618 0.2741402
0.22883043 0.18489365 -0.3136271 0.34867775 0.47109905 -0.41280755 0.0368984 0.2025547
-0.120785534 0.31818566 -0.36889285 -0.032822266 0.10178055 -0.045290135 -0.030893082 -0.22939672
-0.97382665 0.08084947 0.13417433 -0.24230528 -0.35119402 0.116120555 0.036517832 0.0809278
-0.22644344 0.19039463 0.31111646 -0.18218012 -0.37322664 -0.45918497 -0.29245517 0.06169175
-0.2066207 0.25906894 -0.3437384 0.06290091 0.558484 -0.5226093 0.18941133 0.39229134
-0.12327087 0.012642337 -0.17238703 0.02811869 -0.052703645 -0.067916006 0.03561629 -0.11521625
-0.12511408 -0.13918653 -0.04477171 -0.1405289 -0.02447378 -0.045111027 -0.14710599 0.3417506
-0.18992013 0.48644444 0.4323993 0.33863428 -0.12979914 -0.19210131 0.006630561 0.1024851
-0.26681837 0.1319311 0.1259214 0.24110478 -0.0662455 0.054922473 0.12167959 -0.066759475
-0.07568922 -0.02075605 -0.49019825 0.6377291 -0.64748 0.64128596 -0.12117451 0.15832962
-0.07507002 -0.060258962 0.15193468 0.11176242 0.115286015 0.09105966 -0.118703164 -0.13496868
0.037240993 -0.26822448 -0.13753682 0.17344373 0.18072867 -0.12760065 -0.1850119 0.18090318
0.022291062 -0.012929601 0.14544484 0.08557358 -0.22764055 0.35824344 0.17780237 -0.65887713
0.009579976 0.18828186 -0.18020576 0.15284728 0.031679545 0.1807299 0.65542686 0.74288386
-0.3841286 -0.38130125 -0.28037173 0.094123684 0.15015754 0.027313156 -0.05416592 -0.13596988
0.27137294 -0.18654746 -0.39473948 0.23338746 0.16055748 0.12593901 0.1432431 -0.7310662
0.36308417 -0.47346145 -0.0917255 -0.031095264 0.24444601 0.05613647 0.030205002 -0.02680103
00000000: c373 e63e ffc1 22bd 4893 973d ba1f 74be
00000010: 3986 af3e ec5e 403e 15b6 51be 075e 8b3e
00000020: 1b99 c33d 167d 063e bf9a 123e 37fa c43d
00000030: 370b a7bd f1a4 2bbf 2b96 f03d 88dc 3ebd
00000040: 1adc 073e 03e4 8ebe a448 9fbe 40d3 a73d
00000050: 7a5f c33e adaf 8d3e 813d d73d fbd8 a93d
00000060: dd7d b53e 8e60 aa3e 5e97 d83e 4ee6 2cbf
00000070: ca4e da3e 532c 46be 814d 9fbc bf35 66be
00000080: eea3 bb3e e9e8 19be c9be a2bd 925e dabc
00000090: 8f52 df3e f3f5 d1be 69be c8be 2016 a73e
000000a0: 8f50 18be 28e5 59be 97c0 4a3e 989f 7dbd
000000b0: ac4d 833e 404a a93d c0f0 13be ada9 473d
000000c0: 0ce7 28be 66ef b0be 989c 133e bd27 9dbe
000000d0: 9286 da3e 412c a6be 4b5a 253e c113 71bd
000000e0: 03f7 143f 71a3 02bf d3b0 63bd bf72 343d
000000f0: 742f 493e f034 d5be d858 39bf 329a 303e
00000100: d3a2 b8bd 3525 583e 70c0 24bc 402b 343f
00000110: fc37 a2bc 2745 1b3f d57e f23e 20da 083f
00000120: 8d6d ba3d 14f6 a0bd 1b67 cfbc b699 623e
00000130: f743 fc3d da4e 09bd f8b3 9d3e ec7d 043e
00000140: 382a 503d 2aa1 ffbc 3979 9cbd 201c 5b3e
00000150: 815f fe3d 9ce3 a9be 9a48 bfbd 2935 a7be
00000160: bd63 38be fd67 52bd 77da 67be 97f3 2e3f
00000170: c79f 91bc bce3 01bf 6a5e 17bd d9ae 803e
00000180: 7684 e3bc df96 f63e 71ca a2be a994 88be
00000190: 435b 0d3f aa0a cfbe 1374 b9be 5364 fbbd
000001a0: 105c 37be 0fb9 c7bd 2ba7 043f 4357 1b3e
000001b0: 59b1 ef3e 7315 ba3c 4dcc 9c3e 7907 97bd
000001c0: 143d 14be fcec 20be 9dc1 e63d 4ba7 ccbe
000001d0: 4976 5d3e 7fa4 3bbe c2a2 0d3e 1b5c 8c3e
000001e0: 8652 6a3e c354 3d3e bb93 a0be e485 b23e
000001f0: e533 f13e 835b d3be c722 173d 806a 4f3e
00000200: 685e f7bd 3be9 a23e 86df bcbe a470 06bd
00000210: 5272 d03d 2682 39bd 7d13 fdbc f9e6 6abe
00000220: b44c 79bf 6894 a53d ff64 093e e01e 78be
00000230: b4cf b3be 9dd0 ed3d b993 153d 79bd a53d
00000240: cae0 67be cff6 423e a84a 9f3e 6d8d 3abe
00000250: 9017 bfbe 4b1a ebbe afbc 95be 7db0 7c3d
00000260: 6094 53be afa4 843e 7bfe afbe 31d2 803d
00000270: cff8 0e3f b9c9 05bf 0bf5 413e 69da c83e
00000280: 7075 fcbd ce21 4f3c 3a86 30be 2b59 e63c
00000290: c7df 57bd 8c17 8bbd 63e2 113d 7ff6 ebbd
000002a0: e81d 00be ea86 0ebe 8a62 37bd cfe6 0fbe
000002b0: 3d7d c8bc 57c6 38bd f4a2 16be eff9 ae3e
000002c0: 6c7a 42be 3f0f f93e 7163 dd3e 7961 ad3e
000002d0: 11ea 04be 35b6 44be 2d45 d93b b5e3 d13d
000002e0: 6b9c 88be f218 073e 8af1 003e 2ce4 763e
000002f0: b9ab 87bd 63f6 603d 2633 f93d 31b9 88bd
00000300: f302 9bbd 9708 aabc 44fb fabe 3742 233f
00000310: 40c1 25bf 512b 243f 572a f8bd 2921 223e
00000320: 50be 99bd 1ad2 76bd c494 1b3e b2e3 e43d
00000330: 131b ec3d 7d7d ba3d a51a f3bd 3b35 0abe
00000340: 038a 183d b854 89be 74d6 0cbe 3c9b 313e
00000350: f010 393e bfa9 02be c273 3dbe af3e 393e
00000360: bf9b b63c add6 53bc 7eef 143e 3341 af3d
00000370: 9b1a 69be af6b b73e d311 363e 2cac 28bf
00000380: 55f5 1c3c f6cc 403e dc87 38be ff83 1c3e
00000390: 69c2 013d 4211 393e 0eca 273f a32d 3e3f
000003a0: 81ac c4be eb39 c3be e28c 8fbe ebc3 c03d
000003b0: e6c2 193e d7bf df3c 15dd 5dbd b03b 0bbe
000003c0: 65f1 8a3e 4c06 3fbe 4b1b cabe 1ffd 6e3e
000003d0: 2e69 243e 28f6 003e 52ae 123e 2827 3bbf
000003e0: 2be6 b93e 8a69 f2be 94da bbbd 7fbb febc
000003f0: 0e50 7a3e 5bef 653d 7b70 f73c d58d dbbc

encoder_lstm.weight_hh_l1 f4 [128, 32]
0.02353325 -0.21712796 -0.15311779 -0.023239376 -0.17760192 -0.041542005 0.089237615 -0.073657945
0.07634542 0.029638262 0.29486713 0.16625944 -0.11465532 -0.35697982 0.10828215 0.02094948
-0.64599055 0.15985346 -0.2869578 0.3341832 0.038179547 -0.24820374 -0.07274347 0.33939263
-0.004254949 -0.13504131 0.20510711 0.3351865 -0.21063285 0.24876864 -0.023606244 -0.30288103
0.1275342 -0.14219193 0.1680276 -0.052447606 -0.28415057 0.4079262 -0.121366546 -0.3672327
0.07672367 0.015601476 -0.15638898 0.0637905 0.028311435 -0.07243075 0.08188099 0.034956735
0.1906174 0.05591215 -0.13529369 0.25307575 0.10473384 -0.02893371 0.22803403 0.10847312
-0.16969213 0.3478342 0.18046619 0.23042643 -0.098493636 -0.09871974 0.29100654 0.17990166
-0.053662196 0.18923685 -0.29404142 -0.20485914 -0.33829346 0.21925373 -0.018713148 -0.08856889
0.27744249 0.18701337 0.030306447 -0.18503855 -0.028880695 0.03231575 0.09633755 0.31750262
0.3637663 -0.22313938 0.25631788 -0.045709617 0.20137393 -0.20541479 0.12287549 0.052745473
-0.08449578 0.23751608 0.30075705 0.051290542 0.18669486 0.030425142 0.014702209 0.062555194
-0.022606483 0.094976336 0.13087824 -0.23288737 0.21419796 -0.46412173 -0.11188679 -0.20100781
0.33087906 -0.2962808 -0.0680173 -0.055359617 0.03239241 0.14619333 0.154177 -0.108801655
0.061016537 0.0037836125 -0.21064343 -0.1882718 0.1654772 0.27447444 -0.16048159 0.28967083
0.22060698 -0.002432924 0.16727759 -0.12115662 0.1234874 -0.10864799 -0.07417058 0.19723426
-0.283784 -0.40995073 -0.35611957 0.2065988 -0.14808607 -0.07861814 0.010902533 -0.3381174
-0.09227655 -0.20562804 -0.12982626 -0.38409576 -0.04865627 0.45048866 0.08337206 0.3435151
0.63248205 0.30434197 -0.055338845 -0.30568844 -0.08547122 -0.289867 -0.21444866 0.06533168
0.00021842596 0.09854335 -0.14301431 0.08579524 -0.055814575 -0.005314445 0.062350508 0.09316238
-0.20382142 -0.21483202 -0.20833944 -0.22146831 0.17237285 -0.04024426 -0.32849067 0.60915434
0.38769162 0.15984473 0.2870945 -0.09188444 0.11455957 0.03535831 -0.08103292 -0.1304645
0.17268646 -0.35030895 -0.005523153 -0.25731775 -0.06765709 0.077628896 -0.2566726 -0.15244688
0.08513036 0.3497234 0.19476387 -0.25780532 -0.0066392208 -0.16527185 -0.61725956 -0.0029021576
0.22595033 -0.26046583 -0.294729 -0.2079033 -0.45194864 0.52232635 0.0943461 0.17032503
-0.40116414 -0.27320042 0.1893232 -0.058691893 0.33456787 -0.09538608 -0.029522792 -0.1010666
-0.2889606 -0.10743817 0.12616326 0.04932659 0.028979668 0.20399584 0.32161018 -0.11341508
-2.9898852e-06 0.009723625 -0.22220825 0.24711521 0.58874166 -0.3202358 0.3775172 -0.080915034
-0.24783896 -0.13321336 -0.4452209 0.21321553 -0.58505756 0.2698095 0.01886101 -0.38667837
-0.58972657 0.31709912 -0.022043642 -0.08593313 0.29859525 -0.3588079 0.029385643 0.55277324
0.05298329 0.2785605 0.2242843 0.3066042 0.13027383 -0.08208833 0.24426402 -0.2661404
0.41065523 -0.04507607 0.114562295 0.11797758 -0.611719 0.27674556 0.8531643 -0.2014014
00000000: cdc8 c03c cb56 5ebe e9ca 1cbe 8160 bebc
00000010: 47dd 35be f327 2abd 36c2 b63d fad9 96bd
00000020: fd5a 9c3d f1cb f23c d3f8 963e ea3f 2a3e
00000030: 69d0 eabd 0fc6 b6be 08c3 dd3d 3e9e ab3c
00000040: a35f 25bf a0b0 233e 22ec 92be 0f1a ab3e
00000050: 2862 1c3d 1f29 7ebe 87fa 94bd dfc4 ad3e
00000060: 196d 8bbb 4548 0abe 9907 523e 919d ab3e
00000070: 23b0 57be 35bd 7e3e e261 c1bc 3913 9bbe
00000080: 5398 023e c39a 11be 6d0f 2c3e 4dd3 56bd
00000090: 2f7c 91be b4db d03e 068f f8bd ed05 bcbe
000000a0: 4d21 9d3d 559d 7f3c 6f24 20be 98a4 823d
000000b0: 62ed e73c 9356 94bd 38b1 a73d cb2e 0f3d
000000c0: 3531 433e 2304 653d 6e8a 0abe 2593 813e
000000d0: b27e d63d 6306 edbc c181 693e 2827 de3d
000000e0: c6c3 2dbe 5317 b23e 21cc 383e e8f4 6b3e
000000f0: 08b7 c9bd 932d cabd cffe 943e 2438 383e
00000100: e4cc 5bbd 4ec7 413e 998c 96be 98c6 51be
00000110: cd34 adbe 0d84 603e 514c 99bc 9b63 b5bd
00000120: f10c 8e3e 6f80 3f3e 3a45 f83c bf7a 3dbe
00000130: 3597 ecbc 855d 043d 9f4c c53d b48f a23e
00000140: 943f ba3e a67e 64be 193c 833e 023a 3bbd
00000150: f834 4e3e 4158 52be 25a6 fb3d a30b 583d
00000160: 200c adbd 6a37 733e d4fc 993e 0816 523d
00000170: f02c 3f3e 263e f93c 89e1 703c f01c 803d
00000180: 3b31 b9bc f482 c23d f204 063e 077a 6ebe
00000190: b656 5b3e 5da1 edbe e724 e5bd fed4 4dbe
000001a0: fb68 a93e 1eb2 97be a74c 8bbd c4c0 62bd
000001b0: e7ad 043d b4b3 153e 93e0 1d3e 67d3 debd
000001c0: 7aec 793d 7cf6 773b e9b2 57be 53ca 40be
000001d0: db72 293e ea87 8c3e 4955 24be bc4f 943e
000001e0: cce6 613e b171 1fbb d14a 2b3e f620 f8bd
000001f0: f6e6 fc3d d682 debd bfe6 97bd c7f7 493e
00000200: 234c 91be 10e5 d1be 4e55 b6be a38e 533e
00000210: e0a3 17be 8c02 a1bd 8aa0 323c b91d adbe
00000220: 7dfb bcbd 2890 52be 2df1 04be 33a8 c4be
00000230: cc4b 47bd 73a6 e63e f8be aa3d 36e1 af3e
00000240: 58ea 213f b6d2 9b3e fcaa 62bd 3283 9cbe
00000250: 890b afbd 7369 94be 6e98 5bbe 9ecc 853d
00000260: 4609 6539 19d1 c93d 5872 12be 6ab5 af3d
00000270: d39d 64bd cc24 aebb 3f63 7f3d ebcb be3d
00000280: 90b6 50be edfc 5bbe ef56 55be 97c8 62be
00000290: 8282 303e 2ad7 24bd ee2f a8be 8af1 1b3f
000002a0: 847f c63e 56ae 233e 0dfe 923e e92d bcbd
000002b0: 359e ea3d e0d3 103d 96f4 a5bd 7c98 05be
000002c0: b8d4 303e b25b b3be 91fb b4bb 27bf 83be
000002d0: cd8f 8abd e6fb 9e3d 976a 83be 091b 1cbe
000002e0: d458 ae3d f20e b33e 2e70 473e 0fff 83be
000002f0: d28d d9bb 063d 29be b904 1ebf 2032 3ebb
00000300: 865f 673e c75b 85be b8e6 96be 9ae4 54be
00000310: d065 e7be 2eb7 053f 8738 c13d af69 2e3e
00000320: 6365 cdbe ede0 8bbe f1dd 413e e966 70bd
00000330: 7b4c ab3e c759 c3bd c8d9 f1bc 01fc cebd
00000340: a5f2 93be 8b08 dcbd f130 013e ae0a 4a3d
00000350: c566 ed3c 49e4 503e 17aa a43e 2a46 e8bd
00000360: d6a5 48b6 d74f 1f3c 8f8a 63be c50b 7d3e
00000370: c6b7 163f f2f5 a3be ef49 c13e c8b6 a5bd
00000380: 7fc9 7dbe 1569 08be fef3 e3be 2c55 5a3e
00000390: 55c6 15bf 7924 8a3e 6882 9a3c b5fa c5be
000003a0: 52f8 16bf d15a a23e de94 b4bc b5fd afbd
000003b0: 7ae1 983e abb5 b7be 29ba f03c 8c82 0d3f
000003c0: 0205 593d 7b9f 8e3e c9aa 653e 3afb 9c3e
000003d0: 8166 053e ed1d a8bd 5920 7a3e 8e43 88be
000003e0: 6741 d23e afa1 38bd a39f ea3d 3b9e f13d
000003f0: 9e99 1cbf 98b1 8d3e fa68 5a3f 2b3c 4ebe

encoder_lstm.bias_ih_l1 f4 [128]
0.02875152 -0.2140609 -0.2877172 -0.09525191 -0.12312337 0.16948056 0.14055538 0.06168838
-0.3618823 -0.05489785 0.18394727 -0.07798532 0.33634448 0.25545436 -0.14894682 -0.17348559
0.055687692 -0.107979126 -0.088003956 0.05305094 0.18999216 -0.09312228 -0.2887439 -0.32345662
0.34197798 0.0695638 -0.18355562 0.19846101 -0.264435 -0.26704744 -0.030646857 -0.11265547
0.023234176 -0.12481789 0.54065335 0.005892697 0.029825293 0.15537147 -0.03938348 0.024220528
0.5665088 -0.32249284 0.37095812 0.3103111 0.51370025 0.074610926 0.39765668 -0.21973847
-0.40187392 0.25208643 0.53504026 0.06732353 -0.084119365 0.001366999 0.20919302 -0.22288005
0.50857687 0.25924593 -0.1913528 0.2485972 0.57479006 0.06211732 -0.022925049 0.13935103
0.095111094 -0.16757719 -0.14107443 -0.23757112 -0.17382456 0.08910168 0.03297 -0.0814766
-0.33695516 -0.03238376 0.16503407 0.27981272 0.06785133 0.050990302 0.019583862 0.15793273
-0.06949927 0.06557299 -0.08283558 -0.02583232 0.090551466 0.35239476 0.08481267 -0.25830975
0.1412652 0.08164412 -0.39689296 -0.09065228 0.005344366 -0.024515115 0.032216623 -0.050013795
-0.2769976 -0.101265565 0.24680926 0.0367158 0.3359024 0.016749674 0.1353922 0.0652062
0.4101708 -0.18946536 -0.09777534 0.21958707 0.04650472 -0.14885296 -0.2179473 0.0928941
-0.2309569 0.14926042 0.1230901 0.4319963 0.20260347 0.18764724 0.4680002 -0.24623144
0.17166486 -0.017124802 0.12253806 0.23670278 -0.08306716 -0.018208634 0.1714841 -0.13181955
00000000: 4f88 eb3c c832 5bbe ab4f 93be 6f13 c3bd
00000010: 1b28 fcbd 508c 2d3e c0ed 0f3e f4ac 7c3d
00000020: a348 b9be 91dc 60bd ac5c 3c3e c4b6 9fbd
00000030: 5835 ac3e eaca 823e 8485 18be 35a6 31be
00000040: c718 643d 2924 ddbd 6b3b b4bd f14b 593d
00000050: 4e8d 423e e5b6 bebd 3ed6 93be 1b9c a5be
00000060: bd17 af3e 7777 8e3d 01f6 3bbe 5d39 4b3e
00000070: 0664 87be 71ba 88be 1e0f fbbc e9b7 e6bd
00000080: 9955 be3c 86a0 ffbd 4268 0a3f 8617 c13b
00000090: 2c54 f43c b319 1f3e 9250 21bd 216a c63c
000000a0: b906 113f c81d a5be 39ee bd3e 19e1 9e3e
000000b0: dc81 033f 9dcd 983d a899 cb3e 1f03 61be
000000c0: 6bc2 cdbe 7911 813e 66f8 083f ebe0 893d
000000d0: c646 acbd e02c b33a b236 563e ab3a 64be
000000e0: 1832 023f e2bb 843e fdf1 43be 4490 7e3e
000000f0: 7125 133f bb6e 7e3d 50cd bbbc 09b2 0e3e
00000100: 9bc9 c23d 5b99 2bbe d175 10be d845 73be
00000110: 11ff 31be f17a b63d 8d0b 073d 34dd a6bd
00000120: 6385 acbe d5a4 04bd b1fe 283e 9d43 8f3e
00000130: a3f5 8a3d 35db 503d 566e a03c 1eb9 213e
00000140: a255 8ebd 224b 863d b3a5 a9bd 4d9e d3bc
00000150: 0c73 b93d 166d b43e 44b2 ad3d 2d41 84be
00000160: d3a7 103e 0835 a73d 8e35 cbbe e7a7 b9bd
00000170: cb1f af3b ecd3 c8bc 94f5 033d 44db 4cbd
00000180: a1d2 8dbe 5264 cfbd 91bb 7c3e 4f63 163d
00000190: 66fb ab3e 9d36 893c 41a4 0a3e d48a 853d
000001a0: e801 d23e 3503 42be 703e c8bd 6fdb 603e
000001b0: bc7b 3e3d e96c 18be 942d 5fbe 433f be3d
000001c0: f77f 6cbe b9d7 183e aa16 fc3d 9e2e dd3e
000001d0: 4977 4f3e 9926 403e b99d ef3e 1824 7cbe
000001e0: eac8 2f3e 5049 8cbc 3cf5 fa3d 3762 723e
000001f0: 1d1f aabd 462a 95bc 8799 2f3e b4fb 06be
