W3-Design/checkpoints/epoch_15.pt (torch, 384725 bytes, 24 tensors)

encoder_cnn.0.weight f4 [32, 3, 3]
0	0xbe7daae4	-0.24772221
1	0xbdcbc383	-0.099494
2	0xbe8b1921	-0.2716761
3	0x3e6d1373	0.2315195
4	0xbe8281f8	-0.25489783
5	0x3e1d6521	0.15370609
6	0x3e09f198	0.13471067
7	0x3e2d0573	0.1689661
8	0x3dcacb21	0.09902025
9	0x3e5ecace	0.21757051
10	0x3e693461	0.22773887
11	0x3d82acc5	0.063806094
12	0xbe8614c5	-0.2618772
13	0xbe989bcf	-0.29806373
14	0xbb14c240	-0.002269879
15	0xbe58ed36	-0.21184239
16	0x3e4af105	0.19818504
17	0xbddd6850	-0.10810912
18	0x3e0c3acb	0.13694303
19	0x3e91fbec	0.28512514
20	0x3efaf95e	0.49018377
21	0x3e1bc8ee	0.15213367
22	0x3e862595	0.26200548
23	0xbea98860	-0.33111858
24	0xbe31e25d	-0.17371507
25	0x3dc72ad8	0.09724969
26	0xbdd707b3	-0.104995154
27	0xbe1917a8	-0.1495043
28	0x3d0c95bd	0.03432249
29	0xbe2fa92a	-0.17154375
30	0xbe119c4f	-0.14219783
31	0xbdb7e75c	-0.08979675
32	0xbd34e548	-0.044163972
33	0x3d5f5535	0.05452462
34	0x3e1e5997	0.15463863
35	0xbd85d155	-0.065340675
36	0xbd8e8477	-0.069588594
37	0x3e25b884	0.16183668
38	0xbdc12536	-0.094309255
39	0x3f0d737b	0.55254334
40	0xbd499ff5	-0.049224813
41	0x3edbd4be	0.42935747
42	0x3d22c494	0.039738253
43	0x3db151e6	0.08658199
44	0xbec6f26e	-0.38856834
45	0x3b8de9d5	0.0043308535
46	0xbde6e309	-0.11273772
47	0x3ed1f9a9	0.41010788
48	0xbe9a74bb	-0.30167183
49	0xbe88186d	-0.26581135
50	0x3dfc151d	0.123087145
51	0x3e1abb0f	0.1511042
52	0x3e637775	0.22213538
53	0xbe7e7781	-0.24850275
54	0xbd9a3791	-0.0753013
55	0xbe172b6c	-0.14762658
56	0x3eac935d	0.3370618
57	0x3e569a15	0.20957215
58	0x3e0be9b7	0.13663374
59	0xbde24147	-0.11047607
60	0xbd9d6233	-0.07684746
61	0x3e1464b2	0.14491537
62	0xbe7fa5f5	-0.24965651
63	0x3e36cd5f	0.1785178
64	0xbde43f53	-0.11144891
65	0x3e6d01de	0.23145244
66	0x3e6c6c80	0.23088264
67	0xbe99302e	-0.2991957
68	0xbef12bd4	-0.4710375
69	0xbdd5fc72	-0.10448541
70	0xbd8f0dea	-0.06985076
71	0x3ec8613e	0.3913669
72	0x3ce2e8df	0.027698932
73	0x3e1464b8	0.14491546
74	0xbd7e1d75	-0.06203981
75	0xbda56783	-0.08076384
76	0xbe80838e	-0.25100368
77	0x3eba911e	0.3643884
78	0xbe8b4623	-0.27201948
79	0x3e907fd4	0.28222525
80	0xbc00f16a	-0.007870058
81	0x3cc2bff9	0.02377318
82	0x3ebc2a8e	0.36751217
83	0x3cf05151	0.02933565
84	0x3e9fa0ac	0.3117727
85	0xbda04ed5	-0.07827536
86	0xbe9aa4d9	-0.30203894
87	0x3dac3004	0.08407596
88	0x3d32fe4d	0.04369955
89	0xbd4d16fd	-0.05007075
90	0xbce4f7ae	-0.027950134
91	0x3da1c271	0.07898415
92	0x3df146bc	0.1178107
93	0x3eb65ca7	0.35617563
94	0xbe40e385	-0.18836792
95	0xbe577be0	-0.21043348
96	0xbe4f2a34	-0.20230943
97	0x3e4750ca	0.19464412
98	0xbcedd914	-0.029034175
99	0xbde4f7c7	-0.11180072
100	0xbcb57e71	-0.022155019
101	0x3e3c36cb	0.18380277
102	0x3c039c66	0.008032894
103	0x3e9239e3	0.2855979
104	0xbd1f8e67	-0.038954165
105	0xbe8f3da5	-0.2797672
106	0xbeb18b27	-0.34676477
107	0xbd34f854	-0.044182137
108	0xbdc3d519	-0.095621295
109	0x3e913054	0.28357184
110	0x3e21bf65	0.15795667
111	0xbd687e30	-0.056760967
112	0xbea784dc	-0.3271855
113	0xbed4d22a	-0.41566592
114	0x3ec0ed20	0.37680912
115	0xbcaa078c	-0.020755552
116	0xbe41a94a	-0.18912235
117	0x3e14e4cc	0.14540404
118	0xbda09702	-0.078413025
119	0x3e24e2c1	0.16102125
120	0x3dca5fd4	0.09881559
121	0xbe4c5b5d	-0.19956727
122	0xbe38104e	-0.1797497
123	0xbc17314f	-0.009228065
124	0xbe05a729	-0.13052048
125	0xbe17a386	-0.14808473
126	0xbe16580b	-0.14682023
127	0xbe3d25bb	-0.18471424
128	0xbd89350e	-0.066995725
129	0x3ea4ec52	0.32211548
130	0xbd6daccc	-0.05802612
131	0xbe67b266	-0.22626647
132	0x3e1edb5a	0.15513363
133	0x3e3678c6	0.17819509
134	0xbe16179d	-0.14657445
135	0x3ea20b71	0.31649354
136	0x3e22a836	0.1588448
137	0xbe3981ef	-0.18115972
138	0xbeeab7e5	-0.45843425
139	0xbc4b93ea	-0.012425402
140	0xbe7ef417	-0.248978
141	0xbeeb5e62	-0.45970446
142	0xbdb77fe2	-0.089599386
143	0xbdf8796e	-0.12132536
144	0x3e0bdbb6	0.13658032
145	0xbe587867	-0.2113968
146	0xbe9ba723	-0.30400953
147	0x3e00f298	0.12592542
148	0xbd7fa84c	-0.06241636
149	0xbdea0c6b	-0.1142815
150	0x3e38e515	0.18056138
151	0xbe1e290c	-0.15445346
152	0x3e1ede62	0.1551452
153	0x3c8595d2	0.016306791
154	0x3e6c78f6	0.23093018
155	0x3c070cee	0.008242829
156	0x3d9e9586	0.07743363
157	0xbf054d82	-0.5207139
158	0x3e1a8728	0.1509062
159	0xbe5479a6	-0.2074953
160	0xbee5f2b5	-0.44911733
161	0xbe4265f1	-0.189842
162	0x3e4614bb	0.19343846
163	0x3dde63ce	0.1085888
164	0xbe75204d	-0.23938103
165	0xbe342149	-0.17590822
166	0xbef2128f	-0.47279784
167	0xbe24e2e5	-0.16102178
168	0x3dd8f26a	0.10593112
169	0xbe7af792	-0.24508503
170	0xbd9dccc4	-0.077050716
171	0xbe467d0b	-0.19383638
172	0x3dae3a8e	0.08507262
173	0x3d4dc712	0.050238676
174	0xbe538c09	-0.20658888
175	0xbeb6fee5	-0.35741344
176	0x3deb5941	0.11491633
177	0xbe9ce9bb	-0.30647072
178	0x3c747f28	0.014922895
179	0x3de958ac	0.11393866
180	0xbe2d2e33	-0.16912155
181	0xbe3961a4	-0.18103653
182	0xbe251bb6	-0.16123852
183	0xbe2b7ca9	-0.16746773
184	0x3e7417be	0.23837182
185	0x3cc17b4d	0.023618365
186	0x3e768a06	0.2407609
187	0x3e4fb4ac	0.20283765
188	0xbe406528	-0.18788588
189	0x3e8bfc77	0.27341053
190	0xbe275d9d	-0.16344304
191	0xbe058443	-0.13038735
192	0xbe573225	-0.21015222
193	0x3e3af6ac	0.1825816
194	0x3ce7ff50	0.028319985
195	0xbe454338	-0.19263923
196	0xbf0095b0	-0.50228405
197	0xbec8b66b	-0.39201674
198	0x3e69255b	0.22768156
199	0xbe9e9f93	-0.3098112
200	0x3e58afe5	0.21160848
201	0x3e51cd58	0.20488489
202	0x3e8563ae	0.26052612
203	0xbc8bdd9a	-0.017073441
204	0x3d3bd2d3	0.045855355
205	0xbdd9693a	-0.106157735
206	0xbe59e32a	-0.21278062
207	0x3db6efaf	0.08932435
208	0xbe9565c3	-0.291792
209	0xbe82418a	-0.25440627
210	0xbe35ac54	-0.17741519
211	0xbb5d5694	-0.0033773528
212	0xbdd482fc	-0.10376546
213	0x3d8eefce	0.06979333
214	0x3e36e0c9	0.17859186
215	0x3e700242	0.23438361
216	0x3e16f35e	0.14741275
217	0x3e7f3f86	0.24926576
218	0x3d49d454	0.049274758
219	0x3dfbe460	0.122994184
220	0x3d12e48c	0.03586249
221	0xbe40150a	-0.18758026
222	0xbd6c06b8	-0.057623595
223	0xbcc072dc	-0.02349227
224	0x3ca8ddea	0.02061363
225	0x3eee3241	0.46522716
226	0x3e509e93	0.20372991
227	0x3eec0678	0.46098685
228	0x3e6dc58d	0.23219891
229	0x3e600dd0	0.21880269
230	0xbccb2664	-0.02479858
231	0xbecbd0a1	-0.3980761
232	0xbd0faebf	-0.03507876
233	0x3e69878d	0.22805615
234	0xbee1907d	-0.44055548
235	0xbd0302cc	-0.03198509
236	0xbe333082	-0.17498973
237	0x3eb35538	0.35025954
238	0x3e4411c5	0.19147404
239	0xbe3c2843	-0.18374734
240	0x3eb68d72	0.3565479
241	0x3d0b873d	0.03406452
242	0xbda966c7	-0.08271556
243	0xbe617e10	-0.22020745
244	0xbbeecfb5	-0.007287944
245	0xbd95211c	-0.07281706
246	0xbdde01c0	-0.108401775
247	0xbdac22bc	-0.084050626
248	0x3e4fb608	0.20284283
249	0xbe0c354a	-0.13692203
250	0x3ea6f1ad	0.3260626
251	0x3da6ba5d	0.08141015
252	0x3e396e55	0.18108495
253	0xbd751f0e	-0.05984407
254	0xbcd46fda	-0.025932241
255	0xbd20f525	-0.039296288

encoder_cnn.0.bias f4 [32]
0	0xbe8d14b1	-0.2755485
1	0xbdf43daf	-0.11925828
2	0x3f87dfd1	1.0615178
3	0xbf8bbdc4	-1.0917287
4	0xbd1d2ab2	-0.038370796
5	0x3bb49fea	0.0055122273
6	0xbf54b6b9	-0.8309131
7	0xbe3cd8e6	-0.18442115
8	0xbe2a8e48	-0.16655838
9	0xbeaa63cb	-0.3327926
10	0xbdc40495	-0.095711865
11	0xbdb032cb	-0.08603438
12	0x3d068fa1	0.03285182
13	0xbf06b609	-0.52621514
14	0xbf3d8bbf	-0.7404136
15	0x3edf6541	0.43631938
16	0xbf38d3ae	-0.72198
17	0x3eaa7903	0.3329545
18	0x3d3b9bf6	0.045803033
19	0xbf23dabd	-0.64005643
20	0xbf1ef7a6	-0.6209663
21	0x3f2421fe	0.6411437
22	0xbc82dc9c	-0.015974335
23	0xbf1eec27	-0.6207909
24	0xbf00bad5	-0.50285083
25	0x3ec3ad17	0.38217995
26	0xbf2fba97	-0.6864409
27	0xbf4a551c	-0.79036117
28	0xbf4072d3	-0.7517521
29	0xbec344c3	-0.381384
30	0xbe5e1146	-0.21686277
31	0xbcdb43f3	-0.0267658

encoder_cnn.2.weight f4 [64, 32, 3]
0	0xbe1d6399	-0.15370025
1	0x3d1c6a98	0.038187593
2	0x3d63a94d	0.05558138
3	0x3e27daa4	0.16391999
4	0x3dd5a806	0.104324386
5	0x3e2308a1	0.1592126
6	0x3e8f7cca	0.28024894
7	0x3d993f47	0.07482772
8	0xbca413df	-0.020029007
9	0x3d721956	0.059106193
10	0xbe97544d	-0.29556504
11	0xbca28b3c	-0.019841783
12	0xbb5f57bd	-0.0034079396
13	0xbbe9815b	-0.007126016
14	0xbe1221ba	-0.14270678
15	0xbe855e94	-0.2604872
16	0xbe809ce1	-0.2511969
17	0xbe3beb86	-0.18351564
18	0x3e55b784	0.20870787
19	0x3c062f4f	0.00818999
20	0x3e81cb99	0.25350645
21	0xbe83575c	-0.25652587
22	0xbe614fbf	-0.22003077
23	0xbe9e41cb	-0.3090957
24	0x3e811ff8	0.25219703
25	0xbd6e2636	-0.05814191
26	0x3dfacddb	0.12246295
27	0x3e0d41f5	0.13794692
28	0xbc8369c1	-0.016041638
29	0x3df0b9eb	0.11754211
30	0xbda1aaae	-0.07893883
31	0x3d51b2cb	0.0511959
32	0xbc2d1551	-0.010564164
33	0x3ddb2969	0.10701258
34	0xbc725fd3	-0.014793354
35	0xbe5d65f8	-0.21620929
36	0xbd9e2f88	-0.077239096
37	0xbe860ff3	-0.26184043
38	0xbe3bab74	-0.18327123
39	0x3dd6028e	0.10449706
40	0x3d742b4d	0.059611607
41	0x3d82f3de	0.0639417
42	0x3df9e8a5	0.122025765
43	0xbd855569	-0.06510431
44	0x3e036f47	0.12835418
45	0x3e50d6ed	0.20394488
46	0x3e3a2257	0.18177162
47	0xbdf47bf0	-0.11937702
48	0x3e494d59	0.19658412
49	0x3e3b5c78	0.18296993
50	0x3e1c1e40	0.15245914
51	0x3e4bd33f	0.19904803
52	0x3d90793d	0.07054374
53	0xbe0f8e77	-0.1401919
54	0xbe67d053	-0.22638063
55	0xbe2c9299	-0.16852798
56	0xbe5c217b	-0.21497147
57	0xbdf43dc1	-0.11925841
58	0xbe2be51a	-0.16786614
59	0x3db60302	0.088872924
60	0x3db2fd66	0.08739738
61	0xbdb02077	-0.08599942
62	0x3e0c23a4	0.13685471
63	0xbcdbf250	-0.026848942
64	0xbd001e61	-0.03127897
65	0xbe6872e6	-0.2270008
66	0x3e3475f1	0.17623116
67	0xbd71328a	-0.05888609
68	0x3ddd3a76	0.10802166
69	0xbe0b4dd1	-0.13603903
70	0xbe1c1bca	-0.15244976
71	0x3a9b4692	0.0011846593
72	0x3eb803fd	0.35940543
73	0xbc0cbad9	-0.00858947
74	0x3eb94a21	0.36189368
75	0x3ce4227c	0.027848475
76	0x3deab9ae	0.11461197
77	0xbe4f876f	-0.20266508
78	0xbde29396	-0.11063306
79	0x3d245cdf	0.04012763
80	0xbc2e8d94	-0.010653872
81	0x3defd74d	0.11710987
82	0xbce9a24a	-0.028519768
83	0x3d65647b	0.05600403
84	0xbe5c6f74	-0.21526891
85	0xbec111d7	-0.37708923
86	0xbe080ef1	-0.1328695
87	0x3e36dc5d	0.178575
88	0xbe313047	-0.17303573
89	0x3d8e8097	0.0695812
90	0x3eb6575d	0.35613528
91	0x3d875f7e	0.066100106
92	0xbbed79af	-0.007247172
93	0x3cfb2418	0.03065686
94	0xbd08bfb1	-0.033385936
95	0xbbb56367	-0.0055355313
96	0xbd6ba59c	-0.057530984
97	0xbc5aa83b	-0.013345773
98	0x3d999175	0.07498447
99	0xbda66853	-0.08125367
100	0xbd74cd82	-0.0597663
101	0xbce43769	-0.027858453
102	0xbeffd37c	-0.49966037
103	0xbe759ebb	-0.23986332
104	0xbe3e55f0	-0.1858747
105	0xbd83a91f	-0.06428742
106	0x3cefef78	0.029288992
107	0xbdba4320	-0.09094834
108	0xbea28fec	-0.3175043
109	0xbe93b8d8	-0.28851962
110	0xbe5d4c92	-0.2161124
111	0xbd380da3	-0.04493488
112	0xbbbbf5ad	-0.005736074
113	0x3d91665b	0.07099601
114	0x3d708e93	0.05872972
115	0xbe0296e0	-0.12752867
116	0xbe42def3	-0.19030361
117	0xbe777282	-0.24164775
118	0x3d9f4ecf	0.077787034
119	0x3c1d0191	0.009582893
120	0x3dc3cb39	0.09560246
121	0xbe4b407b	-0.19848816
122	0xbd461e1e	-0.048368566
123	0x3cc5c898	0.024143502
124	0x3d198dad	0.03748863
125	0xbc7bb009	-0.015361794
126	0xbd53a7ec	-0.051673815
127	0xbd9b9def	-0.07598483
128	0xbd9d1058	-0.07669133
129	0xbeaf714f	-0.34266135
130	0xbe385bfe	-0.18003842
131	0xbef4708f	-0.47742125
132	0xbbc8d624	-0.006129043
133	0xbc814fea	-0.015785176
134	0xbd32a7a9	-0.043616924
135	0xbd12e032	-0.03585834
136	0x3c8334d6	0.016016405
137	0x3d235047	0.03987148
138	0xbdfa8c01	-0.12233735
139	0xbd5a3583	-0.05327369
140	0xbe134637	-0.14382254
141	0xbe2cbed3	-0.16869669
142	0xbd9e48f7	-0.07728761
143	0xbe2a2688	-0.16616261
144	0xbe359a56	-0.17734656
145	0x3d45a4cc	0.048252866
146	0xbd7e2fe5	-0.062057395
147	0xbea699b7	-0.3253915
148	0xbeb8fbc7	-0.3612959
149	0xbeb22118	-0.34790874
150	0x3b54e5cb	0.00324856
151	0x3cf64546	0.030062329
152	0x3d3547f5	0.044258077
153	0x3ddc163e	0.1074643
154	0x3d883718	0.06651133
155	0x3d966c63	0.07344892
156	0xbcf49eee	-0.02986094
157	0xbc1bc99d	-0.009508518
158	0xbcf541e1	-0.02993864
159	0xbe9a2c30	-0.30111837
160	0xbe8bb982	-0.2728997
161	0xbe8ebb3c	-0.27877223
162	0xbcae2662	-0.021258537
163	0xbde38e74	-0.11111155
164	0xbdf1bc8a	-0.11803539
165	0x3d328f1c	0.04359351
166	0xbd1612b3	-0.036638927
167	0x3cc031d2	0.023461256
168	0xbd054a2d	-0.032541443
169	0x3d5a090b	0.05323128
170	0x3d4bf02c	0.049789593
171	0xbe7f1118	-0.24908864
172	0x3d20c695	0.039251883
173	0x3d889368	0.066687405
174	0xbd380008	-0.044921905
175	0xbd35656e	-0.044286184
176	0xbe411eb2	-0.18859366
177	0xbe44d7c3	-0.19222932
178	0xbdab2051	-0.08355773
179	0xbd96ce16	-0.073635265
180	0xbe347c73	-0.17625599
181	0xbd9bd529	-0.076090164
182	0x3d88635a	0.06659575
183	0xbc2ff0e6	-0.010738587
184	0xbdd7d258	-0.10538167
185	0xbc29d221	-0.01036504
186	0xbe0b06b5	-0.13576777
187	0xbde02d95	-0.10946194
188	0xbe366c03	-0.1781464
189	0xbe2cf3de	-0.16889903
190	0xbe2efc44	-0.17088419
191	0xbe62b75a	-0.22140256
192	0x3ea08c2d	0.31356946
193	0x3e34f10a	0.17670074
194	0xbdcde098	-0.100526035
195	0x3e265938	0.16244972
196	0x3eb9e943	0.36310777
197	0xbe66550f	-0.22493385
198	0xbde98008	-0.11401373
199	0xbe7e1465	-0.24812467
200	0xbecf10c1	-0.4044247
201	0x3c9e6529	0.019335346
202	0xbe3c96da	-0.1841692
203	0xbe0e4fa4	-0.13897568
204	0xbe7e3669	-0.24825443
205	0xbedbc8e6	-0.4292671
206	0xbf6013de	-0.87530315
207	0xbcf226d9	-0.02955954
208	0x3f0b08c0	0.54310226
209	0xbdf29d81	-0.11846448
210	0xbe28d2ee	-0.16486713
211	0x3e86215b	0.26197323
212	0xbd158e46	-0.036512636
213	0x3d6cf592	0.05785138
214	0x3e2a8497	0.16652142
215	0xbee1a44e	-0.44070667
216	0x3db569fe	0.08858107
217	0xbe53c4c2	-0.20680526
218	0xbda3f774	-0.08006182
219	0x3e7a3ad9	0.24436511
220	0xbe09f7f3	-0.13473491
221	0xbe84daff	-0.2594833
222	0xbd52f137	-0.05149957
223	0x3dd2b842	0.10289051
224	0xbe00f1d5	-0.12592252
225	0xbd85afda	-0.06527682
226	0x3dc269e3	0.094928525
227	0xbe9d4ea2	-0.30724055
228	0xbe8d2b16	-0.27571934
229	0xbe00c28e	-0.12574217
230	0xbdd0a90b	-0.101884924
231	0xbeeba904	-0.46027386
232	0xbe86c023	-0.26318464
233	0xbea3594a	-0.3190406
234	0x3ecdac7a	0.40170652
235	0x3d9e7397	0.07736891
236	0xbe8e2170	-0.27759886
237	0xbd432471	-0.047642175
238	0x3c8878df	0.016659198
239	0xbea23276	-0.31679124
240	0x3e70ab91	0.23502947
241	0xbb559309	-0.003258886
242	0xbec9e02d	-0.39428845
243	0x3e0e7b84	0.13914305
244	0xbd4b4b08	-0.049632102
245	0xbe477def	-0.19481634
246	0xbedf52ee	-0.43617958
247	0xbee0e290	-0.43922853
248	0xbe1b0134	-0.15137178
249	0xbe44766b	-0.19185798
250	0x3e3aa561	0.1822715
251	0xbc519a5a	-0.012793148
252	0x3e910f71	0.28332093
253	0x3e2d70d8	0.16937578
254	0xbe84741a	-0.25869828
255	0xbe42fbc2	-0.1904135

encoder_cnn.2.bias f4 [64]
0	0xbe265d10	-0.16246438
1	0xbe15a8b7	-0.14615141
2	0xbd2f7743	-0.042838346
3	0x3b244b50	0.0025069304
4	0x3e329418	0.17439306
5	0x3e129a8a	0.14316764
6	0xbe83d6e7	-0.25749895
7	0xbb9daa89	-0.004811589
8	0xbe419ab0	-0.18906665
9	0xbc81c6eb	-0.015841922
10	0x3dd05b33	0.10173645
11	0xbe40c942	-0.18826774
12	0x3d99ced4	0.075101525
13	0xbde289b4	-0.11061421
14	0xbe21d932	-0.1580551
15	0xbd183d94	-0.0371681
16	0x3e55f182	0.20892909
17	0x3d3f8c1a	0.04676447
18	0xbe1f0250	-0.15528226
19	0xbdb45fc1	-0.08807326
20	0xbe12c0da	-0.1433138
21	0x3e0c09b3	0.13675575
22	0x3e66f058	0.22552621
23	0x3ea95d94	0.33079207
24	0xbe2bd674	-0.16781026
25	0x3d1f1545	0.038838644
26	0xbe82399c	-0.25434577
27	0xbe097bce	-0.13426134
28	0x3e4a5c0c	0.19761676
29	0xbdfbfa94	-0.12303653
30	0xbe294d67	-0.16533433
31	0xbeafbf69	-0.34325722
32	0xbe2778d0	-0.1635468
33	0x3dc3b843	0.095566295
34	0x3e386a36	0.18009266
35	0xbe175a5d	-0.14780565
36	0xbdfb944e	-0.12284146
37	0xbea18e42	-0.31553847
38	0x3e4011ff	0.18756865
39	0xbae0fa56	-0.001716445
40	0xbe440288	-0.1914159
41	0xbeeefa3d	-0.46675292
42	0x3e2019f6	0.15634903
43	0xbe0960fa	-0.134159
44	0xbd9eba9e	-0.07750438
45	0xbec0c293	-0.37648448
46	0xbe51b6fe	-0.20479962
47	0xbe2a0344	-0.16602808
48	0xbe781dde	-0.24230143
49	0x3e4af4d5	0.19819959
50	0xbeb480b4	-0.35254443
51	0xbec27fa3	-0.37988004
52	0xbe8e537e	-0.27798074
53	0xbdb57cb3	-0.08861675
54	0xbd9a7aa2	-0.075429216
55	0x3de3673a	0.11103673
56	0xbd65587a	-0.05599258
57	0xbe1fe746	-0.15615568
58	0xbe11c3a6	-0.1423479
59	0xbe028728	-0.1274687
60	0xbe58e6fc	-0.21181864
61	0x3e696075	0.22790702
62	0xbea4b407	-0.321686
63	0xbe60edf4	-0.21965772

encoder_lstm.weight_ih_l0 f4 [128, 64]
0	0x3ea766ae	0.32695526
1	0x3d48d84c	0.0490344
2	0x3e09b184	0.13446623
3	0xbda4d740	-0.08048868
4	0x3ea276eb	0.31731352
5	0x3e6664e0	0.22499418
6	0x3cb7872c	0.022403322
7	0x3e6406ce	0.22268221
8	0x3e922a4c	0.28547895
9	0x3d59abfe	0.05314254
10	0x3e500914	0.20315963
11	0xbe9973ed	-0.29971257
12	0x3e5126b6	0.20424923
13	0xbe25ac5e	-0.16179034
14	0x3ccbbb77	0.024869664
15	0x3e9066b1	0.28203347
16	0x3e986977	0.29767963
17	0xbd2e2b9c	-0.042522058
18	0xbd967080	-0.073456764
19	0x3c56eb6b	0.013117651
20	0xbc4cb5d6	-0.012494525
21	0x3d378769	0.04480687
22	0x3f3c0d15	0.7345746
23	0xbf26c071	-0.6513739
24	0x3ee9c5e2	0.45658785
25	0x3e5a35ea	0.21309629
26	0xbe8cd6ff	-0.2750778
27	0x3e1a9b1d	0.15098234
28	0xbe83ee4d	-0.25767747
29	0xbdccf1fa	-0.10007091
30	0x3e4abfae	0.19799682
31	0x3e182e7e	0.14861485
32	0x3d977495	0.07395283
33	0x3e8d5834	0.27606356
34	0xbd88c8e9	-0.066789456
35	0x3d98d3b5	0.07462255
36	0x3f0e203d	0.5551794
37	0xbc8791db	-0.016549041
38	0x3e0f86ff	0.1401634
39	0xbe01c596	-0.1267303
40	0x3d80daeb	0.06291755
41	0x3e4e9fb8	0.20178115
42	0x3d1fc8cd	0.039009858
43	0x3e10c065	0.14135893
44	0xbe71fa19	-0.23630561
45	0x3e84366f	0.2582278
46	0xbcf79af4	-0.030225255
47	0x3e6b4c10	0.22978234
48	0x3eab64c5	0.3347532
49	0x3b888d2c	0.0041672196
50	0x3e35a078	0.17736995
51	0x3d8b3aaa	0.06798299
52	0x3e3f057a	0.18654433
53	0xbd199f03	-0.03750516
54	0x3e16536e	0.14680263
55	0xbe3a35d4	-0.18184596
56	0xbaeb392f	-0.0017946119
57	0xbe322380	-0.17396355
58	0xbd6312c7	-0.05543783
59	0xbd2bc367	-0.041934397
60	0x3ba4e3da	0.005032045
61	0x3e093466	0.13398895
62	0xbdb565b5	-0.0885729
63	0xbde20ead	-0.110379554
64	0xbe261ee0	-0.16222715
65	0x3c583f98	0.013198756
66	0xbe8adc08	-0.27120996
67	0xbddb9301	-0.10721398
68	0x3de260ce	0.1105362
69	0xbe387d0a	-0.18016449
70	0x3cbec5f2	0.023287747
71	0x3e4c0f10	0.19927621
72	0x3debd356	0.115149185
73	0x3e20b939	0.15695657
74	0x3c6c4e72	0.014423
75	0xbdaf81b3	-0.0856966
76	0x3d6f18de	0.058373325
77	0xbd4c87a8	-0.04993406
78	0x3ddb602b	0.10711702
79	0x3e6dd588	0.23225987
80	0x3eb15aed	0.34639683
81	0x3da2e83a	0.0795445
82	0xbe5b5d3c	-0.21422285
83	0xbd448402	-0.047977455
84	0x3e53c36e	0.2068002
85	0x3e97d548	0.29654908
86	0xbe8b311f	-0.27185914
87	0x3d3e8428	0.046512753
88	0x3e578a87	0.21048938
89	0xbe9b59a9	-0.30341843
90	0x3dcbd5ff	0.09952926
91	0x3dd59994	0.10429683
92	0x3e5cb412	0.21553066
93	0xbd68ae88	-0.05680707
94	0xbf0ac030	-0.54199505
95	0x3db174dc	0.08664867
96	0x3e48014a	0.19531742
97	0x3e22e58e	0.1590788
98	0xbd3e9a61	-0.046533946
99	0xbdb550cd	-0.08853302
100	0xbe8395b4	-0.25700152
101	0xbdca4c34	-0.09877816
102	0x3eb0997c	0.344921
103	0x3b22f591	0.0024865607
104	0xbd69824d	-0.05700903
105	0x3d1d5fa5	0.03842129
106	0x3e6618af	0.22470354
107	0xbdca2f01	-0.098722465
108	0x3edcee70	0.43150663
109	0x3e8a8e35	0.2706162
110	0x3e9ac07a	0.30224973
111	0xbd00b806	-0.0314255
112	0xbe220fd4	-0.1582635
113	0xbc32247e	-0.010872958
114	0xbd4ed562	-0.050496466
115	0x3e37f10a	0.17963043
116	0xbe28e91b	-0.16495173
117	0xbd8b9adb	-0.06816646
118	0xbd5f1084	-0.05445911
119	0x3de4fe94	0.111813694
120	0x3d6b0ed8	0.057387203
121	0x3d08fa52	0.03344185
122	0x3e0c7b81	0.13718988
123	0xbe1bd702	-0.15218738
124	0x3d93626c	0.07196507
125	0xbc9e9123	-0.019356316
126	0xbedb1718	-0.42791057
127	0xbe4173d8	-0.18891847
128	0xbd456708	-0.04819396
129	0xbd824f3f	-0.06362771
130	0x3e655995	0.22397454
131	0xbd1f3bc7	-0.038875367
132	0x3e8c5545	0.27408805
133	0x3d948bfe	0.07253264
134	0x3d973884	0.073838264
135	0x3d2be5b8	0.041967124
136	0xbd8700e9	-0.065919705
137	0x3e1040f2	0.14087275
138	0x3df31fce	0.11871301
139	0xbd729acc	-0.059229657
140	0xbec71fb1	-0.38891366
141	0xbd9a7c57	-0.07543247
142	0x3d6ba53a	0.05753062
143	0x3df7cad5	0.12099234
144	0x3e1e5ef6	0.15465912
145	0x3e5b9640	0.21444035
146	0xbd3a80e0	-0.04553306
147	0x3e551857	0.20810066
148	0x3deb401e	0.11486839
149	0xbcefb9f1	-0.029263468
150	0x3da0c8e0	0.07850814
151	0xbe91cc3a	-0.28476125
152	0xbe1a8562	-0.15089944
153	0x3c3090b8	0.010776691
154	0x3e2c38af	0.16818498
155	0x3b549284	0.0032435963
156	0x3d3f9bb9	0.046779368
157	0x3dff311f	0.12460541
158	0xbeb7cd1b	-0.3589867
159	0xbb9e9485	-0.0048394823
160	0xbe4730b3	-0.19452171
161	0xbcc9d3d3	-0.024637138
162	0x3ceea67f	0.029132126
163	0x3ce1d7c1	0.0275687
164	0x3d24be15	0.04022034
165	0xbd722a07	-0.05912211
166	0xbe10af21	-0.14129306
167	0x3cb1d229	0.021706657
168	0x3eb3a4b1	0.35086587
169	0x3dbfb9a4	0.0936158
170	0x3cd4f234	0.025994398
171	0x3dca7715	0.09885994
172	0x3e8c10a3	0.27356443
173	0xbf1ab757	-0.60436004
174	0x3e3876b3	0.1801403
175	0xbdedd812	-0.11613478
176	0x3d2c31dc	0.042039737
177	0x3dfaab49	0.12239701
178	0x3e87922a	0.26478702
179	0x3da6dd1b	0.08147641
180	0xbdc128b1	-0.094315894
181	0xbd2ae316	-0.041720472
182	0x3eb1b95a	0.34711725
183	0x3e2aa4fc	0.16664499
184	0x3b581ad1	0.0032974968
185	0xbe5f137e	-0.2178478
186	0x3c2e828b	0.010651241
187	0xbcfd0c93	-0.030889785
188	0xbe046805	-0.12930305
189	0xbe339b65	-0.17539747
190	0x3dd9eddd	0.10641072
191	0xbdb7d284	-0.089756995
192	0xbe81a03d	-0.25317565
193	0x3e71f0c9	0.23627008
194	0x3df23b77	0.11827748
195	0x3d4d47a1	0.05011714
196	0x3db66a45	0.08906988
197	0xbe4bcdb9	-0.19902696
198	0xbd9de39f	-0.07709431
199	0xbe3d6484	-0.18495375
200	0x3bc696af	0.0060604434
201	0x3d1a0d24	0.037610188
202	0xbde87c54	-0.11351839
203	0x3ee13bda	0.43990976
204	0x3eb4e8d3	0.3533388
205	0xbdc86d79	-0.09786505
206	0x3e1a1c7d	0.1504993
207	0x3d8bf084	0.06832984
208	0xbe7f8a63	-0.24955134
209	0x3e9a31ce	0.30116123
210	0xbc7e330c	-0.0155151
211	0x3de2125a	0.110386565
212	0x3c71f17e	0.014767049
213	0x3ecf0c9a	0.40439302
214	0x3ec72f39	0.38903216
215	0x3d961403	0.07328036
216	0x3ee1d784	0.44109738
217	0xbe7fce5c	-0.24981064
218	0xbe009ec4	-0.12560564
219	0x3de4943e	0.111610875
220	0xbd3d02e2	-0.046145327
221	0x3e00181c	0.12509197
222	0xbe309372	-0.17243746
223	0x3db35d53	0.087580346
224	0xbe8c3c16	-0.27389592
225	0xbebf7dfc	-0.37400806
226	0x3dae4fa7	0.08511286
227	0xbd454349	-0.04815987
228	0x3ccb7367	0.024835302
229	0xbe768069	-0.24072422
230	0xbe5b0164	-0.21387249
231	0x3d98ab1e	0.07454513
232	0x3e4a9d4a	0.19786564
233	0x3e20206f	0.15637372
234	0x3df7ebbb	0.12105509
235	0x3eb2e876	0.3494298
236	0xbdcc04dc	-0.09961864
237	0x3eac097d	0.3360099
238	0x3d8101c0	0.06299162
239	0x3d8c1e62	0.068417326
240	0x3e132a8a	0.14371696
241	0x3e1507c5	0.14553745
242	0xbd391607	-0.045187023
243	0x3cfe4a2c	0.031041227
244	0x3e2be5f4	0.16786939
245	0x3ce5480b	0.027988454
246	0xbd6a391c	-0.05718337
247	0x3d22c0c1	0.039734606
248	0x3d96f679	0.0737123
249	0x3daf96c1	0.08573676
250	0x3e8cc1bd	0.2749156
251	0xbdb4692e	-0.08809124
252	0xbe27fb34	-0.1640442
253	0xbdeefb2d	-0.11669002
254	0xbede592c	-0.43427408
255	0xbe631ed7	-0.22179733

encoder_lstm.weight_hh_l0 f4 [128, 32]
0	0x3dd420cd	0.10357819
1	0x3dda0b9c	0.106467456
2	0xbe738602	-0.23781589
3	0x3f1768f8	0.59144545
4	0x3e77cbed	0.24198885
5	0xbdcc2114	-0.09967247
6	0x3cf60f18	0.030036494
7	0xbe157a4f	-0.14597438
8	0xbd48e436	-0.049045764
9	0x3ed0a6f9	0.4075239
10	0x3e4f0162	0.20215371
11	0xbefe6cd5	-0.49692407
12	0xbc396e5c	-0.011317816
13	0xbdfb0e04	-0.12258533
14	0xbe3c43d5	-0.18385251
15	0x3d2a1a00	0.0415287
16	0x3dbbee1b	0.091762744
17	0xbea2474b	-0.31695017
18	0x3e3ae3db	0.18250982
19	0xbe11595a	-0.14194241
20	0x3ee8eada	0.45491678
21	0x3e6a9180	0.22907066
22	0x3ecc239b	0.39870915
23	0xbce4e7e5	-0.027942607
24	0xbe3f2f52	-0.18670395
25	0xbf80a04e	-1.0048921
26	0xbdf1ad0e	-0.11800586
27	0xbe1789b4	-0.14798623
28	0x3e2e55f9	0.17024983
29	0x3f1e6562	0.6187345
30	0xbf09a092	-0.53760636
31	0xbf0f1c5d	-0.55902654
32	0xbde0a17a	-0.10968299
33	0x3e350926	0.17679271
34	0xbf0df845	-0.55456954
35	0x3ed9584c	0.42450178
36	0x3e5ac1b6	0.21362957
37	0xbc169e6e	-0.009193046
38	0x3d46a004	0.048492447
39	0xbe4192d7	-0.18903671
40	0x3e9f4220	0.31105137
41	0xbc60a680	-0.013711572
42	0x3d9fec01	0.07808686
43	0xbd2420d9	-0.04007039
44	0x3cde0557	0.027102156
45	0x3f32e207	0.6987614
46	0x3e891037	0.26770183
47	0x3dd99d79	0.10625739
48	0xbd11defc	-0.035613045
49	0x3e5a506d	0.21319743
50	0x3e791f55	0.24328358
51	0xbe0d1c8a	-0.13780418
52	0xbd84225c	-0.06451866
53	0xbd2e99f6	-0.042627297
54	0xbe027bb1	-0.12742497
55	0xbd0f6fdd	-0.03501879
56	0x3da1a2d8	0.07892388
57	0x3e2d567e	0.16927525
58	0xbcb74dfa	-0.02237605
59	0x3daac72f	0.083387725
60	0x3e2dc7df	0.16970776
61	0xbe38905e	-0.18023822
62	0xbd128e7e	-0.035780422
63	0xbc694ab9	-0.014239007
64	0xbeaba157	-0.3352153
65	0x3e6479e3	0.22312121
66	0xbd78e5a4	-0.060765877
67	0xbe76cf97	-0.24102627
68	0x3e127abe	0.14304635
69	0x3e2c8e84	0.1685124
70	0x3e0c8acd	0.13724823
71	0x3f02173c	0.508167
72	0x3e6586eb	0.22414748
73	0xbd8748e2	-0.06605698
74	0xbec3c3c9	-0.3823531
75	0xbdca04e3	-0.09864213
76	0x3edc7a30	0.43061972
77	0x3e8b25e8	0.27177358
78	0xbe9ff93f	-0.31244847
79	0xbce8b339	-0.028405773
80	0xbe7f4dce	-0.24932024
81	0x3ea52255	0.32252756
82	0xbf080289	-0.5312887
83	0xbe1cca29	-0.15311493
84	0xbda86a07	-0.08223348
85	0xbf024a05	-0.50894195
86	0xbe89deca	-0.26927787
87	0xbea036a4	-0.31291687
88	0x3ebf86eb	0.37407622
89	0x3dcc078b	0.09962376
90	0xbf28dcee	-0.6596211
91	0xbdb3bbc3	-0.08776047
92	0xbe5b6333	-0.2142456
93	0xbdfe6a7b	-0.12422653
94	0xbf04cf99	-0.5187927
95	0x3df7f41d	0.12107108
96	0xbed88201	-0.42286685
97	0xbf04216c	-0.516135
98	0xbd43cdbd	-0.04780363
99	0x3f0ae7cd	0.5425995
100	0xbe5528db	-0.20816366
101	0xbd6361e8	-0.055513293
102	0xbe9224d3	-0.2854372
103	0x3f569211	0.8381663
104	0xbf2003fc	-0.6250608
105	0xbe540083	-0.2070332
106	0xbe890013	-0.2675787
107	0xbdd58cc6	-0.10427241
108	0x3ece19a6	0.40253943
109	0x3e9620db	0.29321942
110	0xbecc3e45	-0.39891258
111	0xbe5ca3bc	-0.21546835
112	0x3f083f4e	0.53221595
113	0xbe1df0cd	-0.1542389
114	0xbebc8d43	-0.36826524
115	0xbeca67c4	-0.39532292
116	0xbdeccba8	-0.11562282
117	0xbf2d8d51	-0.67793757
118	0xbf02be83	-0.5107195
119	0xbf13cdb2	-0.5773574
120	0x3f5e8d61	0.8693448
121	0x3eda6bc9	0.4266036
122	0xbf48a2a0	-0.78373146
123	0xbdda8815	-0.10670487
124	0xbe08eff5	-0.13372786
125	0x3f0850c6	0.5324825
126	0x3f0acc85	0.5421832
127	0xbe4ca470	-0.19984603
128	0x3f03ed31	0.515338
129	0xbdc421cd	-0.095767595
130	0x3eda4ee0	0.42638302
131	0x3e85c34b	0.2612556
132	0x3e5a20f6	0.21301636
133	0xbea9c0e1	-0.33154967
134	0xbe4c58f5	-0.1995581
135	0x3c54a493	0.012978691
136	0x3e9bbb74	0.30416453
137	0xbee2dd52	-0.4430948
138	0x3ebc03b8	0.36721587
139	0x3f17fe26	0.59372175
140	0xbe237b2e	-0.15964958
141	0xbcac79f4	-0.021054246
142	0x3edfda12	0.43721062
143	0xbf17d119	-0.5930343
144	0x3e6aaa21	0.22916462
145	0x3c3d5ba0	0.01155749
146	0x3ed787ea	0.42095882
147	0xbf07abb0	-0.5299635
148	0x3e8da69d	0.27666178
149	0x3e82c829	0.25543335
150	0xbe6ae007	-0.22937022
151	0x3dc76f2b	0.097380005
152	0x3db546d4	0.088514
153	0x3db9d88f	0.090745084
154	0x3d5563db	0.052097183
155	0xbe18896a	-0.1489617
156	0x3f0d8d58	0.552938
157	0x3a042b7d	0.00050418806
158	0xbc116906	-0.008875137
159	0xbe5e711b	-0.21722834
160	0x3e1726b5	0.1476086
161	0x3e14101a	0.14459267
162	0x3eda706e	0.42663902
163	0xbe981250	-0.2970147
164	0x3e7b45a2	0.24538282
165	0xbd85e665	-0.06538085
166	0xbe6b5d81	-0.22984888
167	0xbe347f48	-0.17626679
168	0x3eb98f6a	0.3624223
169	0x3dc42327	0.09577017
170	0x3eddcb28	0.43319058
171	0x3cde775e	0.027156528
172	0x3e5e3a6d	0.21701975
173	0xbe0c5459	-0.13704051
174	0x3eebfd0d	0.460915
175	0xbe8b33d8	-0.2718799
176	0xbdf771d9	-0.120822616
177	0x3e1919a2	0.14951184
178	0xbd2fb30a	-0.042895354
179	0x3efedc24	0.4977733
180	0x3e7e90d7	0.2485994
181	0x3eb2c1bd	0.34913436
182	0x3ee07461	0.4383879
183	0x3f0b40e2	0.5439588
184	0xbe4b712c	-0.1986739
185	0x3df2c6ab	0.11854299
186	0x3f00ce85	0.50315124
187	0xbe96eae3	-0.2947608
188	0x3e794308	0.24341977
189	0xbdbe1b73	-0.09282579
190	0xbdf276d1	-0.11839069
191	0x3e22ea90	0.15909791
192	0x3df7db92	0.121024266
193	0xbec9d7ac	-0.39422357
194	0x3f1d8de1	0.61544615
195	0x3e8df199	0.27723387
196	0x3dca6c96	0.098839924
197	0x3def6608	0.11689383
198	0x3f55085b	0.83215874
199	0x3cd1865d	0.025576765
200	0xbe8eaca5	-0.27866092
201	0x3e0115f5	0.12606032
202	0xbe0b307c	-0.13592714
203	0xbefd6da9	-0.49497727
204	0x3e3625f5	0.17787917
205	0x3e95c03f	0.29248235
206	0xbd75f03f	-0.06004357
207	0xbf12487c	-0.5714185
208	0xbdc07019	-0.09396381
209	0xbf1f143b	-0.62140244
210	0x3cbbc3ee	0.022920575
211	0xbe58606b	-0.2113053
212	0xbe05a5a0	-0.13051462
213	0x3e98da31	0.29853967
214	0x3e920963	0.28522786
215	0xbe375ff9	-0.17907704
216	0x3e056952	0.13028458
217	0xbddf46f6	-0.109022066
218	0x3dda8a7d	0.10670946
219	0xbe3fd71b	-0.187344
220	0xbe0e12ff	-0.13874434
221	0x3dcfdcbb	0.10149523
222	0xbd6b1d7c	-0.057401165
223	0x3e5a1b1b	0.21299402
224	0xbc070a17	-0.008242152
225	0x3db09dd8	0.08623856
226	0xbe04501f	-0.12921189
227	0xbdc4f5aa	-0.09617169
228	0x3e419a34	0.1890648
229	0xbee4bd2b	-0.44675574
230	0xbda8a8c5	-0.08235315
231	0x3ee6e305	0.45095077
232	0xbe165728	-0.14681685
233	0xbed5b5e5	-0.41740337
234	0x3e3824a6	0.1798273
235	0xbdec21f1	-0.11529911
236	0xbe597030	-0.21234202
237	0x3e7e6e71	0.24846818
238	0x3e052cac	0.13005322
239	0x3ed771c0	0.42078972
240	0x3e8669f7	0.2625272
241	0x3e1fe3cb	0.1561424
242	0xbdd5e8c8	-0.1044479
243	0x3e347836	0.17623982
244	0x3e685795	0.2268966
245	0xbd1e8e78	-0.038710088
246	0x3e945669	0.28972176
247	0x3e345952	0.17612198
248	0x3e91987b	0.28436646
249	0xbd7d6c7a	-0.06187103
250	0x3de9a94c	0.11409244
251	0xbeb34cd7	-0.35019562
252	0x3e949592	0.29020363
253	0xbe4d5978	-0.20053661
254	0xbd90a620	-0.07062936
255	0xbe95d73a	-0.29265767

encoder_lstm.bias_ih_l0 f4 [128]
0	0xbd81c3cf	-0.06336176
1	0x3e2642ce	0.16236421
2	0xbdac5a32	-0.08415641
3	0xbd8ac290	-0.06775391
4	0x3d9cd229	0.07657272
5	0x3f0d2af0	0.5514364
6	0x3c477b38	0.012175374
7	0x3e4cd9f7	0.20005022
8	0xbeb5b74d	-0.3549141
9	0x3e2d4310	0.16920114
10	0xbc78ebbb	-0.015192921
11	0x3b561d0b	0.003267112
12	0x3b1e0efc	0.0024117818
13	0xbd782ee5	-0.060591597
14	0xbe8bb6a3	-0.27287778
15	0x3d948e94	0.07253757
16	0xbdf14ca9	-0.117822
17	0x3e0d42dd	0.13795038
18	0x3d79f071	0.06102032
19	0x3c22b937	0.009931854
20	0x3d49b126	0.049241208
21	0x3e25131f	0.16120575
22	0x3e3e821a	0.18604317
23	0x3eb3a967	0.3509018
24	0x3f03abfd	0.5143431
25	0xbddc4d15	-0.1075689
26	0xbe46c545	-0.1941119
27	0xbd5d81b3	-0.05407877
28	0xbe08c175	-0.13355048
29	0x3d588bfe	0.052867882
30	0xbcc64119	-0.024200963
31	0xbd3e35ab	-0.0464379
32	0x3f11a8ac	0.56898
33	0x3e49bd15	0.19701035
34	0xbe187a34	-0.14890367
35	0x3e576344	0.2103396
36	0x3e862d84	0.262066
37	0x3e141ab3	0.1446331
38	0x3df512b9	0.11966462
39	0x3dc2e5f2	0.09516515
40	0xbb651651	-0.0034955929
41	0xbc5c1dfc	-0.013434883
42	0x3ed6f2ca	0.41982108
43	0xbe4aa788	-0.1979047
44	0x3e425bed	0.1898038
45	0xbe14007b	-0.14453308
46	0xbded2042	-0.11578418
47	0xbe93fd33	-0.28904113
48	0x3d1b4cc4	0.037915006
49	0xbe3c68f8	-0.18399417
50	0x3eca3bf4	0.39498866
51	0xbca007ef	-0.019535033
52	0xbe14f73f	-0.14547442
53	0xbd60e505	-0.05490591
54	0x3c87f19d	0.016594702
55	0x3e7c7a3c	0.24656004
56	0xbc34339f	-0.010998636
57	0xbe9643f4	-0.2934872
58	0x3d38884f	0.04505187
59	0xbe8c3e58	-0.27391315
60	0xbda4f242	-0.080540195
61	0x3e72ed61	0.23723365
62	0x3c9c5734	0.01908455
63	0x3eeec8b5	0.46637502
64	0xbe523a79	-0.20530118
65	0x3e96aaa5	0.29427066
66	0xbe8a001f	-0.26953217
67	0x3e357b57	0.17722832
68	0x3dc42c73	0.095787905
69	0xbf0904ce	-0.53522956
70	0xbd83048b	-0.06397351
71	0xbee817ef	-0.4533076
72	0x3d2d1123	0.04225267
73	0x3e0b55a1	0.13606884
74	0xbdb3bd38	-0.08776325
75	0xbc007434	-0.007840205
76	0xbf1ec08a	-0.6201254
77	0xbedc36f9	-0.4301069
78	0xbe05c069	-0.1306168
79	0xbd09d46a	-0.03364984
80	0x3e01d62b	0.12679355
81	0x3dc980ab	0.098389946
82	0x3e447fba	0.19189349
83	0xbe58308d	-0.2111227
84	0xbda62c14	-0.08113876
85	0x3e147d10	0.14500833
86	0xbc5b7be3	-0.013396236
87	0x3e0bf64d	0.13668175
88	0xbdb5900d	-0.08865366
89	0x3ebab979	0.3646963
90	0x3e2d13a5	0.16902025
91	0xbe3f9eef	-0.18712972
92	0x3e9b8e5b	0.30382046
93	0xbe331418	-0.17488134
94	0xbc0be709	-0.00853897
95	0xbe97fbde	-0.29684347
96	0x3e1d20d4	0.15344554
97	0xbd141fa1	-0.036162976
98	0xbef4aadc	-0.47786605
99	0x3d25e234	0.040498927
100	0x3de11dc2	0.10992004
101	0x3e643989	0.22287573
102	0x3e1b78de	0.15182826
103	0x3f24515a	0.6418663
104	0xbdcc8dfd	-0.099880196
105	0x3be373d5	0.0069412985
106	0x3eb7ff46	0.35936946
107	0xbe9200c6	-0.28516215
108	0xbd6b3604	-0.05742456
109	0xbda704a2	-0.081551805
110	0xbbe24e6b	-0.006906321
111	0xbe34c2cf	-0.17652439
112	0x3b1b4a42	0.0023695384
113	0x3d975ea6	0.073911
114	0x3e8acdbe	0.27110094
115	0xbe578a84	-0.21048933
116	0xbe01bcba	-0.1266965
117	0xbdbb3480	-0.09140873
118	0xbe099a21	-0.13437702
119	0x3e8ddf46	0.27709407
120	0xbdc3f3c8	-0.09567982
121	0xbdaad404	-0.0834122
122	0xbe126d15	-0.14299424
123	0x3e77d0ef	0.24200796
124	0x3f45cc28	0.7726464
125	0x3d956ea1	0.072964914
126	0xbe8d4035	-0.2758805
127	0x3e27f30b	0.16401307

encoder_lstm.bias_hh_l0 f4 [128]
0	0x3e3754e9	0.17903484
1	0xbbe6c709	-0.00704277
2	0xbe2d47b5	-0.16921885
3	0xbdb866d9	-0.09003992
4	0x3dff2037	0.12457316
5	0x3e8de4ff	0.27713773
6	0x3e82c4f9	0.25540903
7	0x3d8c02ef	0.06836497
8	0xbdb9a67b	-0.09064957
9	0x3dc73edf	0.097287886
10	0xbdbc2fcb	-0.09188803
11	0xbe42a677	-0.19008814
12	0xbd97ce06	-0.07412343
13	0x3ddc0452	0.107430115
14	0xbeba14b8	-0.36343932
15	0x3dca5b0d	0.09880648
16	0xbe808390	-0.25100374
17	0x3dd1ea44	0.10249761
18	0x3bdb82a7	0.0066989246
19	0xbd9a7b9a	-0.075431064
20	0xbda20139	-0.079103895
21	0x3e060e43	0.13091378
22	0x3e40d056	0.18829474
23	0x3e804bbb	0.25057778
24	0x3edbdc52	0.4294153
25	0x3e1aff02	0.1513634
26	0xbebff3ae	-0.374906
27	0xbd2c0da8	-0.04200521
28	0x3cd05afe	0.025434013
29	0xbe2eb0cd	-0.17059632
30	0xbe84dc9f	-0.2594957
31	0x3e5eec94	0.21769935
32	0x3eed4460	0.46341228
33	0x3eafcb35	0.34334722
34	0xbe331f2b	-0.17492358
35	0x3da8b207	0.08237081
36	0x3db3f1e7	0.087863736
37	0x3de3949e	0.11112331
38	0xbc444b91	-0.011980907
39	0x3d80bcee	0.062860355
40	0x3e3950cc	0.18097228
41	0x3e1797b4	0.14803964
42	0x3ed97c55	0.4247767
43	0xbe668fd3	-0.22515802
44	0x3e9e46c9	0.3091338
45	0xbdfdafed	-0.12387071
46	0x3e40aae5	0.18815191
47	0xbea6c2bd	-0.3257045
48	0xbe3d8317	-0.18507038
49	0xbee7f241	-0.45302013
50	0x3ec778f3	0.38959464
51	0xbe2100c2	-0.15722945
52	0xbe8e9f2a	-0.27855808
53	0x3d319975	0.04335924
54	0xbcf51fec	-0.029922448
55	0x3e78e9c7	0.24307929
56	0x3da9f1d3	0.082980774
57	0xbec97ff0	-0.3935542
58	0xbddb3c19	-0.10704822
59	0xbef63d3b	-0.4809359
60	0x3e72a27e	0.23694798
61	0x3eacfb06	0.33785266
62	0x3e59c910	0.21268106
63	0x3ea58749	0.32329777
64	0x3c68552b	0.014180462
65	0x3e0c7078	0.13714778
66	0xbd7c527f	-0.061602112
67	0xbdc0770b	-0.09397706
68	0xbe13bd2d	-0.14427634
69	0xbee6a2a1	-0.4504595
70	0xbd7c5108	-0.061600715
71	0xbec6bac3	-0.38814363
72	0x3e9a48f6	0.3013379
73	0x3d1b16ae	0.037863426
74	0x3d26aaa0	0.040690064
75	0x3d7bcc59	0.061474178
76	0xbf1a6c0e	-0.6032113
77	0xbe52de67	-0.20592652
78	0xbd45c11a	-0.04827986
79	0x3d001e50	0.03127891
80	0x3e27738e	0.16352674
81	0xbe04b2d2	-0.1295884
82	0x3e83c3e2	0.25735384
83	0xbed77ec8	-0.42088914
84	0x3b59de3d	0.0033244037
85	0xbd65a66f	-0.056066927
86	0xbdb2e700	-0.08735466
87	0x3ec175be	0.37785143
88	0xbe26a1ff	-0.16272734
89	0x3e4ce421	0.200089
90	0x3de37e1e	0.11108039
91	0xbe074c64	-0.13212734
92	0x3e96c6b0	0.29448462
93	0xbedbc0c8	-0.42920518
94	0xbeaa7a5b	-0.33296475
95	0xbdd7b305	-0.10532192
96	0x3e0f37fe	0.13986203
97	0x3e2cafc5	0.16863926
98	0xbe995dae	-0.29954284
99	0x3e733d3b	0.23753826
100	0x3da99d9a	0.08282013
101	0x3ebf95aa	0.37418872
102	0x3e6c233c	0.23060316
103	0x3f09b4e6	0.53791654
104	0xbe73b85d	-0.23800798
105	0xbe17568b	-0.14779107
106	0x3e1bcd4e	0.15215036
107	0xbdc2c90b	-0.09511002
108	0x3e815ffb	0.2526854
109	0xbdd729d0	-0.10506022
110	0x3dab768c	0.083722204
111	0xbd956eaa	-0.07296498
112	0xbe8d0fb9	-0.27551058
113	0x3e8e7644	0.27824605
114	0x3e58290e	0.21109411
115	0xbcee1948	-0.02906479
116	0xbd417126	-0.047227047
117	0xbcef167e	-0.02918553
118	0xbcaa4f5e	-0.020789798
119	0x3dfa5dad	0.122248985
120	0x3c505ffc	0.012718197
121	0xbd5cb436	-0.0538828
122	0xbc9dd871	-0.019268246
123	0x3eba4dfa	0.36387616
124	0x3f3d88c5	0.7403682
125	0x3d725e81	0.059172157
126	0xbe12e517	-0.14345203
127	0x3e3145fa	0.1731185

encoder_lstm.weight_ih_l1 f4 [128, 32]
0	0x3e0a9d41	0.1353655
1	0xbe27d25a	-0.16388837
2	0x3e770c0d	0.24125691
3	0xbe63270b	-0.22182862
4	0x3e8cea08	0.27522302
5	0x3e2b8850	0.16751218
6	0xbe7f80e6	-0.24951515
7	0x3ebe0498	0.3711288
8	0xbd88972e	-0.0666946
9	0xbc13228c	-0.008980405
10	0x3e020302	0.1269646
11	0x3c884792	0.01663569
12	0xbcbba24c	-0.022904538
13	0xbedde5c7	-0.4333937
14	0xbc0a0c30	-0.008425757
15	0xbce520db	-0.027969768
16	0xbd4164c4	-0.04721524
17	0xbe88d635	-0.26725927
18	0xbecd135c	-0.40053833
19	0x3cecb2a0	0.028893769
20	0x3e2886bb	0.16457646
21	0x3e5e8dee	0.2173383
22	0xbceb5b8f	-0.028730182
23	0xbd21d809	-0.039512668
24	0x3ee85869	0.45379952
25	0xbd9bacd2	-0.07601322
26	0x3eeedfbb	0.46655068
27	0xbecc9107	-0.39954397
28	0x3ea3eb4c	0.32015455
29	0xbe278a39	-0.16361322
30	0x3cbe2346	0.023210179
31	0x3bcb6f06	0.0062083034
32	0x3e738959	0.23782863
33	0xbdae29ef	-0.08504092
34	0x3e21f53c	0.15816206
35	0x3d112159	0.035432193
36	0x3f0517a6	0.5198921
37	0xbeb291cf	-0.34876868
38	0xbee470b0	-0.44617224
39	0x3e856162	0.2605086
40	0xbdf8b9cb	-0.12144812
41	0xbe267cf0	-0.16258597
42	0x3dd0c6bd	0.10194156
43	0x3e03c59f	0.12868355
44	0x3da4b06a	0.08041461
45	0xb8e5cfb4	-0.00010958259
46	0xbda1abf0	-0.078941226
47	0xbd4465c6	-0.04794862
48	0xbe160a56	-0.1465238
49	0xbe986cb0	-0.29770422
50	0x3e3af729	0.18258347
51	0xbe814249	-0.25245884
52	0x3e6e558a	0.23274818
53	0xbe6ea42d	-0.23304816
54	0x3baec6f0	0.005333774
55	0x3de9e097	0.1141979
56	0x3ee7d60a	0.45280486
57	0xbe87c534	-0.26517642
58	0xbe25af11	-0.16180064
59	0xbd552afc	-0.052042946
60	0x3e86bb2f	0.26314685
61	0xbd6702d0	-0.056399167
62	0xbeff8a35	-0.4991013
63	0x3dd0d27d	0.101963975
64	0xbdf04ac9	-0.11733014
65	0x3e6514a8	0.22371161
66	0xbc12f88b	-0.00897039
67	0x3f02bb25	0.5106681
68	0x3e44740e	0.19184896
69	0x3f306280	0.689003
70	0x3eab4a68	0.33455205
71	0x3eff1543	0.4982091
72	0x3d37b176	0.044846974
73	0x3d48cc10	0.049022734
74	0xbd9f259f	-0.077708475
75	0xbd0537bd	-0.03252386
76	0x3d92080b	0.0713044
77	0xbe27c263	-0.16382746
78	0x3e86d319	0.2633293
79	0xbd82b309	-0.063818045
80	0x3d82f251	0.063938744
81	0x3deb23a2	0.11481406
82	0x3d0f3dac	0.034970924
83	0x3e8695b0	0.26286077
84	0x3e44190c	0.1915018
85	0xbe9d7471	-0.307529
86	0xbe2d6b00	-0.16935349
87	0xbe897874	-0.2684971
88	0xbe69e01c	-0.22839397
89	0xbd5afead	-0.053465534
90	0xbe7dde39	-0.24791802
91	0x3e8202eb	0.2539285
92	0xbac4ba6c	-0.0015009171
93	0xbf21a734	-0.63145757
94	0xbd92db5e	-0.07170747
95	0x3e45c791	0.1931441
96	0x3d799a7c	0.060938343
97	0x3ec1c0da	0.37842447
98	0xbe479359	-0.19489802
99	0x3b189543	0.0023282326
100	0x3f0cbf84	0.5497973
101	0xbe0387c9	-0.12844767
102	0xbe655f5c	-0.22399658
103	0xbbaa0283	-0.0051882877
104	0xbe4043e6	-0.18775901
105	0xbd573cea	-0.052548327
106	0x3e8982a1	0.26857474
107	0xbdd9d25b	-0.10635825
108	0x3f43e767	0.76524967
109	0xbdfd5a58	-0.12370747
110	0x3e9393bc	0.2882365
111	0x3bb1b54f	0.005423225
112	0xbe704ff5	-0.23468001
113	0x3ab31f17	0.0013665882
114	0x3e0ec781	0.13943292
115	0xbeb057eb	-0.34442076
116	0x3da85841	0.08219958
117	0xbe03278d	-0.12808056
118	0x3e0afb6a	0.1357247
119	0x3e80b072	0.25134617
120	0x3e3ab85d	0.18234392
121	0x3e1e68c3	0.15469651
122	0xbe452914	-0.19253951
123	0x3e72a369	0.23695149
124	0x3ef9908e	0.487431
125	0xbeab2e39	-0.33433703
126	0x3dfa286d	0.12214742
127	0x3e40753c	0.18794721
128	0x3d1d2880	0.038368702
129	0x3e96c8e8	0.29450154
130	0xbe876a11	-0.2644811
131	0x3c94b7e1	0.018154087
132	0x3e3143a0	0.17310953
133	0xbda13927	-0.07872229
134	0xbe32b1a9	-0.17450584
135	0xbe9cf9ec	-0.30659425
136	0xbf585189	-0.8449941
137	0xbe24e571	-0.1610315
138	0x3e92ffaa	0.2871068
139	0xbe3ddd3b	-0.18541424
140	0xbe1bd3dd	-0.15217538
141	0xb9911ab7	-0.0002767646
142	0x3e363fd1	0.17797782
143	0x3e13296c	0.1437127
144	0xbdf9903a	-0.12185712
145	0x3e161f62	0.14660409
146	0x3deb033a	0.11475225
147	0x3caee493	0.021349227
148	0xbe7264a0	-0.23671198
149	0xbe917884	-0.2841226
150	0xbe319317	-0.17341267
151	0x3dff7fb9	0.12475533
152	0xbcfd0e63	-0.03089065
153	0x3dea5ac2	0.11443092
154	0xbdbf2181	-0.09332562
155	0x3df7ee29	0.12105972
156	0x3e14488f	0.14480804
157	0xbf16e1cf	-0.58938307
158	0x3d5f1137	0.054459777
159	0x3eb39acf	0.35079047
160	0xbe1b987b	-0.15194885
161	0x3e5f6c09	0.21818556
162	0xbe9f7ed2	-0.31151444
163	0x3d56a4e4	0.052403346
164	0xbd86f17d	-0.06589029
165	0xbd81ee1b	-0.06344243
166	0x3e34af3c	0.17644972
167	0x3c92f3d7	0.017938538
168	0xbe19afcf	-0.15008472
169	0xbe2a1d6c	-0.16612786
170	0xbd8e1a16	-0.06938569
171	0xbe255c70	-0.16148543
172	0xbbac9853	-0.005267182
173	0xbab2c59b	-0.0013639213
174	0xbe1ba151	-0.15198256
175	0x3e876bb4	0.26449358
176	0xbdb96511	-0.0905248
177	0x3ed95e1b	0.4245461
178	0x3f081f4f	0.53172773
179	0x3ed37339	0.41298845
180	0xbd6681cf	-0.05627614
181	0xbe8fd432	-0.2809158
182	0xbd6e0930	-0.05811423
183	0xb9a11b26	-0.0003072854
184	0xbe9666db	-0.29375347
185	0x3e4490ef	0.19195913
186	0x3c9de00e	0.019271877
187	0x3e9e71ad	0.30946103
188	0xbe4c3a64	-0.1994415
189	0x3da55601	0.080730446
190	0x3c3b6238	0.011436991
191	0x3d8c632b	0.06854852
192	0x3c93e6b3	0.018054342
193	0x3e1792b2	0.14802054
194	0xbe8389c9	-0.2569106
195	0x3ee9ac02	0.45639044
196	0xbeadcdbc	-0.33946025
197	0x3ec5c2ab	0.38625082
198	0xbdc02efa	-0.0938396
199	0x3e53c0f7	0.20679079
200	0x3d37d244	0.04487826
201	0x3daacf8a	0.08340366
202	0x3e1ca8dd	0.15298791
203	0x3dd24b0b	0.102682196
204	0x3e2af085	0.16693313
205	0x3dada929	0.0847953
206	0x3d08c8f1	0.033394758
207	0xbe60eeb7	-0.21966062
208	0x3e7beb83	0.2460156
209	0xbe8dd0a6	-0.2769825
210	0xbe8bdb73	-0.27315864
211	0x3e744cd0	0.23857427
212	0x3dcbf8ba	0.0995955
213	0x3bf52274	0.007480914
214	0xbd9b8e6d	-0.07595525
215	0x3e35df64	0.17760998
216	0x3d2d3d26	0.042294644
217	0x3b8f3265	0.004370021
218	0x3e01b512	0.12666729
219	0xbe8ce61d	-0.27519313
220	0xbe401e0f	-0.18761466
221	0x3e8507ec	0.25982606
222	0x3e647e3e	0.22313783
223	0xbef50ae0	-0.4785986
224	0xbe1438cc	-0.14474791
225	0x3ea32cbf	0.31870076
226	0xbe8999c3	-0.26875123
227	0x3e8406d8	0.2578647
228	0x3e5b1019	0.2139286
229	0x3e654855	0.22390874
230	0x3e7de303	0.2479363
231	0x3e5e5dad	0.21715422
232	0xbee65980	-0.44990158
233	0xbe78cc6d	-0.24296732
234	0xbd705441	-0.0586741
235	0x3d99eed4	0.07516256
236	0x3d00791e	0.031365506
237	0x3d8f701e	0.070038065
238	0xbda82db8	-0.08211845
239	0xbdd3b97e	-0.10338114
240	0x3e8e9228	0.27845883
241	0xbe02ef3a	-0.1278657
242	0xbe21bdf2	-0.15795115
243	0x3cd7eed8	0.026359007
244	0x3daf9568	0.08573419
245	0x3c6f50b2	0.014606642
246	0xbc748efd	-0.014926669
247	0xbe836a52	-0.25667053
248	0x3e94e56b	0.29081282
249	0x3dc1869f	0.09449505
250	0xbe60142a	-0.21882692
251	0xbd94bcb8	-0.07262558
252	0x3e565dc1	0.20934202
253	0x3cfd9bee	0.030958142
254	0x3e70db33	0.23521118
255	0x3dbb3df4	0.09142676

encoder_lstm.weight_hh_l1 f4 [128, 32]
0	0xbd2885ef	-0.041143354
1	0xbe2624a1	-0.1622491
2	0xbe71249a	-0.23549119
3	0xbb80d220	-0.003931299
4	0xbea54938	-0.32282424
5	0x3e085e38	0.13317192
6	0x3e3d1e33	0.18468551
7	0xbe7bd8f3	-0.24594478
8	0xbd7ec3fb	-0.06219862
9	0x3d655945	0.055993337
10	0x3e5de299	0.21668471
11	0x3e2ca894	0.16861182
12	0xbdbd98c7	-0.092576556
13	0xbde2cb26	-0.11073904
14	0x3e95513b	0.29163536
15	0xbe22eca0	-0.15910578
16	0xbeafb3bb	-0.3431681
17	0x3e893b05	0.2680284
18	0xbe63a73d	-0.22231765
19	0x3e3b72fd	0.18305583
20	0x3d3818de	0.04494559
21	0xbe6c657a	-0.23085585
22	0x3c7e23b2	0.01551144
23	0x3e4c1a8a	0.19931999
24	0x3dcd6b86	0.10030274
25	0xbe8e7e75	-0.27830854
26	0x3de6f28d	0.11276732
27	0x3e9613ac	0.29311883
28	0xbe481563	-0.19539408
29	0x3e7e8489	0.24855246
30	0x3e0a03c3	0.13477997
31	0xbebfafd0	-0.37438822
32	0x3e25ae4c	0.1617977
33	0xbe2db4c4	-0.16963488
34	0x3e7e805e	0.24853656
35	0xbd93424a	-0.07190378
36	0xbe569a40	-0.20957279
37	0x3e822670	0.2541995
38	0xbdd896a9	-0.10575611
39	0xbe6132ab	-0.21991985
40	0x3e0d28af	0.13785051
41	0xbe2f896f	-0.1714227
42	0xbe1965bd	-0.14980216
43	0x3e21dbf4	0.15806562
44	0xbb84dfa3	-0.00405498
45	0xbca9e7eb	-0.02074047
46	0x3e4984d7	0.1967958
47	0xbdaf5f8b	-0.08563145
48	0x3e448d0f	0.19194435
49	0x3e325b5d	0.17417665
50	0xbe202583	-0.1563931
51	0x3e602deb	0.21892516
52	0x3db163cf	0.08661615
53	0x3d9d565b	0.076824866
54	0x3e03260e	0.12807485
55	0x3dd4078a	0.103530005
56	0xbe0ed4d4	-0.13948375
57	0x3e7b4bd9	0.24540652
58	0x3dc10d73	0.09426393
59	0x3e4d3c26	0.20042476
60	0x3c9f37b5	0.019435743
61	0x3c1b0fed	0.009464246
62	0x3ddb8093	0.10717883
63	0x3dced7ea	0.10099776
64	0xbe412ca2	-0.18864682
65	0xbb90113a	-0.004396585
66	0xbec66bf9	-0.38754252
67	0xbe0a1591	-0.1348479
68	0xbe968543	-0.29398546
69	0x3e0f0717	0.13967548
70	0xbe0208af	-0.12698625
71	0xbd9dc548	-0.07703644
72	0x3e856013	0.2604986
73	0x3e43d046	0.19122419
74	0x3dd0d324	0.10196522
75	0xbe870f7f	-0.2637901
76	0x3dc357c7	0.095382266
77	0x3e1fc2c0	0.15601635
78	0xbdb65d27	-0.08904486
79	0x3ed6232b	0.41823706
80	0x3eead2bb	0.458639
81	0xbdf6f839	-0.120590635
82	0x3e68b01d	0.22723432
83	0xbdd63357	-0.10459011
84	0x3deddae3	0.11614015
85	0xbe1be2e9	-0.15223278
86	0x3df5a1b3	0.11993732
87	0x3d494f6f	0.04914802
88	0x3b8517b4	0.0040616635
89	0x3e285dac	0.16441983
90	0x3e31d58e	0.17366621
91	0x3b8c8559	0.004288357
92	0x3dc6d297	0.097081356
93	0xbd0f54cc	-0.034992978
94	0xbd47c803	-0.04877473
95	0xbdc1a749	-0.09455735
96	0xbd81fe9e	-0.063473925
97	0x3e76ccf1	0.24101616
98	0x3d1a9454	0.037739113
99	0xbe9e5aa2	-0.30928522
100	0x3e5efb51	0.21775557
101	0xbec3ca67	-0.38240358
102	0xbdd30154	-0.10302988
103	0xbe73d56d	-0.23811884
104	0x3e5291d7	0.20563446
105	0xbdc43762	-0.09580876
106	0x3d2abe91	0.041685645
107	0xbd3f2897	-0.04666957
108	0x3dfca5e4	0.123363286
109	0x3e142ced	0.14470263
110	0x3e57bb35	0.21067508
111	0xbe0e5518	-0.13899648
112	0x3dc4c0db	0.09607097
113	0x3d953471	0.07285393
114	0xbd0b3039	-0.033981536
115	0xbe945c70	-0.28976774
116	0x3e5c8055	0.2153333
117	0x3e615451	0.2200482
118	0x3d02ee7f	0.03196573
119	0x3d9ec34b	0.07752093
120	0x3e94fca8	0.2909901
121	0x3e4d2139	0.20032205
122	0x3d5eeaf6	0.054423295
123	0xbe1ce3c2	-0.15321258
124	0xbdafece2	-0.08590104
125	0xbe704dea	-0.23467222
126	0xbd8634a8	-0.06553012
127	0x3e8620a5	0.2619678
128	0xbe601ba0	-0.21885538
129	0xbece2177	-0.40259907
130	0xbe47a1a9	-0.19495262
131	0x3e0839dd	0.13303323
132	0xbd02c9a9	-0.0319306
133	0xbe32e815	-0.17471345
134	0xbd14920a	-0.036272086
135	0xbe158f2b	-0.14605395
136	0x3e1459e4	0.14487416
137	0xbcfffaa8	-0.031247452
138	0xbe27e322	-0.16395238
139	0xbe8765a2	-0.26444727
140	0xbe0135f8	-0.12618244
141	0x3ed3a5d2	0.41337448
142	0xbd8b9f76	-0.06817524
143	0x3e099659	0.1343626
144	0x3f2c4809	0.67297417
145	0x3cc56cbd	0.024099702
146	0x3d4d809e	0.050171487
147	0xbe96e84f	-0.29474112
148	0x3bf37a61	0.00743036
149	0xbdfbcb89	-0.122946806
150	0xbe80f9a6	-0.25190467
151	0x3c2b148e	0.010441912
152	0xbe2a2220	-0.1661458
153	0x3e196a82	0.14982036
154	0xbd6d2068	-0.057892233
155	0xbd9be807	-0.07612615
156	0x3bf68011	0.007522591
157	0xbdc1abd7	-0.09456604
158	0x3d9d65d1	0.076854356
159	0x3e355788	0.17709172
160	0xbdc79573	-0.09745302
161	0xbe1a6635	-0.15078051
162	0xbe93aa9d	-0.28841105
163	0xbe006a31	-0.12540509
164	0xbc0470b0	-0.008083507
165	0xbdfce002	-0.123474136
166	0xbeb6f13d	-0.35730925
167	0x3ed5827b	0.4170111
168	0x3e410d86	0.18852815
169	0x3eaaa28a	0.33327132
170	0x3d887d7b	0.066645585
171	0xbe043080	-0.12909126
172	0x3e7fef9a	0.24993744
173	0x3da8693d	0.082231976
174	0xbaf854dc	-0.0018946189
175	0x3dbc13b7	0.09183448
176	0x3e9a77df	0.3016958
177	0xbeab09ed	-0.3340601
178	0xbd5bd32a	-0.05366818
179	0xbe368f45	-0.1782809
180	0xbdeb0b5b	-0.11476775
181	0x3d769ce1	0.060208205
182	0xbd96e012	-0.07366957
183	0xbdd7be61	-0.10534359
184	0x3e8d5a4c	0.27607954
185	0x3e6d1aac	0.23154706
186	0x3e2bec14	0.16789275
187	0xbe7f2e27	-0.2491995
188	0xbd6163d9	-0.055026863
189	0xbcbf1fc9	-0.023330586
190	0xbe9c47b1	-0.30523446
191	0xbc9501dc	-0.018189363
192	0x3e8cf633	0.27531585
193	0xbe2a8a30	-0.16654277
194	0xbdc5350e	-0.0962926
195	0xbe3224cd	-0.17396851
196	0xbebce35a	-0.36892205
197	0x3eae9c0d	0.34103432
198	0x3e2184dc	0.15773338
199	0x3de83b30	0.11339414
200	0xbeacbef6	-0.33739442
201	0xbc4147f3	-0.011796939
202	0x3e479c60	0.19493246
203	0x3d41a066	0.04727211
204	0x3e991af7	0.29903385
205	0xbe14f036	-0.14544758
206	0xbe00d98e	-0.1258299
207	0xbd47e96b	-0.04880659
208	0xbe397788	-0.18112004
209	0xbdf1f2cf	-0.1181389
210	0xbe2dacea	-0.16960493
211	0x3e0dc6b8	0.13845336
212	0x3da0685f	0.07832407
213	0x3e93cf0e	0.28868908
214	0x3e579ff4	0.21057111
215	0xbdc994fe	-0.09842871
216	0xbe1da10e	-0.15393469
217	0x3bb2bd2f	0.0054546813
218	0xbedd4149	-0.4321387
219	0x3e7d1375	0.24714454
220	0x3ec7c040	0.39013863
221	0xbe295064	-0.16534573
222	0x3eba0fbf	0.36340138
223	0x3d0783ed	0.0330848
224	0xbe798e45	-0.24370678
225	0xbdf18c73	-0.11794367
226	0xbe737d1c	-0.23778194
227	0x3dec00b1	0.115235694
228	0xbe6b259c	-0.22963566
229	0x3e9997ca	0.29998618
230	0xbdacdf17	-0.084409885
231	0xbdd6037c	-0.10449883
232	0xbe22134a	-0.1582767
233	0xbe08a032	-0.1334236
234	0x3c888df0	0.016669244
235	0xbe14858b	-0.14504068
236	0x3e3440bc	0.17602819
237	0xbe882e7f	-0.26597974
238	0xbe13b9ba	-0.14426318
239	0x3e649bfc	0.22325128
240	0x3dba7a5b	0.09105369
241	0xbd4a10bb	-0.04933236
242	0x3e0d5bc1	0.13804533
243	0x3de7b442	0.11313678
244	0x3ccca376	0.024980288
245	0xbd20fa55	-0.039301235
246	0x3d8aa2e8	0.06769353
247	0xbda9ee5b	-0.08297416
248	0x3e7a4126	0.24438915
249	0xbd6018e1	-0.054711226
250	0xbdf9caf7	-0.121969156
251	0xbe29f05b	-0.16595595
252	0xbe4b2bd5	-0.1984094
253	0x3e01bde1	0.1267009
254	0x3e5500ae	0.2080104
255	0xbe87626f	-0.26442286
