W3-Design/checkpoints/epoch_13.pt (torch, 384725 bytes, 24 tensors)

encoder_cnn.0.weight f4 [32, 3, 3]
-0.18943587 -0.060211886 -0.18469109 0.25823748 -0.237893 0.21645233 0.16260804 0.18724932
0.15240121 0.19155887 0.21417476 0.057728603 -0.22592047 -0.258424 0.026324231 -0.15784453
0.25230393 -0.06277053 0.12917528 0.3073857 0.53059447 0.17433834 0.26883352 -0.3201342
-0.16398631 0.096542194 -0.098135106 -0.13514201 0.032819916 -0.17772838 -0.13823164 -0.091687925
-0.046344705 0.068525344 0.16797179 -0.05848041 -0.024202801 0.20271933 -0.016122608 0.4902348
-0.091000855 0.39230877 0.028672853 0.12446504 -0.34703755 -0.008614127 -0.08469774 0.41327584
-0.24209581 -0.20849594 0.16260949 0.23401183 0.29122958 -0.19372322 -0.02693206 -0.03373586
0.30547875 0.23529048 0.19353539 -0.08086306 -0.072810516 0.1494145 -0.3138715 0.08042451
-0.13402167 0.2240158 0.27199954 -0.2507991 -0.4344954 -0.04037483 -0.011301916 0.43635812
0.057223402 0.17434803 -0.09188496 -0.11778016 -0.28475738 0.3023126 -0.28092697 0.27373368
-0.037724756 0.08432431 0.4655054 0.009995578 0.30023038 -0.07143787 -0.2540154 0.08101805
0.0483763 -0.034935616 -0.090320125 0.016827673 0.046910804 0.33540174 -0.2179068 -0.26028726
-0.22437394 0.1650134 -0.07518155 -0.025573954 0.045084544 0.2314918 0.013975729 0.275294
-0.047557823 -0.31272125 -0.3802065 -0.05964871 -0.17524405 0.20068936 0.064213604 -0.10948217
-0.38818988 -0.49331367 0.33489844 -0.06939573 -0.24948458 0.12594196 -0.10931281 0.15745942
0.071913525 -0.25027612 -0.21855254 -0.074393086 -0.2250931 -0.23216248 -0.2056594 -0.23937996
-0.11697938 0.27832043 -0.08619488 -0.25434622 0.10615742 0.1477358 -0.17864943 0.39199358
0.22181362 -0.09327127 -0.37935805 0.044543155 -0.18390767 -0.3750495 -0.03044032 -0.05455032
0.1334029 -0.22331421 -0.31285235 0.12807778 -0.06468636 -0.116174266 0.18304229 -0.16254987
0.14051159 0.061265685 0.27695104 0.034014832 0.11359345 -0.48538667 0.18466653 -0.17434837
-0.4151449 -0.15009008 0.17584413 0.095986366 -0.26845723 -0.19332814 -0.4973049 -0.18890373
0.097074114 -0.26591164 -0.09022035 -0.119516015 0.15845452 0.086407326 -0.14518353 -0.29875323
0.16712828 -0.27122167 0.051573973 0.15786834 -0.10678841 -0.1316184 -0.059486914 -0.087574966
0.3093343 0.13857105 0.27538985 0.22424586 -0.14093515 0.36997288 -0.03567862 -0.0069388635
-0.18151774 0.20933412 0.05030332 -0.18682025 -0.5003501 -0.39557308 0.21807654 -0.3212455
0.1700869 0.17509821 0.23352782 -0.05382584 -0.010285757 -0.14587161 -0.26585934 0.042433396
-0.33713108 -0.2627532 -0.22281191 -0.04566482 -0.114588104 0.029864512 0.13872023 0.21019863
0.12811522 0.2580321 0.025065403 0.05483792 -0.032275084 -0.2666737 -0.11238324 -0.08328191
-0.034388077 0.45535147 0.19919685 0.4828367 0.22349781 0.21439478 -0.0038818105 -0.38158464
-0.018376596 0.29208347 -0.4930696 -0.08337332 -0.18663543 0.30071434 0.14279781 -0.20380042
0.30977345 -0.014569238 -0.1231304 -0.2052855 0.010725356 -0.028643038 -0.10693211 -0.08158138
0.2411795 -0.14406297 0.31806144 0.105658814 0.20910439 -0.101898566 -0.04486593 -0.10473141
00000000: 7afb 41be bda0 76bd a91f 3dbe b437 843e
00000010: 399a 73be aea5 5d3e b982 263e 49be 3f3e
00000020: 100f 1c3e 0228 443e a150 5b3e d474 6c3d
00000030: b257 67be 2750 84be eaa5 d73c ffa1 21be
00000040: fb2d 813e d68d 80bd 8646 043e a961 9d3e
00000050: 0ad5 073f c085 323e 8ca4 893e a1e8 a3be
00000060: 07ec 27be eab7 c53d 0ffb c8bd ab62 0abe
00000070: 2d6e 063d 6efe 35be 988c 0dbe e1c6 bbbd
00000080: f2d3 3dbd 0457 8c3d cc00 2c3e 2889 6fbd
00000090: f444 c6bc a895 4f3e 8f13 84bc 0e00 fb3e
000000a0: a85e babd b2dc c83e 55e3 ea3c 87e7 fe3d
000000b0: e8ae b1be 4422 0dbc 0276 adbd e498 d33e
000000c0: f7e7 77be f67f 55be 1a83 263e cca0 6f3e
000000d0: 0b1c 953e 615f 46be a0a0 dcbc 9d2e 0abd
000000e0: b667 9c3e fdef 703e 242e 463e 889b a5bd
000000f0: ae1d 95bd 1d00 193e c4b3 a0be 9bb5 a43d
00000100: fa3c 09be 6664 653e 8643 8b3e bd68 80be
00000110: 2e76 debe 1460 25bd ac2b 39bc 556a df3e
00000120: 1663 6a3d 4a88 323e 2f2e bcbd b936 f1bd
00000130: b8cb 91be b8c8 9a3e a9d5 8fbe d226 8c3e
00000140: 4685 1abd 39b2 ac3d b956 ee3e 7ec4 233c
00000150: ccb7 993e 054e 92bd 4e0e 82be cbec a53d
00000160: 3a26 463d a618 0fbd c2f9 b8bd 30da 893c
00000170: 8b25 403d c7b9 ab3e f622 5fbe 5f44 85be
00000180: 48c2 65be 46f9 283e c9f8 99bd 7880 d1bc
00000190: 92aa 383d 300c 6d3e 75fa 643c 56f3 8c3e
000001a0: fecb 42bd 001d a0be 6daa c2be 3552 74bd
000001b0: 2d73 33be 8381 4d3e 6c82 833d 3038 e0bd
000001c0: d3c0 c6be 9c93 fcbe cf77 ab3e 591f 8ebd
000001d0: e378 7fbe eef6 003e 65df dfbd 0b3d 213e
000001e0: 6647 933d 3124 80be 3dcc 5fbe 675b 98bd
000001f0: ce7e 66be 00bc 6dbe 6198 52be 0520 75be
00000200: e392 efbd 0480 8e3e f186 b0bd ab39 82be
00000210: 1069 d93d 0e48 173e e0ef 36be 62b3 c83e
00000220: 1c23 633e 0205 bfbd 383b c2be e272 363d
00000230: 4b52 3cbe 7d06 c0be fa5d f9bc 2870 5fbd
00000240: c59a 083e 7bac 64be 2f2e a0be d226 033e
00000250: 487a 84bd c6ec edbd 706f 3b3e 7973 26be
00000260: 45e2 0f3e baf1 7a3d 87cc 8d3e 2353 0b3d
00000270: afa3 e83d 9a84 f8be 3919 3d3e 6188 32be
00000280: df8d d4be 37b1 19be 7c10 343e 8094 c43d
00000290: 3a73 89be d0f7 45be bf9e febe fb6f 41be
000002a0: cbce c63d 9225 88be 72c5 b8bd d0c4 f4bd
000002b0: e741 223e 53f6 b03d feaa 14be 2ff6 98be
000002c0: ad23 2b3e 91dd 8abe 3b3f 533d 3da8 213e
000002d0: e2b3 dabd f9c6 06be 8da8 73bd 815a b3bd
000002e0: 1161 9e3e 92e5 0d3e e6ff 8c3e b5a0 653e
000002f0: 4e51 10be 166d bd3e bf23 12bd 685f e3bb
00000300: c9df 39be af5b 563e db0a 4e3d cf4d 3fbe
00000310: f216 00bf 8e88 cabe 754f 5f3e 4a7a a4be
00000320: 432b 2e3e f24c 333e eb21 6f3e 7c78 5cbd
00000330: 9785 28bc 5e5f 15be b71e 88be a4ce 2d3d
00000340: 729c acbe 9687 86be ce28 64be 090b 3bbd
00000350: 2bad eabd 6ca6 f43c ad0c 0e3e 4f3e 573e
00000360: a330 033e c91c 843e f655 cd3c ba9d 603d
00000370: e132 04bd 7589 88be 2f29 e6bd b58f aabd
00000380: 83da 0cbd d423 e93e 42fa 4b3e 5f36 f73e
00000390: 9cdc 643e 4e8a 5b3e f965 7ebb 105f c3be
000003a0: 848a 96bc f78b 953e 9e73 fcbe a2bf aabd
000003b0: 5c1d 3fbe 3bf7 993e 9739 123e 0fb1 50be
000003c0: a09a 9e3e d0b3 6ebc cb2b fcbd 5d36 52be
000003d0: 67b9 2f3c cea4 eabc 39ff dabd 2314 a7bd
000003e0: c2f7 763e 3e85 13be f3d8 a23e a663 d83d
000003f0: 761f 563e 32b0 d0bd 56c5 37bd 6c7d d6bd

encoder_cnn.0.bias f4 [32]
-0.20220321 -0.14360887 1.0276704 -1.1033356 -0.089098014 -0.068553686 -0.77852523 -0.22420992
-0.0855909 -0.34812042 -0.05431979 -0.029513173 0.10399437 -0.37496004 -0.66081846 0.4021022
-0.61192656 0.32434732 0.12359052 -0.64682376 -0.618556 0.6357613 0.037173208 -0.557598
-0.38627395 0.33719695 -0.59456205 -0.7114353 -0.63637716 -0.2662763 -0.2835462 0.0070452695
00000000: 5c0e 4fbe 340e 13be b48a 833f 1a3a 8dbf
00000010: 0579 b6bd e065 8cbd 6e4d 47bf 4997 65be
00000020: 484a afbd d73c b2be 6e7e 5ebd 9cc5 f1bc
00000030: 00fb d43d c3fa bfbe 662b 29bf 57e0 cd3e
00000040: 38a7 1cbf da10 a63e 071d fd3d 3e96 25bf
00000050: b059 1ebf 41c1 223f ef42 183d bebe 0ebf
00000060: b3c5 c5be 14a5 ac3e 3835 18bf a020 36bf
00000070: 9de9 22bf 5e55 88be f82c 91be 01dc e63b

encoder_cnn.2.weight f4 [64, 32, 3]
-0.21034455 0.021985335 0.025951598 0.03682853 0.01427645 0.1424289 0.15813194 0.0960955
0.019147214 0.08513583 -0.28453982 -0.0053691054 0.1363523 0.1364885 -0.036185138 -0.15952647
-0.076567836 -0.12429448 0.37160793 0.08993809 0.34817716 -0.12331492 -0.15293841 -0.21450354
0.13799468 -0.16196793 0.012124672 0.14756931 0.037453532 0.19812188 -0.1154896 0.018481117
-0.0044762413 0.054233342 -0.024638653 -0.1440303 -0.08926186 -0.2120809 -0.1055004 0.06889258
0.058220923 0.09185734 0.09026326 -0.061604835 0.111875445 0.07206011 0.05583236 -0.10305256
0.12364028 0.18167838 0.1401215 0.058067836 -0.06301012 -0.13511436 -0.21246742 -0.16743314
-0.18182842 -0.089194514 -0.12821928 0.06117638 0.031956315 -0.111369826 0.12934604 -0.069560975
-0.08375723 -0.18855722 0.22828478 0.06445837 0.19037232 -0.1407904 -0.12379699 -0.0020231176
0.1574578 -0.18302497 0.18072519 0.06013443 0.10947672 -0.1656732 -0.14459032 0.017875519
-0.023928395 0.0908281 -0.054966606 0.0006764558 -0.23423813 -0.4087132 -0.239779 0.08305211
-0.17871845 0.06328437 0.32495615 0.09843387 0.08439644 -0.016907513 -0.005357112 0.0345594
-0.057530984 -0.013345773 0.07498447 -0.08125367 -0.0597663 -0.027858453 -0.49966037 -0.23986332
-0.1858747 -0.06428742 0.029288992 -0.09094834 -0.3175043 -0.28851962 -0.2161124 -0.04493488
-0.005736074 0.07099601 0.05872972 -0.12752867 -0.19030361 -0.24164775 0.077787034 0.009582893
0.09560246 -0.19848816 -0.048368566 0.024143502 0.03748863 -0.015361794 -0.051673815 -0.07598483
-0.07669133 -0.34266135 -0.18003842 -0.47742125 -0.006129043 -0.015785176 -0.043616924 -0.03585834
0.016016405 0.03987148 -0.12233735 -0.05327369 -0.14382254 -0.16869669 -0.07728761 -0.16616261
-0.17734656 0.048252866 -0.062057395 -0.3253915 -0.3612959 -0.34790874 0.00324856 0.030062329
0.044258077 0.1074643 0.06651133 0.07344892 -0.02986094 -0.009508518 -0.02993864 -0.30111837
-0.2728997 -0.27877223 -0.021258537 -0.11111155 -0.11803539 0.04359351 -0.036638927 0.023461256
-0.032541443 0.05323128 0.049789593 -0.24908864 0.039251883 0.066687405 -0.044921905 -0.044286184
-0.18859366 -0.19222932 -0.08355773 -0.073635265 -0.17625599 -0.076090164 0.06659575 -0.010738587
-0.10538167 -0.01036504 -0.13576777 -0.10946194 -0.1781464 -0.16889903 -0.17088419 -0.22140256
0.3326979 0.21981029 -0.034909647 0.11602366 0.28177437 -0.20611227 -0.22078864 -0.22884639
-0.17622992 0.039346732 -0.12610486 -0.059044786 -0.23047936 -0.39927775 -0.8358536 -0.13334283
0.45330524 -0.13832378 -0.11396305 0.17423567 0.039908107 -0.013796855 0.13794152 -0.50771457
0.063071795 -0.27793705 -0.07465875 0.20555942 -0.11504915 -0.24522848 -0.0013399537 0.15710953
-0.08536164 -0.20308726 0.008025187 -0.28823322 -0.23826057 -0.08111343 -0.05525094 -0.38037235
-0.22235815 -0.276462 0.4347375 0.12450818 -0.19916755 -0.00988133 -0.032231603 -0.3551413
0.27080104 0.042670436 -0.30793443 0.051798806 -0.15489209 -0.27643877 -0.39174616 -0.38438195
-0.08427328 -0.26952422 0.06582537 0.017207693 0.29638958 0.21546832 -0.18600638 -0.23527816
00000000: 9064 57be 971a b43c 7298 d43c 83d9 163d
00000010: c5e7 693c e2d8 113e 57ed 213e b8cd c43d
00000020: 9eda 9c3c b25b ae3d 34af 91be 52ef afbb
00000030: f09f 0b3e a4c3 0b3e de36 14bd e85a 23be
00000040: 99cf 9cbd 1b8e febd 6543 be3e 7631 b83d
00000050: 4744 b23e 888c fcbd e39b 1cbe d1a6 5bbe
00000060: 7a4e 0d3e ecda 25be 8fa6 463c 691c 173e
00000070: e068 193d 76e0 4a3e d085 ecbd b665 973c
00000080: 6fad 92bb c823 5e3d 00d7 c9bc ae7c 13be
00000090: ecce b6bd bc2b 59be 9810 d8bd 8e17 8d3d
000000a0: 1079 6e3d b31f bc3d f2db b83d 5a55 7cbd
000000b0: f41e e53d 4094 933d 79b0 643d 380d d3bd
000000c0: 1d37 fd3d e609 3a3e 037c 0f3e 8ad8 6d3d
000000d0: 730b 81bd 6b5b 0abe 0f91 59be 9873 2bbe
000000e0: 3b31 3abe 9dab b6bd ea4b 03be 1594 7a3d
000000f0: a0e4 023d dd15 e4bd 4a73 043e fc75 8ebd
00000100: e988 abbd 2515 41be 7cc3 693e c002 843d
00000110: f6f0 423e 5c2b 10be 4789 fdbd 4896 04bb
00000120: 9e3c 213e e66a 3bbe 0610 393e 854f 763d
00000130: 5535 e03d 3ca6 29be 7c0f 14be ae6f 923c
00000140: 7b05 c4bc 1504 ba3d aa24 61bd 2e54 313a
00000150: 1fdc 6fbe db42 d1be a088 75be 3a17 aa3d
00000160: f801 37be 3c9b 813d a760 a63e b297 c93d
00000170: 0ad8 ac3d a081 8abc b68a afbb 288e 0d3d
00000180: 9ca5 6bbd 3ba8 5abc 7591 993d 5368 a6bd
00000190: 82cd 74bd 6937 e4bc 7cd3 ffbe bb9e 75be
000001a0: f055 3ebe 1fa9 83bd 78ef ef3c 2043 babd
000001b0: ec8f a2be d8b8 93be 924c 5dbe a30d 38bd
000001c0: adf5 bbbb 5b66 913d 938e 703d e096 02be
000001d0: f3de 42be 8272 77be cf4e 9f3d 9101 1d3c
000001e0: 39cb c33d 7b40 4bbe 1e1e 46bd 98c8 c53c
000001f0: ad8d 193d 09b0 7bbc eca7 53bd ef9d 9bbd
00000200: 5810 9dbd 4f71 afbe fe5b 38be 8f70 f4be
00000210: 24d6 c8bb ea4f 81bc a9a7 32bd 32e0 12bd
00000220: d634 833c 4750 233d 018c fabd 8335 5abd
00000230: 3746 13be d3be 2cbe f748 9ebd 8826 2abe
00000240: 569a 35be cca4 453d e52f 7ebd b799 a6be
00000250: c7fb b8be 1821 b2be cbe5 543b 4645 f63c
00000260: f547 353d 3e16 dc3d 1837 883d 636c 963d
00000270: ee9e f4bc 9dc9 1bbc e141 f5bc 302c 9abe
00000280: 82b9 8bbe 3cbb 8ebe 6226 aebc 748e e3bd
00000290: 8abc f1bd 1c8f 323d b312 16bd d231 c03c
000002a0: 2d4a 05bd 0b09 5a3d 2cf0 4b3d 1811 7fbe
000002b0: 95c6 203d 6893 883d 0800 38bd 6e65 35bd
000002c0: b21e 41be c3d7 44be 5120 abbd 16ce 96bd
000002d0: 737c 34be 29d5 9bbd 5a63 883d e6f0 2fbc
000002e0: 58d2 d7bd 21d2 29bc b506 0bbe 952d e0bd
000002f0: 036c 36be def3 2cbe 44fc 2ebe 5ab7 62be
00000300: 6157 aa3e f315 613e 6bfd 0ebd d09d ed3d
00000310: bb44 903e 180f 53be 6b16 62be b556 6abe
00000320: 9e75 34be 0a2a 213d a221 01be f2d8 71bd
00000330: c802 6cbe 226e ccbe 80fa 55bf 068b 08be
00000340: a017 e83e c0a4 0dbe 7665 e9bd d66a 323e
00000350: af76 233d 340c 62bc 8b40 0d3e 95f9 01bf
00000360: c92b 813d c44d 8ebe b0e6 98bd 2b7e 523e
00000370: e49e ebbd 2d1d 7bbe 63a1 afba 52e1 203e
00000380: 15d2 aebd 1bf6 4fbe 137c 033c 4e93 93be
00000390: 94fa 73be cc1e a6bd cf4e 62bd 2ac0 c2be
000003a0: dbb1 63be 6d8c 8dbe ea95 de3e 25fe fe3d
000003b0: 94f2 4bbe 4de5 21bc 4905 04bd 15d5 b5be
000003c0: 6fa6 8a3e 32c7 2e3d 95a9 9dbe fc2a 543d
000003d0: 089c 1ebe 6289 8dbe f492 c8be b6cd c4be
000003e0: 7897 acbd 14ff 89be 74cf 863d 26f7 8c3c
000003f0: 60c0 973e baa3 5c3e 7578 3ebe c2ec 70be

encoder_cnn.2.bias f4 [64]
-0.0857826 -0.14615141 -0.101759925 0.07878161 0.13115914 0.049905077 -0.24149387 -0.069949135
-0.18906665 -0.015841922 0.12594652 -0.1977112 0.07631062 -0.0930824 -0.1631878 -0.14841497
0.1878065 -0.040013183 -0.12357735 -0.08807326 -0.1433138 0.14789402 0.17263272 0.33183378
-0.17132394 0.042176344 -0.24977723 -0.099621765 0.1988491 -0.12303653 -0.17890874 -0.34325722
-0.16121526 0.0795921 0.21747391 -0.10801447 -0.11969763 -0.28106162 0.17310356 -0.001716445
-0.1914159 -0.4184045 0.20343314 -0.1336478 -0.0206982 -0.40583462 -0.2120133 -0.16602808
-0.19737461 0.17054543 -0.33598796 -0.3720664 -0.27798074 -0.057016592 -0.04019852 0.18700027
-0.05599258 -0.21615516 -0.1423479 -0.1274687 -0.27395976 0.20911129 -0.290368 -0.21965772
00000000: caae afbd b7a8 15be 8267 d0bd 4158 a13d
00000010: 954e 063e 4469 4c3d 2b4a 77be 7e41 8fbd
00000020: b09a 41be ebc6 81bc 20f8 003e ce74 4abe
00000030: be48 9c3d fca1 bebd b41a 27be 18fa 17be
00000040: 5950 403e dde4 23bd 1f16 fdbd c15f b4bd
00000050: dac0 12be 8871 173e a2c6 303e 1ee6 a93e
00000060: 8b6f 2fbe 1ac1 2c3d 9ac5 7fbe 7f06 ccbd
00000070: 199f 4b3e 94fa fbbd da33 37be 69bf afbe
00000080: 9d15 25be 2f01 a33d 7bb1 5e3e b136 ddbd
00000090: 0824 f5bd 4fe7 8fbe 0f42 313e 56fa e0ba
000000a0: 8802 44be 1d39 d6be c750 503e f8da 08be
000000b0: 468f a9bc 8ec9 cfbe 041a 59be 4403 2abe
000000c0: 921c 4abe 76a3 2e3e 9d06 acbe 7d7f bebe
000000d0: 7e53 8ebe 3b8a 69bd 34a7 24bd 007d 3f3e
000000e0: 7a58 65bd c757 5dbe a6c3 11be 2887 02be
000000f0: 7444 8cbe 4521 563e 1dab 94be f4ed 60be

encoder_lstm.weight_ih_l0 f4 [128, 64]
0.32471675 0.0490344 0.106548086 -0.12045717 0.26384565 0.1762038 -0.028988758 0.2180485
0.28547895 0.05314254 0.16406327 -0.28844085 0.25316557 -0.1430401 -0.1155991 0.13131468
0.19796109 -0.16349044 -0.073456764 0.013117651 -0.012494525 0.022939337 0.58958834 -0.69543135
0.45658785 0.17380558 -0.2920741 0.12896416 -0.31129777 -0.10007091 0.19814442 0.14861485
-0.037410367 0.22775377 -0.051790718 0.04409157 0.5653434 -0.055580456 0.06998922 -0.1267303
0.06291755 0.17190938 -0.01746637 0.10595908 -0.26443204 0.2525193 -0.06632984 0.22978234
0.21981056 -0.027389864 0.006870491 0.029874466 0.18654433 -0.03750516 0.09345119 -0.10654905
-0.0017946119 -0.1990764 -0.05543783 -0.041934397 -0.083787166 0.11714787 -0.088685974 -0.110379554
-0.15518193 0.013198756 -0.24648412 -0.17540897 0.006789434 -0.22529753 0.03000646 0.14356515
0.115149185 0.15695657 -0.023248987 -0.12493952 0.04019922 -0.025916956 0.07217929 0.2040896
0.29301164 0.07425681 -0.21422285 -0.047977455 0.2068002 0.15266572 -0.20635182 0.18797112
0.16458844 -0.34680408 0.15255295 0.090574756 0.17412989 -0.05680707 -0.27807882 0.08664867
0.1754068 0.09989388 -0.060448058 -0.13263807 -0.20576541 -0.15855634 0.3283145 0.0024865607
-0.05700903 0.028923912 0.18144643 -0.20411657 0.43204054 0.1071149 0.30680037 -0.0314255
-0.13701062 -0.059596468 -0.06708647 0.16160646 -0.16495173 -0.06816646 -0.06486805 0.16538203
0.057387203 0.010688394 0.13718988 -0.15218738 0.057787195 -0.050491605 -0.4279353 -0.18891847
0.09785373 -0.06362771 0.17764269 -0.0015610838 0.23403205 0.15196815 0.25731114 0.090949275
-0.065919705 0.14087275 0.17021932 -0.08499557 -0.107729785 -0.12133311 -0.012657916 0.0726732
0.2046999 0.32588455 -0.041590337 0.20810066 0.11486839 0.037467513 0.12624313 -0.21465945
-0.15092011 0.015119028 0.31002682 0.117811345 -0.03959267 0.12460541 -0.27656102 -0.0048394823
-0.13975333 0.012266098 0.026214335 0.014763681 0.02137926 0.14237002 -0.087339096 0.021706657
0.35086587 0.100130364 0.040289436 0.09999002 0.29630074 -0.6344361 0.13672353 -0.11613478
0.0029856625 0.142678 0.21636155 0.102102324 -0.094315894 -0.041799854 0.2667964 0.122123465
0.0032974968 0.2306918 0.010651241 -0.030889785 -0.14149974 -0.12954403 0.0904115 -0.089756995
-0.22258708 0.23627008 0.18567607 0.1588048 0.054699037 -0.0762756 -0.0023619027 -0.13081926
0.0060604434 0.037610188 -0.09364987 0.50933915 0.40270334 -0.17202324 -0.042363986 0.08723881
-0.35693285 0.2978549 -0.0023418171 0.110386565 0.014767049 0.39719072 0.42574355 -0.060482025
0.46868864 -0.13026033 -0.055191986 0.16198094 -0.124600485 0.12509197 -0.21801439 0.087580346
-0.31453004 -0.30584297 0.091456905 0.065110594 -0.03863355 -0.24565314 -0.21660957 0.07454513
0.19786564 0.17462924 0.018992113 0.43471083 -0.10471618 0.31763697 0.21897894 0.068417326
0.054725625 0.27421206 -0.054629724 0.1655953 0.16786939 0.028360404 0.029294955 -0.16465268
0.0737123 0.15162766 0.2749156 -0.08809124 -0.25114805 -0.12070732 -0.42867103 -0.22179733
00000000: 4641 a63e 4cd8 483d e235 da3d 40b2 f6bd
00000010: c716 873e c56e 343e d579 edbc 1b48 5f3e
00000020: 4c2a 923e feab 593d 3400 283e 85ae 93be
00000030: eb9e 813e 1b79 12be 39bf ecbd 5b77 063e
00000040: 50b6 4a3e 0a6a 27be 8070 96bd 6beb 563c
00000050: d6b5 4cbc 47eb bb3c 43ef 163f ca07 32bf
00000060: e2c5 e93e 17fa 313e bd8a 95be 2e0f 043e
00000070: 6c62 9fbe faf1 ccbd 5fe6 4a3e 7e2e 183e
00000080: 9d3b 19bd 4938 693e 8122 54bd 5d99 343d
00000090: 58ba 103f 55a8 63bd 8256 8f3d 96c5 01be
000000a0: ebda 803d 0309 303e a215 8fbc 1301 d93d
000000b0: a363 87be 364a 813e f0d7 87bd 104c 6b3e
000000c0: 0516 613e b560 e0bc db21 e13b 4cbb f43c
000000d0: 7a05 3f3e 039f 19bd 5663 bf3d 6336 dabd
000000e0: 2f39 ebba afda 4bbe c712 63bd 67c3 2bbd
000000f0: 9b98 abbd 39eb ef3d fea0 b5bd ad0e e2bd
00000100: 03e8 1ebe 983f 583c 5566 7cbe 699e 33be
00000110: e679 de3b 65b4 66be 1cd0 f53c be02 133e
00000120: 56d3 eb3d 39b9 203e a974 bebc 4be0 ffbd
00000130: f0a7 243d cc4f d4bc bcd2 933d ddfc 503e
00000140: 9f05 963e f413 983d 3c5d 5bbe 0284 44bd
00000150: 6ec3 533e 6754 1c3e e44d 53be 807b 403e
00000160: df89 283e 4e90 b1be d736 1c3e 427f b93d
00000170: 1b4f 323e 88ae 68bd 5960 8ebe dc74 b13d
00000180: d79d 333e 2a95 cc3d 6298 77bd 46d2 07be
00000190: 2bb4 52be 985c 22be d718 a83e 91f5 223b
000001a0: 4d82 69bd d7f1 ec3c 18cd 393e ef03 51be
000001b0: 6b34 dd3e 0f5f db3d f014 9d3e 06b8 00bd
000001c0: 834c 0cbe 6d1b 74bd a264 89bd 2a7c 253e
000001d0: 1be9 28be db9a 8bbd 8ad9 84bd e859 293e
000001e0: d80e 6b3d 601e 2f3c 817b 0c3e 02d7 1bbe
000001f0: 44b2 6c3d 49d0 4ebd 561a dbbe d873 41be
00000200: 8967 c83d 3f4f 82bd f7e7 353e 489d ccba
00000210: 19a6 6f3e 8a9d 1b3e 49be 833e 9d43 ba3d
00000220: e900 87bd f240 103e f94d 2e3e 2812 aebd
00000230: 6fa1 dcbd 7e7d f8bd 2663 4fbc b0d5 943d
00000240: da9c 513e 57da a63e a15a 2abd 5718 553e
00000250: 1e40 eb3d 8977 193d e145 013e b0cf 5bbe
00000260: cd8a 1abe cdb5 773c d6bb 9e3e 1347 f13d
00000270: ec2b 22bd 1f31 ff3d 6899 8dbe 8594 9ebb
00000280: 7f1b 0fbe bef7 483c 72bf d63c 5ee3 713c
00000290: 8f23 af3c 72c9 113e d7de b2bd 29d2 b13c
000002a0: b1a4 b33e 2611 cd3d 8906 253d 91c7 cc3d
000002b0: bbb4 973e 676a 22bf 4101 0c3e 12d8 edbd
000002c0: 1bab 433b 2e1a 123e e28d 5d3e 061b d13d
000002d0: b128 c1bd 5336 2bbd 8a99 883e de1b fa3d
000002e0: d11a 583b 793a 6c3e 8b82 2e3c 930c fdbc
000002f0: 4fe5 10be 31a7 04be aa29 b93d 84d2 b7bd
00000300: deed 63be c9f0 713e de21 3e3e ba9d 223e
00000310: 190c 603d 6236 9cbd 27ca 1abb 7cf5 05be
00000320: af96 c63b 240d 1a3d 81cb bfbd 0d64 023f
00000330: 222f ce3e dc26 30be dc85 2dbd 43aa b23d
00000340: e7bf b6be 7080 983e 2c79 19bb 5a12 e23d
00000350: 7ef1 713c 955c cb3e 0ffb d93e 00bc 77bd
00000360: f5f7 ef3e f762 05be fe10 62bd 55de 253e
00000370: 8a2e ffbd 1c18 003e 2a3f 5fbe 535d b33d
00000380: 150a a1be 7397 9cbe c24d bb3d b458 853d
00000390: 373e 1ebd 7f8c 7bbe e6ce 5dbe 1eab 983d
000003a0: 4a9d 4a3e 02d2 323e 5995 9b3c 6b92 de3e
000003b0: 7075 d6bd 50a1 a23e 043c 603e 621e 8c3d
000003c0: fa27 603d 8665 8c3e 6bc3 5fbd d091 293e
000003d0: f4e5 2b3e 1454 e83c f9fb ef3c b69a 28be
000003e0: 79f6 963d 4844 1b3e bdc1 8c3e 2e69 b4bd
000003f0: 7a96 80be 6635 f7bd c57a dbbe d71e 63be

encoder_lstm.weight_hh_l0 f4 [128, 32]
0.13596027 0.037257995 -0.13839078 0.4616207 0.107799314 0.03537119 -0.11360057 -0.07211989
0.117303096 0.37564063 0.10845173 -0.32041058 0.060246203 -0.02036715 -0.1470871 -0.09624828
-0.013328185 -0.33674794 0.10957089 -0.08686015 0.48619226 0.18792906 0.35902572 -0.07321061
-0.12579912 -1.0652137 -0.13077557 -0.31524998 0.09937104 0.3981834 -0.60174227 -0.2805087
-0.06432768 0.1812953 -0.57945997 0.33938435 0.2266771 -0.16245209 0.06272916 -0.20755434
0.29723063 -0.07482938 0.109318204 -0.008506465 0.0074259304 0.6088038 0.24285085 0.36265457
-0.056149047 0.21487343 0.32826036 -0.062076695 -0.057882413 -0.0001888755 -0.019406043 -0.011468207
-0.017217595 0.15117398 0.02274773 0.0061188866 0.25239575 -0.21725337 -0.086615056 0.033862244
-0.2962359 0.3196384 -0.074813105 -0.2911305 0.15145324 -0.08803373 0.068798356 0.40826264
0.32653156 -0.03521351 -0.31528544 0.060288206 0.36237082 0.23744608 -0.24185602 -0.0634051
-0.23837316 0.41058868 -0.4344918 0.258086 -0.03582399 -0.52189666 -0.094214834 -0.21274398
0.2689007 0.12536246 -0.6908852 -0.12533018 -0.0328986 -0.21764085 -0.54154485 0.0878076
-0.29099047 -0.42104247 0.04056923 0.44875452 -0.08528782 -0.12149143 -0.30303034 0.7700455
-0.5018627 -0.23792443 -0.27623284 -0.09890304 0.39001125 0.20848185 -0.26894808 -0.17845792
0.5414077 0.014443162 -0.31186894 -0.35806423 -0.07314342 -0.64413476 -0.4040394 -0.45519346
0.8436947 0.08992938 -0.82358086 -0.21885875 -0.06353764 0.5198281 0.2110238 -0.19065526
0.52273035 0.0011766409 0.22146878 0.24487554 0.22539893 -0.33303675 -0.19124131 -0.11418645
0.31007123 -0.24477394 0.36057726 0.5826941 -0.34634507 -0.06118926 0.4239509 -0.339604
0.20708309 0.019249663 0.36963347 -0.41473523 0.33965838 0.26853982 -0.2188418 0.15351613
0.071205094 0.26942894 0.073963486 -0.16612776 0.55528873 -0.005873161 -0.01890985 -0.17793302
0.10211201 0.07264554 0.31786677 -0.11612631 0.2965192 -0.025386645 -0.2226277 -0.10328202
0.32842124 -0.02119124 0.38407946 -0.0032716969 0.305124 -0.02439941 0.41625354 -0.2684002
-0.032253783 0.09702481 -0.11832582 0.4048614 0.2968029 0.31310627 0.34661344 0.47109327
-0.11722715 0.14365226 0.41997546 -0.18062033 0.1914458 -0.035633687 0.011118869 0.121983
0.01970541 -0.39728588 0.5185718 0.13904884 0.09511169 -0.072439164 0.6896516 -0.016033184
-0.28746328 0.40596315 -0.15610825 -0.57887304 0.21810396 0.42884782 -0.09023289 -0.47276032
-0.20219928 -0.55343664 0.13252215 -0.13122894 -0.102309726 0.23056635 0.2774399 -0.20973495
0.07299796 -0.18139516 0.07559791 -0.1320234 -0.02875527 0.006063747 -0.15221252 0.34042916
-0.074665174 0.08774818 -0.10681181 -0.020560676 0.139997 -0.14568466 -0.053834602 0.45867178
-0.13528827 -0.41409272 0.1377213 -0.11351926 -0.24095555 0.16490228 0.09547085 0.27432176
0.23961572 0.08730713 -0.17868212 0.15492189 0.20737104 -0.2872146 0.1346543 0.08823002
0.27143517 -0.021763684 0.09114615 -0.31547755 0.22616388 -0.17393877 0.24033087 -0.29119512
00000000: 2b39 0b3e d79b 183d 50b6 0dbe 8c59 ec3e
00000010: e3c5 dc3d 62e1 103d 6aa7 e8bd 98b3 93bd
00000020: 9b3c f03d f853 c03e f11b de3d db0c a4be
00000030: b9c4 763d 02d9 a6bc 009e 16be d11d c5bd
00000040: 765e 5abc 3a6a acbe b466 e03d bce3 b1bd
00000050: 31ee f83e 7a70 403e 38d2 b73e 72ef 95bd
00000060: 7cd1 00be ec58 88bf 08ea 05be 7268 a1be
00000070: 0b83 cb3d b2de cb3e c80b 1abf d69e 8fbe
00000080: 3bbe 83bd 7aa5 393e 7d57 14bf c9c3 ad3e
00000090: 0b1e 683e d759 26be 2578 803d 2089 54be
000000a0: 9d2e 983e 2540 99bd 39e2 df3d b35e 0bbc
000000b0: 3855 f33b 91da 1b3f e5ad 783e dcad b93e
000000c0: 8bfc 65bd c807 5c3e be11 a83e 2244 7ebd
000000d0: 1c16 6dbd e20c 46b9 6cf9 9ebc 26e5 3bbc
000000e0: ea0b 8dbc 5acd 1a3e 7359 ba3c f180 c83b
000000f0: 043a 813e ab77 5ebe 3c63 b1bd 23b3 0a3d
00000100: 3bac 97be a5a7 a33e 9d37 99bd 0f0f 95be
00000110: 8f16 1b3e 074b b4bd 27e6 8c3d cd07 d13e
00000120: 252f a73e 0b3c 10bd 186d a1be c4f0 763d
00000130: ab88 b93e 1125 733e 1ba9 77be 88da 81bd
00000140: 1818 74be ae38 d23e b675 debe d923 843e
00000150: 2dbc 12bd 059b 05bf b5f3 c0bd 8fd9 59be
00000160: 5aad 893e 045f 003e dadd 30bf 8e56 00be
00000170: afc0 06bd 3edd 5ebe afa2 0abf 79d4 b33d
00000180: b4fc 94be e192 d7be ec2b 263d 27c3 e53e
00000190: 61ab aebd 80d0 f8bd cb26 9bbe b421 453f
000001a0: 137a 00bf 76a2 73be 646e 8dbe ad8d cabd
000001b0: 8eaf c73e 447c 553e 90b3 89be acbd 36be
000001c0: b299 0a3f 03a3 6c3c 49ad 9fbe 3254 b7be
000001d0: 38cc 95bd 04e6 24bf 41de cebe 1e0f e9be
000001e0: 60fc 573f e52c b83d 32d6 52bf 821c 60be
000001f0: 0620 82bd 7413 053f 9f16 583e 223b 43be
00000200: a8d1 053f 8439 9a3a b6c8 623e a7c0 7a3e
00000210: face 663e cb83 aabe c3d4 43be 96da e9bd
00000220: a8c1 9e3e 05a6 7abe 959d b83e 712b 153f
00000230: 2454 b1be 97a1 7abd 1810 d93e 93e0 adbe
00000240: 970d 543e 78b1 9d3c 9940 bd3e 2d58 d4be
00000250: b4e7 ad3e 0d7e 893e 1118 60be 5533 1d3e
00000260: fad3 913d 97f2 893e 2b7a 973d 651d 2abe
00000270: 6727 0e3f a573 c0bb d4e8 9abc 1334 36be
00000280: 1a20 d13d 2fc7 943d 6fbf a23e a1d3 edbd
00000290: 5dd1 973e a7f7 cfbc 84f8 63be 8685 d3bd
000002a0: d426 a83e 4099 adbc 10a6 c43e f769 56bb
000002b0: 3739 9c3e 45e1 c7bc 2f1f d53e c06b 89be
000002c0: 8b1c 04bd f2b4 c63d cf54 f2bd fe49 cf3e
000002d0: 8df6 973e 774f a03e 5177 b13e 2333 f13e
000002e0: ca14 f0bd 9419 133e 0607 d73e 89f4 38be
000002f0: 5e0a 443e a1f4 11bd eb2b 363c 39d2 f93d
00000300: 3d6d a13c 0e69 cbbe 1fc1 043f d262 0e3e
00000310: ebc9 c23d fc5a 94bd 028d 303f 0658 83bc
00000320: 632e 93be 67da cf3e d7da 1fbe 0631 14bf
00000330: a556 5f3e f191 db3e 05cc b8bd a40d f2be
00000340: 540d 4fbe 06ae 0dbf e3b3 073e e160 06be
00000350: c387 d1bd 9619 6c3e 9a0c 8e3e c2c4 56be
00000360: f47f 953d a7bf 39be 14d3 9a3d 2431 07be
00000370: 2c90 ebbc 66b2 c63b 99dd 1bbe bb4c ae3e
00000380: 0eea 98bd 51b5 b33d 26c0 dabd dd6e a8bc
00000390: 605b 0f3e 5c2e 15be ac81 5cbd 07d7 ea3e
000003a0: 0289 0abe f603 d4be d006 0d3e c97c e8bd
000003b0: 0dbd 76be 25dc 283e 3986 c33d e773 8c3e
000003c0: d35d 753e 15ce b23d 72f8 36be d8a3 1e3e
000003d0: 1359 543e cb0d 93be d1e2 093e f1b1 b43d
000003e0: 8df9 8a3e c149 b2bc d5aa ba3d 4686 a1be
000003f0: 8197 673e 011d 32be 4c19 763e 8717 95be

encoder_lstm.bias_ih_l0 f4 [128]
-0.1433131 0.14958945 -0.024355311 -0.10485256 0.10708848 0.4801407 -0.0008858467 0.19774577
-0.4001804 0.13208011 -0.0390321 -0.0027737336 -0.04579234 -0.094717816 -0.23026426 0.21381624
-0.113188446 0.10811244 -0.019333921 -0.031654462 0.049309026 0.106739566 0.12650679 0.36678642
0.58417547 -0.117987424 -0.18589722 -0.01173452 -0.11748988 0.046388444 -0.055235483 -0.026543109
0.49464235 0.102277726 -0.24595818 0.08445742 0.25136355 0.035821915 0.1698677 0.08620027
0.02832558 0.014860415 0.4113755 -0.18920733 0.22112553 -0.17197438 -0.21023493 -0.22794181
-0.034198884 -0.15289912 0.2714373 0.03492575 -0.100830935 -0.06206911 0.028303353 0.21174629
-0.025334764 -0.28791136 -0.022149077 -0.26468444 0.00017010349 0.3097788 0.030203197 0.54605454
-0.089961745 0.3062975 -0.272967 0.14810848 0.11949266 -0.59122306 -0.048770558 -0.44293797
-0.043030348 0.17611825 -0.09863379 0.03166349 -0.6184659 -0.44770584 0.07997587 -0.0357347
0.07262491 0.10713331 0.2286602 -0.15119152 -0.08850921 0.02886393 -0.07668942 0.09316581
-0.17410246 0.2821751 0.12331193 -0.20229547 0.2381211 -0.09614242 -0.05523251 -0.30898297
0.106884256 -0.06827502 -0.4425374 0.13323453 0.1960803 0.20600638 0.014534885 0.52042973
-0.123016044 0.028002229 0.32705444 -0.19186993 -0.12313992 -0.10495256 0.00016799947 -0.12676132
0.011148319 0.004734832 0.22888194 -0.2994144 -0.15991071 -0.067708835 -0.20799421 0.23428404
-0.1800067 -0.00975824 -0.21181126 0.24338746 0.7247961 0.061932046 -0.30121028 0.19304718
00000000: abc0 12be fa2d 193e ca84 c7bc f0bc d6bd
00000010: 3451 db3d 00d5 f53e 2a38 68ba de7d 4a3e
00000020: 72e4 ccbe 0240 073e 20e0 1fbd 87c7 35bb
00000030: c090 3bbd 6afb c1bd 65ca 6bbe a5f2 5a3e
00000040: 58cf e7bd 0e6a dd3d 2c62 9ebc 1ca8 01bd
00000050: 43f8 493d 469a da3d ff8a 013e 6ecb bb3e
00000060: 868c 153f 64a3 f1bd d75b 3ebe 2542 40bc
00000070: 899e f0bd cf01 3e3d 9a3e 62bd ef70 d9bc
00000080: c341 fd3e fc76 d13d 76dc 7bbe 03f8 ac3d
00000090: b9b2 803e 00ba 123d ccf1 2d3e c489 b03d
000000a0: 0c0b e83c 1979 733c cf9f d23e 91bf 41be
000000b0: bb6e 623e 0d1a 30be d347 57be 9469 69be
000000c0: 2114 0cbd 9691 1cbe d4f9 8a3e 4e0e 0f3d
000000d0: 7380 cebd 2e3c 7ebd 6fdc e73c 05d4 583e
000000e0: da8a cfbc 1e69 93be fb71 b5bc b884 87be
000000f0: cf5d 3239 549b 9e3e b26c f73c 3bca 0b3f
00000100: dd3d b8bd 07d3 9c3e 55c2 8bbe c0a9 173e
00000110: 91b8 f43d 655a 17bf a3c3 47bd c4c8 e2be
00000120: 9740 30bd 5858 343e 8300 cabd 93b1 013d
00000130: c853 1ebf b339 e5be 64ca a33d 8c5e 12bd
00000140: 5ebc 943d b568 db3d e625 6a3e f3d1 1abe
00000150: 5144 b5bd 0c74 ec3c 580f 9dbd b7cd be3d
00000160: ea47 32be 4179 903e f78a fc3d 8b26 4fbe
00000170: 05d6 733e 51e6 c4bd 7c3b 62bd 0433 9ebe
00000180: 22e6 da3d c6d3 8bbd 4394 e2be a26e 083e
00000190: 46c9 483e 56f3 523e ba23 6e3c e23a 053f
000001a0: d6ef fbbd ee64 e53c ae73 a73e 8d79 44be
000001b0: c830 fcbd 5ef1 d6bd 0429 3039 b8cd 01be
000001c0: 70a7 363c a626 9b3b 0760 6a3e d84c 99be
000001d0: a2bf 23be eeaa 8abd 6ffc 54be 28e8 6f3e
000001e0: ad53 38be 06e1 1fbc 0de5 58be 903a 793e
000001f0: 3d8c 393f 75ac 7d3d 3c38 9abe 29ae 453e

encoder_lstm.bias_hh_l0 f4 [128]
0.099084325 -0.019817188 -0.10941741 -0.12713842 0.15508904 0.20584281 0.24234827 0.06606067
-0.1359161 0.060167383 -0.11572746 -0.19612879 -0.12232728 0.07330395 -0.3208263 0.240085
-0.24637027 0.07266016 -0.07365551 -0.11701736 -0.07903622 0.07644759 0.12875825 0.26646262
0.49924657 0.14094585 -0.36669117 0.000339043 0.041494302 -0.1770751 -0.29052943 0.23759414
0.3890773 0.24861549 -0.27197868 -0.043511957 0.07716062 0.0023123769 0.038222436 0.053895593
0.21279307 0.17633463 0.4163311 -0.21646065 0.34045538 -0.15131153 0.0937012 -0.26460585
-0.25718492 -0.42192343 0.26604328 -0.10276877 -0.23391517 0.03619602 -0.018213673 0.20826557
0.068644725 -0.38797837 -0.17424904 -0.47170666 0.31765953 0.4103979 0.22379884 0.40297785
0.12951969 0.14917508 -0.065037444 -0.12309672 -0.12057187 -0.5064548 -0.046397727 -0.377774
0.21605434 0.077913254 0.029819662 0.10097781 -0.6015518 -0.2235242 0.16231287 0.029194128
0.10935867 -0.120844565 0.29411864 -0.3609595 -0.0040462883 -0.17221096 -0.15064777 0.3343357
-0.24817628 0.11756854 0.06537261 -0.14729296 0.22878572 -0.3504669 -0.37965897 -0.11746164
0.09330078 0.13652585 -0.26421395 0.33027306 0.16898037 0.35732016 0.09331019 0.41647866
-0.2611449 -0.12673047 0.11983664 -0.0018175725 0.18697034 -0.1284609 0.090796456 -0.023202108
-0.26673126 0.2090701 0.16887456 -0.117989734 -0.08044153 -0.00548559 -0.09440768 0.07943916
-0.0716087 0.019771112 -0.08808605 0.36525634 0.6925179 0.04813937 -0.16878188 0.20215261
00000000: b9ec ca3d a857 a2bc 3c16 e0bd 9330 02be
00000010: a9cf 1e3e 75c8 523e 252a 783e d14a 873d
00000020: 972d 0bbe 1372 763d 8502 edbd fcd5 48be
00000030: ba86 fabd 6220 963d 5843 a4be d8d8 753e
00000040: 7d48 7cbe dace 943d b3d8 96bd cca6 efbd
00000050: bedd a1bd 8e90 9c3d 34d9 033e ca6d 883e
00000060: 3f9d ff3e 1c54 103e f2be bbbe 95c1 b139
00000070: eef5 293d 2d53 35be 46c0 94be e14b 733e
00000080: 2435 c73e 0f95 7e3e ca40 8bbe 9839 32bd
00000090: 6306 9e3d 3f8b 173b 218f 1c3d a0c1 5c3d
000000a0: 6de6 593e 1191 343e 5a29 d53e dca7 5dbe
000000b0: 2b50 ae3e 69f1 1abe 6ae6 bf3d 6b7a 87be
000000c0: bead 83be 5906 d8be d336 883e 6f78 d2bd
000000d0: 7587 6fbe 4742 143d d734 95bc 9243 553e
000000e0: 9b95 8c3d 1aa5 c6be 576e 32be 8983 f1be
000000f0: 45a4 a23e ac1f d23e 862b 653e 1d53 ce3e
00000100: cfa0 043e 5ac1 183e 5a32 85bd 221a fcbd
00000110: 62ee f6bd 06a7 01bf 8b0b 3ebd 986b c1be
00000120: 593d 5d3e fc90 9f3d 5d48 f43c 74cd ce3d
00000130: 4cff 19bf 87e3 64be 5835 263e 8628 ef3c
00000140: 70f7 df3d 5b7d f7bd b896 963e afcf b8be
00000150: ba96 84bb 1258 30be 6943 1abe 0d2e ab3e
00000160: ec21 7ebe c6c7 f03d 13e2 853d f7d3 16be
00000170: ce46 6a3e 6670 b3be a962 c2be ba8f f0bd
00000180: 7b14 bf3d 6fcd 0b3e 0d47 87be 8d19 a93e
00000190: 3109 2d3e abf2 b63e 6a19 bf3d b13c d53e
000001a0: c9b4 85be a2c5 01be ea6c f53d 9d3b eeba
000001b0: 2775 3f3e 418b 03be 7ef3 b93d 5912 bebc
000001c0: 0091 88be 7916 563e 74ed 2c3e 9aa4 f1bd
000001d0: 87be a4bd 77c0 b3bb d058 c1bd 00b1 a23d
000001e0: 95a7 92bd 07f7 a13c 7566 b4bd e102 bb3e
000001f0: da48 313f ca2d 453d 28d5 2cbe 1801 4f3e

encoder_lstm.weight_ih_l1 f4 [128, 32]
0.10517583 -0.16902639 0.27144983 -0.22665323 0.31845903 0.05982495 -0.29377568 0.3247834
-0.11337937 0.019055825 0.16584703 -0.035457607 -0.004779627 -0.3887967 -0.006686133 -0.060164902
-0.047242366 -0.2926392 -0.4502777 0.023068849 0.15770063 0.23289439 -0.016137881 -0.0047628833
0.36961052 -0.12853241 0.4320685 -0.39658803 0.36994454 -0.16403267 0.016705563 -0.061469804
0.20669216 -0.11961324 0.109607935 0.15728861 0.45084497 -0.33876553 -0.38549808 0.3067836
-0.11544908 -0.11446523 0.019181984 0.04977855 0.1164468 0.012740454 -0.07531928 0.03528434
-0.12857273 -0.28245193 0.1375004 -0.13262644 0.15819985 -0.28108478 -0.05934626 0.109683625
0.4357118 -0.2039261 -0.12931335 -0.043113403 0.29856622 0.00020717704 -0.3832076 0.08248793
-0.150001 0.21306743 -0.06838128 0.36004347 0.24744906 0.44166833 0.2739978 0.42318878
-0.0039074915 0.059827957 -0.042961545 -0.118918404 0.057297688 -0.12040986 0.20257582 -0.10118457
0.013411565 0.11079067 0.04074188 0.19303675 0.22462244 -0.4000506 -0.19268969 -0.31179258
-0.22433789 -0.06503493 -0.28430682 0.31638 -0.05613483 -0.61080295 -0.17514284 0.25742447
0.08926686 0.31967697 -0.15177606 0.18792252 0.48910254 -0.031111818 -0.13216782 0.026495092
-0.15405394 0.021787975 0.22703503 -0.097545296 0.69930935 -0.18611388 0.28504035 0.11533543
-0.1985873 0.02139023 0.11003441 -0.23373677 0.022458015 -0.16060051 0.10303652 0.27828598
0.10182571 0.1940398 -0.08406313 0.18063875 0.55408794 -0.3005868 0.21271613 0.16497582
0.09324439 0.28767145 -0.22188093 0.09060583 0.17577414 0.005191683 -0.19371785 -0.33798912
-0.7823001 -0.20507574 0.3154793 -0.11772636 -0.083690695 -0.082220666 0.20726852 0.03550739
-0.11475376 0.047933172 0.14445567 0.059285972 -0.21711051 -0.2541007 -0.1748667 0.15071915
0.035013862 0.06410018 -0.08375225 0.057449598 0.11501593 -0.56161404 0.17870004 0.340667
-0.0849883 0.24251163 -0.2583958 0.054100618 -0.066976786 0.087771244 0.19266532 -0.039431084
-0.14286485 -0.2861123 -0.07355889 -0.046939332 0.034656208 -0.067119114 -0.15057242 0.23730898
-0.095317736 0.36684084 0.4314313 0.35458934 -0.11691258 -0.21519572 0.06490814 0.013700995
-0.25952822 0.14653765 0.061846603 0.27645788 -0.24618961 0.05164346 -0.043909565 0.052153554
0.04021469 0.120674156 -0.26497856 0.44250423 -0.28124577 0.4028729 -0.0911732 0.215629
0.018253895 0.08606452 0.17237216 0.102216534 0.10417193 0.08023795 0.02343133 -0.2199168
0.3099874 -0.2566626 -0.28842083 0.15370347 0.05777051 -0.015490035 -0.11774768 0.170673
0.051983964 -0.06304215 0.060579672 -0.2902653 -0.15407138 0.33697575 0.19247662 -0.4497206
-0.083528906 0.31668046 -0.28166616 0.3758626 0.16893834 0.17581186 0.28053364 0.19608523
-0.38174406 -0.20352028 -0.08119857 -0.030438844 -0.06928436 0.07345155 -0.08866099 -0.12833366
0.14608835 -0.11076396 -0.14744304 -0.110524915 0.07030007 -0.06080913 -0.04106912 -0.29075047
0.20913595 0.07110049 -0.23886956 0.026822574 0.12397277 -0.0020271686 0.31963095 0.12153919
00000000: 6d66 d73d 4115 2dbe 79fb 8a3e c917 68be
00000010: 100d a33e 020b 753d c469 96be 034a a63e
00000020: 7133 e8bd f61a 9c3c ced3 293e ff3b 11bd
00000030: 6b9e 9cbb 5c10 c7be 5917 dbbb 796f 76bd
00000040: 3681 41bd ced4 95be cc8a e6be e2fa bc3c
00000050: 467c 213e de7b 6e3e 9733 84bc f611 9cbb
00000060: 973d bd3e 009e 03be 1538 dd3e 960d cbbe
00000070: 5f69 bd3e 2ef8 27be 1bda 883c c3c7 7bbd
00000080: 1ca7 533e c9f7 f4bd 207a e03d 4410 213e
00000090: 27d5 e63e ad72 adbe 0160 c5be bd12 9d3e
000000a0: 9170 ecbd bf6c eabd 8923 9d3c 98e4 4b3d
000000b0: a97b ee3d 56bd 503c ff40 9abd 5086 103d
000000c0: 92a8 03be 8a9d 90be e8cc 0c3e 3acf 07be
000000d0: 24ff 213e 58ea 8fbe 1015 73bd cfa1 e03d
000000e0: 9e15 df3e 01d2 50be b86a 04be ae97 30bd
000000f0: acdd 983e aa3d 5939 c933 c4be 6fef a83d
00000100: dd99 19be 592e 5a3e 7c0b 8cbd 9e57 b83e
00000110: 4963 7d3e 5a22 e23e 7149 8c3e 33ac d83e
00000120: 6a0a 80bb 290e 753d 72f8 2fbd 7e8b f3bd
00000130: fbb0 6a3d 7299 f6bd 0970 4f3e db39 cfbd
00000140: 2ebc 5b3c 38e6 e23d f5e0 263d 6dab 453e
00000150: 6d03 663e 6fd3 ccbe 7250 45be 47a3 9fbe
00000160: d5b8 65be 0931 85bd aa90 91be 8ffc a13e
00000170: a3ed 65bd 955d 1cbf a558 33be 24cd 833e
00000180: 8bd1 b63d b3ac a33e 2f6b 1bbe c36e 403e
00000190: a66b fa3e 36de febc 0057 07be 3c0c d93c
000001a0: 51c0 1dbe b27c b23c df7b 683e d4c5 c7bd
000001b0: f005 333f a394 3ebe cff0 913e fb34 ec3d
000001c0: 785a 4bbe 903a af3c b959 e13d b158 6fbe
000001d0: dff9 b73c 7674 24be d004 d33d 807b 8e3e
000001e0: ff89 d03d 5fb2 463e 4a29 acbd 5df9 383e
000001f0: b5d8 0d3f 83e6 99be 42d2 593e 6cef 283e
00000200: eaf6 be3d ac49 933e c134 63be 8d8f b93d
00000210: 23fe 333e fe1e aa3b f95d 46be e90c adbe
00000220: d244 48bf 60ff 51be 8186 a13e 851a f1bd
00000230: 0766 abbd 4f63 a8bd 333e 543e 3270 113d
00000240: 0504 ebbd 9355 443d 30ec 133e d9d5 723d
00000250: 3852 5ebe 7d19 82be 4210 33be 1f56 1a3e
00000260: b26a 0f3d f546 833d 4d86 abbd 4550 6b3d
00000270: 798d eb3d f0c5 0fbf 25fd 363e e86b ae3e
00000280: 590e aebd f854 783e 744c 84be 9c98 5d3d
00000290: 202b 89bd 69c1 b33d 0f4a 453e 7d82 21bd
000002a0: 2a4b 12be 507d 92be 0ba6 96bd 7543 40bd
000002b0: abf3 0d3d bf75 89bd a82f 1abe 2001 733e
000002c0: f235 c3bd 90d2 bb3e 90e4 dc3e bc8c b53e
000002d0: dd6f efbd 445c 5cbe 8fee 843d 237a 603c
000002e0: e2e0 84be f70d 163e dd52 7d3d e38b 8d3e
000002f0: 2119 7cbe 1888 533d 84da 33bd f79e 553d
00000300: 29b8 243d 0324 f73d 45ab 87be ea8f e23e
00000310: 72ff 8fbe 5b45 ce3e 04b9 babd d9cd 5c3e
00000320: 3189 953c 9842 b03d 5482 303e e756 d13d
00000330: 1858 d53d cb53 a43d 10f3 bf3c df31 61be
00000340: abb6 9e3e 4869 83be e5ab 93be 7164 1d3e
00000350: c5a0 6c3d eac9 7dbc b225 f1bd e7c4 2e3e
00000360: 23ed 543d 3e1c 81bd 6422 783d a79d 94be
00000370: e3c4 1dbe 1688 ac3e 9718 453e c741 e6be
00000380: 3411 abbd f123 a23e 8c36 90be 1071 c03e
00000390: 2cfe 2c3e 0608 343e 1ba2 8f3e 91ca 483e
000003a0: f573 c3be 9f67 50be 704b a6bd e25a f9bc
000003b0: f5e4 8dbd c46d 963d e593 b5bd e669 03be
000003c0: 2f98 153e 37d8 e2bd 4ffb 16be e35a e2bd
000003d0: 7cf9 8f3d ff12 79bd 1838 28bd 3fdd 94be
000003e0: bc27 563e 229d 913d 399a 74be 04bb db3c
000003f0: 70e5 fd3d 3fda 04bb aba6 a33e 8ae9 f83d

encoder_lstm.weight_hh_l1 f4 [128, 32]
-0.031916827 -0.15748736 -0.25220656 -0.022511644 -0.27890965 0.108073905 0.08955166 -0.1918212
-0.0859817 0.06918266 0.25703755 0.20680845 -0.054448925 -0.14905232 0.2206894 -0.107279465
-0.3155379 0.230218 -0.17377813 0.092796296 0.0692665 -0.19061677 -0.020701727 0.13306956
0.12738688 -0.2720168 0.050004933 0.2213608 -0.1626749 0.1606666 0.10625788 -0.3301882
0.17471613 -0.18162224 0.10032599 -0.052312437 -0.21581626 0.2907872 -0.12442954 -0.104799755
0.07073767 -0.13620406 -0.094017096 0.1383534 0.06879603 -0.019243702 0.1786178 -0.06470073
0.21718766 0.15987825 -0.19856495 0.19061683 0.0543416 0.06941282 0.0935436 0.007583697
-0.03194125 0.22322473 0.091793574 0.19524579 0.11258138 0.020028187 0.10122977 0.17006747
-0.24661388 -0.044699904 -0.2964323 -0.11921436 -0.25802827 0.1168988 -0.21298018 -0.095117986
0.27974182 0.10140352 0.13721901 -0.320235 -0.040711116 0.19284895 -0.09571764 0.3317489
0.5253797 -0.09008212 0.1315162 -0.17366485 0.047305323 -0.09828333 0.118259 0.029997438
-0.038484205 0.13712625 0.11924802 -0.05030607 0.08177045 -0.08772308 -0.08048189 -0.043635927
-0.033705782 0.2249227 0.00050809945 -0.34475097 0.20804578 -0.31071937 -0.069536656 -0.20371929
0.28695434 -0.07727947 0.035506617 0.015781032 0.102197714 0.1314188 0.21113789 -0.17947581
0.055950955 0.036430795 -0.04194064 -0.25176033 0.19098175 0.1393638 0.118739314 0.0523691
0.28576025 0.18953522 0.102672085 -0.14768206 -0.06560271 -0.15528539 -0.06493226 0.26533857
-0.18655406 -0.37861815 -0.1581643 0.096190795 -0.015645254 -0.19017987 0.04138974 -0.18895486
0.23214641 -0.07250152 -0.16751817 -0.23222548 -0.21205848 0.3980001 0.0037189312 3.1148372e-06
0.5619491 -0.10126111 0.07133278 -0.15608782 -0.01719153 -0.111497164 -0.18188877 0.085239574
-0.13841122 0.18050048 0.0065551894 0.007703581 -0.047042146 -0.06587691 0.029316492 0.14532562
-0.17131904 -0.2219083 -0.11729957 -0.104986854 0.08952768 -0.28059414 -0.36231586 0.33011386
0.31776476 0.27370358 0.026265956 -0.15054794 0.111896686 0.09720357 -0.016313726 0.04369784
0.30249688 -0.3621794 0.07570739 -0.15437758 -0.08750169 0.08909321 -0.039400324 -0.038699403
0.06559807 0.25669998 0.22276442 -0.2446152 -0.12904449 -0.060613167 -0.35779724 -0.10818197
0.24610533 -0.18253097 0.013265155 -0.13370779 -0.35916868 0.32275546 0.08933904 0.12191493
-0.2931576 0.032005657 0.19368866 0.016334845 0.3284467 -0.119149454 -0.22055046 0.061155193
-0.12729837 -0.122678414 -0.09243388 0.13653801 0.04901872 0.30899492 0.2169914 -0.14810029
-0.2362642 -0.02635101 -0.4345283 0.19749707 0.2942352 -0.16763632 0.36331263 0.0050660362
-0.30700588 -0.19332634 -0.12637503 0.14983203 -0.20476739 0.28805268 -0.04588262 -0.123581715
-0.112153634 -0.21323945 0.020214714 -0.22708616 0.12544918 -0.18686447 -0.094639815 0.116077535
0.0949219 -0.0020510503 0.06509943 0.13694705 -0.0497429 -0.064449735 0.058093384 -0.058615502
0.182274 -0.009794041 -0.08924985 -0.1268049 -0.257871 0.15911536 0.18555911 -0.3437951
00000000: 38bb 02bd 5e44 21be 3821 81be 576a b8bc
00000010: 3fcd 8ebe da55 dd3d dc66 b73d c76c 44be
00000020: 2c17 b0bd a3af 8d3d 6d9a 833e 98c5 533e
00000030: d605 5fbd 2ca1 18be 67fc 613e 56b5 dbbd
00000040: 2f8e a1be 44be 6b3e e5f2 31be fc0b be3d
00000050: 98db 8d3d 0b31 43be ab96 a9bc 6343 083e
00000060: b571 023e c945 8bbe f9d1 4c3d 68ac 623e
00000070: 4094 26be c985 243e bb9d d93d 6e0e a9be
00000080: c9e8 323e 2efb 39be b677 cd3d 9145 56bd
00000090: f0fe 5cbe 0fe2 943e ead4 febd 41a1 d6bd
000000a0: e9de 903d 1479 0bbe 098c c0bd 84ac 0d3e
000000b0: efe4 8c3d f8a4 9dbc 96e7 363e d181 84bd
000000c0: 7166 5e3e 20b7 233e 9c54 4bbe 0f31 433e
000000d0: 4c95 5e3d 4f28 8e3d c993 bf3d a980 f83b
000000e0: d4d4 02bd 0695 643e 45fe bb3d 83ee 473e
000000f0: 1191 e63d 2712 a43c 8e51 cf3d 2b26 2e3e
00000100: 5988 7cbe 3f17 37bd f9c5 97be a926 f4bd
00000110: 481c 84be a368 ef3d 7a17 5abe 38cd c2bd
00000120: 523a 8f3e a6ac cf3d 2483 0c3e d8f5 a3be
00000130: b3c0 26bd 327a 453e 9c07 c4bd feda a93e
00000140: 497f 063f f97c b8bd 2fac 063e 33d5 31be
00000150: 3ac3 413d c548 c9bd c631 f23d 30bd f53c
00000160: 9da1 1dbd d36a 0c3e 4e38 f43d bd0d 4ebd
00000170: 4477 a73d 28a8 b3bd b0d3 a4bd 96bb 32bd
00000180: 130f 0abd 2352 663e fa31 053a 3383 b0be
00000190: f409 553e 9c16 9fbe 3c69 8ebd ca9b 50be
000001a0: aeeb 923e b344 9ebd 636f 113d 3947 813c
000001b0: 094d d13d a692 063e 8834 583e 82c8 37be
000001c0: d42c 653d 7538 153d f3c9 2bbd bbe6 80be
000001d0: b890 433e 62b5 0e3e 992d f33d fb80 563d
000001e0: 2b4f 923e 8515 423e be45 d23d f739 17be
000001f0: b75a 86bd 2203 1fbe 34fb 84bd 75da 873e
00000200: 0708 3fbe 3dda c1be d2f5 21be aeff c43d
00000210: 7a2a 80bc 83be 42be 4a88 293d 627d 41be
00000220: cab7 6d3e ad7b 94bd e289 2bbe 84cc 6dbe
00000230: dc25 59be abc6 cb3e 50b9 733b 7f08 5136
00000240: e5db 0f3f fc61 cfbd ec16 923d 7cd5 1fbe
00000250: 40d5 8cbc a058 e4bd 0d41 3abe 1692 ae3d
00000260: acbb 0dbe 1ed5 383e eacc d63b 526e fc3b
00000270: 44af 40bd 79ea 86bd 2429 f03c 3dd0 143e
00000280: 426e 2fbe ee3b 63be c23a f0bd 5903 d7bd
00000290: 4a5a b73d 09aa 8fbe 7781 b9be af04 a93e
000002a0: 10b2 a23e e022 8c3e b42b d73c 3d29 1abe
000002b0: 172a e53d aa12 c73d 5da4 85bc 82fc 323d
000002c0: dfe0 9a3e 946f b9be 7a0c 9b3d 2815 1ebe
000002d0: 1634 b3bd 8076 b63d 3c62 21bd 4483 1ebd
000002e0: 4858 863d 2e6e 833e 5b1c 643e 687c 7abe
000002f0: 3d24 04be 8345 78bd 3331 b7be 828e ddbd
00000300: 0903 7c3e 66e9 3abe 1856 593c b2ea 08be
00000310: f5e4 b7be 3440 a53e 63f7 b63d 89ae f93d
00000320: c118 96be 5d18 033d 5256 463e a7d0 853c
00000330: 2a2a a83e a104 f4bd fbd7 61be de7d 7a3d
00000340: 815a 02be d23e fbbd f94d bdbd 9fd0 0b3e
00000350: dac7 483d 9534 9e3e fe32 5e3e 9aa7 17be
00000360: 3eef 71be 13de d7bc 7e7a debe ac3c 4a3e
00000370: ffa5 963e dba8 2bbe 1d04 ba3e fe00 a63b
00000380: e02f 9dbe 57f7 45be 7568 01be 916d 193e
00000390: 8bae 51be a47b 933e 6aef 3bbd 6918 fdbd
000003a0: ceb0 e5bd 715b 5abe 5499 a53c 4689 68be
000003b0: c075 003e 6659 3fbe 85d2 c1bd 0fba ed3d
000003c0: 6a66 c23d ea6a 06bb da52 853d d93b 0c3e
000003d0: 36bf 4bbd 39fe 83bd 54f3 6d3d cf16 70bd
000003e0: 09a6 3a3e 2f77 20bc a0c8 b6bd 25d9 01be
000003f0: ab07 84be 23ef 223e 3503 3e3e e905 b0be

encoder_lstm.bias_ih_l1 f4 [128]
-0.045190535 -0.17695433 -0.34697613 -0.100678004 -0.04034718 0.11640111 0.13766328 0.010692754
-0.19832353 -0.08304725 0.26404765 -0.12288886 0.12475019 0.19978838 -0.00988819 -0.1525799
0.15520506 -0.15349275 -0.094344564 0.0053153546 0.03705359 -0.1354445 -0.25500274 -0.17887546
0.19316703 0.014941884 -0.18214723 0.10655676 -0.062101796 -0.16361085 0.046496823 -0.061663147
0.18822421 -0.10813832 0.3237922 0.09213068 -0.05823564 0.11415594 0.07219214 -0.15546703
0.40633985 -0.2988673 0.26082563 0.24215446 0.143324 0.15173458 0.32025638 -0.15823352
-0.22532392 0.24827863 0.3120142 0.033353355 -0.11900934 0.04871489 0.13208187 -0.0581159
0.23660348 0.24525297 -0.14304416 0.3666999 0.4539585 -0.022709709 -0.07043815 0.08005378
0.057323366 -0.11541325 -0.0664888 -0.0065090703 -0.09707986 -0.050529886 -0.02424095 -0.07713223
-0.21642263 -0.0004503129 0.19869047 0.26542038 0.07173895 -0.053430337 -0.10389532 0.12878384
-0.077631 0.16211861 -0.22777127 0.1362948 0.046066135 0.08050817 0.081285775 -0.17427793
0.07909158 0.030062089 -0.18696964 -0.050684683 0.05437301 -0.00076713035 0.061768837 -0.08721401
-0.1017829 0.06460394 0.023801561 0.16259381 0.09721391 -0.22385168 0.17777686 -0.058560513
0.16673294 -0.18023816 0.038312677 0.22068869 0.07013204 -0.011873194 -0.08481153 0.18043754
-0.08215831 0.19385858 0.12180181 0.19715776 0.09343976 0.21396224 0.20257 -0.14806935
-0.006359008 -0.019811826 0.08856772 0.17366298 0.00022151115 -0.11991791 0.015937282 -0.11337608
00000000: b619 39bd 8433 35be dba6 b1be 4530 cebd
00000010: 1643 25bd b563 ee3d 9af7 0c3e a930 2f3c
00000020: 5315 4bbe ad14 aabd 4131 873e 28ad fbbd
00000030: 077d ff3d 5395 4c3e 1302 22bc e83d 1cbe
00000040: 13ee 1e3e 342d 1dbe b937 c1bd 6d2c ae3b
00000050: 81c5 173d f7b1 0abe b88f 82be 212b 37be
00000060: 94cd 453e cece 743c ce84 3abe 6e3a da3d
00000070: 745e 7ebd 9a89 27be 7473 3e3d 7f92 7cbd
00000080: d9bd 403e a077 ddbd 17c8 a53e 03af bc3d
00000090: 7f88 6ebd 97ca e93d 79d9 933d c032 1fbe
000000a0: c70b d03e 2205 99be f08a 853e 57f7 773e
000000b0: 87c3 123e 4f60 1b3e a5f8 a33e f807 22be
000000c0: 50bb 66be c13c 7e3e 53c0 9f3e 879d 083d
000000d0: 2bbb f3bd 4489 473d 7840 073e f00a 6ebd
000000e0: 2f48 723e 9823 7b3e 2b7a 12be 17c0 bb3e
000000f0: 406d e83e b609 babc e041 90bd 3cf3 a33d
00000100: e8cb 6a3d c85d ecbd 482b 88bd 0a4a d5bb
00000110: ced1 c6bd 6df8 4ebd f594 c6bc 81f7 9dbd
00000120: e59d 5dbe f917 ecb9 8475 4b3e 2ee5 873e
00000130: dfeb 923d c5d9 5abd 12c7 d4bd e9df 033e
00000140: 00fd 9ebd 6c02 263e df3c 69be dd90 0b3e
00000150: d8af 3c3d 78e1 a43d 2879 a63d ea75 32be
00000160: c4fa a13d c544 f63c f874 3fbe be9a 4fbd
00000170: 3cb6 5e3d 3f19 49ba 5201 7d3d 429d b2bd
00000180: 8e73 d0bd 124f 843d 7efb c23c fe7e 263e
00000190: 1618 c73d 6039 65be 230b 363e 26dd 6fbd
000001a0: 0abc 2a3e 5a90 38be c1ed 1c3d 37fc 613e
000001b0: 63a1 8f3d c987 42bc abb1 adbd 9ec4 383e
000001c0: 9e42 a8bd dd82 463e 3a73 f93d b9e3 493e
000001d0: 585d bf3d eb18 5b3e 836e 4f3e 7e9f 17be
000001e0: 3a5f d0bb 694c a2bc fe62 b53d b5d4 313e
000001f0: 7245 6839 8597 f5bd e78e 823c b831 e8bd
