W3-Design/checkpoints/epoch_18.pt (torch, 384725 bytes, 24 tensors)

encoder_cnn.0.weight f4 [32, 3, 3]
0	0xbe361e08	-0.17784894
1	0xbd076f45	-0.0330651
2	0xbe51a981	-0.20474817
3	0x3e919930	0.28437185
4	0xbe558098	-0.20849836
5	0x3e4b0789	0.19827093
6	0x3e44d206	0.19220743
7	0x3e65cfdb	0.22442572
8	0x3e1a1ccb	0.15050046
9	0x3e3bc01c	0.18335003
10	0x3e3eb9aa	0.18625513
11	0x3d06497c	0.032784924
12	0xbe88c52e	-0.26712936
13	0xbe9f6726	-0.31133384
14	0xbabcf236	-0.0014415446
15	0xbe87d29d	-0.26527873
16	0x3e08a286	0.13343248
17	0xbe24bb8f	-0.16087173
18	0x3df77014	0.12081924
19	0x3e80a9a8	0.25129437
20	0x3ee02cb0	0.43784094
21	0x3d8349c2	0.064105526
22	0x3e4c397f	0.19943808
23	0xbec04b5b	-0.37557492
24	0xbe779afd	-0.24180217
25	0x3d27d790	0.04097706
26	0xbe17accd	-0.14812012
27	0xbdb773da	-0.08957644
28	0x3d12d98a	0.035851993
29	0xbe3a7b33	-0.1821106
30	0xbd99a5dc	-0.07502338
31	0xbd637ee8	-0.05554095
32	0xbc65f1fe	-0.014034746
33	0x3dd84931	0.10560835
34	0x3e4b748a	0.19868675
35	0xbcb23fb2	-0.021758888
36	0xbd692346	-0.056918405
37	0x3e4334fc	0.1906318
38	0xbdb457cd	-0.08805809
39	0x3f143717	0.5789656
40	0xbd270ffa	-0.04078672
41	0x3f0068fe	0.50160205
42	0x3da182d7	0.07886284
43	0x3e084d6f	0.13310789
44	0xbeb65ae0	-0.35616207
45	0xbc246f04	-0.010036234
46	0xbe2b04bf	-0.16701029
47	0x3ea5e257	0.32399246
48	0xbecda605	-0.40165725
49	0xbeb8d157	-0.36097214
50	0x3c709b8b	0.014685522
51	0x3d60c4dc	0.05487524
52	0x3df5a48e	0.11994277
53	0xbebe721b	-0.3719643
54	0x3d29a6ae	0.041418724
55	0xbdfdf8af	-0.12400948
56	0x3e73565c	0.23763412
57	0x3e61bd0a	0.22044769
58	0x3e1010bf	0.14068888
59	0xbdf08c50	-0.117455125
60	0xbdc769f9	-0.097370096
61	0x3e2a46b2	0.1662853
62	0xbe9d3a1b	-0.30708393
63	0x3e22eea9	0.15911354
64	0xbe114446	-0.141862
65	0x3e4d68a6	0.20059451
66	0x3e391316	0.18073687
67	0xbeb75e1a	-0.3581398
68	0xbf06b258	-0.5261588
69	0xbe26a1a3	-0.16272597
70	0xbe025cda	-0.12730733
71	0x3ea8ba47	0.32954618
72	0x3dd2bd3b	0.10289999
73	0x3e5cf4da	0.21577778
74	0x3d1185d4	0.03552802
75	0xbe085d59	-0.1331686
76	0xbe9d0d16	-0.30674046
77	0x3e9577a6	0.29192847
78	0xbea722fc	-0.32643878
79	0x3e688346	0.22706327
80	0xbdb25e70	-0.08709419
81	0x3cfb3845	0.03066648
82	0x3eb47bf7	0.35250828
83	0x3d89cfbc	0.06729075
84	0x3eb81ec8	0.35960984
85	0xbd80c2f1	-0.06287182
86	0xbe8fae32	-0.28062588
87	0x3df0b080	0.11752415
88	0x3d40797c	0.046990857
89	0xbcf3f79d	-0.029781157
90	0xbca26ddd	-0.019827778
91	0xbc1adebf	-0.009452521
92	0x3d69b5a3	0.057057988
93	0x3ec8d2f2	0.39223439
94	0xbe58841f	-0.2114415
95	0xbe6d37fa	-0.23165885
96	0xbe4ae6d3	-0.19814615
97	0x3e268e33	0.16265182
98	0xbd802450	-0.06256926
99	0xbe1fa149	-0.15588869
100	0xbd0bb0e9	-0.03410426
101	0x3e241e8c	0.16027278
102	0xbb179eca	-0.0023135417
103	0x3e956bcc	0.29183805
104	0xbd4659ad	-0.048425365
105	0xbe8b28ef	-0.27179667
106	0xbea663c9	-0.32498005
107	0xbd2aa46a	-0.041660704
108	0xbe145b13	-0.14487867
109	0x3e667b5a	0.22507992
110	0x3deed2bc	0.11661288
111	0xbddf7d8d	-0.10912619
112	0xbebaaf6b	-0.36461958
113	0xbee9281e	-0.4553842
114	0x3eb1351c	0.34610832
115	0xbd2a7e48	-0.041624337
116	0xbe6310c5	-0.22174366
117	0x3da9d245	0.08292059
118	0xbd873b67	-0.06603127
119	0x3daaba7f	0.083363526
120	0x3dce13e5	0.10062388
121	0xbe23b063	-0.15985255
122	0xbe71c151	-0.236089
123	0x3c3149f0	0.010820851
124	0xbdc4ceba	-0.096097425
125	0xbe508379	-0.20362653
126	0xbe02aaed	-0.12760516
127	0xbe371a89	-0.17881216
128	0xbd97bdd2	-0.07409252
129	0x3eb86ad7	0.36019012
130	0xbcd6ce1f	-0.026221333
131	0xbe4759c0	-0.1946783
132	0x3e4b4405	0.19850166
133	0x3e673b7c	0.22581285
134	0xbdc6be86	-0.09704308
135	0x3e986a60	0.29768658
136	0x3e1dc78e	0.15408155
137	0xbe32f8e9	-0.17477764
138	0xbef9061e	-0.4863748
139	0xbd180195	-0.037110884
140	0xbe8c7675	-0.27434126
141	0xbef062d4	-0.469504
142	0xbdd824f4	-0.10553923
143	0xbe13b576	-0.1442469
144	0x3e152009	0.14563002
145	0xbe460930	-0.19339442
146	0xbea26ed2	-0.31725174
147	0x3e32f5e1	0.17476608
148	0xbc78f2ba	-0.015194589
149	0xbdaa410e	-0.083131894
150	0x3e781ccd	0.24229737
151	0xbdc511e2	-0.096225515
152	0x3e52b64d	0.20577355
153	0xbd0e4e76	-0.034742795
154	0x3e4381a8	0.19092429
155	0xbd131192	-0.03590543
156	0x3dc5e660	0.09663081
157	0xbf036a8c	-0.5133445
158	0x3e261003	0.16217045
159	0xbe3002c6	-0.17188558
160	0xbed5ea02	-0.41780096
161	0xbe1bfc3d	-0.1523294
162	0x3e5aa8b0	0.21353412
163	0x3deba9bf	0.11506986
164	0xbe888d21	-0.26670173
165	0xbe4a8085	-0.19775589
166	0xbefebae1	-0.49751952
167	0xbe502656	-0.20327124
168	0x3dd7caca	0.10536726
169	0xbe82b7b6	-0.25530785
170	0xbdecc398	-0.11560744
171	0xbdc724a6	-0.09723787
172	0x3e385129	0.1799971
173	0x3dc88291	0.097905286
174	0xbd80fd53	-0.06298318
175	0xbe52ba0c	-0.20578784
176	0x3e4f18b8	0.20224273
177	0xbe20e2fe	-0.1571159
178	0x3e1feb1a	0.15617028
179	0x3e52d016	0.20587191
180	0xbe11ad7b	-0.14226334
181	0xbe103e39	-0.14086236
182	0xbe23f43b	-0.16011135
183	0xbe15da71	-0.1463411
184	0x3e85b682	0.26115805
185	0x3d0c5d58	0.034268707
186	0x3e847bde	0.25875753
187	0x3e656509	0.22401823
188	0xbe2d6b2a	-0.16935411
189	0x3e553519	0.20821036
190	0xbe3fdb81	-0.18736078
191	0xbe13af3f	-0.1442232
192	0xbe69ed11	-0.2284434
193	0x3e423001	0.18963625
194	0x3d5f643a	0.054538943
195	0xbe4c303a	-0.19940272
196	0xbefb2992	-0.49055153
197	0xbeb98855	-0.36236826
198	0x3e2cc545	0.16872127
199	0xbe67e280	-0.22644997
200	0x3e613a5a	0.21994916
201	0x3e3dae51	0.18523528
202	0x3e97afea	0.296264
203	0x3c36f3e4	0.0111665465
204	0xbd83e70f	-0.06440555
205	0xbe246939	-0.16055764
206	0xbe91d6c3	-0.28484163
207	0x3e01858f	0.12648605
208	0xbe898f30	-0.26867056
209	0xbe82cb5d	-0.2554578
210	0xbe21bcf7	-0.1579474
211	0x3c433069	0.011913397
212	0xbdc348de	-0.09535383
213	0x3dec819a	0.11548157
214	0x3e619f28	0.2203337
215	0x3e8c94cd	0.27457276
216	0x3dc4065d	0.09571526
217	0x3e0edfc1	0.13952543
218	0xbe6ac064	-0.22924954
219	0x3e2b9b2e	0.16758415
220	0x3d9807df	0.07423376
221	0xbe634e51	-0.22197844
222	0x3ce45a6a	0.027875144
223	0x3d35a04e	0.04434233
224	0x3d38a01c	0.045074567
225	0x3f065b2a	0.52482855
226	0x3e843ab2	0.2582603
227	0x3edc375d	0.4301099
228	0x3e786142	0.24255851
229	0x3e6e1d40	0.23253345
230	0x3cedb250	0.02901569
231	0xbecd58a5	-0.40106693
232	0xbd45e205	-0.048311252
233	0x3e4f03aa	0.20216241
234	0xbed69a8f	-0.41914794
235	0xbd07ece3	-0.033184897
236	0xbe37d29e	-0.17951438
237	0x3ec10526	0.3769924
238	0x3e510baa	0.20414606
239	0xbe2bfee2	-0.16796449
240	0x3ebb1b22	0.36544138
241	0x3d064966	0.032784842
242	0xbdb228e8	-0.086992085
243	0xbe3378a8	-0.17526495
244	0x3d69f2fe	0.0571165
245	0xbba14bd4	-0.0049223695
246	0xbda2084f	-0.07911741
247	0xbd490451	-0.049076382
248	0x3e78dcd6	0.24302992
249	0xbde04c4b	-0.10952052
250	0x3eb61901	0.3556595
251	0x3de05242	0.109531894
252	0x3e11c21d	0.14234205
253	0xbdbf4d1d	-0.0934088
254	0x3d104a6d	0.035227228
255	0xbde1f1c0	-0.11032438

encoder_cnn.0.bias f4 [32]
0	0xbeb36322	-0.3503657
1	0xbdc54cf2	-0.09633817
2	0x3f8befdd	1.0932575
3	0xbf969a56	-1.176585
4	0xbd8592c0	-0.06522131
5	0x3df66c3c	0.12032363
6	0xbf62b16e	-0.88551986
7	0xbdf19904	-0.117967635
8	0xbe488a75	-0.19584067
9	0xbed3c472	-0.41360813
10	0xbe4db0ea	-0.20087019
11	0xbe293d76	-0.16527352
12	0xbad10fea	-0.0015950177
13	0xbf22e319	-0.63627774
14	0xbf4d8a45	-0.8028911
15	0x3ec1cf9d	0.3785371
16	0xbf501287	-0.8127827
17	0x3e82141d	0.2540597
18	0xbc9bbff6	-0.019012433
19	0xbf5ce70d	-0.86290056
20	0xbf372a1a	-0.71548617
21	0x3f11296f	0.5670385
22	0xbd8a25e7	-0.067455105
23	0xbf2c617d	-0.67336255
24	0xbeff1020	-0.4981699
25	0x3ee1155e	0.43961614
26	0xbf3997cf	-0.72497267
27	0xbf553e12	-0.83297837
28	0xbf50010c	-0.812516
29	0xbea3cdf6	-0.31993073
30	0xbddcc08f	-0.10778915
31	0x3de15f09	0.11004455

encoder_cnn.2.weight f4 [64, 32, 3]
0	0xbe1178d5	-0.1420625
1	0x3c1d42b2	0.009598421
2	0x3d38e899	0.045143697
3	0x3e976851	0.29571775
4	0x3e83fbff	0.25778195
5	0x3e982f71	0.29723695
6	0x3ee47c61	0.44626144
7	0x3e6ed1a5	0.2332216
8	0x3e0e022a	0.13868013
9	0xbd6fb5f3	-0.05852313
10	0xbee13068	-0.43982244
11	0xbdc03806	-0.093856856
12	0x3d387c1b	0.04504023
13	0x3d37e705	0.04489805
14	0xbe1793d9	-0.14802493
15	0xbe3b6676	-0.18300804
16	0xbe821399	-0.25405577
17	0xbd408ecf	-0.047011193
18	0x3e364e0e	0.17803213
19	0x3db12810	0.086502194
20	0x3e219f78	0.15783489
21	0xbe23fa5c	-0.16013473
22	0xbe4761ac	-0.19470853
23	0xbe4ccda0	-0.20000315
24	0x3edc6be6	0.4305107
25	0x3d9cadb6	0.0765032
26	0x3e4c4ac3	0.19950394
27	0x3dd4f4ff	0.10398292
28	0x3e10c32b	0.1413695
29	0x3d797474	0.060902074
30	0xbdf69cc2	-0.12041618
31	0x3e1c7667	0.15279542
32	0x3d972c41	0.07381488
33	0x3d92f808	0.071762145
34	0xbdb1c893	-0.086808346
35	0xbdc46ffc	-0.09591672
36	0x3bfa8db5	0.0076462873
37	0xbe18eccf	-0.14934085
38	0xbdb4ec52	-0.08834137
39	0x3e555a41	0.2083521
40	0x3e3ab7d5	0.18234189
41	0x3e4fbca8	0.2028681
42	0x3d9bc49b	0.07605859
43	0xbda40488	-0.08008677
44	0x3dc350a6	0.09536867
45	0x3e810a14	0.25203001
46	0x3e7e39eb	0.24826781
47	0x3aa6eae8	0.0012734802
48	0x3e36d136	0.17853245
49	0x3e0fd648	0.14046586
50	0x3de51029	0.11184723
51	0x3e63774b	0.22213475
52	0x3de35b84	0.111014396
53	0x3c03a63c	0.008035239
54	0xbe2dd321	-0.1697507
55	0xbdafb24c	-0.08578929
56	0xbdd41f7d	-0.103575684
57	0xbe958bfc	-0.29208362
58	0xbe3b7f47	-0.18310271
59	0x3cfea02e	0.031082239
60	0x3d1384f0	0.03601545
61	0xbe02401d	-0.1271977
62	0x3de942b7	0.11389678
63	0xbd3251d3	-0.043535065
64	0xbcfefc28	-0.031126097
65	0xbe259662	-0.16170648
66	0x3e38574b	0.1800205
67	0xbc5cf5b1	-0.013486312
68	0x3d8cd77a	0.068770364
69	0xbe6b0d59	-0.2295431
70	0xbe696363	-0.2279182
71	0xbd4513b7	-0.048114505
72	0x3eafde8e	0.34349483
73	0x3d8c57ea	0.06852706
74	0x3e94b387	0.29043218
75	0x3d920699	0.07130165
76	0x3ddac527	0.10682135
77	0xbe49e51d	-0.19716306
78	0xbdfe0259	-0.124027915
79	0x3d6ee635	0.05832501
80	0xbcf1b360	-0.029504478
81	0x3dcdf4b3	0.10056438
82	0xbd860acd	-0.06545029
83	0x3d8073ba	0.06272073
84	0xbd912428	-0.070869744
85	0xbe884ccd	-0.26621094
86	0xbe17e1cf	-0.14832233
87	0x3e010387	0.12599002
88	0xbe116147	-0.14197265
89	0x3dfcf3c4	0.12351182
90	0x3ec9bb56	0.39400738
91	0x3d8adfcb	0.06780966
92	0x3b5c2bec	0.0033595515
93	0x3df33edf	0.11877226
94	0xbd9f9875	-0.07792751
95	0xbdd33fec	-0.103149265
96	0xbd6ba59c	-0.057530984
97	0xbc5aa83b	-0.013345773
98	0x3d999175	0.07498447
99	0xbda66853	-0.08125367
100	0xbd74cd82	-0.0597663
101	0xbce43769	-0.027858453
102	0xbeffd37c	-0.49966037
103	0xbe759ebb	-0.23986332
104	0xbe3e55f0	-0.1858747
105	0xbd83a91f	-0.06428742
106	0x3cefef78	0.029288992
107	0xbdba4320	-0.09094834
108	0xbea28fec	-0.3175043
109	0xbe93b8d8	-0.28851962
110	0xbe5d4c92	-0.2161124
111	0xbd380da3	-0.04493488
112	0xbbbbf5ad	-0.005736074
113	0x3d91665b	0.07099601
114	0x3d708e93	0.05872972
115	0xbe0296e0	-0.12752867
116	0xbe42def3	-0.19030361
117	0xbe777282	-0.24164775
118	0x3d9f4ecf	0.077787034
119	0x3c1d0191	0.009582893
120	0x3dc3cb39	0.09560246
121	0xbe4b407b	-0.19848816
122	0xbd461e1e	-0.048368566
123	0x3cc5c898	0.024143502
124	0x3d198dad	0.03748863
125	0xbc7bb009	-0.015361794
126	0xbd53a7ec	-0.051673815
127	0xbd9b9def	-0.07598483
128	0xbd9d1058	-0.07669133
129	0xbeaf714f	-0.34266135
130	0xbe385bfe	-0.18003842
131	0xbef4708f	-0.47742125
132	0xbbc8d624	-0.006129043
133	0xbc814fea	-0.015785176
134	0xbd32a7a9	-0.043616924
135	0xbd12e032	-0.03585834
136	0x3c8334d6	0.016016405
137	0x3d235047	0.03987148
138	0xbdfa8c01	-0.12233735
139	0xbd5a3583	-0.05327369
140	0xbe134637	-0.14382254
141	0xbe2cbed3	-0.16869669
142	0xbd9e48f7	-0.07728761
143	0xbe2a2688	-0.16616261
144	0xbe359a56	-0.17734656
145	0x3d45a4cc	0.048252866
146	0xbd7e2fe5	-0.062057395
147	0xbea699b7	-0.3253915
148	0xbeb8fbc7	-0.3612959
149	0xbeb22118	-0.34790874
150	0x3b54e5cb	0.00324856
151	0x3cf64546	0.030062329
152	0x3d3547f5	0.044258077
153	0x3ddc163e	0.1074643
154	0x3d883718	0.06651133
155	0x3d966c63	0.07344892
156	0xbcf49eee	-0.02986094
157	0xbc1bc99d	-0.009508518
158	0xbcf541e1	-0.02993864
159	0xbe9a2c30	-0.30111837
160	0xbe8bb982	-0.2728997
161	0xbe8ebb3c	-0.27877223
162	0xbcae2662	-0.021258537
163	0xbde38e74	-0.11111155
164	0xbdf1bc8a	-0.11803539
165	0x3d328f1c	0.04359351
166	0xbd1612b3	-0.036638927
167	0x3cc031d2	0.023461256
168	0xbd054a2d	-0.032541443
169	0x3d5a090b	0.05323128
170	0x3d4bf02c	0.049789593
171	0xbe7f1118	-0.24908864
172	0x3d20c695	0.039251883
173	0x3d889368	0.066687405
174	0xbd380008	-0.044921905
175	0xbd35656e	-0.044286184
176	0xbe411eb2	-0.18859366
177	0xbe44d7c3	-0.19222932
178	0xbdab2051	-0.08355773
179	0xbd96ce16	-0.073635265
180	0xbe347c73	-0.17625599
181	0xbd9bd529	-0.076090164
182	0x3d88635a	0.06659575
183	0xbc2ff0e6	-0.010738587
184	0xbdd7d258	-0.10538167
185	0xbc29d221	-0.01036504
186	0xbe0b06b5	-0.13576777
187	0xbde02d95	-0.10946194
188	0xbe366c03	-0.1781464
189	0xbe2cf3de	-0.16889903
190	0xbe2efc44	-0.17088419
191	0xbe62b75a	-0.22140256
192	0x3ea0eb12	0.31429344
193	0x3e3f4e5c	0.18682235
194	0xbdcca364	-0.09992102
195	0x3d541b82	0.051784046
196	0x3e8492c8	0.25893235
197	0x3dfccb20	0.123434305
198	0xbe396919	-0.18106498
199	0xbe8b3b57	-0.2719371
200	0xbe6f9c86	-0.23399553
201	0x3cd6cb00	0.026219845
202	0xbe4ebc91	-0.2018912
203	0xbe0e7f2a	-0.13915697
204	0xbe7e862b	-0.24855869
205	0xbed52a85	-0.41634002
206	0xbf9e36c6	-1.2360466
207	0xbe0eac05	-0.13932808
208	0x3f12628f	0.5718164
209	0xbd8fcad7	-0.070211105
210	0xbe30f624	-0.17281395
211	0x3e8bc946	0.27301997
212	0xbce2b1a6	-0.0276726
213	0x3c905ebb	0.017623296
214	0x3e6c1add	0.23057123
215	0xbf078602	-0.52938855
216	0xbdaf5b29	-0.08562309
217	0xbe6029d2	-0.21890953
218	0xbda54a18	-0.08070773
219	0xbc54db45	-0.012991731
220	0xbe3f1ba8	-0.18662894
221	0xbecf30d8	-0.40466952
222	0xbe18ce2d	-0.149224
223	0x3d5f74b3	0.054554652
224	0xbe418201	-0.18897249
225	0xbd181ee8	-0.03713885
226	0x3e0191fb	0.12653343
227	0xbe808ae2	-0.2510596
228	0xbe8d3c5d	-0.27585116
229	0xbe33f642	-0.17574409
230	0xbe0f2c4b	-0.1398174
231	0xbee97435	-0.4559647
232	0xbe3fc6f7	-0.18728243
233	0xbebabeff	-0.36473843
234	0x3ecd1775	0.4005696
235	0x3dafbb0d	0.08580599
236	0xbe879fe5	-0.26489177
237	0x3c7e7064	0.015529726
238	0x3d98e7db	0.07466098
239	0xbeaa1a1c	-0.33223045
240	0x3e67c2dd	0.22632928
241	0x3c230bb3	0.00995152
242	0xbecfbbdc	-0.40573013
243	0x3e5f09dd	0.21781106
244	0x3bfe35cc	0.007757878
245	0xbe49ce59	-0.19707622
246	0xbedf369c	-0.4359635
247	0xbeea2539	-0.45731524
248	0xbe4a3bf7	-0.19749437
249	0xbe8905c8	-0.26762223
250	0x3e3c99d4	0.18418056
251	0xbd032a4c	-0.03202276
252	0x3e91f14e	0.28504413
253	0x3e3b90b7	0.18316923
254	0xbe742eb5	-0.23845942
255	0xbe1db03a	-0.15399256

encoder_cnn.2.bias f4 [64]
0	0xbd813dbf	-0.06310605
1	0xbe15a8b7	-0.14615141
2	0xbcd0be0c	-0.025481246
3	0xbdb44a3d	-0.08803222
4	0x3e277446	0.16352949
5	0x3dea3f82	0.114378944
6	0xbead797b	-0.33881745
7	0xbde21e89	-0.1104098
8	0xbe419ab0	-0.18906665
9	0xbc81c6eb	-0.015841922
10	0xbd3f00b5	-0.046631534
11	0xbe48e0dd	-0.19617029
12	0x3db9257b	0.09040352
13	0xbdebe8dc	-0.11519024
14	0xbe192d46	-0.14958677
15	0xbca87db8	-0.02056776
16	0x3e5f9278	0.21833217
17	0x3dc09e55	0.094051994
18	0xbe1f0250	-0.15528226
19	0xbdb45fc1	-0.08807326
20	0xbe12c0da	-0.1433138
21	0x3e62a352	0.22132614
22	0x3e790861	0.24319603
23	0x3e9c2b90	0.30501986
24	0xbe2bd674	-0.16781026
25	0xbd2c7e07	-0.042112377
26	0xbe8c3565	-0.27384487
27	0xbe480ade	-0.19535396
28	0x3e959ff7	0.29223606
29	0xbdfbfa94	-0.12303653
30	0xbda302c4	-0.07959512
31	0xbeafbf69	-0.34325722
32	0xbe21c97d	-0.15799518
33	0xbbf11804	-0.007357599
34	0x3e386a36	0.18009266
35	0xbe51ca04	-0.20487219
36	0xbcb6e400	-0.022325516
37	0xbec11716	-0.37712926
38	0x3e4f267c	0.20229524
39	0xbae0fa56	-0.001716445
40	0xbe440288	-0.1914159
41	0xbed1ee78	-0.4100225
42	0x3e11c830	0.14236522
43	0xbda3d79c	-0.080001086
44	0xbdb9f06d	-0.09079061
45	0xbed05b17	-0.40694496
46	0xbe880122	-0.26563364
47	0xbe2a0344	-0.16602808
48	0xbe6ffa0d	-0.2343523
49	0x3e09f1b6	0.13471112
50	0xbeb14ce3	-0.34628972
51	0xbecc31c7	-0.39881727
52	0xbe8e537e	-0.27798074
53	0xbdb57cb3	-0.08861675
54	0xbe207e4f	-0.15673183
55	0xbcc39ef6	-0.02387951
56	0xbd65587a	-0.05599258
57	0xbe37afec	-0.17938203
58	0xbe11c3a6	-0.1423479
59	0xbe028728	-0.1274687
60	0xbe782a61	-0.24234916
61	0x3e4a4d2c	0.19756001
62	0xbea4b407	-0.321686
63	0xbe60edf4	-0.21965772

encoder_lstm.weight_ih_l0 f4 [128, 64]
0	0x3ee79e84	0.45238125
1	0x3d48d84c	0.0490344
2	0x3e3d7a47	0.18503676
3	0xbdce47d5	-0.100722946
4	0x3e7d8249	0.24756731
5	0xbe0eb1e8	-0.13935053
6	0x3d0da7f5	0.034584004
7	0x3e598cf7	0.2124518
8	0x3e922a4c	0.28547895
9	0x3d59abfe	0.05314254
10	0x3e6e8375	0.23292334
11	0xbece8b40	-0.40340614
12	0x3e35b77d	0.17745776
13	0xbe22a986	-0.1588498
14	0x3cc669c5	0.024220357
15	0x3e82b7df	0.25530908
16	0x3ebeae88	0.37242532
17	0xbdbed8da	-0.09318705
18	0xbd967080	-0.073456764
19	0x3c56eb6b	0.013117651
20	0xbc4cb5d6	-0.012494525
21	0xbd480832	-0.04883594
22	0x3f7b5820	0.98181343
23	0xbf555d8f	-0.83345884
24	0x3ee9c5e2	0.45658785
25	0x3e6815a7	0.2266451
26	0xbe8a6f45	-0.27038017
27	0x3e27fcd2	0.16405037
28	0xbe891e3c	-0.2678088
29	0xbdccf1fa	-0.10007091
30	0x3e5b03cb	0.21388166
31	0x3e182e7e	0.14861485
32	0x3e77d6d8	0.2420305
33	0x3e7fb26c	0.24970406
34	0xbd88c8e9	-0.066789456
35	0x3bc6c801	0.006066323
36	0x3f0e1e8d	0.55515367
37	0xbdb29228	-0.08719283
38	0x3ec14d27	0.37754175
39	0xbe01c596	-0.1267303
40	0x3d80daeb	0.06291755
41	0x3e680376	0.2265757
42	0x3d136e0e	0.03599363
43	0x3df0e5a1	0.11762548
44	0xbea7bc98	-0.32761073
45	0x3e05f7a8	0.13082755
46	0xbceac01d	-0.02865606
47	0x3e6b4c10	0.22978234
48	0x3ed6ddf8	0.41966224
49	0xbd2b33af	-0.041797336
50	0x3e1881dd	0.14893289
51	0x3e09aa9c	0.13443989
52	0x3e3f057a	0.18654433
53	0xbd199f03	-0.03750516
54	0x3e4224f8	0.18959415
55	0x3bd07eef	0.006362788
56	0xbaeb392f	-0.0017946119
57	0xbe2c8a3f	-0.16849612
58	0xbd6312c7	-0.05543783
59	0xbd2bc367	-0.041934397
60	0xbc971a6f	-0.018445222
61	0x3da658b7	0.0812239
62	0xbdb565b5	-0.0885729
63	0xbde20ead	-0.110379554
64	0x3dcd36ad	0.10020194
65	0x3c583f98	0.013198756
66	0xbe769803	-0.24081425
67	0xbd9cadbf	-0.07650327
68	0x3e0026ad	0.12514754
69	0x3e44378e	0.19161817
70	0x3d6585a0	0.056035638
71	0x3e6a94af	0.22908281
72	0x3debd356	0.115149185
73	0x3e20b939	0.15695657
74	0x3c759b80	0.014990687
75	0xbe9b0ceb	-0.30283293
76	0x3d870308	0.06592375
77	0xbd3ea9b0	-0.046548545
78	0x3dca6db9	0.09884209
79	0x3e6a53ce	0.22883531
80	0x3edab158	0.42713428
81	0xbe4be1be	-0.19910333
82	0xbe5b5d3c	-0.21422285
83	0xbd448402	-0.047977455
84	0x3e53c36e	0.2068002
85	0x3e7e65bf	0.248435
86	0xbe6dbd45	-0.23216732
87	0xbd1db78e	-0.03850513
88	0x3e578a87	0.21048938
89	0xbe8b6b20	-0.27230167
90	0x3e020e92	0.1270087
91	0x3e0dde9d	0.13854451
92	0x3e6058ba	0.21908846
93	0xbd68ae88	-0.05680707
94	0xbf035e15	-0.5131543
95	0x3db174dc	0.08664867
96	0x3e704678	0.23464382
97	0x3e43f5e4	0.19136769
98	0xbd3e9a61	-0.046533946
99	0xbd59ab19	-0.053141687
100	0xbe8390e0	-0.25696468
101	0xbd88d6be	-0.06681584
102	0x3ebdcd05	0.3707048
103	0x3b22f591	0.0024865607
104	0xbd69824d	-0.05700903
105	0x3d977a46	0.07396369
106	0xbe192666	-0.14956054
107	0xbe036044	-0.12829691
108	0xbe120203	-0.1425858
109	0xbd370ecb	-0.044691842
110	0x3ea9f209	0.3319247
111	0xbd00b806	-0.0314255
112	0xbddd6821	-0.10810877
113	0x3cc7f35c	0.024408035
114	0xbd7841fe	-0.06060981
115	0x3e585cfd	0.21129222
116	0xbe28e91b	-0.16495173
117	0xbd8b9adb	-0.06816646
118	0xbcbe07d3	-0.02319709
119	0x3e8bab1f	0.27278993
120	0x3d6b0ed8	0.057387203
121	0x3d7c4735	0.061591346
122	0x3e0c7b81	0.13718988
123	0xbe1bd702	-0.15218738
124	0x3de0d67c	0.1097841
125	0xbe1ba06d	-0.15197916
126	0xbedb1718	-0.42791057
127	0xbe4173d8	-0.18891847
128	0x3cdf3958	0.027249023
129	0xbd824f3f	-0.06362771
130	0x3e946020	0.28979588
131	0xbd2b5993	-0.04183347
132	0x3e9efe58	0.31053424
133	0x3ddc0d7e	0.10744761
134	0x3da381b2	0.07983722
135	0x3d99a89d	0.075028636
136	0xbd8700e9	-0.065919705
137	0x3e1040f2	0.14087275
138	0x3e0e3047	0.13885604
139	0x3ced03c1	0.028932454
140	0xbeb76ff0	-0.3582759
141	0xbda232a7	-0.079198174
142	0x3cdad0ba	0.026710857
143	0x3c84cb97	0.01621036
144	0x3e38e8d3	0.18057565
145	0x3e66a9aa	0.22525659
146	0xbd3a80e0	-0.04553306
147	0x3e551857	0.20810066
148	0x3deb401e	0.11486839
149	0x3d4ec70a	0.050482787
150	0x3d9550b3	0.07290783
151	0x3e1f21d7	0.15540253
152	0xbe1a8562	-0.15089944
153	0x3d3a3339	0.045459006
154	0x3e3c006e	0.18359539
155	0xbc5c23cc	-0.013436269
156	0x3de694ea	0.11258872
157	0x3dff311f	0.12460541
158	0xbe3f3046	-0.18670759
159	0xbb9e9485	-0.0048394823
160	0xbe3a9d2d	-0.1822402
161	0x3c912fbc	0.017722957
162	0x3ceea67f	0.029132126
163	0x3ca4423b	0.020051112
164	0x3eb9fbad	0.36324826
165	0xbd5b1ba0	-0.053493142
166	0xbdd50eb4	-0.10403195
167	0x3cb1d229	0.021706657
168	0x3eb3a4b1	0.35086587
169	0x3de51909	0.11186416
170	0x3d7d4ed8	0.06184277
171	0xbbef16ca	-0.007296418
172	0x3e92759c	0.28605354
173	0xbf059fff	-0.5219726
174	0x3e2814d1	0.16414191
175	0xbdedd812	-0.11613478
176	0x3dcd1e69	0.10015566
177	0x3e1c9b42	0.15293601
178	0x3e99c88e	0.30035824
179	0x3d7d26c0	0.061804533
180	0xbdc128b1	-0.094315894
181	0xbd2ae316	-0.041720472
182	0x3eeaa6aa	0.4583028
183	0x3e68a557	0.22719322
184	0x3b581ad1	0.0032974968
185	0xbe7eb695	-0.24874337
186	0x3c2e828b	0.010651241
187	0xbcfd0c93	-0.030889785
188	0xbd57da02	-0.052698143
189	0xbe49625f	-0.19666432
190	0x3dd9eddd	0.10641072
191	0xbdb7d284	-0.089756995
192	0xbe1ba180	-0.15198326
193	0x3e71f0c9	0.23627008
194	0x3d9b0cbe	0.0757079
195	0xbd8946de	-0.0670297
196	0x3e0c075f	0.13674687
197	0xbb6605e4	-0.0035098726
198	0xbe16110e	-0.14654943
199	0xbe2c0980	-0.16800499
200	0x3bc696af	0.0060604434
201	0x3d1a0d24	0.037610188
202	0xbdf7c147	-0.120974116
203	0x3ecf96ef	0.4054484
204	0x3e8d6e7e	0.2762336
205	0xbdd12911	-0.10212911
206	0x3e1693e6	0.14704856
207	0x3d0dcc70	0.034618795
208	0xbcb3d2dc	-0.021951132
209	0x3f16b44b	0.58868855
210	0xbc7e330c	-0.0155151
211	0x3de2125a	0.110386565
212	0x3c71f17e	0.014767049
213	0x3ea89bf6	0.3293149
214	0x3e892f02	0.26793677
215	0x3e3c0e62	0.18364862
216	0x3ee1d784	0.44109738
217	0xbe96208d	-0.2932171
218	0xbe3aae17	-0.18230473
219	0x3e41ea4c	0.18937033
220	0x3dc4e61f	0.096142046
221	0x3e00181c	0.12509197
222	0xbe1fe1d2	-0.15613487
223	0x3db35d53	0.087580346
224	0xbec0666f	-0.3757815
225	0xbeaa0c8f	-0.33212706
226	0x3dae4fa7	0.08511286
227	0xbdf0f630	-0.117657065
228	0xbbd5c0fb	-0.006523249
229	0xbe87a3b5	-0.26492086
230	0xbe28cf2a	-0.16485277
231	0x3d98ab1e	0.07454513
232	0x3e4a9d4a	0.19786564
233	0xbcd2a089	-0.025711315
234	0x3db4cc26	0.08828001
235	0x3e748a03	0.23880772
236	0xbd791208	-0.06080821
237	0x3eab7ab0	0.3349204
238	0x3bcef0de	0.0063153347
239	0x3d8c1e62	0.068417326
240	0x3e217231	0.15766217
241	0x3ddc139f	0.1074593
242	0xbb76eb73	-0.003767696
243	0xbd337255	-0.043810207
244	0x3e2be5f4	0.16786939
245	0x3ce5480b	0.027988454
246	0xbde221aa	-0.11041577
247	0x3da7103a	0.08157392
248	0x3d96f679	0.0737123
249	0xbb6777a7	-0.003531912
250	0x3e8cc1bd	0.2749156
251	0xbdb4692e	-0.08809124
252	0xbd915a4f	-0.07097303
253	0xbccdecb4	-0.025137283
254	0xbede592c	-0.43427408
255	0xbe631ed7	-0.22179733

encoder_lstm.weight_hh_l0 f4 [128, 32]
0	0xbc020db4	-0.007937837
1	0x3e3b1036	0.18267903
2	0xbe862417	-0.2619941
3	0x3ef921bf	0.4865856
4	0x3f30473b	0.6885869
5	0xbe864081	-0.26221088
6	0x3daa9671	0.08329476
7	0xbe7c1101	-0.24615861
8	0x3d4cdd25	0.050015587
9	0x3f10d53a	0.5657536
10	0x3ec610d6	0.3868472
11	0xbefb0cd1	-0.49033216
12	0xbe178909	-0.14798369
13	0xbe684a07	-0.22684489
14	0xbcdf383b	-0.027248492
15	0x3e023f45	0.12719448
16	0x3d525081	0.051346306
17	0xbe81d29a	-0.2535599
18	0x3ea72c6a	0.32651073
19	0xbd7d2ab9	-0.06180832
20	0x3f0b42d2	0.54398835
21	0x3ea19b26	0.3156368
22	0x3eebfbf3	0.4609066
23	0x3c2f090e	0.010683311
24	0xbe76e789	-0.24111761
25	0xbf4a75ac	-0.79085803
26	0x3c2bba28	0.010481395
27	0xbe1eaa92	-0.15494755
28	0x3e045047	0.12921248
29	0x3f0b8283	0.5449602
30	0xbedba046	-0.42895716
31	0xbef39935	-0.47577825
32	0xbdb534ad	-0.08847938
33	0x3e620054	0.22070438
34	0xbf05e817	-0.52307266
35	0x3e272578	0.16322887
36	0x3e7212a3	0.23639922
37	0xbea17fdc	-0.3154286
38	0x3c3c0c95	0.011477609
39	0xbe8e2be1	-0.27767852
40	0x3eb04762	0.3442946
41	0x3e49d5ae	0.19710419
42	0x3deee270	0.11664283
43	0xbe650509	-0.22365202
44	0xbe1df97c	-0.15427202
45	0x3f21b78a	0.63170683
46	0x3e96f6eb	0.29485258
47	0x3e8d5ef9	0.2761152
48	0xbd0540e6	-0.032532595
49	0x3e9b06e4	0.30278695
50	0x3bd6ef3e	0.0065592816
51	0xbdef0628	-0.11671096
52	0xbcb30c1f	-0.021856366
53	0x3d0a32ff	0.03374004
54	0xbd8fe182	-0.07025434
55	0xbbd96c19	-0.0066352007
56	0x3d3b1bf3	0.04568095
57	0x3ec76907	0.38947317
58	0x3d0df15b	0.034654003
59	0xbdbbec91	-0.09175981
60	0x3e91b71d	0.28460017
61	0xbe6ff83a	-0.23434535
62	0xbd901a29	-0.0703624
63	0xbd58f412	-0.05296714
64	0xbea55fcf	-0.3229966
65	0x3e8d7492	0.27628
66	0xbe5c8423	-0.21534781
67	0xbec5130b	-0.3849109
68	0x3e87b2f1	0.2650371
69	0xbc903b26	-0.01760633
70	0x3de4b813	0.11167922
71	0x3ee7df66	0.45287627
72	0x3e390d44	0.18071467
73	0xbd686db6	-0.056745254
74	0xbe83ba7d	-0.25728217
75	0x3e9931f3	0.2992092
76	0x3ea8893b	0.329172
77	0x3e5e752a	0.21724382
78	0xbe809bbc	-0.25118816
79	0x3d947d1f	0.072504275
80	0xbe77487a	-0.24148741
81	0x3eab8aa0	0.335042
82	0xbeef3d27	-0.46726343
83	0xbe2c03de	-0.1679835
84	0xbe008d4c	-0.125539
85	0xbeea46b4	-0.45757067
86	0xbe0ca62d	-0.13735266
87	0xbe8a2584	-0.26981747
88	0x3ea0cb8a	0.31405288
89	0x3e52c252	0.2058194
90	0xbf3309ae	-0.69936645
91	0xbe799e2d	-0.24376746
92	0xbe14d42c	-0.14534062
93	0xbe016468	-0.12635958
94	0xbedfba42	-0.4369679
95	0x3d8df0ea	0.06930716
96	0xbf1e6bda	-0.6188332
97	0xbf3f8910	-0.74818516
98	0x3c712945	0.014719312
99	0x3f6cfbb2	0.92571557
100	0xbf05613d	-0.521015
101	0x3e5a5a5f	0.21323536
102	0xbeaf28e1	-0.34210876
103	0x3f8eac85	1.1146399
104	0xbf3b4ab9	-0.7316089
105	0xbeb133f9	-0.34609964
106	0xbf0f2de7	-0.55929416
107	0x3e4048c1	0.18777753
108	0x3f328dad	0.6974743
109	0x3f229f94	0.63524747
110	0xbeabd4c4	-0.33560765
111	0xbe6ddef7	-0.23229586
112	0x3f03a7f9	0.5142818
113	0xbe88415c	-0.26612365
114	0xbf217752	-0.63072693
115	0xbeeb0f22	-0.45909983
116	0xbdd72d66	-0.10506706
117	0xbf5846c2	-0.8448297
118	0xbf39e563	-0.7261564
119	0xbf4f2575	-0.8091653
120	0x3f8926be	1.0714948
121	0x3e5b3ba2	0.21409467
122	0xbf5fad63	-0.8737394
123	0xbd9edc93	-0.07756915
124	0xbed8fe0d	-0.42381325
125	0x3ef6d5d8	0.48210025
126	0x3e9b09db	0.30280957
127	0x3d0fa756	0.035071693
128	0x3f1990a0	0.59986305
129	0xbdcac2f7	-0.09900468
130	0x3ebada31	0.36494592
131	0x3e4b05a6	0.19826373
132	0xbd37d96e	-0.04488509
133	0xbea49ad3	-0.32149372
134	0xbb63913d	-0.003472402
135	0x3af0946b	0.0018354779
136	0x3eb469e1	0.3523703
137	0xbe8ec3d4	-0.2788378
138	0xbcb5ce74	-0.022193171
139	0x3f2539fa	0.6454159
140	0xbdbbbd03	-0.091669105
141	0xbca9809a	-0.020691205
142	0x3edbebb8	0.42953277
143	0xbf445065	-0.7668517
144	0x3e2ed137	0.17071997
145	0x3d88d7b2	0.066817656
146	0x3eee46dd	0.4653844
147	0xbf22245a	-0.6333672
148	0x3e502c41	0.20329382
149	0x3ec04c54	0.37558234
150	0xbe52d724	-0.20589882
151	0x3da3faa8	0.08006793
152	0x3dc81e7f	0.09771442
153	0xbe1cf139	-0.15326394
154	0xbde1a10b	-0.11017045
155	0xbe1e5f7b	-0.1546611
156	0x3f20e8d7	0.62855285
157	0xbdb4a132	-0.08819808
158	0xbd426733	-0.0474617
159	0xbe062488	-0.13099873
160	0x3ea8fe5e	0.33006567
161	0x3ebca04e	0.36841053
162	0xbd1f1d1e	-0.038846128
163	0xbec11379	-0.3771017
164	0x3eddd016	0.4332282
165	0xbeca79f6	-0.39546174
166	0xbdc77db0	-0.0974077
167	0xbea7c597	-0.32767937
168	0x3ed197e9	0.4093621
169	0x3e3103f5	0.17286666
170	0x3f355028	0.70825434
171	0xbe5ca3be	-0.21546838
172	0x3cffb249	0.031212943
173	0xbea38101	-0.3193436
174	0x3ed26ce2	0.41098696
175	0xbea255c0	-0.31706047
176	0xbe926cc9	-0.2859862
177	0x3e908435	0.28225866
178	0x3e1be6ff	0.15224837
179	0x3ed3678a	0.41289932
180	0x3e73bf46	0.23803434
181	0x3eb7d8d2	0.35907608
182	0x3f1c38d8	0.61024237
183	0x3f4c37c7	0.7977261
184	0xbefdc955	-0.49567667
185	0x3d859321	0.06522203
186	0x3eb413a6	0.3517124
187	0xbe7f2730	-0.24917293
188	0x3f162682	0.5865251
189	0xbe994de9	-0.29942253
190	0xbf15211a	-0.58253634
191	0x3e5f811c	0.21826595
192	0x3e553749	0.20821871
193	0xbea6fb2f	-0.32613513
194	0x3f2b047b	0.6680371
195	0x3f0735cd	0.5281647
196	0xbe929926	-0.28632468
197	0x3e0a5838	0.13510215
198	0x3f8080dd	1.0039326
199	0x3d504a01	0.050851826
200	0xbe1ea4f3	-0.1549261
201	0x3e92474f	0.2857003
202	0xbdd5ece2	-0.104455724
203	0xbf1a352c	-0.60237384
204	0x3e75ee8a	0.24016777
205	0x3dd6c857	0.104874305
206	0x3c2a90f7	0.010410539
207	0xbf348562	-0.70516026
208	0xbdc38dab	-0.095485054
209	0xbf21f3b9	-0.63262516
210	0xbc8afb6c	-0.01696559
211	0xbe646626	-0.22304592
212	0xbdb38959	-0.08766431
213	0x3ed06d32	0.4070831
214	0x3eab5fde	0.33471578
215	0xbdf4556e	-0.11930357
216	0x3e1ecdb1	0.15508153
217	0xbe291ae9	-0.16514172
218	0x3e2609d7	0.16214691
219	0x3e26e69a	0.16298905
220	0xbe640379	-0.2226695
221	0x3d955c2b	0.0729297
222	0x3c8acbd1	0.01694289
223	0x3d727e42	0.05920244
224	0x3c0be403	0.008538249
225	0x3ddb49e3	0.10707452
226	0xbe3387c5	-0.1753226
227	0xbd37d85c	-0.04488407
228	0x3e323e1c	0.17406505
229	0xbee0bdae	-0.43894714
230	0xbe009f84	-0.1256085
231	0x3edc8bb4	0.43075335
232	0xbdff284c	-0.12458858
233	0xbee6c381	-0.45071033
234	0x3e211e0b	0.15734117
235	0xbe13e8bb	-0.14444248
236	0xbe46aa18	-0.19400823
237	0x3eb39510	0.35074663
238	0x3e168f6e	0.14703152
239	0x3eda9a7b	0.42695984
240	0x3e81fb10	0.25386858
241	0x3e3d607f	0.18493842
242	0xbe241e7f	-0.16027258
243	0x3dcc92c0	0.09988928
244	0x3e66483b	0.22488491
245	0xbe0ea2c4	-0.13929278
246	0x3e9a3bb1	0.30123666
247	0x3e54526e	0.2073457
248	0x3ea16f51	0.3153024
249	0xbd3d3e84	-0.046202198
250	0x3dfb2203	0.122623466
251	0xbebd07d0	-0.36920023
252	0x3e677ae0	0.22605467
253	0xbe6d8ce4	-0.23198277
254	0xbdb222ca	-0.08698042
255	0xbea39014	-0.3194586

encoder_lstm.bias_ih_l0 f4 [128]
0	0xbdf71b25	-0.12065724
1	0x3e16203d	0.14660735
2	0x3c840d6d	0.016119683
3	0x3d16fcf9	0.036862347
4	0x3e0dc024	0.13842827
5	0x3f2f869e	0.68564785
6	0x3d60def4	0.054900125
7	0x3e86cfff	0.26330563
8	0xbec9e938	-0.39435744
9	0x3e72e769	0.23721088
10	0x3d79df59	0.061004017
11	0x3cc0939d	0.023507887
12	0x3d966221	0.07342935
13	0x3e292b4c	0.16520423
14	0xbe73f3f7	-0.23823534
15	0xbde78b45	-0.113058604
16	0xbde6757b	-0.11252876
17	0x3e00814b	0.12549321
18	0x3d94be95	0.07262913
19	0x3cc87825	0.024471352
20	0x3dad7918	0.084703624
21	0x3e278cc2	0.16362289
22	0x3e906e9d	0.2820939
23	0x3e835f32	0.25658566
24	0x3f004166	0.5009979
25	0xbdfe7c7b	-0.124260865
26	0xbe687a7d	-0.22702976
27	0xbcd66246	-0.026169907
28	0xbe21e221	-0.15808918
29	0x3c38ecbc	0.011286911
30	0x3c653d5d	0.013991681
31	0xbdfd9729	-0.12382347
32	0x3f069386	0.5256885
33	0x3e660d58	0.22466028
34	0xbe2aa201	-0.16663362
35	0x3edb7d1b	0.42868885
36	0x3e43e436	0.19130024
37	0x3e50366c	0.2033326
38	0x3da01e82	0.07818319
39	0x3e2ce26f	0.16883253
40	0x3e047f66	0.12939224
41	0xbe0499fa	-0.12949362
42	0x3ebc91ff	0.36830136
43	0xbe3004f2	-0.17189386
44	0x3e451437	0.19245993
45	0xbdbff447	-0.09372764
46	0xbe05cc1b	-0.13066141
47	0xbe924183	-0.28565606
48	0xbd1d0238	-0.038332194
49	0xbe826f7b	-0.25475678
50	0x3ed8a5af	0.42313907
51	0x3cb51fc2	0.02210987
52	0xbd3cb763	-0.04607333
53	0xbde86436	-0.11347239
54	0x3dc9144b	0.09818324
55	0x3d86b9e9	0.06578428
56	0xbd3e24d7	-0.046421852
57	0xbe9a56d0	-0.30144358
58	0xbde7755b	-0.11301681
59	0xbea9928d	-0.33119622
60	0xbe09475c	-0.13406128
61	0x3e5b55b2	0.21419409
62	0x3cd46a18	0.025929496
63	0x3f08d522	0.53450215
64	0xbe7cae43	-0.2467585
65	0x3eca5199	0.3951538
66	0xbe88d56a	-0.26725322
67	0xbda54356	-0.08069484
68	0x3dba28f3	0.09089842
69	0xbecf7bff	-0.4052429
70	0xbd6ac5b9	-0.05731747
71	0xbed889ea	-0.4229272
72	0x3e29e64b	0.16591756
73	0x3e6f8cf9	0.2339362
74	0xbd085461	-0.033283595
75	0xbcdda888	-0.027057901
76	0xbf198fa1	-0.59984785
77	0xbf1385e5	-0.5762618
78	0xbd5fd5c8	-0.054647237
79	0x3b57574b	0.0032858427
80	0x3dccc3b8	0.09998268
81	0x3d633a86	0.055475734
82	0x3dc71504	0.09720805
83	0xbd5bd9be	-0.053674452
84	0xbdc6338c	-0.096778005
85	0x3e3809d5	0.179725
86	0x3d35cfcc	0.044387624
87	0x3e58ab8f	0.21159194
88	0xbe61bee0	-0.2204547
89	0x3e4c01b2	0.19922522
90	0x3e58acb0	0.21159625
91	0xbe898027	-0.26855585
92	0x3e8ec6da	0.27886087
93	0xbe431472	-0.19050768
94	0xbe134444	-0.1438151
95	0xbe747e57	-0.2387632
96	0x3e2c6d10	0.16838479
97	0xbcd27bee	-0.02569386
98	0xbefb441a	-0.49075395
99	0x3e0bd12f	0.13654016
100	0x3e8152dd	0.25258532
101	0x3e97c832	0.29644924
102	0x3e88a475	0.2668797
103	0x3eeb6715	0.45977083
104	0xbe11d58b	-0.14241616
105	0x3b937ae2	0.0045007328
106	0x3eb8f0e2	0.3612128
107	0xbe661147	-0.22467528
108	0xbca11f65	-0.01966829
109	0xbc636070	-0.013877973
110	0xbcbab9c4	-0.022793658
111	0xbe73ce26	-0.23809108
112	0xbc2d1216	-0.010563394
113	0x3b7ba757	0.0038399303
114	0x3ec0a210	0.37623644
115	0xbe0bf9f4	-0.13669568
116	0xbe452c6c	-0.19255227
117	0xbcb54a6f	-0.02213022
118	0xbde7713d	-0.11300895
119	0x3eb34e48	0.3502066
120	0xbe39cb50	-0.18143964
121	0xbe56e352	-0.20985153
122	0xbe134014	-0.14379913
123	0x3e14fbad	0.14549132
124	0x3f59bf24	0.8505728
125	0x3de6d966	0.11271934
126	0xbea2d8df	-0.31806085
127	0x3e65f249	0.22455706

encoder_lstm.bias_hh_l0 f4 [128]
0	0x3df9528b	0.12173947
1	0xbcbac57c	-0.022799246
2	0xbd8d31e3	-0.06894281
3	0x3c6ed280	0.014576554
4	0x3e3ee71c	0.18642849
5	0x3ed29c53	0.4113489
6	0x3e98a4f9	0.29813364
7	0x3e06c74d	0.13161965
8	0xbe053748	-0.1300937
9	0x3e2943b2	0.1652973
10	0xbc808a75	-0.015691021
11	0xbe2dec88	-0.16984761
12	0xbb4b8909	-0.003105702
13	0x3eaa9cab	0.33322653
14	0xbea85820	-0.32879734
15	0xbdb1beb0	-0.08678949
16	0xbe7b9b6b	-0.24571006
17	0x3db8674d	0.09004078
18	0x3c95fa2e	0.018307772
19	0xbd79694e	-0.060891442
20	0xbd32c14b	-0.04364137
21	0x3e0887e8	0.13333094
22	0x3e9195bd	0.28434554
23	0x3e2002f8	0.15626132
24	0x3ed506fd	0.41606894
25	0x3e09e71e	0.1346707
26	0xbed0ce13	-0.40782222
27	0xbc66f4af	-0.014096423
28	0x3a6acda6	0.00089570356
29	0xbe594503	-0.21217732
30	0xbe629d71	-0.22130372
31	0x3e0fae88	0.14031422
32	0x3ed71a37	0.42012188
33	0x3ebdf381	0.3709984
34	0xbe4546f8	-0.19265354
35	0x3e99f7eb	0.3007196
36	0x3c8c0f94	0.017097272
37	0x3e2de618	0.16982305
38	0xbd5afb15	-0.053462107
39	0x3e0bcdf6	0.13652787
40	0x3ea0b21e	0.31385893
41	0x3d02fe3e	0.031980745
42	0x3ebf1b8a	0.37325698
43	0xbe4bed31	-0.199147
44	0x3e9fa2c9	0.31178883
45	0xbd95a33d	-0.07306526
46	0x3e316f24	0.17327553
47	0xbea506df	-0.32231805
48	0xbe85cb66	-0.26131743
49	0xbf0616c9	-0.5237852
50	0x3ed5e2ae	0.41774505
51	0xbdecb75d	-0.11558411
52	0xbe3774b8	-0.17915618
53	0xbc792831	-0.015207336
54	0x3d539fad	0.05166595
55	0x3d7f320d	0.06230359
56	0x3d42cb9a	0.04755745
57	0xbecd92cc	-0.4015106
58	0xbe87bd68	-0.26511693
59	0xbf09c8ed	-0.53822213
60	0x3e3bd491	0.18342806
61	0x3ea12f3e	0.31481355
62	0x3e60cb74	0.21952611
63	0x3ec8693f	0.39142796
64	0xbcdf72de	-0.027276453
65	0x3e73be7f	0.23803137
66	0xbd72fb5e	-0.059321754
67	0xbeb42c3d	-0.3519
68	0xbe18bf18	-0.14916646
69	0xbea41518	-0.32047343
70	0xbd610d9d	-0.054944623
71	0xbeb72ceb	-0.35776457
72	0x3ed99a3f	0.42500493
73	0x3e0afcca	0.13572994
74	0x3dc2e85d	0.09516976
75	0x3d2d14b9	0.04225609
76	0xbf153b25	-0.5829337
77	0xbeb443ff	-0.35208127
78	0x3ce2d601	0.027689936
79	0x3d8bb408	0.068214476
80	0x3e0bff51	0.13671614
81	0xbe30a488	-0.17250264
82	0x3e269264	0.16266781
83	0xbe86e164	-0.26343834
84	0xbc49c31b	-0.012314583
85	0xbcaee5a3	-0.021349734
86	0xbcf23e75	-0.029570797
87	0x3ee7d0ab	0.4527639
88	0xbe96cc78	-0.29452872
89	0x3d0dcb6d	0.03461783
90	0x3e1d585a	0.15365735
91	0xbe5aada9	-0.21355309
92	0x3e89ff1f	0.26952454
93	0xbee3c14f	-0.4448342
94	0xbeefbd39	-0.46824053
95	0xbd417f44	-0.04724051
96	0x3e1e843a	0.15480128
97	0x3e37684a	0.17910877
98	0xbe9ff701	-0.31243137
99	0x3eaacad6	0.33357877
100	0x3e66e599	0.22548522
101	0x3ee54106	0.4477617
102	0x3eb0f9b7	0.34565517
103	0x3eb62e3c	0.3558215
104	0xbe8fa3ae	-0.28054565
105	0xbe19d659	-0.15023173
106	0x3e1db0c9	0.1539947
107	0xbd0dd29c	-0.03462468
108	0x3e94b4b6	0.29044122
109	0xbd19223e	-0.03738617
110	0x3d8aecb0	0.06783426
111	0xbe09c279	-0.13453092
112	0xbe93aecb	-0.28844294
113	0x3e552bdb	0.20817511
114	0x3ea1e8d9	0.3162296
115	0x3d37352d	0.044728447
116	0xbde79833	-0.113083266
117	0x3d2438bd	0.040093172
118	0x3a17743b	0.00057775126
119	0x3e480d34	0.19536287
120	0xbd9596cf	-0.07304155
121	0xbe38a65a	-0.18032208
122	0xbca47110	-0.020073444
123	0x3e88e364	0.26735985
124	0x3f517bc1	0.8182946
125	0x3dca9a02	0.09892656
126	0xbe3e1691	-0.18563296
127	0x3e6f4544	0.23366266

encoder_lstm.weight_ih_l1 f4 [128, 32]
0	0x3e26f8d1	0.16305853
1	0xbde224bf	-0.11042165
2	0x3e8368ca	0.25665885
3	0xbe4094e0	-0.18806791
4	0x3ea030af	0.31287143
5	0x3e724f45	0.23663051
6	0xbe91a713	-0.2844778
7	0x3e8d4e90	0.27599
8	0xbbc147f0	-0.005898468
9	0x3d5f0015	0.054443438
10	0x3de18507	0.11011701
11	0x3dd3bbe4	0.10338572
12	0xbda075b6	-0.078349516
13	0xbf0cf495	-0.550607
14	0x3db96e14	0.09054199
15	0x3c9195ee	0.017771687
16	0xbda5e92d	-0.081011154
17	0xbe3babb8	-0.18327224
18	0xbe90e8de	-0.28302664
19	0x3cd18f2b	0.025580963
20	0x3e6e9baf	0.23301576
21	0x3e476ad6	0.19474348
22	0x3d9ccb7c	0.07655999
23	0x3d84645a	0.06464453
24	0x3ec5cfcc	0.386351
25	0x3e535f25	0.20641764
26	0x3efde2fd	0.4958724
27	0xbf05bdfa	-0.52243006
28	0x3ebf0fbb	0.3731669
29	0xbe683a1d	-0.22678418
30	0xbe84db23	-0.25948438
31	0x3c8bf099	0.0170825
32	0x3e1e5b4c	0.15464514
33	0xbe01b498	-0.12666547
34	0x3c71d24c	0.014759611
35	0xbb48d21f	-0.003064282
36	0x3f0786f4	0.529403
37	0xbeaf98ea	-0.34296352
38	0xbee8c7bc	-0.45464885
39	0x3e942f29	0.2894223
40	0xbe5a5492	-0.21321324
41	0xbe2c5c04	-0.16831976
42	0x3db8cab3	0.09023037
43	0x3e00e532	0.12587431
44	0x3e1f1102	0.15533832
45	0x3dc47628	0.09592849
46	0xbe3ae59a	-0.18251649
47	0xb8c514ea	-9.3975876e-05
48	0xbe5a1df5	-0.2130049
49	0xbead7821	-0.33880714
50	0x3dc8acd0	0.09798586
51	0xbe875edb	-0.26439556
52	0x3e23fe5f	0.16015004
53	0xbea6c604	-0.3257295
54	0xbdafd424	-0.085853845
55	0x3c8f65c1	0.017504575
56	0x3eade3b3	0.33962783
57	0xbeecbd50	-0.46238184
58	0xbe763131	-0.24042203
59	0xbe19347a	-0.14961424
60	0x3e5beb29	0.21476425
61	0xbdaa465e	-0.08314203
62	0xbf3dc3a3	-0.7412664
63	0x3e5fed6d	0.21867914
64	0xbdf8bc78	-0.121453226
65	0x3e442ab8	0.19156921
66	0x3b560494	0.0032656537
67	0x3f41c8d7	0.7569708
68	0x3e2ff616	0.17183718
69	0x3f37c921	0.71791273
70	0x3ea8ede5	0.32994
71	0x3eff0cbc	0.49814403
72	0x3d327afe	0.043574326
73	0x3da7d3cd	0.08194695
74	0xbd8fe058	-0.07025212
75	0x3e2c381a	0.16818276
76	0x3db9bea6	0.090695664
77	0xbe2bbbdd	-0.16770883
78	0x3e7a7aef	0.24460958
79	0xbd69f111	-0.057114664
80	0x3db0592e	0.0861076
81	0x3df13c21	0.11779047
82	0x3c8aad29	0.016928272
83	0x3e67c5f6	0.2263411
84	0x3db376f0	0.0876292
85	0xbe9d7410	-0.3075261
86	0xbe19101d	-0.14947553
87	0xbe9b7e8c	-0.30369985
88	0xbe5db569	-0.21651234
89	0xbd874924	-0.06605747
90	0xbe7d22aa	-0.24720255
91	0x3ea6612c	0.3249601
92	0x3c58c486	0.013230449
93	0xbefaeabb	-0.4900721
94	0xbd6b55d3	-0.057454895
95	0x3e3d6877	0.18496881
96	0x3c9d2275	0.01918147
97	0x3f09167c	0.53549933
98	0xbeac2aed	-0.336265
99	0xbe3b51ae	-0.18292877
100	0x3ef94096	0.48682088
101	0xbeab4a59	-0.3345516
102	0xbebba3b2	-0.36648327
103	0xbd9e5fa4	-0.07733086
104	0xbe5be134	-0.21472627
105	0xbcecf196	-0.02892379
106	0x3eabaadc	0.33528793
107	0xbd9232c7	-0.07138591
108	0x3f3025b9	0.6880756
109	0xbd3929b8	-0.0452058
110	0x3e851e37	0.25999615
111	0x3d706a11	0.058694903
112	0xbe9ec26d	-0.3100771
113	0xbd7c8588	-0.061650783
114	0x3e76d184	0.24103361
115	0xbea96738	-0.33086562
116	0x3e610350	0.2197392
117	0xbe4333d4	-0.1906274
118	0x3dce9182	0.10086347
119	0x3e8275f9	0.2548063
120	0x3db4f70c	0.08836183
121	0x3df966c4	0.12177804
122	0xbe79495c	-0.2434439
123	0x3e499967	0.19687425
124	0x3eea838d	0.4580349
125	0xbea93e35	-0.33055273
126	0x3e0c4d49	0.13701357
127	0x3e5998d8	0.21249712
128	0xbd13388a	-0.03594259
129	0x3e8453f1	0.25845292
130	0xbea91523	-0.3302394
131	0xbdcea72b	-0.100904785
132	0x3e310368	0.17286456
133	0xbe373ef3	-0.17895107
134	0xbe18dd6b	-0.14928214
135	0xbea5be1b	-0.323716
136	0xbf5c45ec	-0.8604419
137	0xbdfd8529	-0.12378914
138	0x3e95aaa9	0.29231766
139	0xbe8aa504	-0.27079022
140	0xbe4bb4b8	-0.19893157
141	0x3d7053fe	0.05867385
142	0x3e30595a	0.17221585
143	0x3e04b9f4	0.1296156
144	0xbe07477e	-0.13210866
145	0x3e4c405a	0.19946423
146	0x3e81b778	0.25335288
147	0xbd5a591e	-0.053307645
148	0xbe89af00	-0.26891327
149	0xbecf3b07	-0.40474722
150	0xbe25c51a	-0.1618847
151	0x3e0e78a4	0.13913208
152	0xbdb0e03c	-0.08636519
153	0x3eb895ba	0.36051732
154	0xbe52846c	-0.20558327
155	0x3df9623c	0.1217694
156	0x3e6addaf	0.22936128
157	0xbf0344b7	-0.51276726
158	0x3d703d0c	0.05865197
159	0x3ec163ff	0.37771603
160	0xbdaea0bd	-0.08526752
161	0x3e08d9cd	0.13364334
162	0xbe6249f1	-0.22098519
163	0x3c1229fc	0.008921143
164	0x3ced4080	0.02896142
165	0xbd8a7ee2	-0.06762482
166	0x3d730e07	0.05933955
167	0xbdbf5e53	-0.09344163
168	0xbd956e0a	-0.07296379
169	0xbe2792ef	-0.16364644
170	0x3c99236b	0.018693646
171	0xbe2b632c	-0.1673705
172	0x3d4f9142	0.050675638
173	0xbdf0b249	-0.11752755
174	0xbda6a74e	-0.081373796
175	0x3e5aab4d	0.21354409
176	0xbd95a1c8	-0.07306248
177	0x3eb357c0	0.35027885
178	0x3ee6bdcd	0.45066682
179	0x3ed30521	0.4121485
180	0xbdb9ce49	-0.09072549
181	0xbe37617d	-0.17908283
182	0x3d1ef586	0.03880837
183	0x3d89b798	0.06724471
184	0xbe45d0bf	-0.19317912
185	0x3dd1eb91	0.10250009
186	0x3df21ee7	0.118223004
187	0x3ea4a6bd	0.3215846
188	0xbe557f9c	-0.2084946
189	0x3d774b9f	0.060374852
190	0x3d251e54	0.040312126
191	0xbbbcbdb9	-0.0057599214
192	0xbd3ffafa	-0.04687021
193	0x3e234378	0.15943706
194	0xbeae200d	-0.34008828
195	0x3f30a5a5	0.69002753
196	0xbeeea27c	-0.4660834
197	0x3efd5c52	0.49484497
198	0xbe303f30	-0.17211604
199	0x3e20ec5a	0.15715161
200	0x3d7cfbf1	0.061763708
201	0x3ddaf2f9	0.106908746
202	0x3e32de35	0.17467578
203	0x3e0a0958	0.13480127
204	0x3dc27ad3	0.09496083
205	0x3e063807	0.1310731
206	0x3dc8fefd	0.0981426
207	0xbe52eab6	-0.20597348
208	0x3e0e8693	0.13918523
209	0xbe5fe8c0	-0.21866131
210	0xbe610be4	-0.21977192
211	0x3e97accd	0.29624024
212	0x3e1b3c2b	0.15159671
213	0x3bb71cd9	0.0055881557
214	0xbdf196b9	-0.11796326
215	0x3e593a08	0.21213543
216	0x3d2dd55d	0.042439807
217	0xbd339e34	-0.043852046
218	0x3e04a93d	0.12955184
219	0xbe8c5c01	-0.27413943
220	0xbe939314	-0.2882315
221	0x3ea29db6	0.3176095
222	0x3e6052f4	0.21906644
223	0xbf12142f	-0.5706205
224	0xbd822c8f	-0.06356155
225	0x3e41caeb	0.18925063
226	0xbd07a55c	-0.033116683
227	0x3e15f23c	0.14643186
228	0x3e54f1b7	0.20795332
229	0x3e3ce46d	0.18446513
230	0x3ee380cb	0.444342
231	0x3ee300bb	0.44336495
232	0xbed333a9	-0.4125035
233	0xbec2739b	-0.37978825
234	0xbd9e0aa8	-0.07716876
235	0x3ddfe90a	0.109331205
236	0x3db42306	0.08795743
237	0xbd364e6d	-0.044508386
238	0xbd80b493	-0.06284442
239	0xbda83ee9	-0.08215124
240	0x3ed4140c	0.41421545
241	0xbe2f1203	-0.17096715
242	0xbe9bbcd8	-0.30417514
243	0x3dbd0361	0.0922916
244	0x3d7c82ab	0.061648052
245	0x3dde8875	0.10865871
246	0x3d9123a5	0.07086877
247	0xbebc90a6	-0.36829108
248	0x3eb0f932	0.3456512
249	0x3b090c24	0.0020911777
250	0xbdd415ba	-0.103557065
251	0xbe03f08b	-0.12884729
252	0x3e4dc2e1	0.20093872
253	0x3dc40085	0.095704116
254	0x3c0dadc8	0.00864739
255	0x3d858669	0.06519777

encoder_lstm.weight_hh_l1 f4 [128, 32]
0	0xbd59be98	-0.05316028
1	0xbe280684	-0.16408736
2	0xbe57585a	-0.21029797
3	0xbdae1edf	-0.08501982
4	0xbe6995a2	-0.22810987
5	0x3d0cdf6b	0.034392755
6	0x3deec459	0.11658544
7	0xbe20bc31	-0.1569679
8	0x3c892454	0.016740955
9	0xbd1a6a2a	-0.037698902
10	0x3e8899ed	0.26679936
11	0x3e1822a2	0.14856961
12	0xbd83573d	-0.06413124
13	0xbdc8c82f	-0.09803807
14	0x3e9aa845	0.30206504
15	0xbe3eb195	-0.1862243
16	0xbeb2b20a	-0.34901458
17	0x3e8da1ed	0.27662602
18	0xbe48c8fa	-0.19607916
19	0x3e3561be	0.17713067
20	0x3d0b4478	0.034000844
21	0xbe3cb38a	-0.18427864
22	0xbd1beaff	-0.038065907
23	0x3e7f9df9	0.24962606
24	0x3d23b079	0.03996322
25	0xbe4a495e	-0.1975455
26	0x3e025c35	0.12730487
27	0x3e722589	0.23647131
28	0xbe4a46ed	-0.19753619
29	0x3e6269e7	0.22110711
30	0x3d0f555e	0.034993522
31	0xbe9faa0f	-0.31184432
32	0x3d1fea2e	0.03904169
33	0xbe817ecd	-0.25292054
34	0x3e8c9ae8	0.27461934
35	0xba81cc75	-0.0009902852
36	0xbe6cde5d	-0.231317
37	0x3e92b59c	0.28654182
38	0xbe7a37df	-0.24435376
39	0xbd24b11b	-0.040207963
40	0x3e2ed236	0.17072377
41	0xbe8f1c65	-0.2795135
42	0xbe54478e	-0.20730421
43	0x3d40ca76	0.04706808
44	0xbc619826	-0.013769185
45	0x3dab37d4	0.08360258
46	0x3ca01c93	0.019544875
47	0xbe4a4a05	-0.19754799
48	0x3e9691ca	0.29408103
49	0x3e32703b	0.17425625
50	0xbe972221	-0.29518226
51	0x3e0c9797	0.13729702
52	0xbcb02aba	-0.021504749
53	0x3ce21fde	0.027603086
54	0x3dd8113b	0.105501615
55	0x3daf9bce	0.08574639
56	0xbe7130cc	-0.23553771
57	0x3e63f4b3	0.22261314
58	0x3e3b37fd	0.18283077
59	0x3e0782b8	0.13233459
60	0xbd8ff9f8	-0.070301
61	0xbc563a1b	-0.013075377
62	0x3e11c903	0.14236836
63	0x3e32ddd0	0.17467427
64	0xbe393822	-0.18087819
65	0x3c9ad9d1	0.018902691
66	0xbeb20b1d	-0.34774104
67	0xbdffa249	-0.12482125
68	0xbe9639f2	-0.29341084
69	0x3e04e354	0.12977344
70	0xbde831c7	-0.11337619
71	0xbd0f3345	-0.034961004
72	0x3e8332d0	0.25624704
73	0x3e1abd79	0.1511134
74	0x3da86a09	0.082233496
75	0xbe85f1fb	-0.2616118
76	0x3d947d84	0.07250503
77	0x3e114f7d	0.14190479
78	0xbd7b94f1	-0.06142134
79	0x3eda47fc	0.42633045
80	0x3ecf2e88	0.40465188
81	0xbe00dc87	-0.12584125
82	0x3e3c4012	0.18383816
83	0xbd9eca96	-0.07753484
84	0x3df9f149	0.122042246
85	0xbe3bfe49	-0.18358721
86	0x3de64855	0.11244265
87	0x3cf9be14	0.030486144
88	0x3c5a42dd	0.0133216055
89	0x3e1e7d48	0.15477479
90	0x3e834aa4	0.25642884
91	0x3d8fc471	0.0701989
92	0x3e0290b3	0.12750511
93	0x3ae8208d	0.0017709896
94	0xbd20eaf3	-0.039286565
95	0xbd9b1272	-0.075718775
96	0xbdbee6a8	-0.09321338
97	0x3e306a0a	0.1722795
98	0x3d11d1b3	0.035600375
99	0xbe8983b1	-0.26858285
100	0x3e810461	0.25198653
101	0xbebde820	-0.3709116
102	0xbe04f30c	-0.1298334
103	0xbe5271dd	-0.20551248
104	0x3e38df3f	0.18053912
105	0xbe533164	-0.2062431
106	0x3d4a8408	0.04944232
107	0xbd9dd322	-0.07706286
108	0x3d9f9945	0.07792906
109	0x3e38bdf4	0.18041211
110	0x3e2ca08d	0.1685812
111	0xbe435ba9	-0.19077934
112	0x3e009866	0.12558135
113	0x3da8cf56	0.08242671
114	0xbdbdec6e	-0.09273611
115	0xbe9e761f	-0.30949494
116	0x3e1eabcf	0.15495227
117	0x3ea8d334	0.32973635
118	0xbc9b6309	-0.018968122
119	0x3dc17e0e	0.09447871
120	0x3e71b3bd	0.23603721
121	0x3e2e4895	0.17019875
122	0x3d842e2d	0.0645412
123	0xbe1217d9	-0.1426691
124	0xbda9f799	-0.08299179
125	0xbe6fa1a4	-0.23401505
126	0xbd7e49aa	-0.06208197
127	0x3e7369f5	0.23770888
128	0xbe340d69	-0.1758324
129	0xbed3d77d	-0.41375342
130	0xbe844aab	-0.25838217
131	0x3e1f2507	0.15541469
132	0x3b1bafb5	0.0023755853
133	0xbe4d6b54	-0.20060474
134	0xbd7d6de6	-0.061872385
135	0xbe257f40	-0.16161823
136	0x3dd176c8	0.10227734
137	0xbe586f0d	-0.21136113
138	0xbe16d403	-0.14729314
139	0xbe9d0c5e	-0.30673498
140	0xbdf3577f	-0.11881923
141	0x3ed1fcf6	0.41013306
142	0xbb27e088	-0.0025616009
143	0x3e0fc7fc	0.14041132
144	0x3f1b7f26	0.6074089
145	0x3de33748	0.110945284
146	0xbd0213fb	-0.031757336
147	0xbe925166	-0.28577727
148	0xbd0e7261	-0.03477705
149	0xbe217ce7	-0.15770303
150	0xbe6d0895	-0.23147805
151	0x3cb99edb	0.022658756
152	0xbdbe950c	-0.09305772
153	0x3de54fa6	0.11196832
154	0xbd7ea92d	-0.062173057
155	0xbcb12711	-0.021625074
156	0xbc266218	-0.010155223
157	0xbcd04e5d	-0.025427992
158	0x3ce98fcf	0.028510956
159	0x3dbc74f4	0.092019945
160	0xbddb5ab1	-0.107106574
161	0xbdadcf9f	-0.08486866
162	0xbe750752	-0.23928574
163	0xbe6dbfda	-0.23217717
164	0x3df83781	0.121199615
165	0xbe17fb0b	-0.14841859
166	0xbe8aac00	-0.2708435
167	0x3edf4658	0.43608356
168	0x3ebc0d51	0.3672891
169	0x3ea197a2	0.31561
170	0x3e0fdb0a	0.140484
171	0xbd352354	-0.044223145
172	0x3e017d21	0.12645389
173	0xbc4d3bca	-0.012526462
174	0x3d015867	0.031578448
175	0xbc4d6e72	-0.012538539
176	0x3e489fa3	0.19592147
177	0xbed218d1	-0.41034558
178	0x3d8a93c6	0.06766467
179	0xbdf71f81	-0.12066556
180	0xbd01c366	-0.031680487
181	0x3c95b120	0.018272936
182	0xbe282218	-0.16419256
183	0xbe3b465e	-0.18288562
184	0x3e342d72	0.17595461
185	0x3e8faaca	0.2805999
186	0x3e6fa403	0.2340241
187	0xbe7f568a	-0.24935356
188	0xbd06e197	-0.032929983
189	0xbe163f91	-0.14672686
190	0xbec53daa	-0.38523608
191	0x3d5b9adf	0.053614493
192	0x3e86c4ec	0.26322114
193	0xbdfb8645	-0.12281469
194	0xbe0eba10	-0.13938165
195	0xbe5338e0	-0.20627165
196	0xbebe9350	-0.37221766
197	0x3eaa64b6	0.3327996
198	0x3e1a5e3f	0.15075015
199	0x3e2dbf89	0.16967596
200	0xbe9ddb91	-0.30831578
201	0xbe35c180	-0.17749596
202	0x3e750359	0.23927058
203	0x3cfd7fa7	0.030944658
204	0x3e98e758	0.29864
205	0xbde8f994	-0.11375728
206	0xbc2da2b2	-0.010597872
207	0xbe200c73	-0.15629749
208	0xbe0cc866	-0.13748321
209	0xbe432482	-0.19056895
210	0x3c6760a3	0.014122161
211	0x3d67c0fc	0.05658053
212	0x3d9baa4c	0.07600841
213	0x3ea6cf72	0.32580143
214	0x3e58c43d	0.21168609
215	0xbce17f8c	-0.02752664
216	0xbd29dcab	-0.04147021
217	0x3d2ce8d2	0.042214222
218	0xbef07d46	-0.46970576
219	0x3e521d52	0.20518997
220	0x3ef115eb	0.47087035
221	0xbe897ef3	-0.26854667
222	0x3eadc091	0.3393598
223	0x3d82043a	0.063484624
224	0xbe4f98d1	-0.20273139
225	0xbe79120b	-0.24323289
226	0xbea723dc	-0.32644546
227	0x3e8869ef	0.2664332
228	0xbe8c6204	-0.2741853
229	0x3e924c78	0.28573966
230	0xbd22771c	-0.039664373
231	0xbe55f309	-0.20893492
232	0xbea09378	-0.3136251
233	0x3de95c3d	0.11394546
234	0xbd2da86e	-0.042396955
235	0xbddbe3a9	-0.10736782
236	0x3eb5f6a4	0.35539734
237	0xbeb7074f	-0.35747764
238	0xbd1b39d3	-0.037896942
239	0x3f01b938	0.50673246
240	0xbc1788a2	-0.009248884
241	0xbdaa2c0b	-0.08309182
242	0x3e3730a7	0.17889653
243	0x3e9b1420	0.30288792
244	0x3da7e7ec	0.081985325
245	0xbdd47754	-0.103743225
246	0x3e1602a7	0.1464945
247	0xbe0e3257	-0.1388639
248	0x3e9cb383	0.30605707
249	0xbd63c42e	-0.055607013
250	0xbd714164	-0.058900252
251	0x3d5c32f3	0.053759526
252	0xbe37eb8b	-0.17960946
253	0x3e9064f7	0.2820203
254	0x3e91ffcd	0.28515473
255	0xbec91aa3	-0.39278135
