W3-Design/checkpoints/epoch_29.pt (torch, 384725 bytes, 24 tensors)

encoder_cnn.0.weight f4 [32, 3, 3]
00000000: c278 57be 10f7 4ebd 4c89 5abe 06e5 8b3e
00000010: 1531 5abe c7e7 543e be1c 5e3e 1218 813e
00000020: fb5d 3b3e 58cf 913d 8d2a 4f3d bb9d 893d
00000030: 9c82 babe 00c6 bebe 20b5 703d 690d b9be
00000040: f787 a33d 78de 12be a548 a93d bf9c 3a3e
00000050: 23bd aa3e 2131 b8bc ddd5 343e e911 d8be
00000060: cbda b0be 900a 83bc 44ad 5abe df0a 89bd
00000070: c7db f13d cb68 7bbe 563d f4bc 9ab4 953d
00000080: 45a2 0f3d 8453 473e 1cd4 823e ab0a 7e3d
00000090: ea74 67bd 0fcd db3d 5cd6 97bd 5e4c 143f
000000a0: dcc3 75bd 064a 103f d4b0 133e bf57 1d3e
000000b0: f912 9abe 0740 453d 9b45 debd 7735 ba3e
000000c0: 1a6c aabe 1b4a 85be 3880 b43d 89ae 3a3e
000000d0: e269 923e 2ef6 69be 147f f5bc bae4 febd
000000e0: cb38 a83e d8a9 7b3e a8cd 323d d4c7 93be
000000f0: 9afc 24be 385a 633d 5706 fcbe b0ba 923e
00000100: 2244 5bbc 853c 863e 94fb 4f3e ad24 9fbe
00000110: b9a5 05bf b4fa 06be b7b2 e6bd 11c2 9a3e
00000120: 4ac8 a03d 849a 493e fc12 37bd 0e1d e8bc
00000130: 2d55 5bbe fc58 ab3e 8eed 81be 151b 9d3e
00000140: f5f0 90bd 9b75 483e 0261 b63e 8442 febc
00000150: a8c9 0e3e f442 83be 3ec6 e6be 9133 3dbb
00000160: c056 45bd 6203 d4bd 31b8 2bbc 90be a63d
00000170: a4ed fb3d f7fb c13e 0a65 0dbe e97c 39be
00000180: fdad 77be c927 833e 6be2 5f3d 1bc1 b0bd
00000190: cb98 253d 0944 413d db3d d33d 4d03 c33e
000001a0: 86f2 183d 59b0 24be f938 86be e60c b4bd
000001b0: 2990 2fbe e942 4e3e 8541 a83d c67d 01be
000001c0: ea0b b9be e3d2 e8be 0d2b b03e 5fdc 58bc
000001d0: bad8 38be 7f64 773e c423 bdbc 52c2 243e
000001e0: 7e04 1bbd fca2 cfbd 7c4e 013d f787 5cbe
000001f0: 5dad 79bd f628 49ba dd4f 0cbe 0a64 1bbe
00000200: 822a a1bd 9ba4 b03e 7592 cbbc 3e0b 3bbe
00000210: 6ee1 723e 4f43 853e 42ce 83bd 3915 683e
00000220: cf3b d83d 2953 73be 298e e1be 1553 9a3c
00000230: 19c9 8ebe 243f c1be 1b30 f6bc 7f51 20be
00000240: 09f0 353e 3ae9 2fbe ce4c 94be a508 443e
00000250: c2e2 d8bb 657f bebd 7c73 853e 779d b0bd
00000260: 9893 473e 413b 99bd 3933 113e 5e7f 1bbc
00000270: 835e 003e b338 f8be a9d2 203e ffc7 1cbe
00000280: 3b4a c4be d117 26be 98c0 5c3e f9f8 ba3d
00000290: 5ced adbe b866 28be 8ac0 e9be d633 5cbe
000002a0: 7f74 3c3e 0885 32be e724 dfbd a1bb 19be
000002b0: 61a2 133e 0339 ae3d 89f6 1cbd 1a08 12be
000002c0: fac1 3a3d a76c 9b3a 10d2 a93e 7e10 653e
000002d0: 8cb0 4fbe accc 2cbe 8d8c 17be 1305 35be
000002e0: 05e5 743e 7910 3e3d 43f1 683e 61be 413e
000002f0: 2028 3fbe fbeb 193e 5190 8cbe 551c fcbd
00000300: 916e 56be af21 503e 85df 8a3d 6b9c debd
00000310: 500d c9be 619e 97be d5d5 fc3d e6e3 8ebe
00000320: 9463 543e a18d 3d3e 706d 8b3e 55c5 103b
00000330: 260f 443d dd55 c9bc 2091 45be 2ad2 1f3e
00000340: 68bf 85be 969f 99be fa2c 0abe 0c18 d33c
00000350: 9495 c1bd f372 283e fa11 813e b24e 9d3e
00000360: e37f 2a3e a229 c73e f9ab c23c 7874 bc3e
00000370: 2900 833e f024 cdbd b6fb 7d3b 49e6 853d
00000380: eccc f13d 1040 9e3e bd64 fd3d 6997 913e
00000390: 0f51 1a3e fce1 053e d0d3 903c d404 06bf
000003a0: 898a 39be 517b 113e 8a9c c3be 9d03 f73c
000003b0: fc82 48be a0a1 d03e 7b15 803e 4e8c 0fbe
000003c0: 5f6c b83e ea09 cf3c 8c17 cebd 811f 70be
000003d0: 491c 203d ec6f 273d f8df 05be 430d a1bd
000003e0: c758 5a3e 91ad 6fbd 3911 cb3e 092b 403e
000003f0: ec97 563e 8a47 e0bc 66f5 353e f5d1 a8bc
-0.21042159 -0.050528586 -0.21341437 0.2732317 -0.21307786 0.20791541 0.21690652 0.25213677
0.1829757 0.07119626 0.05057769 0.06719538 -0.36427772 -0.37260437 0.058766484 -0.36143044
0.079849176 -0.14342678 0.08265809 0.18223856 0.33347425 -0.022484364 0.17659707 -0.42201164
-0.34541926 -0.015996248 -0.21355158 -0.066915266 0.11809497 -0.24551694 -0.029814404 0.07309838
0.03506686 0.19465452 0.25552452 0.062021893 -0.056507982 0.10732471 -0.07413933 0.5792903
-0.06000124 0.5636295 0.14422923 0.15365504 -0.300926 0.048156764 -0.1085312 0.36368915
-0.332856 -0.260331 0.08813518 0.18230642 0.28596407 -0.22847816 -0.029967822 -0.1244597
0.3285583 0.24576509 0.04365316 -0.28863394 -0.16111985 0.05550596 -0.49223587 0.28658056
-0.013382943 0.26218048 0.20310813 -0.3108267 -0.52206 -0.13181573 -0.11264556 0.30226186
0.07850702 0.1968785 -0.04469584 -0.028334167 -0.2141921 0.33466327 -0.25376552 0.30684724
-0.07077209 0.19576113 0.35620886 -0.031037576 0.13944113 -0.2563702 -0.45073122 -0.0028869847
-0.048178434 -0.10352208 -0.010480926 0.08141816 0.12301186 0.37887546 -0.13808075 -0.18114056
-0.24187465 0.2561629 0.05465929 -0.08630582 0.040428918 0.047184024 0.10314532 0.38088456
0.037340663 -0.16082896 -0.26215342 -0.08791523 -0.17144836 0.20142712 0.08215622 -0.12645635
-0.36141902 -0.45473394 0.34407845 -0.013236134 -0.18051425 0.2415943 -0.023088343 0.16089752
-0.03784608 -0.10138509 0.03156899 -0.21536241 -0.060956348 -0.0007673645 -0.1370234 -0.1517488
-0.07869436 0.34500584 -0.02485011 -0.18266007 0.23718807 0.26027915 -0.06435825 0.22664346
0.105582826 -0.23762192 -0.44053772 0.018838445 -0.278878 -0.37743485 -0.030052235 -0.15656088
0.17767347 -0.17178813 -0.28964847 0.19143923 -0.0066188285 -0.09301642 0.2606467 -0.08623784
0.19489896 -0.07482005 0.14179696 -0.009490816 0.12536053 -0.48480758 0.1570536 -0.15310667
-0.38337883 -0.16220023 0.21557844 0.09129519 -0.33970153 -0.16445434 -0.45654708 -0.21504149
0.18403815 -0.1743356 -0.108957104 -0.15012981 0.14417411 0.08506968 -0.03832105 -0.14260903
0.045595147 0.0011857942 0.33168077 0.22369573 -0.20282191 -0.16874951 -0.1479971 -0.17677717
0.23915489 0.04640243 0.22748284 0.1892028 -0.1866765 0.15031426 -0.27453855 -0.123100914
-0.20940615 0.2032535 0.06780914 -0.10869678 -0.3926797 -0.2961302 0.12345473 -0.27908248
0.20741111 0.18511058 0.27231932 0.0022090275 0.04786601 -0.024577076 -0.19293642 0.15607515
-0.26122594 -0.30004567 -0.1349372 0.025768302 -0.09452358 0.164501 0.25209028 0.30724102
0.16650347 0.3889895 0.023763644 0.3680761 0.2558606 -0.10016811 0.0038754768 0.06538064
0.11806664 0.3090825 0.1237273 0.2843583 0.15069984 0.13074487 0.017679125 -0.5235112
-0.18119253 0.14207198 -0.38205367 0.03015309 -0.19581217 0.4074831 0.25016388 -0.14018366
0.3602018 0.025273282 -0.10063085 -0.23449518 0.039089475 0.04087822 -0.13073719 -0.078638576
0.21322928 -0.058515135 0.39661577 0.18766417 0.20956391 -0.027377862 0.17769393 -0.020607928

encoder_cnn.0.bias f4 [32]
00000000: 1804 babe 7544 8abe 2bc4 a73f 4a27 c2bf
00000010: e975 b93d 070b bebd a4b1 53bf dc17 20be
00000020: 1c46 e3be 2713 a5be d0fd f3be 5519 9bbe
00000030: 696b 70be c1e0 89bf d5bb 6abf 4266 243e
00000040: 3741 83bf 6cc1 3e3d efed 83be 6713 8abf
00000050: 5b07 4dbf 2f16 cc3e 0b69 8bbe 6d4e 3abf
00000060: 2255 02bf 097f 483f 9c63 55bf 29c5 63bf
00000070: e5cb 93bf 9147 debd 49c9 d03e 0604 3f3e
-0.36331248 -0.27005354 1.3106741 -1.516824 0.09055693 -0.09279447 -0.82692933 -0.15634102
-0.44389427 -0.32241175 -0.4765458 -0.30292764 -0.23478474 -1.0771714 -0.9169286 0.16054633
-1.0254277 0.04657118 -0.25767466 -1.0787171 -0.8008935 0.39860675 -0.2722858 -0.7277592
-0.5091115 0.7831884 -0.83355117 -0.8897272 -1.1546599 -0.10853494 0.40778568 0.18653879

encoder_cnn.2.weight f4 [64, 32, 3]
00000000: e564 5bbe 7852 8cbe 7763 84bd 3f9b a73e
00000010: 47d0 a63e 2344 7c3e feb3 163f 2cf9 333e
00000020: 704d cf3d be65 213e 8689 2fbf 7938 60be
00000030: 64b1 063c 7e53 ec3d 7f6a 8bbe 7593 b8bd
00000040: 5f98 89be 295f 4ebd 79c7 76bd 26a6 493e
00000050: 21fe 4c3e 71bd 9bbd b42a 59be 6212 5bbe
00000060: eaf9 9c3e f166 db3d 6701 47bd 4333 d63e
00000070: c4fe cdbc 07ec febd b755 8abd 8624 ee3c
00000080: e2e3 993e 30f6 91bd 06f8 62be 09d9 12be
00000090: d391 393e dd43 5cbe 0ca7 8dbd 422a 433e
000000a0: 18af 2a3e bdb0 883e 48ef 563a 4e1d e7bd
000000b0: 6e63 13bd 9cb5 ac3e efde 913e 4f94 cabc
000000c0: d674 bc3e 00ef 5c3e d663 5a3d cc21 a93e
000000d0: c6a7 333e 5d32 bcbb e32e 5fbd 02b4 6fbd
000000e0: 49c2 0cbe a05f dcbe c5bf 9fbe 2982 833e
000000f0: 2063 113a 3fce 76be 8032 073d 02d8 9c3d
00000100: 1c19 c83c 71a4 1ebe 808d 823e c4b2 9ebd
00000110: 7393 243d 6152 91be 2d84 60be b01b 6dbd
00000120: cf7f 823e 1428 8e3d 3688 b33e eeaf 6bbe
00000130: 9f7c 7bba 1d77 a5be 258b 19be 24a2 90bd
00000140: ebc9 0cbe ff61 d53d 5262 b8be 75c7 4bbe
00000150: db29 afbc 2041 82be 10fb 9dbe 74e7 23bd
00000160: 5ad6 c4bd 012f d9bc 63dc b13e 087c ccbd
00000170: 8122 e63b 6c25 873e 2a89 dcbd 6a23 28be
00000180: 9ca5 6bbd 3ba8 5abc 7591 993d 5368 a6bd
00000190: 82cd 74bd 6937 e4bc 7cd3 ffbe bb9e 75be
000001a0: f055 3ebe 1fa9 83bd 78ef ef3c 2043 babd
000001b0: ec8f a2be d8b8 93be 924c 5dbe a30d 38bd
000001c0: adf5 bbbb 5b66 913d 938e 703d e096 02be
000001d0: f3de 42be 8272 77be cf4e 9f3d 9101 1d3c
000001e0: 39cb c33d 7b40 4bbe 1e1e 46bd 98c8 c53c
000001f0: ad8d 193d 09b0 7bbc eca7 53bd ef9d 9bbd
00000200: 5810 9dbd 4f71 afbe fe5b 38be 8f70 f4be
00000210: 24d6 c8bb ea4f 81bc a9a7 32bd 32e0 12bd
00000220: d634 833c 4750 233d 018c fabd 8335 5abd
00000230: 3746 13be d3be 2cbe f748 9ebd 8826 2abe
00000240: 569a 35be cca4 453d e52f 7ebd b799 a6be
00000250: c7fb b8be 1821 b2be cbe5 543b 4645 f63c
00000260: f547 353d 3e16 dc3d 1837 883d 636c 963d
00000270: ee9e f4bc 9dc9 1bbc e141 f5bc 302c 9abe
00000280: 82b9 8bbe 3cbb 8ebe 6226 aebc 748e e3bd
00000290: 8abc f1bd 1c8f 323d b312 16bd d231 c03c
000002a0: 2d4a 05bd 0b09 5a3d 2cf0 4b3d 1811 7fbe
000002b0: 95c6 203d 6893 883d 0800 38bd 6e65 35bd
000002c0: b21e 41be c3d7 44be 5120 abbd 16ce 96bd
000002d0: 737c 34be 29d5 9bbd 5a63 883d e6f0 2fbc
000002e0: 58d2 d7bd 21d2 29bc b506 0bbe 952d e0bd
000002f0: 036c 36be def3 2cbe 44fc 2ebe 5ab7 62be
00000300: 9b2d 513e d5d3 c73d 0238 a3bd f1f9 13be
00000310: 2a92 dd3d 5770 d13d d33d 12bf 04b8 a5bd
00000320: 85cd dcbb 7145 453d 028a 20be 9df8 b8bc
00000330: 7f46 23be b6ba 62be 0bfa abbf bc39 27be
00000340: 640a e73e 404a 58be 6c8d 9dbe 151e dc3e
00000350: 4047 42bd 49c2 1f3e 1d70 6f3e 85e5 e6be
00000360: 43e2 72bd 83e7 e4bd f66b 7bbe 797a 3cbd
00000370: 3906 913c 3f4c 93be 086e 5ebe 949e 353e
00000380: 38be 13be b3a8 bbbd 317d 2a3d 49df ddbe
00000390: da3b 9bbe 9890 043e c1c8 9cbd 83dd 42be
000003a0: 092a 23be afa2 b2be fc86 863e ae7b 633c
000003b0: 204b 72be f5ba 17be 7edd 9c3c 387f adbe
000003c0: 1475 343e 653e 963c 8e86 79be 7cc8 d23c
000003d0: 200b 2abe 1774 50be e7ab 1cbf 6c14 e1be
000003e0: b4f1 efbd c3d9 8bbd 2d22 4f3e 7da4 69be
000003f0: 769f 073e 9f61 6f3d a16b 72be 2ebe bbbe
-0.21425207 -0.2740667 -0.06464284 0.3273563 0.32580778 0.24635367 0.58868396 0.1757552
0.10122192 0.15761468 -0.6856922 -0.21896543 0.008221004 0.11539362 -0.27229688 -0.090125
-0.26874062 -0.05038372 -0.060248826 0.19692287 0.20018817 -0.076044925 -0.21207696 -0.21393731
0.3065942 0.10712994 -0.04858532 0.41835985 -0.025145896 -0.124473624 -0.0675463 0.02907015
0.30056673 -0.07127035 -0.22164926 -0.14340605 0.18122034 -0.21510263 -0.06916627 0.19059089
0.16668355 0.2669734 0.0008199108 -0.11284886 -0.035983495 0.33732307 0.28490397 -0.024728922
0.3680789 0.21575546 0.053317867 0.33033597 0.17544469 -0.0057433085 -0.054488074 -0.05852128
-0.13745989 -0.43041706 -0.31200996 0.25685242 0.0005546082 -0.24102114 0.033007145 0.07658388
0.024426036 -0.15492417 0.2549858 -0.077489406 0.04017968 -0.28383163 -0.21925421 -0.057887733
0.25488135 0.06941238 0.35064858 -0.2301633 -0.000959346 -0.3231744 -0.14994486 -0.07062176
-0.137489 0.10419082 -0.36012512 -0.19900306 -0.021382263 -0.2544031 -0.30855608 -0.040015653
-0.09611197 -0.026511671 0.34738454 -0.099845946 0.007023156 0.26395738 -0.107683495 -0.1641976
-0.057530984 -0.013345773 0.07498447 -0.08125367 -0.0597663 -0.027858453 -0.49966037 -0.23986332
-0.1858747 -0.06428742 0.029288992 -0.09094834 -0.3175043 -0.28851962 -0.2161124 -0.04493488
-0.005736074 0.07099601 0.05872972 -0.12752867 -0.19030361 -0.24164775 0.077787034 0.009582893
0.09560246 -0.19848816 -0.048368566 0.024143502 0.03748863 -0.015361794 -0.051673815 -0.07598483
-0.07669133 -0.34266135 -0.18003842 -0.47742125 -0.006129043 -0.015785176 -0.043616924 -0.03585834
0.016016405 0.03987148 -0.12233735 -0.05327369 -0.14382254 -0.16869669 -0.07728761 -0.16616261
-0.17734656 0.048252866 -0.062057395 -0.3253915 -0.3612959 -0.34790874 0.00324856 0.030062329
0.044258077 0.1074643 0.06651133 0.07344892 -0.02986094 -0.009508518 -0.02993864 -0.30111837
-0.2728997 -0.27877223 -0.021258537 -0.11111155 -0.11803539 0.04359351 -0.036638927 0.023461256
-0.032541443 0.05323128 0.049789593 -0.24908864 0.039251883 0.066687405 -0.044921905 -0.044286184
-0.18859366 -0.19222932 -0.08355773 -0.073635265 -0.17625599 -0.076090164 0.06659575 -0.010738587
-0.10538167 -0.01036504 -0.13576777 -0.10946194 -0.1781464 -0.16889903 -0.17088419 -0.22140256
0.20427553 0.09757201 -0.07969667 -0.14450814 0.10818894 0.10226505 -0.57125586 -0.08091739
-0.006738367 0.048161928 -0.15677646 -0.022579486 -0.15944861 -0.22141537 -1.3435682 -0.16330618
0.45125115 -0.21122074 -0.3077196 0.429917 -0.04743123 0.15601458 0.23382612 -0.45096985
-0.05929781 -0.1117697 -0.24552903 -0.046015237 0.017703163 -0.2876911 -0.21721661 0.17736274
-0.14428031 -0.09163036 0.041623298 -0.43334416 -0.303191 0.12945783 -0.07655478 -0.19029813
-0.15934004 -0.34889743 0.2627486 0.013884468 -0.2366147 -0.14817412 0.019148584 -0.33886123
0.17622787 0.018340299 -0.24367735 0.025730364 -0.16605806 -0.20356785 -0.611998 -0.43960893
-0.11716023 -0.06828644 0.20227881 -0.22816654 0.13244423 0.058442708 -0.2367387 -0.36668533

encoder_cnn.2.bias f4 [64]
00000000: 9281 9dbd b7a8 15be f571 ccbd c87d 89bd
00000010: cf1a e03c 8287 913d 1658 1cbf 18b4 8bbe
00000020: b09a 41be ebc6 81bc 3b9c 123e 4979 24be
00000030: 3543 053e dce8 ebbd 89b4 0dbe 7fd0 d33d
00000040: 8b8e ee3d 23e2 073e 6b06 26be be22 f5bd
00000050: dac0 12be 2229 233e 620c f13e 2bc8 ca3e
00000060: 74d6 2bbe 6a00 41be 69f8 9ebe c942 1fbe
00000070: ac03 de3e 94fa fbbd 4ba6 a93c 69bf afbe
00000080: 0999 93be 3b71 5ebe 366a 383e 6087 acbe
00000090: 5d2a 30bd c101 0ebf 2ed9 203e 56fa e0ba
000000a0: 8802 44be 3f1c ecbe 88db 6e3e c230 29be
000000b0: e8cc 2abe b40c 1abf 5489 dabe 4403 2abe
000000c0: f550 b5be 489d 3c3d dc38 e1be 1ce7 b9be
000000d0: 7e53 8ebe b37c b5bd 33f9 abbe 7d4b 69be
000000e0: 7a58 65bd 210e 46be a6c3 11be 2887 02be
000000f0: 198c acbe db4a f63d 07b4 a4be f4ed 60be
-0.07690729 -0.14615141 -0.09982673 -0.06713444 0.027356533 0.07105924 -0.6107191 -0.27285838
-0.18906665 -0.015841922 0.1431741 -0.16061892 0.13013919 -0.11519024 -0.138384 0.10342502
0.11648282 0.13269858 -0.16213386 -0.11969517 -0.1433138 0.1593366 0.4707976 0.3960584
-0.16781026 -0.18847814 -0.31048897 -0.1555282 0.43362176 -0.12303653 0.020709177 -0.34325722
-0.28827694 -0.21722881 0.18009266 -0.33697033 -0.04300915 -0.55471426 0.15707847 -0.001716445
-0.1914159 -0.461153 0.23325932 -0.16522506 -0.16679728 -0.60175633 -0.42682898 -0.16602808
-0.35413328 0.046048433 -0.43988693 -0.36309135 -0.27798074 -0.08861675 -0.3358856 -0.22782703
-0.05599258 -0.19341327 -0.1423479 -0.1274687 -0.33700636 0.12025996 -0.321686 -0.21965772

encoder_lstm.weight_ih_l0 f4 [128, 64]
00000000: 92af 913e 4cd8 483d b7c1 343e ba72 81be
00000010: f0f5 583e 750d 9cbe c8ad 203f abcc 92bd
00000020: 4c2a 923e feab 593d f1db 063e 961a 90be
00000030: 9a8f 253e 86a9 22be a8a7 ee3d 46b3 c33e
00000040: d62e d9be 1d15 c63d 1070 96bd 78d7 503c
00000050: d6b5 4cbc d4be efbe d00e 0740 0dae 59bf
00000060: e2c5 e93e a3f4 703e 3d16 613d f261 f33d
00000070: ddb4 86be faf1 ccbd e99e 5f3e 7e2e 183e
00000080: eb35 8c3e 9f4d a53e e9c8 88bd b732 eb3e
00000090: 8d1e 0e3f dfb9 08bd b040 4f3d 96c5 01be
000000a0: ebda 803d 07d7 e73e 2b1c b33e 63c1 66be
000000b0: b4a5 37be 4d23 683e 5155 7bbc 104c 6b3e
000000c0: 75dc c83e de2a cf3d 0aa1 e63e 4041 8a3e
000000d0: 7a05 3f3e 039f 19bd 9f00 433e 0973 983e
000000e0: 2f39 ebba 31e7 e8bd c712 63bd 67c3 2bbd
000000f0: dc1b e83d a570 1ebe b565 b5bd ad0e e2bd
00000100: cf39 763e 983f 583c be01 a2be f5f2 fa3c
00000110: 6699 e23d 5481 033f f8ae a4bd 8157 143e
00000120: 56d3 eb3d 39b9 203e 90da 3e3e a416 acbe
00000130: c5b5 223d b0a9 3ebd 2818 213e a595 59bd
00000140: 561d d23e 881e 49be 0060 5bbe 90db 46bd
00000150: 6ec3 533e 584b fc3d 296b 8ebf 5d32 63be
00000160: 878a 573e e73d 7abe 82d4 f33d ba7b 453e
00000170: 079d 473e 88ae 68bd be44 ddbe dc74 b13d
00000180: 9405 a13e e9d9 853d 619a 3ebd d1d3 fdbd
00000190: 7f44 47be 78c5 c0be 19dc cb3d 91f5 223b
000001a0: 4d82 69bd 930a 25be 94df 7dbe 17d7 35be
000001b0: d0b0 843e f4a2 633e 774e b53e 06b8 00bd
000001c0: 7301 cdbe ce15 a33d 6007 4abe 73f8 063e
000001d0: 1be9 28be db9a 8bbd 5ccc d4bc 5c1d 633e
000001e0: d80e 6b3d 230a cbbc 817b 0c3e 02d7 1bbe
000001f0: 2c67 e93d 8160 81be 1817 dbbe d873 41be
00000200: ac91 833d 3f4f 82bd 43f4 b23e b6a2 49be
00000210: d2d6 d13e 15f3 e1bc eca3 7e3b 7c6f 19be
00000220: e900 87bd f240 103e beb3 6dbd e5db 613d
00000230: cd2f d5be a732 a2bd fbce 81be 19c9 0a3e
00000240: b365 e9bd 102a 383f a82f 0ebd fd00 553e
00000250: 1e40 eb3d 2dfe dbbd 07bf 053e 4b40 e7bd
00000260: 6285 1abe 9bc7 fdbc 6665 f43d 6f69 41be
00000270: 4c04 453e 1f31 ff3d 556d 75be 8594 9ebb
00000280: f5a1 76be 3b14 ed3d 7fa6 ee3c 0152 36be
00000290: b7ae 733e 14e1 a0bd 0fe1 98be 29d2 b13c
000002a0: b1a4 b33e 22bc 03bd 3d87 073f da92 26be
000002b0: 59cf cfbd 78e9 c2be 5fe8 e43d 12d8 edbd
000002c0: fde3 a03e f104 353d f176 7c3e c7bc 32bc
000002d0: b128 c1bd 16e3 2abd c95e 093f 130f 9f3d
000002e0: d11a 583b 9aee cabe 8b82 2e3c 930c fdbc
000002f0: a61c 6b3c 7beb 8abe dded d93d 84d2 b7bd
00000300: a448 f9bd c9f0 713e cecb 5e3e be3e b7bd
00000310: ff4b 843d c46f 0f3e 7a94 ed3c 73a9 2ebe
00000320: af96 c63b 240d 1a3d 0b25 c53c 233c 9a3e
00000330: dec0 3e3e 1129 d1bd 44a1 163e 2e52 703d
00000340: 3d46 29bc 64ed b13e ab9b 0bbc d08d e73d
00000350: 7ef1 713c 5c76 823e ed99 603e 29fd 953e
00000360: 84d7 e13e c0b1 9cbd 83d1 01bd 3664 2d3e
00000370: 8166 413e 1c18 003e 1a14 073d 535d b33d
00000380: e79e b5be 5d18 44be a74f ae3d d2d7 32be
00000390: f3e4 41be 9abe 97be 3d7f c1bd 1eab 983d
000003a0: 4a9d 4a3e 914a 64be 52a9 4c3e ffcb a63d
000003b0: e333 3e3f 1766 5e3f 1597 943d 621e 8c3d
000003c0: a355 af3e aa67 683c 7866 6ebb b558 c63d
000003d0: f4e5 2b3e 0b48 e53c 866e dcbd 01b8 0fbe
000003e0: 79f6 963d ceb5 ef3d bdc1 8c3e 2e69 b4bd
000003f0: 076a e3bd 0769 bdba 2c59 debe d71e 63be
0.28454262 0.0490344 0.17652021 -0.25282842 0.21187568 -0.30479017 0.6276517 -0.071679436
0.28547895 0.05314254 0.13169838 -0.28145283 0.16168061 -0.1588498 0.11653072 0.38222712
-0.42418545 0.09671996 -0.07345593 0.012746684 -0.012494525 -0.46825278 2.110279 -0.85031205
0.45658785 0.23530822 0.05495285 0.11883916 -0.26309863 -0.10007091 0.21837963 0.14861485
0.27384886 0.32285783 -0.066789456 0.4593713 0.55515367 -0.033380385 0.0505988 -0.1267303
0.06291755 0.4528124 0.34982428 -0.22534709 -0.17934304 0.22669716 -0.015340165 0.22978234
0.39230695 0.10115598 0.45044738 0.27002907 0.18654433 -0.03750516 0.19043206 0.29775265
-0.0017946119 -0.11372221 -0.05543783 -0.041934397 0.11333439 -0.15472658 -0.0885729 -0.110379554
0.2404549 0.013198756 -0.31641954 0.030633429 0.11064415 0.51369214 -0.08041185 0.14486505
0.115149185 0.15695657 0.18638062 -0.33611023 0.03972413 -0.046548545 0.15731871 -0.053121228
0.41038007 -0.19640553 -0.2142334 -0.048549235 0.2068002 0.12319058 -1.1126453 -0.22187181
0.21048938 -0.24437676 0.11905767 0.19285479 0.19493495 -0.05680707 -0.4321651 0.08664867
0.31449568 0.06535704 -0.046533946 -0.123939164 -0.19459723 -0.37650657 0.0995409 0.0024865607
-0.05700903 -0.16117315 -0.2479232 -0.17757832 0.25916147 0.2223013 0.35411426 -0.0314255
-0.40040168 0.07963143 -0.19729376 0.13180713 -0.16495173 -0.06816646 -0.025976352 0.22179168
0.057387203 -0.024785107 0.13718988 -0.15218738 0.113966316 -0.2526894 -0.42791057 -0.18891847
0.06424269 -0.06362771 0.34951982 -0.19690976 0.40984207 -0.02758173 0.003885503 -0.14983934
-0.065919705 0.14087275 -0.058032744 0.05514135 -0.41638032 -0.079198174 -0.25353226 0.13553275
-0.11396351 0.7193918 -0.034713417 0.20801158 0.11486839 -0.107418396 0.13061152 -0.1129156
-0.15089944 -0.030978968 0.11933403 -0.18887876 0.1923992 0.12460541 -0.23967488 -0.0048394823
-0.24085219 0.11576124 0.029132126 -0.1780472 0.23797117 -0.0785543 -0.29859206 0.021706657
0.35086587 -0.03216184 0.5294073 -0.16266957 -0.1014697 -0.38068748 0.11177134 -0.11613478
0.3142394 0.044194166 0.24654748 -0.010909266 -0.094315894 -0.041720472 0.53660256 0.07766547
0.0032974968 -0.39635164 0.010651241 -0.030889785 0.014350092 -0.27132782 0.10641072 -0.089756995
-0.12172058 0.23627008 0.21757433 -0.08947514 0.064598076 0.14007479 0.029001463 -0.17056827
0.0060604434 0.037610188 0.024065515 0.30124006 0.1862826 -0.10212911 0.14709955 0.058672123
-0.0103316875 0.34751427 -0.008521001 0.113063455 0.014767049 0.25480926 0.21933718 0.29294708
0.44109738 -0.076510906 -0.031693947 0.16932759 0.18886758 0.12509197 0.032978155 0.087580346
-0.35472795 -0.19149919 0.08511286 -0.17465141 -0.18934993 -0.29637605 -0.09448097 0.07454513
0.19786564 -0.2229407 0.19986466 0.08144378 0.7429792 0.86874527 0.07255379 0.068417326
0.34245023 0.014184872 -0.0036376994 0.09684888 0.16786939 0.027988454 -0.10763268 -0.14035036
0.0737123 0.11704598 0.2749156 -0.08809124 -0.111042075 -0.0014450856 -0.43427408 -0.22179733

encoder_lstm.weight_hh_l0 f4 [128, 32]
00000000: 0144 04bf 1651 2e3f b88d 29bd f6c8 3f3d
00000010: 44d0 0240 6761 52be 1a35 d63e a650 2fbf
00000020: 1f0d 143f cf84 f73d a3a1 f83e e2fa 2fbf
00000030: 49a7 273d 19f5 debe 2429 2c3e fa84 a43f
00000040: a0cb bcbe 6167 d03e a1aa 85bd 83c3 8e3e
00000050: 3a55 453f 8426 2d3f 9b46 7e3f 9ad0 913e
00000060: c938 27bf 8c2f 8fbf 3f8e 263f 49bb 2abf
00000070: 71b1 133f 7305 ebbd 3740 20bf d93a 323e
00000080: 7f21 01be 0fd0 29bd d338 09bf 5ca9 93be
00000090: 1a02 9ebd c988 0ebe 163c 31bf 3083 02bf
000000a0: 5fd3 283f 77cf 003f bf04 2b3e 40ce e7be
000000b0: fb7a 15be dcd7 da3e de84 073f 0f53 df3e
000000c0: c1d4 90be 4c71 4b3f 6ca8 edbe d540 fd3e
000000d0: 929b 0c3e ec5d 0f3f ec29 ee3e a3e7 fabd
000000e0: b711 a8be 28a7 453f e550 d83e d2dd 25bf
000000f0: 5c56 4f3e ed97 00bf edde 673c 7182 4a3c
00000100: c576 8abe 8210 da3e 4cb2 6fbe b2e7 c7be
00000110: b58d 7b3f 3648 2abe 9490 dbbe fff6 da3e
00000120: 7d04 803d 19be 44be c9b2 48be 6ae8 9f3a
00000130: 1e65 643e 5403 5d3e 1452 47be 0df9 9dbd
00000140: a130 8ebe b346 533e 2b0e bdbe 79dc 87be
00000150: 63f1 56bf ffa4 84be de23 babd 73f4 93be
00000160: a905 543e e41d 883e 7ce2 1abf 2054 01bf
00000170: a8fd 33bd 72ec 5b3b 8797 18bf e14b 62bd
00000180: 056c 27bf be52 b4be 7fbc fcbd 3e9d 3b3f
00000190: fd87 14be cbe1 15be 3565 cdbe e0ec 8b3f
000001a0: 409e 36bf a204 e5bd aa8b 11bf 061d 2f3e
000001b0: fefc 113f e484 153f 80b9 b8be 47bd db3d
000001c0: d4ce 7a3e e915 a4bb 090b 05bf a54f 16be
000001d0: a1c7 92bd 426b 43bf f03d 0ebf 5592 49bf
000001e0: f4ba 7d3f b653 803e 2f85 67bf c14d 9fbe
000001f0: 3b99 88be 53cb eb3e 40e8 873e bdae 14be
00000200: d2d4 263f b2c6 a43d 5656 d63e 8570 953d
00000210: 1977 04bf 8e97 a8be d8c4 0d3e 1dc9 313d
00000220: ceee de3e 8667 1bbf aa8a 8ebe 87d2 4f3f
00000230: 80da 4bbe 2129 4e3e 3e0e 923e 60f0 62bf
00000240: 5064 0f3e b308 b93e 067f 013f 2237 213d
00000250: 39f2 293e d282 203f d5b7 3c3d ee83 963d
00000260: 5cec b83d abef 6cbe ca2e 2fbc 548e 69bf
00000270: 1db5 5a3f 4527 f23c 5355 b9bc 47a7 f8bd
00000280: 2c4a 9e3e aed0 0e3f c258 c8be 382c 8bbe
00000290: cb78 783f 2eff 48bf b6db 02bf 082c cabe
000002a0: 6582 e03e 2496 9d3e 782a 0a3f a6e6 94be
000002b0: d3a5 96be 3571 fdbe 2921 02be a13d f7be
000002c0: f258 aa3e 0363 b13b 6520 bb3e aa81 3a3e
000002d0: c1c1 333f df0d 4a3e 1e65 303f 6c62 8e3f
000002e0: 1740 76be 34ed 3a3d 7512 9d3d 5a70 46bd
000002f0: 52f0 483f 080a 833e 587c 3dbf b199 6a3e
00000300: 6fb8 b23e e448 a8be debb d53e 205c 423f
00000310: 7c3f e0be 8d8b 513d ab2b 893f a2ec b63e
00000320: e7e0 66bd a3dd fd3e b3ab 34be accb 8cbf
00000330: 30b2 b63e 53d0 393e 7fb7 953d 8eb8 47bf
00000340: 95a4 0a3e d439 3fbf 9e41 26be 2607 18bf
00000350: 23d1 03be d0e6 443f a7b3 cc3e da59 7abe
00000360: 8c00 083f 9634 e0be 5bb4 273e 7be8 ad3e
00000370: 5e42 19bf 7c21 213e 959a 1cbe 5f5b 063d
00000380: 0f92 9b3e 475e 983e ec8b a5be 1fce 01bf
00000390: 86a8 3b3e 1d7b 49bf 38f2 e73b e221 873e
000003a0: eda1 543e 0060 f3bc 12f5 b53e af62 a53e
000003b0: 931a 54be 9028 613e bd87 013f 7b32 c13e
000003c0: a67e 4c3e 9e46 bf3e f263 153d d839 c53e
000003d0: 3ebc 003f 4f80 863d d014 183f 2dd4 f83e
000003e0: 7cdb 083f d899 8ebd 8495 213f 6763 56bf
000003f0: abb5 4f3c 8f6a 85be 4173 ccbe 4ccd 01bf
-0.51666266 0.6809248 -0.04139492 0.04682251 2.0439615 -0.20544969 0.41837388 -0.68482435
0.5783252 0.12085878 0.4856082 -0.6874219 0.04093102 -0.4354637 0.16812569 1.2853081
-0.36874104 0.40703872 -0.065266855 0.2788354 0.7708317 0.67636895 0.99326485 0.28479463
-0.6532102 -1.1186385 0.650608 -0.66692024 0.5769263 -0.11475649 -0.62597984 0.17405261
-0.12610434 -0.041458186 -0.5360233 -0.28840148 -0.077152446 -0.13919367 -0.6923231 -0.50981426
0.65947527 0.50316566 0.16701029 -0.45274544 -0.14597695 0.42742813 0.52937114 0.43618056
-0.28287318 0.7946975 -0.46417558 0.49463525 0.1373122 0.5600269 0.4651636 -0.122512124
-0.32826015 0.77208185 0.42249218 -0.64791596 0.20247787 -0.5023182 0.014152271 0.012360201
-0.2704374 0.4259072 -0.23407859 -0.39043957 0.982631 -0.16629109 -0.42883742 0.42766568
0.06250856 -0.19213142 -0.19599451 0.0012200002 0.22304198 0.21583301 -0.19464904 -0.07713518
-0.27771476 0.20632438 -0.36924872 -0.26535395 -0.83962077 -0.25907132 -0.090888724 -0.28897437
0.20705284 0.26585305 -0.6050184 -0.5051899 -0.043943077 0.003355768 -0.5960621 -0.055248145
-0.653992 -0.35219377 -0.1234064 0.7328681 -0.14505 -0.14636914 -0.40116277 1.0931664
-0.7133522 -0.11182524 -0.56853735 0.17100915 0.5702666 0.584059 -0.36079025 0.10729461
0.24492961 -0.0050074947 -0.51969963 -0.1467882 -0.071669824 -0.7633554 -0.5556326 -0.7873891
0.9911339 0.25063866 -0.904376 -0.3111401 -0.26679406 0.46053562 0.2654438 -0.14519782
0.6516849 0.080457106 0.41862744 0.07296852 -0.5174423 -0.32928127 0.13844621 0.043404687
0.4354157 -0.6070484 -0.27840167 0.81180614 -0.1990757 0.20132877 0.2852649 -0.88648033
0.1400311 0.3613945 0.5058445 0.03935922 0.16596307 0.62699616 0.046073753 0.07349382
0.09029457 -0.23138301 -0.010692308 -0.912328 0.85432607 0.02955974 -0.022623694 -0.121412806
0.30915964 0.5578717 -0.39130217 -0.27182174 0.97059315 -0.78514373 -0.511165 -0.39486718
0.43849483 0.3077861 0.5397105 -0.2908222 -0.2942339 -0.49500433 -0.12707962 -0.48289207
0.33270985 0.0054134144 0.36548153 0.18213525 0.7021752 0.19731854 0.6890429 1.1123786
-0.24047886 0.04563637 0.07669536 -0.04844699 0.784917 0.2559359 -0.7401786 0.22910191
0.34906337 -0.3286811 0.41744894 0.7592182 -0.43798435 0.051158477 1.0716451 0.35727412
-0.056366827 0.49583158 -0.17643623 -1.0999656 0.3568282 0.18145876 0.0731039 -0.78015983
0.13539346 -0.74697614 -0.16235968 -0.5938591 -0.12872748 0.7691469 0.39980814 -0.24448338
0.53125834 -0.4379012 0.16377394 0.3396643 -0.59866893 0.1573543 -0.15293343 0.032801982
0.3038487 0.29759428 -0.32333314 -0.5070514 0.18326005 -0.7870348 0.0070784353 0.26393038
0.20764895 -0.029708862 0.35538536 0.32301852 -0.20713262 0.2198813 0.50597745 0.37733826
0.19970188 0.37358564 0.03647227 0.38520694 0.50287235 0.06567442 0.5940676 0.48599377
0.53459907 -0.06962937 0.6311877 -0.83745426 0.01267759 -0.2605786 -0.39931682 -0.50703883

encoder_lstm.bias_ih_l0 f4 [128]
00000000: b6b0 49be dcbd 6bbd 1825 15bb f96d 343e
00000010: aed0 8b3d 9328 8a3f 77b5 8b3c bba0 1b3f
00000020: 5818 21bf 2114 1e3e ff4c f5bd 60b5 0a3d
00000030: c2d8 103e e994 8fbd d674 d9be 6c4c 96be
00000040: deed 9abd 300f be3c a41a 0f3e e8d9 ed3d
00000050: 5c75 b03e 91ba 083f 4422 083f 3207 f73e
00000060: 051d c83e c0f0 a1bd b1ac 60be e27b 673e
00000070: 4e5f ae3c c6ae 76b9 6535 49bd a1a7 31be
00000080: a5b0 d93e 4b3e 9a3e b76d dfbd 772c 173f
00000090: 16a6 943e 90d0 283e 03be b23d 7112 533e
000000a0: 3577 d43c ce96 a7bd c950 b73d 1596 213e
000000b0: 4521 993e b2f5 e3bd c3f9 ffbd f078 9cbe
000000c0: 80f5 a4bd c068 39be 1a9d 0d3f ff25 99bd
000000d0: b752 ebbb 6f0b ae3c 76e8 693e 6830 fabd
000000e0: 9aed 2cbe 48f9 adbe e512 eabd b646 8cbe
000000f0: 43eb f2bb 50e9 9d3e bbb2 733d 07e1 073f
00000100: 93c6 73be a5b1 f03e ff4d 03bf 8e17 3abe
00000110: a35b 443c f116 85be 1419 f83c 03c6 70be
00000120: 5a27 6b3e 30ab ab3e 745b c73d f2d8 c8bb
00000130: e8d8 01bf 5272 97be 0ade a7bd 925f 3b3c
00000140: 6f1c 013d 5de3 bdbc da48 563d 5208 1d3e
00000150: 14f3 93be 1943 893e fdf4 9b3e 5bc5 b83e
00000160: 5d7e aebe 755f 50be 8fc6 ea3e cd99 f5be
00000170: 4299 843e 186c 82be acf4 57be 6953 c4be
00000180: 63e2 b43d 8fe5 f3bc 4815 26bf 1cec 543e
00000190: bb45 a53e b470 b33e 7804 2e3e f41b aa3e
000001a0: f204 c6bd 86b3 313d 0b55 983e 392e 7cbe
000001b0: e56b 6abd b52d adbd b81c 1dbe a471 10be
000001c0: 6d2b 9dbd 5778 b63d 05b0 f03e 8e81 93be
000001d0: b117 a4be d9e0 c73d 9420 cbbd 4024 bb3e
000001e0: 0ec6 30be beb4 a2be a60e f1bd a314 083e
000001f0: ff2f 7a3f c09f 273e c664 5bbe d6a8 903e
-0.19696316 -0.05755411 -0.0022757705 0.17620076 0.06826912 1.0793632 0.017054303 0.6079213
-0.6292777 0.15437366 -0.119775765 0.03386438 0.14145187 -0.07010824 -0.4247195 -0.2935518
-0.07564901 0.023200601 0.13975006 0.11613828 0.34464538 0.5340968 0.53177285 0.48247677
0.3908464 -0.079072475 -0.21940877 0.22605851 0.02128568 -0.00023525496 -0.049123187 -0.17349102
0.42517582 0.3012565 -0.10909598 0.5905222 0.29032964 0.1648581 0.08727648 0.20612504
0.025935749 -0.081830606 0.089509554 0.15779908 0.29908195 -0.11130847 -0.1249881 -0.30561018
-0.08054638 -0.18106365 0.5531784 -0.0747795 -0.0071814912 0.021245686 0.22842583 -0.12216264
-0.16887513 -0.3397925 -0.11429385 -0.27397698 -0.0074132993 0.30842066 0.059496623 0.5307774
-0.23806219 0.47010532 -0.5129089 -0.18173048 0.0119847385 -0.25994065 0.030285396 -0.23513035
0.2296423 0.33529043 0.0973424 -0.0061293775 -0.507216 -0.29579407 -0.081966475 0.01143636
0.031521257 -0.023179704 0.05231557 0.15335205 -0.2889639 0.26809004 0.3046035 0.3608807
-0.34080783 -0.20348914 0.45854613 -0.47968903 0.25898176 -0.25473094 -0.21089429 -0.38344887
0.08832242 -0.029772548 -0.6487622 0.20793194 0.32279763 0.35046923 0.16993892 0.33224452
-0.09668912 0.043384098 0.29752383 -0.24627008 -0.057231802 -0.084559835 -0.15342987 -0.1410585
-0.076742984 0.08909672 0.47009292 -0.2880978 -0.32049325 0.09759683 -0.09918323 0.36551094
-0.17263052 -0.3177852 -0.11770372 0.13289122 0.97729486 0.16369534 -0.21425161 0.28253812

encoder_lstm.bias_hh_l0 f4 [128]
00000000: 061a 3a3d 6568 68be 86de b2bd d59b 1d3e
00000010: ad1e ee3d 9e19 4e3f 8a44 853e 67d4 f33e
00000020: 24e3 babe 17e0 a83d e32f 49be b051 23be
00000030: 21f3 843d 6b87 c83d 86e9 03bf 6fd9 88be
00000040: e0d7 55be 7dbb 48bc a6f5 ae3d ee1c fc3c
00000050: fe7d 5d3e 84f9 003f ccb5 083f bca9 c33e
00000060: 15a1 9c3e 1d2d 383e 5ae7 ccbe cdd8 733e
00000070: 3a99 383e ad11 65be a39f 91be 9ba4 b93d
00000080: 98a3 a33e fa2a e53e e55b 0abe fed3 ec3e
00000090: 40d2 ed3d 8f80 063e 15bc 35bd 02fe 313e
000000a0: bd72 573e e11b a33d e376 c13d a2ad 053e
000000b0: a439 d63e 09a5 b9bd 563e 373e 2f3e afbe
000000c0: 5868 9bbe 5972 e6be 8a3b 0c3f d291 59be
000000d0: ada0 0fbe d4c1 f43d 0346 3a3e 81a8 00be
000000e0: a662 99bd 4435 e1be a264 88be be45 f6be
000000f0: 34c2 9e3e f56d d13e 7195 813e f180 c63e
00000100: e439 98bc 653f a03e 1a26 9cbe dfe6 e7be
00000110: cd8d 69be 2f60 33be b7c4 053d 520c 2ebe
00000120: e83a fa3e edc5 723e e436 673e 0667 813d
00000130: d008 fbbe c9aa 92bd 318d c239 1d65 9c3d
00000140: 32c9 8b3d ad97 80be cc34 f13d 1610 67bd
00000150: bc68 51be 6a3e 893d 922e 6c3e 2720 1a3f
00000160: 946b d4be 0177 bcbe 7b1c cd3e 7970 d9be
00000170: 30a3 7f3e 8a51 02bf 680a 09bf 3788 44be
00000180: 6d10 993d ad3a 333e 33de f0be af58 cf3e
00000190: cb65 973e 1c75 003f 23af 7e3e 20c6 693e
000001a0: 2074 70be 9f09 e4bd 53f2 b83d 5b44 66bd
000001b0: 6c79 813e 7552 ddbd 7a9e 80bd 2c98 19bd
000001c0: 4c91 b5be 9a3c 963e cbf6 d13e 6377 dabd
000001d0: d5ce 76be f3a7 233e d7fa 6b3c 3cb9 573e
000001e0: de8d 83bd 2f96 93be 7e3f c53b 8f6f 823e
000001f0: 99ec 713f f67f 193e 1c93 a7bd 6852 953e
0.045434974 -0.22696073 -0.08733849 0.15391476 0.11626945 0.8050784 0.26028854 0.47622988
-0.3650142 0.08245867 -0.19647174 -0.1594913 0.06491686 0.09791454 -0.51528203 -0.2672839
-0.20883131 -0.012251732 0.085429475 0.030775513 0.21630093 0.5038073 0.534024 0.38215435
0.30591646 0.1798596 -0.40020257 0.23813172 0.18027201 -0.22370024 -0.28442106 0.09064599
0.3196075 0.4475935 -0.13511617 0.46255487 0.11612368 0.13134979 -0.044368822 0.17382053
0.21039863 0.07964302 0.09446504 0.13054517 0.4184085 -0.09064681 0.17894873 -0.3422713
-0.30353045 -0.45009115 0.5477835 -0.21247032 -0.14026137 0.11951032 0.1819077 -0.12564279
-0.07489519 -0.4398595 -0.26639277 -0.48100084 0.3100754 0.40904203 0.25309327 0.3877025
-0.018582292 0.31298366 -0.3049782 -0.45293328 -0.22807999 -0.1751716 0.032658305 -0.16996887
0.48873067 0.23708315 0.22579533 0.06318478 -0.4903016 -0.07161481 0.0003710776 0.07636473
0.06825484 -0.2511572 0.11777648 -0.056411825 -0.20450109 0.06701358 0.2306464 0.6020531
-0.41488326 -0.36809543 0.4006079 -0.42468622 0.24964595 -0.5090567 -0.53531504 -0.19192587
0.07473836 0.17502852 -0.47044525 0.40497348 0.2956985 0.50178695 0.24871497 0.22829485
-0.23481798 -0.111346476 0.09030595 -0.056217533 0.2528795 -0.10806743 -0.06280227 -0.037498638
-0.35462415 0.2934311 0.410086 -0.106673025 -0.24102338 0.15982036 0.014403067 0.21066755
-0.064235434 -0.28825518 0.0060195317 0.25475737 0.94501644 0.1499022 -0.08182356 0.29164433

encoder_lstm.weight_ih_l1 f4 [128, 32]
00000000: 7dde a03e 41ad bbbd a640 133e ce10 8fbe
00000010: bd9e f43e dc51 153e b60a 9ebe d6c0 983e
00000020: 4518 983d 9f26 bd3d 5b7a 2f3e 7e7c 2bbd
00000030: 264e 4dbe 1cce 2bbf 5037 6f3d d434 1dbc
00000040: bece 803e 907b b0be 1fee 99be bb4d 6d3d
00000050: 0a55 043e fe55 a93e 3a62 05bc ec36 423e
00000060: 17a2 183e 068c 043f f5c2 183f 026a 34bf
00000070: 7f17 133f 1a47 7fbe dc06 eebd 8b6a 78be
00000080: bc36 9a3e 4027 4ebe f50c 863b 2635 053d
00000090: ce34 083f 8078 a4be bf21 07bf d4e1 9a3e
000000a0: a5a4 2fbd 1110 53be e2fa 8c3e eabb a4bc
000000b0: 4f6e 1d3e 24ca f83d 3708 b0bd e0f0 083e
000000c0: b943 3dbe d329 b3be 462a 2e3e ec14 00bf
000000d0: 9010 cb3e 5394 d9be e69f 023e a684 b63c
000000e0: 9f31 003f 0371 f2be 2896 dbbc 0ed7 a23d
000000f0: 7ab9 423e 455f f1be 897b 5fbf 4bdb a63e
00000100: 1622 85be 7a68 7e3e d8b7 293d 913a 1f3f
00000110: 8df9 253d ae91 2e3f 579e b43e 3a9e 1b3f
00000120: d41e 3f3c 87ec 02bd 152c c1bd 9671 0d3e
00000130: f105 9a3d 47ab b8bd 218d 643e e50e 453e
00000140: 9fed 833d 1dac 293b 53d7 1cbe 6d6a 4d3e
00000150: 52b3 9a39 5bf7 08bf 17fb 35be 07e0 e2be
00000160: 53be 9bbe 3f4d e1bd 3eb7 2dbe ae06 043f
00000170: daed 2b3d 1186 f0be 7d59 6abd 1360 3f3e
00000180: b057 b0bc 7311 033f e568 a1be 77e7 4dbe
00000190: bd72 063f 4c3b abbe 1320 bdbe 1556 48be
000001a0: 181e 78be 19e2 99bc d057 fb3e f47e 133e
000001b0: d441 033f 7378 833c 0b58 8a3e 42e2 02bd
000001c0: 7b7f dbbd 4485 66be 5a1a 9d3d 9bc6 c4be
000001d0: 5f01 683e 3413 97be ed19 be3d c48e 963e
000001e0: 954f 363e d588 4b3e 5dc0 debe 3e3b d83e
000001f0: 306a 003f 2eee c4be 0ed6 a1bc c644 8b3e
00000200: b457 55be c0ac b23e d9c9 c4be 2668 3cbd
00000210: efe4 1abd 0ce6 88bd 4be8 6ebd 8845 41be
00000220: 6fcd 73bf 333e 093e 1290 413e 245f 4abe
00000230: 9fe3 acbe 143d 0c3e 46d1 573d 058d 1dbb
00000240: a44a 82be d61b 163e 0f92 be3e 3704 6abe
00000250: 09c7 9ebe 35e8 1bbf 1853 63be aedd c13d
00000260: 5e09 52be 677e a13e 833e c2be 65c5 d93d
00000270: bbc1 033f ec52 0dbf d4eb 1d3e d89a b63e
00000280: 7967 33be bf38 68bc 25fe 87be 727b 0b3d
00000290: 32ce 0d3d 8faf cbbd ae06 d4bc c0af cbbd
000002a0: 0009 11be ca9f dcbd 2346 49bd 1ada 4fbe
000002b0: 0aa7 1fbc c0f8 6fbd bc19 2cbe 287f fb3e
000002c0: a0c3 20be 3c13 f23e 1d8f c53e 6c60 803e
000002d0: c1a9 17be c763 7dbe ac29 71bb 239c 933d
000002e0: 18b5 89be 9f26 043e dd0d 103e 903d 7a3e
000002f0: 8d0e 9bbd 6532 513c 8117 1c3e ceb1 b4bc
00000300: e038 ddbd 71ab ecbd 37e0 90be 3942 213f
00000310: c5aa f8be 07d0 1b3f 9749 84be 54e0 8d3d
00000320: c4fb 1cbb 20d3 3b3e c1f5 7b3e 9af4 d63d
00000330: e0a7 563e 455a a1bd 348e d93b e1fc 52bd
00000340: 431e 5e3d 2670 86be 1008 41bd 2955 9f3e
00000350: 4edb 363e 7f2e 58be 0e36 b2bd 66c6 753e
00000360: 3e5e bd3d 5586 9b3d a904 6e3e 4524 973d
00000370: af0e 9ebe cf54 963e 4110 f53d e274 30bf
00000380: ab7b 24bd 3123 db3d 083b 80be eba7 563e
00000390: 1454 3b3d 1f91 8a3e c2a5 423f 7af6 523f
000003a0: 758c f2be b69a c9be 96a2 fcbe 2639 3c3e
000003b0: 8620 6b3c c7b3 aa3d ab64 28be 2e81 3bbd
000003c0: b70a a83e 6b07 5fbe 13a5 05bf faa8 223e
000003d0: 0dc5 5b3d 0e41 123a 6351 c73c 133b 78bf
000003e0: 7e49 953e 853c 02bf 75fe f9bd da6f 15be
000003f0: 64cc 983e 23f7 9d3d cea5 3e3e 6d4c 613d
0.31419745 -0.09163905 0.1438013 -0.27942508 0.47777358 0.14582008 -0.30867547 0.29834622
0.07426504 0.09235882 0.17136519 -0.041866772 -0.20049343 -0.6711137 0.05840236 -0.009595115
0.25157732 -0.3446927 -0.30064484 0.057935458 0.12923065 0.3307342 -0.008141095 0.18966264
0.14905582 0.5177616 0.5967248 -0.70474255 0.5745773 -0.24929467 -0.11622402 -0.24259393
0.30119884 -0.2013216 0.0040909 0.03252139 0.53205574 -0.32123184 -0.5278587 0.30250418
-0.042881627 -0.20611598 0.27535158 -0.020109136 0.1537411 0.1214793 -0.08595317 0.13373137
-0.18482865 -0.34992847 0.17008314 -0.50031924 0.39661074 -0.42495975 0.12756309 0.022280049
0.50075716 -0.47351846 -0.026804999 0.07951175 0.19016066 -0.47142997 -0.87297875 0.32589182
-0.26002568 0.24844542 0.041435093 0.6219874 0.040521193 0.6819104 0.35277054 0.6078831
0.011665065 -0.03196385 -0.09432236 0.13812861 0.075206645 -0.090170436 0.22319461 0.19243963
0.06441807 0.002588994 -0.15316515 0.2006013 0.00029506773 -0.53502434 -0.17771564 -0.44311544
-0.30418643 -0.11001062 -0.16964433 0.5157269 0.04197488 -0.46977285 -0.05721425 0.18688993
-0.021526188 0.511985 -0.3152534 -0.20107828 0.52518827 -0.33443677 -0.36938533 -0.19564088
-0.2423023 -0.01878457 0.49090433 0.14403898 0.5127232 0.016048646 0.27020296 -0.031954058
-0.10717674 -0.22511774 0.07671042 -0.38432774 0.22656773 -0.29506838 0.09282289 0.29405797
0.17803796 0.19876416 -0.43506137 0.42232698 0.5016203 -0.38462967 -0.01975539 0.27200907
-0.20834237 0.34897423 -0.38435248 -0.04599776 -0.037815984 -0.06684503 -0.058327 -0.1887418
-0.9523534 0.13402633 0.18902615 -0.19762856 -0.3376741 0.13695174 0.052689813 -0.0024040353
-0.2544757 0.14659056 0.3722081 -0.2285317 -0.31011227 -0.60901195 -0.22199667 0.0946611
-0.20511386 0.3154175 -0.37938318 0.10633353 0.51467484 -0.55204654 0.15421993 0.3566501
-0.1751994 -0.014173686 -0.26561084 0.034053273 0.03462047 -0.099455945 -0.025882091 -0.09945631
-0.1416359 -0.10772665 -0.049139153 -0.20298043 -0.009744415 -0.058586836 -0.16806692 0.4912045
-0.15699625 0.472803 0.3858575 0.25073564 -0.1481085 -0.24745093 -0.003679852 0.07207515
-0.26895976 0.12905358 0.14067788 0.24437547 -0.07571135 0.012768363 0.15243341 -0.02205744
-0.10801864 -0.11556137 -0.28296062 0.6299167 -0.48567787 0.608643 -0.25837395 0.06927553
-0.0023953775 0.18342257 0.24605466 0.10495873 0.20962477 -0.07878546 0.0066392664 -0.051510695
0.05422808 -0.26257437 -0.04712683 0.3111966 0.17857096 -0.21111487 -0.08701716 0.24001464
0.09246491 0.07593981 0.23243965 0.07379965 -0.30870578 0.2936158 0.11965991 -0.6892835
-0.040157 0.107000716 -0.25045037 0.20962493 0.04573448 0.27063844 0.76034176 0.82407343
-0.47372785 -0.39375848 -0.49342793 0.18381175 0.014351016 0.08335071 -0.16444652 -0.045777492
0.32820675 -0.21780173 -0.5220501 0.15884772 0.05365472 0.0005579152 0.0243308 -0.9696514
0.29157633 -0.50873595 -0.12206737 -0.14593449 0.29843438 0.07713153 0.18617937 0.055004526

encoder_lstm.weight_hh_l1 f4 [128, 32]
00000000: a052 1fbe cef5 98be c9fa 02be 51e3 5bbd
00000010: af2f a4bd 547b 27be 7101 5cbd b12d 26be
00000020: ed31 2f3e c74b 7dbd a76e 9b3e 196f 103e
00000030: 6243 bbbd 91f3 96be b39c 433e fcc6 7a3d
00000040: 09fd 38bf da29 fb3d 199e 93be 268d 803e
00000050: 0243 373c e95c 86be 0298 fabd 7c4a dc3e
00000060: d87b 4e3d 520f 34bd 79fd a33d 0b75 9d3e
00000070: 7331 3ebe 1705 593e c5c1 0dbe 148a 95be
00000080: 9153 b5bc f41a 22be 2819 a63d 9f58 62bd
00000090: 9e29 61be 8952 fe3e 3103 11be ff17 25be
000000a0: d983 2fbd 45c5 bebd 7d72 82be c6e2 433e
000000b0: fdbb 4a3e e1a0 1dbc 3d14 be3d 17fd 96bc
000000c0: 3cdf 9a3e 46a5 fa3a 5586 30bc b11d 5a3e
000000d0: 902a 833d bb72 503d 4652 233e 6f05 0fbd
000000e0: 1a71 72bd e922 cc3e 544d 803e 38ee b83d
000000f0: 468a 86bd e4c9 99be c5bf 853e 272b 9c3e
00000100: 7619 09be a6a8 d93d 254e 7cbe 5584 acbd
00000110: 6e60 92be 3b74 433e 7732 13be 669b c0bc
00000120: 3a0d 413e c8ee 0f3e 9199 ea3c f5bf 9cbe
00000130: 5637 263c 2133 ba3d f946 653d 0c21 a23e
00000140: 8484 983e de75 f9bd e5bf bc3e 1916 85bd
00000150: 0564 763d eb22 03be fc17 0d3e 4ae0 a53d
00000160: 52a3 16bd a7fb 243e bcc7 5d3e 2ff0 2a3d
00000170: cce8 b53d 35ba 28bb f516 eeba ae76 2b3e
00000180: 691a f2bd 8079 25be 1a76 903e 80d2 4ebe
00000190: 22d6 8b3e 7b07 a9be efc2 9bbd b56e 223c
000001a0: eb48 a63e 0144 1abf 43ba 38bd af46 b0bd
000001b0: aad4 b7bd b339 663e 0ede a43b bf7c 94be
000001c0: 05a2 353e af41 893c 0d94 b9bd faa9 9dbe
000001d0: 10c5 1d3d 38ff 9a3e 436e aebe c043 a03e
000001e0: 2f73 e03d 4635 babd 99b6 063e dc71 5abe
000001f0: 322e 823e 3612 92bd 0f8a 94be 9531 5c3e
00000200: cdb4 80be eec6 f1be 5e05 18be bedf 073e
00000210: bb61 29be 0cad dabd 1bed 8c3c 5d4d c3be
00000220: bc4c 5fbd 46d4 8bbe 8666 4cbe d04f b6be
00000230: 185c 85bd 821e e33e 4894 96bc 114b 7e3e
00000240: 880a 3c3f a7fc 903e 5eb0 3bbd ad42 abbe
00000250: 21a9 22be 2e4b 43be 014e a7be dc75 f93d
00000260: e971 0bbe 2ffc 393e 4801 80be 4311 533d
00000270: e53f a2bc 6dc4 3bbc b45c 893c f186 263e
00000280: 00ea 4bbe 62eb 83be 7796 28be fd05 66be
00000290: 4bf3 203e 6c01 98bd 8863 d9be 1514 0f3f
000002a0: d0b2 d03e e18c 043e e2a8 853e 44d4 d8bd
000002b0: 253d 053e 1b13 f2bc d87a 3ebe 1de5 d5bd
000002c0: d4e7 2f3e 5da7 aebe 3698 9fbd a726 93be
000002d0: 7e28 92bd 1db2 4c3d 7436 9dbe 10a4 02be
000002e0: 837f a13d bab2 ae3e bf65 1c3e f5e1 83be
000002f0: 6db6 15bd 882c d0bc d118 19bf c3bc 32bd
00000300: 3e28 553e 730b 93be 5350 8dbe fb15 a4be
00000310: 79ff cfbe f768 2d3f ae14 0d3e fa5a c23d
00000320: b5c8 f1be 3894 83be 6b89 8f3d bd3f fc3d
00000330: 48f4 063f 03a3 9abd 78e3 5ebd fa26 5cbd
00000340: cdd7 85be 683c 8bbe 8339 853e 55a3 62b9
00000350: ee98 bcbc a7ae 9e3e 1132 5d3e 196a 013d
00000360: bd88 af3d c4c1 fb3d 8df9 95be 6a4d 013e
00000370: 70ad 1f3f 79d9 d3be 1ced ae3e 70e8 923d
00000380: 67ea 82be 93f4 d3bd ff52 c8be 5f2c 853e
00000390: 0af8 02bf 2bea 3b3e 968f fbbd 3082 dcbe
000003a0: 5420 06bf 9ea2 913e bb5d 6cbe 347a 41be
000003b0: b87b 8c3e cfce 8ebe efe4 43bd 7e8a 003f
000003c0: 4508 353e 0e1c b53e 5b35 1d3e fe63 933e
000003d0: 9b36 743c 0a8c b9bd fd70 2b3e 19bb 93be
000003e0: 85c2 d33e 5747 13be 86aa 5b3e dd12 ec3d
000003f0: 8dc9 2ebf 3865 763e 6ba5 603f 2d72 4bbe
-0.15558863 -0.29875034 -0.1279098 -0.053683583 -0.080169074 -0.1635564 -0.053712312 -0.16228367
0.17108889 -0.061839845 0.3035786 0.1410488 -0.091437116 -0.294827 0.19102745 0.061224923
-0.722611 0.12263842 -0.28831556 0.25107688 0.0111854095 -0.2624276 -0.122360244 0.43025577
0.050411075 -0.043959923 0.080073304 0.3075336 -0.18573551 0.21193348 -0.13843448 -0.29206908
-0.022134574 -0.15830594 0.08110267 -0.055260297 -0.21988532 0.49672344 -0.14161374 -0.16122435
-0.04285035 -0.0931497 -0.25477973 0.19129476 0.19798274 -0.009620876 0.09281204 -0.01843123
0.3024844 0.0019122742 -0.010774215 0.21300389 0.064046025 0.050890666 0.15949354 -0.03491729
-0.059189893 0.39870384 0.25058997 0.090298116 -0.06569342 -0.30036843 0.2612287 0.30501673
-0.13388619 0.1062787 -0.24639185 -0.08423678 -0.28589195 0.19087307 -0.1437472 -0.0235116
0.18852702 0.14055932 0.02863768 -0.30615202 0.010145029 0.09091783 0.055975888 0.31665838
0.297886 -0.121806845 0.36865154 -0.064983554 0.06015398 -0.12806289 0.1377868 0.0809942
-0.03677685 0.16111623 0.21658224 0.041732963 0.08882293 -0.0025745754 -0.0018164801 0.16744491
-0.118214436 -0.1615963 0.28215104 -0.20197487 0.27311808 -0.3301352 -0.0760554 0.00991409
0.32477507 -0.60260016 -0.045099508 -0.08607232 -0.08976109 0.22482948 0.005031354 -0.29001424
0.17737587 0.016754953 -0.090614416 -0.30793744 0.03851801 0.3027284 -0.34068498 0.3130169
0.109594695 -0.09092192 0.13155593 -0.21332496 0.2542587 -0.0713238 -0.2901158 0.21503289
-0.2513794 -0.47222084 -0.14845797 0.13268945 -0.16541187 -0.10677537 0.017202904 -0.3814496
-0.05451654 -0.2731039 -0.19960985 -0.35607767 -0.06511706 0.44359213 -0.018381253 0.24833323
0.7345357 0.28317758 -0.045822494 -0.33449307 -0.1588483 -0.19071648 -0.326767 0.12180683
-0.13617672 0.18162607 -0.25000978 0.051530134 -0.019805858 -0.011460406 0.016767837 0.16262414
-0.19913483 -0.2576552 -0.16463648 -0.22463222 0.15717809 -0.07422146 -0.4245875 0.5589002
0.40761423 0.12944366 0.2610541 -0.105873615 0.13011606 -0.029550126 -0.18601549 -0.104440905
0.17178279 -0.34112063 -0.07792704 -0.28740427 -0.071366295 0.04997455 -0.30705607 -0.12757897
0.07885649 0.34120733 0.15273188 -0.2575833 -0.036550928 -0.02541186 -0.5980349 -0.04363705
0.20816132 -0.28719673 -0.27600345 -0.3204802 -0.40624598 0.6773829 0.1377742 0.09490009
-0.4722344 -0.2569902 0.07008632 0.123168446 0.52716494 -0.07550623 -0.05441615 -0.05374811
-0.26141205 -0.27194524 0.2602044 -0.00021613885 -0.023022141 0.30992624 0.2160113 0.031595323
0.08571003 0.12292817 -0.29291955 0.12627187 0.6237402 -0.41376856 0.34165275 0.0717324
-0.2556946 -0.10349383 -0.3912582 0.26010415 -0.5115973 0.18351047 -0.12283246 -0.43068075
-0.5239308 0.2844438 -0.2308263 -0.18894273 0.2743814 -0.27892157 -0.04782575 0.5021132
0.17678936 0.35372967 0.15352385 0.28787225 0.014905597 -0.090599135 0.1674232 -0.28853682
0.41359344 -0.14382683 0.21451768 0.115270354 -0.6827629 0.2406205 0.8775241 -0.19867773

encoder_lstm.bias_ih_l1 f4 [128]
00000000: 057e 263d 9623 22be 60d0 d1be c945 01be
00000010: 8dea 9ebd 9a27 ff3d 0636 7e3e 57ad 78bd
00000020: 489b babe 3bf1 573c 24ff 433d b0ed 32bd
00000030: 7f14 af3e a7d7 6d3e bd5f 8bbe 2bcb a1be
00000040: f4a8 043d 16ff 18bd d607 0dbd 6ce3 ea3c
00000050: 1e62 183e bd15 bfbd 893d 89be 8377 7bbe
00000060: 7724 c03e 376b 253e c8b9 3fbe 6dd9 243e
00000070: 51a3 84be 70af 84be 72da 2e3c 5d44 34be
00000080: 14f6 92bc dd8f 22be 148f e63e 8636 88bd
00000090: 1633 e2bc 436a ff3d 5de0 983d d952 3bbd
000000a0: 4147 0e3f 0350 5dbe 6400 7e3e a8c6 8c3e
000000b0: 4ff6 033f 3132 8cbc bc3c 8f3e 6dff 89be
000000c0: 78ed d0be 4520 a63e d82b f23e 8e2e b4bc
000000d0: 7fc8 8bbe 4fc7 5dbd eef0 523e 4e40 1ebe
000000e0: 8386 cf3e 57cf 5d3e b008 42be daaf 773e
000000f0: d6a2 173f 017e 613d 4253 b2bd 7f2a 6a3d
00000100: 04a1 6b3d 2974 51be b8c2 cdbd 2327 06be
00000110: 58de 07be 58f0 c03d ccd9 9d3d d80c 25be
00000120: b0d3 c1be d89b c9bd dad8 293e e462 8a3e
00000130: 781f 79bd 3a41 643d f44f c6bd df46 323e
00000140: 0164 d1bd 86b5 493d 5963 41be a366 913d
00000150: fa2f b03c 3d23 fe3e fc4f 2d3d effb 4bbe
00000160: dc1d bf3d 3561 f33d d576 f5be b6e6 5bbd
00000170: a8ac 20bd 67eb b1bc 6480 d33c 506a 95bd
00000180: a572 8ebe 3855 c8bd f6f9 4d3e c712 d23c
00000190: eda6 c83e d7db dfbc d1ba 9d3e 53d5 1fbd
000001a0: ad27 c83e 2b1f 31be 81ab 33be 5999 673e
000001b0: 31ef a13d 854b 65be 5080 acbe 8d0c 3ebd
000001c0: d508 90be 4021 773e 8d5e 253d 5546 e73e
000001d0: 1c31 373e 6ac2 073e 3fa9 283f 584f 2ebe
000001e0: 09eb 613e 2e06 cb3b 1ce2 fb3d d9cf 6f3e
000001f0: f361 a5bd cbd4 03bd c02b 7d3e 483c 67be
0.040647525 -0.15833887 -0.4097929 -0.12624277 -0.07759581 0.12458725 0.24825296 -0.060712185
-0.36446595 0.013180072 0.047850743 -0.043683708 0.34195325 0.23226796 -0.2722148 -0.31600317
0.03238769 -0.037352644 -0.0344313 0.028672896 0.14881179 -0.09330318 -0.2680476 -0.24557309
0.3752782 0.1615418 -0.18723214 0.16098566 -0.2590585 -0.25915098 0.010672199 -0.17604204
-0.017939605 -0.15875192 0.45031035 -0.066510245 -0.02761225 0.1247144 0.07464669 -0.045733307
0.55577475 -0.21612553 0.24804837 0.27495313 0.5154771 -0.017113777 0.27976024 -0.26952687
-0.40806174 0.32446495 0.47299075 -0.021994855 -0.27301404 -0.054145154 0.2059972 -0.15454218
0.40532312 0.21661125 -0.18948627 0.24188176 0.5923284 0.055051807 -0.087072864 0.057169434
0.057526603 -0.20454468 -0.10046905 -0.13100867 -0.13268411 0.09420842 0.07707557 -0.16118181
-0.37856817 -0.09844178 0.16586629 0.27028573 -0.060821027 0.055726267 -0.096832186 0.17409848
-0.10224152 0.04924538 -0.18885554 0.070996545 0.021507252 0.4963626 0.042312607 -0.19920324
0.09331867 0.11883775 -0.47942224 -0.05368682 -0.039227158 -0.021718694 0.025818057 -0.07295668
-0.27821842 -0.09781879 0.20114884 0.02564372 0.39189854 -0.027326507 0.30806592 -0.0390218
0.3909277 -0.17297046 -0.17545892 0.22617091 0.0790695 -0.2239209 -0.33691645 -0.046398688
-0.28131738 0.24133778 0.040373374 0.45170847 0.17889827 0.13257757 0.6588325 -0.17022455
0.22062315 0.006195805 0.12298986 0.23419131 -0.08075323 -0.032185357 0.2472372 -0.22581589
