W3-Design/checkpoints/epoch_6.pt (torch, 384133 bytes, 24 tensors)

encoder_cnn.0.weight f4 [32, 3, 3]
0	0xbe41cbb1	-0.18925358
1	0xbd6054c8	-0.054768354
2	0xbe2ea99f	-0.17056893
3	0x3e693efb	0.22777931
4	0xbe855293	-0.26039562
5	0x3e6b4092	0.2297385
6	0x3dc9f4be	0.09861134
7	0x3e181c0b	0.14854448
8	0x3e2fde91	0.17174746
9	0xbd7620e4	-0.06008996
10	0xbd91ea2f	-0.07124745
11	0xbdd97b98	-0.10619277
12	0xbddb449e	-0.10706447
13	0xbe1b54ec	-0.15169114
14	0x3dcd0dc5	0.10012392
15	0xbdb12790	-0.08650124
16	0x3ea313dd	0.31851092
17	0xbbfaa642	-0.007649214
18	0x3c83b04c	0.016075276
19	0x3e6c6df5	0.2308882
20	0x3effa339	0.49929217
21	0x3e8696ac	0.2628683
22	0x3e9b08d9	0.30280188
23	0xbe8879fd	-0.2665557
24	0xbd8bd111	-0.068269856
25	0x3e3141f2	0.17310312
26	0xbc66431d	-0.014054087
27	0xbc1b5708	-0.009481199
28	0x3e1b75cd	0.15181656
29	0xbe392d0b	-0.18083589
30	0x3d3f6cfc	0.046734795
31	0x3dada9f6	0.08479683
32	0x3c76c701	0.015062095
33	0x3dd39988	0.10332018
34	0x3e474a66	0.19461975
35	0xbd72c124	-0.059266225
36	0xbd8e7b9d	-0.06957171
37	0x3e442c37	0.19157492
38	0x3d8076c6	0.06272654
39	0x3ed4c06f	0.41553065
40	0xbe4654de	-0.19368312
41	0x3e8f7bf9	0.2802427
42	0x3dec2453	0.11530366
43	0x3e1825f4	0.14858228
44	0xbe8c810d	-0.27442208
45	0xbdf4a815	-0.119461216
46	0xbe3bbbf5	-0.18333419
47	0x3e74833a	0.23878184
48	0xbe92fc81	-0.2870827
49	0xbe7758f4	-0.24155027
50	0xbbba7bc7	-0.005691025
51	0x3e6304ad	0.22169752
52	0x3e971b11	0.29512838
53	0xbe8f0815	-0.27935854
54	0xbdc947f5	-0.09828178
55	0xbdc90848	-0.09816033
56	0x3e4a136c	0.19733971
57	0x3e0aca9b	0.1355385
58	0x3dc9d813	0.09855666
59	0xbe35bafb	-0.17747109
60	0xbd40c390	-0.047061503
61	0x3e0fcfee	0.14044163
62	0xbe82833a	-0.25490743
63	0x3e4848dd	0.19559045
64	0xbd68463b	-0.056707602
65	0x3ed217d5	0.41033807
66	0x3ea7bce7	0.3276131
67	0xbe36050c	-0.17775363
68	0xbe97f899	-0.29681852
69	0xbd8c3592	-0.06846155
70	0x3c4d26bc	0.012521442
71	0x3ef08528	0.4697659
72	0x3d153bbe	0.036433928
73	0x3e208043	0.15673928
74	0xbe0e311d	-0.13885923
75	0xbcd03f2d	-0.02542075
76	0xbe54604c	-0.2073986
77	0x3ead37c4	0.33831608
78	0xbe6f80fe	-0.2338905
79	0x3e9a5775	0.3014485
80	0xbd7a6265	-0.061128993
81	0xbe229706	-0.15877923
82	0x3e1b1e64	0.15148312
83	0xbe5bd2e0	-0.21467161
84	0x3e9839db	0.2973164
85	0x3cb21bd0	0.021741778
86	0xbe502c65	-0.20329435
87	0x3e1e3985	0.1545163
88	0x3e295a3c	0.16538328
89	0x3d2c7da3	0.042112004
90	0xbde6ff2b	-0.11279138
91	0xbaa1fb7c	-0.0012358273
92	0x3d63cc22	0.055614598
93	0x3dfaf179	0.122530885
94	0xbed7c2f2	-0.4214092
95	0xbed30a6d	-0.41218892
96	0xbe9fc67a	-0.31206113
97	0x3d875073	0.06607141
98	0xbe196d54	-0.14983112
99	0xbd3abb23	-0.045588624
100	0x3ce8510a	0.028358955
101	0x3e6559c8	0.2239753
102	0x3c248479	0.01004135
103	0x3e8e0423	0.2773753
104	0x3b57a2ac	0.0032903356
105	0xbe938afe	-0.2881698
106	0xbebc6235	-0.36793676
107	0x3bba7476	0.0056901528
108	0xbe56b722	-0.20968297
109	0x3e332b21	0.17496921
110	0x3df724b6	0.12067549
111	0xbdb39d03	-0.08770182
112	0xbeb827f2	-0.35967976
113	0xbee34b6e	-0.44393486
114	0x3ec87a05	0.39155594
115	0xbca8e318	-0.0206161
116	0xbe4c1a05	-0.199318
117	0x3df4ba52	0.119496
118	0xbd9a7027	-0.075409226
119	0x3e84787c	0.25873172
120	0xbd9690ec	-0.073518604
121	0xbeb80e5e	-0.3594846
122	0xbe8abf64	-0.27099144
123	0xbe8e1722	-0.27752024
124	0xbed43d86	-0.4145319
125	0xbecaff5a	-0.39647943
126	0xbd5b896a	-0.053597845
127	0xbe004f5c	-0.12530273
128	0xbdc3f541	-0.09568263
129	0x3eb87bbc	0.36031902
130	0xbca21efd	-0.019790167
131	0xbe618df4	-0.22026807
132	0x3d88b5d9	0.0667531
133	0x3de372bb	0.111058675
134	0xbe513df0	-0.20433784
135	0x3f08fc4e	0.53509986
136	0x3ea75632	0.3268295
137	0x3d62c27a	0.05536125
138	0xbe693d76	-0.22777352
139	0x3e48e916	0.19620165
140	0xbd0a2239	-0.033724044
141	0xbe8cf156	-0.27527875
142	0x3d836daf	0.06417405
143	0xbb840ce1	-0.0040298556
144	0x3e0f5e44	0.14000803
145	0xbe4a9403	-0.19783024
146	0xbebd662f	-0.36992022
147	0x3d87034c	0.06592426
148	0xbe059200	-0.13043976
149	0xbe565468	-0.20930636
150	0x3dae1a75	0.0850114
151	0xbe8048a3	-0.25055417
152	0x3d720f6c	0.05909674
153	0x3e17f46f	0.14839338
154	0x3ebd1f5d	0.3693799
155	0x3e0c4e57	0.1370176
156	0x3e889c01	0.26681522
157	0xbea88c2f	-0.32919452
158	0x3ea8940e	0.32925457
159	0xbd1a80cb	-0.037720483
160	0xbe8d8962	-0.27643877
161	0xbd2df6b1	-0.04247159
162	0x3e7ec4ce	0.24879763
163	0x3e62c6d8	0.22146165
164	0xbe279acc	-0.16367644
165	0xbddc5bfb	-0.107597314
166	0xbecdf3e2	-0.4022513
167	0xbdc19f57	-0.0945422
168	0x3e396add	0.18107171
169	0xbe3c4108	-0.18384182
170	0x3bacd5e3	0.0052745207
171	0xbe1ba2fb	-0.15198891
172	0x3ddc1018	0.10745257
173	0x3d45ef85	0.048324127
174	0xbea8a597	-0.32938835
175	0xbef29a30	-0.4738326
176	0x3d948ca9	0.07253391
177	0xbeabe289	-0.3357127
178	0xbbf82d81	-0.007573784
179	0x3e0e635a	0.13905087
180	0xbd7d7043	-0.06187464
181	0xbe02e293	-0.12781744
182	0xbe24b307	-0.16083919
183	0xbdcc4d62	-0.09975697
184	0x3e8df158	0.27723193
185	0x3d4d9781	0.050193314
186	0x3e45d82f	0.19320749
187	0x3e27e385	0.16395386
188	0xbe342bd1	-0.1759484
189	0x3eaeca3a	0.34138662
190	0xbd5b8cd6	-0.05360111
191	0x3ca3bb5f	0.019986806
192	0xbddfca96	-0.10927312
193	0x3e92d768	0.28679967
194	0x3df8204f	0.121155374
195	0xbd8dc291	-0.06921876
196	0xbec30dc8	-0.38096452
197	0xbe91b65c	-0.28459442
198	0x3e3fd2a1	0.18732692
199	0xbeb445d6	-0.3520953
200	0x3ddd75c3	0.10813477
201	0x3db28384	0.08716491
202	0x3e3361c9	0.17517771
203	0xbdd169d7	-0.102252655
204	0xbe0b02d6	-0.135753
205	0xbe667004	-0.22503668
206	0xbe9c5c60	-0.30539227
207	0x3e3fcb32	0.18729857
208	0xbe4f61e4	-0.20252186
209	0xbe6be037	-0.2303475
210	0xbdc95292	-0.09830202
211	0x3d9ec8a4	0.07753113
212	0xbd49a5eb	-0.049230497
213	0x3d795cd5	0.060879547
214	0x3e24a602	0.16078952
215	0x3e6f2465	0.23353727
216	0xbc55b6ff	-0.013044118
217	0x3df4ccde	0.11953138
218	0xbdfe92a8	-0.12430316
219	0x3d8a86f5	0.06764022
220	0x3cec149b	0.02881842
221	0xbe60606f	-0.21911786
222	0x3d212726	0.039343975
223	0x3d926fdc	0.07150242
224	0x3dbbe6d9	0.0917489
225	0x3e56399a	0.20920411
226	0xbcfbc94e	-0.030735638
227	0x3eabc299	0.33546904
228	0x3e5b2cdf	0.21403836
229	0x3e62d453	0.22151308
230	0xbd578349	-0.052615438
231	0xbe72e50a	-0.23720184
232	0x3e198234	0.14991075
233	0x3e92c370	0.28664732
234	0xbec172a4	-0.37782776
235	0xbd26ac32	-0.040691562
236	0xbe472e8b	-0.19451348
237	0x3eb75da2	0.35813624
238	0x3e243f68	0.16039813
239	0xbe584bfc	-0.21122736
240	0x3e8a1d8e	0.26975673
241	0xbd7162a1	-0.05893195
242	0xbe162676	-0.14663109
243	0xbe5e574a	-0.21712986
244	0xbbda178b	-0.0066556386
245	0xbcc42fd8	-0.023948595
246	0xbe0399f3	-0.12851696
247	0xbdd940d5	-0.10608069
248	0x3eabd57b	0.3356131
249	0xbe6c71ca	-0.23090282
250	0x3e6ee1f5	0.23328383
251	0x3dd851b3	0.10562458
252	0x3e5594d7	0.20857559
253	0xbd29d2e4	-0.041460887
254	0xbd92152d	-0.07132945
255	0xbd1ff689	-0.039053474

encoder_cnn.0.bias f4 [32]
0	0xbdd61893	-0.10453906
1	0xbc922e21	-0.017844262
2	0x3ecd869d	0.40141764
3	0xbf4cf48b	-0.8006064
4	0xbe81e5b6	-0.25370568
5	0x3df6bc44	0.120476276
6	0xbf05e24a	-0.52298415
7	0xbdf7fbca	-0.12108572
8	0x3d34744c	0.04405622
9	0xbe741afd	-0.2383842
10	0x3eafa0c7	0.3430235
11	0x3dc8367f	0.09776019
12	0x3ebc1aef	0.367393
13	0xbd61b0ad	-0.05510013
14	0xbecbc587	-0.3979914
15	0x3ed47ca5	0.41501346
16	0xbe8bb4ea	-0.27286464
17	0x3e782e26	0.24236354
18	0x3ea5653f	0.32303807
19	0xbe87737d	-0.26455298
20	0xbea9a7b2	-0.33135754
21	0x3f07309a	0.52808535
22	0x3e64fc1b	0.22361796
23	0xbed1d175	-0.40980116
24	0xbe09199f	-0.1338868
25	0xbdb90edd	-0.09036038
26	0xbee3e94c	-0.4451393
27	0xbf00494c	-0.5011184
28	0xbee847a5	-0.4536716
29	0xbcefb37e	-0.029260393
30	0xbed02421	-0.40652564
31	0x3de992f3	0.114049815

encoder_cnn.2.weight f4 [64, 32, 3]
0	0xbe060c43	-0.13090615
1	0x3d056e0f	0.032575663
2	0xbc8940f0	-0.016754597
3	0x3d05b3da	0.032642223
4	0x3d71a9eb	0.058999937
5	0x3dda6060	0.10662913
6	0x3e8657c5	0.26238838
7	0x3e3bf4a3	0.1835504
8	0x3d83a655	0.0642821
9	0x3ceb4aed	0.02872225
10	0xbe317b04	-0.17332083
11	0xbcea52ce	-0.028603937
12	0x3dae403e	0.08508347
13	0x3d6c725b	0.057726245
14	0xbd890e22	-0.06692149
15	0xbd86c1cf	-0.06579935
16	0x3d5607f9	0.052253697
17	0xbd3cb00b	-0.046066325
18	0x3e91e27c	0.28493106
19	0x3e362de0	0.17790937
20	0x3e0462ea	0.12928358
21	0x3c42ac3c	0.011881884
22	0xbcb416a0	-0.021983445
23	0xbde8487d	-0.11341951
24	0x3db8cc61	0.09023357
25	0xbc06961f	-0.008214503
26	0x3d7ecddb	0.062208038
27	0x3d96d345	0.07364515
28	0x3d09230c	0.03348069
29	0x3e0b2edb	0.13592093
30	0x3d225f3a	0.039641596
31	0x3e3e8350	0.18604779
32	0x3dc9fab2	0.098622695
33	0x3dca31d0	0.09872782
34	0x3d550b28	0.052012593
35	0x3b565be3	0.0032708577
36	0x3d697a3e	0.057001345
37	0xbc7be375	-0.015374054
38	0x3c8c0170	0.01709053
39	0x3e63790f	0.22214149
40	0x3e3e34bc	0.18574804
41	0x3e445c23	0.19175772
42	0x3e427683	0.18990521
43	0xbd3fa9b1	-0.04679269
44	0x3d98d474	0.07462397
45	0x3e950921	0.29108527
46	0x3e8cc501	0.27494052
47	0x3d8764d5	0.06611029
48	0x3e48a5bd	0.19594474
49	0x3e111cc4	0.1417113
50	0x3e01eaf8	0.1268729
51	0x3e253b8f	0.16136001
52	0x3d7f33e9	0.062305365
53	0x3d409257	0.04701456
54	0xbd325d5d	-0.04354607
55	0xbd05f396	-0.032703005
56	0xbd52f538	-0.05150339
57	0x3d17c8ee	0.037056856
58	0x39b0b92c	0.000337073
59	0x3e09acf0	0.13444877
60	0x3d926e54	0.0714995
61	0xbe1ecab6	-0.15507016
62	0x3d05a445	0.032627363
63	0x3de277cb	0.11058005
64	0x3d783fa1	0.060607556
65	0xbbbfd56e	-0.0058543
66	0x3e9333af	0.2875037
67	0x3cf3bb02	0.029752258
68	0x3e1e4dd8	0.15459383
69	0xbc5a684e	-0.013330532
70	0xbe0e7a9d	-0.13913961
71	0x3c52f23b	0.012875135
72	0x3dbb1920	0.091356516
73	0xbd8669a3	-0.06563117
74	0x3d821ba4	0.06352928
75	0x3d9bc8ad	0.07606635
76	0x3e3317fc	0.17489618
77	0xbdd0784e	-0.10179196
78	0xbd8778c3	-0.0661483
79	0x3d7343f4	0.059390977
80	0xbda8e588	-0.082469046
81	0x3e2c61a7	0.16834126
82	0x3c54814c	0.01297028
83	0xbc962473	-0.018327927
84	0xbe26dabc	-0.16294378
85	0xbed54d73	-0.41660652
86	0xbe71e88d	-0.23623867
87	0x3d9b4460	0.07581401
88	0x3c18ccbe	0.009326158
89	0x3dc2558d	0.09488974
90	0x3e6b64d4	0.22987682
91	0x3d6f9c07	0.05849841
92	0x3e185def	0.14879583
93	0x3df88da5	0.121363916
94	0x3d6bacc6	0.057537816
95	0x3cd67075	0.02617667
96	0x3d26eef9	0.040755246
97	0x3db3ecca	0.08785398
98	0x3e1a45df	0.15065716
99	0x3d809947	0.06279235
100	0x3d8bca6e	0.0682572
101	0x3da47e49	0.080318995
102	0xbe852583	-0.26005182
103	0xbe66366c	-0.22481698
104	0xbe0d5585	-0.13802154
105	0xbcd60ac0	-0.026128173
106	0x3d3250d3	0.04353411
107	0xbce5dabd	-0.028058404
108	0xbea03042	-0.31286818
109	0xbe845f9f	-0.25854203
110	0xbe38c84c	-0.18045157
111	0x3d56edc7	0.052472856
112	0x3de5d6c4	0.11222604
113	0x3ddb30d9	0.10702676
114	0x3ddeb2b6	0.1087393
115	0xbd1d8832	-0.038459964
116	0xbe33d450	-0.1756146
117	0x3bea3dd1	0.0071484824
118	0x3db2470b	0.087049566
119	0x3e0f7067	0.14007722
120	0x3de84007	0.11340337
121	0xbe5a3892	-0.21310642
122	0x3cb53e85	0.022124538
123	0x3de9fa76	0.11424725
124	0x3d76d4f6	0.06026169
125	0x3d5376e8	0.05162707
126	0x3d6522e6	0.055941485
127	0x3d4f2489	0.050571952
128	0x3daf255c	0.085520476
129	0xbea089ec	-0.31355226
130	0xbe1e378c	-0.15450877
131	0xbecd0607	-0.4004366
132	0x3da46d7f	0.08028697
133	0x3dc94fa0	0.098296404
134	0x3dafd792	0.08586039
135	0x3cd8192e	0.026379194
136	0x3ded83d0	0.11597407
137	0x3e12833f	0.14307879
138	0x3d3ad314	0.045611456
139	0x3d85e59b	0.065379344
140	0xbcfd29c9	-0.030903714
141	0xbd542c59	-0.051800106
142	0x3c319a36	0.010839989
143	0xbd7816e5	-0.06056871
144	0xbc23c64c	-0.009996008
145	0x3e152289	0.14563955
146	0x3d897472	0.06711663
147	0xbe38e80d	-0.1805727
148	0xbe841f8d	-0.2580532
149	0xbe4b38be	-0.19845864
150	0x3db93067	0.09042435
151	0x3dc5ff7c	0.096678704
152	0x3e39feb0	0.18163562
153	0x3e3d451d	0.18483396
154	0x3e067f99	0.13134612
155	0x3e2bfefc	0.16796488
156	0x3db1072d	0.08643947
157	0x3d34c133	0.04412956
158	0x3d1d7881	0.038445
159	0xbe48cc5c	-0.19609207
160	0xbe29a557	-0.16566978
161	0xbe22de5a	-0.15905133
162	0x3d5cb958	0.053887695
163	0x3c78d6a0	0.015187889
164	0xbcedf848	-0.029049054
165	0x3e06ff47	0.13183318
166	0xbc87770e	-0.016536262
167	0x3dbdf7de	0.092757925
168	0xb9be066b	-0.00036244406
169	0xbcf56eef	-0.029960124
170	0x3dabb84b	0.083847605
171	0xbe1610fd	-0.14654918
172	0xbe081d85	-0.13292511
173	0xbd494ba2	-0.049144395
174	0x3d94fd3d	0.07274864
175	0x3d1d94ba	0.038471915
176	0xbdde32b3	-0.10849514
177	0xbd35a67c	-0.044348225
178	0x3d264dfa	0.040601708
179	0x3d5579e0	0.052118182
180	0xbd5694aa	-0.05238787
181	0xbda74694	-0.081677586
182	0x3daec830	0.085342765
183	0x3d9612a3	0.073277734
184	0x3ce0d9c8	0.027447596
185	0x3d7a3ad4	0.06109126
186	0xbd6867d7	-0.056739654
187	0xbbd418ea	-0.0064726966
188	0xbdb35f27	-0.08758383
189	0x3d9656e8	0.07340795
190	0xbe03085f	-0.12796162
191	0xbe12d7e1	-0.14340164
192	0x3e63989a	0.22226182
193	0x3e23e64e	0.16005823
194	0x3d09e946	0.033669733
195	0x3e01ee92	0.12688664
196	0x3e8ddf62	0.2770949
197	0xbe04543f	-0.12922762
198	0xbe194d4d	-0.14970894
199	0xbc9ec897	-0.019382758
200	0xbe6d0209	-0.23145308
201	0x3e0cdcd4	0.13756114
202	0xbdae9ccd	-0.08526001
203	0xbd669666	-0.056295775
204	0xbd1f7355	-0.03892835
205	0xbe343e46	-0.1760188
206	0xbedaec7b	-0.42758545
207	0xbe501768	-0.20321429
208	0x3e9adea4	0.30247986
209	0xbe394f39	-0.18096627
210	0xbd721b22	-0.059107907
211	0x3cf436f7	0.029811366
212	0xbd6ddac7	-0.05806997
213	0xbd18d6f7	-0.03731438
214	0x3ea6f1a2	0.32606226
215	0xbe19c94c	-0.15018195
216	0x3d913524	0.07090214
217	0xbe4a23e7	-0.19740258
218	0xbdd67ea0	-0.104733706
219	0x3e45941b	0.19294779
220	0xbd99970b	-0.07499512
221	0xbdbed3ed	-0.093177654
222	0x3d08420b	0.03326611
223	0x3e3c2494	0.18373328
224	0x3c418aea	0.011812905
225	0xbc8c894a	-0.017155308
226	0x3e42cb73	0.19022922
227	0xbe7887b7	-0.24270521
228	0xbe46c158	-0.19409692
229	0xbda90265	-0.0825241
230	0x3c4ae6b7	0.012384108
231	0xbe8d3ea1	-0.27586845
232	0xbe21bf54	-0.15795642
233	0xbe65d9ce	-0.22446367
234	0x3ec54cb7	0.3853509
235	0x3d8e0123	0.069338106
236	0xbdf923da	-0.12165041
237	0x3ddffb75	0.109366335
238	0xbe0745fd	-0.13210292
239	0xbdec506e	-0.11538778
240	0x3e965865	0.29364315
241	0x3dd55a23	0.10417583
242	0xbe4d6f61	-0.20062019
243	0xbc3acc27	-0.011401213
244	0xbd9e9d95	-0.077449
245	0xbe5e4ad9	-0.2170824
246	0xbe83362e	-0.25627273
247	0xbe2b8d39	-0.16753091
248	0x3c3e19ae	0.011602802
249	0xbe796c0b	-0.24357621
250	0x3da6bcc6	0.081414744
251	0x3da2a3a9	0.07941372
252	0x3e61ee62	0.22063592
253	0x3e27a1f1	0.1637037
254	0xbda8afe3	-0.08236673
255	0x3d61095e	0.054940574

encoder_cnn.2.bias f4 [64]
0	0x3e058bf2	0.13041666
1	0xbd3a3510	-0.04546076
2	0x3d0abbd1	0.033870522
3	0x3cc214cd	0.02369156
4	0xb9a6abad	-0.00031789896
5	0x3e3ed2be	0.1863508
6	0xbcd9916c	-0.0265586
7	0xbd62bd95	-0.05535658
8	0xbe211984	-0.1573239
9	0xbc81c6eb	-0.015841922
10	0x3e463226	0.19355068
11	0xbe07e327	-0.13270245
12	0x3d2d694c	0.042336747
13	0xbdbea1fc	-0.0930824
14	0xbd2ddb3d	-0.04244541
15	0xbd55749a	-0.052113153
16	0x3d7500e4	0.059815302
17	0x3d35d9ed	0.044397283
18	0xbc0ae939	-0.008478456
19	0xbdb45fc1	-0.08807326
20	0xbe12c0da	-0.1433138
21	0x3d5560b8	0.05209419
22	0xbd474202	-0.048646934
23	0x3dab93d7	0.083778076
24	0xbe626524	-0.22108895
25	0x3e280df5	0.16411574
26	0xbe0270de	-0.12738368
27	0xbe1315b0	-0.14363742
28	0x3d49653f	0.04916882
29	0xbdeab9fa	-0.114612535
30	0x3d867513	0.06565299
31	0xbe8da1ab	-0.27662405
32	0xbe07e1d8	-0.13269746
33	0x3de1a26e	0.11017309
34	0x3e10d8b8	0.14145172
35	0xbdda11db	-0.10647937
36	0xbde4dc0d	-0.11174784
37	0xbe2aebbb	-0.16691487
38	0x3e29d5d8	0.16585481
39	0x3aa7f1c5	0.0012813142
40	0xbe01793c	-0.12643903
41	0xbe4ab0d4	-0.19794017
42	0x3dace7b5	0.08442632
43	0xbe0c631c	-0.13709682
44	0x3c2011a8	0.009769835
45	0xbec6392f	-0.38715503
46	0xbe9921f8	-0.2990873
47	0xbe18be69	-0.14916386
48	0xbdcf0143	-0.101076625
49	0x3e65e169	0.22449268
50	0xbd119fd1	-0.035552803
51	0xbe552c34	-0.20817643
52	0xbe8e537e	-0.27798074
53	0xbd698a3b	-0.057016592
54	0xbdc647c4	-0.09681657
55	0x3cf66d3c	0.030081384
56	0xbd65587a	-0.05599258
57	0xbe05eec0	-0.13079357
58	0x3d0b9a30	0.03408259
59	0xbdcb6d98	-0.09933013
60	0xbea3a420	-0.31961155
61	0x3e98c257	0.2983577
62	0xbe7947a0	-0.24343729
63	0xbe4f3bc2	-0.2023764

encoder_lstm.weight_ih_l0 f4 [128, 64]
0	0x3e819431	0.25308374
1	0x3d23223f	0.03982758
2	0x3d6e1a76	0.058130704
3	0x3d20db95	0.03927191
4	0x3ec572e5	0.3856422
5	0x3dcf32b7	0.10117095
6	0xbdcba393	-0.09943309
7	0x3e24e6ac	0.1610362
8	0x3e94b196	0.29041737
9	0x3d59abfe	0.05314254
10	0x3dc167bb	0.09443613
11	0x3dd35694	0.10319248
12	0x3e5e94c6	0.2173644
13	0xbe12791b	-0.1430401
14	0xbdf30a83	-0.11867239
15	0x3e6fc8d7	0.23416458
16	0x3e67e80a	0.2264711
17	0xbe054452	-0.13014343
18	0xbd967e42	-0.073483005
19	0x3c56eb6b	0.013117651
20	0xbc4cb5d6	-0.012494525
21	0x3dd0d731	0.101972945
22	0x3e60ba2e	0.21946022
23	0xbd9c5e21	-0.07635141
24	0x3dd88e40	0.10574007
25	0x3dbbe9d8	0.091754615
26	0xbec07955	-0.3759257
27	0x3dc997f1	0.09843434
28	0x3d85b6f0	0.06529033
29	0xbdccf1fa	-0.10007091
30	0x3e19301d	0.1495976
31	0x3dffa7eb	0.124832
32	0x3e190682	0.14943889
33	0x3e65da53	0.22446565
34	0xbd5cbe9b	-0.053892713
35	0xbce089c4	-0.027409442
36	0xbce799a3	-0.028271502
37	0xbdccdde0	-0.10003257
38	0x3e34404f	0.17602657
39	0xbe01c596	-0.1267303
40	0x3d809081	0.06277562
41	0x3df33274	0.118748575
42	0x3e83f233	0.2577072
43	0xbcc58e54	-0.024115719
44	0xbcfbca1e	-0.030736025
45	0xbb824e2c	-0.003976604
46	0xbe05a1c7	-0.13049994
47	0x3e6b4c10	0.22978234
48	0x3ea2b1e8	0.31776357
49	0x3e812d9c	0.2523011
50	0x3e43492d	0.19070883
51	0xbd118ca0	-0.0355345
52	0x3e3f057a	0.18654433
53	0xbd199f03	-0.03750516
54	0xbe046036	-0.12927327
55	0x3dd94252	0.10608353
56	0xbaeb392f	-0.0017946119
57	0xbe5ff42a	-0.21870485
58	0xbd95f430	-0.07321966
59	0xbd2ec55a	-0.042668678
60	0x3ca1841c	0.019716315
61	0x3ea05c80	0.31320572
62	0xbdd0df69	-0.10198862
63	0xbde20ead	-0.110379554
64	0xbe04986b	-0.12948768
65	0xbca57ea5	-0.02020199
66	0xbdcaea44	-0.09907964
67	0xbdb5bbea	-0.088737324
68	0xbda97d05	-0.08275799
69	0xbe8297dd	-0.25506487
70	0x3df8a0d0	0.121400476
71	0x3d9be3bb	0.076117955
72	0x3df0daac	0.11760458
73	0x3e20b939	0.15695657
74	0xbdabcbc9	-0.08388478
75	0xbe71009b	-0.23535387
76	0xbc72cd6b	-0.014819483
77	0xbcd44fcc	-0.025916956
78	0x3dae27b8	0.085036695
79	0x3d73575f	0.059409495
80	0x3e2a879d	0.16653295
81	0x3e4cbe63	0.19994502
82	0xbe5cf3f3	-0.21577434
83	0xbd448402	-0.047977455
84	0x3e53c36e	0.2068002
85	0xbdfa84c3	-0.122323535
86	0xbf274908	-0.6534581
87	0xbd234ba4	-0.03986706
88	0x3e3d7dc5	0.18505009
89	0xbe9395f1	-0.28825334
90	0x3e3335c1	0.17500974
91	0x3e196d9c	0.14983219
92	0xbcbcd610	-0.023051292
93	0xbd68adf3	-0.056806516
94	0xbe1495c0	-0.1451025
95	0x3d9ab55c	0.07554123
96	0xbcbdbec1	-0.023162248
97	0x3d051b20	0.03249657
98	0xbe87566e	-0.26433128
99	0xbc5c1952	-0.013433771
100	0xbe03fc47	-0.12889205
101	0xbe04727f	-0.12934302
102	0x3e177509	0.14790739
103	0x3b22f591	0.0024865607
104	0xbcdcdf87	-0.026962055
105	0x3a0580cd	0.000509274
106	0x3d611c00	0.054958344
107	0xbd9d3be0	-0.07677436
108	0x3ea58fee	0.32336372
109	0xbdc18589	-0.09449298
110	0x3ecb43bb	0.39700112
111	0xbd00b806	-0.0314255
112	0xbd84d302	-0.06485559
113	0xbe0b3056	-0.13592657
114	0xbe20cf2c	-0.1570403
115	0x3d291598	0.04128036
116	0xbe28e91b	-0.16495173
117	0xbd8b9adb	-0.06816646
118	0x3e251b96	0.16123804
119	0x3deafd75	0.11474124
120	0x3d6b0ed8	0.057387203
121	0xbc9b548d	-0.018961215
122	0x3db3af12	0.087736264
123	0xbdfbc35d	-0.12293122
124	0x3e27711b	0.1635174
125	0xbe79cab4	-0.24393731
126	0xbea8bb5b	-0.3295544
127	0xbe4173d8	-0.18891847
128	0x3e35c99d	0.1775269
129	0xbc6d38ca	-0.014478872
130	0x3ea49d5b	0.32151303
131	0xbdf36103	-0.11883738
132	0x3e828a09	0.25495937
133	0x3d363b25	0.04449
134	0x3e4b6530	0.19862819
135	0xbd26bf57	-0.04070982
136	0xbd877d9c	-0.06615755
137	0x3e1040f2	0.14087275
138	0x3d93076e	0.071791515
139	0x3d72d36e	0.059283666
140	0xbe516d0a	-0.20451751
141	0xbdf87d7e	-0.12133311
142	0x3d40b4b4	0.047047332
143	0x3d3d56bc	0.046225294
144	0x3d5254a8	0.051350266
145	0x3c8d960b	0.01728346
146	0xbc3a9a59	-0.011389338
147	0x3e551857	0.20810066
148	0x3deb401e	0.11486839
149	0x3b8c9c86	0.00429112
150	0x3e1b7ebf	0.15185069
151	0xbe03beb0	-0.1286571
152	0x3e0e349b	0.13887255
153	0x3c9dd4e2	0.01926655
154	0x3d9a00e4	0.07519701
155	0xbc9cdf32	-0.019149397
156	0x3de60447	0.112312846
157	0x3dff311f	0.12460541
158	0xbe1ce0f0	-0.15320182
159	0x3d6984d4	0.05701144
160	0xbe1ba7a9	-0.15200676
161	0xbd60b9b3	-0.054864597
162	0xbe7b7f59	-0.24560298
163	0x3d5ca731	0.053870384
164	0x3e09f3f6	0.1347197
165	0xbdc5071f	-0.09620499
166	0xbdc2cf26	-0.09512167
167	0x3cb1d229	0.021706657
168	0x3e9c2950	0.3050027
169	0x3dd43979	0.103625245
170	0xbe15b254	-0.14618808
171	0x3dd04180	0.10168743
172	0x3e439e1a	0.1910328
173	0xbe1a63a5	-0.15077074
174	0xbd64c8db	-0.055855613
175	0xbdedd812	-0.11613478
176	0x3d8f8ad4	0.07008901
177	0x3da56c38	0.08077282
178	0x3e36a92c	0.17837971
179	0xbd81ce15	-0.06338135
180	0xbdc128b1	-0.094315894
181	0xbd2b3653	-0.041799854
182	0x3dd61b44	0.10454419
183	0x3c114834	0.008867312
184	0x3b581ad1	0.0032974968
185	0x3cf7030d	0.030152822
186	0x3c8440e2	0.01614422
187	0xbcf3931e	-0.029733237
188	0x3c7394a1	0.014866979
189	0xbe3aa95a	-0.18228665
190	0x3da39e7d	0.079892136
191	0xbdb7d284	-0.089756995
192	0xbe536de6	-0.20647392
193	0x3deea41a	0.11652394
194	0xbe39aec5	-0.18133076
195	0x3e3c41fb	0.18384545
196	0xbe6a40f9	-0.22876348
197	0xbda4efbe	-0.0805354
198	0xbdeea03f	-0.11651658
199	0xbe96d63f	-0.29460332
200	0xbcbb1a0c	-0.022839569
201	0x3d1a0d24	0.037610188
202	0xbe41893d	-0.18900008
203	0x3e4bdce0	0.19908476
204	0xbd0ed127	-0.034867432
205	0xbe3026dc	-0.17202324
206	0xbd868120	-0.065675974
207	0xbd997473	-0.07492914
208	0xbe10867f	-0.14113806
209	0xbef7ca7c	-0.4839667
210	0xbe85f398	-0.2616241
211	0x3de2125a	0.110386565
212	0x3c71f17e	0.014767049
213	0x3c02d04e	0.007984234
214	0x3c509f6b	0.012733321
215	0xbb4104c5	-0.0029452306
216	0x3e5f8d2a	0.21831194
217	0xbe2f341f	-0.17109726
218	0xbde4b084	-0.1116648
219	0x3e12aba6	0.14323291
220	0x3be2c380	0.006920278
221	0x3dca6ff5	0.09884635
222	0xbea4f38d	-0.32217064
223	0x3d826896	0.063676044
224	0xbe177ef0	-0.14794517
225	0xbe72fccb	-0.23729245
226	0xbd8ca9bf	-0.06868314
227	0xbdfa6172	-0.122256175
228	0xbe1c4fed	-0.15264864
229	0xbd3f4cdd	-0.046704162
230	0xbdb25228	-0.08707076
231	0x3d98ab1e	0.07454513
232	0x3e2e73cc	0.1703636
233	0x3de3fa72	0.11131753
234	0xbd994361	-0.07483555
235	0x3e9bb283	0.3040963
236	0xbdfc321e	-0.123142466
237	0x3e0c1bf0	0.13682532
238	0x3de7377e	0.11289881
239	0x3d8c1e62	0.068417326
240	0x3d0e73d9	0.03477845
241	0x3e244931	0.16043545
242	0x3dbd64c5	0.09247736
243	0xbd8a6e65	-0.06759337
244	0x3e2be5f4	0.16786939
245	0x3ce85414	0.028360404
246	0xbd1afb9c	-0.03783761
247	0xbdf11836	-0.11772196
248	0x3d96f679	0.0737123
249	0x3d69921e	0.057024114
250	0x3e9a1aae	0.3009848
251	0xbd9ca6a3	-0.07648971
252	0xbcdb3a3f	-0.026761172
253	0xbe35e214	-0.17762023
254	0xbe9955b5	-0.29948202
255	0xbe631ed7	-0.22179733

encoder_lstm.weight_hh_l0 f4 [128, 32]
0	0x3de423e4	0.11139658
1	0x3ce7a0ee	0.02827498
2	0xbe4ca564	-0.19984967
3	0xbb27b54a	-0.0025590234
4	0x3e35980b	0.17733781
5	0xbd085bd4	-0.0332907
6	0xbe55af05	-0.20867546
7	0xbd20abf3	-0.039226484
8	0xbdb25f70	-0.087096095
9	0x3e9b57b1	0.3034034
10	0x3dbff6d4	0.093732506
11	0xbdaa4df6	-0.08315651
12	0xbe5a2317	-0.21302448
13	0xbc494f26	-0.012286937
14	0x3d5c771b	0.053824525
15	0xbea984a7	-0.33109018
16	0xbd834e7c	-0.06411454
17	0xbd6d8320	-0.05798638
18	0x3e2eb649	0.17061724
19	0xbd98fad3	-0.07469716
20	0x3e8d2d2b	0.27573523
21	0x3dac2a68	0.08406526
22	0x3e93948e	0.28824276
23	0xbdc4a9b3	-0.0960268
24	0xbe308615	-0.17238648
25	0xbe6532e1	-0.2238269
26	0xbe36cf6b	-0.17852561
27	0xbe7224fc	-0.23646921
28	0x3e2981a2	0.16553357
29	0x3e4225dc	0.18959755
30	0x3e90bf56	0.28270978
31	0xbeb43733	-0.35198364
32	0xbe470b92	-0.19438007
33	0x3ccc33f4	0.024927117
34	0xbe876c08	-0.2644961
35	0x3e816651	0.25273374
36	0xbccc52b4	-0.02494178
37	0x3de2310f	0.110445134
38	0x3e5e5a6a	0.21714178
39	0xbcf29f0e	-0.029616859
40	0x3e2693c7	0.1626731
41	0xbd92b4ee	-0.07163416
42	0xbe1da2c4	-0.15394121
43	0x3d8eeea3	0.0697911
44	0x3e8291d3	0.2550188
45	0x3dd8a6b2	0.105786696
46	0x3d6ae7cc	0.057349965
47	0x3e7ea340	0.24866962
48	0xbdcb35a3	-0.0992234
49	0x3d9d193c	0.07670829
50	0x3d6baf48	0.057540208
51	0xbdff2317	-0.12457865
52	0xbe22e6af	-0.15908311
53	0xbb2235b6	-0.0024751252
54	0x3cda739e	0.026666459
55	0xbe579c37	-0.21055685
56	0x3d27bc21	0.040950898
57	0xbdec3501	-0.11533547
58	0x3e3d3cb7	0.18480192
59	0xbd97a9ab	-0.074054085
60	0xbd98fad3	-0.07469716
61	0xbe59e551	-0.21278884
62	0xbe89b8d7	-0.26898834
63	0x3e6fba02	0.234108
64	0xbeaad13f	-0.33362767
65	0x3df7861c	0.12086126
66	0xbe05ab65	-0.13053663
67	0xbd9402fd	-0.072271325
68	0x3be7ab05	0.0070699477
69	0xbcf50910	-0.029911548
70	0x3ead8eed	0.33898106
71	0x3ebe0753	0.37114963
72	0x3d0fbd3f	0.03509259
73	0xbc79f22c	-0.015255492
74	0xbecc05f4	-0.39848292
75	0x3e4b4998	0.19852293
76	0x3e1e224f	0.15442775
77	0x3df4ae2e	0.11947285
78	0xbe98411c	-0.29737175
79	0x3d36370b	0.044486087
80	0xbe42c53a	-0.19020548
81	0x3e54e15f	0.20789097
82	0xbdc2cbf7	-0.095115595
83	0xbe090ef4	-0.1338461
84	0xbdd5eadd	-0.10445187
85	0xbe21d0da	-0.15802327
86	0xbd660e1c	-0.0561658
87	0xbe69374e	-0.22775003
88	0x3e301db3	0.1719883
89	0x3da14603	0.07874682
90	0xbec0b6aa	-0.37639362
91	0xbd0c5398	-0.03425941
92	0xbd9e79ee	-0.077381
93	0xbe269860	-0.16269064
94	0xbeca8e33	-0.39561614
95	0x3e4cac3d	0.19987579
96	0xbe4ee2e7	-0.20203744
97	0xbe1de537	-0.1541947
98	0xbe88a059	-0.26684836
99	0x3da21c4b	0.07915553
100	0xbe9663dd	-0.29373065
101	0x3e041a1e	0.12900588
102	0x3d67c9e5	0.056589026
103	0x3ec08189	0.37598827
104	0xbee2c61c	-0.4429177
105	0xbe89ac99	-0.26889494
106	0xbeb21964	-0.34784997
107	0x3cd73270	0.026269168
108	0x3d4964e1	0.04916847
109	0xbbbffb55	-0.0058588185
110	0xbe81eaa0	-0.25374317
111	0x3de2e9f1	0.11079777
112	0xbd1e2bec	-0.038616106
113	0x3e27e87c	0.1639728
114	0xbd54cb27	-0.051951554
115	0xbe57c5b9	-0.21071519
116	0x3da837ad	0.08213744
117	0xbdc180f8	-0.09448427
118	0xbe1372a8	-0.14399207
119	0xbec80981	-0.3906975
120	0x3e51e2e9	0.20496716
121	0x3d31c513	0.043400835
122	0xbe9b325a	-0.30311853
123	0x3c806bbf	0.015676377
124	0xbe80d760	-0.25164318
125	0xbde0b357	-0.10971706
126	0x3e6b106f	0.22955488
127	0x3e3e7794	0.18600303
128	0x3eaafe2d	0.33397046
129	0x3d95677a	0.07295127
130	0x3d16d322	0.036822446
131	0xbdac0427	-0.083992295
132	0x3e4785e7	0.19484673
133	0xbe8bc97f	-0.27302167
134	0xbd3a96e5	-0.04555406
135	0xbd15d7d3	-0.03658278
136	0x3e683fd7	0.22680603
137	0x3e2cdac8	0.16880333
138	0x3d1fc2de	0.0390042
139	0x3d14158b	0.036153357
140	0xbedbf240	-0.4295826
141	0x3e30e280	0.17273903
142	0x3e693142	0.22772697
143	0xbd6058ce	-0.05477219
144	0x3e61e161	0.22058631
145	0xbe0805a4	-0.13283402
146	0x3d451a6e	0.04812091
147	0xbc17beba	-0.009261781
148	0x3e9927f6	0.299133
149	0x3e4af3e7	0.19819604
150	0x3cc06b74	0.023488738
151	0xbda69194	-0.081332356
152	0xbc858944	-0.016300805
153	0x3e099e41	0.13439275
154	0x3e261b2b	0.16221301
155	0xbd15e7c6	-0.03659799
156	0x3eda793d	0.42670622
157	0x3cb6ae3b	0.022299876
158	0xbda9b3fb	-0.08286282
159	0xbdea5b80	-0.114432335
160	0xbd98d700	-0.07462883
161	0xbc6731be	-0.014110981
162	0x3e53c156	0.2067922
163	0x3d9dbe78	0.07702345
164	0x3e5470ec	0.20746201
165	0x3dae04b7	0.08496993
166	0xbd3a6dbe	-0.045514815
167	0x3d89afb7	0.06722968
168	0x3d86caa4	0.065816194
169	0x3c093e8e	0.008376731
170	0x3e53c99b	0.20682375
171	0xbdb59685	-0.088666
172	0x3e655d72	0.22398928
173	0x3dce546a	0.100746945
174	0x3e88a9b4	0.26691973
175	0x3cf47545	0.029841075
176	0x3d4c719a	0.049913026
177	0xbc511ca9	-0.012763181
178	0xbdc3880d	-0.09547434
179	0x3e5e41c2	0.21704772
180	0x3de90d4f	0.113794915
181	0x3e31da9a	0.17368546
182	0x3d9cfa4d	0.076649286
183	0x3e730229	0.23731293
184	0xbd997f15	-0.07494942
185	0x3e2be03d	0.16784759
186	0x3dd0571d	0.101728655
187	0x3e058c25	0.13041742
188	0x3dd3d710	0.10343754
189	0xbd65c8cc	-0.056099698
190	0xbdd1707a	-0.10226531
191	0x3d9b4252	0.07581009
192	0x3da1250e	0.07868396
193	0xbea26fa3	-0.31725797
194	0x3dc90366	0.09815101
195	0x3e58b1ec	0.21161622
196	0x3d332e30	0.04374522
197	0xbe95869b	-0.29204258
198	0x3d81fadf	0.06346678
199	0xbdc4333d	-0.095800854
200	0xbe4c2c9f	-0.19938897
201	0x3e9976b6	0.29973382
202	0x3c9068e8	0.017628148
203	0xbf08890e	-0.5333413
204	0xbcbc38d2	-0.022976313
205	0x3dce8e11	0.10085691
206	0x3b7dacb3	0.0038707673
207	0xbe95eb03	-0.29280862
208	0xbdb29f8d	-0.08721838
209	0xbef95ba5	-0.48702732
210	0x3e5c8812	0.21536282
211	0xbe222283	-0.15833478
212	0xbd5ae5ab	-0.053441685
213	0x3e8d9f3a	0.27660543
214	0x3e679a8d	0.2261755
215	0xbdf062dd	-0.11737607
216	0x3e37cdee	0.1794965
217	0xbdb86ed9	-0.090055175
218	0x3daee36a	0.085394695
219	0xbe1ce3b0	-0.15321231
220	0xba43bc7e	-0.0007466747
221	0x3e29558e	0.16536543
222	0x3be00487	0.006836477
223	0x3dad85d6	0.08472793
224	0xbe419ce5	-0.18907507
225	0x3dcff386	0.1015387
226	0xbe65fd1d	-0.22459836
227	0x3cf1e517	0.029528184
228	0xbdf0c981	-0.11757184
229	0x3e1cec12	0.15324429
230	0x3e0bca10	0.136513
231	0x3e868bc1	0.262785
232	0xbe9e30b0	-0.3089652
233	0xbe7529d2	-0.23941734
234	0xbc811e2c	-0.015761457
235	0x3e0692cc	0.13141936
236	0x3d805184	0.06265548
237	0x3dce2f72	0.10067643
238	0xbd935c31	-0.071953185
239	0xbb8e5c4e	-0.0043444997
240	0x3dff3616	0.12461488
241	0xbdb4a106	-0.08819775
242	0xbe8b67f7	-0.27227756
243	0x3e0c8e34	0.13726121
244	0x3d2ec2c2	0.042666204
245	0xbe94aa59	-0.29036215
246	0x3b25fafa	0.0025326596
247	0xbd03c4e5	-0.032170195
248	0x3ddb3dc6	0.10705142
249	0xbe5b529f	-0.21418236
250	0x3db7cf22	0.08975054
251	0xbe50a471	-0.2037523
252	0xbcd8e189	-0.026474731
253	0xbe9cffd7	-0.3066394
254	0x3e36bf96	0.17846522
255	0x3e0a18ca	0.13486019

encoder_lstm.bias_ih_l0 f4 [128]
0	0x3d6d95d3	0.05800421
1	0xbd1e064c	-0.038580224
2	0xbda644e3	-0.08118608
3	0xbe6ec3d6	-0.23316893
4	0x3e8b691b	0.27228627
5	0x3e774728	0.24148238
6	0x3d2a8a75	0.04163595
7	0x3c0e9adc	0.008703914
8	0x3b40f1bc	0.002944096
9	0x3e0eba60	0.13938284
10	0xbda7ef06	-0.08199887
11	0xbdeae122	-0.11468722
12	0xbe1a89a5	-0.1509157
13	0xbe715567	-0.23567735
14	0x3d9912a7	0.07474261
15	0xbd0fb091	-0.035080496
16	0x3db307f4	0.08741751
17	0x3e22b0f0	0.15887809
18	0xbe3fcf4c	-0.18731421
19	0xbd906357	-0.070501976
20	0x3c502ec2	0.01270646
21	0x3e7d24ac	0.2472102
22	0xbd79e647	-0.061010625
23	0x3e8d0681	0.27544025
24	0x3e4261e8	0.18982661
25	0xbdd9a4ea	-0.10627158
26	0x3b1fa1e4	0.002435797
27	0xbe46c0c8	-0.19409478
28	0x3e2feefd	0.1718101
29	0x3d3fac74	0.046795323
30	0x3d150a47	0.036386754
31	0xbdc3e466	-0.09565048
32	0x3e8b9e79	0.27269343
33	0xbe058cd2	-0.13042
34	0xbe84630e	-0.25856823
35	0x3d3c73ca	0.046008863
36	0x3e5df7a5	0.216765
37	0x3dd9e536	0.10639422
38	0x3e825add	0.25459948
39	0xbd73f409	-0.059558902
40	0xbda4a4da	-0.080392554
41	0xbdb32a9d	-0.08748362
42	0x3e62bf66	0.22143325
43	0xbd7e47ad	-0.062080074
44	0xbe456ee8	-0.19280589
45	0xbe4f0aca	-0.2021896
46	0xbe554953	-0.20828752
47	0xbd9f91f7	-0.077915125
48	0x3e453ad6	0.19260725
49	0x3d1ae9ec	0.03782074
50	0x3d027c67	0.03185692
51	0x3e274268	0.16333926
52	0x3dbe3ed2	0.09289326
53	0x3dfee588	0.12446123
54	0xbe114671	-0.14187028
55	0x3cc7c416	0.024385493
56	0xbc64c61d	-0.0139632495
57	0xbe24f242	-0.16108039
58	0xbd704988	-0.058663875
59	0xbd3d9f39	-0.046294425
60	0xbdc94fde	-0.098296866
61	0x3d79fa82	0.06102992
62	0xbe073751	-0.13204695
63	0x3e7823e1	0.24232437
64	0x3d8f9c4e	0.07012235
65	0x3e5f4152	0.21802261
66	0xbdd647a3	-0.10462882
67	0x3d5959d1	0.05306417
68	0x3e54603e	0.20739838
69	0xbeb255c4	-0.3483106
70	0xbe8d21da	-0.2756489
71	0xbe77dcd7	-0.24205337
72	0xbda7130b	-0.08157929
73	0x3e4b8dee	0.1987836
74	0x3e652f22	0.22381261
75	0xb8f308f0	-0.00011588808
76	0xbe95cf02	-0.29259497
77	0xbd61fc94	-0.055172518
78	0x3dee007d	0.11621187
79	0xbe9621ef	-0.29322764
80	0x3e00e089	0.12585653
81	0x3d352de2	0.04423321
82	0x3e0b5df0	0.13610053
83	0x3cd818db	0.02637904
84	0x3da65ae0	0.08122802
85	0x3e556dd1	0.20842673
86	0xbc985a98	-0.018597886
87	0x3dfae96a	0.122515514
88	0xbddafab1	-0.10692347
89	0x3e3bad23	0.18327765
90	0x3cebb5f6	0.02877329
91	0xbda2184a	-0.07914789
92	0x3e67d57a	0.22640029
93	0x3e23f549	0.16011538
94	0x3e137950	0.14401746
95	0xbe5513df	-0.20808361
96	0x3ddcb652	0.10776962
97	0xbeca5c83	-0.39523706
98	0xbeaf07f2	-0.3418575
99	0xbdf895d9	-0.12137956
100	0x3e6bfc0d	0.23045368
101	0xbd3d079a	-0.046149828
102	0x3e1c3d55	0.15257771
103	0x3df1b101	0.11801339
104	0xbd7f42d7	-0.062319603
105	0x3db2bb2d	0.08727107
106	0x3e8b3cf5	0.27194944
107	0xbc8ac56b	-0.01693984
108	0xbe78ed59	-0.24309291
109	0xbe491ca2	-0.19639829
110	0x3d90df0c	0.07073793
111	0xbde3c5ea	-0.111217335
112	0x3e0842aa	0.1330668
113	0x3d90182d	0.07035861
114	0x3d80f5c6	0.062968776
115	0xbe84958d	-0.25895348
116	0x3da88b37	0.08229678
117	0xbd591876	-0.053001843
118	0xbe2e3495	-0.17012246
119	0x3ee6f693	0.45109996
120	0xbea3a485	-0.31961456
121	0x3d5e8d90	0.054334223
122	0xbe370d4a	-0.17876163
123	0x3d3b5a75	0.045740563
124	0x3eeb7d10	0.45993853
125	0xbdcdb7ce	-0.100448236
126	0xbe81c5b0	-0.25346136
127	0x3e7edbb1	0.24888493

encoder_lstm.bias_hh_l0 f4 [128]
0	0x3e99ce20	0.30040073
1	0xbe54faa6	-0.2079874
2	0xbe2a3d28	-0.16624892
3	0xbe82caf5	-0.2554547
4	0x3ea3fcda	0.32028848
5	0xbd066c0c	-0.032817885
6	0x3e91da5a	0.28486902
7	0xbdfbdda7	-0.12298136
8	0x3e88cf58	0.2672069
9	0x3d8a2ddc	0.06747028
10	0xbe2280b0	-0.15869403
11	0xbe9db7b2	-0.3080421
12	0xbe68e8e3	-0.22745089
13	0xbd8a8dad	-0.06765304
14	0xbc8199d9	-0.01582043
15	0xbc105f56	-0.008811792
16	0xbd3b7428	-0.045765072
17	0x3dfcc65f	0.12342524
18	0xbe776f9a	-0.24163666
19	0xbe1f9b14	-0.15586501
20	0xbdecd422	-0.115638986
21	0x3e5e1ff7	0.21691881
22	0xbd70ad53	-0.058759045
23	0x3e3351ad	0.17511626
24	0x3dd6d377	0.104895525
25	0x3e1c5334	0.15266114
26	0xbe36a3a7	-0.17835866
27	0xbe3a63ba	-0.18202105
28	0x3ea95de0	0.33079433
29	0xbe34e8ec	-0.17666978
30	0xbe4bade8	-0.19890559
31	0x3e2c8817	0.16848789
32	0x3e2b2415	0.16712983
33	0x3c8266f2	0.015918229
34	0xbe91b598	-0.28458858
35	0xbda7da9b	-0.081959926
36	0x3d2e554e	0.04256182
37	0x3d954494	0.07288471
38	0x3dfbcf27	0.122953705
39	0xbdbc22e2	-0.09186341
40	0x3dd525d0	0.10407603
41	0x3d9788b5	0.07399122
42	0x3e67d293	0.22638921
43	0xbdb6f43a	-0.08933301
44	0xbd967a3b	-0.07347532
45	0xbe39e22b	-0.18152682
46	0x3dc3e421	0.095649965
47	0xbdeaa804	-0.11457828
48	0xbcf8e08a	-0.030380506
49	0xbe6cc078	-0.23120296
50	0x3cd8c7db	0.026462486
51	0x3cd2165a	0.025645424
52	0xbd249f4f	-0.04019099
53	0x3e641284	0.22272688
54	0xbe40e891	-0.18838717
55	0x3cab4064	0.020904727
56	0x3da3dfa0	0.080016375
57	0xbe85b54f	-0.2611489
58	0xbe57d2ce	-0.2107651
59	0xbe81b299	-0.25331572
60	0x3e60743a	0.21919337
61	0x3e25878c	0.16164988
62	0x3d7c1b1c	0.06154929
63	0x3dcb41ea	0.099246815
64	0x3e9446f8	0.28960395
65	0x3d7973e9	0.060901556
66	0x3dd38e79	0.10329909
67	0xbe5f604c	-0.21814078
68	0xbd05cdb6	-0.032666884
69	0xbe86ef14	-0.26354277
70	0xbe8beada	-0.27327615
71	0xbe35226e	-0.17688915
72	0x3e35c3a8	0.17750418
73	0x3dcdfc7a	0.10057922
74	0x3eb45c37	0.35226604
75	0x3d8db7be	0.06919812
76	0xbe8d25e9	-0.27567986
77	0x3e2d103c	0.16900724
78	0x3e4b507a	0.19854918
79	0xbe69c71f	-0.22829865
80	0x3e267e15	0.16259034
81	0xbe3c2742	-0.1837435
82	0x3e4e6571	0.20155884
83	0xbe3bca9d	-0.1833901
84	0x3e29aad1	0.16569068
85	0x3bf0e957	0.007352035
86	0xbdbd8e83	-0.092556976
87	0x3eba34e5	0.3636848
88	0xbe39577b	-0.18099777
89	0x3c98f24e	0.018670227
90	0xbceeecc8	-0.02916564
91	0xbcc5cb2e	-0.024144735
92	0x3e5e4641	0.21706487
93	0xbdc0f109	-0.09420974
94	0xbe38bd3a	-0.18040934
95	0xbc87ab7f	-0.016561268
96	0x3dc0e4b0	0.09418619
97	0xbe43019c	-0.19043583
98	0xbe27753d	-0.16353317
99	0x3d9af2d6	0.075658485
100	0x3e503be2	0.20335343
101	0x3dd76076	0.10516445
102	0x3e6ce7be	0.23135278
103	0x3c6669b8	0.014063291
104	0xbe4d41f5	-0.20044692
105	0xbd8a29f3	-0.067462824
106	0x3d84916e	0.06473051
107	0x3e314479	0.17311276
108	0x3d893f77	0.06701558
109	0xbe612f1c	-0.21990627
110	0x3e253d44	0.16136652
111	0xbbfaf0d8	-0.0076581053
112	0xbe144a0f	-0.14481376
113	0x3e8ca455	0.27469125
114	0x3b42085e	0.0029607038
115	0xbd9ec730	-0.07752836
116	0x3e25a5cc	0.16176528
117	0x3c171540	0.009221375
118	0xbd67907d	-0.05653428
119	0x3e97aed4	0.2962557
120	0xbe584957	-0.21121727
121	0x3dabc06e	0.083863124
122	0xbd616ec8	-0.05503729
123	0x3e2ba21a	0.16761056
124	0x3edaf6a6	0.42766303
125	0xbde9f6e9	-0.114240475
126	0xbdf7e004	-0.121032745
127	0x3e841758	0.2579906

encoder_lstm.weight_ih_l1 f4 [128, 32]
0	0xbd508779	-0.050910447
1	0xbd45500f	-0.048172053
2	0x3dc2b75d	0.0950763
3	0x3d735a20	0.05941212
4	0x3ec89d5e	0.39182562
5	0x3de55133	0.11197128
6	0xbeb60543	-0.3555089
7	0x3dcb8b7a	0.099387124
8	0xbdac352b	-0.084085785
9	0xbdde75d9	-0.108623214
10	0x3ec2109b	0.37903294
11	0xbe6b7e95	-0.22997506
12	0xbe07f92c	-0.13278645
13	0x3d064fe7	0.032791045
14	0x3c35428c	0.011063229
15	0x3d24e950	0.040261567
16	0x3d47a250	0.048738778
17	0xbda462a2	-0.08026625
18	0xbea5feef	-0.3242106
19	0xbd2303b7	-0.039798465
20	0x3e800eaa	0.25011188
21	0x3d19dd9c	0.03756486
22	0xbe3109b6	-0.1728886
23	0x3c8d5cfc	0.017256252
24	0x3de76cfc	0.11300084
25	0x3da5efcc	0.08102378
26	0x3e610d5f	0.21977757
27	0xbdda4b11	-0.10658849
28	0x3ee662b7	0.44997188
29	0xbe9c1c8d	-0.30490533
30	0x3e869106	0.2628252
31	0xba202f06	-0.00061105227
32	0x3e237ccf	0.1596558
33	0x3d8d972c	0.06913599
34	0xbe0b938e	-0.13630506
35	0x3e68877e	0.22707936
36	0x3e27f344	0.16401392
37	0xbc9a6025	-0.018844673
38	0xbe29747f	-0.16548346
39	0x3d93f0fa	0.07223697
40	0xbe316f11	-0.17327525
41	0xbe0d4e5f	-0.13799427
42	0x3df3f9fb	0.11912914
43	0x3d93616a	0.07196315
44	0x3d2649e8	0.040597826
45	0xbe12e3f0	-0.14344764
46	0xbdc99f35	-0.098448195
47	0x3d9b3e69	0.07580263
48	0xbe0bfba1	-0.13670208
49	0xbdd095de	-0.10184835
50	0xbcddbcf9	-0.027067648
51	0xbcafcf13	-0.021461045
52	0x3de1c02b	0.11022981
53	0xbe611da0	-0.21983957
54	0xbda66358	-0.08124417
55	0x3d853e06	0.06505971
56	0x3dafab86	0.085776374
57	0xbd6ff279	-0.05858085
58	0xbd5e0e6f	-0.054212984
59	0x3d39541c	0.04524623
60	0x3dea0d88	0.11428362
61	0xbd9bc582	-0.07606031
62	0xbe71f23c	-0.23627561
63	0xbde86106	-0.11346631
64	0x3d711e37	0.058866706
65	0x3db37045	0.08761648
66	0xbe902de0	-0.2816
67	0x3dd70736	0.10499422
68	0x3e563191	0.20917346
69	0x3eccdb01	0.40010837
70	0x3e508c74	0.20366079
71	0x3d5fdb8a	0.05465273
72	0xbc4183db	-0.011811222
73	0x3e021535	0.12703402
74	0x3d85902f	0.065216415
75	0x3d2f16a7	0.042746212
76	0xbe47fcf1	-0.19530083
77	0xbdfd951e	-0.123819575
78	0x3e64e511	0.22353007
79	0xbdd34bdd	-0.10317204
80	0xbdaef0db	-0.08542033
81	0x3d966117	0.07342737
82	0x3e980e21	0.2969828
83	0x3da39723	0.079878114
84	0x3e283326	0.16425762
85	0xbea5ef1a	-0.32408983
86	0xbd413765	-0.04717197
87	0xbe6ec96f	-0.23319028
88	0xbe8d529d	-0.2760209
89	0xbd2f30d6	-0.042771183
90	0xbe3ca93d	-0.18423934
91	0x3e30a328	0.17249739
92	0x3c6637b9	0.014051371
93	0xbeb3a45d	-0.35086337
94	0x3d62fc4c	0.05541639
95	0x3dc909e6	0.09816341
96	0x3d7e1cf6	0.062039338
97	0x3e8ddcfe	0.27707666
98	0xbe0c5415	-0.1370395
99	0x3e8dee56	0.27720898
100	0x3e9dda40	0.30830574
101	0x3e4e9201	0.20172884
102	0xbc32e560	-0.010918945
103	0x3dcccd1b	0.10000058
104	0xbe44678c	-0.19180125
105	0xbde151ca	-0.11001928
106	0x3e03a2d5	0.12855084
107	0xbd9e8f43	-0.07742169
108	0x3ec06429	0.37576416
109	0x3d11d642	0.035604723
110	0xbada18a6	-0.0016639426
111	0x3d56848e	0.052372508
112	0xbe2f3513	-0.1711009
113	0x3d4e4821	0.050361756
114	0x3dc3e376	0.09564869
115	0xbdff606d	-0.12469564
116	0x3bce1922	0.006289617
117	0xbdf9a1c8	-0.121890604
118	0x3e17f621	0.14839984
119	0x3e700290	0.23438478
120	0x3df79cc1	0.12090445
121	0xbab74b41	-0.0013984219
122	0xbd9bc227	-0.07605391
123	0x3e74ce67	0.23906861
124	0x3eb0fa57	0.34565994
125	0xbec1c494	-0.3784529
126	0x3e395d7b	0.18102066
127	0x3e6ad5a8	0.22933066
128	0x3dfe69b1	0.12422503
129	0x3d86f7d3	0.065902375
130	0xbe4447c0	-0.19167995
131	0xbca915ee	-0.02064034
132	0x3e86471f	0.26226136
133	0x3d32d993	0.043664526
134	0xbeb79318	-0.3585441
135	0x3d2bb595	0.041921217
136	0xbef8b631	-0.485765
137	0xbe0531cd	-0.13007279
138	0x3e8bbb6f	0.27291438
139	0xbda63881	-0.08116246
140	0x3d58abc2	0.052898176
141	0x3e83eec6	0.25768107
142	0x3eb2b9a8	0.3490727
143	0x3d766036	0.060150348
144	0xbce0ceff	-0.027442453
145	0x3d2a7d7c	0.041623577
146	0xbd9ae122	-0.07562472
147	0x3e9083c4	0.2822553
148	0xbcc48bd0	-0.023992449
149	0xbe35d8a0	-0.17758417
150	0xbd94e1ed	-0.072696544
151	0x3e8a984f	0.27069327
152	0x3e625f22	0.22106603
153	0x3d9267fd	0.071487404
154	0x3c4f85bb	0.012666161
155	0xbdb6acb8	-0.08919662
156	0x3d76dbb0	0.060268104
157	0xbe74d7dd	-0.2391047
158	0x3e2f17bf	0.17098902
159	0x3dde9239	0.108677335
160	0x3d6afa3c	0.05736755
161	0x3d32c41d	0.04364406
162	0xbe4b67f8	-0.1986388
163	0x3dc95b53	0.09831872
164	0xbda8384d	-0.082138635
165	0x3dd4cd82	0.1039076
166	0x3e3a4a53	0.18192415
167	0x3db7ae8d	0.0896884
168	0xbdca649d	-0.09882472
169	0xbea9e5dc	-0.3318318
170	0xbe0ee2b1	-0.13953663
171	0x3d36731a	0.044543363
172	0x3e53f6ea	0.20699659
173	0xbe6c982f	-0.23104928
174	0xbe6f40d8	-0.2336458
175	0x3e19717e	0.149847
176	0xbd307eed	-0.043089796
177	0x3e2d2e18	0.16912115
178	0x3e3f1527	0.18660413
179	0x3e0c0278	0.13672817
180	0xbe659e75	-0.22423728
181	0xbd72a156	-0.059235893
182	0x3e25cdfe	0.16191861
183	0x3cb74aa6	0.022374462
184	0xbc98ce23	-0.018652981
185	0x3d1f2dc7	0.038862016
186	0x3e36220d	0.17786427
187	0x3e880289	0.26564434
188	0xbe6cd769	-0.23129047
189	0x3e1638aa	0.14670053
190	0xbd5b6116	-0.053559385
191	0x3d879aa9	0.06621296
192	0x3e646382	0.22303584
193	0x3e7d5027	0.24737607
194	0xbda885fb	-0.0822868
195	0x3e122b19	0.14274253
196	0x3d7e9d40	0.062161684
197	0x3d262d37	0.040570464
198	0xbe585cee	-0.211292
199	0x3d84f5f6	0.06492226
200	0xbd64f418	-0.05589685
201	0x3d4859ba	0.048913695
202	0x3e8658fa	0.2623976
203	0xbe3bd033	-0.1834114
204	0xbb11f857	-0.0022273266
205	0xbd45a75e	-0.048255317
206	0x3d72fe70	0.05932468
207	0xbe08f45a	-0.13374463
208	0x3e9bdea0	0.30443287
209	0xbe022233	-0.12708358
210	0xbd31286d	-0.043251444
211	0xbc1a41dd	-0.009415117
212	0x3cacc1cb	0.021088501
213	0x3d6b8998	0.057504267
214	0xbe3573b4	-0.17719918
215	0x3e16deb7	0.14733396
216	0xbe0a4fa7	-0.13506947
217	0xbd20c051	-0.039245907
218	0x3a97a1d5	0.0011568615
219	0xbe836177	-0.25660297
220	0x3e6a5547	0.22884093
221	0x3c46e4f4	0.012139548
222	0x3c9dc177	0.01925729
223	0xbe35933c	-0.17731947
224	0x3ca572ce	0.020196345
225	0x3e5cf394	0.21577293
226	0xbd269ba0	-0.04067576
227	0x3e6eb94a	0.2331287
228	0x3e570397	0.20997463
229	0x3e0b0645	0.1357661
230	0x3e175778	0.1477946
231	0x3e9c5ef1	0.30541185
232	0xbe83905f	-0.25696084
233	0x3c286ef7	0.010280362
234	0xbda9ee3a	-0.08297391
235	0xbe0b977c	-0.13632005
236	0x3d93d638	0.07218593
237	0x3d55fecb	0.052244943
238	0x3cd09ff3	0.025466895
239	0xbd934ed9	-0.07192773
240	0x3e27f777	0.16402994
241	0xbdbf917a	-0.09353919
242	0xbc4cdbfd	-0.012503621
243	0xbda11a22	-0.078663126
244	0x3e291dc2	0.16515258
245	0xbdf31fdf	-0.11871313
246	0xbdd83dd2	-0.10558666
247	0xbe6e5b77	-0.23277079
248	0x3e36392a	0.17795244
249	0x3c8aacc1	0.016928079
250	0xbe520616	-0.20510134
251	0xbcdbadce	-0.026816275
252	0x3e7750e1	0.24151947
253	0xbe5ea292	-0.21741703
254	0x3e1ec5c5	0.1550513
255	0x3e81d517	0.25357887

encoder_lstm.weight_hh_l1 f4 [128, 32]
0	0xbdaaebdf	-0.0834577
1	0xbcf1066a	-0.029422004
2	0xbe32a26b	-0.1744477
3	0xbe401ebd	-0.18761726
4	0x3d929d86	0.071589515
5	0x3c8dce41	0.017310264
6	0xbd451fe6	-0.048126124
7	0xbded662d	-0.11591754
8	0xbd1e14b4	-0.038593963
9	0x3dcd3eba	0.1002173
10	0x3e60ce62	0.21953729
11	0x3e51afab	0.20477168
12	0xbca009f5	-0.019535998
13	0xbdee4041	-0.11633349
14	0x3e3ce2fc	0.18445963
15	0xbd422240	-0.047395945
16	0xbe734bf7	-0.23759447
17	0x3e1a81c9	0.15088572
18	0xbe313df7	-0.17308794
19	0xbb5148d5	-0.003193428
20	0x3e0921cf	0.13391803
21	0xbdb99a97	-0.09062689
22	0xbdb4b2f6	-0.088231966
23	0x3e33fa92	0.17576054
24	0x3d85f2e4	0.06540468
25	0xbe5e5751	-0.21712996
26	0x3c827ad7	0.015927715
27	0x3e3ee5a5	0.1864229
28	0xbe4ee6f9	-0.20205297
29	0x3d817e9f	0.06322979
30	0xbc50f445	-0.012753551
31	0xbe42b9ee	-0.19016239
32	0x3df651d4	0.12027326
33	0xbe268410	-0.16261315
34	0x3d232199	0.039826963
35	0xbd050aac	-0.03248088
36	0xbd85b4cd	-0.06528626
37	0x3da0cbac	0.07851347
38	0xbe4b0a84	-0.1982823
39	0x3d86d168	0.0658291
40	0x3dc70949	0.09718568
41	0x3d7301c6	0.059327863
42	0xbdb23369	-0.08701212
43	0x3dec8331	0.1154846
44	0x3d9cc3fb	0.07654568
45	0x3d36175e	0.04445588
46	0x3da5d90e	0.080980405
47	0x3a7d6ca6	0.0009667374
48	0x3e8ec8af	0.27887484
49	0x3e06d21d	0.1316609
50	0xbddf02aa	-0.1088918
51	0xbb08015e	-0.0020752768
52	0x3c8ada1a	0.016949702
53	0x3dee6666	0.11640625
54	0x3e05ffb1	0.1308582
55	0xbc930264	-0.017945476
56	0xbe1ea44b	-0.1549236
57	0x3e8e2892	0.27765328
58	0xbc9d389d	-0.019192034
59	0x3e0dbba9	0.13841118
60	0x3d2031b2	0.039109893
61	0xbe133e3a	-0.14379206
62	0x3cad1699	0.02112894
63	0x3e076cdb	0.13225119
64	0xbdf33d20	-0.11876893
65	0xbddbaf3a	-0.10726781
66	0xbe7df413	-0.24800138
67	0xbe12c7d8	-0.14334047
68	0xbe3e47fd	-0.18582149
69	0x3e21885d	0.15774675
70	0xbe24f790	-0.16110063
71	0xbdb975e2	-0.090556875
72	0x3e191f5c	0.14953369
73	0x3b5d1bf7	0.0033738592
74	0x3e88be57	0.26707718
75	0xbe02ebd6	-0.12785277
76	0x3e2e327a	0.17011443
77	0x3d5f8c6d	0.05457728
78	0xbccae06d	-0.024765218
79	0x3e52a64e	0.20571253
80	0x3eb21679	0.3478277
81	0x3dedf859	0.11619634
82	0x3d63a5c8	0.055578023
83	0xbd9cb273	-0.07651224
84	0xbb00dbd6	-0.0019662282
85	0xbd363dbb	-0.044492465
86	0x3dd46a06	0.10371785
87	0xbdbe6ffe	-0.092987046
88	0xbd8b0963	-0.067889
89	0x3e596b8e	0.21232435
90	0x3e109e14	0.14122802
91	0x3c370ab5	0.011171986
92	0x3e53de4b	0.20690267
93	0xbded2fad	-0.11581359
94	0x3be7470a	0.007058029
95	0xbe06909b	-0.131411
96	0xbd112f4c	-0.035445496
97	0x3da42221	0.08014322
98	0xbd90310f	-0.07040607
99	0xbe58d064	-0.21173245
100	0x3cee172a	0.02906378
101	0xbe8cfe60	-0.27537823
102	0xbe1a1d6c	-0.15050286
103	0xbe5daf13	-0.21648817
104	0x3e638e5f	0.22222279
105	0xbd866d1a	-0.06563778
106	0x3daa036f	0.08301436
107	0xbcf0dd22	-0.02940232
108	0x3e7ca2de	0.24671504
109	0x3e136a50	0.14396024
110	0x3de0af2c	0.109709114
111	0xbdff4f74	-0.12466326
112	0x3e2cb3a5	0.16865404
113	0x3e1d2f73	0.15350132
114	0xbde7203d	-0.11285446
115	0xbe44ae2f	-0.19207071
116	0x3e13cf33	0.14434509
117	0x3e33c7e8	0.17556727
118	0x3df1e75e	0.11811708
119	0xbe17ff71	-0.14843537
120	0x3d503add	0.050837386
121	0x3e867447	0.26260588
122	0x3d13bef7	0.03607079
123	0xbe5a2865	-0.21304472
124	0xbdaf85e0	-0.085704565
125	0xbe384680	-0.17995644
126	0xbcfac48f	-0.030611305
127	0x3d97fe7b	0.07421585
128	0x3d112387	0.035434272
129	0xbe7bcb3e	-0.2458925
130	0xbe493f68	-0.19653094
131	0xbd947b7a	-0.07250114
132	0xbd96aef2	-0.07357587
133	0xbe12ce20	-0.14336443
134	0xbd1206d9	-0.03565106
135	0x3d238182	0.03991843
136	0x3ce09996	0.027416985
137	0x3d45e38b	0.048312705
138	0x3d427d5a	0.047482826
139	0xbd6bb2a1	-0.0575434
140	0xbcbcfa96	-0.023068707
141	0x3e718896	0.2358726
142	0xbe7a35fb	-0.24434654
143	0x3e10b557	0.14131676
144	0x3ec42765	0.38311306
145	0xbdcea46c	-0.10089955
146	0x3c9c4b28	0.019078806
147	0xbe034164	-0.12817913
148	0x3de2d472	0.11075677
149	0x3d3f1fcf	0.046661194
150	0xbe84ab1d	-0.259118
151	0xbd8b2331	-0.067938216
152	0xbdfd9c24	-0.12383297
153	0x3e40fc10	0.18846154
154	0xbe5f2013	-0.21789579
155	0x3c703678	0.014661424
156	0x3e2167bb	0.15762226
157	0xbe8abbf8	-0.27096534
158	0x3a13fef0	0.00056455936
159	0x3eb38b7c	0.35067356
160	0xbe16f573	-0.14742069
161	0xbe37c036	-0.17944416
162	0xbd066edf	-0.03282058
163	0xbdaa5945	-0.08317808
164	0xbd426ecc	-0.047468945
165	0xbe7da850	-0.24771237
166	0xbea491e0	-0.32142544
167	0x3e950530	0.2910552
168	0x3e7fb535	0.24971469
169	0x3e9b3913	0.30316982
170	0x3cbc18d7	0.022961063
171	0xbe173181	-0.14764978
172	0x3e27ade9	0.16374935
173	0x3d86ce4c	0.06582317
174	0xbde3d9aa	-0.111255005
175	0x3cf16ac5	0.029469857
176	0x3e5a0e9d	0.21294637
177	0xbe7fbfeb	-0.24975555
178	0x3daf02b9	0.08545441
179	0xbcfe09d7	-0.031010551
180	0xbdb1e132	-0.08685531
181	0x3d94ff1c	0.07275221
182	0xbc5367f1	-0.0129031995
183	0x3d13310a	0.03593544
184	0x3d962d09	0.073328085
185	0x3e716fdd	0.23577829
186	0x3e3ce949	0.18448366
187	0xbe691b8a	-0.22764412
188	0xbdf5b78a	-0.11997898
189	0x3cd8bf75	0.026458481
190	0xbe786d11	-0.24260356
191	0xbdd13852	-0.1021582
192	0x3e76177a	0.24032393
193	0xbdc9209a	-0.098206714
194	0x3e07a054	0.13244754
195	0xbe4101b3	-0.18848304
196	0xbe635de6	-0.22203788
197	0x3e47f3c7	0.19526587
198	0xbda5444b	-0.080696665
199	0x3e15130e	0.1455805
200	0xbddffaa7	-0.1093648
201	0x3d9a48da	0.075334266
202	0x3e2306b8	0.15920532
203	0x3d91a5da	0.07111712
204	0x3e3edd1b	0.18639033
205	0x39b75eb4	0.0003497504
206	0xbe913dda	-0.28367501
207	0x3e4b494e	0.19852182
208	0xbd8fdd15	-0.0702459
209	0xbe6962ca	-0.22791591
210	0x3ce0c33e	0.027436849
211	0x3dae20c9	0.08502347
212	0x3db20162	0.0869167
213	0x3eaab7dd	0.33343402
214	0x3e21d5c9	0.15804209
215	0xbe045aba	-0.12925234
216	0xbe39ab5e	-0.18131778
217	0xbc19848a	-0.009369979
218	0xbeb1cd01	-0.34726718
219	0x3e07203e	0.13195893
220	0x3e623117	0.22089039
221	0xbe61898c	-0.22025126
222	0x3e7b4dfd	0.24541469
223	0x3d531024	0.051529065
224	0xbe6b6cab	-0.22990672
225	0xbd8f9411	-0.07010663
226	0x3db483bd	0.088141896
227	0x3e189f2e	0.14904472
228	0xbe84a6e2	-0.2590857
229	0x3e8011c0	0.25013542
230	0xbdcdf9cc	-0.100574106
231	0xbdedf3ba	-0.11618753
232	0xbd944c5a	-0.072411254
233	0xbe7c16bc	-0.24618047
234	0x3cf1ef15	0.029532949
235	0xbe237a84	-0.15964705
236	0x3bc723b9	0.0060772565
237	0xbdca453f	-0.09876489
238	0xbd9daeb5	-0.07699338
239	0x3dbfb854	0.0936133
240	0x3d237313	0.039904665
241	0x3d9fec8b	0.07808789
242	0x3d2a4817	0.041572656
243	0x3e4e46cf	0.20144199
244	0x3c93f814	0.018062629
245	0x3cf23c83	0.02956987
246	0x3be3d692	0.006953069
247	0x3ce7bb09	0.028287427
248	0x3e13b1e4	0.14423329
249	0x3d3eda2e	0.04659479
250	0xbd20875c	-0.03919159
251	0xbdbd3e63	-0.09240415
252	0xbe36189d	-0.17782827
253	0x3df97b1f	0.121816866
254	0x3dd938a7	0.10606509
255	0xbe8a04b0	-0.269567
