W3-Design/checkpoints/epoch_14.pt (torch, 384725 bytes, 24 tensors)

encoder_cnn.0.weight f4 [32, 3, 3]
0	0xbe44deb8	-0.19225585
1	0xbd669d36	-0.05630227
2	0xbe3ee467	-0.18641816
3	0x3e896f08	0.26842523
4	0xbe68893b	-0.227086
5	0x3e5e115e	0.21686313
6	0x3e2efd2c	0.17088765
7	0x3e4618c2	0.19345382
8	0x3e1d8301	0.15382005
9	0x3e55304b	0.20819204
10	0x3e68afbe	0.2272329
11	0x3da06cd1	0.07833255
12	0xbe7b946f	-0.24568342
13	0xbe8d9c7b	-0.27658448
14	0x3ca03a5d	0.01955908
15	0xbe38f534	-0.18062288
16	0x3e6e3b73	0.23264866
17	0xbd8d7f0f	-0.06909
18	0x3e320c30	0.17387462
19	0x3eab148e	0.3341412
20	0x3f09f0fe	0.5388335
21	0x3e1a36d6	0.15059981
22	0x3e801803	0.2501832
23	0xbeac2611	-0.33622792
24	0xbe306687	-0.17226611
25	0x3db9a94b	0.09065493
26	0xbddd046f	-0.10791861
27	0xbe1b8d96	-0.1519073
28	0x3d00c7ef	0.03144067
29	0xbe24a253	-0.16077547
30	0xbe1feb83	-0.15617184
31	0xbdd3d64b	-0.103436075
32	0xbd5e0178	-0.05420062
33	0x3d0d079a	0.034431078
34	0x3e0ac0d7	0.13550125
35	0xbdaab70b	-0.08335694
36	0x3cf062f7	0.029344065
37	0x3e82db78	0.25558066
38	0x3bfaf27c	0.007658301
39	0x3f01bf80	0.5068283
40	0xbdb0c76d	-0.086317874
41	0x3ec7b40d	0.39004555
42	0xbd303dd1	-0.043027703
43	0x3d40fca0	0.047115922
44	0xbed2978b	-0.41131243
45	0x3d84b4a7	0.06479769
46	0xbcf42c5a	-0.029806305
47	0x3ec8815e	0.391612
48	0xbe8663fa	-0.2624815
49	0xbe6485a5	-0.22316606
50	0x3e040c62	0.12895349
51	0x3e430179	0.1904353
52	0x3e82ab18	0.2552116
53	0xbe707e17	-0.234856
54	0xbd9be4a8	-0.07611972
55	0xbdb06a49	-0.08614022
56	0x3e960ad8	0.29305148
57	0x3e8069c3	0.2508069
58	0x3e51fe78	0.20507228
59	0xbda3dc64	-0.080010206
60	0xbd1501ad	-0.03637855
61	0x3e395816	0.18100008
62	0xbe8c2ec7	-0.27379438
63	0x3e20477e	0.15652272
64	0xbd9b62c6	-0.07587199
65	0x3e7a1ac0	0.24424267
66	0x3e7b1d80	0.24522972
67	0xbe89f457	-0.2694423
68	0xbee852db	-0.45375714
69	0xbd969d02	-0.073541656
70	0xbd0c6ff7	-0.034286465
71	0x3ed75665	0.420581
72	0x3da2b01e	0.07943748
73	0x3e48ef41	0.19622518
74	0xbd660242	-0.056154497
75	0xbe09a358	-0.13441217
76	0xbe9af062	-0.30261523
77	0x3e998516	0.2998435
78	0xbe97762e	-0.2958235
79	0x3e84816b	0.25879988
80	0xbd21781f	-0.039421197
81	0x3dd336b5	0.10313169
82	0x3eead9ec	0.45869386
83	0x3d7c7c13	0.061641764
84	0x3ea2ea9a	0.31819612
85	0xbd99f53a	-0.075174764
86	0xbe8e1660	-0.27751446
87	0x3dc54b17	0.09633463
88	0x3d236c65	0.039898295
89	0xbd3d23e6	-0.046176814
90	0xbd83167a	-0.064007714
91	0x3d22c3ef	0.039737638
92	0x3d62607b	0.055267792
93	0x3ea59496	0.32339925
94	0xbe6355c9	-0.22200693
95	0xbe8547d0	-0.2603135
96	0xbe6ed122	-0.23321965
97	0x3e278560	0.16359472
98	0xbd91f9e6	-0.071277425
99	0xbdfc40d6	-0.12317054
100	0xbd7a3776	-0.061088048
101	0x3e20bb6d	0.15696497
102	0xbc2f70eb	-0.010708074
103	0x3e819e3a	0.2531603
104	0xbd6d3130	-0.057908237
105	0xbea3b005	-0.3197023
106	0xbec571e2	-0.38563448
107	0xbd78aff3	-0.060714673
108	0xbe0fee2f	-0.14055704
109	0x3e7788a6	0.24173221
110	0x3dc41d18	0.09575862
111	0xbda5f512	-0.08103384
112	0xbeb37fad	-0.35058346
113	0xbeea8106	-0.45801562
114	0x3eb45d7a	0.35227567
115	0xbd392c04	-0.045207992
116	0xbe6560cc	-0.22400206
117	0x3e1c9f1b	0.15295069
118	0xbdc3c981	-0.09559918
119	0x3e24d74e	0.16097757
120	0x3dbdb9ab	0.09263929
121	0xbe668e48	-0.22515213
122	0xbe4390bc	-0.1909818
123	0xbd18993c	-0.03725551
124	0xbe2b5f13	-0.16735487
125	0xbe2a642d	-0.16639777
126	0xbe4c7536	-0.19966587
127	0xbe6eca6a	-0.23319402
128	0xbde81f9a	-0.113341525
129	0x3e9218d1	0.28534558
130	0xbdb8be75	-0.09020702
131	0xbe83ae3f	-0.25718877
132	0x3ddfb1b1	0.10922564
133	0x3e0c2571	0.13686158
134	0xbe3e8c66	-0.18608245
135	0x3ea0a123	0.31372938
136	0x3e1e642a	0.15467897
137	0xbe37eb04	-0.17960745
138	0xbee1f9ca	-0.44135886
139	0x3b129b36	0.0022370345
140	0xbe6db898	-0.23214948
141	0xbeddf508	-0.43351007
142	0xbd89dada	-0.06731196
143	0xbdc7b25f	-0.097508185
144	0x3e1befa0	0.15228128
145	0xbe4f805c	-0.20263809
146	0xbe86bd2d	-0.26316205
147	0x3e268ec9	0.16265406
148	0xbd08d313	-0.03340442
149	0xbd95cc0e	-0.07314311
150	0x3e65ed39	0.22453775
151	0xbdf897c2	-0.121383205
152	0x3e3f0117	0.1865276
153	0x3c86e7c6	0.01646794
154	0x3e6b4868	0.2297684
155	0x3cb8175a	0.022472072
156	0x3dbf3aad	0.093373634
157	0xbf019d6e	-0.50630844
158	0x3e31082d	0.17288275
159	0xbe39eb51	-0.18156172
160	0xbed93114	-0.42420256
161	0xbe241982	-0.16025355
162	0x3e46c4fe	0.19411084
163	0x3ddb678f	0.107131116
164	0xbe7f5672	-0.2493532
165	0xbe31ce6f	-0.17363904
166	0xbef2687b	-0.47345337
167	0xbe2fc0a2	-0.17163327
168	0x3de66383	0.11249449
169	0xbe78d7d1	-0.24301077
170	0xbda3dc0d	-0.08000956
171	0xbe0ea7b1	-0.13931157
172	0x3e0a4441	0.135026
173	0x3ddbe787	0.1073752
174	0xbe1a90f7	-0.15094362
175	0xbe9bb9ef	-0.30415294
176	0x3e25fe1b	0.16210215
177	0xbe860f18	-0.2618339
178	0x3d77efe4	0.060531512
179	0x3e203c21	0.15647937
180	0xbe04850d	-0.1294138
181	0xbe0915c6	-0.13387212
182	0xbdb7231d	-0.08942244
183	0xbdd7293c	-0.10505912
184	0x3e9c3bf9	0.30514506
185	0x3ddae427	0.10688048
186	0x3e8abe9e	0.27098554
187	0x3e65f80a	0.224579
188	0xbe1dd290	-0.15412354
189	0x3e93dbb9	0.28878573
190	0xbe0f8003	-0.14013676
191	0xbdd9b8db	-0.106309615
192	0xbe53adbe	-0.20671746
193	0x3e3bc56d	0.1833703
194	0x3cfd6ceb	0.030935725
195	0xbe4bae82	-0.19890788
196	0xbf024739	-0.5088993
197	0xbecb0267	-0.3965027
198	0x3e3f9bb4	0.1871174
199	0xbec78821	-0.38971046
200	0x3e09227c	0.13392061
201	0x3e4fa153	0.20276384
202	0x3e7511fa	0.23932639
203	0xbd193f4d	-0.037413884
204	0x3c649631	0.013951824
205	0xbe137d13	-0.14403181
206	0xbe7ce1c0	-0.24695492
207	0x3d78e61c	0.060766324
208	0xbe9c29dc	-0.30500686
209	0xbe8682f8	-0.26271796
210	0xbe54de3d	-0.20787902
211	0xbce6aea6	-0.02815945
212	0xbe03ff9e	-0.12890479
213	0x3d32bb6f	0.04363578
214	0x3e1cbd60	0.15306616
215	0x3e528a03	0.2056046
216	0x3e3104db	0.17287008
217	0x3e94019c	0.28907478
218	0x3d95ccef	0.073144786
219	0x3dcde53e	0.1005349
220	0x3caef90d	0.021358991
221	0xbe52c7ba	-0.20584002
222	0xbda76597	-0.081736736
223	0xbd1ea59a	-0.03873215
224	0x3c4d4e75	0.012530913
225	0x3f04fcde	0.51948345
226	0x3e83f4eb	0.25772795
227	0x3f06184c	0.52380824
228	0x3e40b657	0.18819557
229	0x3e363748	0.17794526
230	0xbd79eed6	-0.061018787
231	0xbed4e70a	-0.4158252
232	0xbd54b3d5	-0.051929314
233	0x3e601741	0.2188387
234	0xbef04f81	-0.46935657
235	0xbd6fc1b1	-0.058534328
236	0xbe3219a3	-0.17392592
237	0x3eaa4d28	0.3326199
238	0x3e3247c4	0.17410189
239	0xbe3d9f0c	-0.18517703
240	0x3eaca342	0.33718306
241	0x3c3ceaa9	0.011530557
242	0xbdc74a2f	-0.09730946
243	0xbe40df66	-0.1883522
244	0x3cddacd0	0.027059942
245	0xbd0487b2	-0.03235597
246	0xbda6048c	-0.08106336
247	0xbd65e45b	-0.05612598
248	0x3e6effe5	0.23339804
249	0xbde34c5b	-0.11098548
250	0x3eb3bbeb	0.35104308
251	0x3dd7cffd	0.105377175
252	0x3e64e97a	0.22354689
253	0xbd441fff	-0.047882076
254	0x3b5741d3	0.003284563
255	0xbd2d170f	-0.04225832

encoder_cnn.0.bias f4 [32]
0	0xbe83808a	-0.25684005
1	0xbe046dd9	-0.12932529
2	0x3f875954	1.0574136
3	0xbf894f55	-1.0727335
4	0xbd6325cd	-0.05545597
5	0xbcc23a04	-0.023709305
6	0xbf4ec590	-0.80770206
7	0xbe528cc6	-0.20561513
8	0xbdad4779	-0.08460898
9	0xbea09865	-0.31366268
10	0xbd82613b	-0.063662015
11	0xbd3c5a53	-0.045984577
12	0x3d840924	0.06447056
13	0xbeef109c	-0.4669236
14	0xbf2adfba	-0.6674763
15	0x3ed61150	0.41810083
16	0xbf2e741f	-0.68145937
17	0x3ea32fea	0.31872493
18	0x3d6c281f	0.05765545
19	0xbf288344	-0.65825295
20	0xbf1e34f4	-0.6179955
21	0x3f252916	0.6451582
22	0x3d05eff1	0.03269953
23	0xbf136f71	-0.5759192
24	0xbee281dd	-0.44239703
25	0x3ed1458f	0.40873381
26	0xbf223c62	-0.63373387
27	0xbf44d007	-0.76879925
28	0xbf3767b4	-0.71642613
29	0xbe9b8b48	-0.303797
30	0xbe6dda0d	-0.23227711
31	0xbd031c82	-0.03200961

encoder_cnn.2.weight f4 [64, 32, 3]
0	0xbe4a8205	-0.19776161
1	0x3ca2a57f	0.019854305
2	0x3b8c89a5	0.0042888694
3	0x3e4fdcb0	0.2029903
4	0x3e1714d5	0.1475404
5	0x3e575b2a	0.2103087
6	0x3e9380c7	0.28809187
7	0x3de2c64b	0.11072978
8	0x3cb14190	0.021637708
9	0x3da243b8	0.079230726
10	0xbe991436	-0.29898232
11	0xbc8614c4	-0.016367324
12	0x3d9eb8d6	0.077500984
13	0x3d8e8e9b	0.069607936
14	0xbdcf64d5	-0.10126654
15	0xbe236c89	-0.15959372
16	0xbde99f24	-0.11407307
17	0xbe28a475	-0.16468985
18	0x3e9af187	0.30262396
19	0x3d433c76	0.047665082
20	0x3e99273d	0.2991275
21	0xbe382a87	-0.17984973
22	0xbe3468a8	-0.17618048
23	0xbe8d89cf	-0.27644202
24	0x3e7a6b1d	0.24454923
25	0xbd72b01f	-0.059249993
26	0x3deece78	0.116604745
27	0x3dd8ba87	0.10582452
28	0xbc957b37	-0.01824723
29	0x3e3c0456	0.18361029
30	0xbdc82b01	-0.09773827
31	0x3cf39f81	0.029739143
32	0xbcb33ec3	-0.021880513
33	0x3e19a8da	0.15005818
34	0x3d0679eb	0.032831114
35	0xbe2dc152	-0.16968277
36	0xbd807303	-0.06271937
37	0xbe64ea6d	-0.22355051
38	0xbe0975aa	-0.13423792
39	0x3e018706	0.12649164
40	0x3ddac309	0.10681731
41	0x3dcb2ca5	0.09920625
42	0x3df27d15	0.11840264
43	0xbd72dedf	-0.059294578
44	0x3dcb3b8b	0.09923466
45	0x3e75421d	0.23951001
46	0x3e51b0ca	0.20477596
47	0xbd8d552e	-0.06901012
48	0x3e0278d2	0.12741402
49	0x3e316302	0.17322925
50	0x3dfabf2d	0.12243495
51	0x3e66e783	0.22549252
52	0x3ddb0f96	0.10696332
53	0xbdb6355b	-0.088968955
54	0xbe4b3b6e	-0.1984689
55	0xbe19009b	-0.14941637
56	0xbe38c972	-0.18045595
57	0xbd8edeb1	-0.06976069
58	0xbdf674a6	-0.12033968
59	0x3df79b9a	0.120902255
60	0x3d1a5aaf	0.03768414
61	0xbddf748f	-0.10910904
62	0x3dd7dd1e	0.10540222
63	0x3c8ce14b	0.017197272
64	0x3b539ccb	0.00322895
65	0xbe3f70cc	-0.18695372
66	0x3e81ab5b	0.25326046
67	0x3cbd94bd	0.023142213
68	0x3de1c352	0.110235825
69	0xbe0edf2c	-0.13952321
70	0xbe0a4d3d	-0.13506027
71	0xbc9be2bf	-0.01902902
72	0x3ebeb9b7	0.37251064
73	0x3d199d3b	0.037503462
74	0x3ed0ece9	0.40805748
75	0x3d80ac1d	0.06282828
76	0x3e2d69d8	0.16934907
77	0xbdfa1c63	-0.122124456
78	0xbe14a79c	-0.14517063
79	0x3c867966	0.01641531
80	0xbd0ea4cd	-0.034825135
81	0x3dc617e5	0.09672526
82	0xbd495034	-0.049148753
83	0xba3f7b5f	-0.00073044555
84	0xbe85e9d3	-0.26154956
85	0xbeca5313	-0.39516506
86	0xbe4db286	-0.20087633
87	0x3de6d210	0.11270535
88	0xbe6196bf	-0.22030161
89	0x3d1b6bad	0.037944485
90	0x3eadf6eb	0.33977446
91	0x3da0c889	0.07850749
92	0x3cb10321	0.021607937
93	0xbd80f31c	-0.062963694
94	0xbae0026b	-0.0017090564
95	0xbc797dd7	-0.015227756
96	0xbd6ba59c	-0.057530984
97	0xbc5aa83b	-0.013345773
98	0x3d999175	0.07498447
99	0xbda66853	-0.08125367
100	0xbd74cd82	-0.0597663
101	0xbce43769	-0.027858453
102	0xbeffd37c	-0.49966037
103	0xbe759ebb	-0.23986332
104	0xbe3e55f0	-0.1858747
105	0xbd83a91f	-0.06428742
106	0x3cefef78	0.029288992
107	0xbdba4320	-0.09094834
108	0xbea28fec	-0.3175043
109	0xbe93b8d8	-0.28851962
110	0xbe5d4c92	-0.2161124
111	0xbd380da3	-0.04493488
112	0xbbbbf5ad	-0.005736074
113	0x3d91665b	0.07099601
114	0x3d708e93	0.05872972
115	0xbe0296e0	-0.12752867
116	0xbe42def3	-0.19030361
117	0xbe777282	-0.24164775
118	0x3d9f4ecf	0.077787034
119	0x3c1d0191	0.009582893
120	0x3dc3cb39	0.09560246
121	0xbe4b407b	-0.19848816
122	0xbd461e1e	-0.048368566
123	0x3cc5c898	0.024143502
124	0x3d198dad	0.03748863
125	0xbc7bb009	-0.015361794
126	0xbd53a7ec	-0.051673815
127	0xbd9b9def	-0.07598483
128	0xbd9d1058	-0.07669133
129	0xbeaf714f	-0.34266135
130	0xbe385bfe	-0.18003842
131	0xbef4708f	-0.47742125
132	0xbbc8d624	-0.006129043
133	0xbc814fea	-0.015785176
134	0xbd32a7a9	-0.043616924
135	0xbd12e032	-0.03585834
136	0x3c8334d6	0.016016405
137	0x3d235047	0.03987148
138	0xbdfa8c01	-0.12233735
139	0xbd5a3583	-0.05327369
140	0xbe134637	-0.14382254
141	0xbe2cbed3	-0.16869669
142	0xbd9e48f7	-0.07728761
143	0xbe2a2688	-0.16616261
144	0xbe359a56	-0.17734656
145	0x3d45a4cc	0.048252866
146	0xbd7e2fe5	-0.062057395
147	0xbea699b7	-0.3253915
148	0xbeb8fbc7	-0.3612959
149	0xbeb22118	-0.34790874
150	0x3b54e5cb	0.00324856
151	0x3cf64546	0.030062329
152	0x3d3547f5	0.044258077
153	0x3ddc163e	0.1074643
154	0x3d883718	0.06651133
155	0x3d966c63	0.07344892
156	0xbcf49eee	-0.02986094
157	0xbc1bc99d	-0.009508518
158	0xbcf541e1	-0.02993864
159	0xbe9a2c30	-0.30111837
160	0xbe8bb982	-0.2728997
161	0xbe8ebb3c	-0.27877223
162	0xbcae2662	-0.021258537
163	0xbde38e74	-0.11111155
164	0xbdf1bc8a	-0.11803539
165	0x3d328f1c	0.04359351
166	0xbd1612b3	-0.036638927
167	0x3cc031d2	0.023461256
168	0xbd054a2d	-0.032541443
169	0x3d5a090b	0.05323128
170	0x3d4bf02c	0.049789593
171	0xbe7f1118	-0.24908864
172	0x3d20c695	0.039251883
173	0x3d889368	0.066687405
174	0xbd380008	-0.044921905
175	0xbd35656e	-0.044286184
176	0xbe411eb2	-0.18859366
177	0xbe44d7c3	-0.19222932
178	0xbdab2051	-0.08355773
179	0xbd96ce16	-0.073635265
180	0xbe347c73	-0.17625599
181	0xbd9bd529	-0.076090164
182	0x3d88635a	0.06659575
183	0xbc2ff0e6	-0.010738587
184	0xbdd7d258	-0.10538167
185	0xbc29d221	-0.01036504
186	0xbe0b06b5	-0.13576777
187	0xbde02d95	-0.10946194
188	0xbe366c03	-0.1781464
189	0xbe2cf3de	-0.16889903
190	0xbe2efc44	-0.17088419
191	0xbe62b75a	-0.22140256
192	0x3e9ef2f0	0.31044722
193	0x3e467846	0.19381818
194	0xbd52803b	-0.05139182
195	0x3e206152	0.15662125
196	0x3eaee5ac	0.341596
197	0xbe66550f	-0.22493385
198	0xbe4bdd87	-0.19908725
199	0xbe59bf3a	-0.21264353
200	0xbe9fee5e	-0.31236547
201	0xbbcabd24	-0.006187098
202	0xbe25271b	-0.16128199
203	0xbdc65d48	-0.09685761
204	0xbe4d0fa9	-0.20025505
205	0xbec7e53d	-0.39042082
206	0xbf5b8cfa	-0.8576199
207	0xbd9868a8	-0.074418366
208	0x3edb74a3	0.42862424
209	0xbde83caa	-0.11339696
210	0xbdb76671	-0.08955086
211	0x3e396663	0.18105464
212	0x3d3db486	0.04631474
213	0x3c973f97	0.01846294
214	0x3e08441d	0.13307233
215	0xbef2294f	-0.4729714
216	0x3d8048c7	0.06263881
217	0xbe5d27b3	-0.21597175
218	0xbda3f774	-0.08006182
219	0x3e60d98b	0.21957986
220	0xbe04c11c	-0.1296429
221	0xbe84b2a2	-0.25917536
222	0xbd5e8b8b	-0.054332297
223	0x3ddd1aef	0.10796153
224	0xbe008a81	-0.12552835
225	0xbdeb93b7	-0.11502784
226	0xbbfdf436	-0.0077500595
227	0xbe935920	-0.28778934
228	0xbe9889be	-0.2979259
229	0xbe09dadf	-0.13462399
230	0xbdd17bc7	-0.10228687
231	0xbee97f99	-0.45605162
232	0xbe96c9f8	-0.29450965
233	0xbea47d75	-0.32126966
234	0x3ec8e0e0	0.39234066
235	0x3dad9f38	0.08477634
236	0xbe6d7d0c	-0.23192233
237	0xbd5397e0	-0.05165851
238	0xbd8310e8	-0.06399709
239	0xbeb2e074	-0.3493687
240	0x3e67ac83	0.22624402
241	0x3c99e2e5	0.01878495
242	0xbeb5af0a	-0.35485107
243	0x3d621f9f	0.055205937
244	0xbe2ab0d1	-0.16669013
245	0xbe9e34aa	-0.30899554
246	0xbeece3ab	-0.46267447
247	0xbed9b90c	-0.42523992
248	0xbe15e031	-0.14636303
249	0xbe89bce4	-0.26901925
250	0x3d2ef4a4	0.042713776
251	0x3cc5b0b5	0.024132112
252	0x3e9084a2	0.2822619
253	0x3e410606	0.18849954
254	0xbe4f822f	-0.20264505
255	0xbe705c10	-0.23472619

encoder_cnn.2.bias f4 [64]
0	0xbdcbf64b	-0.09959086
1	0xbe15a8b7	-0.14615141
2	0xbdd876aa	-0.105695084
3	0x3bc37464	0.0059648026
4	0x3e2a3742	0.16622642
5	0x3d999fc9	0.0750118
6	0xbe735832	-0.23764113
7	0xbd4d6103	-0.050141346
8	0xbe419ab0	-0.18906665
9	0xbc81c6eb	-0.015841922
10	0x3e07de8d	0.1326849
11	0xbe3bfc1b	-0.1835789
12	0x3dbf0a9f	0.09328198
13	0xbdbea1fc	-0.0930824
14	0xbe1f1f44	-0.1553927
15	0xbd4489cb	-0.047982972
16	0x3e5ae862	0.2137771
17	0x3ce551d6	0.027993124
18	0xbdfd161f	-0.12357735
19	0xbdb45fc1	-0.08807326
20	0xbe12c0da	-0.1433138
21	0x3e186de6	0.14885673
22	0x3e3f2df8	0.1866988
23	0x3eb5a3a3	0.35476407
24	0xbe2bd674	-0.16781026
25	0x3dc2281c	0.094803065
26	0xbe5fd55c	-0.21858734
27	0xbdd28d9e	-0.102809176
28	0x3e41ab35	0.18912967
29	0xbdfbfa94	-0.12303653
30	0xbe47892b	-0.19485919
31	0xbeafbf69	-0.34325722
32	0xbe1f5b58	-0.15562189
33	0x3d9ebba4	0.07750633
34	0x3e4ce74b	0.20010106
35	0xbdf9fc2f	-0.12206303
36	0xbe02babb	-0.12766545
37	0xbe821424	-0.2540599
38	0x3e3f9e47	0.18712722
39	0xbae0fa56	-0.001716445
40	0xbe440288	-0.1914159
41	0xbee357c8	-0.4440291
42	0x3e0cd0ca	0.13751522
43	0xbe17a0d9	-0.14807452
44	0xbde6bddb	-0.11266681
45	0xbecb59fd	-0.39717093
46	0xbe540336	-0.2070435
47	0xbe2a0344	-0.16602808
48	0xbe71575b	-0.2356848
49	0x3e31a693	0.173487
50	0xbeb5bdd8	-0.35496402
51	0xbeb8e6fd	-0.3611373
52	0xbe8e537e	-0.27798074
53	0xbd698a3b	-0.057016592
54	0xbd1a9263	-0.03773726
55	0x3e0db93c	0.13840193
56	0xbd65587a	-0.05599258
57	0xbe374486	-0.17897233
58	0xbe11c3a6	-0.1423479
59	0xbe028728	-0.1274687
60	0xbe5ae24c	-0.21375388
61	0x3e457e42	0.19286445
62	0xbe94ab1d	-0.290368
63	0xbe60edf4	-0.21965772

encoder_lstm.weight_ih_l0 f4 [128, 64]
0	0x3ea3a764	0.31963646
1	0x3d48d84c	0.0490344
2	0x3e02ce2e	0.12773964
3	0xbde479c1	-0.11156035
4	0x3e8673ea	0.2626031
5	0x3e6a227e	0.2286472
6	0xbc174237	-0.009232095
7	0x3e466195	0.19373162
8	0x3e922a4c	0.28547895
9	0x3d59abfe	0.05314254
10	0x3e329906	0.17441186
11	0xbea68675	-0.32524458
12	0x3e37cd4f	0.17949413
13	0xbe12791b	-0.1430401
14	0x3d16bf35	0.036803443
15	0x3e4b2185	0.19837005
16	0x3e8b2d80	0.2718315
17	0xbe548655	-0.20754369
18	0xbd967080	-0.073456764
19	0x3c56eb6b	0.013117651
20	0xbc4cb5d6	-0.012494525
21	0x3d65d20f	0.05610853
22	0x3f217571	0.63069826
23	0xbf33b64f	-0.70200056
24	0x3ee9c5e2	0.45658785
25	0x3e3aa8d2	0.18228462
26	0xbe9a4c40	-0.301363
27	0x3df9a506	0.12189679
28	0xbe9cb32c	-0.30605447
29	0xbdccf1fa	-0.10007091
30	0x3e4ac4ae	0.1980159
31	0x3e182e7e	0.14861485
32	0x3c789e13	0.015174407
33	0x3e71c506	0.23610315
34	0xbd4930da	-0.049118854
35	0x3d37dac8	0.04488638
36	0x3f0e1b82	0.55510724
37	0xbd429da7	-0.04751363
38	0x3dd4d09a	0.1039135
39	0xbe01c596	-0.1267303
40	0x3d80daeb	0.06291755
41	0x3e2f8856	0.17141852
42	0xbd2a94ce	-0.041645817
43	0x3de28a8b	0.11061581
44	0xbe87d3c0	-0.2652874
45	0x3e417163	0.1889091
46	0xbd7a83a6	-0.061160706
47	0x3e6b4c10	0.22978234
48	0x3e992444	0.2991048
49	0xbcc4aef8	-0.024009213
50	0x3d009894	0.03139551
51	0x3d1809dd	0.03711878
52	0x3e3f057a	0.18654433
53	0xbd199f03	-0.03750516
54	0x3de56f3b	0.11202856
55	0xbe261434	-0.16218644
56	0xbaeb392f	-0.0017946119
57	0xbe51209c	-0.20422596
58	0xbd6312c7	-0.05543783
59	0xbd2bc367	-0.041934397
60	0xbd3332ad	-0.0437495
61	0x3dcbf774	0.09959307
62	0xbdb5a0fe	-0.088685974
63	0xbde20ead	-0.110379554
64	0xbe3cc4ec	-0.18434495
65	0x3c583f98	0.013198756
66	0xbe8b522b	-0.27211127
67	0xbe020b8b	-0.12699716
68	0x3d18cca0	0.03730452
69	0xbe6b0a43	-0.22953133
70	0x3c42e895	0.011896272
71	0x3e461b0f	0.1934626
72	0x3debd356	0.115149185
73	0x3e20b939	0.15695657
74	0x3c503299	0.012707376
75	0xbe09a154	-0.13440448
76	0x3d23d4d2	0.039997883
77	0xbcd44fcc	-0.025916956
78	0x3dbb8294	0.09155765
79	0x3e6df5d7	0.23238312
80	0x3eb193f8	0.34683204
81	0x3d5735e4	0.05254163
82	0xbe5b5d3c	-0.21422285
83	0xbd448402	-0.047977455
84	0x3e53c36e	0.2068002
85	0x3e8d9282	0.2765084
86	0xbe8c38b0	-0.27387
87	0x3c9db358	0.019250557
88	0x3e578a87	0.21048938
89	0xbea12059	-0.31469992
90	0x3dc38592	0.09546961
91	0x3dc47577	0.09592717
92	0x3e42a017	0.19006382
93	0xbd68ae88	-0.05680707
94	0xbef3461a	-0.4751442
95	0x3db174dc	0.08664867
96	0x3e469c09	0.1939546
97	0x3e119754	0.14217883
98	0xbd79b890	-0.06096703
99	0xbde0c3a8	-0.109748185
100	0xbe85db88	-0.26144052
101	0xbdf2a5ff	-0.118480675
102	0x3eb03b30	0.34420156
103	0x3b22f591	0.0024865607
104	0xbd69824d	-0.05700903
105	0x3ca778f0	0.02044341
106	0x3e503252	0.20331696
107	0xbe271528	-0.16316664
108	0x3edb5a1a	0.4284218
109	0x3e6bad9c	0.23015445
110	0x3e95311b	0.29139027
111	0xbd00b806	-0.0314255
112	0xbe0024d9	-0.12514056
113	0xbd01817a	-0.03161762
114	0xbdaa2f85	-0.08309845
115	0x3e2f24ae	0.17103836
116	0xbe28e91b	-0.16495173
117	0xbd8b9adb	-0.06816646
118	0xbd820836	-0.06349222
119	0xbb302d9c	-0.0026882654
120	0x3d6b0ed8	0.057387203
121	0x3c54c0a0	0.0129853785
122	0x3e0c7b81	0.13718988
123	0xbe1bd702	-0.15218738
124	0x3d8e9b8d	0.06963263
125	0xbcb001bc	-0.021485202
126	0xbedb1a56	-0.4279353
127	0xbe4173d8	-0.18891847
128	0x3d2d46bc	0.042303786
129	0xbd824f3f	-0.06362771
130	0x3e29fd32	0.16600493
131	0xbbfac217	-0.007652532
132	0x3e874400	0.26419067
133	0x3e1b7b8b	0.15183847
134	0x3e67b69c	0.22628254
135	0x3d5d372e	0.0540077
136	0xbd8700e9	-0.065919705
137	0x3e1040f2	0.14087275
138	0x3e05026b	0.12989204
139	0xbda5af64	-0.08090094
140	0xbe03a734	-0.12856752
141	0xbdf87d7e	-0.12133311
142	0x3b0fbbff	0.0021932123
143	0x3d95f392	0.07321848
144	0x3e297ba3	0.1655107
145	0x3e8ee2d2	0.27907425
146	0xbd2a5aa1	-0.041590337
147	0x3e551857	0.20810066
148	0x3deb401e	0.11486839
149	0xbcc166ee	-0.023608651
150	0x3e254fc8	0.16143715
151	0xbe8a008b	-0.2695354
152	0xbe1a8562	-0.15089944
153	0x3cf09205	0.029366503
154	0x3e7cdd58	0.24693811
155	0x3da441e0	0.08020377
156	0x3d49baf6	0.049250565
157	0x3dff311f	0.12460541
158	0xbe8dce9e	-0.276967
159	0xbb9e9485	-0.0048394823
160	0xbe3129e2	-0.17301133
161	0xbc3e1f45	-0.011604135
162	0x3cd3e7a8	0.025867298
163	0x3cbe084a	0.023197312
164	0x3cb0b850	0.021572262
165	0xbd8b3b13	-0.06798377
166	0xbe02d576	-0.12776741
167	0x3cb1d229	0.021706657
168	0x3eb3a4b1	0.35086587
169	0x3dd2a049	0.10284478
170	0x3cd74ff9	0.026283251
171	0x3dcdddf4	0.100521
172	0x3e97f762	0.29680926
173	0xbf2253e9	-0.63409287
174	0x3e5b61ec	0.21424073
175	0xbdedd812	-0.11613478
176	0x3ceb83f2	0.02874944
177	0x3e066627	0.13124906
178	0x3e836135	0.256601
179	0x3dbebbc5	0.09313158
180	0xbdc128b1	-0.094315894
181	0xbd2b3653	-0.041799854
182	0x3e841105	0.25794235
183	0x3e3022d7	0.1720079
184	0x3b581ad1	0.0032974968
185	0x3d21577f	0.039390083
186	0x3c2e828b	0.010651241
187	0xbcfd0c93	-0.030889785
188	0xbe03f675	-0.12886985
189	0xbe2a5b4d	-0.16636391
190	0x3db929aa	0.0904115
191	0xbdb7d284	-0.089756995
192	0xbe6c8c21	-0.2310033
193	0x3e71f0c9	0.23627008
194	0x3e1d4ef3	0.15362148
195	0x3dc8a97d	0.09797952
196	0x3d843788	0.06455904
197	0xbd727231	-0.059190933
198	0xbcfae88a	-0.030628461
199	0xbe2a38f0	-0.16623282
200	0x3bc696af	0.0060604434
201	0x3d1a0d24	0.037610188
202	0xbe0ee487	-0.13954364
203	0x3f02e7e5	0.5113509
204	0x3ec676d6	0.3876254
205	0xbe3026dc	-0.17202324
206	0xbd8a0f25	-0.0674117
207	0x3d8f15be	0.06986569
208	0xbeb5f490	-0.3553815
209	0x3ea1d59f	0.31608292
210	0xbb19792c	-0.0023418171
211	0x3de2125a	0.110386565
212	0x3c71f17e	0.014767049
213	0x3e99748e	0.29971737
214	0x3ed8d7bc	0.42352092
215	0x3d1beff7	0.038070645
216	0x3ee1d784	0.44109738
217	0xbe4caf20	-0.1998868
218	0xbd80b1f7	-0.06283944
219	0x3e28c3a4	0.16480881
220	0xbd886d6a	-0.06661494
221	0x3e00181c	0.12509197
222	0xbe421a4a	-0.18955341
223	0x3db35d53	0.087580346
224	0xbec09024	-0.3760997
225	0xbeaf96b6	-0.3429467
226	0x3db9f6e6	0.09080295
227	0xbc0f66f8	-0.008752577
228	0x3bb2e6cb	0.0054596416
229	0xbe51a17b	-0.20471756
230	0xbe8b158c	-0.27164876
231	0x3d98ab1e	0.07454513
232	0x3e4a9d4a	0.19786564
233	0x3e5eabfa	0.21745291
234	0x3d5002d0	0.050783932
235	0x3ec9c88f	0.39410827
236	0xbe1370b6	-0.14398465
237	0x3ea36ded	0.31919804
238	0x3de790bf	0.11306905
239	0x3d8c1e62	0.068417326
240	0x3d9dcb01	0.077047355
241	0x3e44ccb7	0.19218718
242	0xbd831613	-0.06400695
243	0x3d918cd7	0.07106941
244	0x3e2be5f4	0.16786939
245	0x3ce85414	0.028360404
246	0xbbfd2a32	-0.0077259773
247	0xbd111710	-0.035422385
248	0x3d96f679	0.0737123
249	0x3e3a8a84	0.18216902
250	0x3e8cc1bd	0.2749156
251	0xbdb4692e	-0.08809124
252	0xbe17ab0c	-0.14811343
253	0xbe1382d6	-0.14405379
254	0xbedb7ac5	-0.42867103
255	0xbe631ed7	-0.22179733

encoder_lstm.weight_hh_l0 f4 [128, 32]
0	0x3dbba2fd	0.09161947
1	0x3d964877	0.0733804
2	0xbe1c79d2	-0.15280846
3	0x3f064b3e	0.5245856
4	0x3e115cf1	0.1419561
5	0xbceac683	-0.02865911
6	0xbc853d7e	-0.016264673
7	0xbde35167	-0.11099511
8	0x3d6ad713	0.057334017
9	0x3ebf53f2	0.37368733
10	0x3e02b4b9	0.12764253
11	0xbee0f200	-0.4393463
12	0x3cdeb8e1	0.027187767
13	0xbdca0d14	-0.09865776
14	0xbe12a0b6	-0.14319119
15	0xbd00c929	-0.03144184
16	0x3d434ac5	0.047678728
17	0xbea12c5b	-0.31479153
18	0x3e147c7b	0.1450061
19	0xbdaff349	-0.08591325
20	0x3f0812e4	0.53153825
21	0x3e616c3b	0.22013943
22	0x3ec5ba85	0.38618866
23	0xbd37f767	-0.044913676
24	0xbe1a4e38	-0.150689
25	0xbf847610	-1.034853
26	0xbe03f4e4	-0.12886387
27	0xbe12dcfe	-0.14342114
28	0x3ddf35b8	0.10898918
29	0x3f053d60	0.52046776
30	0xbecee535	-0.40409246
31	0xbeb4c981	-0.35309985
32	0xbde63310	-0.11240208
33	0x3e3d1ac1	0.18467237
34	0xbf0c797f	-0.5487289
35	0x3ed65e0c	0.41868627
36	0x3e534951	0.20633437
37	0xbd06af12	-0.032881804
38	0x3d0885f7	0.033330884
39	0xbe503645	-0.20333202
40	0x3ea0be96	0.31395406
41	0xbc1321d9	-0.008980238
42	0x3dc21cc6	0.09478144
43	0xbd323d37	-0.04351541
44	0x3cdf4ea3	0.027259177
45	0x3f32a642	0.6978494
46	0x3e8ae25a	0.27125818
47	0x3dd8ec02	0.1059189
48	0xbce37760	-0.027766883
49	0x3e57bead	0.21068831
50	0x3e85ca55	0.2613093
51	0xbe011fc8	-0.1260978
52	0xbd8e603f	-0.06951951
53	0xbd307648	-0.04308155
54	0xbdf9277c	-0.12165734
55	0xbd02da52	-0.031946488
56	0x3dbdb4c2	0.092629924
57	0x3e26dc77	0.16295038
58	0xbca65b64	-0.02030725
59	0x3d95fd03	0.07323649
60	0x3e2ca2d5	0.1685899
61	0xbe320ed6	-0.17388472
62	0xbd90108d	-0.07034407
63	0xbcafaf7a	-0.021445978
64	0xbe930496	-0.28714436
65	0x3e90cba0	0.28280354
66	0xbdad7d19	-0.08471126
67	0xbe85cb91	-0.2613187
68	0x3e12302d	0.1427619
69	0xbbed6084	-0.0072441716
70	0x3e08ccf4	0.13359433
71	0x3ee5afa0	0.44860554
72	0x3e82c79f	0.25542924
73	0xbd502694	-0.05081804
74	0xbeab80e3	-0.3349677
75	0xbdb4a7ba	-0.08821054
76	0x3ec414b4	0.38297045
77	0x3e6dae65	0.23211057
78	0xbe98e287	-0.29860327
79	0xbd151b58	-0.03640303
80	0xbe829ffd	-0.25512686
81	0x3eb9f4e0	0.36319637
82	0xbef24040	-0.47314644
83	0x3bbb97a8	0.005724866
84	0xbd2b8de3	-0.04188336
85	0xbef0c48e	-0.4702496
86	0xbe0dfabc	-0.13865179
87	0xbe818452	-0.25296265
88	0x3ea2f8f4	0.3183056
89	0x3dce5b12	0.10075964
90	0xbf2fcebc	-0.68674827
91	0xbe0dd12d	-0.13849325
92	0xbdc94ae8	-0.0982874
93	0xbe515694	-0.20443183
94	0xbf060cce	-0.5236329
95	0x3db2991f	0.08720612
96	0xbecb64ca	-0.39725333
97	0xbeffcf19	-0.4996269
98	0xbaaf4b36	-0.0013373855
99	0x3efcc287	0.49367163
100	0xbe3bd0f5	-0.1834143
101	0xbd00cd2f	-0.03144568
102	0xbe809a8b	-0.25117907
103	0x3f5c87a6	0.86144483
104	0xbf0ee370	-0.5581579
105	0xbe6db300	-0.23212814
106	0xbeb890f7	-0.360481
107	0xbd8b6f77	-0.068083696
108	0x3edbb46a	0.42911083
109	0x3e969278	0.29408622
110	0xbeb5565d	-0.35417452
111	0xbe48a48f	-0.19594024
112	0x3efda025	0.49536243
113	0xbd987249	-0.07443673
114	0xbec751ab	-0.38929495
115	0xbea93321	-0.3304682
116	0xbd9596b5	-0.07304136
117	0xbf28e958	-0.65981054
118	0xbeed328f	-0.46327636
119	0xbf0f5c98	-0.5600066
120	0x3f672c94	0.90302396
121	0x3d6dcdd7	0.058057632
122	0xbf42aedb	-0.7604806
123	0xbe240ad7	-0.1601976
124	0xbe15d504	-0.1463204
125	0x3ef65d24	0.48117936
126	0x3e7003fd	0.23439021
127	0xbe33056c	-0.17482537
128	0x3f051cd4	0.51997113
129	0xbdcd2b46	-0.100180194
130	0x3ec05f25	0.3757259
131	0x3e80f779	0.25188807
132	0x3e604749	0.21902193
133	0xbeac127f	-0.3360786
134	0xbe332d9d	-0.17497869
135	0x3c65f967	0.014036513
136	0x3e9c3d76	0.3051564
137	0xbee7c48a	-0.45267135
138	0x3eb02f7e	0.34411234
139	0x3f16af47	0.588612
140	0xbe0cd632	-0.13753584
141	0xbcf38d75	-0.029730538
142	0x3ed86450	0.42264032
143	0xbf0341f1	-0.51272494
144	0x3e58d54d	0.21175118
145	0x3c2bff81	0.010497929
146	0x3eb3f2b7	0.35146114
147	0xbf034443	-0.51276034
148	0x3e8d1646	0.27556056
149	0x3e86050e	0.2617573
150	0xbe680219	-0.2265705
151	0x3db2b3f0	0.087257266
152	0x3dbbbca6	0.09166841
153	0x3d761437	0.060077872
154	0x3d86d079	0.06582732
155	0xbe240923	-0.1601911
156	0x3f0dc5b0	0.5537977
157	0x3af1c0cb	0.0018444298
158	0xbc894e8c	-0.016761087
159	0xbe43d380	-0.1912365
160	0x3dfefa3a	0.12450071
161	0x3ded6732	0.115919486
162	0x3ea8ee2c	0.3299421
163	0xbe5bd68e	-0.21468565
164	0x3e9b2090	0.3029828
165	0xbd37aa0b	-0.0448399
166	0xbe34eff9	-0.17669667
167	0xbe17bcc6	-0.14818105
168	0x3ea89831	0.32928613
169	0x3dcf3b83	0.10118773
170	0x3ee1b7db	0.44085583
171	0x3c897daf	0.016783563
172	0x3e7ed5c6	0.24886236
173	0xbdc0e734	-0.094190985
174	0x3ed799ea	0.42109615
175	0xbebf2416	-0.3733222
176	0xbd9bf7d7	-0.07615631
177	0x3ded973a	0.1160111
178	0xbd97fa69	-0.07420809
179	0x3ee1b993	0.44086894
180	0x3e844c45	0.2583944
181	0x3ea34ef5	0.31896177
182	0x3ed3677c	0.4128989
183	0x3f03457f	0.5127792
184	0xbe2d81a1	-0.16943981
185	0x3dc02525	0.09382085
186	0x3eea8688	0.45805764
187	0xbe66bf49	-0.22533907
188	0x3e53f8a1	0.20700313
189	0xbd6b1fb2	-0.057403274
190	0xbda69301	-0.081335075
191	0x3e2ef8f3	0.17087154
192	0x3dbcf5ca	0.09226568
193	0xbec45388	-0.3834498
194	0x3f0eb037	0.5573763
195	0x3e1e42f4	0.15455228
196	0x3e151c2a	0.14561525
197	0xbd71b7b8	-0.0590131
198	0x3f3398c1	0.7015496
199	0xbd035297	-0.032061186
200	0xbe9ec054	-0.3100611
201	0x3e45c944	0.19315058
202	0xbe1a30f7	-0.15057741
203	0xbf0ff82b	-0.5623805
204	0x3dd503f3	0.10401144
205	0x3eadc576	0.33939713
206	0xbd8bf8da	-0.06834574
207	0xbedf850b	-0.4365619
208	0xbe21e426	-0.15809688
209	0xbf085c0c	-0.5326545
210	0x3e1011d5	0.14069302
211	0xbe00d2cd	-0.12580414
212	0xbdbe8e72	-0.09304513
213	0x3e925217	0.28578255
214	0x3e98ca7e	0.2984199
215	0xbe3cb894	-0.18429786
216	0x3da8cdf4	0.082424074
217	0xbe3d6f26	-0.18499431
218	0x3d2d7872	0.042351194
219	0xbe0e42ce	-0.13892671
220	0xbce0355c	-0.027369194
221	0x3b8379a5	0.004012304
222	0xbe54d235	-0.20783313
223	0x3e923f7f	0.2856407
224	0xbd00e5d2	-0.031469174
225	0x3d8d4d41	0.06899501
226	0xbe02b3f8	-0.12763965
227	0xbd874f73	-0.066069506
228	0x3e461101	0.19342424
229	0xbe6a41f4	-0.22876722
230	0xbd8451e5	-0.06460933
231	0x3ee7812f	0.45215747
232	0xbe1403b2	-0.14454535
233	0xbed38dd5	-0.41319147
234	0x3e219ad1	0.15781714
235	0xbdd17e7f	-0.10229205
236	0xbe5db54b	-0.21651189
237	0x3e65740a	0.22407547
238	0x3dea2660	0.11433101
239	0x3e9c61eb	0.30543455
240	0x3e857812	0.2606817
241	0x3dc9eb7a	0.09859367
242	0xbe00a13e	-0.12561509
243	0x3e373595	0.17891534
244	0x3e54f8ca	0.2079803
245	0xbe7b2ac4	-0.24528033
246	0x3e4ccfc6	0.20001134
247	0x3e23ff50	0.16015363
248	0x3e8d2fbf	0.2757549
249	0xbd6d7ee8	-0.057982355
250	0x3dc8b2f2	0.09799756
251	0xbeb1aba9	-0.3470128
252	0x3e962331	0.29323724
253	0xbe21c42d	-0.15797491
254	0x3e21ad97	0.15788876
255	0xbea1393b	-0.31488976

encoder_lstm.bias_ih_l0 f4 [128]
0	0xbe1a5b79	-0.15073957
1	0x3e28a1ea	0.16468015
2	0xbd4a0a15	-0.04932602
3	0xbdb328fc	-0.087480515
4	0x3daa67d5	0.08320586
5	0x3f06080e	0.5235604
6	0x3c5228db	0.0128271235
7	0x3e557317	0.20844685
8	0xbec37dbe	-0.3818187
9	0x3e224138	0.15845191
10	0xbccea78e	-0.02522638
11	0xbbaa4488	-0.005196158
12	0xbc97e353	-0.018541014
13	0xbcd10c96	-0.025518697
14	0xbe8ee614	-0.2790991
15	0x3e2d167d	0.1690311
16	0xbdc195f7	-0.09452432
17	0x3e1879a6	0.14890155
18	0xbc075c64	-0.008261774
19	0x3bafeaa2	0.0053685466
20	0x3d1cfa85	0.03832485
21	0x3dd940e2	0.106080785
22	0x3e3424d4	0.17592174
23	0x3eace6e0	0.33769894
24	0x3f154967	0.5831513
25	0xbd954eda	-0.0729043
26	0xbe3c170c	-0.18368167
27	0xbd34f73c	-0.044181094
28	0xbe11f90f	-0.14255165
29	0x3cee26cd	0.029071236
30	0xbce6e5e2	-0.028185789
31	0xbd09308f	-0.033493575
32	0x3f09162e	0.5354947
33	0x3dc148ff	0.09437751
34	0xbe231a3c	-0.15927976
35	0x3e4f3c82	0.20237926
36	0x3e863085	0.26208892
37	0x3d476256	0.048677765
38	0x3e1c7aeb	0.15281264
39	0x3dc5171e	0.0962355
40	0x3d63a3fc	0.05557631
41	0xbcb0d66f	-0.021586625
42	0x3ed24a5e	0.41072363
43	0xbe3e2803	-0.18569951
44	0x3e2adaa7	0.16684972
45	0xbde51566	-0.11185722
46	0xbe22285a	-0.15835705
47	0xbe77ef0b	-0.24212281
48	0xbd5d99b9	-0.05410168
49	0xbe26b2cf	-0.16279148
50	0x3ebe2e5b	0.3714474
51	0x3c269395	0.010167022
52	0xbda94b2e	-0.082662925
53	0xbd703ed8	-0.058653682
54	0x3d042896	0.03226527
55	0x3e5ff6a2	0.21871427
56	0x3c1e5d11	0.009665743
57	0xbea84b9f	-0.32870194
58	0x3de25d74	0.11052981
59	0xbe84fe24	-0.25975144
60	0xbd0bf44d	-0.03416853
61	0x3e724ff4	0.23663312
62	0x3d14d438	0.0363352
63	0x3ef9e677	0.48808643
64	0xbe677027	-0.22601376
65	0x3e7d0819	0.2471012
66	0xbe9dd431	-0.30825952
67	0x3d907c3b	0.07054945
68	0x3dc48c1d	0.09597037
69	0xbf0fed85	-0.562218
70	0xbc107c5c	-0.008818712
71	0xbee03a5b	-0.43794522
72	0x3d3d64bf	0.046238657
73	0x3e3c3147	0.18378173
74	0xbdd79878	-0.10527128
75	0x3b709e92	0.003671561
76	0xbf1f0234	-0.62112737
77	0xbee98e9b	-0.45616612
78	0xbd87db5a	-0.06633635
79	0xbbf6d6f9	-0.007532951
80	0x3de40ca7	0.11135226
81	0x3da41f2d	0.08013759
82	0x3e33ffdb	0.1757807
83	0xbe15a2a2	-0.1461282
84	0xbd98abb8	-0.07454628
85	0x3de28942	0.11061336
86	0xbd3611b4	-0.044450477
87	0x3e0bbe49	0.13646807
88	0xbe17edbf	-0.14836787
89	0x3e91f3d5	0.28506342
90	0x3e2358f0	0.15951896
91	0xbe5d6a30	-0.21622539
92	0x3e94d0d8	0.29065585
93	0xbe04f424	-0.12983757
94	0xbd693c5b	-0.056942325
95	0xbeaedfde	-0.34155172
96	0x3dedbd8a	0.11608417
97	0xbd531d4a	-0.051541604
98	0xbedebc6e	-0.43503135
99	0x3cedcf40	0.029029489
100	0x3e26e467	0.16298066
101	0x3e574b86	0.21024904
102	0x3ddf40ad	0.10901008
103	0x3f17089b	0.58997506
104	0xbddaaa48	-0.1067701
105	0x3d807521	0.062723406
106	0x3eb0359a	0.34415895
107	0xbe6162ff	-0.2201042
108	0xbda0f781	-0.078597076
109	0xbdafe32c	-0.085882515
110	0xbd117722	-0.035514005
111	0xbe319fd7	-0.1734613
112	0x3c6696f1	0.014074073
113	0x3d8c62da	0.06854792
114	0x3e855930	0.26044607
115	0xbe7e559f	-0.2483735
116	0xbe075a59	-0.13218059
117	0xbd9be4ba	-0.076119855
118	0xbe11a57c	-0.14223284
119	0x3e79e565	0.24403913
120	0xbde18b84	-0.110129386
121	0xbd8f3f02	-0.0699444
122	0xbe12686e	-0.1429765
123	0x3e657fa3	0.22411971
124	0x3f3d6d74	0.7399514
125	0x3db61790	0.08891213
126	0xbe8bad9d	-0.27280894
127	0x3e2e7b0e	0.17039129

encoder_lstm.bias_hh_l0 f4 [128]
0	0x3dbbb736	0.09165804
1	0xbb9ae358	-0.0047268085
2	0xbe099d16	-0.1343883
3	0xbde0cd3e	-0.10976647
4	0x3e065ae2	0.13120607
5	0x3e7f3ec9	0.24926294
6	0x3e831a70	0.25606108
7	0x3d9d354d	0.07676182
8	0xbdf0bfe6	-0.11755352
9	0x3db13b3d	0.08653877
10	0xbdd0bc51	-0.101921685
11	0xbe4b5105	-0.19855125
12	0xbdc2b74e	-0.09507619
13	0x3e11ec5d	0.14250322
14	0xbebd4429	-0.36966065
15	0x3e47fcae	0.19529983
16	0xbe692bc9	-0.22770609
17	0x3de857c8	0.11344868
18	0xbd802ba4	-0.06258324
19	0xbda3d421	-0.07999445
20	0xbdb85c81	-0.09002019
21	0x3d9b3737	0.07578891
22	0x3e367310	0.1781733
23	0x3e731252	0.23737457
24	0x3eff172b	0.49822363
25	0x3e3e7e3b	0.1860284
26	0xbeba9c96	-0.3644759
27	0xbd03831d	-0.03210746
28	0x3c869d0b	0.016432306
29	0xbe470ec4	-0.19439226
30	0xbe86e6e4	-0.2634803
31	0x3e6c2dd7	0.23064362
32	0x3edc1ffc	0.42993152
33	0x3e767e15	0.24071534
34	0xbe3dbf33	-0.18529968
35	0x3d98643e	0.07440995
36	0x3db3fd78	0.0878858
37	0x3c78843e	0.015168248
38	0x3cad676a	0.021167476
39	0x3d82ee2a	0.063930824
40	0x3e75ce21	0.24004413
41	0x3e0f3ea6	0.13988742
42	0x3ed4d3e9	0.41567925
43	0xbe5a104e	-0.21295282
44	0x3e92861c	0.28617942
45	0xbdbac44c	-0.09119472
46	0x3e1512b0	0.1455791
47	0xbe8ebd22	-0.27878672
48	0xbe8dde5f	-0.27708718
49	0xbedd16fe	-0.43181604
50	0x3ebb6b5a	0.3660534
51	0xbe029684	-0.1275273
52	0xbe5cecea	-0.2157475
53	0x3d223f9d	0.039611448
54	0xbc698072	-0.014251815
55	0x3e5c662f	0.21523355
56	0x3dd443df	0.10364508
57	0xbedb879b	-0.42876896
58	0xbd2a456b	-0.04157011
59	0xbeeefd07	-0.4667742
60	0x3e910f46	0.28331965
61	0x3eacac51	0.33725217
62	0x3e6b730c	0.22993106
63	0x3eb0a4f6	0.34500855
64	0xbbd60e53	-0.0065324693
65	0x3db846cc	0.089978784
66	0xbdcd79e2	-0.10033013
67	0xbe4d78c1	-0.20065595
68	0xbe138d57	-0.14409386
69	0xbef47452	-0.47744995
70	0xbbd337fd	-0.0064458833
71	0xbebedd2f	-0.37278125
72	0x3e9c5368	0.30532384
73	0x3daf42b7	0.08557647
74	0x3cbde86e	0.02318212
75	0x3d9579b2	0.07298602
76	0xbf1aadb8	-0.60421324
77	0xbe6d8d8c	-0.23198527
78	0x3c8313a5	0.016000578
79	0x3d6b17cb	0.057395738
80	0x3e17a3dc	0.14808601
81	0xbe176375	-0.14784034
82	0x3e7707cc	0.24124068
83	0xbeb637dd	-0.35589495
84	0x3c2279a4	0.009916697
85	0xbdb943e5	-0.09046153
86	0xbdf2806b	-0.118409
87	0x3ec159c2	0.37763792
88	0xbe63c7b1	-0.22244145
89	0x3df6b1b5	0.12045614
90	0x3dd008d2	0.10157932
91	0xbe2517a5	-0.16122301
92	0x3e90092d	0.28132
93	0xbec4b0ba	-0.38416082
94	0xbec342c5	-0.3813688
95	0xbe19a1a7	-0.15003072
96	0x3dd1ebe3	0.1025007
97	0x3e1cf028	0.15325987
98	0xbe836f40	-0.25670815
99	0x3e677e7d	0.22606845
100	0x3e0b2452	0.13588074
101	0x3eb91eb0	0.36156225
102	0x3e404abe	0.18778512
103	0x3ef8d829	0.48602417
104	0xbe7ac6ab	-0.24489848
105	0xbdbc6f66	-0.09200935
106	0x3e0c3a0a	0.13694015
107	0xbcf62f23	-0.030051773
108	0x3e6d11d9	0.2315134
109	0xbde0085b	-0.10939094
110	0x3d61bfcc	0.055114552
111	0xbd8f28d3	-0.069902085
112	0xbe871187	-0.2638056
113	0x3e8bb760	0.27288342
114	0x3e4d3ff9	0.20043935
115	0xbd891c3d	-0.06694839
116	0xbd57e815	-0.052711565
117	0xbc63ae09	-0.013896474
118	0xbceaab24	-0.02864606
119	0x3db6abb5	0.08919469
120	0xbae2eda0	-0.0017313249
121	0xbd258a5b	-0.04041515
122	0xbc9db457	-0.019251032
123	0x3eb1255f	0.34598824
124	0x3f352a11	0.70767313
125	0x3d99d82a	0.07511933
126	0xbe0fbfcc	-0.14038008
127	0x3e37cdfd	0.17949672

encoder_lstm.weight_ih_l1 f4 [128, 32]
0	0x3e0c30ee	0.1369054
1	0xbe2ae611	-0.16689326
2	0x3e7855bf	0.2425146
3	0xbe5f7956	-0.2182363
4	0x3e99ce6e	0.30040306
5	0x3dca3872	0.09874047
6	0xbe8c5aeb	-0.27413115
7	0x3ead74c0	0.33878136
8	0xbd783311	-0.060595576
9	0x3cb1fe24	0.021727629
10	0x3e1e444d	0.15455742
11	0xbca769d6	-0.020436209
12	0xbd81f296	-0.06345098
13	0xbee0523a	-0.43812734
14	0xbc0dd93f	-0.008657753
15	0xbd199838	-0.037498683
16	0xbd6a49fa	-0.057199456
17	0xbe9944cf	-0.2993531
18	0xbec9247c	-0.39285648
19	0xbc0502b7	-0.008118323
20	0x3e15f1b5	0.14642985
21	0x3e6350b4	0.22198755
22	0xbc85ad1d	-0.016317898
23	0xbce0deeb	-0.027450046
24	0x3edad96e	0.4274401
25	0xbdb11575	-0.08646671
26	0x3eefa4a1	0.4680529
27	0xbecf0784	-0.4043542
28	0x3eb679d8	0.35639834
29	0xbe3059ff	-0.17221831
30	0x3cf16572	0.029467318
31	0xbd587813	-0.052848887
32	0x3e5a9316	0.21345171
33	0xbe04abd7	-0.12956177
34	0x3dee5fd1	0.11639369
35	0x3db10024	0.08642605
36	0x3f081484	0.53156304
37	0xbeacbc17	-0.3373725
38	0xbebce051	-0.3688989
39	0x3e998be1	0.29989532
40	0xbe0ad62e	-0.13558266
41	0xbe09a7af	-0.13442872
42	0x3ce6164f	0.02808681
43	0x3d993555	0.074808754
44	0x3d812bb0	0.06307161
45	0x3c4c6c19	0.012476944
46	0xbdd1387a	-0.1021585
47	0xbc87ab9c	-0.016561322
48	0xbe1dbbfe	-0.15403745
49	0xbe92a2ee	-0.2863993
50	0x3e27c250	0.16382718
51	0xbe6ed0ec	-0.23321885
52	0x3e1f83de	0.15577647
53	0xbe770df2	-0.24126413
54	0xbc907cf2	-0.017637704
55	0x3dc4bf00	0.09606743
56	0x3eca1027	0.39465448
57	0xbe692fad	-0.22772093
58	0xbe40866f	-0.18801282
59	0xbd2426da	-0.040076114
60	0x3e90e09e	0.2829637
61	0xbc9b3db9	-0.01895033
62	0xbec51f02	-0.3850022
63	0x3e243cbe	0.16038796
64	0xbe27ceb1	-0.1638744
65	0x3e56ec6e	0.20988628
66	0xbd8e794f	-0.069567315
67	0x3ee09e4e	0.43870777
68	0x3e42dea1	0.19030239
69	0x3f136f74	0.5759194
70	0x3ea3b57b	0.31974396
71	0x3efafa31	0.49019006
72	0x3beffa87	0.0073235664
73	0x3d5a74b3	0.05333395
74	0xbda3d2e3	-0.07999208
75	0xbe115626	-0.1419302
76	0x3c8dd0e4	0.01731152
77	0xbdd6e1e1	-0.10492302
78	0x3e4f88e8	0.2026707
79	0xbd1e4420	-0.038639188
80	0xb99abe94	-0.0002951516
81	0x3e062f4f	0.13103984
82	0x3d5b11c0	0.053483725
83	0x3e484efa	0.19561377
84	0x3e6c439d	0.23072667
85	0xbed32100	-0.41236115
86	0xbe82af2d	-0.25524274
87	0xbea247be	-0.3169536
88	0xbe94242f	-0.28933856
89	0xbd12512d	-0.035721947
90	0xbe9cfad7	-0.30660126
91	0x3ea3842e	0.31936783
92	0xbc9cadd3	-0.019125855
93	0xbf216db9	-0.6305805
94	0xbe35b9b9	-0.17746629
95	0x3e8b51fe	0.27210993
96	0x3d86f098	0.06588858
97	0x3eafd5ca	0.34342796
98	0xbe2e0dcf	-0.16997455
99	0x3cc795c4	0.024363406
100	0x3f0f6510	0.56013584
101	0xbd51022a	-0.051027454
102	0xbe4eee53	-0.20208101
103	0x3cdf88b9	0.027286874
104	0xbe3c418f	-0.18384384
105	0xbcdf1952	-0.027233753
106	0x3e7faaa5	0.2496744
107	0xbd974f25	-0.073881425
108	0x3f48c345	0.7842296
109	0xbe157f6b	-0.14599387
110	0x3e91811a	0.2841881
111	0x3ca10329	0.019654827
112	0xbe66a0da	-0.22522298
113	0x3cd092fe	0.025460716
114	0x3def8197	0.11694639
115	0xbe99633d	-0.29958525
116	0x3caed6e6	0.021342706
117	0xbdcdc4c8	-0.10047299
118	0x3e18dc98	0.149279
119	0x3e7c959d	0.24666448
120	0x3e480931	0.19534756
121	0x3e12b2e1	0.1432605
122	0xbe48f992	-0.19626454
123	0x3e50817c	0.20361894
124	0x3ef9b94c	0.48774183
125	0xbe9749a0	-0.2954836
126	0x3e6c76ae	0.23092148
127	0x3e3de536	0.18544468
128	0x3d83c0fd	0.06433294
129	0x3e929d0c	0.28635442
130	0xbe5eaa7c	-0.21744722
131	0x3da11030	0.07864416
132	0x3e31dc22	0.1736913
133	0x3bb3d509	0.0054880423
134	0xbe3ba7d7	-0.18325745
135	0xbea2e316	-0.31813878
136	0xbf549be7	-0.8305039
137	0xbe67492a	-0.22586504
138	0x3e9daec7	0.30797407
139	0xbdffaaa5	-0.1248372
140	0xbdcc31a4	-0.09970406
141	0xbd3416c2	-0.043967016
142	0x3e3db309	0.18525328
143	0x3dc93698	0.09824866
144	0xbde7607a	-0.11297698
145	0x3d5ee382	0.054416187
146	0x3dbeefd1	0.09323085
147	0x3dac61a0	0.08417058
148	0xbe724693	-0.23659734
149	0xbe71d596	-0.23616633
150	0xbe1df3b5	-0.15424998
151	0x3e04b1f7	0.12958513
152	0x3d01e2a2	0.031710275
153	0x3d4f99b7	0.050683703
154	0xbd93c060	-0.07214427
155	0x3d9c1da8	0.07622844
156	0x3dfeaeba	0.1243567
157	0xbf17ec6c	-0.59345126
158	0x3e09bb38	0.13450325
159	0x3eb0ed33	0.3455597
160	0xbdaace19	-0.08340091
161	0x3e8be60c	0.2732395
162	0xbe6e0429	-0.23243774
163	0x3d8c9436	0.068642065
164	0xbd2fc0f0	-0.04290861
165	0x3dd24bb8	0.102683485
166	0x3e216c80	0.15764046
167	0xbd306c77	-0.04307219
168	0xbdc316af	-0.09525811
169	0xbe7633f1	-0.24043252
170	0xbc89525d	-0.016762907
171	0xbdc4f5b8	-0.0961718
172	0x3d4bf071	0.04978985
173	0xbd8c80c3	-0.06860497
174	0xbdbd8072	-0.092530146
175	0x3e746569	0.2386681
176	0xbcc11a7b	-0.023572197
177	0x3ed637ef	0.4183955
178	0x3ed63b91	0.4184232
179	0x3eda1814	0.42596495
180	0xbdb092ff	-0.08621787
181	0xbe5565a5	-0.20839556
182	0x3c25efac	0.010127943
183	0x3d7623f1	0.06009287
184	0xbe238966	-0.15970382
185	0x3e0cfdf5	0.13768752
186	0x3d8da262	0.06915738
187	0x3e816c4c	0.25277936
188	0xbe8aa5e7	-0.27079698
189	0x3e0cdf8c	0.13757151
190	0xbceb400f	-0.028717069
191	0xbd15db64	-0.03658618
192	0x3b31a7de	0.0027108113
193	0x3dff2bb7	0.1245951
194	0xbe84a27a	-0.2590521
195	0x3ecd5980	0.40107346
196	0xbeacb5d1	-0.33732465
197	0x3ec4919a	0.38392335
198	0xbd959b78	-0.07305044
199	0x3e5dddca	0.21666637
200	0x3c12b06e	0.008953197
201	0x3d672530	0.05643195
202	0x3e193568	0.14961779
203	0x3dca29e3	0.098712705
204	0x3e38b5d7	0.18038116
205	0x3dde71be	0.10861538
206	0x3c429255	0.011875709
207	0xbe4c5cee	-0.19957325
208	0x3e839aee	0.2570414
209	0xbe8cc89a	-0.27496797
210	0xbe87f6e9	-0.26555565
211	0x3e56f058	0.20990121
212	0x3db0fd2c	0.08642039
213	0xbc86b4f4	-0.016443707
214	0xbd9d720e	-0.0768777
215	0x3e2331dd	0.1593699
216	0x3d77e851	0.06052429
217	0xbd0cb0ad	-0.03434818
218	0x3de43761	0.11143375
219	0xbe80c3eb	-0.25149474
220	0xbe3cde38	-0.18444145
221	0x3ea2c935	0.31794134
222	0x3e5c9478	0.21541011
223	0xbef05e9c	-0.4694718
224	0xbe29919e	-0.16559455
225	0x3eadd5f0	0.33952284
226	0xbea2014e	-0.3164162
227	0x3e9fb242	0.31190687
228	0x3e64d960	0.22348547
229	0x3e24b19a	0.16083375
230	0x3e5257ce	0.20541307
231	0x3e2c8e6b	0.16851203
232	0xbee8784a	-0.45404273
233	0xbe5ae3a7	-0.21375905
234	0xbd3b080b	-0.045661967
235	0xbd2f3ad5	-0.042780716
236	0xbc588e3d	-0.013217506
237	0x3dd54076	0.104126856
238	0xbd8d0e23	-0.06887462
239	0xbdd63971	-0.10460175
240	0x3e664cf1	0.22490288
241	0xbdb2dfef	-0.08734118
242	0xbe0ae6aa	-0.13564554
243	0xbcdd2444	-0.026994832
244	0x3dc72ee0	0.097257376
245	0xbd066253	-0.032808613
246	0xbcbdc5e9	-0.02316566
247	0xbe7a22f9	-0.24427404
248	0x3e506be3	0.20353656
249	0x3decaefc	0.11556813
250	0xbe845f76	-0.2585408
251	0xbb003ef6	-0.0019568778
252	0x3e56d5a0	0.20979929
253	0x3c13149d	0.008977083
254	0x3e8b447f	0.27200696
255	0x3db6dc9a	0.08928795

encoder_lstm.weight_hh_l1 f4 [128, 32]
0	0xbd5b09a4	-0.05347599
1	0xbe37acf2	-0.17937067
2	0xbe6e80f8	-0.23291385
3	0xbc0498f0	-0.008093104
4	0xbe95498d	-0.29157677
5	0x3ddbdb98	0.107352436
6	0x3e108254	0.14112216
7	0xbe8b0401	-0.27151492
8	0xbd3714de	-0.044697635
9	0x3cab3fbd	0.020904416
10	0x3e71ff11	0.23632456
11	0x3e39cc1f	0.18144272
12	0xbda25451	-0.07926238
13	0xbe041566	-0.12898788
14	0x3e92e5f1	0.28691056
15	0xbe247c34	-0.16063005
16	0xbec5f96d	-0.3866686
17	0x3e5a681e	0.2132878
18	0xbe53b07d	-0.20672794
19	0x3e27b29b	0.16376726
20	0x3d0d3f82	0.034484394
21	0xbe5fdb0c	-0.21860904
22	0xbb022e50	-0.001986403
23	0x3e270813	0.16311674
24	0x3da0fec6	0.07861094
25	0xbe849800	-0.25897217
26	0x3dc9600b	0.09832772
27	0x3e8d2823	0.27569684
28	0xbe4ab7ec	-0.19796723
29	0x3e57e479	0.21083249
30	0x3ddd7ab7	0.108144216
31	0xbeb5950e	-0.35465282
32	0x3e1765a5	0.14784868
33	0xbe3d4194	-0.18482047
34	0x3e335304	0.17512137
35	0xbd511f8a	-0.05105547
36	0xbe5e2b6f	-0.21696256
37	0x3e8f6d49	0.28013065
38	0xbe03875b	-0.12844603
39	0xbe5ce976	-0.21573433
40	0x3de53d90	0.11193383
41	0xbe12eb5d	-0.14347596
42	0xbe11bcbb	-0.14232151
43	0x3e08b3be	0.13349816
44	0x3ced4089	0.028961437
45	0xbba58535	-0.00505128
46	0x3e48a304	0.19593436
47	0xbd6fb59c	-0.058522806
48	0x3e5baad0	0.21451879
49	0x3e4e6504	0.20155722
50	0xbe1f146d	-0.15535136
51	0x3e4efa42	0.20212653
52	0x3db4c34e	0.08826314
53	0x3d684a02	0.056711204
54	0x3dedcb88	0.11611086
55	0x3de1c31f	0.110235445
56	0xbdd161ac	-0.102237076
57	0x3e7ec417	0.2487949
58	0x3df05677	0.11735242
59	0x3e4f70fb	0.20257942
60	0x3d458377	0.048221078
61	0xbc5a72ac	-0.013333004
62	0x3dda11ac	0.10647902
63	0x3dce41df	0.10071158
64	0xbe7cd888	-0.24691975
65	0xbd0f41c3	-0.034974825
66	0xbeba0b11	-0.36336568
67	0xbdfb5047	-0.12271171
68	0xbe81781e	-0.25286955
69	0x3de329d4	0.110919625
70	0xbe5662ca	-0.20936123
71	0xbd912a16	-0.070881054
72	0x3e7f4ed8	0.2493242
73	0x3dd4bc5d	0.1038749
74	0x3df8165b	0.12113639
75	0xbe9e92a4	-0.30971253
76	0x3c1f746d	0.009732348
77	0x3e5cabf8	0.21549976
78	0xbe157e0a	-0.14598861
79	0x3ec6b7a7	0.3881199
80	0x3f0a3bc2	0.53997433
81	0xbd9df728	-0.07713157
82	0x3e37d950	0.17953992
83	0xbe3d3a70	-0.18479323
84	0x3da83560	0.082133055
85	0xbdecd92d	-0.115648605
86	0x3d6ebb65	0.058284182
87	0x3db6ffea	0.089355305
88	0xbd6eb32b	-0.058276337
89	0x3e507151	0.20355727
90	0x3e07ce34	0.13262254
91	0xbd77c13a	-0.06048701
92	0x3d9c5abb	0.07634493
93	0xbd92af8b	-0.071623884
94	0xbdc498d4	-0.09599462
95	0xbd96c6fd	-0.07362173
96	0xbd512e08	-0.05106929
97	0x3e740d28	0.23833144
98	0xbb0513b3	-0.002030593
99	0xbeb5c9b2	-0.35505444
100	0x3e5c5f35	0.21520694
101	0xbec46cc0	-0.3836422
102	0xbdc341f8	-0.09534067
103	0xbe6dabfe	-0.23210141
104	0x3e66ed35	0.22551425
105	0xbdad405e	-0.08459543
106	0x3cebd8c5	0.028789887
107	0xbcbfa811	-0.02339557
108	0x3e0fea06	0.14054117
109	0x3e0927e4	0.13394123
110	0x3e4dd91d	0.20102353
111	0xbdc856ff	-0.09782218
112	0x3d8ef124	0.06979588
113	0x3d891974	0.06694308
114	0x3c4e51e8	0.01259277
115	0xbe8fe9c0	-0.28108025
116	0x3e639902	0.22226337
117	0x3e551f3c	0.20812696
118	0x3c9cd914	0.01914648
119	0x3da445c7	0.080211215
120	0x3e97b855	0.29632822
121	0x3e466ee8	0.19378245
122	0x3d76de7c	0.06027077
123	0xbe1dfe6f	-0.1542909
124	0xbd8cfa52	-0.06883682
125	0xbe743bea	-0.2385098
126	0xbd865ede	-0.06561063
127	0x3e879bb1	0.2648597
128	0xbe3ed103	-0.18634419
129	0xbeba90b4	-0.36438525
130	0xbe1827a6	-0.14858875
131	0x3de4dfbd	0.11175487
132	0xbd12060e	-0.035650305
133	0xbe1eeb48	-0.1551944
134	0x3d09d0ad	0.033646274
135	0xbe088131	-0.13330533
136	0x3e58dacb	0.21177213
137	0xbd1f7eb9	-0.03893921
138	0xbe2e17fc	-0.17001337
139	0xbe7a87de	-0.24465892
140	0xbe4bd4cf	-0.19905399
141	0x3ec9f166	0.39441985
142	0xbd2291aa	-0.039689697
143	0x3d60d5bc	0.054891333
144	0x3f1a2423	0.6021139
145	0xbd3da5b2	-0.046300597
146	0x3d9ed0c7	0.07754665
147	0xbe5cfde6	-0.2158123
148	0x3c868495	0.016420642
149	0xbde4ee7c	-0.111783
150	0xbe40ddf5	-0.1883467
151	0x3cbf1ca9	0.023329096
152	0xbe04ec18	-0.12980688
153	0x3e1f4098	0.15551984
154	0xbcb96d54	-0.02263514
155	0xbd1d0c87	-0.038342025
156	0xbd056fc3	-0.032577287
157	0xbd9e54d2	-0.07731022
158	0x3d808c72	0.06276788
159	0x3e2a5f92	0.1663802
160	0xbd8162fc	-0.06317708
161	0xbe05dfec	-0.130737
162	0xbe027912	-0.12741497
163	0xbe1c3849	-0.15255846
164	0x3d485146	0.048905633
165	0xbe77f5eb	-0.24214904
166	0xbeab6ad6	-0.33479947
167	0x3ed1b9eb	0.40962157
168	0x3e74f7ba	0.23922625
169	0x3ea00390	0.31252718
170	0x3db33445	0.08750204
171	0xbdb77b0e	-0.08959018
172	0x3e415a2d	0.18882056
173	0x3d026d16	0.031842314
174	0xba35da4a	-0.00069371297
175	0x3d8b1673	0.06791391
176	0x3e88e19c	0.26734626
177	0xbed859b0	-0.42255926
178	0xbd77e835	-0.060524184
179	0xbe14df9c	-0.14538425
180	0xbd983c6f	-0.07433402
181	0x3e04895d	0.12943025
182	0xbda3d55d	-0.0799968
183	0xbdefe8d5	-0.11714331
184	0x3e5847db	0.2112116
185	0x3e7602db	0.24024527
186	0x3e1ff19a	0.15619507
187	0xbe885c84	-0.26633084
188	0xbd0dfed9	-0.03466687
189	0xbd201a00	-0.039087296
190	0xbeacc17e	-0.33741373
191	0xbcf12e9e	-0.029441174
192	0x3e6b3099	0.22967757
193	0xbe453383	-0.19257931
194	0xbc5da8e4	-0.013529036
195	0xbe027e57	-0.12743507
196	0xbec3a7a0	-0.38213825
197	0x3eada24c	0.33912885
198	0x3e114244	0.14185435
199	0x3e0cd7b4	0.13754159
200	0xbea20d3c	-0.31650722
201	0xbc777230	-0.015102908
202	0x3e33c991	0.1755736
203	0x3b45ad5c	0.0030163145
204	0x3e9b30c7	0.30310652
205	0xbdee4a0a	-0.116352156
206	0xbe3aac3e	-0.18229768
207	0x3c375656	0.011190018
208	0xbe23ecae	-0.16008255
209	0xbdf586c3	-0.119885944
210	0xbe27bc4c	-0.16380423
211	0x3e25c8af	0.16189836
212	0x3d7be554	0.061498
213	0x3e96093e	0.29303926
214	0x3e69e600	0.22841644
215	0xbe141d78	-0.14464366
216	0xbe403e1c	-0.18773693
217	0xbd12de5c	-0.03585659
218	0xbee16ba0	-0.44027424
219	0x3e762c87	0.24040423
220	0x3e9c3f0b	0.30516848
221	0xbe0ac0ac	-0.13550061
222	0x3ec35f0d	0.38158455
223	0x3ca4ae90	0.02010277
224	0xbe94657f	-0.28983685
225	0xbe0d9424	-0.13826042
226	0xbe46c586	-0.19411287
227	0x3de05e27	0.10955458
228	0xbe3d47ad	-0.18484373
229	0x3e887fb1	0.2665992
230	0xbdde7bf9	-0.1086349
231	0xbdd0d3fd	-0.101966836
232	0xbe024826	-0.12722835
233	0xbe20f84b	-0.15719716
234	0x3d48d083	0.049026977
235	0xbe2ecc76	-0.17070183
236	0x3e067859	0.13131846
237	0xbe703c11	-0.23460414
238	0xbe28f0df	-0.16498135
239	0x3e0ece2d	0.13945837
240	0x3ddc9ffb	0.10772701
241	0xbcdc9302	-0.026925568
242	0x3dfa6d8a	0.12227924
243	0x3da1f800	0.0790863
244	0xba5ebfe4	-0.0008497222
245	0xbccb857e	-0.024843927
246	0x3c9b01b7	0.018921716
247	0xbd8ce82f	-0.06880223
248	0x3e44f05b	0.19232313
249	0x3c9e62fa	0.019334305
250	0xbe13924c	-0.14411277
251	0xbe3b36ed	-0.18282671
252	0xbe5b0cef	-0.21391653
253	0x3dcba853	0.09944215
254	0x3e2635c6	0.1623145
255	0xbe59f9f5	-0.21286757
