W3-Design/checkpoints/epoch_4.pt (torch, 384133 bytes, 24 tensors)

encoder_cnn.0.weight f4 [32, 3, 3]
-0.12063032 0.03803685 -0.120487005 0.2568784 -0.2148408 0.25793764 0.135604 0.18804473
0.20336272 -0.13817059 -0.18315974 -0.23001829 -0.20601176 -0.25150332 -0.010921089 -0.104450814
0.30239958 -0.021877406 -0.012841934 0.20918055 0.48302928 0.22921889 0.27510867 -0.28569984
-0.07489516 0.1642451 -0.023270896 -0.06555204 0.09002665 -0.26083785 0.025205769 0.07254272
-0.009912955 0.097790584 0.19398232 -0.06230928 -0.031349555 0.22383681 0.12511726 0.37950918
-0.2124892 0.22876066 0.070984475 0.107050456 -0.2849837 -0.030638836 -0.09869002 0.29311275
-0.2658524 -0.22293212 0.013079915 0.25266576 0.3267407 -0.26017833 -0.039747477 -0.041541863
0.21463269 0.15237708 0.118317515 -0.15633528 -0.009199261 0.18141739 -0.1754625 0.08278484
-0.1406015 0.33908233 0.34768575 -0.1911507 -0.30058086 -0.017365212 0.04082303 0.4977287
0.005855386 0.12824157 -0.23003969 0.035758868 -0.13839872 0.2796945 -0.25386906 0.28752145
-0.1421798 -0.2417494 0.12247649 -0.25424963 0.23432286 -0.031070389 -0.25628656 0.1480124
0.15189877 0.011423506 -0.06314006 0.04753412 0.101168506 0.18275154 -0.3679551 -0.34330297
-0.23259476 0.14231007 -0.054929674 -0.053935315 0.02636197 0.18315242 0.034739457 0.30908868
0.036978595 -0.24290586 -0.3250288 0.056841522 -0.11479722 0.27614534 0.21007323 -0.082649164
-0.35601598 -0.42409083 0.4107066 -0.0043058395 -0.19055305 0.15615338 -0.048442997 0.26210824
-0.013334525 -0.3032472 -0.21837261 -0.21293999 -0.35575813 -0.3379423 -0.076057345 -0.14284882
-0.10963867 0.35372108 -0.022598445 -0.22329266 0.030273804 0.09384367 -0.22458275 0.4706311
0.27031216 0.0065677003 -0.14816056 0.2787572 0.036644638 -0.22464547 0.103580795 -0.012410615
0.17225538 -0.1451187 -0.37871447 0.06468261 -0.12929882 -0.2074026 0.06145873 -0.27336106
0.040508438 0.09187526 0.31617364 0.06543131 0.33205363 -0.25429943 0.34447697 0.032707185
-0.198667 -0.03422925 0.30320668 0.29644448 -0.12053039 -0.09711542 -0.3907578 -0.09064937
0.16940835 -0.19699124 -0.024245922 -0.025560994 0.23708296 0.15720911 -0.30474845 -0.45260268
0.09210633 -0.32052466 0.0034726665 0.15372303 -0.10463075 -0.17064746 -0.21453789 -0.15165775
0.2353327 -0.011636153 0.18021052 0.15774214 -0.18730098 0.34550086 -0.034996223 0.034216743
0.0010270798 0.4019506 0.21900058 0.042724665 -0.26660806 -0.18491383 0.13664167 -0.39712325
0.053400606 0.10116594 0.19701 -0.08607814 -0.13269328 -0.22510836 -0.3004754 0.1420066
-0.22266589 -0.22796148 -0.16914773 0.025782695 -0.08045136 0.07283071 0.17634465 0.2551301
-0.10225978 0.067842476 -0.18899654 -0.0072437427 -0.026085239 -0.26571834 0.056595013 0.09392579
0.107322626 0.15060723 -0.08741592 0.31456712 0.20488402 0.22080813 -0.05823549 -0.26973242
0.123171814 0.2487273 -0.40619418 -0.0442893 -0.20169036 0.32640252 0.15033469 -0.22340846
0.22310373 -0.08542989 -0.16974163 -0.26016352 -0.067861594 -0.08349039 -0.15222666 -0.13755167
0.3071077 -0.23637508 0.22486997 0.10937045 0.26105613 -0.07736329 -0.07952648 -0.052631322
00000000: 070d f7bd 87cc 1b3d e4c1 f6bd 9185 833e
00000010: 3aff 5bbe 6710 843e c6db 0a3e cc8e 403e
00000020: 513e 503e 977c 0dbe 3a8e 3bbe ea89 6bbe
00000030: bff4 52be 0bc5 80be 5eee 32bc 4fea d5bd
00000040: 1ed4 9a3e 3f38 b3bc fa66 52bc 6d33 563e
00000050: 9d4f f73e 5bb8 6a3e 0bdb 8c3e 4047 92be
00000060: a262 99bd de2f 283e 9ba2 bebc 2640 86bd
00000070: e45f b83d 8a8c 85be 547c ce3c 4791 943d
00000080: f269 22bc 6e46 c83d 4da3 463e 0438 7fbd
00000090: 6468 00bd 7a35 653e bd1e 003e 074f c23e
000000a0: c596 59be 3c40 6a3e 4f60 913d 453d db3d
000000b0: 62e9 91be 4cfe fabc fe1d cabd e012 963e
000000c0: ce1d 88be 5148 64be 244d 563c 685d 813e
000000d0: 8f4a a73e 1836 85be 40ce 22bd cd27 2abd
000000e0: acc8 5b3e bd08 1c3e 7450 f23d 5b16 20be
000000f0: 7fb8 16bc 7bc5 393e 71ac 33be 198b a93d
00000100: d7f9 0fbe 339c ad3e de03 b23e 02bd 43be
00000110: bce5 99be 7d41 8ebc 0d36 273d 4cd6 fe3e
00000120: 8ade bf3b c251 033e 868f 6bbe e477 123d
00000130: 65b8 0dbe 1e34 8f3e 20fb 81be 0336 933e
00000140: 9597 11be 288d 77be f4d4 fa3d 022d 82be
00000150: 55f2 6f3e 5487 febc fe37 83be 9090 173e
00000160: 5a8b 1b3e a829 3b3c 934f 81bd 23b3 423d
00000170: 6f31 cf3d 3823 3b3e 9c64 bcbe 68c5 afbe
00000180: 522d 6ebe bbb9 113e f0fd 60bd 47eb 5cbd
00000190: 0ff5 d73c 4f8c 3b3e f64a 0e3d df40 9e3e
000001a0: de76 173d 50bc 78be 2d6a a6be a8d2 683d
000001b0: ce1a ebbd ec62 8d3e 701d 573e f743 a9bd
000001c0: ba47 b6be 6f22 d9be 2348 d23e 0018 8dbb
000001d0: 5720 43be ace6 1f3e 2a6c 46bd 0d33 863e
000001e0: 0d79 5abc 3843 9bbe 129d 5fbe f10c 5abe
000001f0: ee25 b6be c606 adbe f4c3 9bbd f646 12be
00000200: 3d8a e0bd ee1a b53e 6020 b9bc d5a6 64be
00000210: c500 f83c 1c31 c03d 05f9 65be 8ff6 f03e
00000220: 5b66 8a3e dd35 d73b 67b7 17be 44b9 8e3e
00000230: b018 163d 7609 66be 2b22 d43d e455 4bbc
00000240: b763 303e ff99 14be dde6 c1be 5178 843d
00000250: e966 04be 5961 54be 26bc 7b3d fbf5 8bbe
00000260: 2dec 253d 1929 bc3d 83e1 a13e da00 863d
00000270: ef02 aa3e 8933 82be 495f b03e f8f7 053d
00000280: 5d6f 4bbe f833 0cbd e83d 9b3e 92c7 973e
00000290: a3d8 f6bd 73e4 c6bd 6811 c8be 60a6 b9bd
000002a0: 6279 2d3e 12b8 49be 629f c6bc 4a65 d1bc
000002b0: e0c5 723e 6dfb 203e fd07 9cbe 8abb e7be
000002c0: 3ea2 bc3d cf1b a4be ad95 633b 9269 1d3e
000002d0: a648 d6bd 35be 2ebe d2af 5bbe 2b4c 1bbe
000002e0: 0efb 703e 90a5 3ebc 1b89 383e 2887 213e
000002f0: d4cb 3fbe 7de5 b03e 3358 0fbd db26 0c3d
00000300: 149f 863a 78cc cd3e b041 603e 0f00 2f3d
00000310: da80 88be 0d5a 3dbe cbeb 0b3e bd53 cbbe
00000320: 98ba 5a3d 1730 cf3d fdbc 493e bc49 b0bd
00000330: bfe0 07be ce82 66be e9d7 99be 2e6a 113e
00000340: 8702 64be bc6e 69be 1035 2dbe 3b36 d33c
00000350: afc3 a4bd 4428 953d b193 343e 6aa0 823e
00000360: 936d d1bd fff0 8a3d 4f88 41be eb5c edbb
00000370: b6b0 d5bc 3c0c 88be 2cd0 673d 2a5c c03d
00000380: f7cb db3d c838 1a3e 1e07 b3bd f10e a13e
00000390: 1ecd 513e 871b 623e 5688 6ebd 5e1a 8abe
000003a0: 8141 fc3d 5fb2 7e3e aff8 cfbe b268 35bd
000003b0: eb87 4ebe 3b1e a73e 56f1 193e 30c5 64be
000003c0: 4e75 643e def5 aebd c0d0 2dbe 2734 85be
000003d0: 05fb 8abd 02fd aabd 4ee1 1bbe 58da 0cbe
000003e0: 383d 9d3e 4f0c 72be 5044 663e 9dfd df3d
000003f0: 26a9 853e a570 9ebd c7de a2bd f193 57bd

encoder_cnn.0.bias f4 [32]
-0.04663634 0.08911307 0.20287761 -0.6516089 -0.35262915 0.19381951 -0.44108385 -0.05806687
0.03829042 -0.059869118 0.35802683 0.059817992 0.4094096 -0.09103376 -0.26291966 0.22432664
-0.28039446 0.15407814 0.30982283 -0.1935436 -0.22217076 0.3910885 0.2520959 -0.2504898
-0.050946016 -0.12830527 -0.3663627 -0.3770888 -0.35906172 0.06309157 -0.38943192 0.15658368
00000000: bf05 3fbd ea80 b63d 26bf 4f3e d7cf 26bf
00000010: cf8b b4be 9f78 463e bed5 e1be 87d7 6dbd
00000020: 6ad6 1c3d 5239 75bd 4b4f b73e b603 753d
00000030: 239e d13e e86f babd 689d 86be e2b5 653e
00000040: dd8f 8fbe a9c6 1d3e 19a1 9e3e 4b30 46be
00000050: bb80 63be c03c c83e b712 813e 3340 80be
00000060: c5ac 50bd 7562 03be e493 bbbe c811 c1be
00000070: f0d6 b7be 2736 813d 9f63 c7be 7957 203e

encoder_cnn.2.weight f4 [64, 32, 3]
-0.09388327 0.09229063 0.0023106323 -0.029612714 0.0031837248 0.04519093 0.24773222 0.19782811
0.12184848 0.070772976 -0.085191585 -0.06397799 0.07395086 0.056610014 -0.031364687 -0.11167594
0.009581494 -0.08496173 0.25925243 0.2617828 0.20389579 -0.051546935 -0.066536404 -0.02201775
0.069959946 0.008675091 -0.0057238005 0.06743105 0.052284133 0.07005494 -0.020759843 0.10261279
-0.0034500307 0.08310278 0.07601521 0.01731441 0.012519712 -0.09546294 -0.0791121 0.17481966
0.13090497 0.09097124 0.120604694 -0.03933939 0.035707895 0.19292891 0.18244569 0.040610895
0.108888336 0.083183974 0.033998255 0.089493856 -0.012285644 0.022194536 -0.07732106 -0.102493204
-0.09785344 -0.01644063 -0.028408758 0.03762001 0.055064075 -0.115825474 0.006398895 0.06527237
0.036282517 -0.00427105 0.22988187 0.002666566 0.10520761 -0.023957072 -0.079584904 -0.025493031
0.053827297 -0.06852636 -0.031482846 0.06405332 0.17311314 -0.06520439 -0.105688296 0.03807284
-0.12025922 0.14436911 -0.015580784 -0.00019183393 -0.2091767 -0.36098224 -0.24410371 0.04070148
-0.030706136 0.046364047 0.17641982 0.017771771 0.095945515 0.05234065 0.04364311 -0.020980397
0.001101123 0.053709097 0.11981331 0.041171607 0.050756656 0.038290296 -0.14356594 -0.105852894
-0.09806687 -0.050838098 0.07135849 -0.058861915 -0.20056403 -0.16537833 -0.09854355 0.10284912
0.16052091 0.1609113 0.11503271 0.10783914 -0.0348923 0.10619989 0.156184 0.15527508
0.07426963 -0.13887063 0.026239462 0.091784 0.068615645 0.021343643 0.085736796 0.07621195
0.08709213 -0.26504844 -0.10986389 -0.37064174 0.14519608 0.15792175 0.12058253 0.06748593
0.1503847 0.16112827 -0.008131421 0.058097262 -0.060919452 -0.004806265 0.057492707 -0.007701948
-0.05488072 0.12963653 0.020257413 -0.14955899 -0.15259945 -0.1197988 0.16374499 0.1857326
0.21537317 0.22139594 0.16293657 0.16973777 0.06104633 0.052256107 0.016117876 -0.1554432
-0.13816461 -0.12655853 0.10774621 0.051732834 0.0142419 0.10864756 -0.015539946 0.066305324
-0.024563923 -0.025381522 0.040913947 -0.05952232 -0.06208578 -0.03814239 0.013855145 0.0104353735
-0.1597346 -0.058444593 0.032002665 0.0047642672 0.00692654 -0.01799565 0.100411355 0.14138986
0.09258908 0.07762517 0.025290746 0.068487994 -0.030717665 0.14678827 -0.04011019 -0.053755067
0.031102778 -0.030328436 -0.022687837 -0.027685191 0.12901774 -0.1759423 -0.10691662 -0.012626838
-0.1730279 -0.02760065 -0.12398346 -0.109687634 0.011653896 -0.11142253 -0.22967415 -0.35996473
0.09274957 -0.15555598 -0.03193865 -0.03821719 -0.062120702 -0.15238544 0.3094239 -0.09117618
0.05883676 -0.23152392 -0.022165835 0.020489354 -0.1556599 -0.17321391 -0.09705414 0.045412827
-0.022892503 -0.04122657 0.1331045 -0.10641 -0.22069165 -0.13640001 0.031292673 -0.21288744
-0.15812548 -0.14823037 0.22878024 -0.03425581 -0.19427377 0.027307527 -0.10209196 -0.0563437
0.13238734 0.029808553 -0.26092878 -0.004395658 -0.062307876 -0.16953325 -0.2656876 -0.32415906
0.021022419 -0.25747272 0.012478565 0.11463096 0.043516908 0.014314981 -0.14980507 0.02113762
00000000: df45 c0bd df02 bd3d fa6d 173b 5d96 f2bc
00000010: 0aa6 503b 201a 393d 84ad 7d3e 7493 4a3e
00000020: b28b f93d 6cf1 903d ed78 aebd e406 83bd
00000030: 8c73 973d e7df 673d 4278 00bd 5bb6 e4bd
00000040: b3fb 1c3c 6a00 aebd bcbc 843e 6508 863e
00000050: 0fca 503e e122 53bd 3d44 88bd 925e b4bc
00000060: 2947 8f3d f821 0e3c b88e bbbb 4a19 8a3d
00000070: e327 563d f778 8f3d 8c10 aabc a826 d23d
00000080: e919 62bb ca31 aa3d ddad 9b3d f3d6 8d3c
00000090: 7a1f 4d3c 1382 c3bd 8605 a2bd ed03 333e
000000a0: f40b 063e 214f ba3d 98ff f63d 5722 21bd
000000b0: 7142 123d 288f 453e 0bd3 3a3e 9c57 263d
000000c0: d900 df3d 5c5c aa3d c141 0b3d 8e48 b73d
000000d0: ba49 49bc 51d1 b53c 815a 9ebd f5e7 d1bd
000000e0: 6267 c8bd 80ae 86bc 7cb9 e8bc 7117 1a3d
000000f0: de8a 613d e835 edbd d2ad d13b 85ad 853d
00000100: fa9c 143d 2af4 8bbb 2766 6b3e 8ec1 2e3b
00000110: 1677 d73d 9f41 c4bc 69fd a2bd c3d6 d0bc
00000120: 037a 5c3d 8c57 8cbd 28f4 00bd 632e 833d
00000130: 9244 313e e189 85bd 1b73 d8bd 44f2 1b3d
00000140: 774a f6bd 7fd5 133e 8b46 7fbc 0727 49b9
00000150: 6b32 56be aad2 b8be 53f6 79be 98b6 263d
00000160: 6f8b fbbc 3ae8 3d3d 66a7 343e 1b96 913c
00000170: 157f c43d 2663 563d 1ec3 323d 15df abbc
00000180: 8f53 903a 12fe 5b3d ae60 f53d 8fa3 283d
00000190: 36e6 4f3d 49d6 1c3d f302 13be 67c9 d8bd
000001a0: 48d7 c8bd 9c3b 50bd 6624 923d 3119 71bd
000001b0: a860 4dbe f058 29be 33d1 c9bd 8fa2 d23d
000001c0: 985f 243e efc5 243e 4596 eb3d c4da dc3d
000001d0: 3aeb 0ebd 547f d93d b3ee 1f3e 6e00 1f3e
000001e0: ad1a 983d 1a34 0ebe 24f4 d63c 40f9 bb3d
000001f0: 5c86 8c3d ddd8 ae3c c696 af3d 0315 9c3d
00000200: 5c5d b23d 6eb4 87be 5200 e1bd c1c4 bdbe
00000210: 48ae 143e 3db6 213e f9f3 f63d 1036 8a3d
00000220: 72fe 193e cffe 243e a739 05bc 65f7 6d3d
00000230: ad86 79bd df7d 9dbb 797d 6b3d 9f60 fcbb
00000240: 9bca 60bd 70bf 043e e0f2 a53c fe25 19be
00000250: 0843 1cbe 1359 f5bd c4ac 273e b030 3e3e
00000260: c98a 5c3e 9eb5 623e d8d8 263e bdcf 2d3e
00000270: b70b 7a3d 800a 563d a309 843c 812c 1fbe
00000280: 067b 0dbe 8f98 01be 0caa dc3d cfe5 533d
00000290: dc56 693c 9d82 de3d 429b 7ebc 16cb 873d
000002a0: 483a c9bc e9ec cfbc 6295 273d adcd 73bd
000002b0: a94d 7ebd 323b 1cbd b100 633c 21f9 2a3c
000002c0: 7891 23be 9963 6fbd 3a15 033d 921d 9c3b
000002d0: 07f8 e23b 9d6b 93bc 78a4 cd3d 81c8 103e
000002e0: 589f bd3d f2f9 9e3d 8a2e cf3c 6f43 8c3d
000002f0: 9da3 fbbc aa4f 163e 954a 24bd 462e 5cbd
00000300: 41cb fe3c 5773 f8bc d8db b9bc 0ecc e2bc
00000310: 3a1d 043e 382a 34be 1af7 dabd cce0 4ebc
00000320: 3a2e 31be c21a e2bc 0aeb fdbd e9a3 e0bd
00000330: fcef 3e3c 7f31 e4bd b32f 6bbe 4c4d b8be
00000340: 7df3 bd3d 114a 1fbe 1ad2 02bd a189 1cbd
00000350: 4772 7ebd ee0a 1cbe cf6c 9e3e 94ba babd
00000360: d1fe 703d 9b14 6dbe 2095 b5bc 4ad9 a73c
00000370: 4f65 1fbe fd5e 31be 52c4 c6bd cd02 3a3d
00000380: 0f89 bbbc 31dd 28bd 8c4c 083e 7ced d9bd
00000390: fefc 61be 72ac 0bbe bf2c 003d 2aff 59be
000003a0: a5eb 21be b4c9 17be 5e45 6a3e d24f 0cbd
000003b0: b4ef 46be 09b4 df3c 9715 d1bd a7c8 66bd
000003c0: 8c90 073e 1131 f43c 7598 85be 7409 90bb
000003d0: 8b36 7fbd 209a 2dbe 3508 88be 2df8 a5be
000003e0: 3537 ac3c 77d3 83be e572 4c3c a3c3 ea3d
000003f0: c93e 323d 6289 6a3c 8066 19be cd28 ad3c

encoder_cnn.2.bias f4 [64]
0.08049846 0.043329738 -0.0004425617 0.037688278 0.07100502 0.24332197 0.025666153 0.017567215
-0.102823876 -0.015841922 0.19485885 -0.164467 0.0121576255 -0.0930824 0.071022466 0.010774367
0.038988806 0.025504999 -0.015908878 -0.083445825 -0.14290912 0.0041762623 -0.07847994 0.12013296
-0.13283755 0.12208267 -0.051142257 -0.04510741 0.008866816 -0.114612535 0.04719925 -0.23712488
-0.13557403 0.12858976 0.22198342 -0.052218165 -0.04737598 -0.038891517 0.03638518 0.0013947147
-0.120502256 -0.13109 0.038967088 -0.10495793 0.048528146 -0.29491436 -0.22236045 -0.14917609
-0.06308705 0.15769243 0.027654907 -0.08599432 -0.2493695 -0.057016592 -0.09681657 0.027106091
-0.05599258 -0.058420796 0.013017605 -0.09933013 -0.278138 0.2305272 -0.20463105 -0.16130428
00000000: 60dc a43d 867a 313d a007 e8b9 065f 1a3d
00000010: 146b 913d 6529 793e d341 d23c 1fe9 8f3c
00000020: 5395 d2bd ebc6 81bc 1489 473e 0a6a 28be
00000030: c730 473c fca1 bebd 3a74 913d f886 303c
00000040: bab2 1f3d dcef d03c 5653 82bc a5e5 aabd
00000050: c556 12be 07d9 883b 17ba a0bd 4508 f63d
00000060: 9106 08be 7b06 fa3d 8b7a 51bd 8cc2 38bd
00000070: 1f46 113c fab9 eabd 0054 413d ddd0 72be
00000080: ebd3 0abe 09ad 033e 9f4f 633e b7e2 55bd
00000090: 510d 42bd b64c 1fbd a008 153d dcce b63a
000000a0: e3c9 f6bd 753c 06be f49b 1f3d 2ff4 d6bd
000000b0: 73c5 463d 04ff 96be 75b2 63be 9ec1 18be
000000c0: c933 81bd 207a 213e 8b8c e23c ca1d b0bd
000000d0: b85a 7fbe 3b8a 69bd c447 c6bd 980d de3c
000000e0: 7a58 65bd a54a 6fbd cb47 553c 986d cbbd
000000f0: 1b68 8ebe 530f 6c3e cd8a 51be f32c 25be

encoder_lstm.weight_ih_l0 f4 [128, 64]
0.20298651 -0.049819678 0.07118367 0.03348514 0.3275531 0.03040738 -0.06110113 0.13304725
0.2979754 0.05314254 0.06695511 0.0713314 0.15255809 -0.1430401 -0.17055161 0.17241468
0.19273528 -0.11022573 -0.10143775 -0.0015668449 -0.012725398 0.07807028 0.20239222 -0.11459314
0.04633547 0.030527554 -0.38272637 0.13849542 0.05835178 -0.10007091 0.10979612 0.08740431
0.07080017 0.20721538 -0.10158151 -0.0772757 -0.030446956 -0.08911277 0.14827874 -0.1267303
0.03414801 0.1838377 0.2084763 -0.0736731 -0.047688946 -0.12324959 -0.10606473 0.22978234
0.3023053 0.18580304 0.13219637 -0.07068741 0.1865471 -0.03750516 -0.12927327 0.10608353
-0.0017946119 -0.21651278 -0.07756759 -0.042668678 -0.012976467 0.36359853 -0.10856525 -0.08351205
-0.11817381 -0.026590738 -0.167349 -0.08862152 -0.12985328 -0.20445742 0.097932994 0.09595575
0.09011103 0.15695657 -0.06504474 -0.14586495 -0.06838469 -0.025916956 0.042981282 0.1669113
0.105013855 0.09063584 -0.20240508 -0.04693358 0.2068002 -0.12207141 0.003106674 -0.041643333
0.20128706 -0.27807093 0.09437376 0.1111802 -0.1046987 -0.056806516 -0.15719363 0.038175136
-0.030961715 -0.009978359 -0.34008455 -0.07035935 -0.16789417 -0.14121872 0.16343927 0.0024865607
-0.05533001 -0.037508044 0.069898404 -0.029968364 0.23961155 -0.13867094 0.3739736 -0.0314255
-0.09323837 -0.083488345 -0.1267245 -0.008737984 -0.16496621 -0.06816646 0.16123804 0.13954787
0.057387203 -0.046217494 -0.06081126 -0.12293122 0.143394 -0.2633524 -0.2964806 -0.22250542
0.03391546 0.015445811 0.28445056 -0.11760244 0.06048594 -0.010242972 0.19364795 0.006828278
0.047814745 0.14087275 0.07478464 0.045726333 -0.11627578 -0.12133311 0.08538314 0.01710928
-0.06629532 0.02508952 -0.10422455 0.20029874 0.11486839 -0.03607571 0.13826835 -0.097276114
0.13842075 -0.121195756 0.06432697 -0.019733824 0.117630765 0.12460541 -0.21976654 0.0205695
-0.07417228 0.005393846 -0.20851812 0.073972896 0.026184889 -0.08972868 -0.04306575 0.02240276
0.123924285 0.10290629 -0.07845558 0.0903288 0.24211447 -0.023951096 -0.07096598 -0.11627729
0.11472434 0.09695283 0.19929102 -0.011458714 -0.09430412 -0.041799854 0.10454419 0.01574137
0.0032974968 0.0019238259 0.04425448 -0.029733237 0.026523268 -0.123685196 0.05597799 -0.10044611
-0.15104558 0.18669419 -0.18863036 0.18243739 -0.18088129 -0.05700937 -0.04500578 -0.20501825
0.084046565 0.037610188 -0.16049418 0.20304398 0.02247187 -0.17202324 0.0015168599 -0.06605395
-0.19930004 -0.45145392 -0.17019674 0.107015334 0.0459086 0.030128647 0.18256833 0.090548344
0.17341472 -0.13187806 -0.084060125 0.20203812 0.0026904831 0.09884635 -0.23000284 0.14061645
-0.111170925 -0.1285304 -0.024410449 -0.04443554 -0.19419135 0.017671956 -0.027578318 0.07454513
0.16579424 0.13697314 -0.024534 0.34188908 -0.05115876 0.17698602 0.18365498 0.06844023
0.028876314 0.17703661 0.13558242 0.016147714 0.16870652 0.028360404 -0.03783761 -0.1252161
0.0737123 0.075247414 0.23456228 -0.07648971 0.054420594 -0.18056342 -0.31372035 -0.18631987
00000000: b2db 4f3e b80f 4cbd bec8 913d b727 093d
00000010: 0ab5 a73e e618 f93c 2e45 7abd 8a3d 083e
00000020: 3b90 983e feab 593d c31f 893d 3216 923d
00000030: 3038 1c3e 1b79 12be 15a5 2ebe 798d 303e
00000040: 665c 453e 07be e1bd 98be cfbd 975e cdba
00000050: 307e 50bc 50e3 9f3d e83f 4f3e cfaf eabd
00000060: 43ca 3d3d ec14 fa3c b6f4 c3be bed1 0d3e
00000070: 4702 6f3d faf1 ccbd cadc e03d 0801 b33d
00000080: aeff 903d 4530 543e f709 d0bd b942 9ebd
00000090: e56b f9bc c280 b6bd 62d6 173e 96c5 01be
000000a0: c9de 0b3d f33f 3c3e d07a 553e ece1 96bd
000000b0: 7c55 43bd 486a fcbd 7738 d9bd 104c 6b3e
000000c0: c3c7 9a3e 2743 3e3e 7c5e 073e 90c4 90bd
000000d0: 3406 3f3e 039f 19bd 3660 04be 5242 d93d
000000e0: 2f39 ebba 87b5 5dbe c2db 9ebd 5ac5 2ebd
000000f0: 3f9b 54bc 9629 ba3e 7557 debd 5e08 abbd
00000100: 1c05 f2bd d2d4 d9bc 895d 2bbe 337f b5bd
00000110: 42f8 04be 495d 51be 1891 c83d 7384 c43d
00000120: 228c b83d 39b9 203e 2d36 85bd 9f5d 15be
00000130: 460d 8cbd cc4f d4bc 240d 303d ccea 2a3e
00000140: 8111 d73d 499f b93d 4743 4fbe 6d3d 40bd
00000150: 6ec3 533e 9300 fabd 5799 4b3b 3392 2abd
00000160: 321e 4e3e 505f 8ebe 0847 c13d 72b2 e33d
00000170: 466c d6bd f3ad 68bd 5ef7 20be 885d 1c3d
00000180: 6ca3 fdbc 457c 23bc 901f aebe 9018 90bd
00000190: 73ec 2bbe a49b 10be a05c 273e 91f5 223b
000001a0: b8a1 62bd 09a2 19bd e526 8f3d 3780 f5bc
000001b0: bb5c 753e c1ff 0dbe 7879 bf3e 06b8 00bd
000001c0: c2f3 bebd f0fb aabd 11c4 01be c329 0fbc
000001d0: e7ec 28be db9a 8bbd 961b 253e a3e5 0e3e
000001e0: d80e 6b3d 8e4e 3dbd 3a15 79bd 5dc3 fbbd
000001f0: e0d5 123e 20d6 86be 4ecc 97be 76d8 63be
00000200: f0ea 0a3d 6d10 7d3c 81a3 913e 8cd9 f0bd
00000210: 1bc0 773d 23d2 27bc a64b 463e bfbf df3b
00000220: 65d9 433d f240 103e b028 993d 894b 3b3d
00000230: ff21 eebd 7e7d f8bd 5bdd ae3d c328 8c3c
00000240: d7c5 87bd 8988 cd3c ae73 d5bd 1d1b 4d3e
00000250: 1e40 eb3d 20c4 13bd 3896 0d3e b338 c7bd
00000260: 2bbe 0d3e 7b35 f8bd dcbd 833d d4a8 a1bc
00000270: 66e8 f03d 1f31 ff3d 7b0a 61be 5e81 a83c
00000280: a3e7 97bd dcbe b03b c685 55be 1a7f 973d
00000290: b181 d63c acc3 b7bd b665 30bd fe85 b73c
000002a0: 04cc fd3d 88c0 d23d 52ad a0bd 4efe b83d
000002b0: dbec 773e 1735 c4bc 9d56 91bd ca22 eebd
000002c0: 98f4 ea3d 358f c63d f212 4c3e 54bd 3bbc
000002d0: 8522 c1bd 5336 2bbd 441b d63d 0cf4 803c
000002e0: d11a 583b e328 fc3a 3044 353d 1e93 f3bc
000002f0: 5347 d93c aa4e fdbd 2d49 653d b1b6 cdbd
00000300: b1ab 1abe c32c 3f3e 5128 41be ded0 3a3e
00000310: f238 39be a882 69bd fb57 38bd 4ef0 51be
00000320: 9b20 ac3d 240d 1a3d 9658 24be c3ea 4f3e
00000330: ed16 b83c dc26 30be 5fd1 c63a 4b47 87bd
00000340: 4f15 4cbe f824 e7be 0e48 2ebe db2a db3d
00000350: a80a 3c3d 5ad0 f63c 31f3 3a3e 6971 b93d
00000360: a193 313e 0b0b 07be b727 acbd 15e3 4e3e
00000370: d152 303b f56f ca3d dd85 6bbe c2fd 0f3e
00000380: 95ad e3bd 799d 03be 6cf8 c7bc 0a02 36bd
00000390: 19da 46be c7c4 903c edeb e1bc 1eab 983d
000003a0: f7c5 293e b042 0c3e 87fb c8bc 160c af3e
000003b0: d98b 51bd d33b 353e 0d10 3c3e 642a 8c3d
000003c0: 058e ec3c 1649 353e 1ed6 0a3e 3648 843c
000003d0: 67c1 2c3e 1454 e83c 9cfb 1abd a638 00be
000003e0: 79f6 963d 511b 9a3d 1831 703e a3a6 9cbd
000003f0: 21e8 5e3d 9ee5 38be f49f a0be a3ca 3ebe

encoder_lstm.weight_hh_l0 f4 [128, 32]
0.045894932 0.031575087 -0.12377416 0.0024987485 0.11509686 0.03544475 -0.1405275 0.056351587
-0.080618784 0.21430302 0.020913878 -0.08311556 -0.13975783 -0.017443812 0.033547457 -0.25444812
-0.12353669 -0.058142513 0.14512397 -0.10182079 0.20591077 -0.0014439576 0.21606092 -0.18278648
-0.13986747 -0.21254373 -0.1477328 -0.23659909 0.113996156 0.12369973 0.2705007 -0.28308895
-0.19637933 -0.052766494 -0.2394116 0.24572496 -0.072242476 0.12121116 0.21827088 -0.032568987
0.11015478 -0.10186402 -0.15931006 0.19439451 0.21282327 0.08219823 0.062201746 0.1971298
-0.031683832 0.036582466 -0.14223471 -0.13776638 -0.1731704 0.005903676 -0.08459721 -0.20561327
0.0627163 -0.056261696 0.09692099 -0.002163704 -0.10773596 -0.17364779 -0.16180344 0.21712476
-0.269828 0.063204914 -0.0633209 -0.06464907 -0.018962469 -0.022489736 0.3067741 0.28362146
0.051482234 -0.028836207 -0.30736703 0.1461193 0.13727099 0.10803675 -0.21353643 -0.029457916
-0.08964901 0.16247144 -0.010110519 -0.14062677 -0.028005943 -0.094476074 -0.13538873 -0.15158175
0.09440181 0.051616173 -0.24658653 0.037132233 -0.009496508 -0.06911772 -0.27597463 0.11978495
-0.18084787 -0.15770534 -0.16680168 0.03823902 -0.31717843 0.108623594 0.084287256 0.31650043
-0.43143865 -0.21747045 -0.36094597 -0.005002987 -0.005329726 0.015964 -0.24719834 0.087339945
-0.0725715 0.090154566 -0.06354511 -0.20074451 0.06628965 -0.048702285 -0.092296 -0.34941858
0.1315443 -0.049485292 -0.29085413 -0.022930995 -0.23936178 -0.048510063 0.17813241 0.1809721
0.32776305 0.088229105 0.06122175 -0.11040824 0.18086967 -0.2265294 -0.03574504 -0.0006942854
0.20183909 0.118748866 0.042598844 0.07232041 -0.36096203 0.14204395 0.21677613 -0.04925435
0.22574218 -0.12475523 0.032782644 0.03104803 0.28481498 0.21140759 0.024440292 -0.09390323
-0.03946011 0.11500269 0.081628256 -0.08023715 0.40612066 0.02880371 -0.012097281 -0.09676343
-0.093496785 -0.13241212 0.19590686 0.04708421 0.19473603 0.010075214 -0.01635294 0.13188756
0.05553838 0.04927672 0.114672065 -0.12131131 0.20558962 0.040438674 0.243261 0.016811049
0.058998033 -0.04885821 -0.13303271 0.18055338 0.088680856 0.1638743 0.10670739 0.22388533
-0.16094589 -0.018307133 0.10428774 -0.07193989 0.084366746 0.0041161394 -0.018558288 0.006587445
-0.02150707 -0.40008867 0.08098703 0.17790797 -0.06338863 -0.1866071 0.14955713 -0.017679296
-0.09809996 0.23778225 -0.08944956 -0.43216145 0.06435726 0.045720734 -0.09297633 -0.21227765
-0.10966779 -0.5183166 0.120808125 -0.11491435 -0.13130601 0.18805541 0.14013267 -0.21803032
0.22215407 -0.22386073 0.09807256 -0.16650164 -0.10664954 0.17774075 0.07854895 0.17657752
-0.111639425 -0.06172331 -0.20420358 0.034656253 -0.034436222 0.10602017 0.08489495 0.16320641
-0.25534707 -0.12402211 0.0027774011 0.06404104 0.04576773 0.029414862 -0.022064092 -0.013805601
0.046390306 0.026321648 -0.26008338 0.15796712 0.102867596 -0.21438806 0.085388176 0.036986638
-0.011067399 -0.20236768 0.15964173 -0.059942707 0.038284034 -0.2686028 0.15674439 0.18163031
00000000: 53fc 3b3d e154 013d 4f7d fdbd 0bc2 233b
00000010: e7b7 eb3d 842e 113d 71e6 0fbe ecd0 663d
00000020: 761b a5bd 4072 5b3e 9553 ab3c 7e38 aabd
00000030: ad1c 0fbe 53e6 8ebc 0f69 093d 0647 82be
00000040: ce00 fdbd d826 6ebd 619b 143e 6b87 d0bd
00000050: 46da 523e 2d43 bdba 133f 5d3e 612c 3bbe
00000060: 6b39 0fbe 10a5 59be 4447 17be 0847 72be
00000070: d176 e93d 4956 fd3d 117f 8a3e 09f1 90be
00000080: aa17 49be ae21 58bd 5128 75be 539f 7b3e
00000090: ddf3 93bd 8f3d f83d 6782 5f3e 0f67 05bd
000000a0: d498 e13d 159e d0bd 2d22 23be 5b0f 473e
000000b0: 58ee 593e 8c57 a83d 42c7 7e3d 65dc 493e
000000c0: e8c6 01bd 7fd7 153d faa5 11be a112 0dbe
000000d0: 9553 31be a073 c13b 4d41 adbd 498c 52be
000000e0: 6771 803d aa72 66bd 837e c63d eecc 0dbb
000000f0: aca4 dcbd bad0 31be cdaf 25be f455 5e3e
00000100: e526 8abe 9471 813d 63ae 81bd bb66 84bd
00000110: 2e57 9bbc 653c b8bc 7f11 9d3e d536 913e
00000120: 09df 523d e939 ecbc 365f 9dbe 4ca0 153e
00000130: c490 0c3e 5f42 dd3d 4ba9 5abe ba51 f1bc
00000140: e699 b7bd ea5e 263e 97a6 25bc 7700 10be
00000150: b86c e5bc ac7c c1bd 58a3 0abe 3f38 1bbe
00000160: bc55 c13d 7b6b 533d 2e81 7cbe f817 183d
00000170: 3e97 1bbc 978d 8dbd 8c4c 8dbe d051 f53d
00000180: 2f30 39be 827d 21be 0fce 2abe 85a0 1c3d
00000190: 3665 a2be 0c76 de3d cc9e ac3d 580c a23e
000001a0: 87e5 dcbe 93b0 5ebe e9cd b8be 19f0 a3bb
000001b0: fba4 aebb efc6 823c 9021 7dbe 49df b23d
000001c0: 5ea0 94bd f5a2 b83d f023 82bd f88f 4dbe
000001d0: dec2 873d 0c7c 47bd af05 bdbd fee6 b2be
000001e0: 8db3 063e 17b1 4abd d5ea 94be c8d9 bbbc
000001f0: 411b 75be 7db2 46bd 5868 363e c050 393e
00000200: 8fd0 a73e 76b1 b43d a8c3 7a3d b71d e2bd
00000210: e635 393e 53f7 67be 6469 12bd b400 36ba
00000220: e8ae 4e3e 9b32 f33d 207c 2e3d b91c 943d
00000230: 04d0 b8be f873 113e 90fa 5d3e eebe 49bd
00000240: f528 673e ac7f ffbd 1847 063d 7058 fe3c
00000250: 45d3 913e 3b7b 583e 0237 c83c 5650 c0bd
00000260: eda0 21bd 8886 eb3d b72c a73d 6053 a4bd
00000270: 0cef cf3e c2f5 eb3c ad33 46bc e82b c6bd
00000280: 3e7b bfbd 0b97 07be cf9b 483e 5fdb 403d
00000290: e268 473e 8312 253c 9af6 85bc 880d 073e
000002a0: 367c 633d 63d6 493d 30d9 ea3d 1072 f8bd
000002b0: 1686 523e 06a3 253d 6919 793e 53b7 893c
000002c0: eca7 713d 8c1f 48bd ba39 08be fce2 383e
000002d0: 4f9e b53d aace 273e 6789 da3d 3242 653e
000002e0: 00cf 24be d7f8 95bc d094 d53d 3955 93bd
000002f0: 79c8 ac3d aee0 863b 8d07 98bc 7edb d73b
00000300: 982f b0bc 6cd8 ccbe 87dc a53d 822d 363e
00000310: e6d1 81bd ee15 3fbe 8125 193e 2cd4 90bc
00000320: a2e8 c8bd 317d 733e 5531 b7bd 4444 ddbe
00000330: bdcd 833d aa45 3b3d 606a bebd 505f 59be
00000340: 8299 e0bd 66b0 04bf 406a f73d 3758 ebbd
00000350: 1575 06be 9991 403e f07e 0f3e 5743 5fbe
00000360: 5b7c 633e bf3b 65be 44da c83d 687f 2abe
00000370: 136b dabd ac01 363e 46de a03d bdd0 343e
00000380: 36a3 e4bd 95d1 7cbd be1a 51be b7f3 0d3d
00000390: ff0c 0dbd 1a21 d93d 67dd ad3d 951f 273e
000003a0: dabc 82be 4eff fdbd 0f05 363b f327 833d
000003b0: f176 3b3d 70f7 f03c c1bf b4bc e330 62bc
000003c0: c303 3e3d 7fa0 d73c a629 85be 22c2 213e
000003d0: 3fac d23d 8b88 5bbe ffdf ae3d 4d7f 173d
000003e0: 0954 35bc 7939 4fbe 1f79 233e 7c86 75bd
000003f0: b8cf 1c3d 4e86 89be 9a81 203e 4cfd 393e

encoder_lstm.bias_ih_l0 f4 [128]
-0.020425692 -0.040811375 -0.01544742 -0.18801355 0.2020722 0.2323653 -0.06658116 0.05907943
-0.02169003 0.20589203 -0.02602778 -0.07912384 -0.113937385 -0.21327265 0.07700932 0.0051827165
0.052149683 0.113934934 -0.27162847 -0.04009446 -0.024953656 0.24481855 -0.08403417 0.26983944
0.15403321 -0.15390368 0.113510534 -0.2012336 0.17842415 0.11593741 0.13343742 -0.11721129
0.16571961 -0.062322192 -0.22854432 0.07933199 0.18350537 0.14358386 0.1853074 -0.050083365
-0.124587595 -0.08413972 0.14971153 -0.05812087 -0.16013706 -0.19303907 -0.18829255 -0.027326755
0.22081895 0.07293874 -0.02295769 0.16728853 0.009592149 0.12953971 -0.06954337 -0.044364084
0.034934334 -0.06843428 -0.017655106 -0.027434887 -0.007922886 0.005280778 -0.09254446 0.22370636
0.065135695 0.13660918 -0.09661929 0.04856813 0.18835877 -0.27384883 -0.17034064 -0.25492072
-0.11994767 0.2194889 0.14566398 -0.035797115 -0.28650576 -0.074993275 0.09496714 -0.2206612
0.14250351 0.007287308 0.1600888 0.030310454 0.0032908283 0.15787163 -0.05367955 0.074540116
-0.08780194 0.13292122 -0.02974922 -0.102898404 0.19814928 0.13476455 0.12049354 -0.14421733
0.09544675 -0.2975801 -0.3099764 -0.11915808 0.14217794 -0.11227811 0.089541495 0.1166753
-0.020545937 0.19174108 0.14875098 0.00603231 -0.22086725 -0.1384256 0.03324277 -0.09949278
0.19255163 0.033655796 0.029061772 -0.19022614 0.01889492 0.22991917 -0.12071158 0.34380767
-0.2881278 -0.033239506 -0.15959644 0.07392453 0.39686874 -0.039059564 -0.19439068 0.24402875
00000000: c853 a7bc d429 27bd 2d17 7dbc a086 40be
00000010: 04ec 4e3e 2bf1 6d3e b45b 88bd 46fd 713d
00000020: 4aaf b1bc 5cd5 523e 3638 d5bc ae0b a2bd
00000030: 0158 e9bd 2564 5abe 10b7 9d3d c7d3 a93b
00000040: e89a 553d b856 e93d e312 8bbe 173a 24bd
00000050: 9c6b ccbc b7b1 7a3e 1b1a acbd 6528 8a3e
00000060: e2ba 1d3e ed98 1dbe 3678 e83d 2e10 4ebe
00000070: d2b4 363e 9870 ed3d d2a3 083e 790c f0bd
00000080: 67b2 293e 8e45 7fbd 8607 6abe cf78 a23d
00000090: d5e8 3b3e a607 133e 39c1 3d3e 3724 4dbd
000000a0: c827 ffbd 7251 acbd fb4d 193e 2610 6ebd
000000b0: f8fa 23be 09ac 45be c3cf 40be 5cdc dfbc
000000c0: 5d1e 623e e860 953d c411 bcbc af4d 2b3e
000000d0: 6428 1d3c 0fa6 043e c16c 8ebd 1db7 35bd
000000e0: 4e17 0f3d 4627 8cbd 71a1 90bc 21bf e0bc
000000f0: fece 01bc 600a ad3b f387 bdbd 4813 653e
00000100: dd65 853d 47e3 0b3e 56e0 c5bd 60ef 463d
00000110: 1fe1 403e ea35 8cbe c76d 2ebe f884 82be
00000120: 20a7 f5bd b3c1 603e f028 153e ff9f 12bd
00000130: e2b0 92be 1396 99bd 227e c23d 02f5 61be
00000140: 71ec 113e 5fca ee3b 52ee 233e a14d f83c
00000150: f0aa 573b 1aa9 213e 16df 5bbd 7da8 983d
00000160: 81d1 b3bd 801c 083e a3b4 f3bc 66bc d2bd
00000170: a5e7 4a3e b8ff 093e 51c5 f63d b5ad 13be
00000180: 9679 c33d 6b5c 98be 3ab5 9ebe 2709 f4bd
00000190: 1897 113e 11f2 e5bd 8861 b73d 76f3 ee3d
000001a0: f44f a8bc c657 443e 2d52 183e afaa c53b
000001b0: 062b 62be 71bf 0dbe 9229 083d dfc2 cbbd
000001c0: 412c 453e a9da 093d f412 ee3c a4ca 42be
000001d0: 85c9 9a3c ee6f 6b3e a237 f7bd 8f07 b03e
000001e0: 7d85 93be 2626 08bd 406d 23be be65 973d
000001f0: 6132 cb3e ecfc 1fbd 5a0e 47be ace2 793e

encoder_lstm.bias_hh_l0 f4 [128]
0.22197068 -0.21021833 -0.10050983 -0.21030013 0.25007522 -0.041935217 0.17665191 -0.07260597
0.24257253 0.13397978 -0.10272288 -0.27247885 -0.1904728 -0.04524841 -0.013553508 0.0314514
-0.081033036 0.07848158 -0.32595065 -0.12545808 -0.15329915 0.21452765 -0.081782565 0.16951504
0.06910203 0.105028875 -0.06728409 -0.18915987 0.33740926 -0.10752768 -0.10185513 0.14692774
0.060155354 0.084016055 -0.25456548 -0.04863677 0.009302217 0.110074304 0.05366187 -0.08238785
0.059881 0.07733512 0.1546675 -0.08537367 -0.040807426 -0.1723763 0.11564523 -0.06399013
-0.0021690226 -0.19608438 -0.028352091 0.029594453 -0.123492174 0.22780558 -0.11606007 -0.047844827
0.1289139 -0.16850187 -0.1697559 -0.23445654 0.3095682 0.10590068 0.10105159 0.080628075
0.28461853 -0.020512166 0.11130862 -0.2226369 -0.051706757 -0.18908127 -0.16796799 -0.18975483
0.13913588 0.12128382 0.27411652 0.03351696 -0.26959065 0.14918591 0.17730403 -0.15573184
0.1792373 -0.22068988 0.22554737 -0.17945905 0.08775317 -0.043202158 -0.12763879 0.31570756
-0.1618759 -0.031686563 -0.0876881 -0.04789513 0.18881387 -0.1195608 -0.20393361 0.047305636
0.08186316 -0.09277787 -0.13165238 0.07787997 0.11507793 0.039036 0.16831723 0.01272459
-0.15867275 0.037007265 -0.05846792 0.19608496 0.08924106 -0.16193359 0.12387124 0.0040667043
-0.08532903 0.23798867 -0.030946327 -0.008801234 0.09836309 0.2921426 -0.007123084 0.18896331
-0.17973058 -0.003710596 -0.035872284 0.19579484 0.36459324 -0.052851807 -0.061961114 0.25313428
00000000: 484c 633e 7943 57be 19d8 cdbd eb58 57be
00000010: dc09 803e 43c4 2bbd 3de4 343e 70b2 94bd
00000020: ef64 783e ff31 093e 6060 d2bd 5982 8bbe
00000030: 4d0b 43be 6656 39bd 880f 5ebc 2fd3 003d
00000040: a6f4 a5bd f3ba a03d 01e3 a6be 1578 00be
00000050: 74fa 1cbe 23ad 5b3e 9e7d a7bd 5a95 2d3e
00000060: 5d85 8d3d 6119 d73d 3ecc 89bd 20b3 41be
00000070: e8c0 ac3e 7937 dcbd 6c99 d0bd 3a74 163e
00000080: 7665 763d 9c10 ac3d 6856 82be 5a37 47bd
00000090: 5368 183c a36e e13d 8dcc 5b3d f6ba a8bd
000000a0: c845 753d e061 9e3d 2861 1e3e 64d8 aebd
000000b0: b025 27bd 6a83 30be 68d7 ec3d 420d 83bd
000000c0: 2926 0ebb 58ca 48be a542 e8bc 1170 f23c
000000d0: 77e9 fcbd de45 693e e7b0 edbd f0f8 43bd
000000e0: 0102 043e c18b 2cbe 7ed4 2dbe 6015 70be
000000f0: b97f 9e3e 75e2 d83d 23f4 ce3d 5520 a53d
00000100: 85b9 913e 2109 a8bc c6f5 e33d edfa 63be
00000110: 77ca 53bd 859e 41be cdff 2bbe 174f 42be
00000120: a379 0e3e a763 f83d 0059 8c3e 1449 093d
00000130: c907 8abe 31c4 183e 308f 353e 2b78 1fbe
00000140: fc89 373e 87fc 61be e4f5 663e 1dc4 37be
00000150: efb7 b33d bff4 30bd beb3 02be 6ca4 a13e
00000160: ccc2 25be c5c9 01bd d295 b3bd af2d 44bd
00000170: 6c58 413e 4bdc f4bd f9d3 50be 8ec3 413d
00000180: dfa7 a73d 5302 bebd e2cf 06be 897f 9f3d
00000190: faad eb3d 36e4 1f3d 5a5b 2c3e cc7a 503c
000001a0: 1c7b 22be ee94 173d 0f7c 6fbd 7fca 483e
000001b0: 04c4 b63d ebd1 25be 34b0 fd3d fd41 853b
000001c0: fdc0 aebd 4db3 733e 2783 fdbc 0d33 10bc
000001d0: 9672 c93d b793 953e c268 e9bb 997f 413e
000001e0: 4b0b 38be 782d 73bb d1ee 12bd 717e 483e
000001f0: f7ab ba3e 237b 58bd f0ca 7dbd d19a 813e

encoder_lstm.weight_ih_l1 f4 [128, 32]
-0.065166615 -0.027001815 0.23519094 0.045013044 0.24788713 0.16060372 -0.3035588 0.092496864
0.004267625 -0.10672443 0.26872733 -0.17142244 -0.17167017 0.07572551 0.04204371 0.17078447
0.031424113 -0.019275794 -0.21556738 0.08014716 0.07282997 0.022501823 -0.19193596 0.011619502
0.12371826 0.021534098 0.29273215 -0.19281222 0.31377712 -0.32336852 0.12956013 -0.017224489
0.20509048 0.018835727 -0.14193828 0.24130183 0.09291737 0.031564813 -0.18607084 -0.030152839
-0.08156064 -0.059751004 0.1210695 0.017657498 0.06890177 -0.12008844 -0.10819344 0.089953326
-0.119482785 -0.040929496 0.041934554 -0.03597522 0.116972655 -0.15603012 -0.03132416 0.13611679
-0.06600183 0.0015871628 -0.009434172 0.0074517285 0.037130028 0.0008240606 -0.19333136 -0.16473746
0.06391774 0.036738478 -0.36494434 0.06824554 0.23715271 0.3851385 0.17657454 0.09614153
-0.046177983 0.15701562 0.03831007 0.05466122 -0.18494715 -0.110023476 0.19276838 -0.082515195
-0.09557342 0.01573384 0.26216218 0.090488814 0.1618093 -0.3326124 -0.04235443 -0.21619506
-0.14260365 0.06210562 -0.17292488 0.07538782 -0.018575197 -0.3554609 0.01111341 0.09020855
0.114208765 0.25326282 -0.14235851 0.23700054 0.23679984 0.23355727 -0.018145682 0.040298294
-0.12889697 -0.032440983 0.046107747 -0.07344087 0.32098693 0.03779866 -0.067746766 0.12241139
-0.14179358 0.0054984014 0.044409376 -0.111598685 -0.035306416 -0.085722305 0.15673278 0.2713692
0.08237045 0.012132045 -0.044264413 0.21357532 0.28835976 -0.333559 0.16624247 0.17968443
0.1407256 0.033634327 -0.25282857 0.030508894 0.31918335 0.05435874 -0.36446843 0.018077567
-0.31097028 -0.106768034 0.18013169 -0.081801094 -0.07389636 0.24512456 0.38413328 -0.04759415
-0.031049516 -0.12141642 -0.094427474 0.33175817 0.061293043 -0.12055591 -0.016696002 0.2702287
0.21128106 0.032276716 0.039434217 -0.080527715 0.14427595 -0.22729994 0.23150451 0.13024272
0.057056885 0.070306696 -0.06358526 0.05728996 0.08797181 -0.04192062 0.12422451 0.10932004
-0.24719362 -0.3148406 -0.14232017 0.03187599 0.15948988 -0.22256882 -0.18322654 0.058110777
-0.042151317 0.017547099 0.0050931154 0.09685488 -0.25722918 -0.048206583 0.19548272 0.021205034
0.0449997 0.007612233 0.026921358 0.29083195 -0.09601569 0.1555103 -0.025974866 0.042571474
0.12325612 0.2488241 -0.18648289 0.16028374 -0.04138691 0.070968516 -0.16675125 0.05560394
0.007306676 0.1385303 0.23686402 -0.19938645 0.113716036 -0.04337398 -0.025185222 -0.017369036
0.16514054 -0.14129172 -0.038635895 -0.0006263153 -0.11011328 -0.011919683 -0.19085182 0.13895069
-0.14905652 -0.11388353 -0.0059298733 -0.2706229 0.11730607 -0.019053161 -0.05245493 -0.0659734
0.06643644 0.16385888 0.0020623307 0.22902569 0.17994028 0.123029694 0.07799256 0.187396
-0.17372403 0.12889284 -0.03945352 -0.130315 0.124764144 0.06696321 0.064087555 -0.047083672
0.12203906 -0.12107549 0.030770702 -0.04021417 0.11435585 -0.054900877 -0.04966376 -0.09823955
0.18945386 -0.027561737 -0.15023096 -0.058356926 0.21346888 -0.15572077 0.15143341 0.253932
00000000: 1376 85bd e932 ddbc e5d5 703e 995f 383d
00000010: 20d6 7d3e 4d75 243e 0f6c 9bbe ff6e bd3d
00000020: 6fd7 8b3b 5792 dabd a196 893e 5d89 2fbe
00000030: 4eca 2fbe fa15 9b3d 0636 2c3d 20e2 2e3e
00000040: 92b6 003d 45e8 9dbc b2bd 5cbe 3224 a43d
00000050: e127 953d be55 b83c dc8a 44be b95f 3e3c
00000060: 0060 fd3d 4768 b03c fde0 953e 9170 45be
00000070: 65a7 a03e 8f90 a5be 69ab 043e 5f1a 8dbc
00000080: 3d03 523e 624d 9a3c 4558 11be d417 773e
00000090: 764b be3d 1b4a 013d 5b89 3ebe 1603 f7bc
000000a0: 4409 a7bd 78bd 74bd 49f3 f73d 75a6 903c
000000b0: 5f1c 8d3d eef0 f5bd 8694 ddbd 7339 b83d
000000c0: 64b3 f4bd b0a5 27bd 91c3 2b3d c15a 13bd
000000d0: 5c8f ef3d 5cc6 1fbe c34d 00bd 3362 0b3e
000000e0: f82b 87bd 5908 d03a c991 1abc a12d f43b
000000f0: a815 183d c505 583a a8f8 45be f0b0 28be
00000100: 4ee7 823d 167b 163d fcd9 babe 51c4 8b3d
00000110: 29d8 723e e030 c53e f5cf 343e dae5 c43d
00000120: 2025 3dbd b4c8 203e 05eb 1c3d 72e4 5f3d
00000130: c962 3dbe fd53 e1bd 1365 453e bafd a8bd
00000140: ffbb c3bd 41e4 803c 1f3a 863e 3352 b93d
00000150: 56b1 253e 2c4c aabe d77b 2dbd 3d62 5dbe
00000160: b106 12be 7662 7e3d 3813 31be ee64 9a3d
00000170: 032b 98bc f9fe b5be 0515 363c 43bf b83d
00000180: 49e6 e93d aaab 813e 6ec6 11be 45b0 723e
00000190: a87b 723e a329 6f3e 41a6 94bc d30f 253d
000001a0: 91fd 03be d6e0 04bd 7adb 3c3d 2b68 96bd
000001b0: 6658 a43e c5d2 1a3d d1be 8abd d3b2 fa3d
000001c0: 5632 11be ef2b b43b 9be6 353d da8d e4bd
000001d0: 769d 10bd 2d8f afbd 8f7e 203e e7f0 8a3e
000001e0: d7b1 a83d 7cc5 463c 9a4e 35bd 7db3 5a3e
000001f0: e4a3 933e 3fc8 aabe 773b 2a3e 32ff 373e
00000200: 5f1a 103e 26c4 093d bf72 81be caed f93c
00000210: 006c a33e 45a7 5e3d 9b9b babe 6817 943c
00000220: 7f37 9fbe 33a9 dabd 7174 383e 5587 a7bd
00000230: fa56 97bd ef01 7b3e 1ead c43e 15f2 42bd
00000240: 8e5b febc 2ca9 f8bd 3163 c1bd 35dc a93e
00000250: 6a0e 7b3d 04e6 f6bd 0ec6 88bc 6b5b 8a3e
00000260: 105a 583e 9734 043d c685 213d b7eb a4bd
00000270: 13bd 133e 51c1 68be 850f 6d3e 595e 053e
00000280: 7bb4 693d f5fc 8f3d fd38 82bd e1a8 6a3d
00000290: 902a b43d f5b4 2bbd 6b69 fe3d 2fe3 df3d
000002a0: 5320 7dbe ca32 a1be 61bc 11be 6690 023d
000002b0: 5151 233e 15e9 63be bd9f 3bbe 9105 6e3d
000002c0: dca6 2cbd efbe 8f3c 26e4 a63b da5b c63d
000002d0: 8bb3 83be 4474 45bd 9f2c 483e 2eb6 ad3c
000002e0: 9b51 383d 0a70 f93b 2e8a dc3c ede7 943e
000002f0: e0a3 c4bd 183e 1f3e 3ec9 d4bc 6d5f 2e3d
00000300: b46d fc3d bfcb 7e3e 5ff5 3ebe 6c21 243e
00000310: 5285 29bd f157 913d d7c0 2abe f5c0 633d
00000320: d76c ef3b e3da 0d3e 7b8c 723e f62b 4cbe
00000330: f4e3 e83d eaa8 31bd 3d51 cebc 8249 8ebc
00000340: 9a1a 293e c7ae 10be ac40 1ebd 4f2f 24ba
00000350: 1283 e1bd c64a 43bc a96e 43be 1749 0e3e
00000360: 46a2 18be c53b e9bd 624f c2bb 168f 8abe
00000370: 2a3e f03d 6015 9cbc fbda 56bd 101d 87bd
00000380: d40f 883d 9fca 273e 2b28 073b b685 6a3e
00000390: 4442 383e fef6 fb3d 90ba 9f3d bde4 3f3e
000003a0: b6e4 31be 7cfc 033e 049a 21bd 4c71 05be
000003b0: 5884 ff3d 0224 893d 5640 833d cfda 40bd
000003c0: 9def f93d 6df6 f7bd d712 fc3c 9db7 24bd
000003d0: 6633 ea3d bedf 60bd 3a6c 4bbd d131 c9bd
000003e0: 3100 423e 27c9 e1bc 25d6 19be ac07 6fbd
000003f0: 9697 5a3e 4475 1fbe 5c11 1b3e 6003 823e

encoder_lstm.weight_hh_l1 f4 [128, 32]
-0.066621006 -0.05706335 -0.08396162 -0.19299752 0.08427414 -0.025961224 -0.048291437 -0.060984746
0.012619934 0.10325285 0.19990416 0.18289147 -0.102955334 -0.04609019 0.12583916 0.0101831695
-0.2282131 0.10144639 -0.1709349 0.012926886 0.072483905 -0.07664018 -0.016144646 0.12588008
-0.0049273833 -0.24100187 -0.08390518 0.19839695 -0.19066156 -0.024710925 -0.05543837 -0.15718897
0.13650909 -0.11467189 0.09689203 -0.10414825 0.009740508 0.06319053 -0.19525228 0.095739216
0.07862469 0.038772915 -0.06502947 0.041417345 0.0795256 0.011331436 0.08314219 -0.04240511
0.26069584 0.15082088 -0.14010316 0.05711049 -0.04866027 0.17098689 0.02049469 0.008605702
-0.1387089 0.3629606 -0.076366834 0.14122371 0.05864024 -0.1461352 -0.09011757 0.19486414
-0.15903585 -0.07689072 -0.12313582 -0.17061892 -0.24887349 0.26074183 -0.12259548 -0.035768706
0.13060945 -0.008885262 0.22387688 -0.16203299 0.16481923 0.0491463 -0.018536074 0.19531709
0.3677841 0.17120059 0.04375847 -0.13379985 0.008945208 -0.04291695 0.024408378 -0.08610361
-0.034460083 0.31053525 0.10224765 -0.032388076 0.2163914 -0.07626096 0.019248776 -0.043150205
-0.024292083 0.11644394 0.02106013 -0.2420324 0.06051881 -0.17544132 -0.09313314 -0.22788149
0.19881259 -0.046005692 0.06420904 -0.08734127 0.19021566 0.10488991 0.15473467 -0.13117352
0.1287781 0.14164086 -0.12489814 -0.1692321 0.12015059 0.18256058 0.1241377 -0.18831386
0.050086502 0.30265895 0.04505194 -0.18766426 -0.07671005 -0.18601482 -0.047532126 0.096567735
0.108190425 -0.1677649 -0.15923126 -0.12800857 -0.05954239 -0.16710494 -0.0322384 -0.07031413
-0.045719046 0.055543747 -0.023109432 -0.008995485 -0.09312725 0.17458427 -0.20642878 0.08243018
0.341938 -0.040376816 -0.104211636 -0.0943597 0.12900867 0.040684987 -0.2257254 -0.026952585
-0.11993867 0.16165403 -0.27373514 0.109186515 0.13754755 -0.2929651 -0.058121275 0.31683752
-0.13633469 -0.11290329 -0.0073259664 -0.03486728 -0.11241495 -0.18521369 -0.30287087 0.22573882
0.1647442 0.2825352 0.03604155 -0.04784025 0.18980707 0.12102672 -0.17162113 0.014156432
0.16952328 -0.16489567 0.06775103 -0.027715785 0.023936091 0.061702706 0.0041925563 0.10329442
0.105784014 0.17684239 0.20047034 -0.191646 -0.122890994 0.09129684 -0.051130544 -0.1479603
0.14718962 -0.15554239 0.1555541 -0.13048002 -0.27376327 0.23348637 -0.05128311 0.11124037
-0.03527378 -0.023174018 0.05304335 0.03593648 0.11203616 0.06731952 -0.14564936 0.090990566
0.037209943 -0.11630072 -0.03276929 0.09273103 0.020019718 0.2334907 0.10955439 0.017488107
-0.0014768533 0.044143934 -0.24433137 0.091771334 0.12816902 -0.086283475 0.27201083 0.11778427
-0.20805992 -0.0320733 0.124081165 0.11066167 -0.27312434 0.2667196 -0.0033441174 -0.19871111
-0.113112815 -0.28243476 -0.04186232 -0.16608603 -0.030042384 -0.10127944 -0.032835647 0.019901374
-0.00796828 0.14108174 -0.02414217 0.23421828 0.0020649284 0.0035610346 -0.015614414 0.11778238
0.19994844 0.06632683 -0.038783558 -0.023908949 -0.16342133 0.14070939 0.10772142 -0.18759272
00000000: 9870 88bd 42bb 69bd 12f4 abbd 24a1 45be
00000010: ec97 ac3d a2ac d4bc 3ecd 45bd 24cb 79bd
00000020: d7c3 4e3c 3b76 d33d adb3 4c3e e747 3b3e
00000030: 3fda d2bd 11c9 3cbd fbdb 003e 4fd7 263c
00000040: b2b0 69be 20c3 cf3d 8f09 2fbe 4acb 533c
00000050: 7172 943d 87f5 9cbd c741 84bc b5e6 003e
00000060: e375 a1bb 32c9 76be 7bd6 abbd 9228 4b3e
00000070: c93c 43be 916e cabc 5813 63bd 25f6 20be
00000080: 0ac9 0b3e 19d9 eabd 546f c63d ad4b d5bd
00000090: a796 1f3c 096a 813d 37f0 47be ec12 c43d
000000a0: fb05 a13d 59d0 1e3d 2c2e 85bd 3ca5 293d
000000b0: 51de a23d 7da7 393c 7446 aa3d fbb0 2dbd
000000c0: ed79 853e ca70 1a3e 3477 0fbe b0ec 693d
000000d0: fe4f 47bd 3017 2f3e 7be4 a73c eefe 0c3c
000000e0: b509 0ebe f9d5 b93e 3766 9cbd f39c 103e
000000f0: c030 703d 77a4 15be 8f8f b8bd 778a 473e
00000100: 4bda 22be e278 9dbd a22e fcbd bab6 2ebe
00000110: b1d8 7ebe f47f 853e 5713 fbbd 3582 12bd
00000120: 7cbe 053e 7d93 11bc fb3f 653e faeb 25be
00000130: 5fc6 283e a14d 493d f7d8 97bc 3401 483e
00000140: 334e bc3e 354f 2f3e 153c 333d d402 09be
00000150: ec8e 123c afc9 2fbd 14f4 c73c 1757 b0bd
00000160: 0426 0dbd 7afe 9e3e 3767 d13d 5ca9 04bd
00000170: b595 5d3e b52e 9cbd 9caf 9d3c 45be 30bd
00000180: 3100 c7bc 297a ee3d 4b86 ac3c 57d7 77be
00000190: 92e2 773d e4a6 33be 96bc bebd c459 69be
000001a0: 8795 4b3e 7770 3cbd 0780 833d fbdf b2bd
000001b0: e5c7 423e 85d0 d63d c472 1e3e 5a52 06be
000001c0: 68de 033e 4d0a 113e 99ca ffbd 2e4b 2dbe
000001d0: 8311 f63d 29f1 3a3e e83b fe3d 59d5 40be
000001e0: 8127 4d3d 1df6 9a3e 6288 383d 0f2b 40be
000001f0: 291a 9dbd ab7a 3ebe 0cb1 42bd 4ec5 c53d
00000200: f192 dd3d 90ca 2bbe 850d 23be ae14 03be
00000210: b9e2 73bd 8f1d 2bbe 6a0c 04bd db00 90bd
00000220: e543 3bbd d781 633d fe4f bdbc cc61 13bc
00000230: 80b9 bebd 38c6 323e 1162 53be 27d1 a83d
00000240: 7f12 af3e 2962 25bd e96c d5bd a93f c1bd
00000250: d91a 043e 4da5 263d 8f24 67be abcb dcbc
00000260: 68a2 f5bd a288 253e 0327 8cbe 2e9d df3d
00000270: 44d9 0c3e 86ff 95be 9310 6ebd 8738 a23e
00000280: 529b 0bbe d739 e7bd a90e f0bb fed0 0ebd
00000290: cf39 e6bd a8a8 3dbe e411 9bbe 1428 673e
000002a0: b4b2 283e 74a8 903e 4ea0 133d 23f4 43bd
000002b0: c95c 423e dbdc f73d 73bd 2fbe 61f0 673c
000002c0: 8397 2d3e 69da 28be 0dc1 8a3d 370c e3bc
000002d0: 9f15 c43c fabb 7c3d b661 893b 068c d33d
000002e0: 4aa5 d83d 2c16 353e 1948 4d3e d93e 44be
000002f0: 46ae fbbd d6f9 ba3d 436e 51bd e882 17be
00000300: e0b8 163e 8146 1fbe 9349 1f3e 8e9c 05be
00000310: b32a 8cbe 0d17 6f3e 3d0e 52bd fed1 e33d
00000320: 3d7b 10bd 70d7 bdbc fc43 593d 2132 133d
00000330: 3773 e53d d1de 893d 1b25 15be 4359 ba3d
00000340: 7469 183d 122f eebd 1739 06bd c4e9 bd3d
00000350: 6400 a43c 3018 6f3e 0d5e e03d 3843 8f3c
00000360: f992 c1ba 45d0 343d 0132 7abe 9cf2 bb3d
00000370: bd3e 033e 64b5 b0bd 0145 8b3e e138 f13d
00000380: a90d 55be 4b5f 03bd 441e fe3d 96a2 e23d
00000390: f4d6 8bbe 798f 883e fb28 5bbb ed7a 4bbe
000003a0: b1a7 e7bd 4a9b 90be d377 2bbd 7512 2abe
000003b0: 721b f6bc 986b cfbd ac7e 06bd 3508 a33c
000003c0: 648d 02bc bb77 103e cdc5 c5bc ebd6 6f3e
000003d0: c053 073b 3f60 693b 99d3 7fbc e337 f13d
000003e0: 49bf 4c3e 5cd6 873d 82db 1ebd b3dc c3bc
000003f0: ec57 27be 1f16 103e 0c9d dc3d 4e18 40be

encoder_lstm.bias_ih_l1 f4 [128]
-0.060074743 -0.09952778 -0.22055632 -0.105791844 0.17613931 0.16327754 0.00079119514 0.07921993
-0.1615134 0.07280353 0.12883525 -0.03225821 0.1592199 0.08572343 0.048625488 -0.14871404
0.19755134 -0.033186976 -0.064361446 0.003953907 0.123086855 -0.016393777 -0.109741926 -0.16489641
0.11316022 0.08872655 -0.01982392 0.11943465 -0.09127978 -0.027116122 0.063068606 0.050878536
0.13886419 0.025817705 0.09886358 0.073685326 0.06241484 0.1114558 -0.0022705556 -0.022973714
0.19551888 -0.13978703 0.07277865 0.18739164 0.063778 0.15893666 0.18135859 -0.09733937
-0.052590348 0.103878066 0.18496181 -0.046711434 -0.016084893 -0.006562479 0.10597547 -0.039490435
-0.059017263 0.16688113 -0.1351265 0.31796658 0.2514876 -0.05463002 -0.05168562 0.038550675
0.06311237 -0.1285307 -0.027371746 -0.071558036 -0.06172206 -0.01124916 -0.022630272 0.00010085191
-0.15230165 0.062483903 0.17016278 0.19507344 0.05195462 0.0073594144 -0.123210326 0.13164158
-0.07004418 0.119800225 -0.12441284 0.020199042 0.024279477 0.10191954 0.038392276 -0.14458282
0.0032458738 0.012934249 -0.12418854 -0.06874632 0.0012303717 -0.0062126312 0.016704071 -0.09968216
-0.10760357 0.17609014 -0.07535839 0.06632158 0.23455122 -0.12821907 0.038419068 0.0272932
0.031851258 0.009211378 0.051351853 0.09711398 0.16151756 -0.03030745 -0.11044053 0.12817016
-0.014116798 0.21495765 0.16884482 0.15626796 0.13890024 0.27324668 0.05308764 -0.10056998
0.11266975 0.040325474 0.15700713 0.1901918 -0.057983458 0.019935235 -0.069532804 0.033006456
00000000: ef10 76bd 39d5 cbbd 84d9 61be 65a9 d8bd
00000010: dd5d 343e 3a32 273e 3568 4f3a 0f3e a23d
00000020: c563 25be 041a 953d 63ed 033e 2f21 04bd
00000030: 8b0a 233e c48f af3d 852b 473d 7e48 18be
00000040: e64a 4a3e 11ef 07bd efcf 83bd c78f 813b
00000050: f614 fc3d 3e4c 86bc 60c0 e0bd 9bda 28be
00000060: 8cc0 e73d 44b6 b53d c665 a2bc 279a f43d
00000070: e5f0 babd a122 debc 1d2a 813d 0366 503d
00000080: 6a32 0e3e a77f d33c fd78 ca3d 55e8 963d
00000090: b4a6 7f3d f042 e43d 9acd 14bb 5f33 bcbc
000000a0: 1a36 483e 5524 0fbe f90c 953d 98e3 3f3e
000000b0: 0a9e 823d 4bc0 223e 11b6 393e dd59 c7bd
000000c0: fa68 57bd 06be d43d a166 3d3e 7d54 3fbd
000000d0: 77c4 83bc 100a d7bb ab09 d93d b9c0 21bd
000000e0: 16bc 71bd e3e2 2a3e 9a5e 0abe 84cc a23e
000000f0: fcc2 803e bac3 5fbd 4db4 53bd 50e7 1d3d
00000100: 0f41 813d 8d9d 03be b63a e0bc 058d 92bd
00000110: 45d0 7cbd 664e 38bc 1f63 b9bc 7580 d338
00000120: f7f4 1bbe 1fef 7f3d 273f 2e3e 55c1 473e
00000130: 5ece 543d 3e27 f13b b255 fcbd 0dcd 063e
00000140: 5373 8fbd d259 f53d 29cc febd 7678 a53c
00000150: c1e5 c63c 31bb d03d 3841 1d3d 850d 14be
00000160: bab8 543b 2cea 533c 9056 febd dfca 8cbd
00000170: 6c44 a13a 5493 cbbb fad6 883c 2926 ccbd
00000180: 435f dcbd f950 343e 8055 9abd 9cd3 873d
00000190: 322e 703e dc4b 03be 505d 1d3d fd95 df3c
000001a0: 7776 023d 52eb 163c 5256 523d b2e3 c63d
000001b0: dc64 253e 5447 f8bc a52e e2bd 0a3f 033e
000001c0: 244a 67bc dc1d 5c3e a8e5 2c3e b504 203e
000001d0: dd3b 0e3e fde6 8b3e 6d72 593d a2f7 cdbd
000001e0: 66bf e63d 532c 253d 7ac6 203e a4c1 423e
000001f0: 1080 6dbd 384f a33c 3767 8ebd c731 073d
