W3-Design/checkpoints/epoch_24.pt (torch, 384725 bytes, 24 tensors)

encoder_cnn.0.weight f4 [32, 3, 3]
0	0xbe83471f	-0.256402
1	0xbdba4ec1	-0.09097052
2	0xbe8ad6fe	-0.2711715
3	0x3e5cd8aa	0.21567026
4	0xbe894c76	-0.26816148
5	0x3df95c0b	0.12175759
6	0x3e146816	0.1449283
7	0x3e420ec0	0.18950939
8	0x3db319bc	0.08745143
9	0x3e7eadc0	0.24870968
10	0x3e6ba44b	0.23011892
11	0x3df0cb69	0.117575474
12	0xbe83dca4	-0.25754273
13	0xbe8b8a30	-0.27253866
14	0x3d9b1e8b	0.07574185
15	0xbe8af92d	-0.2714323
16	0x3e2349e4	0.15946156
17	0xbdeb3f09	-0.114866324
18	0x3dc35ee1	0.09539581
19	0x3e48f24c	0.19623679
20	0x3ec1dae1	0.37862304
21	0xbbfc6f78	-0.007703718
22	0x3e482303	0.19544606
23	0xbebc0432	-0.3672195
24	0xbe982b65	-0.29720607
25	0x3d19180a	0.03737644
26	0xbe0e118b	-0.1387388
27	0x3cd3fdc1	0.025877835
28	0x3de5b082	0.11215307
29	0xbe39d7b7	-0.18148695
30	0x3d04546f	0.032307085
31	0x3d2836c5	0.041067857
32	0x3d28f7d6	0.04125198
33	0x3e359b8e	0.1773512
34	0x3e8c6783	0.27422723
35	0x3d3ba1de	0.045808665
36	0xbda23a87	-0.079213195
37	0x3da03d53	0.07824197
38	0xbe0c8264	-0.13721615
39	0x3f0819c9	0.53164345
40	0xbdbdb22d	-0.092625
41	0x3f065051	0.52466303
42	0x3e422928	0.18961012
43	0x3e1c9420	0.1529088
44	0xbea6cf80	-0.32580185
45	0x3d5a968a	0.05336622
46	0xbdf156ef	-0.117841594
47	0x3ebc0d5f	0.3672895
48	0xbeabd72c	-0.335626
49	0xbe97fc1d	-0.29684535
50	0x3d919348	0.0710817
51	0x3e02c9bc	0.12772268
52	0x3e3dc29b	0.18531267
53	0xbe9a67e3	-0.30157384
54	0x3d8be265	0.06830291
55	0xbd874710	-0.06605351
56	0x3e967731	0.2938781
57	0x3e77c01a	0.24194375
58	0x3e0e5c1b	0.13902323
59	0xbe0949cf	-0.13407062
60	0xbdcc4f84	-0.09976104
61	0x3e5c07e1	0.2148738
62	0xbe9519f1	-0.29121354
63	0x3e8821c2	0.26588255
64	0xbd09dd83	-0.033658516
65	0x3e99795f	0.2997541
66	0x3e8fa21c	0.28053367
67	0xbe929752	-0.28631073
68	0xbef404b8	-0.4765985
69	0xbd94f9ae	-0.07274185
70	0xbd985a39	-0.074390836
71	0x3eaebdde	0.34129232
72	0x3df161d4	0.11786237
73	0x3e8109a3	0.25202665
74	0xbc0cd938	-0.008596711
75	0xbd9b3e07	-0.0758019
76	0xbe8734ad	-0.26407376
77	0x3e9ae985	0.30256286
78	0xbe944d3b	-0.28965172
79	0x3e87f855	0.2655665
80	0xbdb5e519	-0.088815875
81	0x3e1227a3	0.14272933
82	0x3ea6ff7d	0.32616797
83	0x3d9b80c8	0.075929224
84	0x3ddfdcc3	0.10930779
85	0xbe8e1bd4	-0.27755606
86	0xbeed2234	-0.46315157
87	0x3c45f76d	0.012082917
88	0xbd138618	-0.036016554
89	0xbde09f59	-0.10967893
90	0x3c9a3bf8	0.018827423
91	0xbcd15c24	-0.025556631
92	0xbcd72a0a	-0.026265163
93	0x3ecd55d0	0.40104532
94	0xbe68d14e	-0.22736093
95	0xbe8841c2	-0.2661267
96	0xbe4f4726	-0.20241985
97	0x3e2352d0	0.15949559
98	0xbd9fe046	-0.07806449
99	0xbe53a17d	-0.20667072
100	0xbdaeede2	-0.08541466
101	0x3e3e1cab	0.18565623
102	0x3d15ec0d	0.03660207
103	0x3ea8cb4d	0.32967606
104	0x3d9dc3bf	0.07703351
105	0xbe249df5	-0.16075881
106	0xbe57f760	-0.2109046
107	0x3df2a6c4	0.11848214
108	0xbd7bfd4d	-0.061520863
109	0x3e9fbe02	0.31199652
110	0x3e206e8d	0.15667172
111	0xbd2614bb	-0.040547114
112	0xbe9956d9	-0.29949072
113	0xbedbe85c	-0.42950714
114	0x3ebb2de3	0.36558446
115	0xbd0707f0	-0.032966554
116	0xbe67b360	-0.2262702
117	0x3e1e3469	0.1544968
118	0xbd95f4cb	-0.07322081
119	0x3d9d7300	0.0768795
120	0x3de6d116	0.11270349
121	0xbcb28170	-0.021790236
122	0xbd7872b9	-0.060656283
123	0xbca0a997	-0.019612117
124	0x3db05f60	0.08611941
125	0xbc5b5737	-0.013387493
126	0xbe512ac2	-0.20426467
127	0xbe54d727	-0.20785199
128	0xbdfe5d80	-0.124201775
129	0x3e91f136	0.28504342
130	0xbda302c8	-0.07959515
131	0xbe7c884a	-0.24661365
132	0x3e3f29c0	0.1866827
133	0x3e621925	0.22079904
134	0xbdf5848c	-0.11988172
135	0x3eaa4438	0.33255172
136	0x3e5017fc	0.2032165
137	0xbe0747df	-0.1321101
138	0xbeba75ba	-0.36417943
139	0x3dbf0265	0.093266286
140	0xbe434f27	-0.19073163
141	0xbeb650b9	-0.35608461
142	0xbbc1de79	-0.0059164134
143	0xbdd8fa0a	-0.10594566
144	0x3dd48be5	0.10378245
145	0xbe65ca91	-0.22440554
146	0xbeba7006	-0.36413592
147	0x3e0777da	0.13229313
148	0xbd637e20	-0.055540204
149	0xbe212dc2	-0.15740111
150	0x3e4ff14e	0.20306894
151	0xbe0c6fa5	-0.13714464
152	0x3e0a0ec3	0.13482194
153	0xbccb4b57	-0.024816198
154	0x3e4fa818	0.20278966
155	0x3d586e6d	0.052839685
156	0x3e3d54f9	0.18489446
157	0xbedd7a44	-0.43257344
158	0x3e5c277f	0.21499442
159	0xbdb8fce5	-0.09032611
160	0xbead1229	-0.33802918
161	0xbe08dbec	-0.13365144
162	0x3e7bfc02	0.24607852
163	0x3ddfff63	0.10937383
164	0xbeac9cff	-0.3371353
165	0xbe1a87bd	-0.15090843
166	0xbeeacfc9	-0.45861652
167	0xbe5d12ec	-0.2158925
168	0x3e096900	0.1341896
169	0xbe765cd5	-0.2405885
170	0xbe105354	-0.14094287
171	0xbe0470f9	-0.1293372
172	0x3e3309f8	0.17484272
173	0x3e01ae1f	0.12664078
174	0xbd282bd7	-0.041057434
175	0xbe2af19d	-0.1669373
176	0x3d9ba56b	0.0759991
177	0xbdf5793d	-0.11986015
178	0x3e59fdd0	0.21288228
179	0x3e345639	0.17611016
180	0xbe4553fc	-0.19270319
181	0xbe22cd72	-0.15898684
182	0xbe4ddcc2	-0.20103744
183	0xbe407db3	-0.1879795
184	0x3e69bf03	0.22826771
185	0xbca936d7	-0.020656032
186	0x3e6cb830	0.23117137
187	0x3e497fcd	0.19677658
188	0xbe5a0210	-0.2128985
189	0x3e94e7d2	0.29083115
190	0xbe11b920	-0.14230776
191	0xbd0b03d2	-0.03393919
192	0xbdf9cb00	-0.12196922
193	0x3e90152b	0.2814115
194	0x3e0b2210	0.13587213
195	0xbd8ff939	-0.07029957
196	0xbebaced1	-0.36485913
197	0xbe82f053	-0.25573978
198	0x3dede35f	0.11615633
199	0xbe9213d9	-0.28530768
200	0x3dfc2aed	0.12312875
201	0x3dde7adb	0.108632766
202	0x3e3f3942	0.18674186
203	0xbdd0c265	-0.10193328
204	0xbd92b35f	-0.071631186
205	0xbe3a51d0	-0.18195271
206	0xbea84902	-0.328682
207	0x3da88708	0.0822888
208	0xbea99258	-0.33119464
209	0xbeb85158	-0.3599956
210	0xbe47afd2	-0.19500664
211	0xbd04223f	-0.032259222
212	0xbe23403a	-0.15942469
213	0x3de16288	0.110051215
214	0x3e557e63	0.20848994
215	0x3e82eff9	0.2557371
216	0x3d538123	0.051636826
217	0x3e92d1b4	0.28675616
218	0xbe0331c5	-0.12811954
219	0x3ea3f754	0.32024634
220	0x3e71b8e9	0.23605694
221	0xbe27ee3b	-0.16399471
222	0x3c91cc6b	0.01779767
223	0x3d997996	0.07493894
224	0x3dce2ebf	0.1006751
225	0x3ef4a4d6	0.4778201
226	0x3e7ecbcd	0.24882431
227	0x3ebc76f6	0.3680951
228	0x3e7788fa	0.24173346
229	0x3e685a6e	0.22690746
230	0x3cfc0b10	0.030766994
231	0xbee201b7	-0.44141933
232	0xbde6d7b1	-0.112716086
233	0x3e123b4e	0.14280435
234	0xbede2482	-0.43387228
235	0xbc58acf5	-0.01322483
236	0xbe785c0d	-0.24253865
237	0x3eb4da80	0.35322952
238	0x3e470429	0.1943518
239	0xbe567017	-0.20941196
240	0x3eaa0c21	0.3321238
241	0x3b2105c4	0.0024570087
242	0xbe128367	-0.14307939
243	0xbe373aa0	-0.17893457
244	0x3da95d89	0.082697935
245	0x3d57b087	0.052658584
246	0xbdbe3e85	-0.092892684
247	0xbd279f85	-0.040923614
248	0x3e86fc61	0.26364425
249	0xbd93bf71	-0.07214249
250	0x3ecf6be5	0.40512004
251	0x3e0dd6dd	0.13851495
252	0x3e704513	0.2346385
253	0xbdbcde76	-0.092221186
254	0x3d3828f7	0.044960942
255	0xbd970267	-0.07373505

encoder_cnn.0.bias f4 [32]
0	0xbea11204	-0.31459057
1	0xbe61a0bd	-0.22033973
2	0x3fa21efc	1.2665706
3	0xbfb23ff7	-1.392577
4	0x3c1a55bd	0.009419856
5	0x3ce2c4d0	0.027681738
6	0xbf8524ad	-1.0401818
7	0xbe45d5a8	-0.19319785
8	0xbea2e344	-0.31814015
9	0xbeb82be7	-0.35970995
10	0xbeb397e5	-0.35076824
11	0xbe9ca375	-0.30593458
12	0xbe159227	-0.14606534
13	0xbf6826ef	-0.9068441
14	0xbf58969a	-0.846048
15	0x3e484c3d	0.19560333
16	0xbf69090a	-0.9102942
17	0x3d82504c	0.06362972
18	0xbdd80fcc	-0.10549888
19	0xbf890fc6	-1.0707939
20	0xbf489417	-0.7835097
21	0x3ed2717c	0.41102207
22	0xbd845092	-0.0646068
23	0xbf307b21	-0.6893788
24	0xbf17c70e	-0.5928811
25	0x3f2deafe	0.67936695
26	0xbf48e464	-0.78473496
27	0xbf6d2c1e	-0.9264544
28	0xbf77f956	-0.9686483
29	0xbe36b88d	-0.17843838
30	0x3e58a720	0.21157503
31	0x3e3e1430	0.18562388

encoder_cnn.2.weight f4 [64, 32, 3]
0	0xbe3c3590	-0.18379807
1	0xbe2822f3	-0.16419582
2	0x3cfff663	0.031245416
3	0x3ea1640c	0.31521642
4	0x3e8b1579	0.2716482
5	0x3e835292	0.25648934
6	0x3f102d1d	0.5631884
7	0x3e53350e	0.20625708
8	0x3dff892a	0.12477334
9	0xbcb0c9a1	-0.02158052
10	0xbefd1132	-0.4942718
11	0xbd9d53b9	-0.076819845
12	0x3ced0e20	0.0289374
13	0x3d2a3620	0.041555524
14	0xbe9dc4d4	-0.3081423
15	0xbe031ecf	-0.12804721
16	0xbe86ec00	-0.2635193
17	0xbd30af32	-0.04313583
18	0x3d822291	0.06354249
19	0x3e48ce98	0.1961006
20	0x3e21d828	0.15805113
21	0xbdf290c8	-0.11844021
22	0xbe34b9b3	-0.17648964
23	0xbe85e4e0	-0.2615118
24	0x3eceff72	0.40429264
25	0x3e195f36	0.14977726
26	0x3c076508	0.008263834
27	0x3ebcf2f9	0.36904123
28	0x3c7d25ef	0.015450939
29	0xbe011d55	-0.12608846
30	0xbd58b06e	-0.05290263
31	0x3e36cc8d	0.17851467
32	0x3e226226	0.15857753
33	0x3de29692	0.11063875
34	0xbdc3db85	-0.095633544
35	0xbdb73a98	-0.08946723
36	0x3dacbd54	0.08434549
37	0xbe59c83c	-0.2126779
38	0xbdb1e4ff	-0.08686256
39	0x3e59777c	0.21236986
40	0x3e5d2264	0.2159515
41	0x3e4c97b6	0.19979748
42	0x3d159ddb	0.036527496
43	0xbdca74ad	-0.098855354
44	0x3d312311	0.043246333
45	0x3e969ecd	0.2941803
46	0x3e8b6c82	0.27231222
47	0xbbbe4fdf	-0.005807861
48	0x3e9966a1	0.29961112
49	0x3e6e2ddb	0.2325968
50	0x3e113d8b	0.14183633
51	0x3e83c4a5	0.25735965
52	0x3e1a67ac	0.1507861
53	0xbb8ac5a1	-0.004234985
54	0xbe086015	-0.13317902
55	0xbd86eb35	-0.06587831
56	0xbde25cb4	-0.11052838
57	0xbeb41743	-0.35173997
58	0xbe900305	-0.28127304
59	0xbdb982f6	-0.09058182
60	0x3ab0a721	0.0013477543
61	0xbe43dee0	-0.19127989
62	0x3da85ab5	0.08220426
63	0x3cab55e2	0.020914976
64	0x3c96a6ab	0.01839002
65	0xbe14586e	-0.14486858
66	0x3e3e6917	0.18594776
67	0xbd159d49	-0.036526952
68	0x3d90183c	0.07035872
69	0xbe8a885c	-0.2705716
70	0xbe7105b3	-0.2353733
71	0xbc6733db	-0.014111484
72	0x3e811fe4	0.25219643
73	0x3df21cec	0.11821923
74	0x3e945d66	0.28977507
75	0xbbd001a8	-0.0063478537
76	0x3d93b24c	0.07211742
77	0xbe9af977	-0.30268452
78	0xbe280c1c	-0.1641087
79	0xbb3eafe7	-0.0029096545
80	0xbdae5380	-0.0851202
81	0x3d33ae70	0.04386753
82	0xbe7a274d	-0.24429055
83	0xbc292865	-0.010324572
84	0xbdcd1a37	-0.10014766
85	0xbe871687	-0.26384374
86	0xbea91ceb	-0.33029875
87	0x3dc0791a	0.09398098
88	0xbd4fb24a	-0.05070714
89	0x3cd2ffb2	0.02575669
90	0x3ea0bf6d	0.31396046
91	0xbdcbdede	-0.09954618
92	0xbe4b6a47	-0.1986476
93	0x3e399be6	0.18125877
94	0xbdc88475	-0.09790889
95	0xbe1c1099	-0.15240707
96	0xbd6ba59c	-0.057530984
97	0xbc5aa83b	-0.013345773
98	0x3d999175	0.07498447
99	0xbda66853	-0.08125367
100	0xbd74cd82	-0.0597663
101	0xbce43769	-0.027858453
102	0xbeffd37c	-0.49966037
103	0xbe759ebb	-0.23986332
104	0xbe3e55f0	-0.1858747
105	0xbd83a91f	-0.06428742
106	0x3cefef78	0.029288992
107	0xbdba4320	-0.09094834
108	0xbea28fec	-0.3175043
109	0xbe93b8d8	-0.28851962
110	0xbe5d4c92	-0.2161124
111	0xbd380da3	-0.04493488
112	0xbbbbf5ad	-0.005736074
113	0x3d91665b	0.07099601
114	0x3d708e93	0.05872972
115	0xbe0296e0	-0.12752867
116	0xbe42def3	-0.19030361
117	0xbe777282	-0.24164775
118	0x3d9f4ecf	0.077787034
119	0x3c1d0191	0.009582893
120	0x3dc3cb39	0.09560246
121	0xbe4b407b	-0.19848816
122	0xbd461e1e	-0.048368566
123	0x3cc5c898	0.024143502
124	0x3d198dad	0.03748863
125	0xbc7bb009	-0.015361794
126	0xbd53a7ec	-0.051673815
127	0xbd9b9def	-0.07598483
128	0xbd9d1058	-0.07669133
129	0xbeaf714f	-0.34266135
130	0xbe385bfe	-0.18003842
131	0xbef4708f	-0.47742125
132	0xbbc8d624	-0.006129043
133	0xbc814fea	-0.015785176
134	0xbd32a7a9	-0.043616924
135	0xbd12e032	-0.03585834
136	0x3c8334d6	0.016016405
137	0x3d235047	0.03987148
138	0xbdfa8c01	-0.12233735
139	0xbd5a3583	-0.05327369
140	0xbe134637	-0.14382254
141	0xbe2cbed3	-0.16869669
142	0xbd9e48f7	-0.07728761
143	0xbe2a2688	-0.16616261
144	0xbe359a56	-0.17734656
145	0x3d45a4cc	0.048252866
146	0xbd7e2fe5	-0.062057395
147	0xbea699b7	-0.3253915
148	0xbeb8fbc7	-0.3612959
149	0xbeb22118	-0.34790874
150	0x3b54e5cb	0.00324856
151	0x3cf64546	0.030062329
152	0x3d3547f5	0.044258077
153	0x3ddc163e	0.1074643
154	0x3d883718	0.06651133
155	0x3d966c63	0.07344892
156	0xbcf49eee	-0.02986094
157	0xbc1bc99d	-0.009508518
158	0xbcf541e1	-0.02993864
159	0xbe9a2c30	-0.30111837
160	0xbe8bb982	-0.2728997
161	0xbe8ebb3c	-0.27877223
162	0xbcae2662	-0.021258537
163	0xbde38e74	-0.11111155
164	0xbdf1bc8a	-0.11803539
165	0x3d328f1c	0.04359351
166	0xbd1612b3	-0.036638927
167	0x3cc031d2	0.023461256
168	0xbd054a2d	-0.032541443
169	0x3d5a090b	0.05323128
170	0x3d4bf02c	0.049789593
171	0xbe7f1118	-0.24908864
172	0x3d20c695	0.039251883
173	0x3d889368	0.066687405
174	0xbd380008	-0.044921905
175	0xbd35656e	-0.044286184
176	0xbe411eb2	-0.18859366
177	0xbe44d7c3	-0.19222932
178	0xbdab2051	-0.08355773
179	0xbd96ce16	-0.073635265
180	0xbe347c73	-0.17625599
181	0xbd9bd529	-0.076090164
182	0x3d88635a	0.06659575
183	0xbc2ff0e6	-0.010738587
184	0xbdd7d258	-0.10538167
185	0xbc29d221	-0.01036504
186	0xbe0b06b5	-0.13576777
187	0xbde02d95	-0.10946194
188	0xbe366c03	-0.1781464
189	0xbe2cf3de	-0.16889903
190	0xbe2efc44	-0.17088419
191	0xbe62b75a	-0.22140256
192	0x3e8498d5	0.25897852
193	0x3e121625	0.1426626
194	0xbde50be3	-0.11183908
195	0x3d4c8c1d	0.04993831
196	0x3e798e89	0.24370779
197	0x3e502a33	0.20328598
198	0xbf161259	-0.58621746
199	0xbeb2c6e7	-0.34917375
200	0xbe5742da	-0.21021596
201	0xbc9b36b1	-0.018946977
202	0xbe651166	-0.22369918
203	0xbbad9639	-0.005297449
204	0xbe84b7a5	-0.2592136
205	0xbe9b6891	-0.30353215
206	0xbfd30b7e	-1.6487882
207	0xbe16991e	-0.14706847
208	0x3f02e08b	0.51123875
209	0xbe1df746	-0.15426359
210	0xbdb46abf	-0.08809423
211	0x3e8c2838	0.27374434
212	0xbc6b184b	-0.014349054
213	0x3ba91910	0.0051604584
214	0x3e4a95c6	0.19783697
215	0xbef43a53	-0.47700748
216	0xbdf05ef1	-0.11736859
217	0xbead86c5	-0.33891883
218	0xbe7b6bf6	-0.24552903
219	0xbdb3c533	-0.08777847
220	0xbe1c1639	-0.15242852
221	0xbe8957b7	-0.26824734
222	0xbe4268ba	-0.18985263
223	0x3d415916	0.0472041
224	0xbdfe3475	-0.12412349
225	0xbe3fed3f	-0.18742846
226	0x3c8cc83c	0.017185323
227	0xbedf4b66	-0.43612212
228	0xbe38a044	-0.18029886
229	0x3d882bd9	0.06648988
230	0xbca1ec62	-0.019766036
231	0xbeb7e99b	-0.35920414
232	0xbe3a7dd8	-0.18212068
233	0xbeb2a2af	-0.34889743
234	0x3eae820f	0.34083602
235	0x3cb30e98	0.021857545
236	0xbe82afc2	-0.25524718
237	0xbd728737	-0.059210982
238	0x3ddaf648	0.10691506
239	0xbe95b564	-0.29239953
240	0x3e506007	0.20349132
241	0x3b8d9a7f	0.004321396
242	0xbe9f5355	-0.31118265
243	0x3e30783e	0.17233369
244	0xbbb51c2d	-0.0055270405
245	0xbe161a12	-0.14658383
246	0xbefff431	-0.4999099
247	0xbee4be96	-0.44676656
248	0xbe068b78	-0.1313914
249	0xbe151a28	-0.14560759
250	0x3e5f4010	0.21801782
251	0xbdc92380	-0.09821224
252	0x3e5d7f6b	0.21630637
253	0x3dc9cdb6	0.098536894
254	0xbe86adb7	-0.2630441
255	0xbe7ec70c	-0.24880618

encoder_cnn.2.bias f4 [64]
0	0xbd43a5a7	-0.0477654
1	0xbe15a8b7	-0.14615141
2	0xbcbfc018	-0.023407027
3	0x3b2c6a9d	0.0026308664
4	0x3e06503d	0.13116546
5	0x3d902e82	0.07040121
6	0xbf01bdec	-0.5068042
7	0xbe1ada71	-0.15122391
8	0xbe419ab0	-0.18906665
9	0xbc81c6eb	-0.015841922
10	0x3d7287c0	0.059211493
11	0xbe516cc6	-0.2045165
12	0x3e38724d	0.18012352
13	0xbdebe8dc	-0.11519024
14	0xbda172d8	-0.07883233
15	0x3e0803eb	0.13282745
16	0x3e134122	0.14380315
17	0x3e0a5504	0.13508993
18	0xbe26066b	-0.16213386
19	0xbdf522be	-0.11969517
20	0xbe12c0da	-0.1433138
21	0x3def1fbb	0.11675974
22	0x3eae4cd1	0.3404298
23	0x3eb02a12	0.34407097
24	0xbe2bd674	-0.16781026
25	0xbe0c1690	-0.13680482
26	0xbe9ae962	-0.30256182
27	0xbdfd42a2	-0.12366225
28	0x3eb1437f	0.34621808
29	0xbdfbfa94	-0.12303653
30	0xbd2a8897	-0.04163417
31	0xbeafbf69	-0.34325722
32	0xbe29a2c6	-0.16566
33	0xbe6b9c56	-0.23008856
34	0x3e386a36	0.18009266
35	0xbe85b82c	-0.26117074
36	0xbd302a5d	-0.04300915
37	0xbf0e5267	-0.55594486
38	0x3dc0c79e	0.09413074
39	0xbae0fa56	-0.001716445
40	0xbe440288	-0.1914159
41	0xbeebddfe	-0.46067804
42	0x3e2c8dc2	0.16850951
43	0xbe2c4879	-0.16824521
44	0xbe8b551a	-0.27213365
45	0xbf0d0e68	-0.5510011
46	0xbeda8954	-0.42682898
47	0xbe2a0344	-0.16602808
48	0xbea61058	-0.32434344
49	0x3da4cfa0	0.08047414
50	0xbec82c64	-0.39096367
51	0xbe977a0d	-0.29585305
52	0xbe8e537e	-0.27798074
53	0xbdb57cb3	-0.08861675
54	0xbeabf933	-0.3358856
55	0xbd3d0eb9	-0.04615662
56	0xbd65587a	-0.05599258
57	0xbe5f0dd6	-0.21782622
58	0xbe11c3a6	-0.1423479
59	0xbe028728	-0.1274687
60	0xbebca606	-0.36845416
61	0x3e205ceb	0.15660445
62	0xbea4b407	-0.321686
63	0xbe60edf4	-0.21965772

encoder_lstm.weight_ih_l0 f4 [128, 64]
0	0x3f0a96ef	0.54136556
1	0x3d48d84c	0.0490344
2	0x3e377c2e	0.17918465
3	0xbe52796f	-0.20554136
4	0x3e4b1199	0.19830932
5	0xbeb36bdd	-0.3504323
6	0x3f07b32f	0.5300779
7	0xbd70259b	-0.058629613
8	0x3e922a4c	0.28547895
9	0x3d59abfe	0.05314254
10	0x3b9643a0	0.0045856982
11	0xbee394e8	-0.44449544
12	0x3dccc6a2	0.09998824
13	0xbe22a986	-0.1588498
14	0x3dcf6bac	0.10127959
15	0x3ebb0048	0.36523652
16	0xbed0d665	-0.4078857
17	0xbe334603	-0.17507176
18	0xbd967010	-0.07345593
19	0x3c50d778	0.012746684
20	0xbc4cb5d6	-0.012494525
21	0xbd4b7690	-0.049673617
22	0x3fbaf7f3	1.4606918
23	0xbf7262f2	-0.9468223
24	0x3ee9c5e2	0.45658785
25	0x3e70f4a3	0.23530822
26	0xbdfceb0f	-0.12349521
27	0x3d508503	0.0509081
28	0xbeb58773	-0.35454902
29	0xbdccf1fa	-0.10007091
30	0x3e5f9ee9	0.21837963
31	0x3e182e7e	0.14861485
32	0x3ea363fd	0.31912223
33	0x3e8ed192	0.27894264
34	0xbd88c8e9	-0.066789456
35	0x3ec3a1d0	0.3820939
36	0x3f0e1e8d	0.55515367
37	0xbd712780	-0.05887556
38	0x3e31460a	0.17311874
39	0xbe01c596	-0.1267303
40	0x3d80daeb	0.06291755
41	0x3f01ff10	0.5077982
42	0x3e22a098	0.15881574
43	0xbe02e970	-0.12784362
44	0xbe4fe549	-0.20302309
45	0x3dfc467e	0.12318133
46	0xbc7b5551	-0.015340165
47	0x3e6b4c10	0.22978234
48	0x3ebb6e83	0.3660775
49	0x3e256f6e	0.16155788
50	0x3ea5d2c4	0.32387364
51	0x3ebef5d0	0.37296915
52	0x3e3f057a	0.18654433
53	0xbd199f03	-0.03750516
54	0x3e43009f	0.19043206
55	0x3e8e70d1	0.27820447
56	0xbaeb392f	-0.0017946119
57	0xbec527cb	-0.38506922
58	0xbd6312c7	-0.05543783
59	0xbd2bc367	-0.041934397
60	0x3d84480c	0.06459054
61	0xbdfa0d40	-0.122095585
62	0xbdb565b5	-0.0885729
63	0xbde20ead	-0.110379554
64	0x3ec33fde	0.38134664
65	0x3c583f98	0.013198756
66	0xbe4cd6d5	-0.20003827
67	0x3d197415	0.03746422
68	0x3d2b21ef	0.04178041
69	0x3eb6ca65	0.3570129
70	0xbd6fad1b	-0.058514696
71	0x3e882cc2	0.26596648
72	0x3debd356	0.115149185
73	0x3e20b939	0.15695657
74	0x3d798415	0.06091698
75	0xbeac1d5a	-0.33616143
76	0x3dd92a4e	0.10603772
77	0xbd3ea9b0	-0.046548545
78	0x3d98f82c	0.0746921
79	0x3b2fb949	0.002681332
80	0x3ea7d8ac	0.32782495
81	0xbe608117	-0.21924244
82	0xbe5b6000	-0.2142334
83	0xbd46db90	-0.048549235
84	0x3e53c36e	0.2068002
85	0x3e3d178c	0.18466014
86	0xbf8a1738	-1.0788336
87	0xbe85efb3	-0.26159438
88	0x3e578a87	0.21048938
89	0xbe7a3de7	-0.24437676
90	0x3e2d3cdd	0.16917749
91	0x3e8203e1	0.25393584
92	0x3dac3656	0.08408801
93	0xbd68ae88	-0.05680707
94	0xbef9c76f	-0.48784968
95	0x3db174dc	0.08664867
96	0x3ec1d93d	0.37861052
97	0x3db6f67b	0.08933731
98	0xbd3e9a61	-0.046533946
99	0xbce7380e	-0.028224971
100	0xbe47447f	-0.19459723
101	0xbe95e255	-0.2927424
102	0x3eb477eb	0.3524774
103	0x3b22f591	0.0024865607
104	0xbd69824d	-0.05700903
105	0xbd8dee8f	-0.06930267
106	0xbe4bd6b3	-0.1990612
107	0xbe02d4f0	-0.12776542
108	0x3dcd71e0	0.100314856
109	0x3dedb013	0.11605849
110	0x3eb54e77	0.35411426
111	0xbd00b806	-0.0314255
112	0xbed38c7a	-0.41318113
113	0x3e7aac8d	0.24479885
114	0xbe5d1671	-0.21590592
115	0x3e8b86ee	0.2725138
116	0xbe28e91b	-0.16495173
117	0xbd8b9adb	-0.06816646
118	0xbcd4cc5c	-0.025976352
119	0x3e9b6b23	0.30355176
120	0x3d6b0ed8	0.057387203
121	0x3db10289	0.08643062
122	0x3e0c7b81	0.13718988
123	0xbe1bd702	-0.15218738
124	0x3e05da2d	0.13071509
125	0xbe0ea99f	-0.13931893
126	0xbedb1718	-0.42791057
127	0xbe4173d8	-0.18891847
128	0x3c86faee	0.016477074
129	0xbd824f3f	-0.06362771
130	0x3eb28b63	0.3487197
131	0xbe1138a5	-0.14181764
132	0x3ebecdd1	0.372664
133	0x3d73d500	0.059529305
134	0xbd7fad94	-0.062421396
135	0xbcbea72c	-0.023273073
136	0xbd8700e9	-0.065919705
137	0x3e1040f2	0.14087275
138	0xbd4cb538	-0.04997751
139	0x3dfac11f	0.12243866
140	0xbee804b5	-0.4531609
141	0xbda232a7	-0.079198174
142	0xbd98e1fc	-0.07464978
143	0x3e907c23	0.2821971
144	0xbbc4a66d	-0.006001285
145	0x3efc5ae7	0.49288103
146	0xbd0e2fa8	-0.034713417
147	0x3e5500fd	0.20801158
148	0x3deb401e	0.11486839
149	0x3d8c7499	0.06858177
150	0x3d9243dc	0.071418494
151	0x3e10aec3	0.14129166
152	0xbe1a8562	-0.15089944
153	0xbcfdc79b	-0.030978968
154	0x3dde9a17	0.10869234
155	0xbdcca35f	-0.09992098
156	0x3e8e53cc	0.27798307
157	0x3dff311f	0.12460541
158	0xbe523b34	-0.20530397
159	0xbb9e9485	-0.0048394823
160	0xbde5d7c0	-0.11222792
161	0x3e3a04e5	0.1816593
162	0x3ceea67f	0.029132126
163	0xbd9661b2	-0.07342853
164	0x3e73aeb7	0.23797117
165	0xbda931ad	-0.08261428
166	0xbcc16ca9	-0.023611384
167	0x3cb1d229	0.021706657
168	0x3eb3a4b1	0.35086587
169	0x3c68b28b	0.014202724
170	0x3e89dd74	0.26926768
171	0xbd90e686	-0.07075219
172	0x3e7e5f77	0.24841104
173	0xbf1c5d50	-0.61079884
174	0x3de4e85f	0.11177134
175	0xbdedd812	-0.11613478
176	0x3e659c69	0.22422947
177	0x3dd7c469	0.10535509
178	0x3ead05a0	0.33793354
179	0xbb930dc4	-0.004487725
180	0xbdc128b1	-0.094315894
181	0xbd2ae316	-0.041720472
182	0x3f095ec9	0.53660256
183	0x3e0c555e	0.1370444
184	0x3b581ad1	0.0032974968
185	0xbea90e46	-0.33018702
186	0x3c2e828b	0.010651241
187	0xbcfd0c93	-0.030889785
188	0x3c76c7f5	0.015062322
189	0xbe3abe78	-0.1823672
190	0x3dd9eddd	0.10641072
191	0xbdb7d284	-0.089756995
192	0xbdec08e5	-0.11525134
193	0x3e71f0c9	0.23627008
194	0x3e945dd3	0.28977832
195	0xbd1c9043	-0.038223516
196	0x3c149f63	0.009071204
197	0x3d28e9c6	0.04123857
198	0x3d9da22d	0.07696948
199	0xbe53f3a2	-0.20698407
200	0x3bc696af	0.0060604434
201	0x3d1a0d24	0.037610188
202	0xbe52c347	-0.20582305
203	0x3ed55fe1	0.41674712
204	0x3e9ba8a2	0.30402094
205	0xbdd12911	-0.10212911
206	0x3e675737	0.22591864
207	0x3de12767	0.109938435
208	0xbe8b03c9	-0.27151325
209	0x3ec36682	0.38164145
210	0xbc0b9bab	-0.008521001
211	0x3de78dd0	0.113063455
212	0x3c71f17e	0.014767049
213	0x3ea3b126	0.3197109
214	0x3ec16044	0.37768757
215	0x3ec335d7	0.38127014
216	0x3ee1d784	0.44109738
217	0xbd9cb348	-0.07651383
218	0xbbe6a707	-0.007038954
219	0x3e38d45f	0.18049763
220	0x3e29b834	0.16574174
221	0x3e00181c	0.12509197
222	0x3da924b4	0.08258954
223	0x3db35d53	0.087580346
224	0xbeaca996	-0.33723134
225	0xbe5c7384	-0.2152844
226	0x3dae4fa7	0.08511286
227	0xbdfdb305	-0.12387661
228	0xbe41e4f3	-0.18934993
229	0xbe669278	-0.22516811
230	0xbe16d274	-0.14728719
231	0x3d98ab1e	0.07454513
232	0x3e4a9d4a	0.19786564
233	0xbe0cffc4	-0.13769442
234	0x3d99186d	0.07475362
235	0x3dcfa61c	0.10139105
236	0x3e817df6	0.25291413
237	0x3f1dd2d8	0.6164985
238	0x3d949715	0.07255379
239	0x3d8c1e62	0.068417326
240	0x3eaf433b	0.3423098
241	0x3c2eaccd	0.010661316
242	0xbd3cad60	-0.04606378
243	0x3db0e592	0.08637537
244	0x3e2be5f4	0.16786939
245	0x3ce5480b	0.027988454
246	0xbddc6e86	-0.10763268
247	0x3d1e2ef2	0.03861899
248	0x3d96f679	0.0737123
249	0x3de6be8b	0.11266812
250	0x3e8cc1bd	0.2749156
251	0xbdb4692e	-0.08809124
252	0xbd7a87e9	-0.06116477
253	0xbd23a907	-0.03995612
254	0xbede592c	-0.43427408
255	0xbe631ed7	-0.22179733

encoder_lstm.weight_hh_l0 f4 [128, 32]
0	0xbf02067c	-0.50791144
1	0x3f404be6	0.7511581
2	0xbe1e3843	-0.1545115
3	0x3d8ff776	0.07029621
4	0x3fc481a3	1.5352062
5	0xbeb4a93b	-0.35285363
6	0x3ea41b4f	0.32052085
7	0xbf2a5c00	-0.6654663
8	0x3f296ea3	0.66184443
9	0x3eeaffe0	0.45898342
10	0x3f431c1c	0.76214767
11	0xbf4f8efb	-0.81077546
12	0xbe79e617	-0.24404179
13	0xbed13314	-0.40859282
14	0x3b538a28	0.0032278392
15	0x3f842615	1.0324122
16	0xbef81291	-0.48451665
17	0x3f02263e	0.508396
18	0x3d71543e	0.05891823
19	0x3e9cb1fc	0.3060454
20	0x3f472898	0.77796316
21	0x3f2a9177	0.6662821
22	0x3f5e3d66	0.86812437
23	0x3f1ef56d	0.6209324
24	0xbf220536	-0.632892
25	0xbf45c615	-0.77255374
26	0x3f1f358f	0.621911
27	0xbf2e2f11	-0.6804057
28	0x3f2aa7bb	0.66662186
29	0xbe333896	-0.17502055
30	0xbf268e7f	-0.6506118
31	0xbc688d69	-0.014193871
32	0xbea07362	-0.3133803
33	0xbda69e31	-0.08135641
34	0xbf2298f0	-0.63514614
35	0xbe7d34e2	-0.24727204
36	0xbdc921c2	-0.09820892
37	0xbd3dad7f	-0.046308037
38	0xbf276de2	-0.6540204
39	0xbf1b3fde	-0.6064433
40	0x3f2ee3a4	0.683161
41	0x3ea72777	0.32647297
42	0x3e781ebc	0.24230474
43	0xbebd7c7b	-0.37009034
44	0xbd2cfde9	-0.042234335
45	0x3ee28167	0.4423935
46	0x3f092b1d	0.5358141
47	0x3f0307d9	0.5118385
48	0xbecf54a9	-0.40494278
49	0x3f1558af	0.58338445
50	0xbf1c0846	-0.60950124
51	0x3e4d278d	0.20034619
52	0x3d30aad4	0.043131664
53	0x3edbeeea	0.42955714
54	0x3eabbb7b	0.33541474
55	0xbd841d51	-0.06450904
56	0xbe888eaf	-0.2667136
57	0x3f56a968	0.83852243
58	0x3eb40566	0.3516037
59	0xbf0ab400	-0.5418091
60	0x3e411a3f	0.18857668
61	0xbed46a0c	-0.41487157
62	0xbdbb70bd	-0.091523625
63	0xbc97e448	-0.01854147
64	0xbe930291	-0.28712896
65	0x3ec84935	0.39118353
66	0xbe33727d	-0.17524143
67	0xbec351c9	-0.38148335
68	0x3efc1d06	0.49240893
69	0xbd8403f9	-0.0644607
70	0x3d86cd0d	0.06582079
71	0x3ec07482	0.37588888
72	0x3cfb9d92	0.030714784
73	0xbe433645	-0.19063671
74	0xbe9cc490	-0.30618715
75	0xbd85a6cf	-0.06525957
76	0x3e9acfd3	0.30236682
77	0x3e43ee5e	0.19133899
78	0xbe5d9383	-0.21638303
79	0x3d7ccfb9	0.061721537
80	0xbe94b219	-0.29042128
81	0x3e979b24	0.2961055
82	0xbeb290f5	-0.34876218
83	0xbe247375	-0.16059668
84	0xbeca7258	-0.39540362
85	0xbebe3a13	-0.37153682
86	0xbdb1b7de	-0.08677648
87	0xbe40d068	-0.188295
88	0x3e235233	0.15949325
89	0x3e846c67	0.25863954
90	0xbf2f05df	-0.68368334
91	0xbee98480	-0.45608902
92	0xbbd5afd8	-0.0065212063
93	0xbe28a61b	-0.16469614
94	0xbf07393a	-0.52821696
95	0x3c99d00c	0.018775962
96	0xbf46cb2b	-0.7765376
97	0xbf26c9e7	-0.6515183
98	0xbeae4289	-0.34035137
99	0x3f569984	0.83827996
100	0xbeab2b88	-0.3343165
101	0x3dbf1cdb	0.093316756
102	0xbe988060	-0.29785442
103	0x3f8bc95d	1.0920826
104	0xbf3c1de7	-0.7348313
105	0xbe36654a	-0.17812076
106	0xbf0e7c68	-0.5565858
107	0x3e1aa117	0.15100513
108	0x3f2d4850	0.67688465
109	0x3f2e7461	0.6814633
110	0xbe9807e2	-0.29693514
111	0x3c450dd0	0.012027219
112	0x3e91aae4	0.28450692
113	0xbd83156f	-0.064005725
114	0xbf10d2ce	-0.5657166
115	0xbe3aced4	-0.18242961
116	0xbdfd3cc4	-0.12365106
117	0xbf5ae1f0	-0.85501003
118	0xbf27985f	-0.65466875
119	0xbf4a3119	-0.7898117
120	0x3f8662ca	1.0498898
121	0x3e7c4bae	0.24638245
122	0xbf54cd70	-0.8312597
123	0xbe0cd4e9	-0.13753094
124	0xbebf7e37	-0.37400982
125	0x3ec464db	0.38358197
126	0x3eb4d491	0.35318425
127	0xbe12ae47	-0.14324294
128	0x3f25f988	0.6483388
129	0xbcc49616	-0.023997348
130	0xbdd64986	-0.10463242
131	0x3dbc3a78	0.091908395
132	0xbecbd454	-0.3981043
133	0xbe4d813e	-0.20068833
134	0x3d4000ad	0.046875644
135	0xbde3970c	-0.11112794
136	0x3f01947b	0.5061719
137	0xbf1708bb	-0.58997697
138	0xbd9ff2b8	-0.07809967
139	0x3f42b51f	0.7605762
140	0xbe3b0948	-0.1826526
141	0x3e4bda02	0.19907382
142	0x3ed81511	0.42203572
143	0xbf4fd406	-0.811829
144	0x3dca5050	0.098786
145	0x3e370f1d	0.17876859
146	0x3f046269	0.5171266
147	0xbf080c8a	-0.53144133
148	0x3e330728	0.17483199
149	0x3eef3204	0.46717846
150	0xbd34a84c	-0.044105813
151	0x3e494aa7	0.19657384
152	0x3d10bd3f	0.03533673
153	0xbda0fe72	-0.078610316
154	0xbe052581	-0.13002588
155	0xbf28ed3e	-0.65987
156	0x3f5a5333	0.852832
157	0xbdb572fe	-0.08859824
158	0xbdb1107f	-0.086457245
159	0xbe62f7ff	-0.22164916
160	0x3ecb47ea	0.39703304
161	0x3f2aa388	0.6665578
162	0xbe54b2af	-0.20771287
163	0xbee709d3	-0.45124683
164	0x3f1acaea	0.6046587
165	0xbf5cdf13	-0.86277884
166	0xbf16c13b	-0.58888596
167	0xbf0a237a	-0.5396038
168	0x3ea141bf	0.31495473
169	0x3ea66dc4	0.3250562
170	0x3f425908	0.759171
171	0xbe9f9433	-0.31167755
172	0xbe9993bc	-0.29995525
173	0xbf15e5d2	-0.585538
174	0x3e94880f	0.29010054
175	0xbeb312ba	-0.34975225
176	0xbca7317d	-0.02040934
177	0x3e17bfe4	0.14819294
178	0x3ee573bb	0.44814858
179	0x3ec6c706	0.38823718
180	0x3e83c615	0.25737062
181	0x3ec70f66	0.38878936
182	0x3f5c9459	0.8616386
183	0x3f9e580b	1.2370619
184	0xbeda98b5	-0.4269463
185	0x3e7b9647	0.24569045
186	0x3ea1c819	0.31597975
187	0xbe8c36be	-0.27385515
188	0x3f6baafb	0.9205777
189	0x3cade589	0.021227615
190	0xbec7ed59	-0.3904827
191	0x3d4f311e	0.05058395
192	0x3e877239	0.26454332
193	0xbebfd98b	-0.3747066
194	0x3efc17b0	0.49236822
195	0x3f17fd5f	0.5937099
196	0xbe92dd56	-0.2868449
197	0x3db0661d	0.086132266
198	0x3f8ca574	1.0987992
199	0x3eaec898	0.34137416
200	0xbe821db8	-0.254133
201	0x3ea5bb9d	0.323697
202	0xbe90e53c	-0.28299892
203	0xbf59f537	-0.85139793
204	0x3eb05106	0.34436816
205	0x3e340ae2	0.17582276
206	0xbe06b891	-0.13156344
207	0xbf4c1248	-0.79715395
208	0x3d3ea82e	0.046547107
209	0xbf488051	-0.78320795
210	0xbe73cb3e	-0.23808
211	0xbeed0c69	-0.4629853
212	0xbe5243b0	-0.20533633
213	0x3f0ad367	0.54228824
214	0x3ea488cf	0.32135627
215	0xbec7320b	-0.38905367
216	0x3ea8a895	0.32941118
217	0xbed4ed4b	-0.4158729
218	0x3deecc2c	0.116600364
219	0x3ebede82	0.37279135
220	0xbe98ae43	-0.2982045
221	0x3c2e42d3	0.010636049
222	0xbcd2ccd1	-0.02573243
223	0x3e81521f	0.25257966
224	0x3e4367a4	0.19082505
225	0xbd7a36c6	-0.061087392
226	0xbe367f6d	-0.17822047
227	0xbeb01aae	-0.34395355
228	0x3e84d630	0.25944662
229	0xbf255406	-0.64581335
230	0xbd06672d	-0.03281324
231	0x3e997590	0.29972506
232	0x3d89a685	0.06721214
233	0xbea7ae0e	-0.3274998
234	0x3e923ae9	0.2856057
235	0xbd85f107	-0.06540113
236	0xbe52d651	-0.20589568
237	0x3e7dfdc8	0.24803841
238	0x3ebd28fe	0.36945337
239	0x3eb9a07d	0.36255255
240	0x3e82448c	0.25442922
241	0x3e47a3ca	0.19496074
242	0xbcb22f60	-0.021751106
243	0x3e0132a5	0.12616976
244	0x3eb3098d	0.34968224
245	0xbbf9d31e	-0.007624044
246	0x3ef46b06	0.47737902
247	0x3ec9087b	0.39264283
248	0x3ed2e483	0.41189966
249	0x3bc8b210	0.0061247423
250	0x3e822036	0.254152
251	0xbf2286bf	-0.63486856
252	0x3e11b9a2	0.1423097
253	0xbea69719	-0.32537153
254	0xbe935913	-0.28778896
255	0xbef41c0a	-0.47677642

encoder_lstm.bias_ih_l0 f4 [128]
0	0xbe6e02c6	-0.23243245
1	0x3cb9d236	0.022683244
2	0x3d916c51	0.07100738
3	0x3dde4068	0.10852128
4	0x3e69e401	0.22840883
5	0x3f7e7731	0.9940062
6	0xbd140248	-0.036134988
7	0x3ef09097	0.46985313
8	0xbedb8f66	-0.42882842
9	0x3e72c004	0.2370606
10	0xbd47d4c8	-0.04878691
11	0xbca91a15	-0.02064232
12	0xbcdbfcb9	-0.026853906
13	0x3dc592c2	0.096471325
14	0xbe9e2e0c	-0.30894506
15	0xbe2f29fc	-0.1710586
16	0xbd1d837a	-0.038455464
17	0x3d23850b	0.0399218
18	0x3d05ad27	0.032635834
19	0x3d0f6bb1	0.035014812
20	0x3e9434b6	0.28946465
21	0x3eaab490	0.33340883
22	0x3eddc22b	0.433122
23	0x3ecae9a2	0.39631373
24	0x3ecf0d4e	0.40439838
25	0xbdae3c7f	-0.085076325
26	0xbe9084aa	-0.28226215
27	0x3d1a8575	0.03772493
28	0xbd9b14b2	-0.07572307
29	0xbddcacbc	-0.10775134
30	0x3aa6f42a	0.0012737561
31	0xbe696bb9	-0.22794999
32	0x3efd6a7f	0.49495313
33	0x3e65503e	0.22393891
34	0xbe58a08e	-0.21154997
35	0x3f18276a	0.5943514
36	0x3e7fe8ea	0.24991193
37	0x3e3a6ede	0.18206355
38	0x3e306319	0.17225303
39	0x3e480faa	0.19537225
40	0x3e309fb7	0.17248426
41	0xbe6d415e	-0.23169467
42	0x3e89e188	0.2692988
43	0xbdaf3810	-0.08555615
44	0x3e8ce8b7	0.27521297
45	0xbe1ee8e0	-0.15518522
46	0xbe0a5511	-0.13509013
47	0xbeb23f91	-0.34814122
48	0xbdc6f883	-0.097153686
49	0xbe8f7335	-0.28017583
50	0x3f0bd7f4	0.54626393
51	0xbd993002	-0.0747986
52	0x38395fda	4.4196706e-05
53	0x3bc96d36	0.006147052
54	0x3e083981	0.13303186
55	0xbe1b5e17	-0.15172611
56	0xbe01e141	-0.12683584
57	0xbe8d8377	-0.27639362
58	0xbd25bcf0	-0.040463388
59	0xbe857034	-0.26062167
60	0xbd3b0162	-0.045655616
61	0x3e7b0be5	0.24516256
62	0x3d737a29	0.059442673
63	0x3f05f57d	0.5232771
64	0xbea66727	-0.32500574
65	0x3eebd089	0.46057537
66	0xbed686f5	-0.4189984
67	0xbea838b0	-0.3285575
68	0x3e13d8a5	0.14438112
69	0xbedfa8e1	-0.43683532
70	0x3d137889	0.036003623
71	0xbe9b4e0a	-0.30332977
72	0xbce02b72	-0.027364466
73	0x3e93eec3	0.28893098
74	0x3bdf0977	0.006806548
75	0x3ce757fa	0.028240193
76	0xbef6ea06	-0.4822542
77	0xbeb75417	-0.35806343
78	0xbd474772	-0.04865212
79	0x3cbfe9ea	0.023426969
80	0x3c665a36	0.014059594
81	0x3e706da4	0.23479325
82	0x3db74dd0	0.089503884
83	0x3c9e77a7	0.019344164
84	0xbe7af55d	-0.24507661
85	0x3e83bb56	0.25728863
86	0x3e3c62bb	0.18397038
87	0x3e8deaa9	0.27718094
88	0xbe82bd9c	-0.25535285
89	0x3e130bea	0.14360014
90	0x3e9da8a1	0.30792716
91	0xbed68699	-0.41899565
92	0x3e8b9ae7	0.2726662
93	0xbe0004ab	-0.1250178
94	0xbe7a82f6	-0.2446402
95	0xbeb55d72	-0.35422856
96	0x3e1f1b82	0.15537837
97	0xbded601a	-0.115905955
98	0xbf16a4c3	-0.58845156
99	0x3e6cca77	0.23124109
100	0x3ebea83d	0.3723773
101	0x3ec59753	0.38592014
102	0x3e5abb0e	0.21360418
103	0x3ed31032	0.41223294
104	0xba6102fc	-0.00085835136
105	0xbb3d2982	-0.0028863852
106	0x3ed00657	0.40629837
107	0xbe82e0b0	-0.25562048
108	0x3b4ccd41	0.003125027
109	0xbdb2ef88	-0.08737093
110	0xbd531aad	-0.051539112
111	0xbe8494b0	-0.2589469
112	0xbd8a7687	-0.067608885
113	0x3d19a55d	0.03751122
114	0x3ead4019	0.33837965
115	0xbe53e88c	-0.20694178
116	0xbe6ba287	-0.23011218
117	0xbd2baba8	-0.04191175
118	0xbc683416	-0.0141725745
119	0x3ecfe053	0.40600833
120	0xbe331797	-0.17489468
121	0xbe907d94	-0.28220809
122	0xbe46f0ad	-0.19427748
123	0x3e1de6c8	0.15420067
124	0x3f69963e	0.91244876
125	0x3dd60362	0.10449864
126	0xbeacb0fa	-0.33728772
127	0x3e54cd3f	0.2078142

encoder_lstm.bias_hh_l0 f4 [128]
0	0x3c23426e	0.009964569
1	0xbe163ebd	-0.1467237
2	0xbc664803	-0.014055255
3	0x3db09c53	0.086235665
4	0x3e8d857a	0.27640897
5	0x3f383eba	0.71970713
6	0x3e541195	0.20709832
7	0x3ead2440	0.3381672
8	0xbe288421	-0.16456653
9	0x3e291c26	0.16514644
10	0xbe007e88	-0.12548268
11	0xbe5b2248	-0.21399796
12	0xbdd3bdb6	-0.10338919
13	0x3e876bd8	0.26449466
14	0xbecc8c2e	-0.399507
15	0xbe1443c6	-0.14478979
16	0xbe2fc185	-0.17163666
17	0x3b927394	0.0044693444
18	0xbcb1a4fc	-0.021685116
19	0xbd4e3986	-0.050347827
20	0x3e24fcc3	0.16112046
21	0x3e9b3229	0.30311707
22	0x3edee94b	0.43537363
23	0x3e978be0	0.29598904
24	0x3ea3915e	0.31946844
25	0x3e32073c	0.17385572
26	0xbeed15ae	-0.46305603
27	0x3d4bf937	0.049798217
28	0x3daa85d3	0.08326306
29	0xbea99515	-0.33121553
30	0xbe6fa384	-0.2340222
31	0x3d1438e3	0.036187064
32	0x3ec75d7e	0.38938516
33	0x3ebd94fa	0.37027723
34	0xbe734596	-0.23757014
35	0x3eeec97c	0.46638095
36	0x3d9b0c91	0.07570756
37	0x3e181e9f	0.14855431
38	0x3d2653d5	0.040607292
39	0x3e26fb3b	0.16306774
40	0x3eb6c209	0.35694912
41	0xbd8fcfa5	-0.07022027
42	0x3e8c6b15	0.27425447
43	0xbde70891	-0.11280931
44	0x3eca0108	0.39453912
45	0xbe09c06e	-0.13452312
46	0x3e2ce642	0.16884711
47	0xbec504c8	-0.3848021
48	0xbea3e924	-0.3201381
49	0xbf0c98c3	-0.54920596
50	0x3f0a7660	0.54086876
51	0xbe599782	-0.21249202
52	0xbe083ac3	-0.13303666
53	0x3dd5d605	0.104412116
54	0x3db12e53	0.08651414
55	0xbe1eee78	-0.15520656
56	0xbd0694a3	-0.032856595
57	0xbec0bf73	-0.37646064
58	0xbe452f4a	-0.1925632
59	0xbeef6efd	-0.46764365
60	0x3e8b2dcf	0.27183387
61	0x3eb10aba	0.34578496
62	0x3e818e1d	0.25303736
63	0x3ec2a968	0.38019872
64	0xbdd81e3a	-0.1055264
65	0x3e9b5e49	0.3034537
66	0xbe582231	-0.21106793
67	0xbf198a1c	-0.59976363
68	0xbdc3f5e6	-0.09568386
69	0xbeb441fa	-0.35206586
70	0x3d1d30c7	0.038376596
71	0xbe73e21e	-0.23816726
72	0x3e6d48ea	0.23172346
73	0x3e434d6a	0.190725
74	0x3e0a818f	0.13525985
75	0x3dc7ca95	0.09755436
76	0xbeee4110	-0.46534014
77	0xbe091836	-0.13388142
78	0x3d09f9f3	0.033685636
79	0x3db4f3b4	0.08835545
80	0x3d500c6d	0.0507931
81	0x3bdf4ebd	0.0068148063
82	0x3e1eaf32	0.15496519
83	0xbe42fd38	-0.19041908
84	0xbe24779a	-0.1606125
85	0x3d664053	0.056213688
86	0x3de14e39	0.11001248
87	0x3f04b2df	0.51835436
88	0xbea8aad3	-0.3294283
89	0xbcac170c	-0.021007083
90	0x3e7ffd2f	0.24998926
91	0xbeba5d44	-0.3639928
92	0x3e86d333	0.26333007
93	0xbec23991	-0.37934545
94	0xbf11ae31	-0.5690642
95	0xbe269bbf	-0.1627035
96	0x3e1132ac	0.14179486
97	0x3db60edd	0.08889554
98	0xbed1fcbb	-0.4101313
99	0x3edb47c8	0.42828202
100	0x3eb0c84d	0.34527817
101	0x3f098815	0.5372327
102	0x3e95b2e6	0.2923805
103	0x3e9dd74d	0.30828324
104	0xbe0e52c0	-0.13898754
105	0xbe216664	-0.15761715
106	0x3e4bdbb8	0.19908035
107	0xbd8648fb	-0.06556889
108	0x3ea06043	0.31323442
109	0xbde31461	-0.11087871
110	0x3d201b3e	0.03908848
111	0xbe1f1dec	-0.15538758
112	0xbeb0e422	-0.34549052
113	0x3e77a645	0.2418452
114	0x3e8e86df	0.27837273
115	0xbcd10a78	-0.025517687
116	0xbe1a424b	-0.15064351
117	0x3ca664db	0.020311764
118	0x3dcb9970	0.09941375
119	0x3e8098af	0.25116488
120	0xbd883066	-0.06649856
121	0xbe815f07	-0.25267813
122	0xbd907ea3	-0.07055404
123	0x3e8d5879	0.27606562
124	0x3f6152db	0.8801705
125	0x3db9c40b	0.09070595
126	0xbe51c6bd	-0.20485969
127	0x3e5e205a	0.21692029

encoder_lstm.weight_ih_l1 f4 [128, 32]
0	0x3ea6e1fe	0.32594293
1	0x3cd49fa4	0.025955029
2	0x3e08e704	0.13369375
3	0xbe95f390	-0.29287386
4	0x3ebdce48	0.37071443
5	0x3e2d68fc	0.1693458
6	0xbe87c884	-0.2652017
7	0x3e7cd3c7	0.24690162
8	0x3cf9cf27	0.030494286
9	0x3dcaec96	0.099084064
10	0x3e14065d	0.14455552
11	0xbc69d1b2	-0.014271187
12	0xbdeb2844	-0.114822894
13	0xbf2fa885	-0.68616515
14	0x3dc56d55	0.09639994
15	0xbd64a795	-0.05582388
16	0x3cb33082	0.021873716
17	0xbe62418a	-0.22095314
18	0xbe800874	-0.2500645
19	0x3db2d60b	0.08732232
20	0x3e6d65ea	0.23183408
21	0x3e800e1b	0.25010762
22	0x3dfaf579	0.122538514
23	0x3dbcf8b7	0.09227126
24	0x3ea7d456	0.32779187
25	0x3ea696cb	0.3253692
26	0x3ee9a6e9	0.45635155
27	0xbf1db9c8	-0.61611605
28	0x3eecd5ef	0.46256968
29	0xbe0b6b58	-0.13615167
30	0xbd339697	-0.043844786
31	0xbe17d865	-0.14828642
32	0x3e9d90a0	0.30774403
33	0xbe5101c9	-0.20410837
34	0x3b238666	0.0024951934
35	0xbcf3ffcb	-0.029785058
36	0x3ed10cc1	0.40830043
37	0xbeab5510	-0.33463335
38	0xbeaa0783	-0.33208856
39	0x3ede5e2b	0.4343122
40	0xbe71695b	-0.23575346
41	0xbe80de56	-0.2516963
42	0x3dc2fef6	0.09521286
43	0x3d86f76c	0.06590161
44	0x3e1fb827	0.15597592
45	0x3e12eba8	0.14347708
46	0xbe6a0672	-0.22854021
47	0xbd6beb4d	-0.057597447
48	0xbdeceb79	-0.1156835
49	0xbea4b2c2	-0.3216763
50	0x3d82b29d	0.06381724
51	0xbe373030	-0.17889476
52	0x3eb6c710	0.35698748
53	0xbe849182	-0.25892264
54	0x3d9ca266	0.076481625
55	0xbe2b14e7	-0.16707192
56	0x3f01b87d	0.5067213
57	0xbf0f5710	-0.5599222
58	0xbd4d6436	-0.050144397
59	0x3c6c4b68	0.014422275
60	0x3e9602f4	0.29299128
61	0xbe826fd4	-0.25475943
62	0xbf2493cf	-0.6428804
63	0x3e854c73	0.2603489
64	0xbe45068a	-0.19240776
65	0x3e990b8f	0.2989163
66	0xbc8ce764	-0.01720018
67	0x3f4ad513	0.79231375
68	0x3caf15cd	0.0213727
69	0x3f319081	0.6936112
70	0x3ee18948	0.4405005
71	0x3f063a8a	0.52433074
72	0x3acdebe4	0.001571056
73	0xbca95922	-0.020672385
74	0xbda2f4cb	-0.07956847
75	0x3e2218e2	0.15829805
76	0x3c8fa027	0.017532421
77	0x3d889cbb	0.06670519
78	0x3e67d6f8	0.22640598
79	0x3d6d7d6d	0.057980943
80	0x3e06a39e	0.13148353
81	0x3ce29d2f	0.027662842
82	0x3d10ef0e	0.03538423
83	0x3e477d1e	0.19481322
84	0x3cf664bb	0.030077329
85	0xbea6fc37	-0.326143
86	0xbe4132b5	-0.18867
87	0xbea4ee0a	-0.3221286
88	0xbe8b83d4	-0.27249014
89	0xbd438556	-0.04773458
90	0xbe875b49	-0.26436833
91	0x3f38e320	0.72221565
92	0x3da9f09a	0.08297844
93	0xbef3c7b4	-0.476133
94	0x3d2a0276	0.041506253
95	0x3e82845d	0.2549161
96	0x3d1b0b0c	0.037852332
97	0x3f122ffb	0.5710446
98	0xbe7b0eeb	-0.2451741
99	0xbe9dcae5	-0.3081886
100	0x3efccb52	0.4937387
101	0xbedf5aba	-0.43623906
102	0xbec2ab83	-0.38021478
103	0xbe0c6030	-0.13708568
104	0xbe10d08d	-0.14142056
105	0xbd30caa6	-0.04316201
106	0x3f05c201	0.5224915
107	0x3cf76933	0.03020153
108	0x3f08f851	0.535039
109	0xbd21bf78	-0.03948924
110	0x3ebb1152	0.36536652
111	0xbd460fa2	-0.048354752
112	0xbe2b6129	-0.16736282
113	0xbe356727	-0.17715131
114	0x3e598f4b	0.21246068
115	0xbeb00a16	-0.34382695
116	0x3e8a2d7a	0.2698782
117	0xbd9e3aae	-0.07726036
118	0x3e30ae44	0.17253977
119	0x3e8c7c13	0.2743841
120	0x3e86468a	0.26225692
121	0x3e53a077	0.20666681
122	0xbe82f0dc	-0.25574386
123	0x3e8d33f6	0.27578706
124	0x3efe8b41	0.49715617
125	0xbea61c75	-0.32443586
126	0x3d6d5329	0.057940636
127	0x3e4863a0	0.19569254
128	0xbe2f1d62	-0.17101052
129	0x3e66ffb6	0.22558483
130	0xbeb4f44b	-0.3534263
131	0x3ad8c1ab	0.001653721
132	0x3e51f670	0.20504165
133	0xbd16c272	-0.03680653
134	0x3ba202b0	0.004944168
135	0xbe6c82b8	-0.2309674
136	0xbf7abae3	-0.97941417
137	0x3cc1ae57	0.023642702
138	0x3e21d6d6	0.1580461
139	0xbe7ba467	-0.24574433
140	0xbea70f48	-0.32628846
141	0x3e1244d9	0.14284076
142	0x3d08b729	0.0333778
143	0x3da27bbd	0.079337575
144	0xbe248d36	-0.16069493
145	0x3e6fc48f	0.23414825
146	0x3eaba2c4	0.33522618
147	0xbe39daa3	-0.1814981
148	0xbec54266	-0.3852722
149	0xbf015640	-0.5052223
150	0xbe9e3c8f	-0.30905578
151	0x3d895d36	0.06707232
152	0xbe5b4ac6	-0.21415243
153	0x3e886ffa	0.2664793
154	0xbeb3ab18	-0.35091472
155	0x3db4192d	0.087938644
156	0x3eefd2cf	0.46840522
157	0xbeea6dd2	-0.4578691
158	0x3e029e8b	0.12755792
159	0x3eea3443	0.45742998
160	0xbdd7ea26	-0.10542707
161	0xbca74434	-0.020418264
162	0xbe3fc8b3	-0.18728904
163	0x3c76e727	0.015069759
164	0x3d867c4f	0.06566679
165	0xbdba64a8	-0.0910123
166	0x3d4f4def	0.050611433
167	0xbe345045	-0.17608745
168	0xbdaf7b04	-0.08568385
169	0xbe0fd50b	-0.14046113
170	0x3cceb8d1	0.025234612
171	0xbe1d1722	-0.15340856
172	0xbc27fb0d	-0.010252726
173	0xbd65d9e6	-0.056116007
174	0xbdd9292b	-0.10603555
175	0x3ea43032	0.3206802
176	0xbe296848	-0.16543686
177	0x3f06a9ea	0.5260302
178	0x3ed25ea1	0.4108782
179	0x3ea7db89	0.3278468
180	0xbdd0f024	-0.10202053
181	0xbe4941ae	-0.19653961
182	0x3d00e5b0	0.031469047
183	0x3e2a0b90	0.16605973
184	0xbe67e145	-0.22644527
185	0x3e25c201	0.16187288
186	0x3df0c9ab	0.11757215
187	0x3e8b047a	0.27151853
188	0xbe201cd2	-0.15635994
189	0x3daaf1e7	0.083469205
190	0x3ba0689a	0.004895282
191	0xbbf07c22	-0.0073390165
192	0xbdb00271	-0.08594216
193	0xbd6d50c4	-0.057938352
194	0xbef6804e	-0.48144764
195	0x3f2b19ab	0.6683604
196	0xbf015cbc	-0.50532126
197	0x3f22f30f	0.6365213
198	0xbe103e88	-0.14086354
199	0x3ddf6455	0.10907809
200	0xbd3e5712	-0.046469755
201	0xbde2b842	-0.11070301
202	0x3e499080	0.19684029
203	0x3e0bdf55	0.13659413
204	0x3dce764d	0.10081158
205	0x3def59a0	0.116870165
206	0xbda50189	-0.080569334
207	0xbdaf11b6	-0.085483
208	0x3e1d0eb9	0.15337647
209	0xbe37d8ba	-0.17953768
210	0xbe336eaa	-0.17522684
211	0x3e86bd0c	0.26316106
212	0x3e274fe6	0.16339073
213	0xbde49a3b	-0.111622296
214	0xbe32b877	-0.1745318
215	0x3e75a2b4	0.23987848
216	0x3c8f73f9	0.017511355
217	0xbc00f10a	-0.007869968
218	0x3e001e29	0.12511505
219	0xbe368996	-0.17825922
220	0xbe89a8bd	-0.2688655
221	0x3ed1fa4a	0.41011268
222	0x3df7946e	0.120888576
223	0xbf1dc93b	-0.6163518
224	0x3d135fef	0.03598016
225	0x3e05d240	0.13068485
226	0xbd7994fd	-0.060933102
227	0x3dfae3a2	0.12250449
228	0x3d196e18	0.03745851
229	0x3e202321	0.156384
230	0x3f36a6c2	0.713482
231	0x3f3e2585	0.74276
232	0xbec17399	-0.37783507
233	0xbeb81ad6	-0.35957974
234	0xbe54bd53	-0.20775346
235	0x3de74660	0.1129272
236	0x3e12b1d2	0.14325646
237	0xbb641e4f	-0.0034808104
238	0xbd6d882f	-0.057991203
239	0xbe21b7e9	-0.15792812
240	0x3ea025ce	0.31278843
241	0xbe2de89a	-0.16983262
242	0xbec5ece1	-0.38657287
243	0x3e5acfc8	0.21368325
244	0x3e52acfd	0.20573802
245	0x3dea9222	0.11453654
246	0x3e280c06	0.16410837
247	0xbf3949e0	-0.7237835
248	0x3ecf1430	0.4044509
249	0xbed67c35	-0.41891637
250	0xbbb86033	-0.005626702
251	0xbca911b6	-0.020638328
252	0x3e89ed9d	0.26939097
253	0xbc9d2fe6	-0.019187879
254	0x3d4d7527	0.050160553
255	0xbc94ab05	-0.018147955

encoder_lstm.weight_hh_l1 f4 [128, 32]
0	0xbd613dba	-0.054990508
1	0xbe5b3219	-0.2140583
2	0xbe2343fe	-0.15943906
3	0xbd36f14c	-0.044663712
4	0xbe244c1e	-0.16044661
5	0xbd1db584	-0.038503185
6	0x3d6f5e43	0.058439504
7	0xbcdabd4f	-0.026701597
8	0x3d9c7b4c	0.076407045
9	0xbd2187a8	-0.039436013
10	0x3e8fd305	0.28090683
11	0x3e43ac1e	0.19108626
12	0xbe05e9f2	-0.13077524
13	0xbeacf85c	-0.33783233
14	0x3d787be0	0.06066501
15	0xbd36f951	-0.04467136
16	0xbf1976a8	-0.5994668
17	0x3e2f77c2	0.17135528
18	0xbe998a75	-0.29988447
19	0x3ea6c280	0.32570267
20	0x3d23c1f8	0.039979905
21	0xbe7379b8	-0.23776901
22	0xbdb74fe1	-0.089507826
23	0x3eb9c630	0.36284018
24	0x3c5dd2c7	0.013539023
25	0xbe1ac1c8	-0.15112984
26	0x3e480b99	0.19535674
27	0x3e9a400c	0.3012699
28	0xbe2d158c	-0.1690275
29	0x3e8d05a5	0.2754337
30	0xbd0ce312	-0.03439624
31	0xbeba6ecc	-0.36412656
32	0x3dbc81f4	0.09204474
33	0xbe48c647	-0.19606887
34	0x3e7f1ea9	0.2491404
35	0x3ce73d01	0.028227331
36	0xbe8e12e5	-0.2774879
37	0x3eb98154	0.36231482
38	0xbe3081ed	-0.17237063
39	0xbea27b91	-0.317349
40	0x3e001a8e	0.1251013
41	0x3b3569e8	0.0027681533
42	0xbe261a8a	-0.16221061
43	0xbc7b5eee	-0.015342457
44	0xbca91adf	-0.020642696
45	0xbc72dcb5	-0.0148231285
46	0x3c8bc3bd	0.017061109
47	0x3cbbd9b5	0.02293096
48	0x3e801ec8	0.25023484
49	0x3e0d2cb9	0.13786592
50	0xbe6f3d11	-0.23363139
51	0x3eabaa95	0.3352858
52	0x3d1fb2e2	0.038988955
53	0xbdc629e4	-0.09675959
54	0x3e986158	0.29761767
55	0x3d8d2e27	0.068935685
56	0xbe66c9d4	-0.22537929
57	0x3e8596a7	0.260915
58	0x3e72abf0	0.23698401
59	0x3e892a7e	0.2679023
60	0xbddba1fd	-0.10724256
61	0xbbbe3606	-0.00580478
62	0x3ea5e5ca	0.32401878
63	0x3daaa00a	0.08331306
64	0xbe1fed67	-0.15617906
65	0x3db7004b	0.08935603
66	0xbec51b8c	-0.3849758
67	0xbddc904b	-0.10769709
68	0xbe70390a	-0.23459259
69	0x3de9e904	0.11421397
70	0xbdaee520	-0.08539796
71	0xbd0e9a6c	-0.034815237
72	0x3e80ca1c	0.25154197
73	0x3de89554	0.11356607
74	0x3e125174	0.14288884
75	0xbe924882	-0.28570944
76	0xbd0aed44	-0.03391768
77	0x3e14638f	0.14491104
78	0x3d2640cf	0.04058915
79	0x3ec1ee63	0.37877187
80	0x3e9b7bfd	0.30368033
81	0xbe04c4ea	-0.12965742
82	0x3e078eab	0.13238017
83	0xbde67531	-0.11252821
84	0x3dbf3144	0.093355685
85	0xbdde4ad8	-0.10854119
86	0x3d340f94	0.04396017
87	0x3e27691b	0.16348688
88	0xbcbe5e22	-0.023238245
89	0x3e4a8eac	0.19780988
90	0x3e49bf8c	0.19701976
91	0xbcf9b970	-0.030483931
92	0x3dd2bd29	0.10289986
93	0x3d7228fe	0.059121124
94	0xbdca6818	-0.098831356
95	0xbb9fb42b	-0.0048737726
96	0x3cefa4ef	0.029253451
97	0x3e5b0c25	0.21391352
98	0x3dbf1529	0.09330208
99	0xbe8b9320	-0.27260685
100	0x3e52cbb2	0.20585516
101	0xbecc27cf	-0.39874122
102	0xbd6d1bae	-0.057887726
103	0xbe8f8636	-0.28032082
104	0x3e928b7d	0.28622046
105	0xbe55665b	-0.20839827
106	0xbd777591	-0.060414854
107	0xbc7e37c8	-0.015516229
108	0x3d9c9888	0.076462805
109	0x3ddd5aa5	0.10808305
110	0x3e686c75	0.22697623
111	0xbd79d898	-0.060997576
112	0xbd3bda48	-0.045862466
113	0xbd0537c7	-0.032523897
114	0xbe3f841a	-0.18702736
115	0xbe022787	-0.12710391
116	0x3e549c33	0.2076271
117	0x3e830522	0.25589854
118	0xbd6814e5	-0.05666055
119	0x3e99a8a5	0.30011478
120	0x3e7cc282	0.24683574
121	0x3c8116a5	0.015757868
122	0x3dde405b	0.108521186
123	0xbdd46ebd	-0.10372684
124	0x3da3d59a	0.07999726
125	0xbdfc5f53	-0.12322869
126	0x3a9915c7	0.0011679464
127	0x3e5205da	0.20510045
128	0xbe8834c5	-0.2660276
129	0xbebde3d0	-0.3708787
130	0xbeb9e94f	-0.36310813
131	0x3e7410fd	0.23834606
132	0xbd646ecf	-0.055769738
133	0xbda2b104	-0.07943919
134	0xbc0d9a9b	-0.008642818
135	0xbea53e69	-0.32274178
136	0xbd4e221a	-0.05032549
137	0xbe3f5639	-0.18685235
138	0xbe0a4b18	-0.13505208
139	0xbecf11f8	-0.40443397
140	0xbc096017	-0.008384726
141	0x3ee88c2c	0.45419443
142	0x3dbb0bbf	0.091331
143	0x3eaf2752	0.34209687
144	0x3f330b9f	0.6993961
145	0x3ea79ccc	0.32736814
146	0xbd2faf38	-0.04289171
147	0xbeae7136	-0.34070748
148	0xbdd5984a	-0.104294375
149	0xbe851941	-0.2599583
150	0xbe689b61	-0.22715522
151	0x3d85910f	0.06521808
152	0xbd252dc7	-0.04032686
153	0x3d916ac4	0.07100442
154	0xbdeaf737	-0.11472934
155	0x3d5ae6ac	0.053442642
156	0xbdcf249a	-0.10114403
157	0xbbb21f84	-0.005435886
158	0xbc1a8ad5	-0.009432514
159	0x3dd375a4	0.103251725
160	0xbe3aefd7	-0.18255554
161	0xbe092d18	-0.13396108
162	0xbe477958	-0.19479883
163	0xbe81eec5	-0.2537748
164	0x3e0c551a	0.13704339
165	0xbd8bbe47	-0.06823402
166	0xbe8ddf2c	-0.2770933
167	0x3f0ab247	0.5417828
168	0x3ed269a2	0.41096216
169	0x3e31e508	0.17372525
170	0x3e8c5bf3	0.27413902
171	0xbd65cfb4	-0.056106284
172	0x3e206c7a	0.1566638
173	0xbc3b9cc7	-0.011450953
174	0xbd296876	-0.041359387
175	0xbddd27f6	-0.107986376
176	0x3e7531e7	0.23944817
177	0xbec1b6b8	-0.37834716
178	0xbd396615	-0.04526337
179	0xbead76e9	-0.33879784
180	0xbcf15fd7	-0.029464645
181	0x3da5710e	0.08078204
182	0xbe9e77eb	-0.30950865
183	0xbe240d9c	-0.16020817
184	0x3d977e85	0.073971786
185	0x3eb76c26	0.35824698
186	0x3e6863ce	0.22694322
187	0xbea0b194	-0.3138548
188	0xbd40ae78	-0.047041386
189	0xbe5799c4	-0.2105475
190	0xbf17804b	-0.59180135
191	0x3ca3f094	0.020012178
192	0x3e7f7382	0.24946406
193	0xbe82848c	-0.2549175
194	0xbe93e8df	-0.28888604
195	0xbe625a89	-0.22104849
196	0xbed04a74	-0.40681803
197	0x3f022d40	0.50850296
198	0x3da0af4c	0.07845935
199	0x3e21cfba	0.15801898
200	0xbed89939	-0.423044
201	0xbe91c5df	-0.28471276
202	0x3e77cc71	0.24199082
203	0xbd3bc477	-0.04584166
204	0x3eb1c674	0.3472172
205	0xbdc20e19	-0.09475345
206	0xbca1a0b3	-0.019729948
207	0xbdd8a758	-0.10578793
208	0xbe879970	-0.2648425
209	0xbde2c31a	-0.11072369
210	0x3ddd00ac	0.10791144
211	0xbd6418b1	-0.05568761
212	0x3d192566	0.03738918
213	0x3e8ee96c	0.27912462
214	0x3e8dd6c8	0.27702928
215	0xbda39804	-0.07987979
216	0x3d00b6ce	0.031424336
217	0xbca42da7	-0.0200413
218	0xbe9d4ef3	-0.30724296
219	0x3e3ccb6e	0.18436977
220	0x3f0388a5	0.5138038
221	0xbeb48306	-0.35256213
222	0x3eabd23c	0.33558834
223	0xbcda4a0c	-0.026646636
224	0xbe7e71db	-0.2484812
225	0xbdc96c56	-0.098351166
226	0xbeedd5ef	-0.4645228
227	0x3e4fcb3a	0.20292369
228	0xbf23ebff	-0.64031976
229	0x3e8f99a5	0.2804691
230	0x3d30aa53	0.043131184
231	0xbec2d045	-0.38049522
232	0xbf09658b	-0.5367057
233	0x3ea5ea7d	0.32405463
234	0x3d936928	0.07197791
235	0xbd9fe843	-0.07807972
236	0x3e8d6b0e	0.2762074
237	0xbed58bb6	-0.41708153
238	0x3b983598	0.0046450607
239	0x3f071409	0.52764946
240	0xbd1706fc	-0.036871895
241	0x3e8b6ba4	0.2723056
242	0x3e450b3e	0.1924257
243	0x3eaf9405	0.34292617
244	0x3e185b27	0.14878522
245	0xbe0b4566	-0.13600692
246	0x3e92e06f	0.28686854
247	0xbe6db107	-0.23212062
248	0x3e8feae0	0.28108883
249	0x3cc34a20	0.023839056
250	0x3e2711da	0.16315404
251	0x3e1a4fdb	0.15069525
252	0xbf2197d7	-0.63122314
253	0x3e99b9e8	0.30024648
254	0x3f595172	0.848899
255	0xbe81978b	-0.2531093
