W3-Design/checkpoints/epoch_22.pt (torch, 384725 bytes, 24 tensors)

encoder_cnn.0.weight f4 [32, 3, 3]
00000000: bc37 80be 8757 bbbd 96f6 9bbe ccca 5a3e
00000010: 661d 8cbe 05ed cc3d 9373 073e 5869 343e
00000020: 220e 8d3d a3f7 6d3e e9db 5f3e 6cb9 883d
00000030: ee0c 95be 4331 a4be a0f7 85bb 17ae 96be
00000040: d8bf ee3d 5c79 3dbe 2cc8 b83d 044a 5e3e
00000050: 97e9 cf3e 9b7a 9f3d b874 743e 70a3 a9be
00000060: 15e4 73be f1b3 843d 7b9e eabd fc8a 01be
00000070: 0dda 7bba b0a6 7cbe 4b12 adbd 3920 84bd
00000080: 2c43 0bbd 9783 d03d 93a3 4d3e c7b8 7bbc
00000090: 2dad 74bd 728c 0e3e 1297 04be 2442 073f
000000a0: a49c cdbd 44c7 f83e 123e 2f3e 2568 003e
000000b0: 38c3 babe 4d4d 053e 7dbd 2ebd 4400 d73e
000000c0: 9e94 99be 7ac9 86be e2a8 b73d 6574 0f3e
000000d0: fc61 4e3e bfad 9dbe 9b56 a83d ba2b b5bd
000000e0: d3b2 9a3e 1adc 873e e738 d43d bc5c 03be
000000f0: e77b edbd c067 013e 6579 b3be aa38 843e
00000100: 8d9d 41bd c365 8f3e 5466 853e 4f58 98be
00000110: f099 fabe 4ecb c8bd f81f babd 9f3f a33e
00000120: 313b ca3d 9929 5c3e fd1a 1cbd 4d20 cebd
00000130: 6bac 8cbe 65ac 903e a6b1 9abe cee6 7d3e
00000140: 5be9 e0bd ea52 2b3e acf7 bb3e 7fce 113e
00000150: 883c 603e c222 17be 680b b3be 4e5d af3d
00000160: a6cd 723d f2d3 b8bc 34ec d63c 915d 7cbb
00000170: f453 70bc 6650 e03e ba2d 43be 60ea 5dbe
00000180: 257b fcbd 13e3 5d3e 1770 e4bc 4be8 31be
00000190: 0d06 49bd 51b2 5e3e 1870 953b 314b 973e
000001a0: a8da 723d f050 5bbe 309f 89be f5f2 e33d
000001b0: 0ffa 13bd d762 ab3e 6877 493e 2a45 d8bc
000001c0: 454c 90be 537e c8be 6473 d43e 96ed 963c
000001d0: 1a00 29be 7e03 163e fbed a6bd 2046 8e3d
000001e0: d017 463e ed58 b4bd 26d7 1fbe 10ba 9f3d
000001f0: 2f90 953b 13aa dcbd dab1 55be fee4 70be
00000200: 1b9f 0bbe ea9c 983e a115 9bbd 8964 79be
00000210: 1c03 463e 0eb8 673e 6762 debd 9108 a63e
00000220: 581a 4b3e 4013 17be add7 d6be fb9b 2a3d
00000230: 028a 66be ae78 d3be d052 78bd 2a44 0ebe
00000240: c021 ea3d ba2b 6bbe 6902 bcbe 3ec0 233e
00000250: 3f80 efbc 50d1 00be d47a 6b3e 2a04 d7bd
00000260: d8e6 2f3e 7f58 b9bb f4c4 5b3e 753f 86bc
00000270: 6de7 153e 6183 ebbe 91b4 403e d7f9 02be
00000280: 585e b9be b424 08be be08 9c3e ad8e 393e
00000290: 1e20 81be 975a a9bd d68e c8be 16c5 ffbd
000002a0: fe1d 4c3e 5c18 32be a001 5fbd d391 b9bd
000002b0: bc4d 3a3e 5d34 ea3d df0e b9bc fb67 09be
000002c0: 6759 083e e3ad 0cbe c411 423e 65d9 1a3e
000002d0: d364 32be 92f3 13be 3659 3abe c544 32be
000002e0: 9989 783e 38e9 2ebc 7ddb 753e 6e0b 543e
000002f0: 88dd 56be 7f08 863e c94a 11be fd03 a5bd
00000300: 1313 23be 9ea2 8a3e 2d8e 053e 007a ecbd
00000310: 3fae cabe 87b0 8ebe a7b1 1e3d d4d2 a5be
00000320: 9ca3 ed3d 3bd3 d73d d6ba 513e ad1e 60bd
00000330: 56b0 68bd e6eb 21be e00d 90be 1629 dc3d
00000340: c54d 95be 16c2 aabe de1f 22be 2fbc 0b3c
00000350: 24cb 09be cfd8 103e 4e82 7a3e f1fb 903e
00000360: 9d9e f13c 8179 7b3e 62d3 07be 6a34 8f3e
00000370: cefd 523e f9a5 1fbe ed57 833c be91 283d
00000380: c2ba a43d c3a7 f63e eab4 753e e1c3 b33e
00000390: ec05 833e 3afc 7c3e 5ed7 6a3d ad08 d8be
000003a0: 5744 85bd 93bc 4d3e 0701 debe cba2 dabc
000003b0: b987 7cbe 44f3 b43e c3c0 423e 04a0 5fbe
000003c0: 2dfa b13e 273e a03c 977e 09be 272d 99be
000003d0: 0808 00bd 375d 23bd fa3a 49be c0fe 19be
000003e0: b2f1 293e c5df 2fbe 2b2f 9b3e 8238 423d
000003f0: ddc0 7b3e d64b 8cbd ab1a 333d e38e 7dbd
-0.25042522 -0.09147554 -0.30461568 0.21366423 -0.2736618 0.100061454 0.13227682 0.1761831
0.06887461 0.23238997 0.21861233 0.066759914 -0.29111427 -0.32068834 -0.004088357 -0.29429695
0.11657685 -0.18503326 0.09022555 0.21707922 0.40607902 0.07787057 0.2387265 -0.33132505
-0.23817475 0.064796336 -0.11456009 -0.12650675 -0.0009607382 -0.24672961 -0.08450755 -0.064514585
-0.033999607 0.10181349 0.2008193 -0.015363879 -0.059735466 0.13920763 -0.12948254 0.528353
-0.100396425 0.48589528 0.17113522 0.12539728 -0.36477065 0.13017769 -0.04266118 0.4199239
-0.29996198 -0.2632559 0.08967759 0.14009245 0.20154566 -0.3079662 0.08219644 -0.08846231
0.30214557 0.26535112 0.10362416 -0.12828344 -0.11595898 0.12637234 -0.35053554 0.2582448
-0.047269393 0.28007326 0.26054633 -0.29754874 -0.4894557 -0.09804402 -0.09088129 0.31884477
0.09874571 0.21500243 -0.038111676 -0.10064755 -0.27475294 0.28256527 -0.3021366 0.24795076
-0.10982009 0.16730848 0.36712396 0.14238928 0.21898091 -0.14759353 -0.3496964 0.08562718
0.059278153 -0.022562 0.026235677 -0.0038507918 -0.0146684535 0.4381134 -0.19060412 -0.21671438
-0.123281755 0.21668653 -0.02788548 -0.17373769 -0.049078036 0.2174771 0.0045604818 0.29549554
0.059290558 -0.21417594 -0.26879263 0.11130325 -0.036127146 0.33473846 0.19674456 -0.026400167
-0.2818319 -0.39158878 0.41494286 0.018423837 -0.16503945 0.1464977 -0.0815086 0.06946969
0.19345021 -0.08806024 -0.15609416 0.077991605 0.004564307 -0.107746266 -0.20868626 -0.23524854
-0.13634913 0.29807216 -0.07572485 -0.24354757 0.19337124 0.22628805 -0.108586125 0.3242841
0.19834268 -0.14753437 -0.41961423 0.04165266 -0.22513583 -0.4130301 -0.06062585 -0.1389319
0.114322186 -0.22965899 -0.3672059 0.15991303 -0.029235957 -0.12579846 0.22996074 -0.10498841
0.17177904 -0.0056563015 0.2146185 -0.01638768 0.14639063 -0.45998672 0.1881888 -0.12790619
-0.3620479 -0.13295251 0.3047542 0.18120833 -0.25219816 -0.08269232 -0.39171475 -0.12488763
0.19933316 -0.17392105 -0.05444491 -0.09061017 0.18193716 0.11435769 -0.022590099 -0.13418572
0.13315354 -0.13738208 0.1895209 0.15121992 -0.17421274 -0.14448383 -0.18198094 -0.17409046
0.2427124 -0.010675721 0.2400951 0.20707485 -0.20982945 0.26178357 -0.14188685 -0.08057401
-0.15925245 0.27077192 0.13042517 -0.11546707 -0.39586064 -0.27869055 0.03874364 -0.32387412
0.11603472 0.10538336 0.20481429 -0.054716755 -0.056808792 -0.15812644 -0.28135586 0.10750024
-0.29160896 -0.333512 -0.15832469 0.008528753 -0.13456398 0.14145206 0.2446377 0.28317216
0.029494578 0.24558069 -0.1326423 0.27969676 0.20604631 -0.15590657 0.016033137 0.041154616
0.08043434 0.48174867 0.23994794 0.3511038 0.25590456 0.24705592 0.057334296 -0.4219412
-0.065071754 0.20091467 -0.4336016 -0.026688954 -0.24661149 0.35341847 0.19018845 -0.21838385
0.3476118 0.019560887 -0.13427196 -0.2991726 -0.03125766 -0.03988382 -0.19651404 -0.15038586
0.16596106 -0.17175205 0.30309424 0.04741717 0.2458529 -0.06850402 0.043726604 -0.061903846

encoder_cnn.0.bias f4 [32]
00000000: 558d 9cbe 366a 1abe 4abf 953f b873 9ebf
00000010: 2c5b 803c 0eec f23c 5753 70bf 5afd 2bbe
00000020: 3181 80be d014 d9be a9c2 b8be 9ff6 85be
00000030: 8d4c e6bd e7dc 42bf 7772 57bf d645 893e
00000040: cf8a 68bf 021c f23d 6ce6 08be ef4f 89bf
00000050: d0dc 3fbf 540e dd3e 0a8b 89bd eb6b 33bf
00000060: 2470 1dbf c452 193f ac85 43bf f0b8 52bf
00000070: 58bf 72bf b73a 39be 1037 b83d 0f31 133e
-0.30576578 -0.15079579 1.1699002 -1.2379065 0.015668474 0.029653575 -0.93877167 -0.16795865
-0.25098565 -0.4239869 -0.36086014 -0.2616472 -0.1124507 -0.7611832 -0.84159034 0.26811093
-0.90836805 0.11821748 -0.13369149 -1.0727519 -0.7494631 0.43174994 -0.06715973 -0.70086545
-0.6149924 0.59891915 -0.7637584 -0.8231344 -0.9482322 -0.18088804 0.08994877 0.14374183

encoder_cnn.2.weight f4 [64, 32, 3]
00000000: c5da 40be 6751 17be c01d bb3b d5ee 943e
00000010: fbb2 803e 54e4 883e 6af6 0a3f 3c69 593e
00000020: 1a69 b53d 470e bcbd c7e3 fcbe 6561 a9bd
00000030: ce1e 093e d2e9 b03d 334e 78be 6d0c 38be
00000040: f9dd 93be e614 8fbd bbdd 483e 0c10 6b3e
00000050: 5429 f33d 6a4d dabd 44ad 10be 6cc5 4ebe
00000060: 1cec d33e 468b 883d 3849 db3d 47fb a63e
00000070: 4616 ae3d 4001 9cbd 0c2a 68bd 29ef 563e
00000080: 0953 233e 5e63 213e 96af 55bd 194a 8fbd
00000090: 02ab 353d deee 27be 9720 80bd ef3c 403e
000000a0: c3a3 753e b026 3f3e c2c7 613c ca8a edbd
000000b0: 17cb 23bb 687b 7d3e d38e 7d3e e7a8 9abc
000000c0: e94d 853e 893d 393e 8295 af3d 2668 5d3e
000000d0: 4f93 e13d 7e54 b0bc 548f 2abe 2db0 87bd
000000e0: 8cd2 cfbd 93c1 50be 259e 6abe 5259 c8bd
000000f0: 199f 7bbc c9c8 71be 2c20 4a3d a375 edbc
00000100: 26dd a4bc c9c0 2abe d0ff 173e 2ebb cfbc
00000110: 682a 2c3d a994 86be aa97 83be 9722 79bd
00000120: 1983 ad3e 8b1e 273e b352 843e 8c85 d33d
00000130: 3f26 2a3e 170b a2be 4270 51be 7e0e 4cbc
00000140: 990e 02be 537e db3c 15c1 5dbe 902f 19bc
00000150: 7cd1 f9bd 1d1b a0be f0f9 81be 48fd 023e
00000160: 3746 1bbd 40e4 c03d 97ec d13e 100a d839
00000170: 4403 34be e2a4 213e 4277 a0bd 3b40 26be
00000180: 9ca5 6bbd 3ba8 5abc 7591 993d 5368 a6bd
00000190: 82cd 74bd 6937 e4bc 7cd3 ffbe bb9e 75be
000001a0: f055 3ebe 1fa9 83bd 78ef ef3c 2043 babd
000001b0: ec8f a2be d8b8 93be 924c 5dbe a30d 38bd
000001c0: adf5 bbbb 5b66 913d 938e 703d e096 02be
000001d0: f3de 42be 8272 77be cf4e 9f3d 9101 1d3c
000001e0: 39cb c33d 7b40 4bbe 1e1e 46bd 98c8 c53c
000001f0: ad8d 193d 09b0 7bbc eca7 53bd ef9d 9bbd
00000200: 5810 9dbd 4f71 afbe fe5b 38be 8f70 f4be
00000210: 24d6 c8bb ea4f 81bc a9a7 32bd 32e0 12bd
00000220: d634 833c 4750 233d 018c fabd 8335 5abd
00000230: 3746 13be d3be 2cbe f748 9ebd 8826 2abe
00000240: 569a 35be cca4 453d e52f 7ebd b799 a6be
00000250: c7fb b8be 1821 b2be cbe5 543b 4645 f63c
00000260: f547 353d 3e16 dc3d 1837 883d 636c 963d
00000270: ee9e f4bc 9dc9 1bbc e141 f5bc 302c 9abe
00000280: 82b9 8bbe 3cbb 8ebe 6226 aebc 748e e3bd
00000290: 8abc f1bd 1c8f 323d b312 16bd d231 c03c
000002a0: 2d4a 05bd 0b09 5a3d 2cf0 4b3d 1811 7fbe
000002b0: 95c6 203d 6893 883d 0800 38bd 6e65 35bd
000002c0: b21e 41be c3d7 44be 5120 abbd 16ce 96bd
000002d0: 737c 34be 29d5 9bbd 5a63 883d e6f0 2fbc
000002e0: 58d2 d7bd 21d2 29bc b506 0bbe 952d e0bd
000002f0: 036c 36be def3 2cbe 44fc 2ebe 5ab7 62be
00000300: 333b a53e 47d7 513e 2ffd 4abd f235 ff3c
00000310: 535b 843e d20e 343e 4d21 04bf 1094 b9be
00000320: e85f 57be edf5 993c a687 58be ad6b 30bd
00000330: eece 7abe a6c2 c0be 27b3 afbf fffd 8fbd
00000340: 0aa7 1c3f e18b dbbb 714d 22be 62c9 743e
00000350: 2c17 6bbc 95c5 9d3d 6696 613e 38e5 e5be
00000360: b481 c7bd 0b3a 34be 642c 6fbe 1196 dd3d
00000370: f191 80bd ead4 aabe 9801 f0bd 4e81 da3d
00000380: 5c4f 81bd 21f7 98bd d6f3 993d c44e 87be
00000390: 5ef2 50be 5814 b5bb 6cea 0dbc 81d5 c7be
000003a0: 26ac 55be f277 b1be 4b64 c53e 2969 9e3d
000003b0: 5e27 53be 45ae c33c 9d21 0a3e fc9e 80be
000003c0: 9672 693e 4fa9 583c 60ca a5be fe20 793e
000003d0: eb99 563d 879e b7bd 83db dbbe 8310 c4be
000003e0: 8318 b0bd 0944 11be 9bde 653e f92a c9bd
000003f0: 30e7 893e 3d5c 283e 2dc6 45be 65af 3abe
-0.18833454 -0.14777146 0.0057103336 0.29088464 0.2513655 0.267367 0.5428225 0.2123155
0.08857937 -0.09182411 -0.4939253 -0.0827053 0.13390657 0.08638348 -0.2424858 -0.1797349
-0.2888029 -0.06986408 0.19615833 0.2295534 0.11873117 -0.10659297 -0.14128596 -0.20192498
0.41391075 0.06667189 0.10707325 0.32613584 0.08500342 -0.07617426 -0.056680724 0.2098967
0.15949644 0.15760562 -0.052169405 -0.06996555 0.04435254 -0.16399714 -0.06256216 0.18773244
0.23988251 0.18667102 0.013780536 -0.115987375 -0.0024992877 0.24754107 0.24761514 -0.018879367
0.26036003 0.1808988 0.08573438 0.2162176 0.11014425 -0.021524664 -0.16656238 -0.066254
-0.101475805 -0.20386343 -0.2291189 -0.097826615 -0.015357756 -0.2361175 0.049347088 -0.028986758
-0.020124983 -0.16675104 0.14843678 -0.025357809 0.04203263 -0.26285294 -0.25701648 -0.060824003
0.33889082 0.16320245 0.25844344 0.103282064 0.16616152 -0.31649086 -0.20452979 -0.012454627
-0.12700881 0.026793635 -0.21655686 -0.009349719 -0.12198159 -0.31270686 -0.25386 0.12791932
-0.03790876 0.09418535 0.41000816 0.00041206228 -0.1757937 0.15785554 -0.078352466 -0.1623544
-0.057530984 -0.013345773 0.07498447 -0.08125367 -0.0597663 -0.027858453 -0.49966037 -0.23986332
-0.1858747 -0.06428742 0.029288992 -0.09094834 -0.3175043 -0.28851962 -0.2161124 -0.04493488
-0.005736074 0.07099601 0.05872972 -0.12752867 -0.19030361 -0.24164775 0.077787034 0.009582893
0.09560246 -0.19848816 -0.048368566 0.024143502 0.03748863 -0.015361794 -0.051673815 -0.07598483
-0.07669133 -0.34266135 -0.18003842 -0.47742125 -0.006129043 -0.015785176 -0.043616924 -0.03585834
0.016016405 0.03987148 -0.12233735 -0.05327369 -0.14382254 -0.16869669 -0.07728761 -0.16616261
-0.17734656 0.048252866 -0.062057395 -0.3253915 -0.3612959 -0.34790874 0.00324856 0.030062329
0.044258077 0.1074643 0.06651133 0.07344892 -0.02986094 -0.009508518 -0.02993864 -0.30111837
-0.2728997 -0.27877223 -0.021258537 -0.11111155 -0.11803539 0.04359351 -0.036638927 0.023461256
-0.032541443 0.05323128 0.049789593 -0.24908864 0.039251883 0.066687405 -0.044921905 -0.044286184
-0.18859366 -0.19222932 -0.08355773 -0.073635265 -0.17625599 -0.076090164 0.06659575 -0.010738587
-0.10538167 -0.01036504 -0.13576777 -0.10946194 -0.1781464 -0.16889903 -0.17088419 -0.22140256
0.32271728 0.20492278 -0.04955786 0.031153653 0.25850925 0.17583779 -0.5161331 -0.36245775
-0.21032679 0.018794024 -0.21145496 -0.043071438 -0.24493 -0.37648505 -1.3726548 -0.07030868
0.6119238 -0.0067000245 -0.15849854 0.23904946 -0.014348786 0.077037014 0.22030029 -0.44901443
-0.09741536 -0.17600267 -0.23356777 0.108196385 -0.06277836 -0.33365566 -0.11719054 0.10669194
-0.06313965 -0.07469011 0.07517211 -0.2642728 -0.20404956 -0.005526107 -0.008661848 -0.39030078
-0.2086645 -0.34661824 0.3855308 0.077349015 -0.20620486 0.02388681 0.13489385 -0.25121295
0.22797617 0.01322396 -0.32380962 0.24328992 0.05239288 -0.089657836 -0.42940912 -0.38293847
-0.08598425 -0.1418611 0.22448198 -0.098226495 0.26934195 0.16441436 -0.1931388 -0.1823097

encoder_cnn.2.bias f4 [64]
00000000: 4f90 7bbd b7a8 15be 940f 0d3d c2f2 f8bc
00000010: 1a62 263e ea06 cd3d 628c f4be 2fd7 10be
00000020: b09a 41be ebc6 81bc 567c 73bd 74b1 21be
00000030: 879d 4e3e dce8 ebbd 9575 eabd 54e9 e3bc
00000040: bacc 023e 11d9 243e 6b06 26be be22 f5bd
00000050: dac0 12be fb78 4e3e cb5e 873e ad6d b43e
00000060: 74d6 2bbe d287 d4bd bd76 b2be dfe3 23be
00000070: ce0b a73e 94fa fbbd 73dc 00bb 69bf afbe
00000080: 092b 25be d785 2fbe 366a 383e 9495 72be
00000090: 6709 4cbc 2702 fcbe 8555 263e 56fa e0ba
000000a0: 8802 44be 34d0 f2be add1 da3d 2dbe cebd
000000b0: d47f 53be 94ab 00bf 6b17 bebe 4403 2abe
000000c0: 6752 91be ec8c 033d 6939 b2be 51d0 bdbe
000000d0: 7e53 8ebe b37c b5bd 26f6 abbe 5a6b efbb
000000e0: 7a58 65bd 0f34 6bbe a6c3 11be 2887 02be
000000f0: e6c5 a2be 1439 193e 07b4 a4be f4ed 60be
-0.06141692 -0.14615141 0.034438685 -0.030389193 0.1624836 0.100110844 -0.47763354 -0.14144586
-0.18906665 -0.015841922 -0.059444748 -0.15790349 0.2017728 -0.11519024 -0.11448208 -0.02782122
0.1277341 0.1609843 -0.16213386 -0.11969517 -0.1433138 0.20163338 0.2643951 0.35239926
-0.16781026 -0.10377468 -0.34856215 -0.16004895 0.32626194 -0.12303653 -0.0019662648 -0.34325722
-0.16129698 -0.171409 0.18009266 -0.23689872 -0.012453414 -0.49220392 0.1624356 -0.001716445
-0.1914159 -0.4742447 0.10684524 -0.10094867 -0.20654231 -0.5026181 -0.37127241 -0.16602808
-0.2838318 0.032116815 -0.34809425 -0.37072995 -0.27798074 -0.08861675 -0.33586234 -0.0073064985
-0.05599258 -0.22969078 -0.1423479 -0.1274687 -0.3179161 0.1496318 -0.321686 -0.21965772

encoder_lstm.weight_ih_l0 f4 [128, 64]
00000000: be04 213f 4cd8 483d c70c 643e 0b22 50be
00000010: 9bb1 7c3e b988 60be 9eac e53e 2230 053e
00000020: 4c2a 923e feab 593d f8d2 6e3e 6fd2 cabe
00000030: 41fc 0a3e 86a9 22be ccd8 96bd 890b f63e
00000040: b691 adbe e004 3ebe 1070 96bd 78d7 503c
00000050: d6b5 4cbc 48e3 b9bd b1e4 a13f 9c52 6ebf
00000060: e2c5 e93e a3f4 703e c6e5 0abe dcc0 3c3d
00000070: f4da 96be faf1 ccbd e99e 5f3e 7e2e 183e
00000080: 9b3a a03e dbdf 9d3e e9c8 88bd 4abf b03e
00000090: 8d1e 0e3f 564b 66be 9570 923e 96c5 01be
000000a0: ebda 803d 5a76 be3e fae5 0a3e 7993 04be
000000b0: 5b61 81be d883 5c3d 5155 7bbc 104c 6b3e
000000c0: 9b9d c13e 6c79 253e 59c7 af3e 65d9 913e
000000d0: 7a05 3f3e 039f 19bd 9f00 433e 42ed 5a3e
000000e0: 2f39 ebba 7fbd dcbd c712 63bd 67c3 2bbd
000000f0: 7f9e de3d 201f b93d b565 b5bd ad0e e2bd
00000100: b9ac 693e 983f 583c 0501 74be 1f41 563c
00000110: 2cdd 543d 9ef5 9a3e 479b 8bbd cd31 873e
00000120: 56d3 eb3d 39b9 203e fc93 753c f921 95be
00000130: 6e8d 933d b0a9 3ebd 75af 133e 199e 3b3c
00000140: 9d17 c53e 6e87 09be 0060 5bbe 90db 46bd
00000150: 6ec3 533e 08ec 853e d719 c1be 08dd a2be
00000160: 878a 573e a011 8fbe e8cc 3e3e 342b 333e
00000170: b4ab d33d 88ae 68bd bc7d 06bf dc74 b13d
00000180: 8751 dc3e 8bf9 473e 619a 3ebd b6f6 ba3b
00000190: 1161 47be 0060 8fbe acd4 da3e 91f5 223b
000001a0: 4d82 69bd 4391 6bbd a8a9 68bc fbca a7be
000001b0: 7dc9 a7bd 3826 e13d b65a a73e 06b8 00bd
000001c0: 9aa1 9abe 3a82 ee3d dc65 d9bd eda6 603e
000001d0: 1be9 28be db9a 8bbd 5ccc d4bc edaf 7a3e
000001e0: d80e 6b3d b5b2 623d 817b 0c3e 02d7 1bbe
000001f0: e765 413e d3c8 33be 1817 dbbe d873 41be
00000200: bcff 66bc 3f4f 82bd d324 a63e c38c b8bd
00000210: 9cd2 c03e c869 f23d a7fe 8cbc 5528 273b
00000220: e900 87bd f240 103e 2766 153c 4f85 c23d
00000230: 044a cfbe a732 a2bd 7cda e0bd 4732 8a3e
00000240: 3dcb 4d3e 79c3 aa3e a82f 0ebd fd00 553e
00000250: 1e40 eb3d 6cee cf3d d723 813d 6069 013e
00000260: 6285 1abe 36b1 1d3b 341d 1e3e e3fd 2bbd
00000270: d3bd 643e 1f31 ff3d 9845 52be 8594 9ebb
00000280: 965b e1bd c05b 0c3e 7fa6 ee3c 6d5b 59bd
00000290: 9ab4 6a3e c27a 67bd a4ae 11be 29d2 b13c
000002a0: b1a4 b33e dd4f 823d 99fc 1f3e d15c debc
000002b0: 874a 9d3e 48ee 16bf 962c 103e 12d8 edbd
000002c0: b8f4 2e3e 470e ef3d 800c 8f3e fafd 123d
000002d0: b128 c1bd 16e3 2abd c95e 093f cd6b 303e
000002e0: d11a 583b eff1 88be 8b82 2e3c 930c fdbc
000002f0: a040 b2bc f589 4ebe dded d93d 84d2 b7bd
00000300: 6094 13be c9f0 713e ee36 033e d480 963a
00000310: 4926 d93c 7ab3 793d f481 a1bd 1a11 34be
00000320: af96 c63b 240d 1a3d c11d 31be ab11 b23e
00000330: c7ca 893e 1129 d1bd eee3 693e d808 97bd
00000340: be1d 6ebe 005b e23e ab9b 0bbc d08d e73d
00000350: 7ef1 713c 2765 8c3e ec1a 713e ef79 833e
00000360: 84d7 e13e 5165 51be 4a26 e5bd 42d8 4e3e
00000370: 56f6 233e 1c18 003e 4169 85bd 535d b33d
00000380: 3d0e cabe f295 83be a74f ae3d d07c b7bd
00000390: 56e0 14be dbf3 81be 3c86 52be 1eab 983d
000003a0: 4a9d 4a3e b712 54bd 0443 2e3e ed58 593e
000003b0: b7a3 a33d b596 9b3e 1597 943d 621e 8c3d
000003c0: 2344 6d3e e026 793d cbe7 10bd e0c9 9d3d
000003d0: f4e5 2b3e 0b48 e53c 866e dcbd 4720 dd3d
000003e0: 79f6 963d 371e 5e3d bdc1 8c3e 2e69 b4bd
000003f0: 125d 86bd aabe 37bd 2c59 debe d71e 63be
0.6289786 0.0490344 0.22270499 -0.20325486 0.24677126 -0.21927156 0.4485826 0.13006642
0.28547895 0.05314254 0.23322666 -0.39613673 0.1357279 -0.1588498 -0.073655695 0.48055676
-0.3390023 -0.18556547 -0.07345593 0.012746684 -0.012494525 -0.090765536 1.2647916 -0.930948
0.45658785 0.23530822 -0.13564214 0.046082363 -0.29463923 -0.10007091 0.21837963 0.14861485
0.31294712 0.3083485 -0.066789456 0.34520942 0.55515367 -0.22489676 0.28601518 -0.1267303
0.06291755 0.3719967 0.13564292 -0.12946881 -0.2526959 0.053836673 -0.015340165 0.22978234
0.37815556 0.161596 0.34331778 0.2848617 0.18654433 -0.03750516 0.19043206 0.21379569
-0.0017946119 -0.10778331 -0.05543783 -0.041934397 0.108700745 0.0903914 -0.0885729 -0.110379554
0.22819795 0.013198756 -0.23828514 0.0130770495 0.05196874 0.30265516 -0.06816726 0.26405182
0.115149185 0.15695657 0.0149888955 -0.29127482 0.0720471 -0.046548545 0.144224 0.011451268
0.38494578 -0.13430569 -0.2142334 -0.048549235 0.2068002 0.2615664 -0.37715027 -0.31809258
0.21048938 -0.27943134 0.18632853 0.1749695 0.10335484 -0.05680707 -0.52535605 0.08664867
0.4303095 0.19528787 -0.046533946 0.0057056798 -0.19470622 -0.2800293 0.4274038 0.0024865607
-0.05700903 -0.05751158 -0.014200605 -0.3277205 -0.08192728 0.10993618 0.32686394 -0.0314255
-0.30201417 0.116459325 -0.10615131 0.21938677 -0.16495173 -0.06816646 -0.025976352 0.24481173
0.057387203 0.05534621 0.13718988 -0.15218738 0.18886529 -0.17557077 -0.42791057 -0.18891847
-0.014099058 -0.06362771 0.3244997 -0.09011223 0.37660682 0.118365824 -0.017211271 0.0025506217
-0.065919705 0.14087275 0.009118593 0.09498083 -0.40486157 -0.079198174 -0.109791726 0.26991484
0.2009706 0.3335226 -0.034713417 0.20801158 0.11486839 0.10152897 0.06305664 0.12637854
-0.15089944 0.0024061925 0.15440828 -0.041990172 0.22338037 0.12460541 -0.2053436 -0.0048394823
-0.11003797 0.13706875 0.029132126 -0.053065706 0.22920457 -0.056513555 -0.14226776 0.021706657
0.35086587 0.06362889 0.15623702 -0.027143868 0.30720922 -0.5895734 0.14079508 -0.11613478
0.1708554 0.11672645 0.27939224 0.035886742 -0.094315894 -0.041720472 0.53660256 0.17228623
0.0032974968 -0.2674708 0.010651241 -0.030889785 -0.021759331 -0.20169814 0.10641072 -0.089756995
-0.1441207 0.23627008 0.12813923 0.0011482486 0.026507514 0.060962178 -0.07886115 -0.17584649
0.0060604434 0.037610188 -0.17296506 0.34779105 0.2691252 -0.10212911 0.22840855 -0.07374734
-0.23253533 0.44210052 -0.008521001 0.113063455 0.014767049 0.27420923 0.23545426 0.25678965
0.44109738 -0.20448805 -0.11188944 0.20199683 0.16011938 0.12509197 -0.06514216 0.087580346
-0.39463988 -0.25700337 0.08511286 -0.08959353 -0.14538702 -0.2538136 -0.20559019 0.07454513
0.19786564 -0.05177566 0.17017752 0.21225329 0.079902105 0.30388418 0.07255379 0.068417326
0.23170523 0.06082809 -0.035377305 0.0770452 0.16786939 0.027988454 -0.10763268 0.10797172
0.0737123 0.054228034 0.2749156 -0.08809124 -0.065607205 -0.044859566 -0.43427408 -0.22179733

encoder_lstm.weight_hh_l0 f4 [128, 32]
00000000: 974a 5abe f3fc ce3e dbbf 8ebe e12f 313e
00000010: 2151 ad3f cdfe f9be 067e b43e cdf3 10bf
00000020: 548c a53e 20b6 303f 0341 5b3f 77a9 20bf
00000030: 88cb a8be 4f32 c3be d282 0cbe f6cd 263f
00000040: 5eed 98be af99 1a3e c0fd 713e c342 233e
00000050: 0b72 293f 1d40 173f dcf0 563f 3a0d 863e
00000060: f6e4 0fbf 9440 1abf d6e6 b23e 1e6b fdbe
00000070: 5f4a e03e 5ff1 043e e712 e0be 0ed7 86be
00000080: c35a adbe 1cbd f33d 26bf 0ebf 6ca0 42be
00000090: f554 1cbe 63c0 263c 0768 9bbe 4741 19bf
000000a0: 5c8e 143f 02e2 9a3e 0378 3d3e e89c bebe
000000b0: b0f6 1ebe 32cd dd3e 5513 ec3e ff6b 103f
000000c0: af68 bbbe c888 153f 4e76 b8be a868 3d3e
000000d0: d968 92bc 1918 c13e 7b14 3f3e b6b4 4b3e
000000e0: f8f1 87be 5e5e 583f f524 b83e 6b0c dbbe
000000f0: 38a2 bb3e cade f3be f4d2 57bd 2430 e6bb
00000100: 6842 84be 619d c03e fb58 64be aa93 d1be
00000110: ff2b e53e 5f95 bbbd 5948 d93d 1538 b53e
00000120: 4eb5 e33c 9913 e4bd c285 8abe c077 3c3d
00000130: a409 983e 50d6 4e3e fff3 56be fade a33d
00000140: a285 81be 4715 933e bc04 bcbe c55a 4abe
00000150: 83cf 95be a02d bfbe 5310 60bd a339 2ebe
00000160: d478 023e 0a2a 8b3e 72c8 3bbf 979d ebbe
00000170: 56d9 33bd 3b69 0bbe 2b43 03bf b82c af3c
00000180: ffbb 2abf cb52 2ebf a9c3 c8be 982c 6d3f
00000190: 2bdf dcbe b618 733e e237 29be d515 913f
000001a0: 38bd 5cbf feb6 a1bd bc1f 44bf 69d9 233e
000001b0: 326c 373f 3665 453f 786b f4be e17e bcbd
000001c0: 2f90 bf3e a359 52be e81f 19bf d1f6 76be
000001d0: 6a7e 7bbd 7468 6ebf bda8 55bf 99d3 57bf
000001e0: 04f6 853f 4c6a 3c3e a618 80bf 6c25 ccbd
000001f0: e035 d5be 77bd d03e 531b 9d3e ecbf 39bd
00000200: 7d61 333f 94f0 fbbc d819 ac3e b704 943d
00000210: 9e45 4dbe 4b23 b9be 0c66 703d bd02 81bd
00000220: 535d c43e c420 15bf 4af8 18be 8861 463f
00000230: 10e1 07be c4e9 533d 7a3d 903e 10d9 51bf
00000240: e342 003e 4e00 093e a974 083f 64cd f1be
00000250: 8cdd 1a3e 93bf 043f ed55 ecbc b77f 153e
00000260: 1835 213d a26e 06be e284 69be 5aed 33bf
00000270: 24c6 533f 4b6f dcbd abf0 87bd ea51 23be
00000280: 1aee ac3e b7d6 343f 2988 19be 790c d1be
00000290: ba30 093f 81d3 49bf 5e73 0cbf 4a7e fbbe
000002a0: bc8f 863e 4c7e 8d3e e52d 343f c10d 94be
000002b0: 76ed 89be fd14 11bf d7fc 6f3e 8ff0 85be
000002c0: 2f98 ac3c f293 0e3e 1d30 df3e 9b22 e13e
000002d0: 75d9 403e 664c d63e 14ea 503f 20ab 903f
000002e0: ef78 f3be 7da2 5d3e e94a 8b3e 964e 4fbe
000002f0: fd5a 553f d408 08bd c0f0 a8be 8dda c03d
00000300: b362 9b3d 47ad cabe b99a 153f 376b 203f
00000310: 231e c1be cae3 653e 2f08 863f 19e2 743e
00000320: c829 6dbe dd79 a53e 8810 81be 327f 19bf
00000330: f77d c33e b8f5 613e edc4 f8bd 0ba5 46bf
00000340: 17d0 f0bc 4ebb 39bf 3edd 2cbe 1d07 9fbe
00000350: 8274 e8bd aa34 a83e ff56 933e 9bd0 91be
00000360: f6f7 913e 231b a7be b41c b13d bbae 0a3f
00000370: 87b0 a7be 390b 0b3e 977b 5bbd bcac 3c3e
00000380: 77f6 ad3d 31fa 053c 344f 36be 082f 6abe
00000390: cc87 2b3e aa2a eebe 56aa fbbd 163f b63e
000003a0: 4491 14bd 9fb1 cbbe ca41 283e d027 f2bd
000003b0: 2ffa 59be c23c 7f3e 79dd 893e 39a0 a23e
000003c0: b9a1 913e c293 8a3e 014e aebd 8887 a83d
000003d0: dcfb 633e dfd0 553b f795 c23e bb43 b43e
000003e0: ab68 9e3e c521 743c 6eac 463e 706e 0ebf
000003f0: 3cfa 173e fc8e a4be f533 10be 034d c5be
-0.21317516 0.4042736 -0.2788075 0.1730342 1.3540384 -0.4882721 0.35252398 -0.5662201
0.32333624 0.690279 0.85646075 -0.6275858 -0.32967782 -0.3812432 -0.13721779 0.6515802
-0.29868597 0.15097688 0.23631954 0.15943436 0.6618964 0.59082204 0.8396127 0.26181966
-0.5620874 -0.6025479 0.3494174 -0.49495786 0.4380674 0.12982701 -0.4376442 -0.2633595
-0.33858308 0.11901304 -0.5576042 -0.19006509 -0.15266784 0.0101777045 -0.30352804 -0.5986523
0.58029723 0.30250555 0.18502812 -0.37229085 -0.15523791 0.43320614 0.461085 0.5641479
-0.36603305 0.58411837 -0.3602776 0.18496954 -0.01787226 0.37713698 0.18660156 0.19893155
-0.26551795 0.8451899 0.35965696 -0.42782912 0.366472 -0.47630912 -0.052691415 -0.007024782
-0.25831914 0.3762007 -0.22299568 -0.4093297 0.4476013 -0.0915935 0.10609502 0.3539435
0.027796414 -0.111365505 -0.27055174 0.04601264 0.29694855 0.20198941 -0.20991515 0.08001514
-0.25297266 0.2872717 -0.36722362 -0.19761188 -0.2925988 -0.37339497 -0.054703068 -0.17014174
0.12741405 0.2718051 -0.7335273 -0.4601867 -0.04390844 -0.13614361 -0.51274365 0.021383628
-0.6669311 -0.6809508 -0.39211777 0.9264617 -0.43139014 0.23739895 -0.16525224 1.1334788
-0.86226225 -0.07896231 -0.7661092 0.16000904 0.7164947 0.7710756 -0.47738242 -0.09203888
0.3741469 -0.20542006 -0.5981431 -0.2411759 -0.061399855 -0.9312813 -0.834606 -0.8430725
1.0465703 0.18399924 -1.0007522 -0.09968075 -0.41642666 0.4076955 0.3068491 -0.045349047
0.7007063 -0.030754365 0.33613467 0.07227462 -0.20046088 -0.3615974 0.05869107 -0.062993504
0.3835245 -0.5825312 -0.14938465 0.7749257 -0.13269448 0.05173661 0.28171903 -0.81971836
0.12525515 0.13379022 0.5330301 -0.47227013 0.15123576 0.5185482 -0.028849566 0.145995
0.039357275 -0.1312814 -0.22804597 -0.70284045 0.82724214 -0.10763415 -0.06637701 -0.15949216
0.33775407 0.7064013 -0.14993347 -0.40829828 0.53589976 -0.78838354 -0.54863536 -0.49119788
0.26281536 0.2763542 0.7038253 -0.28916743 -0.2693898 -0.5667265 0.23436294 -0.26160094
0.02106866 0.13923624 0.43591395 0.43971714 0.18832953 0.41855162 0.81607175 1.1302223
-0.47553203 0.21644016 0.2720559 -0.20244822 0.8334196 -0.033211544 -0.32996178 0.09416685
0.07587185 -0.39585325 0.58439213 0.62663597 -0.37718305 0.22450176 1.0471247 0.23914374
-0.2316047 0.32319537 -0.25207925 -0.5995971 0.3818204 0.2206639 -0.121469356 -0.77595586
-0.0293961 -0.7255143 -0.16881272 -0.31060115 -0.11350347 0.3285268 0.2877731 -0.28479466
0.28509492 -0.3263789 0.08648053 0.5417287 -0.32751867 0.135785 -0.05358466 0.18425268
0.08494275 0.008177326 -0.17803651 -0.22869503 0.16751021 -0.46516925 -0.122883484 0.35595006
-0.03627135 -0.39783952 0.16431347 -0.11824 -0.21286844 0.24925521 0.26926783 0.31762865
0.28443697 0.27065855 -0.08510972 0.082289755 0.22264045 0.0032625718 0.3800504 0.35207924
0.3093923 0.014900629 0.19401714 -0.55637264 0.1484155 -0.32140338 -0.1408232 -0.38535318

encoder_lstm.bias_ih_l0 f4 [128]
00000000: 65d6 c0bd a9c7 6dbc 7fe3 ad3d 5fda ad3d
00000010: 525c 3e3e d152 5f3f d774 c3bc 9cf5 bf3e
00000020: ffdb dabe 9707 933e 9dbb 253e da01 1d3d
00000030: fd8b e5bc e115 263d be48 8cbe dbd8 3cbe
00000040: 32d5 17bd 2b6d 173e d3f0 c93d 244b 393d
00000050: e44c 113e f35f 733e da08 b53e 0d5d b13e
00000060: 7c98 d73e 87c2 5bbd ba28 85be 01b6 743c
00000070: 8c0c 0abe e5b7 cabd 5695 d23c 3231 26be
00000080: 8b97 d53e 8ffb 973e d699 91be b182 023f
00000090: e676 a63e 6b58 4c3e 6e83 8bbd 7c11 4a3e
000000a0: c934 643d 25ae 5abe a9ad 3c3e 153e 80be
000000b0: d5f5 803e 1f39 37bd 356d 00be 7d21 b1be
000000c0: 4a89 f9bd cd61 82be d230 0a3f e6a1 e1bd
000000d0: d797 18bd 8d6c c7bd 94c8 bc3d 85f4 51bd
000000e0: 4415 10be a18d 96be 8d6e 5bbd c8f9 88be
000000f0: 3c3f d7bd 0ceb 423e 88ce e23d 4921 183f
00000100: 29a6 99be b9f4 c63e b32e 90be 8fc3 57be
00000110: c45e 3c3d 3881 d1be 6f66 193d b2f9 9bbe
00000120: 70ed 753d cd6e 8d3e d066 86bd 72c4 d53c
00000130: cba2 f7be f592 d3be 5290 7cbd 7d57 b43d
00000140: d241 94bc b5ce 163e 7412 ba3d fa6d 3fba
00000150: 547b adbd 01af 423e a22a 253e 9048 553e
00000160: d9c6 5abe 4ae8 f63d 27f8 303e 0c56 bcbe
00000170: b894 843e 77bf 1abe d7a6 7dbe d93c b6be
00000180: d36a 2a3e 8dd4 2abc 99b2 0ebf fba2 a33e
00000190: 160c a03e 26ed a33e 4785 953e b672 c63e
000001a0: e42b ccbd 42c3 97bc 1eef aa3e b229 75be
000001b0: 7be6 7d3c 8ae8 c4bd cc3a cdbd b527 6abe
000001c0: 4c7a 29bc 8955 8d3d 41e3 c33e 25f0 37be
000001d0: d39f 7dbe ca82 7ebc 1506 8bbd 2820 ba3e
000001e0: 445c 17be e56a 61be 93b5 8cbe de55 f53d
000001f0: 7972 613f 8156 de3d dfc8 a8be b861 263e
-0.094158925 -0.014512935 0.08490657 0.084889166 0.18589905 0.8723574 -0.023859425 0.37492073
-0.4274597 0.28716728 0.1618485 0.038331844 -0.028020853 0.04054821 -0.27399248 -0.18442099
-0.037068553 0.14787738 0.09860387 0.045237675 0.14189488 0.2376707 0.35358316 0.34641305
0.42108524 -0.053652313 -0.26007634 0.014935971 -0.13481349 -0.09898356 0.025705975 -0.16229704
0.4171718 0.2968411 -0.2843768 0.5098067 0.32512587 0.19955604 -0.068121776 0.19733232
0.055714402 -0.21355493 0.18425621 -0.25047365 0.25187555 -0.04473221 -0.12541659 -0.34595862
-0.12184389 -0.2546524 0.53980744 -0.11017208 -0.03725418 -0.09737501 0.09217945 -0.051258583
-0.14070612 -0.2940493 -0.053572226 -0.26753068 -0.10510108 0.19034976 0.11074549 0.5942579
-0.30009583 0.38858584 -0.2816063 -0.21070693 0.045988813 -0.409189 0.037451204 -0.3046394
0.06004089 0.27623597 -0.06562579 0.026094649 -0.4836639 -0.41323057 -0.061661072 0.088057496
-0.018097792 0.1472729 0.09085551 -0.00073024596 -0.084707886 0.19012071 0.16129544 0.20828462
-0.21364917 0.120560244 0.17282163 -0.367844 0.25894713 -0.151121 -0.24770676 -0.35593298
0.16642313 -0.010426653 -0.5574127 0.31960282 0.3125922 0.32016867 0.29203245 0.38759392
-0.09969309 -0.018525723 0.33385557 -0.23941687 0.015496845 -0.09614666 -0.1002098 -0.2286671
-0.010344099 0.0690108 0.38259318 -0.17962702 -0.24768 -0.015534112 -0.067882694 0.36352658
-0.1478129 -0.22013433 -0.2748228 0.119792685 0.88065296 0.10856343 -0.32965752 0.16248214

encoder_lstm.bias_hh_l0 f4 [128]
00000000: d6cb 173e 6555 3cbe 5387 23b9 5236 803d
00000010: 2883 6f3e 5a1a 193f 4fa3 603e d612 793e
00000020: 301d 27be 706b 5c3e c764 ae3d a7be 1ebe
00000030: 5421 d6bd eb93 553e e0a6 babe a5f2 21be
00000040: 0356 2ebe 013f e63d 2362 353d 335a 24bd
00000050: 1901 5e3c 055b 543e fa2f b63e 9dfe 7b3e
00000060: 8c1c ac3e d934 523e b1b9 e1be ba42 dd3c
00000070: 3305 c63c f617 a5be e69e 56be b191 d03d
00000080: 8a8a 9f3e 6ae8 e23e 46ec 9ebe 2280 c33e
00000090: 7e8b 1a3e 2c08 2a3e be8f 4cbe 0afd 283e
000000a0: 8cf1 753e 5452 55bd bac0 413e 3a32 8ebe
000000b0: 220e be3e a92e c5bc 05ce 363e b4e6 c3be
000000c0: 5b8d b0be d80f 06bf 3ecf 083f 91d0 7dbe
000000d0: 916c 2ebe 333f 693a c007 3b3d 3436 60bd
000000e0: f163 3fbd 9dc9 c9be 9c9b 52be 95f8 f2be
000000f0: 547c 593e 0dfa 943e 9cd2 9b3e 0d01 e73e
00000100: 161a a5bd f304 6d3e 9ae2 96bd 5bbd f6be
00000110: 03bc 46be 511a a6be 9e1e 233d 4f39 75be
00000120: c464 a33e ae4d 363e d2ab 803d a765 c33d
00000130: d6f9 eebe f095 41be c961 a93c 59a8 1c3e
00000140: f8a9 983c d848 a5bd 4e11 203e b48b 57be
00000150: 2f10 80b9 6978 33bc a7dd b23d 6e1f e63e
00000160: a550 93be 476b 34bd bd47 eb3d b72c a0be
00000170: f999 7f3e f896 cfbe 3577 12bf 0f5b 28be
00000180: f181 1c3e 570a 473e 6618 c2be b842 043f
00000190: 262c 923e fa65 f13e b2da bd3e d139 913e
000001a0: 9187 73be 496a 31be 2aad 013e e032 4abd
000001b0: 00b6 a63e 6d0d f5bd 55fe 1cbc 3e1c 00be
000001c0: 5d92 93be 03f4 8b3e 042a a53e 9b86 eb3a
000001d0: b93f 2cbe 483d 3f3d fc33 3b3d 4cb1 553e
000001e0: c372 21bd ed2d 43be afb9 1abe 7075 773e
000001f0: 162f 593f 2a17 c23d 73f6 49be d3b4 2f3e
0.14823851 -0.1839195 -0.00015595304 0.06260361 0.23389876 0.59805834 0.21937297 0.24323592
-0.16319728 0.21525359 0.085153155 -0.15502416 -0.104555756 0.20857207 -0.3645544 -0.15815218
-0.17024998 0.11242486 0.044283044 -0.040125083 0.013550066 0.20737846 0.35583478 0.24608846
0.3361553 0.20527972 -0.44086984 0.027009357 0.024172401 -0.32244843 -0.20959052 0.101840384
0.31160384 0.44317943 -0.31039637 0.38183695 0.15092275 0.1660468 -0.19976708 0.16502777
0.24017924 -0.052080467 0.18921176 -0.27772695 0.37120157 -0.0240701 0.17852028 -0.3826195
-0.34482846 -0.52367926 0.53441226 -0.24786593 -0.17033602 0.0008897662 0.045661688 -0.054739192
-0.04672617 -0.3941163 -0.20567173 -0.47455278 0.21238834 0.29097024 0.3043412 0.4511799
-0.08061616 0.23146419 -0.073674396 -0.48191342 -0.19407658 -0.32441953 0.03982412 -0.23947643
0.31912816 0.1780307 0.06282772 0.09540873 -0.46674985 -0.18904853 0.02067651 0.15298595
0.018635735 -0.080705345 0.15631601 -0.21049386 -0.0002442612 -0.010954001 0.08733683 0.44945854
-0.28772464 -0.04404762 0.11488292 -0.31284115 0.2496108 -0.40544868 -0.57213145 -0.16440986
0.15283944 0.19437538 -0.3790924 0.51664305 0.28549308 0.47148114 0.37080914 0.28364423
-0.23782183 -0.17325701 0.12663713 -0.049364924 0.3256073 -0.119654514 -0.009582122 -0.12510774
-0.28822604 0.27334604 0.32258618 0.0017969193 -0.16821183 0.0466893 0.045703873 0.20868415
-0.039416086 -0.19060488 -0.15109895 0.24165893 0.8483747 0.094770744 -0.19722919 0.17158823

encoder_lstm.weight_ih_l1 f4 [128, 32]
00000000: 73c8 893e 5621 9b3b ffb8 843e cac6 6abe
00000010: b442 c43e 3536 5c3e afc5 95be d23a 7f3e
00000020: d5a3 573d b33e 0b3e ac8f 013e 336e fe3c
00000030: 8815 97bd 4f47 28bf 8ae6 e83d 9e56 013c
00000040: ae08 cabc 9b1e 38be 85de 6fbe abff 8f3d
00000050: b0e1 863e 4b67 8b3e abc3 f73d 670c 843d
00000060: 5899 a03e 00b0 973e 4371 083f 4fe5 0fbf
00000070: c863 dd3e 8909 26be 4d00 00be c007 20be
00000080: 2329 473e 2eb4 a0be 1dc8 9c3c 7bf5 8e3d
00000090: 6ac8 eb3e e614 abbe 7c99 d8be 39cb b63e
000000a0: d6f6 3fbe f2d0 40be 8534 1f3e 6d15 e93d
000000b0: 6524 393e b4e2 9c3d 1d9a 28be 6254 53bd
000000c0: dfc5 cbbd e9be c6be 76d9 bd3d bcb7 1fbe
000000d0: 18ed 883e 46a6 9bbe 988d 23bd 947c e1bd
000000e0: c7e2 e43e 55ba 00bf 1b92 23be 84cc b4bc
000000f0: fc61 743e f2ae d2bd 9edc 3abf 8dbd 153e
00000100: dd71 2bbe a251 8e3e 9054 a23c f0e4 503f
00000110: b0cf 883d 0d86 413f 5073 bd3e cd61 083f
00000120: c709 c03b c9d3 bf3c ca50 00be f3e0 6d3e
00000130: 028d 4e3d 9300 3cbe 1a73 663e fa7c e53c
00000140: 3ff3 e03d 331b 263e 9a5b e33c 8aff 503e
00000150: 8d59 433d adc6 acbe 59aa 2ebe b197 a3be
00000160: 5d36 80be 4639 9ebd 663e 88be 0fda 103f
00000170: 4c62 a23d 6dea e1be ea0b 09bc 8e9f 383e
00000180: 57fa 983d 81a4 173f 3af3 6abe d9cf 68be
00000190: 8717 043f acc1 c9be d670 bfbe 46a7 b6bd
000001a0: 7d20 42be 03cc e1bd 09b2 f13e 13a0 883c
000001b0: 50f1 1e3f 1caa c9bd f08f a33e 0b66 babd
000001c0: 479b 60be 3e40 f0bd 3c22 793e b488 9bbe
000001d0: edde 973e 7cb2 21be fcfc 253e 5f42 653e
000001e0: 9dea 593e 117e 163e 60d7 62be 128b 623e
000001f0: b316 0e3f 3a5c babe 02c5 033e 57ce 4a3e
00000200: 07ad 23be f2b2 413e e3cd d0be 5c78 ec3a
00000210: 9b9e 213e c19c 6ebd 8382 8bbd 4491 83be
00000220: 0136 76bf b069 31bd 5c99 363e f22d 87be
00000230: 8222 8bbe 195d aa3d 815c 583d f80a ea3d
00000240: b903 4fbe f8da a63e 8a01 933e 3965 0dbe
00000250: 0a33 c2be 579e 06bf e6bc 8bbe 6d86 c23d
00000260: ef9a 53be f995 933e 6f80 a0be 8df1 933d
00000270: 05c4 be3e f57d d7be daa1 eb3d f387 e23e
00000280: 7a88 ecbd efee 46bd de25 53be 0a03 ba3c
00000290: a105 9c3d 9be4 5bbd aefc 113d 059c 1abe
000002a0: 68ef c2bd 54e6 0cbe ac2d 373c bee0 0dbe
000002b0: 84b8 70bd ae93 e1bd 41f0 f1bd 7b2d b43e
000002c0: 9621 10be 9ca0 073f ee49 d63e 1ca9 ae3e
000002d0: 1a47 f4bd d0c6 52be b66a 9b3c 34a1 153e
000002e0: 5436 71be 6ca1 0e3e 82a1 e83d 2c1a 773e
000002f0: b3ab c9bd 81b1 993d 049b 853c c231 313d
00000300: e850 06be 1a08 94bc fd4d e2be 1ce4 203f
00000310: f288 0bbf 27a5 0c3f 73b6 1bbe 1738 b13d
00000320: 77f8 fb3a 5807 bebc d8d4 793e 9783 5f3e
00000330: d6be 453d 4a98 dc3d 5c2a d9bb a2a9 19be
00000340: 2801 223e 0d63 5fbe 5d55 47be e993 873e
00000350: b12d 0e3e 0820 87bd 096e 5abe 7ab8 843e
00000360: 4fd8 073c 3e61 8a3c 7f35 cf3d 732b 4abe
00000370: d230 8cbe 61a6 d33e d0b8 523e 7e75 23bf
00000380: 90e6 14bb 9916 033e 56da bfbd bc27 eb3d
00000390: 7fba c53d 3416 1a3e 732e 263f 5393 273f
000003a0: ff79 b8be 15b5 90be f0af 4ebe 4fa6 313d
000003b0: 951d 193e 2b50 9ebd 3c47 38bd 00f4 2abe
000003c0: 95b1 a93e d593 12be 14f4 b5be 06bf 363e
000003d0: e03c 163e 1fa6 243e 293f 183e 922d 21bf
000003e0: 9b5d c83e ffea a3be e185 27bd 7107 d7bd
000003f0: d874 693e f85c 5d3d e62f 81bc e404 1f3d
0.26910743 0.0047341986 0.2592239 -0.22927395 0.3833214 0.21505053 -0.29252383 0.24924782
0.052646477 0.13598137 0.12652463 0.031058406 -0.07377154 -0.6573381 0.11372097 0.007894186
-0.024662342 -0.17980425 -0.23424728 0.07031187 0.2634406 0.27227244 0.120978676 0.06447678
0.31366992 0.29626465 0.53297824 -0.5620927 0.4324019 -0.16214575 -0.12500115 -0.15627956
0.19449286 -0.31387466 0.01913839 0.069804154 0.4605134 -0.33414382 -0.423046 0.35701922
-0.18746504 -0.18829706 0.15547378 0.1138104 0.1808029 0.07660428 -0.1646504 -0.051594146
-0.0994985 -0.38817528 0.09269993 -0.15597433 0.26743388 -0.30400294 -0.039929956 -0.110100895
0.44704267 -0.5028432 -0.15973704 -0.022070177 0.23865503 -0.102872744 -0.72992885 0.14623089
-0.16742654 0.27796656 0.019815713 0.8159933 0.06680238 0.7559517 0.3700204 0.5327423
0.0058605406 0.023416417 -0.12530819 0.23230343 0.050427444 -0.18359594 0.22504845 0.028013695
0.109838955 0.16221313 0.02775364 0.2040998 0.047692824 -0.33745328 -0.1705717 -0.3195167
-0.25041476 -0.07725768 -0.26610106 0.5658273 0.07928905 -0.44124165 -0.008364657 0.18029615
0.074696235 0.5923539 -0.22944346 -0.22735538 0.515984 -0.39405572 -0.37390774 -0.089186236
-0.18957706 -0.1102524 0.47206143 0.016677892 0.62086964 -0.09846899 0.31945753 -0.091014944
-0.21934234 -0.11731003 0.24329466 -0.30377734 0.29662266 -0.15790743 0.16209787 0.223886
0.21280904 0.14696528 -0.22152472 0.22123364 0.55503386 -0.36398488 0.12868121 0.19805275
-0.15983973 0.18915918 -0.4078208 0.0018041241 0.1578316 -0.05825496 -0.068120025 -0.25696766
-0.96176153 -0.043313682 0.1783194 -0.2640224 -0.27174765 0.08318538 0.052822594 0.114278734
-0.20216264 0.32588935 0.28712112 -0.13808145 -0.37929565 -0.5258536 -0.27292556 0.09498296
-0.20664571 0.28825358 -0.31347987 0.072238065 0.37258926 -0.42088285 0.1150548 0.44244346
-0.11549468 -0.04856771 -0.20619914 0.022706527 0.07618261 -0.053684812 0.035641365 -0.15098579
-0.09518319 -0.13759738 0.011180323 -0.13855264 -0.058769718 -0.11014496 -0.11813403 0.3519095
-0.14075312 0.52979445 0.4185328 0.34113395 -0.11927624 -0.20583653 0.018971782 0.14612275
-0.23555881 0.13928765 0.1135893 0.24131078 -0.09847202 0.07504559 0.016309269 0.043260343
-0.13116801 -0.01807027 -0.44200125 0.6284807 -0.54505837 0.549395 -0.15206318 0.086532764
0.0019223829 -0.023196861 0.243976 0.21827541 0.0482777 0.10771234 -0.006627364 -0.15006116
0.15820754 -0.21815129 -0.19466157 0.26480034 0.13884617 -0.06597906 -0.21331038 0.25921994
0.008291318 0.016892072 0.101176254 -0.19743137 -0.27380997 0.41337875 0.20578313 -0.63851154
-0.0022720434 0.12801589 -0.09367816 0.11482188 0.09654712 0.15047532 0.64914626 0.65459174
-0.36030576 -0.28263155 -0.20184302 0.043371495 0.14952691 -0.077301346 -0.04498981 -0.16694641
0.33143297 -0.14314206 -0.3553778 0.17846307 0.1467166 0.16078995 0.14867844 -0.6296016
0.39133915 -0.32015225 -0.04089916 -0.10499466 0.22798479 0.05404374 -0.01576991 0.038823023

encoder_lstm.weight_hh_l1 f4 [128, 32]
00000000: 6b9a 51bd e803 56be e823 45be 4b65 98bd
00000010: c42f 50be 3485 b93c ae37 813d edaf 59bd
00000020: 4658 5f3d 8fa0 54bd 70b3 883e 29ae 863e
00000030: 6de7 28bd e66a 89be eaef 223e d6f8 09be
00000040: bab3 02bf a724 183e d1bf 53be fcbe 603e
00000050: 6554 933d d45c 45be 2931 9cbd 2400 963e
00000060: f072 343d 4f58 38be 8acb eb3d d159 7c3e
00000070: 17aa 0fbe fbbd 423e 6d26 0c3b f893 85be
00000080: b8dc 343d f0d3 7dbe 0037 483e 483e bf3c
00000090: 6451 89be 5a81 bb3e 98d1 1ebe 718b 6fbe
000000a0: 1a53 b83d 8b73 babd e379 14be 1657 0f3d
000000b0: cb87 903d 8542 293d b5fe b23d c033 2cbd
000000c0: 8a06 603e b9b5 813d ae5b 52be 8d8d 8e3e
000000d0: 4fe3 cd3c bf04 3abd 8797 873e 19f9 ac3d
000000e0: d6e6 3bbe b244 613e be6a 163e 3fcd 703e
000000f0: a99c aabd a558 a8bd 3265 7f3e df0d 0d3e
00000100: 70a9 2dbe 367e e43b 50aa a7be 4184 e7bd
00000110: 2c63 82be 8ab2 0d3e 7765 c6bd 5b8d 273d
00000120: 5aac 643e c31b e13d 3850 f93d e8f2 8ebe
00000130: e407 463b de4f 3c3e 36a4 b4bb 1cb1 b83e
00000140: b7de e13e 811b 12be b3de 3c3e f22c 13be
00000150: 93fb ca3d cd61 d2bd a5a4 553d 1a88 df3d
00000160: a0ef 913c 9bc4 1a3e 5018 483e ecc8 8abc
00000170: 78f2 d93d 2eb4 403c 9c8e a1bd 510a cbbd
00000180: 0b52 c5bc 28fb 5c3e b8c8 7d3d 5e9d 92be
00000190: 0692 7c3e 7331 c6be cefb a8bd 8c52 9ebe
000001a0: 6f0e 803e cce8 32be 943c 6ebc 937f 37bd
000001b0: fa33 c73d fd62 023e f7d3 343e 1cd1 56bd
000001c0: f046 1fbd cad7 1c3b 7e43 40be d11d 4ebe
000001d0: f0d4 3d3e 20eb 853e e2a8 b8bc cb7f 6c3e
000001e0: e9ba 903e 03db 833d 962f 423e 5854 02be
000001f0: 6c7b c03d 23c6 28be 3f33 8e3b 8fa1 5a3e
00000200: c113 9dbe c35b e2be 3503 a7be 57fd 5c3e
00000210: b1e0 9ebd f0ab dfbd bbea 4ebd 5f11 5fbe
00000220: 5a80 a4bc 97cf 6fbe dbdb 1abe f74b c2be
00000230: 2032 bf3b bf06 033f 1334 5e3d 5caa 8e3e
00000240: 2a0e 403f 1d2f 8e3e 6da0 6abc 3523 bdbe
00000250: 54d3 f3bd ba1b 56be 3782 8abe 2879 f83c
00000260: 7108 86bd dd26 bc3d 4c0e 0dbe d120 c4bc
00000270: f8e0 7ebd 0430 8ebc 8dec 65bb 53c6 003e
00000280: e505 ffbd 2f6d 03be 45e8 5abe f970 70be
00000290: df8c eb3d b31b 1cbd b9be 61be 3967 0d3f
000002a0: 7160 c73e bdab 6e3e 1210 7a3e 1172 84bd
000002b0: 11f2 d23d 2eb3 ce3b c50d 203b 74c1 e8bd
000002c0: 0ead 833e e058 b2be 5afd bc3a 1997 8cbe
000002d0: 1158 33bd f327 903d 18fb 84be f446 35be
000002e0: cf82 973d 401b ab3e 1ec5 4f3e 3e17 96be
000002f0: d60a 9dbd 368b 49be 1457 09bf 62c5 2f3c
00000300: e265 8f3e ceac 8abe 8488 56be bc38 6cbe
00000310: db85 d0be 07b6 d13e 6db3 673d e0b3 863e
00000320: 8ae1 b3be 027f acbe db7c 783e 5c08 34bd
00000330: ae72 a73e 465e f2bd 54ec 85bc ae64 4bbe
00000340: 8066 73be 11d8 4cbe 196e 233c c5d6 2ebb
00000350: 560c 943d 490f 823e ce60 a03e 4c12 1ebc
00000360: b620 0d3d 5ef2 3fbc a12f a2be 6bf2 463e
00000370: af8b 0f3f 9c8d 96be 10f7 a93e c2d9 0abd
00000380: 78f6 5bbe d9bc 16be eed4 efbe 22d3 4e3e
00000390: 8067 febe b57f ac3e 9912 7c3d 75b5 95be
000003a0: ad40 fcbe 02e4 5b3e c078 6a3d 7c17 6fbd
000003b0: 5f78 8d3e f524 dabe 77d8 883c 5607 f23e
000003c0: 36a9 3bbd ff3b 483e a661 613e 6353 a73e
000003d0: 5c6a 213e 3212 9ebd 3214 903e bc24 2fbe
000003e0: dddf 893e 6f03 eb3b 7624 8f3d 3577 073e
000003f0: 9d5b 14bf 0f4d 883e 2e33 2e3f 0083 8ebe
-0.051172655 -0.20899928 -0.19251978 -0.07441195 -0.20330721 0.022646524 0.06309448 -0.05314629
0.054527543 -0.051910933 0.266994 0.2630475 -0.04123633 -0.2683937 0.15911832 -0.1347383
-0.5105549 0.14857732 -0.20678641 0.21947855 0.07193831 -0.19273692 -0.07626564 0.29296982
0.044054925 -0.18002437 0.11513431 0.24643637 -0.14029728 0.19017784 0.0021385208 -0.26089454
0.044155806 -0.24787879 0.19552231 0.023345128 -0.2681991 0.36622125 -0.15509641 -0.23393036
0.09000225 -0.09104069 -0.14499621 0.03499516 0.070571505 0.041323204 0.08739988 -0.04204154
0.21877494 0.06333489 -0.20542786 0.2784237 0.025132803 -0.045414682 0.26482794 0.08445949
-0.18349776 0.21998861 0.14689156 0.23515795 -0.08330662 -0.082200326 0.24940947 0.13774823
-0.16959167 0.0069730533 -0.32747126 -0.11304522 -0.25466287 0.13837638 -0.09687322 0.04090629
0.22331372 0.10991623 0.12173504 -0.27919698 0.0030217106 0.18389842 -0.0055127395 0.36072624
0.4411523 -0.14268304 0.18444328 -0.14372614 0.09911265 -0.1027256 0.05215897 0.10914631
0.017814457 0.15114062 0.19540524 -0.01694151 0.1064195 0.011761708 -0.07888529 -0.09914077
-0.024086973 0.21580184 0.061959 -0.28635687 0.24665079 -0.38709602 -0.08251153 -0.30922353
0.25011012 -0.17471617 -0.01454081 -0.0447994 0.097267106 0.12733074 0.17658983 -0.052445516
-0.03888601 0.0023932331 -0.18775746 -0.20128562 0.1853826 0.2615595 -0.022541467 0.23095624
0.282676 0.064382575 0.18963465 -0.12727487 0.09398541 -0.16481833 0.004339605 0.21350692
-0.30679134 -0.44210634 -0.32619634 0.21581016 -0.077577 -0.10921466 -0.050516825 -0.2178397
-0.020080734 -0.23419033 -0.1512293 -0.37948582 0.005834833 0.5118217 0.05424888 0.2786435
0.7502161 0.2777032 -0.014320475 -0.36940923 -0.11905542 -0.20909014 -0.2705247 0.03033121
-0.06544579 0.091871 -0.13774985 -0.02394143 -0.062226266 -0.01735688 -0.0035083622 0.12575655
-0.12452296 -0.12834619 -0.21377666 -0.23480596 0.115014784 -0.038112354 -0.22045411 0.5523563
0.38940766 0.233077 0.24420193 -0.06467069 0.10300077 0.006307981 0.002442227 -0.11365023
0.25717968 -0.3483343 0.0014418766 -0.27459028 -0.04378516 0.0703887 -0.2597282 -0.17702848
0.07397997 0.33419228 0.20290038 -0.29314607 -0.076680824 -0.19682011 -0.53648496 0.010728212
0.28007418 -0.27084965 -0.20950514 -0.23068517 -0.40727124 0.40959188 0.056567598 0.2630911
-0.3513301 -0.3369065 0.24266379 -0.043953285 0.3270468 -0.118343875 -0.016348042 -0.19862625
-0.2376957 -0.20004298 0.00997498 -0.0026678306 0.072289154 0.25402287 0.31323856 -0.009647917
0.034455024 -0.0117155 -0.31676963 0.19428413 0.56072515 -0.29404914 0.33196306 -0.033899076
-0.21480739 -0.14720477 -0.4684214 0.20197728 -0.4968834 0.33691183 0.061541174 -0.29240003
-0.49268094 0.21473697 0.057244062 -0.058372006 0.27630898 -0.4260632 0.016704781 0.47271222
-0.04581567 0.19554137 0.22009906 0.32680807 0.15763229 -0.07718314 0.28140408 -0.17103857
0.26928607 0.00717204 0.06989376 0.13229068 -0.5795229 0.2662129 0.68046844 -0.2783432

encoder_lstm.bias_ih_l1 f4 [128]
00000000: 1de0 693d d359 84be 3db7 afbe d2a4 d2bd
00000010: e61d fabd 0d32 493e e793 3d3e 7b81 b43d
00000020: f2f7 a8be 4620 ecbd d0c9 993e 51a6 423d
00000030: b7a8 d03e a828 993e b223 2bbe 11be 52be
00000040: c16d 8c3d dcfd 1fbe 2bd5 a2bd 34f9 0f3d
00000050: 0909 283e 5daf aabd f8ac a2be b5fe 8bbe
00000060: b004 dc3e ab6f a93d f4d1 93be 1dbb 573e
00000070: 5b11 7bbe 2cbd 8abe e60e cf3b b878 61bd
00000080: 57e0 963d 3940 6bbe a29b 043f c257 173d
00000090: adbd 543c 9c72 003e 6645 e4bc 36d4 89bd
000000a0: a953 093f 4c5e d3be 8ecf dc3e 9981 333e
000000b0: 2d57 dc3e 65ef d63d b2f8 9c3e 30b1 9ebe
000000c0: 6d24 babe 50e2 683e 29d8 d73e 210b a13c
000000d0: 0ca0 7bbd 983e 663d bc4a 563e 2d6d 4fbe
000000e0: a3c7 bf3e a6a3 433e 051f abbe a5b0 ae3e
000000f0: 5cfc be3e 9516 26bd 5438 81bd 2bef ae3d
00000100: 7f06 513d 002b 48be 3cd0 a4bd 4e99 00be
00000110: 81bd 16be 15d4 b33d a660 bbbc 1124 18be
00000120: ac19 a8be 9997 9cbd 99e9 363e cbcb 893e
00000130: a52d d73b 3fc6 953d 0780 f3bc 8b53 2f3e
00000140: 81e7 87bc 6562 af3d 18ac ecbd d7aa 18bd
00000150: 4cb8 623d a804 a03e 1f94 da3c a984 85be
00000160: 3303 8f3d ff53 a93d bbe1 b0be e984 d8bd
00000170: f681 1a3b d3b4 7a3d d2d6 ac3c 0247 1ebd
00000180: f05a 58be 4689 a2bd 2109 073e 1ed6 973d
00000190: ed24 843e c374 8b3c 2b4e 483e b9c8 a53c
000001a0: ade2 a53e 0b6d 7cbe 791d 3abd 6e1e 483e
000001b0: 20c3 133d 4aa4 97bd ef21 73be b5b9 bc3d
000001c0: a243 4cbe 970f bc3d 7510 c23d cc89 b93e
000001d0: 4525 173e c039 693e cbc2 d53e c21e 43be
000001e0: b7f9 403e 0327 d2bc 3701 08bc 52f0 973e
000001f0: b2eb 2ebd 23b9 e1bc 07c1 0b3e d397 12be
0.057098497 -0.2584978 -0.34319487 -0.10285343 -0.12212734 0.19647999 0.18513452 0.08813759
-0.33001667 -0.11529593 0.30036783 0.047521893 0.4075372 0.2991383 -0.16712835 -0.20580317
0.068568714 -0.15624183 -0.07950815 0.035149768 0.16409697 -0.08334229 -0.3177259 -0.27342764
0.42972326 0.08273252 -0.2887112 0.21067472 -0.2451834 -0.27097452 0.0063189147 -0.055046767
0.07367008 -0.22973718 0.51799977 0.036948927 0.012984675 0.1254372 -0.027865123 -0.06729929
0.5364328 -0.4128288 0.43127102 0.17529906 0.4303526 0.1049488 0.3065849 -0.30994558
-0.36355916 0.22742581 0.42157105 0.019658627 -0.06143193 0.056212038 0.20926946 -0.20256491
0.37456998 0.19105396 -0.33422104 0.34119144 0.3730191 -0.04054888 -0.06309572 0.085417114
0.051031586 -0.19547653 -0.0804753 -0.12558481 -0.14720728 0.08780686 -0.022873234 -0.14857508
-0.32832086 -0.076461025 0.17862548 0.26913294 0.0065667205 0.07313203 -0.029724134 0.17121713
-0.016589882 0.08563689 -0.11556262 -0.0372723 0.05535154 0.31253552 0.026681958 -0.26077774
0.06983032 0.08267974 -0.3454722 -0.105722256 0.0023575998 0.061207604 0.021098528 -0.038641937
-0.2112844 -0.07936339 0.13187076 0.074138865 0.25809422 0.01702345 0.19561069 0.020237314
0.32399502 -0.24650972 -0.045438264 0.19542858 0.036074758 -0.074043825 -0.23743413 0.09215108
-0.19947675 0.09182661 0.09475795 0.36237943 0.14760311 0.22775936 0.41750178 -0.19054702
0.18845259 -0.025653368 -0.008301071 0.29675537 -0.042705245 -0.0275541 0.13647853 -0.14315729
