W3-Design/checkpoints/epoch_12.pt (torch, 384725 bytes, 24 tensors)

encoder_cnn.0.weight f4 [32, 3, 3]
00000000: 773f 1ebe 925f 0ebd 3202 33be 2197 9a3e
00000010: 2d27 4fbe ff98 743e f138 523e 5ba9 6b3e
00000020: eaf4 3c3e caa2 ca3d 6b3b f73d 7340 8ebc
00000030: 5190 46be bb5a 65be 249b 673d 04fb 10be
00000040: 10a1 8c3e b859 2abd 9be1 fb3d d466 953e
00000050: 2661 073f bc58 213e 3258 883e add0 a4be
00000060: 89c7 33be 6f1c c43d 42f5 d5bd ffd2 9fbc
00000070: e48c 0f3e f198 c2bd a80f 9fbd 0692 21bd
00000080: 2eae 9abc af0b c83d 0fa8 393e 5d7e 88bd
00000090: 5fb0 8fbd 45fd 203e 81d9 19bd e0b7 ff3e
000000a0: c2c7 96bd 45c7 cd3e b7d0 893d 546e 1d3e
000000b0: b53c 9cbe 0226 89bd 33c4 15be 7459 c03e
000000c0: 892e 9abe 90f4 82be 4a33 233e 0b34 3e3e
000000d0: 3485 813e 729b 47be dc1b b0bd 9952 bebd
000000e0: d4e2 8d3e 5b2a 4c3e 4dda 1a3e ff90 b8bd
000000f0: 64f2 c5bb d347 393e 51da 82be 332b 083e
00000100: 327b 9fbd e881 903e be70 833e 80b0 90be
00000110: 9580 eebe c4ec 93bd dc34 74bd 4246 c23e
00000120: 3f26 033d 02fe 1e3e 0ee7 c8bd bbf5 23be
00000130: b21e b1be cce9 813e 54d0 a9be 41ad 553e
00000140: f145 bfbd 147b eb3c 0394 b33e f2b6 62bd
00000150: c466 853e 0122 02bd 95c4 6ebe 9788 043e
00000160: d767 0b3e b470 643d f6b4 efbd 6c9c 08bc
00000170: 6bef b43c 5736 933e c28a 8abe f41a 9ebe
00000180: 6d35 72be 79e7 153e 3735 c5bd c00e 54bd
00000190: acde 8f3c e495 493e 3f4e 003d 52c8 963e
000001a0: cd4e d7bc 0377 8ebe 5bba b3be 731d e0bc
000001b0: 3110 43be 9ca1 3c3e 0552 5b3d 9935 1fbe
000001c0: 4e31 e0be 739b 09bf b4d9 a03e 9998 c5bd
000001d0: 3055 8ebe 54c7 923d 8631 1ebe 1df9 e03d
000001e0: e445 9d3b 20ac 9ebe 40da 89be 040a eebd
000001f0: c15e 8abe abca 88be b056 11be 569f 44be
00000200: 681f aabd bf1a a73e 5877 01bd f86d 51be
00000210: e352 153e 7970 4f3e 6a3a 02be feda bd3e
00000220: 5464 243e 64b3 22be 314c cdbe 2d86 e03c
00000230: 6d4f 4cbe facd d4be df02 7abd 7388 a8bd
00000240: 674d 1a3e bdf9 64be 8522 a4be ffd1 113e
00000250: ec5f 7fbd 4a28 e9bd d4d8 433e 0504 1fbe
00000260: 34e3 1b3e 17cd 033d d7fc 7b3e c66e d7bb
00000270: 9910 d63d f717 fdbe e48a 343e 0cf6 48be
00000280: 17cd e0be eee5 2fbe 6df2 1f3e 849e a23d
00000290: 3e1b 94be b2b7 73be e4c0 0abf 989b 74be
000002a0: 1249 9d3d 06a9 93be 1ec9 f6bd d725 27be
000002b0: 7499 e43d 9932 6e3d 2a42 5bbe e6fb bcbe
000002c0: d82a 013e cd45 9ebe ab50 203c 8e7b 0c3e
000002d0: 31aa 7fbd 0dcc aebd f196 8ebc 5dc2 52bd
000002e0: 5036 b13e 8fbc 2a3e bcc3 9b3e 4962 843e
000002f0: eea4 edbd 5c4c a83e d3e3 efbd 84b1 b8bd
00000300: 5481 3bbe fb18 4b3e 44c2 eb3c f4d3 38be
00000310: 23f4 febe c176 c5be 1924 2c3e 1bc0 adbe
00000320: 1252 373e f27f 1e3e eabd 7a3e 5bd3 2cba
00000330: 94f2 ebbb 6014 dabd a8af 36be 4175 f03d
00000340: cfcf 8bbe 507f 5abe 0848 26be 18fb 783b
00000350: e4a3 9dbd 07b1 a73d 449f 3b3e 5091 743e
00000360: ee0e 093e 8aba 873e 621e abb9 b6fd b73d
00000370: 1b96 c03a 279b 5bbe a277 ccbd 7914 98bd
00000380: 8790 acbc adc0 c43e 60d7 0d3e 6dbf ee3e
00000390: 2b16 763e d352 673e 5bc6 2abb 318d 92be
000003a0: cddc a13d 8cef c13e 66c3 dbbe 95c7 b2bc
000003b0: 58aa 07be 2a01 b03e 0a62 3d3e d5b4 2dbe
000003c0: 3340 b13e e5d6 c53c 38ad babd 7b1a 3ebe
000003d0: 84c8 c33c 5ded bfbc cb0a ebbd 3e1e bbbd
000003e0: 57f6 743e 8f5b 2dbe 282e 983e 2bb4 bb3d
000003f0: 1d19 833e eb14 91bd ce91 e2bc 8a31 0dbe
-0.15453897 -0.03475911 -0.17481306 0.30193427 -0.20229788 0.23886488 0.20529534 0.23013823
0.18452802 0.09894331 0.1207188 -0.017364716 -0.1939099 -0.22397892 0.056544438 -0.14158255
0.2746663 -0.04158947 0.1229889 0.29180014 0.5288261 0.15756506 0.26629788 -0.32190457
-0.17556585 0.09575736 -0.1044717 -0.01950979 0.1401859 -0.095018275 -0.07766658 -0.0394459
-0.018881883 0.097678535 0.18130516 -0.06664727 -0.07016062 0.15721615 -0.037560944 0.49944973
-0.073623195 0.40191093 0.06729262 0.15374118 -0.30515066 -0.066967025 -0.14625625 0.37568247
-0.30113629 -0.2557721 0.15937534 0.1857454 0.25296938 -0.19492891 -0.08599064 -0.09293098
0.2771212 0.19938032 0.15122338 -0.09012031 -0.006040858 0.18093805 -0.25557187 0.13297729
-0.077871695 0.2822411 0.25671953 -0.2825966 -0.46582475 -0.07222894 -0.059620723 0.37944227
0.032018896 0.15526584 -0.09809695 -0.16011707 -0.3459373 0.25373685 -0.33166754 0.20866872
-0.09339512 0.028745212 0.3507386 -0.05535025 0.26054966 -0.03177071 -0.23317178 0.1294273
0.1361383 0.055771545 -0.117044374 -0.008338075 0.02208682 0.28752396 -0.2705899 -0.3087994
-0.23653193 0.14639081 -0.096292906 -0.05177188 0.017562233 0.19686085 0.03132462 0.29449707
-0.026282692 -0.27825174 -0.35103115 -0.027357792 -0.19049145 0.18421024 0.053545017 -0.1554779
-0.43787616 -0.5375282 0.31416094 -0.09648246 -0.27799368 0.07166925 -0.15448579 0.109850146
0.0047995914 -0.30990696 -0.26924324 -0.11623004 -0.27025416 -0.26717123 -0.14193225 -0.19201407
-0.083067715 0.32637593 -0.031607956 -0.20452106 0.145824 0.20257749 -0.12717596 0.3708114
0.16053897 -0.15888745 -0.40097192 0.02740773 -0.19952174 -0.41563398 -0.061037894 -0.082291506
0.15068589 -0.22360893 -0.32057586 0.14240263 -0.062347338 -0.11384638 0.19125682 -0.15528877
0.1522339 0.03217801 0.2460817 -0.0065744845 0.104523845 -0.49432346 0.17631108 -0.1962511
-0.4390647 -0.17177555 0.15619822 0.07940391 -0.28927034 -0.23800543 -0.5420058 -0.2388748
0.07679953 -0.28839892 -0.12050079 -0.16323029 0.11162081 0.058153722 -0.21411958 -0.36910933
0.12614 -0.3091263 0.009784858 0.13719007 -0.062418167 -0.08535013 -0.017405959 -0.05145489
0.3461175 0.16673492 0.3042277 0.25856236 -0.116037235 0.32870758 -0.11713376 -0.090182334
-0.18311054 0.19833748 0.028779157 -0.18049604 -0.49795637 -0.38567165 0.16810645 -0.33935627
0.17902401 0.15478495 0.24486509 -0.0006592774 -0.0072005484 -0.106484175 -0.17840445 0.117411144
-0.27306983 -0.21337628 -0.16238415 0.003799146 -0.07697275 0.08188062 0.18322474 0.23883557
0.13384601 0.26509506 -0.000326383 0.089839384 0.0014693172 -0.21445905 -0.09983756 -0.0742578
-0.02106501 0.3842825 0.1385169 0.4663042 0.24031894 0.22590189 -0.002605817 -0.28623345
0.079034425 0.37878072 -0.42922515 -0.021823684 -0.13248575 0.34375888 0.1849443 -0.16963513
0.34619293 0.024150321 -0.0911507 -0.18564789 0.023899324 -0.023428613 -0.11476668 -0.091366276
0.23922096 -0.16929458 0.29722714 0.09165224 0.25605097 -0.07084068 -0.027657416 -0.13788429

encoder_cnn.0.bias f4 [32]
00000000: f84a 60be 2a74 0ebe d5a5 7a3f 1a6d 88bf
00000010: 1dc4 02be e42e c7bc 901e 47bf 97e2 20be
00000020: dd11 eaba 20e5 b5be 4872 7b3b 627e 56bd
00000030: ff2a 413e 800f a2be 71b4 2dbf 98f3 d53e
00000040: c276 17bf 3485 b43e 68d4 623e 3ef7 0ebf
00000050: 2a0d 1dbf 50b4 163f 3573 a43c 75e4 0cbf
00000060: 9559 c2be f9d9 843e 333a 1ebf d60e 2cbf
00000070: da91 0abf 8038 58be ebfa afbe 0104 a33d
-0.21903598 -0.139115 0.9790929 -1.0658295 -0.12770124 -0.024314351 -0.7778101 -0.15711437
-0.0017858107 -0.3552637 0.0038367677 -0.05236662 0.18864058 -0.3165245 -0.67853457 0.4178741
-0.59165585 0.35257876 0.22151339 -0.5584601 -0.6134821 0.58868885 0.020074466 -0.550361
-0.3795897 0.2594755 -0.61807555 -0.6721014 -0.541288 -0.21115303 -0.34371123 0.07959748

encoder_cnn.2.weight f4 [64, 32, 3]
00000000: 13b0 31be 5719 8d3d 23ba a23d 08f0 023d
00000010: 3ea9 f13c 16ac 4a3e 00fe 253e eba9 fd3d
00000020: 242c 8f3c c541 cc3d cf62 81be 88bb 1f3d
00000030: 41ca 023e e579 db3d e506 86bd fff9 2fbe
00000040: c3f9 99bd 8ffa 8dbd bf46 c13e e859 b13d
00000050: c751 ae3e 0891 f4bd 5992 bbbd 0884 17be
00000060: 996b 093e 3997 16be fc5c 643c 8fca f33d
00000070: fe0e db3c ae6b 663e 5d88 a9bd 446d 633d
00000080: 1f58 f93c 1412 743d 56a0 acbc f387 2dbe
00000090: 80bf 73bd 50e1 39be 4df2 94bd 95d4 bf3d
000000a0: 588e aa3d 1167 f53d bac1 0a3e ab75 38bc
000000b0: 21f7 253e b580 b13d 1b23 6a3d 114d d6bd
000000c0: 7c48 283e 8563 733e bcf8 3e3e ef44 973d
000000d0: 227a 2cbd 748c c2bd aab0 38be f0e6 fcbd
000000e0: f7a0 17be 06d2 afbd cf94 e1bd 04f9 c23d
000000f0: da7b 553d de2c babd 3f16 293e 72d3 d6bc
00000100: 4708 83bd aabe 38be 1f44 823e 5d9a 863d
00000110: acc7 3f3e 16e0 c4bd c44d 87bd 6271 533d
00000120: e4fc 143e 8070 57be f996 c03d 7468 0a3d
00000130: c499 223e a79a 36be 31e9 d4bd 5f55 833d
00000140: ab17 cc3c c618 053e 94b1 ebbb 491d 7d3d
00000150: f818 4fbe ebe1 cbbe 64d3 76be 18af 813d
00000160: a091 23be 15e2 e23d 16e2 913e e22d b33d
00000170: e8dc 063e 4c33 253c 00dc 11bc d6a4 683d
00000180: 9ca5 6bbd 3ba8 5abc 7591 993d 5368 a6bd
00000190: 82cd 74bd 6937 e4bc 7cd3 ffbe bb9e 75be
000001a0: f055 3ebe 1fa9 83bd 78ef ef3c 2043 babd
000001b0: ec8f a2be d8b8 93be 924c 5dbe a30d 38bd
000001c0: adf5 bbbb 5b66 913d 938e 703d e096 02be
000001d0: f3de 42be 8272 77be cf4e 9f3d 9101 1d3c
000001e0: 39cb c33d 7b40 4bbe 1e1e 46bd 98c8 c53c
000001f0: ad8d 193d 09b0 7bbc eca7 53bd ef9d 9bbd
00000200: 5810 9dbd 4f71 afbe fe5b 38be 8f70 f4be
00000210: 24d6 c8bb ea4f 81bc a9a7 32bd 32e0 12bd
00000220: d634 833c 4750 233d 018c fabd 8335 5abd
00000230: 3746 13be d3be 2cbe f748 9ebd 8826 2abe
00000240: 569a 35be cca4 453d e52f 7ebd b799 a6be
00000250: c7fb b8be 1821 b2be cbe5 543b 4645 f63c
00000260: f547 353d 3e16 dc3d 1837 883d 636c 963d
00000270: ee9e f4bc 9dc9 1bbc e141 f5bc 302c 9abe
00000280: 82b9 8bbe 3cbb 8ebe 6226 aebc 748e e3bd
00000290: 8abc f1bd 1c8f 323d b312 16bd d231 c03c
000002a0: 2d4a 05bd 0b09 5a3d 2cf0 4b3d 1811 7fbe
000002b0: 95c6 203d 6893 883d 0800 38bd 6e65 35bd
000002c0: b21e 41be c3d7 44be 5120 abbd 16ce 96bd
000002d0: 737c 34be 29d5 9bbd 5a63 883d e6f0 2fbc
000002e0: 58d2 d7bd 21d2 29bc b506 0bbe 952d e0bd
000002f0: 036c 36be def3 2cbe 44fc 2ebe 5ab7 62be
00000300: 3734 b73e 9022 853e 265e 88bc 5119 ea3d
00000310: a85b 883e 6836 21be c044 84be 71ae 79be
00000320: 16b0 fdbd 15e8 de3d 6768 78bd dfdb 55bd
00000330: 66c6 7bbe dc36 d7be 2c76 52bf da93 16be
00000340: ff41 f73e 220c a3bd b52a 03be 3843 333e
00000350: 5ddc 9b3d 1a68 d9bc 22b2 5b3e 9a20 adbe
00000360: ad9c b13d 578f 8ebe 8d80 f4bd 3da3 553e
00000370: 137f d8bd 6e36 23be 5949 6c3c 0cb8 313e
00000380: 8e15 babd 0f61 60be dc8e 54bc 8d91 a2be
00000390: 44f9 61be 6f45 8dbd 5ca6 8fbd b2b7 b8be
000003a0: fa2a 4cbe 736c 87be 69b6 ea3e d43f 1a3e
000003b0: 727e 4fbe c8cb 173d 2eeb 01bd 37a8 c9be
000003c0: bd0f a03e fd7f 893d cb6d acbe f7bc 943d
000003d0: 6e55 29be 1a45 b7be a768 b4be e686 bdbe
000003e0: ca34 0bbe 1bcb 88be d62a bf3d b22c 503d
000003f0: 51a8 a03e cf35 7c3e dcce 1abe 80c9 52be
-0.17352323 0.06889599 0.07945659 0.031967193 0.029499646 0.19792208 0.16210175 0.12385925
0.017477103 0.09973482 -0.25270697 0.038997203 0.12772466 0.10716609 -0.06544284 -0.1718521
-0.075183414 -0.06932556 0.37749287 0.086597264 0.34046766 -0.11941725 -0.09158773 -0.1479646
0.13419951 -0.14706124 0.013938185 0.11903869 0.026740547 0.22502014 -0.08277962 0.055524126
0.030437527 0.059587553 -0.021072548 -0.16946392 -0.0595088 -0.18152356 -0.07272778 0.09366719
0.08327931 0.11982549 0.13550463 -0.011258523 0.16207553 0.08667127 0.057162385 -0.10463918
0.164339 0.23768432 0.18649572 0.07386195 -0.042108662 -0.094994456 -0.18036142 -0.12348735
-0.14807497 -0.08584981 -0.11014711 0.09520152 0.052120067 -0.09090589 0.16512392 -0.026223872
-0.06398063 -0.18041483 0.25442597 0.06572411 0.18728513 -0.096130535 -0.066066295 0.051621802
0.14549595 -0.21039009 0.09403796 0.03379102 0.1587897 -0.17832433 -0.1039604 0.064127676
0.02491363 0.12997732 -0.0071928 0.061795507 -0.20224369 -0.398208 -0.24104077 0.063322246
-0.1597352 0.11078278 0.28492802 0.08748986 0.13170207 0.010083031 -0.00890255 0.056797825
-0.057530984 -0.013345773 0.07498447 -0.08125367 -0.0597663 -0.027858453 -0.49966037 -0.23986332
-0.1858747 -0.06428742 0.029288992 -0.09094834 -0.3175043 -0.28851962 -0.2161124 -0.04493488
-0.005736074 0.07099601 0.05872972 -0.12752867 -0.19030361 -0.24164775 0.077787034 0.009582893
0.09560246 -0.19848816 -0.048368566 0.024143502 0.03748863 -0.015361794 -0.051673815 -0.07598483
-0.07669133 -0.34266135 -0.18003842 -0.47742125 -0.006129043 -0.015785176 -0.043616924 -0.03585834
0.016016405 0.03987148 -0.12233735 -0.05327369 -0.14382254 -0.16869669 -0.07728761 -0.16616261
-0.17734656 0.048252866 -0.062057395 -0.3253915 -0.3612959 -0.34790874 0.00324856 0.030062329
0.044258077 0.1074643 0.06651133 0.07344892 -0.02986094 -0.009508518 -0.02993864 -0.30111837
-0.2728997 -0.27877223 -0.021258537 -0.11111155 -0.11803539 0.04359351 -0.036638927 0.023461256
-0.032541443 0.05323128 0.049789593 -0.24908864 0.039251883 0.066687405 -0.044921905 -0.044286184
-0.18859366 -0.19222932 -0.08355773 -0.073635265 -0.17625599 -0.076090164 0.06659575 -0.010738587
-0.10538167 -0.01036504 -0.13576777 -0.10946194 -0.1781464 -0.16889903 -0.17088419 -0.22140256
0.35782024 0.26002932 -0.016646456 0.1143061 0.26632428 -0.1574341 -0.25833702 -0.2438295
-0.12387101 0.1088411 -0.06064644 -0.05221164 -0.24587402 -0.42034042 -0.82211566 -0.14704838
0.4829254 -0.079612985 -0.1280926 0.1750611 0.0761039 -0.026538897 0.21454671 -0.33813936
0.08672462 -0.27843735 -0.119385816 0.20863052 -0.105711125 -0.15938732 0.014421784 0.17355365
-0.090861425 -0.21912025 -0.012973513 -0.3175167 -0.22067744 -0.06898009 -0.070141524 -0.36077648
-0.1993827 -0.26449928 0.45842293 0.15063411 -0.20263079 0.037059575 -0.031718425 -0.3938615
0.31262007 0.06713865 -0.33677515 0.07262605 -0.16536495 -0.35794908 -0.35236093 -0.37016982
-0.13594356 -0.26717457 0.09334342 0.050823875 0.31378415 0.24629901 -0.15117973 -0.20584679

encoder_cnn.2.bias f4 [64]
00000000: 7f0e 25bd b7a8 15be 5a03 b3bd d066 843d
00000010: 08ad 9e3d a3bf c03d d310 86be ebea b7bd
00000020: 8419 21be ebc6 81bc b4af 0d3e cb22 36be
00000030: c6e5 e33c fca1 bebd 407f f4bd f2fd fbbd
00000040: 4855 0b3e 6853 53bd a75a a6bd c15f b4bd
00000050: dac0 12be bc83 003e 471a 323e 5c0b c83e
00000060: d69d 23be cac0 8d3d b8ae 78be 4f80 23be
00000070: 4018 ff3d 94fa fbbd 3e8a f0bd 69bf afbe
00000080: 01c0 b2bd 0b29 2c3e 5ec0 a13e 2d52 bfbd
00000090: 0309 30be adaf a6be 34e3 0c3e c5f1 a73a
000000a0: b0f1 2fbe 6419 cebe 9d83 163e b561 f0bd
000000b0: 214f ea3c dc64 d0be f7b0 8cbe 4403 2abe
000000c0: 3ba7 09be 463d 463e 3278 99be 212a a4be
000000d0: 7e53 8ebe 3b8a 69bd b5b2 55bd 3c6d f63c
000000e0: 7a58 65bd b9b0 4fbe 9c81 e0bd 2887 02be
000000f0: e86c 96be e333 5c3e 1dab 94be f4ed 60be
-0.040297028 -0.14615141 -0.08740874 0.064649224 0.07747847 0.09411552 -0.2618471 -0.08980354
-0.1573239 -0.015841922 0.13836557 -0.1778671 0.027819525 -0.0930824 -0.119383335 -0.123042956
0.13606751 -0.051593214 -0.08122759 -0.08807326 -0.1433138 0.12550253 0.17392837 0.39071167
-0.15978178 0.06921537 -0.242854 -0.15966915 0.12455797 -0.12303653 -0.117451176 -0.34325722
-0.08728028 0.16812532 0.31592077 -0.09341846 -0.17190938 -0.32555905 0.13758546 0.0012813142
-0.1718204 -0.40253747 0.14698644 -0.11737386 0.028602185 -0.4070195 -0.27478763 -0.16602808
-0.134427 0.19359311 -0.29974514 -0.32063392 -0.27798074 -0.057016592 -0.05217238 0.030081384
-0.05599258 -0.20282258 -0.10962221 -0.1274687 -0.29379964 0.21504168 -0.290368 -0.21965772

encoder_lstm.weight_ih_l0 f4 [128, 64]
00000000: 23c6 a93e 4cd8 483d 3a5f 923d 09aa 1bbe
00000010: 9069 9d3e ac35 2c3e 36d9 b7bd 5bff 5a3e
00000020: 96b1 943e feab 593d 073f 263e cbee 88be
00000030: 2cfb 3f3e 1b79 12be 621a c9bd 892e fa3d
00000040: a5a1 3c3e 7848 29be cf70 96bd 6beb 563c
00000050: d6b5 4cbc ab0d 143e 3d3a 0a3f 1fe9 21bf
00000060: 52b0 ec3e f313 193e 7ca1 bbbe 98ba bf3d
00000070: a12c 6fbe faf1 ccbd d80e 3c3e 7e2e 183e
00000080: a53a 5abc a5e5 653e fd3a ebbb ce9f 8e3c
00000090: 1aca 793e b1f0 b2bd eb4f b33d 96c5 01be
000000a0: 3494 803d f555 f33d bc77 0cbc 0546 953d
000000b0: 8090 8bbe 3ab1 133e f832 e1bd 104c 6b3e
000000c0: 93e7 663e b261 29bd b903 51bc bf5a 993c
000000d0: 7a05 3f3e 039f 19bd 25dd 2c3d 5242 d93d
000000e0: 2f39 ebba 59d0 80be e374 bcbd 67c3 2bbd
000000f0: a2d4 8abd 03dc 1f3e fea0 b5bd ad0e e2bd
00000100: ecd9 1fbe 983f 583c a52f 79be de27 36be
00000110: a7cd 50bc e8d9 66be e458 f63c 668f 113e
00000120: acda f03d 39b9 203e 3717 0fbd b9a6 0abe
00000130: 5adf 233d cc4f d4bc 7f86 7d3d 813a 493e
00000140: c3fa 963e af6b e23d 6609 5ebe 0284 44bd
00000150: 6ec3 533e cb82 a9bd 11a6 d8bd 8c2e eb3d
00000160: 1bb5 163e 3bf4 b2be 226b 1b3e e71b b63d
00000170: fb15 f53d 88ae 68bd 0594 85be dc74 b13d
00000180: 44d1 043e 3249 c03d e920 74bd c52d 0dbe
00000190: eb75 42be eac5 22be 9ed2 a33e 91f5 223b
000001a0: 7dce d9bc 4e57 ec3c f2cb 2f3e 58fb 53be
000001b0: 0e82 d33e 7866 9f3d 002b 9d3e 06b8 00bd
000001c0: f2e3 19be bea6 85bd 9274 a2bd a746 183e
000001d0: 1be9 28be db9a 8bbd 7db1 84bd 75fd ea3d
000001e0: d80e 6b3d dee5 423c 49d3 d73d 02d7 1bbe
000001f0: 070a 473d ef32 b0bd 561a dbbe d873 41be
00000200: eac9 cb3d 3f4f 82bd 8ffa 313e ad1a 0abc
00000210: 44d8 873e 94ff 033e 35f3 943e 9040 683d
00000220: 9c7d 87bd f240 103e b2b9 f43d a2ed d5bd
00000230: abfb e9bd 7e7d f8bd 340e 813c 091a c43c
00000240: 63d9 433e 2af3 803e 38a7 5abd 5718 553e
00000250: 1e40 eb3d 8818 663d 099e 9c3e 81e7 72be
00000260: bfc9 3fbe 9498 17bd ff86 853e dd95 9d3d
00000270: 6e1f 0abc 1f31 ff3d 23fa 8cbe 8594 9ebb
00000280: d15f 34be 168d c9bc 3c13 103d dc02 42bd
00000290: 15a1 563d 1388 0e3e b169 c3bd 29d2 b13c
000002a0: af23 a53e 0f54 d13d c5f8 e53b d78e 943d
000002b0: 60ea 863e 3629 32bf 1b56 a33d 12d8 edbd
000002c0: 1739 28bd 2fb1 b33d 8981 703e aa6d 523d
000002d0: b128 c1bd 5336 2bbd 8592 843e 3448 113c
000002e0: d11a 583b 2c69 303e d17a 0f3c 930c fdbc
000002f0: 3142 05be 741f 2fbe aa29 b93d 84d2 b7bd
00000300: 2876 56be c9f0 713e ee2b 323e d85e 2e3e
00000310: 3c84 4f3d b777 83bd cfbf 203d 845e f8bd
00000320: 0c1a bbbc 240d 1a3d b0ba a2bd 72a5 183f
00000330: d962 ca3e dc26 30be 25e4 9fbd 9510 b83d
00000340: 0c39 ccbe e0a7 7f3e 6601 ad3b 5a12 e23d
00000350: 7ef1 713c 4b00 e33e c934 013f 42a5 4ebd
00000360: cd27 013f 1670 e8bd 6311 86bc 8017 383e
00000370: 84d8 f4bd 1c18 003e 9a24 5fbe 535d b33d
00000380: bee1 91be 5c3c 95be 55c7 b73d 18b8 ac3d
00000390: a286 313c d66c 92be d925 4fbe 1eab 983d
000003a0: daa5 2c3e 1596 5f3e cbe2 033c 2082 e03e
000003b0: 53dd 99bd 2742 b23e 13e0 613e 621e 8c3d
000003c0: 75ff 813d cc7e 963e 4cb6 3dbc 1454 4d3e
000003d0: f4e5 2b3e 1454 e83c 72f5 053d 3618 f1bd
000003e0: 79f6 963d 0e15 203e 9fe6 993e 2e69 b4bd
000003f0: a778 76be d465 d2bd c57a dbbe d71e 63be
0.3315898 0.0490344 0.07147069 -0.15201582 0.307446 0.16817349 -0.089769766 0.21386473
0.29041737 0.05314254 0.1623498 -0.26744685 0.18748158 -0.1430401 -0.09819485 0.12215907
0.18421037 -0.16531551 -0.07345735 0.013117651 -0.012494525 0.14458339 0.53995115 -0.6324634
0.46228272 0.14949016 -0.3664664 0.09361762 -0.23356868 -0.10007091 0.18365037 0.14861485
-0.013319646 0.22450884 -0.007178663 0.017410185 0.24393502 -0.087373145 0.087554775 -0.1267303
0.062782675 0.118816294 -0.008573469 0.07288746 -0.27258682 0.14423075 -0.1099605 0.22978234
0.22549276 -0.041352935 -0.012757235 0.018720029 0.18654433 -0.03750516 0.042203087 0.10608353
-0.0017946119 -0.25158957 -0.09201982 -0.041934397 -0.06778838 0.15611272 -0.088685974 -0.110379554
-0.15610474 0.013198756 -0.24334581 -0.17788646 -0.012744344 -0.22544062 0.030071683 0.14214858
0.11760458 0.15695657 -0.03493425 -0.13540162 0.040007927 -0.025916956 0.061895844 0.19651224
0.2948819 0.11055695 -0.21683273 -0.047977455 0.2068002 -0.082769 -0.1057855 0.114834875
0.14717524 -0.34951958 0.15177587 0.08892041 0.11967083 -0.05680707 -0.26089492 0.08664867
0.12970454 0.09388961 -0.059601698 -0.13786991 -0.18990295 -0.1589581 0.31996626 0.0024865607
-0.02658772 0.028850224 0.17167643 -0.20701349 0.4131016 0.07783216 0.3069687 -0.0314255
-0.1502836 -0.06525944 -0.0793239 0.14870702 -0.16495173 -0.06816646 -0.06479166 0.11474124
0.057387203 0.011895625 0.10538346 -0.15218738 0.048593547 -0.08603465 -0.4279353 -0.18891847
0.099506214 -0.06362771 0.17380737 -0.008429212 0.26532185 0.12890464 0.29091802 0.056702197
-0.06615755 0.14087275 0.11949481 -0.104457155 -0.11424955 -0.12133311 0.015753843 0.023938196
0.19125895 0.2518552 -0.05338213 0.20810066 0.11486839 0.05617574 0.3058932 -0.23721124
-0.18729304 -0.037010744 0.26079556 0.076946 -0.008430345 0.12460541 -0.2753459 -0.0048394823
-0.17614676 -0.024603408 0.035174593 -0.04736601 0.052399714 0.13919096 -0.095416434 0.021706657
0.32253787 0.10221111 0.007018181 0.07253807 0.2635069 -0.6959413 0.07975408 -0.11613478
-0.04107007 0.087740295 0.23486914 0.051374115 -0.094315894 -0.041799854 0.25893036 0.008867312
0.0032974968 0.1722762 0.008757309 -0.030889785 -0.13013531 -0.17101842 0.0904115 -0.089756995
-0.2094351 0.23627008 0.1739957 0.17028368 0.050663218 -0.06419318 0.039245423 -0.121274024
-0.022839569 0.037610188 -0.07945764 0.5962745 0.3952854 -0.17202324 -0.07807187 0.08987538
-0.39887273 0.24966383 0.0052797077 0.110386565 0.014767049 0.4433616 0.5047117 -0.05045057
0.50451356 -0.11349504 -0.016365713 0.17977715 -0.119553596 0.12509197 -0.21791306 0.087580346
-0.2849254 -0.29147613 0.089735664 0.084335506 0.010835322 -0.2859866 -0.20229281 0.07454513
0.16860142 0.21834596 0.008049677 0.43849277 -0.07512917 0.34816095 0.22058134 0.068417326
0.06347553 0.29393613 -0.0115791075 0.20051605 0.16786939 0.028360404 0.032704778 -0.11772196
0.0737123 0.15633032 0.30058762 -0.08809124 -0.24069463 -0.102733284 -0.42867103 -0.22179733

encoder_lstm.weight_hh_l0 f4 [128, 32]
00000000: 440f 3f3e 3e72 c63d 92d9 0abe 85a5 e13e
00000010: 4432 d73d 84fa 1c3d aa37 9ebd f80c febd
00000020: 6592 7c3b 1b7d f23e 00ed d23d c197 91be
00000030: 1843 2abd 2164 12be c086 d4bd e90d dabe
00000040: 25c8 f3bb 63fb 94be 6461 393e e4b5 abbd
00000050: eec5 dc3e e33e 233e 42c7 c83e 1c32 02bd
00000060: 8b1b 46be ac3c 7cbf 9c5b 11be 8f72 97be
00000070: edfe f43d 8757 993e a004 acbe 8d6e 93be
00000080: 8910 d6bd f3a9 073e bc69 08bf 9c30 b43e
00000090: 644f 463e 9c58 0dbe 3c2c 813d e74f 29be
000000a0: 174d 993e 6197 dfbd 01e5 c03d f8d5 033c
000000b0: 5183 203e e77b 263f 6dc9 583e ae59 443e
000000c0: 13f2 9dbd 6efe 433e 5717 973e 34ad bcbd
000000d0: 1e84 4bbd c07e 0fbd 23fa 8bbd b9b9 6cbd
000000e0: 02ac b63b f291 ee3d ec0b c33c 260b 8b3c
000000f0: e0af 413e 07d6 6abe cbfc 97bd f721 aa3d
00000100: 7753 8bbe 5f7f 963e fc3e 1ebd 1764 8dbe
00000110: 9a2f 0a3e 0ae8 6fbe 3ffa 753d 801f e13e
00000120: a802 ac3e a518 4c3c 18c3 b6be aa93 313e
00000130: cb4f 8b3e ec60 553e 1347 8cbe 3f5c 403e
00000140: c596 8cbe f7f6 c13e 6bc7 d5be 1158 6e3e
00000150: e318 a1bd 4f4d f6be e33a e8bd d391 79be
00000160: ad4d 5a3e 0f0d c53d 0c3e 28bf 88e0 b0bd
00000170: 629d 16bd ed3d 81be 85ea f6be be50 063e
00000180: 955d 2bbe f03b a6be 55fa 58ba b26d c03e
00000190: 18fb 66bc ee01 6cbe 198a 9bbe 4767 1f3f
000001a0: f066 d5be afe2 13be fea4 6cbe 8eb3 d4bd
000001b0: 522c 803e 001f af3d f4ac 30be dbd6 68be
000001c0: 059c 043f c16c ec3d 1f7e 51be 64a0 a1be
000001d0: 8318 2abc 2e64 15bf 6370 b1be a22c b4be
000001e0: 3bbd 433f ce49 dc3d d673 4dbf d7e6 88be
000001f0: 3542 353c fff0 fb3e 16e0 643e 4c44 48be
00000200: e6de 053f a9cb bbbc ddf2 443e ae5e 7a3e
00000210: bde3 663e 3863 aabe 23fe 41be 4e12 cabc
00000220: efc9 9e3e 2ae8 b8bd a9df b73e 0119 153f
00000230: 261b 7dbe f94d 80bd 1371 d83e d9e5 94be
00000240: 5946 543e 1033 963c a0f6 753e 16ea cabe
00000250: e9ec a83e f0a3 893e 2aee 5fbe cfa9 083e
00000260: 7201 943d 9c56 4b3e 673c 983d 906d 2abe
00000270: d3f0 0d3f 6352 9fbb 61aa 9bbc fd14 3cbe
00000280: f764 543d 55d3 d83a 0ff8 da3e 3ef1 83bd
00000290: 32bf 743e 816b 683c 73be 3dbe b3a8 a8bc
000002a0: a452 7d3e e78e 46bd ed19 9f3e 96ad cabb
000002b0: eb05 be3e 6ad5 f23c 8110 af3e 3846 4dbd
000002c0: d885 1c3d b315 9f3b 3fb6 38be 54b3 883d
000002d0: 37ec 2f3e af0d 763e 532a 7a3e 17ad c43e
000002e0: 6a13 1fbd 23dd 5c3d 2d99 9b3e 119b 1abe
000002f0: e525 463e 4323 c33c e7d2 db3d 869d 67bd
00000300: ef68 c23c 064c adbe dd77 043f 052f 0d3e
00000310: 642c db3d eab9 39be bc6b 293f c6f9 9fbd
00000320: ff65 82be 9a3e 363e 0c34 b1bd 703a 14bf
00000330: cb3d 1e3e 7732 d93e 29fb a5bd 6564 02bf
00000340: 8a68 32be 77b2 0bbf aa66 543e 4110 07be
00000350: bebc 82bd 2d63 703e 5445 8c3e 83c7 4ebe
00000360: 820f 963d a01b 1ebe 5303 8e3d 0607 09be
00000370: 7113 74bc 35e4 ae3b de19 32be f9ed a63e
00000380: 7c1d 8fbd c04d 933d b963 8dbd 5404 36bd
00000390: 5e9a 203e 8fb2 d0bd b405 60bd 67d5 e63e
000003a0: e8f8 19be c21a 7bbe eb25 143e 8496 69bd
000003b0: 313b 8cbe 13b1 d13d dd47 d43d e5ad f53c
000003c0: 3d01 8e3e ff93 813d 3307 50be 9584 003e
000003d0: 4f88 3a3e e61b a3be 56b9 bf3d 2257 c83d
000003e0: cec4 943e dca3 dcbc 4a0e c83d 279b b0be
000003f0: 0c50 423e def5 10be e27d 733e 5f27 adbe
0.18658167 0.09689759 -0.13559559 0.44071594 0.10507634 0.038324848 -0.07725461 -0.12404817
0.0038539406 0.47361073 0.102991104 -0.28436092 -0.04156789 -0.14296009 -0.10377264 -0.42588738
-0.0074396306 -0.29098043 0.18103558 -0.08384302 0.43119758 0.15941958 0.39214522 -0.03178607
-0.19346444 -0.9853008 -0.14195102 -0.2957959 0.11962686 0.2994959 -0.3359728 -0.2879528
-0.104523726 0.13248424 -0.5328634 0.35193336 0.19366223 -0.13803333 0.06307265 -0.16534387
0.29941627 -0.10917545 0.09418679 0.00804662 0.15675093 0.6503281 0.21170588 0.19174835
-0.077121876 0.19140026 0.29509994 -0.092127234 -0.049686544 -0.035032988 -0.06834819 -0.057794306
0.005574704 0.116489306 0.023809396 0.01697309 0.18914747 -0.22933207 -0.07421263 0.083072595
-0.27212116 0.2939405 -0.038634285 -0.27615425 0.13494721 -0.2342836 0.060053106 0.43969345
0.33595777 0.012457048 -0.3569572 0.17341486 0.27209315 0.20837754 -0.27397975 0.18785189
-0.27458778 0.37883732 -0.41753706 0.23275782 -0.07866075 -0.48105857 -0.11339357 -0.24372034
0.21318693 0.09621631 -0.65719676 -0.08636576 -0.036771186 -0.25242558 -0.482258 0.13116738
-0.16734917 -0.32467604 -0.00082770485 0.3758369 -0.014097951 -0.23047611 -0.30378798 0.62266964
-0.41680098 -0.14441942 -0.23109815 -0.1038581 0.25033814 0.08550835 -0.17253476 -0.22738211
0.51800567 0.11544181 -0.20458268 -0.3156768 -0.010381821 -0.5835599 -0.34656057 -0.35190302
0.7646062 0.107562646 -0.80254877 -0.26738617 0.011063148 0.49207303 0.22351107 -0.19557303
0.5229324 -0.022924261 0.1923327 0.2445018 0.22547813 -0.33278823 -0.18944602 -0.024666931
0.31013438 -0.09028657 0.35912827 0.5824128 -0.24717388 -0.06264872 0.4227377 -0.2908161
0.2072996 0.018334895 0.24019861 -0.39631718 0.32993248 0.26882887 -0.21868196 0.13346027
0.07226838 0.19857258 0.07433396 -0.16643357 0.55445594 -0.004862116 -0.019002141 -0.18367381
0.0518541 0.0016542474 0.4276738 -0.06442498 0.2390106 0.014185787 -0.18529682 -0.020588255
0.24738556 -0.048476126 0.31074467 -0.006185244 0.3711389 0.02964278 0.3419228 -0.050115794
0.03821358 0.0048548817 -0.18038271 0.06674829 0.17179953 0.24028657 0.24430208 0.38413307
-0.038836874 0.05392183 0.303903 -0.15098216 0.19350393 0.023820525 0.10733586 -0.05654671
0.023731677 -0.33847064 0.51745397 0.13787468 0.10701826 -0.18137327 0.66180015 -0.078113124
-0.25468442 0.17797318 -0.08652505 -0.5790167 0.1545326 0.42421314 -0.081045456 -0.5093444
-0.17422691 -0.5456919 0.20742288 -0.13189794 -0.06383656 0.23475333 0.27396643 -0.20193295
0.07327177 -0.15440226 0.06934228 -0.13381585 -0.014897213 0.005337263 -0.1739268 0.32603434
-0.069880456 0.07192564 -0.06903786 -0.04443772 0.15683886 -0.10190307 -0.05469294 0.45084688
-0.15036356 -0.24521926 0.1446759 -0.05702831 -0.2738891 0.10238852 0.10365269 0.029990146
0.2773532 0.06327056 -0.20315246 0.12550576 0.1821606 -0.31857222 0.09361522 0.09782244
0.290564 -0.026933603 0.097683504 -0.34493372 0.18975848 -0.14156291 0.23778489 -0.338191

encoder_lstm.bias_ih_l0 f4 [128]
00000000: 82db e7bd 01cb cf3d faa3 5cbd cdff a6bd
00000010: 9b40 e23d 01d1 cf3e a51d a4bc c188 593e
00000020: b7cc cdbe 6426 ebbb 2c2e d23b dc95 41bc
00000030: 5a4e 0abe bd9d 22be 56aa e1bd 8622 043d
00000040: faa0 d6bd c438 1c3e 2bfe 9dbd 81e8 1fbd
00000050: 68f4 6b3d f06d d93d 9cac 7f3d f658 c03e
00000060: e852 123f 3a43 06bd 3ac1 c7bd 3eb4 0abb
00000070: 9fd8 60bc a2fc bf3d 2f91 0abd 1032 373d
00000080: 985e d53e 24f4 a43d 5247 7abe 2dd8 973c
00000090: 970b 583e 96e9 973d 9e66 8e3e a965 833d
000000a0: 8139 b1bc ee2b 66b8 dae7 cd3e 1173 2cbe
000000b0: c2b3 cc3d 281b 6abe a292 82bd c7b9 62be
000000c0: 6ab4 d83c 5ee9 adbd 6393 663e c411 ae3d
000000d0: 99ae aebd eff7 20bd e703 d4bd 8729 4c3e
000000e0: 148b b8bc 2d07 87be 312a 9abc ba0f 84be
000000f0: 9a9f 16bc e5be a93e cc0b 853d caea ed3e
00000100: a1a4 1bbe 6043 8e3e 25e1 a9be 6845 2f3e
00000110: 45ba 213e 665f e6be d3af 04be 7b0a d1be
00000120: 5ce7 dabd deb0 663e 84bf c2bd e0b7 473d
00000130: 8e10 0cbf 3004 cebe 453b f63d 35ea b9bd
00000140: 1bd3 d13d 2eee 563d 0c3f 8b3e a245 1ebe
00000150: 1037 34bd 8e67 b03d 34b8 5fbd 57bc 0c3e
00000160: 4827 1dbe 35a3 873e c8d9 e93d 5d5c 6ebe
00000170: 2918 a93e db08 81bd 8369 803c 106a 97be
00000180: 9a3b 873d 2230 9d3b 04a4 b9be ee11 053e
00000190: 8ae8 313e 995f a33d ca35 ad3d 2c74 e33e
000001a0: 33e3 debd 4fff 24bd a770 a73e 9580 2dbe
000001b0: c644 49be a654 e9bd 5cf0 b23d 9e54 4dbe
000001c0: 6c57 6e3b 7feb 553e 7962 713e 34dd 8ebe
000001d0: 5563 13be da56 b1bd 5dc6 85be dab4 8e3e
000001e0: aff7 3bbe 86c1 203d fe48 40be 7ae6 6c3e
000001f0: feff 353f ad53 9b3c 9b62 a9be 9bb7 543e
-0.11321165 0.10146142 -0.053867318 -0.08154259 0.11047479 0.40589145 -0.020033667 0.21243574
-0.40195248 -0.0071762074 0.0064141955 -0.011815514 -0.13506451 -0.15880485 -0.11018817 0.032259487
-0.104799226 0.1525603 -0.07714494 -0.039040092 0.05760613 0.10616672 0.062420473 0.37567872
0.57157755 -0.032778956 -0.09753652 -0.0021164562 -0.0137235215 0.09374358 -0.033829864 0.044725478
0.41673732 0.08054379 -0.24441269 0.018535698 0.21098171 0.074176 0.27812666 0.064158745
-0.021633865 -5.4877186e-05 0.4021595 -0.1684077 0.099952236 -0.22861922 -0.06375624 -0.22141181
0.026453216 -0.08491777 0.22517161 0.08499482 -0.085293956 -0.039298948 -0.10352307 0.19937716
-0.022527255 -0.26372662 -0.018818947 -0.25793248 -0.009193325 0.33153453 0.06496391 0.46468192
-0.1519952 0.27785778 -0.33179584 0.1711632 0.15793712 -0.44994658 -0.12957697 -0.40828308
-0.106886595 0.22528407 -0.09509185 0.04875934 -0.5471276 -0.4023757 0.120230235 -0.090778746
0.10245343 0.05247324 0.27196538 -0.1545625 -0.043997824 0.086135015 -0.05461903 0.13743721
-0.15347016 0.26491705 0.114184916 -0.23277421 0.33026245 -0.06300517 0.015675312 -0.29573107
0.06603165 0.0047969976 -0.36257946 0.12995121 0.17373863 0.07977218 0.08457525 0.4442457
-0.108831786 -0.040282544 0.32703134 -0.16943581 -0.19655141 -0.113930985 0.08737251 -0.2005181
0.0036368025 0.20890616 0.2357272 -0.2790314 -0.14393361 -0.08659144 -0.26127902 0.27872354
-0.18356203 0.03924706 -0.18777844 0.23134795 0.7109374 0.018960798 -0.33083043 0.20773165

encoder_lstm.bias_hh_l0 f4 [128]
00000000: 5049 043e cc26 8bbd 8543 0ebe 14a4 d4bd
00000010: 8947 223e 65c0 063e b48e 643e 9260 a53d
00000020: 52fe 0cbe 61f9 a1bd a3ef 8fbd 3618 52be
00000030: 7bad 58be 7602 173c 7291 4dbe 3ebb 6f3d
00000040: 6db1 73be 8ed6 ef3d 289f 06be 18c7 febd
00000050: a7df 90bd 4464 9b3d bb72 843d 52fb 8c3e
00000060: c829 f93e f394 673e 6681 8ebe 1e23 233c
00000070: 33bf 143e 68d5 04be 87ca 89be 4523 9e3e
00000080: 0a52 9f3e 9053 683e 3876 8abe b81e e0bd
00000090: 62a6 163d 3992 263d 49ff 153e 7079 023d
000000a0: 0bbe 263e 304b 253e 6571 d03e 5c5b 48be
000000b0: 8e8b 603e 85f2 54be adf1 753e 7022 84be
000000c0: 0040 49be e537 b5be 5f0d 613e 79db 57bd
000000d0: 8f9e 5fbe 8286 713d 2ba4 19be 1499 483e
000000e0: b555 923d 2943 babe 6805 2fbe 890e eebe
000000f0: 08d9 9d3e 3d43 dd3e f561 843e 3ca9 a43e
00000100: 5036 8a3d 2744 f73d 33ad fdbd c4e2 ccbd
00000110: 8232 a8bd b3f8 babe d341 02be 4fad afbe
00000120: b8d9 1b3e 0e21 023e 3ea6 083d 8ed0 f13d
00000130: 12bc 07bf 5478 36be df6d 4f3e ccc2 d3bc
00000140: 1f87 0e3e 64b7 33be c6c2 ac3e 8689 babe
00000150: e5be 253d e565 ebbd bda9 03be d6d8 c13e
00000160: 4a01 69be ea6e cd3d 0762 663d d009 36be
00000170: 8d50 a43e 0779 a2be b014 9ebe fa6b d5bd
00000180: e4d3 563d b4a0 563e 6cad 3cbe 396b a73e
00000190: 7528 163e 0ba2 6c3e 7445 273e 1d3b ae3e
000001a0: 2ee3 7cbe 12b2 47be c260 f53d 9ee3 a83c
000001b0: 8191 e83d f5bc 0cbe fb45 363e 8692 c6bd
000001c0: a269 8cbe 7594 d33e e6ef 333e 8fe5 c7bd
000001d0: 0306 84bd db9f c7bc aa3c 17be f0b3 fd3d
000001e0: 8eef 99bd adda 8c3d 722e 83bd fdd8 b43e
000001f0: 9bbc 2d3f 9a5a a93b 8e29 4bbe 8a0a 5e3e
0.12918591 -0.06794509 -0.13892944 -0.10382858 0.15847601 0.1315933 0.22320062 0.0807506
-0.1376889 -0.079088934 -0.07028129 -0.20517048 -0.21159928 0.009216895 -0.20075014 0.058528177
-0.23798151 0.11710845 -0.13146651 -0.12440318 -0.07073908 0.075874835 0.064671956 0.27535492
0.4866469 0.22615413 -0.27833098 0.009957103 0.14526062 -0.12972033 -0.2691233 0.30886284
0.31117278 0.22688127 -0.2704332 -0.10943359 0.03677977 0.040666793 0.14648165 0.031854093
0.16283433 0.16141963 0.40711513 -0.19566101 0.21928236 -0.20795639 0.24017973 -0.25807524
-0.1965332 -0.35394207 0.21977757 -0.05269954 -0.21837829 0.058966167 -0.15004031 0.19589645
0.071452536 -0.36379364 -0.17091906 -0.46495464 0.30829644 0.4321536 0.25855985 0.32160366
0.067486405 0.12073546 -0.12386551 -0.100041896 -0.082127586 -0.36517867 -0.12720422 -0.3431191
0.15219772 0.12707922 0.033361666 0.11807357 -0.5302135 -0.17819339 0.20256756 -0.025849722
0.13918732 -0.17550427 0.3374235 -0.36433047 0.040465254 -0.11494044 -0.12857719 0.37860745
-0.22754398 0.10030921 0.05624583 -0.1777718 0.32092705 -0.31732962 -0.30875158 -0.104209855
0.05244817 0.20959741 -0.1842553 0.32698992 0.1466387 0.2310869 0.16335088 0.34029475
-0.24696037 -0.19501522 0.11981346 0.020616349 0.11355878 -0.13743956 0.17800133 -0.09695916
-0.2742434 0.413242 0.17571983 -0.09760582 -0.06446459 -0.024368217 -0.14769235 0.12387836
-0.075163946 0.068776466 -0.06405343 0.353218 0.67865914 0.0051682713 -0.1984007 0.21683708

encoder_lstm.weight_ih_l1 f4 [128, 32]
00000000: 0d2b ad3d 97a2 21be 1308 803e b631 52be
00000010: ca3e 9c3e 2ac7 763c 6312 96be 8c46 b13e
00000020: 770d 08be df36 8bbd 288e 143e a618 82bd
00000030: cb40 34bd 0a55 b0be 1b39 f1bc ae49 50bd
00000040: c8a1 a0bd 3483 8abe bc35 e7be 0f34 993c
00000050: c010 223e fd81 543e 969c e73c 4d12 ccbc
00000060: b71a be3e a1e2 3fbe ea3d e03e d3ab c2be
00000070: 5e15 b83e d755 59be 4265 ac3b 6361 06bd
00000080: 72e5 483e a306 7abd 31d1 933d d684 9f3d
00000090: 3652 e83e 95dc abbe b1d0 9cbe e01c 8f3e
000000a0: e63b e3bd 53ed 6bbe 924f 053d bf83 d43c
000000b0: dd88 783e c880 04bd 6f64 19bd 17b3 093d
000000c0: 77df 0bbe 5766 54be af40 183e 1342 b7bd
000000d0: 6d08 5e3e 7495 8bbe 7ec8 58bd 21f6 143e
000000e0: 3c49 cc3e ac34 04be 2135 57be 16fe acbc
000000f0: 8a9b 983e f152 fbbc 027b b7be e17d 793c
00000100: 3835 04be 6b61 5c3e 40a1 96bd 21f7 ac3e
00000110: 3d5f 873e 0a18 db3e 50cf 883e 4aa7 cd3e
00000120: b2c3 653b f5aa 0a3e 293f 163d 0742 c6bd
00000130: 5d65 c5bd f270 b6bd 613f 753e 6800 b6bd
00000140: 54fa 583d 47b7 e93d 849d 4c3d d394 a63d
00000150: c7b8 5e3e 726f dcbe d5dd 70be 078c 89be
00000160: eaed 2cbe 909f 89bd 6ca0 a1be bbd4 8f3e
00000170: 40a6 a43c 269f 01bf 67b7 41be 4669 463e
00000180: 8ac0 6a3d c522 9a3e 27ae 3dbe 55c7 413e
00000190: cfc3 f63e ed9b 3ebd 6b34 00be 1ffd 173d
000001a0: f70b 34be 1373 2dbd 477e 723e 349a f5bd
000001b0: 60ad 193f 63fe 24be 3e1c 813e 90d9 fa3d
000001c0: 5b9f 66be af20 d73c d4d5 863d 23bc 71be
000001d0: 4125 cd3b 5e08 fbbd 2e7c cf3d d83a 783e
000001e0: 13cc 033e 47f3 033e 415d f9bd 0f23 543e
000001f0: ebfa 093f fdc9 a7be ae52 5a3e 7029 643e
00000200: 0b96 e93d 2fb7 9a3e 3d98 41be dee6 b93d
00000210: 0e0b 463e 7dd2 b63d 917b 6abe d8a7 bfbe
00000220: aa3e 3abf 12e4 43be 3d5f af3e 032f 9cbd
00000230: 51ed 57bd ccae e7bd 7866 733e 7194 113d
00000240: 6215 abbd dfab a93c 0f72 c33d 1513 d33d
00000250: 7928 46be 83a7 67be e186 6abe c22d 393e
00000260: faaf 3c3d 22ba a03d d76f 00be 5844 173d
00000270: 97d4 fd3d e217 e0be 8c74 403e ca16 a33e
00000280: e796 f7bc 37f3 423e 8d25 0cbe 8da3 da3c
00000290: 0445 d7bc 0674 f53d f88b 303e fa9d debc
000002a0: 03e7 8abd 2217 b2be 3e05 9bbd 2d76 913d
000002b0: 9233 023e 244a bbbd 809b 0dbe b340 533e
000002c0: 0efe a0bd cc78 8a3e bff7 c53e 556f 843e
000002d0: 219f 33be 10f2 f8bd ce1d a53c 4ff6 da3c
000002e0: 1cc8 4cbe c321 d83d 262d cb3d 902c 773e
000002f0: a843 7fbe 2e6a c63d 4062 1cbd e4fa 9f3d
00000300: 344e 933d 9fd8 053e d4e3 83be 5665 e03e
00000310: 141a 5dbe 6dc4 833e 7679 18be a505 533e
00000320: c73c e1bc 4971 433d c040 293e 5012 e23d
00000330: 6942 303c 9683 643d d6c8 0d3d adf1 4cbe
00000340: 4b66 9c3e 0f15 7bbe ce81 86be 17f1 a83d
00000350: b3c8 9dbb 12e4 8a3c bfa0 d5bd 1c36 3a3e
00000360: cd05 173d da02 59bd 4fd2 793d 7239 84be
00000370: db01 f6bd 459a 6a3e 4225 703e 7a83 d4be
00000380: 68a8 05bd a8a8 9a3e ea66 79be 1080 de3e
00000390: 83e5 e93d cbbb 833e d8f3 8e3e 084c 5c3e
000003a0: 0387 c5be 085d c3bd f46f f5bd 98b4 923c
000003b0: 1d07 84bd 4d9e 19bd efa6 c6bd 9e8d fdbd
000003c0: de8e 203e 904f f8bd b20f cdbd d200 ebbd
000003d0: 846c 19bc 96b5 ccbd cc1b 56bd 00ee 97be
000003e0: e821 113e c64d 8d3d 5316 45be 80cf 883d
000003f0: 86f8 0b3e 11da 0bbe 7148 c13e 1419 2c3e
0.08455477 -0.1578468 0.2500616 -0.20526776 0.30516654 0.015062133 -0.29310903 0.34624135
-0.13286386 -0.06797575 0.14507353 -0.063523576 -0.044007104 -0.3443988 -0.029446175 -0.050851516
-0.07843357 -0.27053225 -0.45158184 0.018701581 0.15826702 0.20752712 0.028272908 -0.02491107
0.37129757 -0.18738796 0.43797237 -0.38021716 0.35953802 -0.21224152 0.0052610943 -0.03280772
0.19618776 -0.061041486 0.072176345 0.07789008 0.45375222 -0.33566728 -0.3062797 0.27951717
-0.11095409 -0.23039751 0.032546587 0.025941728 0.24270959 -0.032349378 -0.037449297 0.03361806
-0.13659464 -0.20742165 0.14868425 -0.089481495 0.21682902 -0.2726246 -0.05292558 0.14547016
0.39899623 -0.12910718 -0.21016361 -0.021117251 0.29806167 -0.030679198 -0.35836035 0.015227766
-0.12910926 0.21521537 -0.07354975 0.33782294 0.2643985 0.42791778 0.26720667 0.40166694
0.003505927 0.13541777 0.036681328 -0.096805625 -0.09638474 -0.08908261 0.23949958 -0.08886796
0.052973107 0.114119105 0.049954906 0.08133855 0.21750174 -0.43053776 -0.23522122 -0.26864645
-0.16887632 -0.06719887 -0.31567705 0.28091988 0.020098805 -0.50633466 -0.18917619 0.19376096
0.057312526 0.30104652 -0.18523465 0.18923695 0.48196265 -0.04653542 -0.12519996 0.03710663
-0.17582689 -0.04234607 0.23680983 -0.119923025 0.60030174 -0.16112666 0.2521686 0.12248528
-0.22521727 0.026260702 0.06583753 -0.23606925 0.0062605445 -0.12257455 0.10131107 0.24241197
0.12870817 0.12885772 -0.1217599 0.20716499 0.53898495 -0.32771292 0.21320602 0.22281432
0.114055716 0.30217883 -0.1890573 0.090772375 0.19340155 0.08926866 -0.228987 -0.37432742
-0.7275187 -0.1912997 0.3425235 -0.07626154 -0.052716557 -0.11312637 0.23769557 0.035541955
-0.08353688 0.020711837 0.09543239 0.10306374 -0.19351377 -0.22622494 -0.22903015 0.18083861
0.04606626 0.07848002 -0.12542664 0.036930412 0.12394064 -0.4376822 0.18794459 0.31853324
-0.030223323 0.19038092 -0.136862 0.026689315 -0.026278026 0.1198502 0.17240894 -0.027174938
-0.06782343 -0.34783274 -0.07569359 0.07102618 0.12714985 -0.091450006 -0.1382885 0.2063015
-0.07860957 0.27045286 0.38665578 0.2586619 -0.17541172 -0.12155545 0.020155814 0.026728777
-0.1999821 0.105533145 0.09920721 0.24138093 -0.24928153 0.09688221 -0.038179636 0.078115255
0.071926504 0.13070916 -0.25759757 0.43827313 -0.2159198 0.25735798 -0.14890084 0.20607622
-0.027494801 0.04771546 0.16528606 0.11038649 0.010758021 0.055789553 0.03461536 -0.20014067
0.30546793 -0.24519752 -0.26270908 0.08249109 -0.004815185 0.016954456 -0.104310505 0.18184704
0.036870766 -0.052981235 0.06099158 -0.25825077 -0.12012073 0.22910412 0.23451713 -0.4150656
-0.032631308 0.302068 -0.24355665 0.4345708 0.11420729 0.25729212 0.27920413 0.21513379
-0.38579568 -0.09539229 -0.11984244 0.01790838 -0.06446669 -0.037504483 -0.09699809 -0.12380527
0.156795 -0.1212455 -0.10012759 -0.11474766 -0.009364251 -0.09995572 -0.052272603 -0.29673767
0.1417309 0.068996 -0.19246797 0.066802025 0.13669023 -0.13657404 0.3775058 0.16806442

encoder_lstm.weight_hh_l1 f4 [128, 32]
00000000: df48 73bd ec90 3bbe f1e1 86be aa28 19bb
00000010: 1435 90be 348a fe3d 581d e03d 2cc3 6bbe
00000020: 0ecf d8bd 744b 103d 110e 743e 2647 3e3e
00000030: 399b a9bd cfd1 f6bd 3025 6e3e 5042 06be
00000040: f7a6 81be f9db 843e 90f5 40be 9315 c73d
00000050: 7cf5 aa3d 8b04 58be ee51 44bb ac3b 0b3e
00000060: 022d 073e db75 92be 3064 8e3d f5aa 783e
00000070: 720a 4bbe ad96 403e 3416 f93d a3c3 b2be
00000080: c0c7 273e b99b 2ebe 6f5c e93d da77 a7bd
00000090: ff51 35be 5e12 773e 60cd 28be 7027 0f3c
000000a0: 773f 953d e007 cdbd d33f 4abd 13f6 0c3e
000000b0: fb7a 2a3d a2aa 1e3d 7e55 073e 953a f1bb
000000c0: cef6 8b3e 34d9 f43d ce9a 2ebe 72ba 923d
000000d0: c1da 883c aa7e eb3d 535f 143d 0b64 cabc
000000e0: ec07 80bd 8329 873e 8dc7 bc3c 8e04 0d3e
000000f0: 23c9 db3d 09cb a7bc 1206 8f3d 4305 4d3e
00000100: 83e7 3cbe 3f8f 91bc 3df3 7ebe 06ce 1dbe
00000110: 73ef 84be be41 013e 4300 85be f8c5 bdbb
00000120: 8e18 743e ae99 eb3d 510a 473e edf8 7bbe
00000130: baf1 0d3e a809 063e cd8f 40be 6bd1 d83e
00000140: 1e2e f43e 3f49 97bd 1895 0a3e 2172 3cbe
00000150: 5703 a53d 8a64 10bd 2c22 ed3d 0a51 84bd
00000160: 2189 dbbc 017f b73d 1eb1 423d a7e5 d0bd
00000170: 2bdc 2c3e f1b8 27be cf3d 32bd a847 d9bc
00000180: 5ab1 70bd 404c 5c3e f1da 2b3d 55a3 8bbe
00000190: fce7 3e3e 99a9 a6be 4a24 22be 130b 55be
000001a0: b690 a63e 3129 e5bd 501e ec3a 37c8 fabc
000001b0: 77e8 cc3d 0761 1f3e f734 7f3e 3f00 76be
000001c0: 5bb1 e93d 58e2 ad3d 9102 b4bd f9ad 8fbe
000001d0: 2f73 593e f0a6 3a3e 6a5d 5c3d b142 573d
000001e0: 025f 5e3e 0cf6 5c3e c266 973d c86e 47be
000001f0: 40cf cdbd 289a 1abe cbc1 d6bc 5c65 8a3e
00000200: 7abd 29be db55 b5be 39b6 12be 527f 883d
00000210: a097 c23b 68db 7cbe 43dc c93b 1989 74bd
00000220: 97fa 663e 9387 3bbd 5b62 08be 83c4 55be
00000230: 46be 1dbe df88 be3e 207a 15bd 1254 313d
00000240: f798 083f 9806 08be 5841 d43d 73e0 32be
00000250: 4d84 483b ed57 9abd ecd4 52be 3e2c 9b3d
00000260: 32e5 36be fae2 5f3e fc40 0dbd 407f 28bd
00000270: cbeb cb3b 9dbd 07be 9d76 223c 17fc 353e
00000280: 7f5e 1abe 4cd9 39be 52a7 ecbc 359f d3bd
00000290: 2a1e 8b3d 8aa7 91be db67 c3be b74f aa3e
000002a0: b64b ca3e 6423 8d3e 3daf 083d becb fcbd
000002b0: c987 1c3e 792b a43d 8b41 c2bd 5161 803d
000002c0: f228 893e 4288 bbbe 0e9f 083e ad86 14bd
000002d0: 2ecf b9bd c140 1f3e 58e1 3dbd 05da 23bd
000002e0: 8ee3 39bc ff77 8f3e 0be1 133e ead3 b5be
000002f0: 1809 e7bd 26a4 8dbd beba b4be 8f06 dcbc
00000300: c033 773e 681e 36be 15a9 2d3d 08bf 11be
00000310: c776 abbe dd93 9e3e c304 bc3d 04f1 063e
00000320: 576d 8abe 1ecc b73c 3d97 4f3e 50f5 1bbc
00000330: ba93 763e f679 31bd 1925 51be 9af6 1f3d
00000340: dc26 e0bd 15cb 0dbe bf15 c6bd f70a 173e
00000350: 5488 1e3d 801c a43e 979d 493e 2ff6 dbbd
00000360: 9bbd 86be 4edc 733a 6847 e6be bb7c 4b3e
00000370: 0f4d 503e ef36 13be 6cef af3e 6651 e13c
00000380: 0493 95be 9f88 55be c675 babd c1ac 473e
00000390: f768 54be 0434 973e 2462 993b 5228 0dbe
000003a0: a98e c0bd d350 5abe 0c94 933b 9c3f 80be
000003b0: e4be 1d3d b432 9fbd c974 8fbd 9f77 733d
000003c0: bd0c d23d 41b6 103c 4c6a 433d f4ef 3e3e
000003d0: dbd6 7bbd d520 99bd 3dfc 763d 8d2b 0c3d
000003e0: 1ca2 fa3d 8ca5 853b 97ff c3bd 3f8e d2bd
000003f0: ae2e 95be 7962 4a3e 7804 4d3e 03a7 b4be
-0.059395667 -0.18317002 -0.26344255 -0.0023370185 -0.28165495 0.12428704 0.10943097 -0.23023671
-0.105863675 0.035228208 0.23833491 0.18581828 -0.082815595 -0.120517366 0.23256373 -0.13111234
-0.25322697 0.25949076 -0.18843675 0.09720912 0.08347604 -0.21095483 -0.002995606 0.13596982
0.13200763 -0.28605542 0.06952703 0.24283965 -0.19828203 0.18807478 0.12162438 -0.34914884
0.16384792 -0.17051591 0.113945834 -0.08177157 -0.1770706 0.241281 -0.16484594 0.00873743
0.072874956 -0.10011268 -0.049377274 0.13765745 0.04162119 0.038736947 0.13216206 -0.00736172
0.27336735 0.11955491 -0.17051241 0.07164468 0.016705872 0.11498769 0.03622372 -0.024705907
-0.06251511 0.26398858 0.023044372 0.13771269 0.10731723 -0.020482557 0.0698358 0.20021538
-0.1844769 -0.0177685 -0.24897476 -0.15410623 -0.25963935 0.12622735 -0.25976762 -0.005791422
0.23837492 0.115039214 0.19437529 -0.24606676 0.13861743 0.13089621 -0.18804856 0.42347273
0.47691435 -0.073870175 0.13533437 -0.18402912 0.08057278 -0.03525213 0.115787834 -0.064607695
-0.026798787 0.08959771 0.047532193 -0.10200053 0.16880862 -0.16379143 -0.043515977 -0.026523426
-0.058762886 0.21513462 0.041956846 -0.2727305 0.18643183 -0.32551268 -0.15834156 -0.20805006
0.3253228 -0.11189497 0.0018014405 -0.030613048 0.10005277 0.15564357 0.24922548 -0.24023531
0.11410781 0.08490437 -0.08789552 -0.28062418 0.21235345 0.18227744 0.053800024 0.052553836
0.2171593 0.21578234 0.07392646 -0.19475853 -0.100492954 -0.15097868 -0.026215455 0.27030456
-0.16576186 -0.35417065 -0.14327325 0.066649094 0.0059384853 -0.24693072 0.0061602904 -0.05970106
0.2255653 -0.04578359 -0.1331877 -0.20875745 -0.15404615 0.372138 -0.03649342 0.043293066
0.53358406 -0.13283765 0.10364026 -0.17468433 0.0030596436 -0.07536302 -0.20589036 0.07576798
-0.17860869 0.21863928 -0.034485802 -0.04113698 0.006223177 -0.13255925 0.009915975 0.17771946
-0.1507511 -0.18149298 -0.028888378 -0.10333101 0.06792863 -0.28448135 -0.38165173 0.33263943
0.39510888 0.27566063 0.033370245 -0.12343548 0.15286173 0.08016104 -0.094851576 0.06268562
0.2678905 -0.36627394 0.13341925 -0.03626125 -0.090727195 0.15552045 -0.046357483 -0.04000284
-0.011345757 0.28021237 0.14441316 -0.3551324 -0.11281031 -0.069160745 -0.35298723 -0.026858596
0.24140835 -0.17785037 0.042397577 -0.14233029 -0.33489057 0.30972186 0.09180596 0.13177878
-0.27036545 0.022436198 0.20272537 -0.009518936 0.2407979 -0.0433292 -0.20424308 0.039053537
-0.10944912 -0.13847001 -0.096721165 0.14750277 0.03870423 0.32052994 0.19689022 -0.10740315
-0.26316532 0.00093025423 -0.44976354 0.198718 0.20341896 -0.14376424 0.34362352 0.027504634
-0.29213727 -0.20852898 -0.09104495 0.19499494 -0.20743166 0.29531872 0.0046808887 -0.13784912
-0.0940221 -0.21319894 0.0045037325 -0.2504853 0.038512126 -0.07773343 -0.07004697 0.05944025
0.10256336 0.008832515 0.047708794 0.18646222 -0.0614842 -0.07476965 0.060299147 0.03422122
0.12237951 0.0040785726 -0.09570234 -0.102810375 -0.29137176 0.19764127 0.20021236 -0.3528367

encoder_lstm.bias_ih_l1 f4 [128]
00000000: fa2c 84bd bfc2 0fbe 3f29 9bbe cc14 07be
00000010: 415e 2bbc eca5 033e 96f9 183e 47dc ab3b
00000020: 3412 46be 21db 85bd 6139 9b3e 6299 cfbd
00000030: 0cfe aa3d 90fd 4b3e d11f bc3c a927 08be
00000040: 1941 133e 621b 06be e444 66bd 23fd 413c
00000050: b8da 453d d143 24be 65fd 69be 0195 6cbe
00000060: 33cb 233e 47c2 163d 09b8 43be 71dc e63d
00000070: a7fd a4bd 506b 0dbe 35da 703d b624 1dbd
00000080: fa08 1f3e 7e37 8fbd 2c7e 913e 711d ec3d
00000090: f026 43bd 4e57 303e 5d59 873d 7166 09be
000000a0: b6bc be3e 60f1 82be 1300 913e 4a79 813e
000000b0: ce8c 883d 4f7d 593e 358b b63e e05b 03be
000000c0: 7aca 5fbe 628f 8c3e 7fd3 b13e bb78 fbbb
000000d0: 700c 9ebd 8ae0 0d3d e3a9 0e3e 7683 57bd
000000e0: d80f 3f3e 4af4 873e bf0e 0cbe cf66 d13e
000000f0: 4220 c73e e98b 7abc df8e 7cbd 77e2 be3d
00000100: ba4f cd3d fe8b 1bbe 76b3 2fbd 377c f93a
00000110: 6062 bdbd 87de 00bd 02da 79bd 44cc 3bbd
00000120: a31f 43be 38f7 9d3b 6c78 6e3e d4c6 753e
00000130: 6349 a23d 129c 92bd 789b 06be c1d0 2f3e
00000140: db8e 90bd 47ee 303e 5a05 08be b49f 4d3d
00000150: aee0 123c 1858 6c3d 99a8 af3d 61d8 38be
00000160: 6a50 c83d 58aa ff3a 1f01 1ebe e107 7cbd
00000170: 469e 793d c80c f53c 7f19 213d 74b5 a5bd
00000180: 4bf6 d6bd 088e db3d 7f76 033c 1e49 203e
00000190: 90e6 fd3d 6b3c 43be 481f 493e a51e 74bd
000001a0: f724 153e 36b9 23be 84b0 6c3d 0783 593e
000001b0: c53e 9d3c 7445 ddbb 039e 6dbd be94 2d3e
000001c0: 17a6 c5bd 9f96 563e 69cf 493e aad1 1d3e
000001d0: 8309 e73d 83b7 6d3e 835a 453e 6c03 3fbe
000001e0: 1340 163d 72f0 2cb8 d002 cd3d 8629 583e
000001f0: bd75 33bd d4b8 a7bd 104d 723b 7a83 b4bd
-0.06453891 -0.14039133 -0.30304906 -0.13191527 -0.010459484 0.12856263 0.1493896 0.005244765
-0.19342881 -0.06535936 0.30317214 -0.10136677 0.08349237 0.19920945 0.02296439 -0.13296379
0.14380302 -0.13096383 -0.056218043 0.011840138 0.04830429 -0.16041495 -0.22850569 -0.23103715
0.15995483 0.03680637 -0.19113173 0.112725146 -0.08056193 -0.13810468 0.05880185 -0.03836509
0.15530768 -0.06993006 0.28416574 0.11529053 -0.047644556 0.17220804 0.066088416 -0.13417985
0.3725335 -0.2557478 0.2832037 0.2528785 0.06667481 0.21239208 0.35653082 -0.12828016
-0.21854582 0.27453142 0.3473167 -0.0076743043 -0.07717216 0.034637965 0.13931994 -0.052615605
0.18658388 0.26553565 -0.136775 0.4089875 0.38891798 -0.015292146 -0.06165969 0.093205385
0.10024972 -0.15190122 -0.042895757 0.0019034211 -0.09247279 -0.03146222 -0.060998924 -0.0458491
-0.19055037 0.0048207305 0.23288125 0.24001628 0.07924154 -0.07158674 -0.13145244 0.17169477
-0.070584975 0.17278396 -0.13283291 0.050201133 0.008964701 0.0577012 0.08577079 -0.18051292
0.09780963 0.0019505722 -0.15430115 -0.06153095 0.060941957 0.029913321 0.039330956 -0.0809125
-0.104961954 0.1072045 0.008023857 0.15652892 0.12397492 -0.19066016 0.19640839 -0.059599537
0.14564882 -0.15988621 0.057785526 0.21241389 0.01919497 -0.006752664 -0.05801202 0.16951272
-0.0965082 0.20955895 0.19708027 0.15412012 0.11281111 0.23214535 0.19272809 -0.18653649
0.0366822 -4.1231928e-05 0.10010302 0.2110959 -0.043813456 -0.0818955 0.0036972202 -0.0881414
