W3-Design/checkpoints/epoch_10.pt (torch, 384725 bytes, 24 tensors)

encoder_cnn.0.weight f4 [32, 3, 3]
-0.1390312 -0.008578259 -0.13942127 0.2685972 -0.22196738 0.25382817 0.17344491 0.21636197
0.21825899 0.022979591 0.047523346 -0.06784652 -0.052474532 -0.086056255 0.14739542 -0.050521888
0.3593618 0.02472519 0.08705452 0.24228866 0.49328512 0.2043195 0.30343395 -0.27730036
-0.13964936 0.12633637 -0.07380638 0.014119246 0.17809457 -0.13443252 -0.018692829 0.015730869
-0.034441438 0.09195404 0.1798664 -0.061962366 -0.10036565 0.12994745 -0.06954097 0.44660074
-0.12082571 0.35240084 0.027675694 0.11969434 -0.34703013 -0.05578596 -0.13461676 0.281069
-0.24121234 -0.2065993 0.054159123 0.2510546 0.3128682 -0.25058037 -0.1427429 -0.1517193
0.1931565 0.15703404 0.0971068 -0.1358567 -0.030745586 0.12985313 -0.29022303 0.044282828
-0.13600844 0.22838894 0.34394932 -0.23015925 -0.3329686 -0.020526879 -0.03298891 0.42418313
0.021217968 0.14056277 -0.09415048 -0.0942667 -0.27518472 0.37922266 -0.30164683 0.23042388
-0.031773623 -0.0657473 0.23373383 -0.15912756 0.3055983 0.026269408 -0.18268478 0.13661891
0.15502167 0.047603223 -0.110507034 -0.0042401515 0.046441235 0.22925748 -0.3309418 -0.36188325
-0.27163932 0.108827725 -0.13114953 -0.032594245 0.042348567 0.26369584 0.016578361 0.27825367
0.004421849 -0.29557413 -0.36944935 0.0055032643 -0.16419427 0.21469639 0.11930003 -0.10630657
-0.38521627 -0.47921973 0.34651452 -0.056081902 -0.24142747 0.09943422 -0.10094208 0.22660379
-0.02010401 -0.32459125 -0.24800028 -0.18195482 -0.32742628 -0.31946322 -0.1506063 -0.2260898
-0.16057499 0.33888412 -0.029069774 -0.20846635 0.12805249 0.18093805 -0.13228124 0.44384804
0.23265435 -0.059227813 -0.34024274 0.08377906 -0.12938072 -0.36551425 -0.014000133 -0.045537338
0.19654268 -0.18103115 -0.33804592 0.13886184 -0.07023837 -0.13480803 0.16977236 -0.17416403
0.13407508 0.09372544 0.3124311 0.07377445 0.18066508 -0.41964132 0.27556002 -0.12566839
-0.37207747 -0.09333941 0.22284028 0.15891619 -0.19317828 -0.20964745 -0.512885 -0.19447665
0.06338724 -0.30153337 -0.10936512 -0.15254728 0.123337634 0.08341532 -0.24309066 -0.39911488
0.115481496 -0.32212314 -0.0036341446 0.128112 -0.05500562 -0.077889845 -0.098517165 -0.081587166
0.31627545 0.11578256 0.25581023 0.22523865 -0.12400406 0.3530137 -0.095713966 -0.04318642
-0.16425313 0.22250761 0.06667371 -0.13816394 -0.44735482 -0.33482376 0.10777024 -0.4208511
0.06510669 0.07827488 0.16710891 -0.105860464 -0.053400386 -0.15238905 -0.24260552 0.1889417
-0.22460563 -0.19871016 -0.12622921 0.040147137 -0.03281301 0.10323463 0.2055983 0.28153133
0.095728934 0.17064373 -0.112491444 0.101631455 0.019463958 -0.22120427 -0.04850197 -0.010967083
0.04157666 0.3150298 0.03616664 0.3592974 0.19580632 0.2087005 -0.035874058 -0.2512581
0.11408149 0.35924864 -0.4161343 -0.029355008 -0.16909322 0.36025593 0.19065271 -0.17224945
0.33542052 0.0075404635 -0.08910729 -0.2255819 -0.038034786 -0.09594424 -0.10980599 -0.09499254
0.25579575 -0.15179929 0.30675772 0.12802383 0.3006813 -0.055586096 -0.030728377 -0.057721443
00000000: 325e 0ebe d38b 0cbc 73c4 0ebe 9285 893e
00000010: 6b4b 63be c4f5 813e 8b9b 313e fe8d 5d3e
00000020: 497f 5f3e b23f bc3c d7a7 423d 1ef3 8abd
00000030: 89ef 56bd 433e b0bd d3ee 163e 0af0 4ebd
00000040: 45fe b73e 7b8c ca3c a449 b23d 851a 783e
00000050: de8f fc3e 2239 513e b25b 9b3e 50fa 8dbe
00000060: 3e00 0fbe 525e 013e cd27 97bd 6954 673c
00000070: 6c5e 363e aea8 09be b421 99bc 06de 803c
00000080: 7712 0dbd 6652 bc3d e62e 383e 40cc 7dbd
00000090: 828c cdbd f210 053e 7f6b 8ebd daa8 e43e
000000a0: 7873 f7bd e26d b43e 23b8 e23c 4e22 f53d
000000b0: efad b1be d27f 64bd fad8 09be 47e8 8f3e
000000c0: 5e00 77be c48e 53be f5d5 5d3d 3b8a 803e
000000d0: 4330 a03e 124c 80be 322b 12be 4e5c 1bbe
000000e0: d1ca 453e 88cd 203e eedf c63d 051e 0bbe
000000f0: 2bde fbbc 38f8 043e 1d98 94be e961 353d
00000100: cc45 0bbe cade 693e 201a b03e deae 6bbe
00000110: dc7a aabe fc27 a8bc 611f 07bd 882e d93e
00000120: 4ed1 ad3c b0ef 0f3e f8d1 c0bd e60e c1bd
00000130: 03e5 8cbe 7929 c23e 7471 9abe 3df4 6b3e
00000140: 0f25 02bd 85a6 86bd ec57 6f3e 56f2 22be
00000150: 6177 9c3e f132 d73c b811 3bbe d4e5 0b3e
00000160: 00be 1e3e 99fb 423d 8351 e2bd f8f0 8abb
00000170: 2a39 3e3d 79c2 6a3e 3471 a9be c348 b9be
00000180: 4f14 8bbe 12e1 de3d 104c 06be 8b81 05bd
00000190: b175 2d3d 2403 873e 58cf 873c 4477 8e3e
000001a0: 28e5 903b 7e55 97be 7728 bdbe ba54 b43b
000001b0: 8b22 28be 5fd9 5b3e 9353 f43d 42b7 d9bd
000001c0: 113b c5be 4a5c f5be 5a6a b13e 23b6 65bd
000001d0: c338 77be 2ba4 cb3d b9ba cebd d30a 683e
000001e0: 2ab1 a4bc d330 a6be c9f3 7dbe 5d52 3abe
000001f0: 6ba4 a7be af90 a3be 8a38 1abe 1684 67be
00000200: c56d 24be 3882 ad3e bc23 eebc 3478 55be
00000210: 3120 033e d347 393e bc74 07be 0d40 e33e
00000220: f13c 6e3e dd98 72bd 4c34 aebe 5b94 ab3d
00000230: 617c 04be af24 bbbe d060 65bc 5c85 3abd
00000240: 7c42 493e 3b60 39be 5b14 adbe cc31 0e3e
00000250: 22d9 8fbd 1e0b 0abe ced8 2d3e 0e58 32be
00000260: fa4a 093e 20f3 bf3d f8f6 9f3e 0f17 973d
00000270: 4400 393e 3adb d6be 3416 8d3e 37af 00be
00000280: f080 bebe bc28 bfbd 3e30 643e edba 223e
00000290: 87d0 45be d2ad 56be 6e4c 03bf e324 47be
000002a0: 2bd1 813d 9562 9abe d2fa dfbd 5b35 1cbe
000002b0: 7198 fc3d a7d5 aa3d c2ec 78be c958 ccbe
000002c0: 9081 ec3d 53ed a4be d42a 6ebb cb2f 033e
000002d0: 934d 61bd b684 9fbd 5ec3 c9bd 2c17 a7bd
000002e0: dbee a13e 681f ed3d 8ff9 823e f6a4 663e
000002f0: d7f5 fdbd 36be b43e af05 c4bd 3ee4 30bd
00000300: f931 28be 09d9 633e 3a8c 883d d97a 0dbe
00000310: b10b e5be 056e abbe a5b6 dc3d cc79 d7be
00000320: a856 853d 954e a03d 991e 2b3e 5fcd d8bd
00000330: 5dba 5abd e00b 1cbe 956d 78be ef79 413e
00000340: 05ff 65be ad7a 4bbe 3b42 01be 5371 243d
00000350: ef66 06bd ad6c d33d 5c88 523e e024 903e
00000360: 880d c43d 3bbd 2e3e ea61 e6bd 2724 d03d
00000370: e172 9f3c 5f83 62be 00aa 46bd 48af 33bc
00000380: 4a4c 2a3d 964b a13e 7923 143d d4f5 b73e
00000390: 7481 483e 95b5 553e adf0 12bd e7a4 80be
000003a0: 8ea3 e93d 70ef b73e 8e0f d5be ea79 f0bc
000003b0: c626 2dbe 7773 b83e 773a 433e 2962 30be
000003c0: 3dbc ab3e fe15 f73b e27d b6bd f1fe 66be
000003d0: 5dca 1bbd 6a7e c4bd f6e1 e0bd 738b c2bd
000003e0: a9f7 823e 4671 1bbe 590f 9d3e ae18 033e
000003f0: e6f2 993e 3fae 63bd 14ba fbbc 526d 6cbd

encoder_cnn.0.bias f4 [32]
-0.18857583 -0.09820363 0.78505874 -0.9900901 -0.14572573 -0.018718109 -0.6442305 -0.23235418
0.012013222 -0.36336124 0.15479144 0.032524563 0.3028981 -0.1714428 -0.5376721 0.4123757
-0.4112266 0.30444276 0.36334327 -0.4035921 -0.53885186 0.57016987 0.091398306 -0.46558845
-0.22847165 0.013463635 -0.55694616 -0.56956196 -0.56187916 -0.17347936 -0.44080025 0.06290392
00000000: 061a 41be fc1e c9bd 9cf9 483f 8b76 7dbf
00000010: 2039 15be b856 99bc 4aec 24bf 41ee 6dbe
00000020: 1bd3 443c 7c0a babe a681 1e3e 7a38 053d
00000030: 7615 9b3e b48e 2fbe e1a4 09bf e822 d33e
00000040: 4b8c d2be ecdf 9b3e 2108 ba3e a0a3 cebe
00000050: 32f2 09bf a7f6 113f 092f bb3d 9c61 eebe
00000060: 79f4 69be 9496 5c3c 0694 0ebf d0ce 11bf
00000070: 50d7 0fbf 93a4 31be 92b0 e1be c5d3 803d

encoder_cnn.2.weight f4 [64, 32, 3]
-0.1454535 0.06716074 0.041993063 0.045204096 0.06435611 0.15348399 0.15952514 0.13685283
0.024646476 0.10235361 -0.24040067 0.071340665 0.105228215 0.11508864 -0.034693398 -0.07940951
0.03222234 -0.06258797 0.39817262 0.20040135 0.3212807 -0.055147897 -0.048776854 -0.11332567
0.09771489 -0.095114395 0.07525096 0.10157524 -0.012411343 0.2250672 0.044993892 0.18960457
0.10772661 0.030289732 -0.030954834 -0.13319182 0.07491464 0.007046101 0.020055586 0.19988461
0.20499483 0.20410445 0.20355336 0.019480865 0.13497394 0.12959734 0.092689894 -0.026029145
0.225557 0.20019 0.15953304 0.05935738 -0.02531914 -0.056767218 -0.07335333 -0.057701807
-0.042860042 0.04477918 0.012397537 0.16395874 0.05863404 -0.107312985 0.09297749 -0.0058280206
-0.033130694 -0.09957292 0.30437902 0.10609116 0.17860265 -0.022835981 -0.056696776 0.032631777
0.09979575 -0.18435489 0.11070858 -0.0032909492 0.14107652 -0.1512675 -0.052660014 0.109870546
-0.0053814477 0.17100665 0.044943064 0.017895725 -0.13273393 -0.41087058 -0.21314174 0.10601626
-0.10736114 0.12856522 0.24616182 0.06916177 0.16938573 0.10873234 0.050775055 0.06507149
-0.08094809 -0.013345773 0.07498447 -0.08125367 -0.0597663 -0.027858453 -0.49966037 -0.23986332
-0.1858747 -0.06428742 0.029288992 -0.09094834 -0.3175043 -0.28851962 -0.2161124 -0.007993841
0.02582993 0.10252356 0.09993222 -0.08264746 -0.1746577 -0.24164775 0.077787034 0.009582893
0.1416127 -0.17093384 -0.0040846965 0.024143502 0.03748863 -0.015361794 -0.016213033 -0.03771018
-0.03634053 -0.34266135 -0.18003842 -0.449808 0.027310109 0.022071952 -0.0077830004 -0.002511406
0.04995159 0.07879589 -0.1272905 -0.054608732 -0.16881041 -0.13714321 -0.066928566 -0.1344436
-0.1499894 0.052097797 -0.074352026 -0.29365852 -0.3304579 -0.3132016 0.04033197 0.06793987
0.082595766 0.14253715 0.10095184 0.1154262 -0.02986094 -0.009508518 -0.02993864 -0.25368857
-0.22894304 -0.23206398 -0.009329547 -0.092943154 -0.08753279 0.01269419 -0.067729086 -0.0074528065
-0.032541443 0.05323128 0.049789593 -0.24908864 0.039251883 0.066687405 -0.07833507 -0.0627285
-0.21835788 -0.18742049 -0.07766621 -0.05472167 -0.14453639 -0.061036192 0.10351623 -0.010738587
-0.10538167 -0.01036504 -0.13576777 -0.10946194 -0.1781464 -0.13669613 -0.15332946 -0.18964013
0.2650505 0.23230667 0.111284 0.13169488 0.30195597 -0.083494894 -0.2666358 -0.16979349
-0.31107762 0.0953688 -0.10050547 -0.036008913 -0.19671805 -0.391522 -0.8418947 -0.1257157
0.40245253 -0.061794512 -0.07891135 0.07900165 0.13336854 -0.022698762 0.27267075 -0.13460375
0.0897989 -0.21974118 -0.13751297 0.21496513 -0.05692263 -0.08144611 0.00945494 0.17804553
0.04083614 -0.121496834 0.06314584 -0.26729184 -0.20833786 -0.066370405 0.056642085 -0.34126258
-0.21190648 -0.19020754 0.40319467 0.14582698 -0.07002423 0.04766529 -0.16023025 -0.37876666
0.30580264 0.18567716 -0.16892304 0.0047106044 -0.110803425 -0.44263092 -0.32444447 -0.277197
-0.0052613234 -0.23882696 0.07393973 0.119571075 0.2480134 0.22497222 -0.05735735 -0.10658291
00000000: c3f1 14be 928b 893d eb00 2c3d ee27 393d
00000010: 23cd 833d e82a 1d3e 8f5a 233e 2623 0c3e
00000020: 68e7 c93c c59e d13d 982b 76be 0e1b 923d
00000030: e481 d73d 98b3 eb3d aa1a 0ebd 74a1 a2bd
00000040: 93fb 033d 1f2e 80bd 48dd cb3e 0336 4d3e
00000050: e77e a43e c3e2 61bd 3dca 47bd 4a17 e8bd
00000060: bf1e c83d 56cb c2bd 2d1d 9a3d ae06 d03d
00000070: f258 4bbc 0478 663e 844b 383d b327 423e
00000080: c59f dc3d 2c22 f83c fe94 fdbc 7063 08be
00000090: d96c 993d fbe2 e63b 9d4b a43c 8dae 4c3e
000000a0: 2aea 513e c200 513e 4b70 503e 5696 9f3c
000000b0: 9c36 0a3e 2ab5 043e 33d4 bd3d 133b d5bc
000000c0: 6af8 663e 9bfe 4c3e a15c 233e b920 733d
000000d0: 166a cfbc be84 68bd 453a 96bd bb58 6cbd
000000e0: 038e 2fbd 606a 373d 0a1f 4b3c cde4 273e
000000f0: 3f2a 703d e9c6 dbbd fb6a be3d fbf8 bebb
00000100: 0db4 07bd e3ec cbbd 91d7 9b3e 5246 d93d
00000110: 9de3 363e 8612 bbbc e13a 68bd e6a8 053d
00000120: b761 cc3d 87c7 3cbe 2ebb e23d f7ac 57bb
00000130: 5d76 103e dee5 1abe 07b2 57bd cf03 e13d
00000140: db56 b0bb 5e1c 2f3e 3816 383d 0e9a 923c
00000150: 67eb 07be a15d d2be d441 5abe 0e1f d93d
00000160: 28e0 dbbd 9aa6 033e d811 7c3e b0a4 8d3d
00000170: 7473 2d3e 10af de3d 81f9 4f3d 3444 853d
00000180: 1dc8 a5bd 3ba8 5abc 7591 993d 5368 a6bd
00000190: 82cd 74bd 6937 e4bc 7cd3 ffbe bb9e 75be
000001a0: f055 3ebe 1fa9 83bd 78ef ef3c 2043 babd
000001b0: ec8f a2be d8b8 93be 924c 5dbe 99f8 02bc
000001c0: 4a99 d33c dff7 d13d 44a9 cc3d 1243 a9bd
000001d0: 78d9 32be 8272 77be cf4e 9f3d 9101 1d3c
000001e0: eb02 113e 4809 2fbe ebd8 85bb 98c8 c53c
000001f0: ad8d 193d 09b0 7bbc 32d1 84bc fd75 1abd
00000200: cfd9 14bd 4f71 afbe fe5b 38be 3c4d e6be
00000210: 73b9 df3c 3dd0 b43c 8a08 ffbb 6796 24bb
00000220: 0a9a 4c3d bd5f a13d 7158 02be 68ad 5fbd
00000230: a3dc 2cbe 456f 0cbe d811 89bd 95ab 09be
00000240: d296 19be 8064 553d e045 98bd 695a 96be
00000250: c731 a9be f65b a0be 2333 253d 0f24 8b3d
00000260: f827 a93d 42f5 113e d7bf ce3d 9264 ec3d
00000270: ee9e f4bc 9dc9 1bbc e141 f5bc 78e3 81be
00000280: 0b70 6abe 2ea2 6dbe f5da 18bc fb58 bebd
00000290: 6444 b3bd 4bfb 4f3c 8cb5 8abd ac36 f4bb
000002a0: 2d4a 05bd 0b09 5a3d 2cf0 4b3d 1811 7fbe
000002b0: 95c6 203d 6893 883d 236e a0bd cd77 80bd
000002c0: 3599 5fbe 28eb 3fbe 760f 9fbd d423 60bd
000002d0: 5901 14be 1601 7abd 5100 d43d e6f0 2fbc
000002e0: 58d2 d7bd 21d2 29bc b506 0bbe 952d e0bd
000002f0: 036c 36be 12fa 0bbe 6602 1dbe 0631 42be
00000300: b3b4 873e cde1 6d3e dee8 e33d 06db 063e
00000310: f999 9a3e 5fff aabd 7d84 88be 58de 2dbe
00000320: 9145 9fbe b850 c33d d0d5 cdbd 157e 13bd
00000330: 7570 49be 9275 c8be 6986 57bf 9ebb 00be
00000340: 420e ce3e 3e1c 7dbd 469c a1bd 9ecb a13d
00000350: c391 083e c1f2 b9bc 809b 8b3e 91d5 09be
00000360: 7ce8 b73d d503 61be 33d0 0cbe d21f 5c3e
00000370: b427 69bd 38cd a6bd e5e8 1a3c 9151 363e
00000380: cc43 273d 55d3 f8bd 9b52 813d 7ada 88be
00000390: 8556 55be 35ed 87bd 8801 683d f8b9 aebe
000003a0: 03fe 58be c4c5 42be 886f ce3e ab53 153e
000003b0: dd68 8fbd ae3c 433d 6613 24be b4ed c1be
000003c0: 2a92 9c3e 2722 3e3e 29fa 2cbe 6a5b 9a3b
000003d0: e8ec e2bd 85a0 e2be 961d a6be c4ec 8dbe
000003e0: 2e67 acbb 0e8f 74be b76d 973d aee1 f43d
000003f0: 3af7 7d3e 1e5f 663e 8aef 6abd 2448 dabd

encoder_cnn.2.bias f4 [64]
0.09661105 -0.11071406 -0.04558982 0.030361978 0.00904158 0.0721412 -0.11466006 -0.04052567
-0.1573239 -0.015841922 0.25779945 -0.09867156 0.09831987 -0.0930824 -0.10621177 -0.0748278
0.117434196 -0.06493678 -0.082584016 -0.08807326 -0.1433138 -0.083250396 0.07023359 0.16940676
-0.20088273 0.12251892 -0.22307569 -0.11090708 0.09354719 -0.114612535 -0.057443418 -0.30519715
-0.10948738 0.11695145 0.31581748 -0.11771699 -0.12417736 -0.24604003 0.16248645 0.0012813142
-0.1718204 -0.27051562 0.107546106 -0.12713902 0.014835815 -0.4180335 -0.2321098 -0.16602808
-0.1755474 0.28363395 -0.22407448 -0.22618422 -0.27798074 -0.057016592 -0.09681657 0.030081384
-0.05599258 -0.15585351 -0.10962221 -0.1274687 -0.33424246 0.25886008 -0.260864 -0.21965772
00000000: 04dc c53d 0ebe e2bd 64bc 3abd afb9 f83c
00000010: 2323 143c c4be 933d e5d2 eabd 3ffe 25bd
00000020: 8419 21be ebc6 81bc 4afe 833e 5114 cabd
00000030: ee5b c93d fca1 bebd 8e85 d9bd 513f 99bd
00000040: 5781 f03d 93fd 84bd cf21 a9bd c15f b4bd
00000050: dac0 12be 2f7f aabd a1d6 8f3d f778 2d3e
00000060: 34b4 4dbe 33eb fa3d f46d 64be 4023 e3bd
00000070: ab95 bf3d fab9 eabd ca49 6bbd cd42 9cbe
00000080: eb3a e0bd 3e84 ef3d d4b2 a13e 9b15 f1bd
00000090: b350 febd ebf1 7bbe d962 263e c5f1 a73a
000000a0: b0f1 2fbe 0681 8abe 2241 dc3d bb30 02be
000000b0: eb11 733c 7d08 d6be 31ae 6dbe 4403 2abe
000000c0: b3c2 33be 7838 913e c873 65be d69c 67be
000000d0: 7e53 8ebe 3b8a 69bd c447 c6bd 3c6d f63c
000000e0: 7a58 65bd 1098 1fbe 9c81 e0bd 2887 02be
000000f0: d421 abbe 4f89 843e f78f 85be f4ed 60be

encoder_lstm.weight_ih_l0 f4 [128, 64]
0.33036366 0.0490344 0.07528394 0.02991815 0.4281521 0.2252002 -0.08959653 0.19408862
0.29041737 0.05314254 0.15607178 -0.19492157 0.19577901 -0.1430401 -0.09406257 0.40423483
0.1834666 -0.15538134 -0.07345735 0.013117651 -0.012494525 0.16121186 0.36720055 -0.044295754
0.10574007 0.116252154 -0.36518052 0.09955239 0.05901054 -0.10007091 0.18438755 0.14846769
0.058859065 0.22889613 -0.061488617 -0.0061167073 -0.033787526 -0.0805566 0.081018396 -0.1267303
0.062782675 0.12794305 0.23115833 0.08013843 0.024373014 0.13276096 -0.118238054 0.22978234
0.28826648 0.18051392 0.06317914 -0.01626397 0.18654433 -0.03750516 -0.12927327 0.10608353
-0.0017946119 -0.24703684 -0.09201982 -0.041934397 -0.0023878277 0.32360706 -0.08870037 -0.110379554
-0.09813439 -0.03371611 -0.10115102 -0.065310515 0.056038164 -0.22490111 0.1600323 0.14958742
0.11760458 0.15695657 -0.029279064 -0.17203926 0.14010988 -0.025916956 0.07566945 0.117826596
0.27857095 0.21272466 -0.2168296 -0.047977455 0.2068002 -0.10199826 -0.22738805 0.045409042
0.10883685 -0.27423507 0.26110062 0.2205902 0.106841356 -0.056806516 -0.13644376 0.090250105
0.04514901 0.1262285 -0.25666067 -0.038091205 -0.22500232 -0.036079857 0.20489326 0.0024865607
-0.02658772 0.14114287 0.15215677 -0.121313356 0.32339108 -0.010442728 0.45058635 -0.0314255
-0.07261393 -0.08159888 -0.18222019 0.09787128 -0.16495173 -0.06816646 0.16123804 0.11474124
0.057387203 0.060476266 0.10538346 -0.15218738 0.17568468 -0.16389476 -0.4279353 -0.18891847
0.12829827 -0.0636277 0.20799428 -0.1272364 0.26294586 0.047055338 0.2393189 -0.0010393264
-0.06615755 0.14087275 0.14859182 0.07917731 -0.19576906 -0.12133311 0.071713135 0.039167225
0.03422867 0.0354554 -0.053387478 0.20810066 0.11486839 -0.010824088 0.101569034 -0.019838085
0.0647098 -0.06200154 0.15005371 -0.04997575 0.14947906 0.12460541 -0.2289183 -0.0048398096
-0.103258915 0.030933345 -0.16203141 0.037522223 0.20894723 -0.024005715 -0.053778797 0.021706657
0.32253787 0.11038746 -0.15541434 -0.00992572 0.21966788 -0.7246502 0.01987532 -0.11613478
0.06841891 0.13701183 0.3097518 0.08760208 -0.094315894 -0.041799854 0.10454419 0.008867312
0.0032974968 0.049482495 0.008757309 -0.030889785 -0.04420289 -0.12876992 0.09041131 -0.089756995
-0.25201777 0.25879303 0.11001554 0.21351312 -0.067141004 0.03391113 -0.034292746 -0.16860698
-0.022839569 0.037610188 -0.09125294 0.6666569 0.2634315 -0.17202324 0.022393662 0.11214122
-0.406011 0.075118855 0.0053013046 0.110386565 0.014767049 0.28257245 0.35611483 0.06593419
0.21877828 -0.17386994 -0.041471645 0.10310251 -0.025900185 0.09884635 -0.28448254 0.058449563
-0.22126253 -0.3224058 0.097476296 0.03707788 0.007625629 -0.3337596 -0.19047037 0.07454513
0.16860142 0.17231229 -0.09191303 0.36913896 0.0005468793 0.29124954 0.15697508 0.068417326
0.007835324 0.2711051 -0.034853566 0.23337694 0.16786939 0.028360404 -0.03783761 -0.11772196
0.0737123 0.16108036 0.30058762 -0.08809124 -0.08120059 -0.120242804 -0.39726257 -0.22179733
00000000: 6d25 a93e 4cd8 483d 772e 9a3d e816 f53c
00000010: c136 db3e e29a 663e 637e b7bd 2bbf 463e
00000020: 96b1 943e feab 593d 48d1 1f3e 8599 47be
00000030: 4b7a 483e 1b79 12be e0a3 c0bd def7 ce3e
00000040: abde 3b3e 491c 1fbe cf70 96bd 6beb 563c
00000050: d6b5 4cbc b914 253e b601 bc3e 776f 35bd
00000060: 408e d83d 9c15 ee3d f1f8 babe 20e2 cb3d
00000070: 09b5 713d faf1 ccbd 17d0 3c3e ea07 183e
00000080: 3416 713d bf63 6a3e 7ddb 7bbd a96e c8bb
00000090: ca64 0abd dcfa a4bd f9ec a53d 96c5 01be
000000a0: 3494 803d 8103 033e c5b4 6c3e 9e1f a43d
000000b0: eaa9 c73c 7df2 073e cb26 f2bd 104c 6b3e
000000c0: aa97 933e a4d8 383e 1164 813d 043c 85bc
000000d0: 7a05 3f3e 039f 19bd 3660 04be 5242 d93d
000000e0: 2f39 ebba 3af7 7cbe e374 bcbd 67c3 2bbd
000000f0: 1a7d 1cbb d3af a53e 8aa8 b5bd ad0e e2bd
00000100: affa c8bd e719 0abd 4428 cfbd 85c1 85bd
00000110: 4688 653d 7a4c 66be 82df 233e 722d 193e
00000120: acda f03d 39b9 203e a6da efbc 0f2b 30be
00000130: f778 0f3e cc4f d4bc 96f8 9a3d 124f f13d
00000140: daa0 8e3e 7ed4 593e 9408 5ebe 0284 44bd
00000150: 6ec3 533e 77e4 d0bd 6ad8 68be d5fe 393d
00000160: dbe5 de3d 8a68 8cbe fbae 853e 66e2 613e
00000170: a4cf da3d f3ad 68bd eab7 0bbe 0cd5 b83d
00000180: 2bee 383d 0b42 013e 0769 83be 8605 1cbd
00000190: 0267 66be 79c8 13bd 8acf 513e 91f5 223b
000001a0: 7dce d9bc c287 103e fcce 1b3e 2373 f8bd
000001b0: 8493 a53e fa17 2bbc 41b3 e63e 06b8 00bd
000001c0: 9db6 94bd 501d a7bd ee97 3abe bd70 c83d
000001d0: 1be9 28be db9a 8bbd 961b 253e 75fd ea3d
000001e0: d80e 6b3d f6b5 773d 49d3 d73d 02d7 1bbe
000001f0: afe6 333e 07d4 27be 561a dbbe d873 41be
00000200: 9f60 033e 3d4f 82bd 74fc 543e 424a 02be
00000210: d7a0 863e 19bd 403d 0410 753e 023a 88ba
00000220: 9c7d 87bd f240 103e 7428 183e b727 a23d
00000230: af77 48be 7e7d f8bd 56de 923d d06d 203d
00000240: 5d33 0c3d ae39 113d d4ac 5abd 5718 553e
00000250: 1e40 eb3d 8457 31bc 6d03 d03d 7b83 a2bc
00000260: 9286 843d 54f5 7dbd aea7 193e 5fb3 4cbd
00000270: 0a11 193e 1f31 ff3d 8f69 6abe 4497 9ebb
00000280: 6979 d3bd ed67 fd3c 90eb 25be e7b0 193d
00000290: 43f6 553e a2a7 c4bc 2847 5cbd 29d2 b13c
000002a0: af23 a53e d212 e23d f024 1fbe 7d9f 22bc
000002b0: 9ef0 603e ad82 39bf 91d1 a23c 12d8 edbd
000002c0: 371f 8c3d d44c 0c3e ca97 9e3e b868 b33d
000002d0: b128 c1bd 5336 2bbd 441b d63d 3448 113c
000002e0: d11a 583b 28ae 4a3d d17a 0f3c 930c fdbc
000002f0: 170e 35bd 43dc 03be 9129 b93d 84d2 b7bd
00000300: 7908 81be 8580 843e d44f e13d 2fa3 5a3e
00000310: 3981 89bd 66e6 0a3d 8d76 0cbd 4fa7 2cbe
00000320: 0c1a bbbc 240d 1a3d d2e2 babd 07aa 2a3f
00000330: 7ee0 863e dc26 30be ea72 b73c 4caa e53d
00000340: ace0 cfbe ead7 993d 91b6 ad3b 5a12 e23d
00000350: 7ef1 713c 56ad 903e af54 b63e 8108 873d
00000360: 6a07 603e f60a 32be 2cde 29bd 6927 d33d
00000370: a02c d4bc f56f ca3d b2a7 91be cf68 6f3d
00000380: a592 62be 5f12 a5be a7a1 c73d fade 173d
00000390: 6ae0 f93b 8ae2 aabe aa0a 43be 1eab 983d
000003a0: daa5 2c3e a272 303e e63c bcbd c8ff bc3e
000003b0: 735c 0f3a a91e 953e 13be 203e 621e 8c3d
000003c0: bb5f 003c 4ace 8a3e 9dc2 0ebd 5dfa 6e3e
000003d0: f4e5 2b3e 1454 e83c 9cfb 1abd 3618 f1bd
000003e0: 79f6 963d 40f2 243e 9fe6 993e 2e69 b4bd
000003f0: 7f4c a6bd dc41 f6bd 0066 cbbe d71e 63be

encoder_lstm.weight_hh_l0 f4 [128, 32]
0.0767391 0.040199503 -0.010997105 0.5566628 0.0024114393 0.21387401 0.09570319 -0.012118098
-0.0660484 0.31115222 -0.08637135 -0.16517013 -0.051774625 -0.017419621 -0.20866205 -0.46279258
-0.11304898 -0.40547842 0.15024915 -0.05169428 0.2974254 0.11521503 0.30599782 -0.07512834
-0.20195283 -0.8814709 -0.14619154 -0.24452005 -0.07133031 0.17143376 -0.28129968 -0.3054206
-0.09962624 0.082430825 -0.46932942 0.19531967 0.1452027 -0.12918264 0.1068385 -0.14809777
0.30241436 -0.0520131 -0.009797957 0.06408322 0.2379438 0.4891796 0.20086579 0.17836711
-0.15771629 0.18760854 0.19075085 -0.11675779 -0.07154147 0.048058596 0.04538281 -0.107406445
0.072299846 0.02425085 0.18263736 -0.13644528 0.10125837 -0.22496668 -0.1721484 0.10345555
-0.18975514 0.36667016 -0.23879033 -0.42275733 0.030851968 -0.116542965 0.20154622 0.34938666
0.2854845 -0.07109438 -0.2667051 0.2645192 0.117457725 0.13352211 -0.20250106 0.12774202
-0.10005815 0.41780135 -0.2881474 0.027657699 -0.039612394 -0.30334592 -0.034844656 -0.16064668
0.14953382 0.17817494 -0.42299786 -0.052527446 0.015529928 -0.19279262 -0.39368215 0.07361334
-0.10923947 -0.13811064 -0.1076406 0.16632348 -0.07244333 -0.17270418 -0.2206091 0.47179496
-0.2431924 -0.18181215 -0.16959967 -0.05260608 0.068276 -0.09012891 -0.11919522 0.06255426
0.37322727 0.21235563 0.021288438 -0.32899898 0.12550974 -0.36783057 -0.37993076 -0.2746604
0.42515156 0.10099273 -0.5961799 -0.22347347 0.036643904 0.28600234 0.22690324 -0.17178787
0.4192762 -0.13246925 0.13095059 0.39850694 0.24356402 -0.30549303 -0.10984659 0.059267484
0.24584068 0.18004724 0.12894543 0.32894942 -0.3046213 -0.027385354 0.28998318 -0.048709016
0.19174641 -0.034347497 0.14047432 -0.2772588 0.37832808 0.14814158 -0.25516075 -0.009653065
-0.12878285 0.23490956 0.005411588 -0.18458143 0.48726812 -0.09084937 -0.022170702 -0.02709847
0.02177639 0.028385619 0.2734661 -0.0048824474 0.29649553 0.057668425 -0.10918822 0.007977223
0.1973374 0.03163276 0.30641714 -0.10943537 0.4067569 0.08845233 0.27824897 -0.042758178
0.022835916 -0.0011258159 -0.15651165 0.2941615 0.14468183 0.19830132 0.17682329 0.3438659
-0.056084402 0.061533894 0.19727902 -0.07137581 0.23316 0.006453675 0.07385233 -0.06570686
0.13053924 -0.30770248 0.54620576 0.016854903 0.23307921 -0.32946214 0.33060893 -0.07367449
-0.16578272 0.47826108 -0.024558825 -0.5027952 0.2645881 0.34810865 0.01862513 -0.44506195
-0.1571956 -0.5166899 0.25522187 -0.11448335 -0.069465704 0.32258916 0.34330574 -0.08112803
0.12574342 -0.16491462 0.11045465 -0.23587763 0.13588847 0.108333245 -0.15060021 0.17093879
-0.1277775 -0.022429626 -0.05104065 -0.08401974 0.0231916 -0.04463448 0.08905236 0.42893505
-0.258986 -0.2534247 0.062810756 -0.07856202 -0.04564162 0.15334114 -0.0035081895 -0.0944416
0.28062448 -0.041371044 -0.21759538 0.2624602 0.08095093 -0.34752426 -0.013803902 0.01565232
0.25609654 -0.087277904 0.06072461 -0.2514498 0.08658282 -0.13802798 0.21375692 -0.23977523
00000000: 6429 9d3d 3ca8 243d 342d 34bc 7481 0e3f
00000010: 3d09 1e3b ca01 5b3e 0900 c43d fd8a 46bc
00000020: 6244 87bd 584f 9f3e 76e3 b0bd 5c22 29be
00000030: a111 54bd 98b3 8ebc 81ab 55be 26f3 ecbe
00000040: 3986 e7bd de9a cfbe eada 193e 62bd 53bd
00000050: 2448 983e dcf5 eb3d bfab 9c3e e3dc 99bd
00000060: b9cc 4ebe 14a8 61bf 3cb3 15be 7763 7abe
00000070: a015 92bd 558c 2f3e 8306 90be 1760 9cbe
00000080: d808 ccbd 7ed1 a83d f24b f0be e101 483e
00000090: 04b0 143e 7448 04be 25ce da3d f1a6 17be
000000a0: 0ed6 9a3e b00b 55bd 9c87 20bc 103e 833d
000000b0: 8aa7 733e c075 fa3e c3af 4d3e dea5 363e
000000c0: 6180 21be 741c 403e 3154 433e b51e efbd
000000d0: 5684 92bd 17d9 443d 53e3 393d e9f7 dbbd
000000e0: f111 943d b8a9 c63c 4a05 3b3e 50b8 0bbe
000000f0: 8c60 cf3d aa5d 66be ac47 30be 81e0 d33d
00000100: 2c4f 42be 31bc bb3e 7485 74be a673 d8be
00000110: 44bd fc3c 14ae eebd 2262 4e3e cfe2 b23e
00000120: 062b 923e ee99 91bd 928d 88be 106f 873e
00000130: ad8d f03d 05ba 083e 705c 4fbe cece 023e
00000140: 4aeb ccbd 0fea d53e 0e88 93be 6692 e23c
00000150: 9b40 22bd 2850 9bbe 45b9 0ebd 9080 24be
00000160: 651f 193e 7e73 363e 2d93 d8be 0527 57bd
00000170: 3d71 7e3c 6e6b 45be b590 c9be 97c2 963d
00000180: f1b8 dfbd e06c 0dbe ad72 dcbd b450 2a3e
00000190: 2b5d 94bd 5dd9 30be 5ae7 61be 1c8f f13e
000001a0: 6e07 79be f72c 3abe 89ab 2dbe 7979 57bd
000001b0: 4ad4 8b3d 8295 b8bd a01c f4bd 731c 803d
000001c0: a517 bf3e c173 593e 1765 ae3c 8e72 a8be
000001d0: a085 003e 4a54 bcbe 4986 c2be 4aa0 8cbe
000001e0: 77ad d93e 47d5 ce3d 3f9f 18bf 3bd6 64be
000001f0: eb17 163d e66e 923e 5359 683e 29e9 2fbe
00000200: 5fab d63e 05a6 07be e917 063e 1a09 cc3e
00000210: d968 793e 9569 9cbe 40f7 e0bd 76c2 723d
00000220: a9bd 7b3e 4e5e 383e 450a 043e 0f6c a83e
00000230: 53f7 9bbe 4057 e0bc ad78 943e 1b83 47bd
00000240: 2c59 443e f6af 0cbd 80d8 0f3e def4 8dbe
00000250: 38b4 c13e 6db2 173e 6ea4 82be e427 1ebc
00000260: a7df 03be 228c 703e b153 b13b ea02 3dbe
00000270: 357b f93e 3c0f babd 559f b5bc 9cfd ddbc
00000280: 6664 b23c f588 e83c c003 8c3e f0fc 9fbb
00000290: 43ce 973e ba35 6c3d 139e dfbd e6b2 023c
000002a0: d112 4a3e 5a91 013d b5e2 9c3e a71f e0bd
000002b0: 7142 d03e 7f26 b53d a676 8e3e 3323 2fbd
000002c0: 6312 bb3c 1d90 93ba 9744 20be 569c 963e
000002d0: 7927 143e 800f 4b3e 2a11 353e 310f b03e
000002e0: c2b8 65bd f70a 7c3d 8303 4a3e 7b2d 92bd
000002f0: 7fc1 6e3e 5a79 d33b e43f 973d 5191 86bd
00000300: 14ac 053e 2e8b 9dbe 24d4 0b3f 4b13 8a3c
00000310: 51ac 6e3e 43af a8be 9345 a93e a7e2 96bd
00000320: f2c2 29be a3de f43e 972f c9bc 30b7 00bf
00000330: 1778 873e 4c3b b23e bb93 983c 29df e3be
00000340: e2f7 20be ca45 04bf 71ac 823e 3f76 eabd
00000350: 0944 8ebd 682a a53e c5c5 af3e 7426 a6bd
00000360: e2c2 003e 61df 28be 0c36 e23d e889 71be
00000370: 5926 0b3e d2dd dd3d f136 1abe 940a 2f3e
00000380: 1bd8 02be 56be b7bc 0010 51bd 8b12 acbd
00000390: 4ffc bd3c a5d2 36bd 1561 b63d 609d db3e
000003a0: d099 84be e2c0 81be eda2 803d 20e5 a0bd
000003b0: b5f2 3abd 7605 1d3e a7e9 65bb 996a c1bd
000003c0: 03ae 8f3e af74 29bd 53d1 5ebe 2f61 863e
000003d0: 9ac9 a53d b3ee b1be c329 62bc 4b39 803c
000003e0: 161f 833e c2be b2bd 5eba 783d 07be 80be
000003f0: 5552 b13d 3557 0dbe 18e3 5a3e a387 75be

encoder_lstm.bias_ih_l0 f4 [128]
-0.11688959 0.054278187 0.013251161 -0.11935166 0.15027983 0.35192832 0.024347492 0.10945365
-0.2821379 0.05228278 -0.01931214 -0.024124501 -0.13762258 -0.21466568 -0.051981945 -0.083775155
-0.038306758 0.16107373 -0.14966407 -0.031054385 0.053862717 0.16246253 -0.08594671 0.23379056
0.3333841 -0.070643276 -0.07190003 -0.104087725 0.27507642 0.04694997 0.034193486 -0.055942066
0.38626263 -0.04333638 -0.32985005 -0.011810285 0.30567428 0.07015629 0.32732907 0.03273413
0.03414672 -0.23879506 0.38741422 -0.13507764 0.080406085 -0.24211013 0.1068308 -0.16682066
0.08487172 -0.006703423 0.2190589 0.119431704 -0.025346633 0.019106656 -0.19297747 0.1578847
-0.07557513 -0.2211088 -0.003735933 -0.15850224 -0.11583822 0.28411797 0.055421937 0.3972848
-0.10014392 0.25348037 -0.2461339 0.27453545 0.27618244 -0.4019399 -0.32862166 -0.32709244
-0.06724759 0.13340151 -0.03609187 0.06648594 -0.47987884 -0.3025133 0.1354192 -0.2689723
0.1134876 0.11447636 0.3516536 0.06074457 -0.05978348 0.1365248 -0.15601918 0.17312825
-0.10397074 0.22098763 0.00842341 -0.26492772 0.3594078 -0.028737022 0.19334392 -0.22338744
0.09098115 -0.16892819 -0.4269138 0.03169468 0.23848984 0.05694044 0.17679869 0.25869617
-0.013669694 -0.040198576 0.3525677 -0.042099524 -0.35495472 -0.12028786 0.17982522 -0.2065009
0.039390042 0.12447211 0.16089606 -0.33656907 -0.10345188 -0.10545568 -0.25673926 0.3937208
-0.35443828 0.05408423 -0.17078352 0.06757747 0.618428 -0.07525774 -0.23916236 0.19178623
00000000: cf63 efbd ce52 5e3d 661b 593c a56e f4bd
00000010: f5e2 193e f32f b43e 6474 c73c 3c29 e03d
00000020: 6174 90be 7826 563d 7e34 9ebc bfa0 c5bc
00000030: efec 0cbe 52d1 5bbe 05eb 54bd 4f92 abbd
00000040: 8ce7 1cbd 83f0 243e 8a41 19be c465 febc
00000050: 279f 5c3d 945c 263e d404 b0bd cb66 6f3e
00000060: 52b1 aa3e 6cad 90bd 5340 93bd f22b d5bd
00000070: d1d6 8c3e 9d4e 403d 780e 0c3d 8223 65bd
00000080: 37c4 c53e 7d81 31bd 1be2 a8be ed7f 41bc
00000090: 5781 9c3e 1aae 8f3d ad97 a73e 3914 063d
000000a0: 6edd 0b3d b186 74be 285b c63e cb51 0abe
000000b0: f2ab a43d b8eb 77be 1bca da3d 09d3 2abe
000000c0: 39d1 ad3d 63a8 dbbb fa50 603e 9c98 f43d
000000d0: bea3 cfbc 9085 9c3c e39b 45be 87ac 213e
000000e0: 22c7 9abd 586a 62be 8ed6 74bb 694e 22be
000000f0: 973c edbd e977 913e 1d02 633d ea68 cb3e
00000100: 4118 cdbd 2ec8 813e 860a 7cbe e98f 8c3e
00000110: c967 8d3e 11cb cdbe 1941 a8be a978 a7be
00000120: 1bb9 89bd 689a 083e 12d5 13bd c829 883d
00000130: aeb2 f5be 06e3 9abe 55ab 0a3e bdb6 89be
00000140: 306c e83d 9572 ea3d f10b b43e 4ccf 783d
00000150: 86df 74bd 28cd 0b3e 7ec3 1fbe 8848 313e
00000160: 9dee d4bd 954a 623e 5802 0a3c 9ba4 87be
00000170: 4d04 b83e e769 ebbc f3fb 453e adbf 64be
00000180: 5354 ba3d 83fb 2cbe 7294 dabe 48d2 013d
00000190: ae36 743e 613a 693d b70a 353e d373 843e
000001a0: daf6 5fbc 43a7 24bd c183 b43e 8d70 2cbd
000001b0: a0bc b5be 7b59 f6bd 1a24 383e f974 53be
000001c0: 7457 213d 3ceb fe3d f0c1 243e c852 acbe
000001d0: 94de d3bd 26f9 d7bd 5473 83be c695 c93e
000001e0: ef78 b5be 6d87 5d3d e0e1 2ebe 0e66 8a3d
000001f0: 4c51 1e3f bb20 9abd fae6 74be 9c63 443e

encoder_lstm.bias_hh_l0 f4 [128]
0.12550786 -0.11512817 -0.071811 -0.14163758 0.19828139 0.07762918 0.26758203 -0.022231748
-0.017874988 -0.019630056 -0.09600749 -0.21747932 -0.21415778 -0.046644334 -0.1425449 -0.057506647
-0.17148876 0.12562177 -0.20398656 -0.116417274 -0.0744825 0.13217084 -0.08369522 0.13346606
0.24845286 0.18829027 -0.25269464 -0.09201412 0.43405953 -0.17651446 -0.20109971 0.20819569
0.280698 0.10300183 -0.3558704 -0.13977934 0.13147138 0.036646932 0.19568463 0.00042955487
0.21861538 -0.077320255 0.39236984 -0.16233096 0.199736 -0.22144727 0.41076705 -0.2034839
-0.13811535 -0.27572685 0.21366486 -0.018262515 -0.15843102 0.11737191 -0.23949467 0.15440398
0.018404542 -0.32117587 -0.15583622 -0.36552376 0.20165066 0.38473704 0.24901707 0.25420648
0.11933745 0.09635937 -0.038205225 0.003330341 0.036117278 -0.317172 -0.32624885 -0.26192838
0.19183643 0.035196837 0.092361376 0.13580018 -0.4629639 -0.07833174 0.2177558 -0.20404443
0.15022168 -0.11350092 0.41711172 -0.14902347 0.024679663 -0.0645511 -0.22997731 0.4142968
-0.1780451 0.056381233 -0.049515832 -0.20992462 0.3500724 -0.28306258 -0.13108279 -0.03186486
0.07739768 0.03587181 -0.24858823 0.22873317 0.21138991 0.2082554 0.25557452 0.15474488
-0.15179808 -0.19493188 0.14534955 0.1479528 -0.044844788 -0.14379667 0.27045384 -0.10294145
-0.23849063 0.32880569 0.10088844 -0.15514451 -0.023983533 -0.04323254 -0.14315175 0.23887494
-0.24604014 0.08361339 -0.047058936 0.18944708 0.58614975 -0.08904999 -0.106733605 0.2008918
00000000: 2285 003e 51c8 ebbd a511 93bd 7109 11be
00000010: 470a 4b3e 0cfc 9e3d 8300 893e 5b1f b6bc
00000020: 916e 92bc 36cf a0bc 939f c4bd e6b2 5ebe
00000030: 2d4c 5bbe 210e 3fbd 4af7 11be 178c 6bbd
00000040: c09a 2fbe fea2 003e dae1 50be 2e6c eebd
00000050: 488a 98bd cb57 073e 6668 abbd 54ab 083e
00000060: 6d6a 7e3e 2acf 403e 3161 81be e671 bcbd
00000070: 0d3d de3e 35c0 34be 15ed 4dbe 4031 553e
00000080: a6b7 8f3e a0f2 d23d a534 b6be 5122 0fbe
00000090: 6fa0 063e 181b 163d 8d61 483e e135 e139
000000a0: b6dc 5f3e 155a 9ebd b3e4 c83e 163a 26be
000000b0: 9887 4c3e 13c3 62be 0f50 d23e 155e 50be
000000c0: 1c6e 0dbe 122c 8dbe f6ca 5a3e 459b 95bc
000000d0: be3b 22be af60 f03d 173e 75be 141c 1e3e
000000e0: 1fc5 963c 2a71 a4be 8893 1fbe ee25 bbbe
000000f0: 837d 4e3e 41fc c43e 55fe 7e3e 5a27 823e
00000100: 3167 f43d 1058 c53d 157d 1cbd da41 5a3b
00000110: b6ef 133d 5e64 a2be 170a a7be 7a1b 86be
00000120: c570 443e 8f2a 103d f627 bd3d 340f 0b3e
00000130: 9b09 edbe 646c a0bd 60fb 5e3e 06f1 50be
00000140: b6d3 193e 2c73 e8bd ab8f d53e 9c99 18be
00000150: 012d ca3c 5e33 84bd 2c7f 6bbe b61e d43e
00000160: 7451 36be 02f0 663d 1dd1 4abd 7bf6 56be
00000170: b13c b33e 94ed 90be 913a 06be ba84 02bd
00000180: ad82 9e3d 52ee 123d ea8d 7ebe 0739 6a3e
00000190: 9976 583e e740 553e aada 823e 7175 1e3e
000001a0: f570 1bbe 399c 47be 83d6 143e f080 173e
000001b0: 2baf 37bd 6f3f 13be ed78 8a3e f8d2 d2bd
000001c0: e336 74be 3859 a83e 999e ce3d 34de 1ebe
000001d0: 1d79 c4bc 9b14 31bd 5f96 12be a29b 743e
000001e0: f2f1 7bbe 7f3d ab3d dfc0 40bd 6afe 413e
000001f0: e90d 163f d75f b6bd 2697 dabd 94b6 4d3e

encoder_lstm.weight_ih_l1 f4 [128, 32]
-0.034519646 -0.087287486 0.10100468 -0.046455 0.45040184 0.040023312 -0.31892902 0.3946679
-0.12386657 -0.116323136 0.23107211 -0.16522168 -0.122103795 -0.16116595 -0.017413951 0.01988651
0.087238595 -0.22574118 -0.3561874 -0.011974805 0.1537144 0.059709024 -0.1281903 -0.0034639956
0.19719872 -0.11614754 0.26098138 -0.21652137 0.4596854 -0.3006131 -0.0049803196 -0.040985044
0.17559773 0.023346327 -0.0725577 0.11064417 0.39611813 -0.2042698 -0.32353166 0.23549424
-0.09092027 -0.19841006 0.09067588 0.023943378 0.23675917 -0.07791377 -0.038320333 0.052089136
-0.16719322 -0.14952601 0.084943905 -0.097607985 0.1767598 -0.30930537 -0.07560929 0.103463635
0.1964351 -0.12836583 -0.170208 0.023755826 0.25793052 -0.011248876 -0.38102266 -0.051700953
-0.017840035 0.1687814 -0.13822001 0.36846527 0.27376497 0.38945898 0.21940912 0.35551128
0.039377227 0.11745047 0.033258565 -0.08327171 -0.18588491 -0.037614953 0.28069538 -0.07457707
0.002898873 0.1228363 0.074408464 0.10065774 0.25560212 -0.3791665 -0.14583366 -0.25019962
-0.22520578 -0.0962335 -0.24751587 0.1963835 -0.0031376877 -0.49905154 -0.15431578 0.18987642
0.0015331595 0.2577565 -0.16282777 0.26604328 0.42091498 0.013749765 -0.1038812 0.12959276
-0.23702237 -0.12707476 0.21532167 -0.16049375 0.4978225 0.08694516 0.14268689 0.07832212
-0.21839671 0.10224346 -0.017193856 -0.21882464 0.009046825 -0.17266737 0.072430916 0.1795735
0.27477908 0.10654198 -0.1560011 0.2694923 0.43667868 -0.48182476 0.20341852 0.3103175
0.09435587 0.29333752 -0.09810323 0.12420451 0.22175738 0.01017477 -0.2944808 -0.24943204
-0.622784 -0.21918225 0.36673433 -0.053239595 -0.048238263 0.071259506 0.3067449 0.024425885
-0.05207356 0.061460212 0.017024754 0.20939617 -0.1410114 -0.19583619 -0.15639612 0.19852424
0.18255892 0.11759666 -0.115294084 0.014769827 0.09929847 -0.3856416 0.32806587 0.29466593
-0.025009986 0.10518904 -0.22427715 0.1308159 -0.052140508 0.14310068 0.17796452 0.03384522
-0.097991176 -0.3262763 -0.07176725 0.067677744 0.1355088 -0.00708855 -0.16938366 0.22836952
-0.0766288 0.23388426 0.29020602 0.15950899 -0.18535721 -0.12823567 0.046528496 -0.018746244
-0.060297284 0.08173566 0.093610324 0.23272602 -0.27565795 0.11572324 -0.067340694 0.1146499
0.3406063 0.18452102 -0.19664389 0.35841164 0.024050044 0.061783854 -0.2551933 0.15479735
0.027525818 0.087385006 0.22022675 0.007636674 0.011369711 -0.030076541 0.09963126 -0.1778347
0.21012703 -0.20034291 -0.10787705 0.0790737 0.029093489 0.20079955 -0.020994632 0.25070226
-0.060352497 -0.08524926 0.1466061 -0.40357882 0.15898079 0.10378137 0.15850341 -0.37616342
0.06290137 0.30452737 -0.029597497 0.2741314 0.18930015 0.17109348 0.21347769 0.26205477
-0.36187857 -0.04730924 -0.10423752 -0.019021444 -0.02168136 -0.10193605 -0.03043935 -0.124831565
0.15753902 -0.15341753 0.028566105 -0.07267039 0.031681113 -0.035726074 -0.010474772 -0.23407277
0.22443214 0.027953904 -0.12113184 0.032012768 0.2611024 -0.13566247 0.2626748 0.14080967
00000000: 7964 0dbd c8c3 b2bd 8bdb ce3d 9947 3ebd
00000010: 129b e63e 7cef 233d aa4a a3be e911 ca3e
00000020: c2ad fdbd d33a eebd 2b9e 6c3e df2f 29be
00000030: 8e11 fabd b008 25be b4a7 8ebc 09e9 a23c
00000040: 26aa b23d b228 67be 325e b6be f931 44bc
00000050: 4f67 1d3e 7391 743d 5144 03be 3404 63bb
00000060: 76ee 493e c3de edbd 5a9f 853e c7b7 5dbe
00000070: e25b eb3e f6e9 99be f331 a3bb efdf 27bd
00000080: e4cf 333e cc40 bf3c 2299 94bd 6999 e23d
00000090: ffcf ca3e 1a2c 51be f1a5 a5be 6725 713e
000000a0: 6834 babd 022c 4bbe 47b4 b93d e724 c43c
000000b0: ff70 723e 4191 9fbd c8f5 1cbd 6b5b 553d
000000c0: b334 2bbe 591d 19be 12f7 ad3d b2e6 c7bd
000000d0: 8500 353e 465d 9ebe 0bd9 9abd bee4 d33d
000000e0: 4826 493e 5572 03be 024b 2ebe 949b c23c
000000f0: 780f 843e 354d 38bc 6715 c3be 61c4 53bd
00000100: 4425 92bc 08d5 2c3e 8c89 0dbe 7ba7 bc3e
00000110: ec2a 8c3e 2b67 c73e c9ac 603e 9305 b63e
00000120: 044a 213d df89 f03d 223a 083d 5c8a aabd
00000130: 9d58 3ebe 2312 1abd 4eb7 8f3e ddbb 98bd
00000140: 05fb 3d3b 9991 fb3d 7763 983d a525 ce3d
00000150: 48de 823e 1d22 c2be 6b55 15be 2a1a 80be
00000160: 589c 66be 1216 c5bd cd74 7dbe c218 493e
00000170: aaa1 4dbb af83 ffbe f504 1ebe f76e 423e
00000180: 4cf4 c83a a9f8 833e 53bc 26be d336 883e
00000190: 2b82 d73e b246 613c abbf d4bd f7b3 043e
000001a0: feb5 72be e31f 02be 497d 5c3e 7958 24be
000001b0: 97e2 fe3e 4e10 b23d 831c 123e 5967 a03d
000001c0: 63a3 5fbe 0565 d13d 21da 8cbc 9113 60be
000001d0: 2239 143c b7cf 30be a956 943d 1ee2 373e
000001e0: d8af 8c3e ae32 da3d c1be 1fbe e5fa 893e
000001f0: 5994 df3e bcb1 f6be f24c 503e efe1 9e3e
00000200: a63d c13d 5630 963e 59ea c8bd ef5e fe3d
00000210: 5e14 633e 14b4 263c 30c6 96be 1d6b 7fbe
00000220: c66e 1fbf 5071 60be 9ac4 bb3e c311 5abd
00000230: 7c95 45bd 81f0 913d ab0d 9d3e cb18 c83c
00000240: 164b 55bd b4bd 7b3d 7f77 8b3c f36b 563e
00000250: 4b65 10be 4889 48be 4e26 20be f049 4b3e
00000260: baf0 3a3e 85d6 f03d 4e1f ecbd 25fd 713c
00000270: ff5c cb3d d172 c5be 40f8 a73e 74de 963e
00000280: bee1 ccbc 5a6d d73d e9a8 65be 9af4 053e
00000290: 4991 55bd fc88 123e 553c 363e 49a1 0a3d
000002a0: 99af c8bd b00d a7be b5fa 92bd a19a 8a3d
000002b0: d2c2 0a3e 1147 e8bb e972 2dbe b3d9 693e
000002c0: 8fef 9cbd 5b7f 6f3e e295 943e 5356 233e
000002d0: 48ce 3dbe 3650 03be aa94 3e3d b991 99bc
000002e0: 49fa 76bd 0765 a73d c5b6 bf3d bb4f 6e3e
000002f0: 0a23 8dbe 4e00 ed3d ebe9 89bd 91cd ea3d
00000300: f363 ae3e 14f3 3c3e 045d 49be bb81 b73e
00000310: 9904 c53c 1111 7d3d b2a8 82be 3283 1e3e
00000320: d37d e13c e9f6 b23d 1f83 613e 113d fa3b
00000330: 0648 3a3c 1463 f6bc 790b cc3d 4d1a 36be
00000340: 8a2b 573e b126 4dbe a5ee dcbd 64f1 a13d
00000350: 7855 ee3c 669e 4d3e effc abbc 0c5c 803e
00000360: 2e34 77bd 2a97 aebd e91f 163e e2a1 cebe
00000370: dccb 223e 548b d43d b84e 223e 7e98 c0be
00000380: 6fd2 803d 03eb 9b3e 7376 f2bc f35a 8c3e
00000390: e6d7 413e 2133 2f3e e599 5a3e 0b2c 863e
000003a0: 2648 b9be 55c7 41bd 7b7a d5bd dcd2 9bbc
000003b0: 1c9d b1bc d9c3 d0bd f25b f9bc b1a7 ffbd
000003c0: e951 213e 7c19 1dbe 7703 ea3c 37d4 94bd
000003d0: 0ec4 013d 8155 12bd 619e 2bbc c6b0 6fbe
000003e0: 8ad1 653e 96ff e43c f813 f8bd d21f 033d
000003f0: 37af 853e 1aeb 0abe 507d 863e 6930 103e

encoder_lstm.weight_hh_l1 f4 [128, 32]
-0.052326646 -0.10881765 -0.2240497 -0.0325472 -0.22377726 0.1155259 0.06960331 -0.14797378
-0.05940894 0.12553895 0.25901398 0.19995452 0.0009068384 -0.15415886 0.21758516 -0.06986133
-0.24077737 0.20493266 -0.21641676 0.023592483 0.09710662 -0.179668 -0.03734068 0.11841559
0.041231517 -0.23626831 0.01643235 0.21266006 -0.19499944 0.13593368 0.0928941 -0.3170653
0.15281934 -0.13136485 0.12218147 -0.08487489 -0.16722557 0.24808027 -0.13851462 3.916793e-05
0.064114094 -0.05452408 -0.058012404 0.13615294 0.074419715 0.0009929317 0.12480809 -0.030234598
0.2544867 0.10515992 -0.17738228 0.05338713 0.05477378 0.12188353 0.022458019 -0.025487639
-0.10603439 0.27125224 -0.0035558594 0.20178099 0.07882426 -0.046594236 0.085388824 0.22548537
-0.1389329 -0.00015556616 -0.14620484 -0.18247534 -0.2664681 0.12745537 -0.22016585 -0.070009366
0.2062554 0.08136624 0.2447869 -0.20197915 0.13424571 0.08260936 -0.14423674 0.35513574
0.40173858 0.003973873 0.072294354 -0.097814254 0.09037691 -0.028151419 0.086024396 -0.081309795
-0.04929949 0.16921431 0.061552178 -0.041232333 0.2042003 -0.1458046 -0.044379994 -0.004299011
-0.14306863 0.10963143 0.07678247 -0.24809416 0.14096117 -0.39305732 -0.18016936 -0.18348023
0.34270328 -0.17364103 -0.060213767 -0.1379336 0.06505208 0.23840554 0.24116561 -0.27591377
0.23763525 0.12702641 -0.13632694 -0.24101149 0.1069427 0.2012891 0.0639202 0.09504001
0.18771076 0.22935608 0.092672996 -0.24030997 -0.19739363 -0.18192402 -0.07276274 0.22641498
-0.09824043 -0.28872037 -0.060018327 0.0003992752 0.055162236 -0.32959682 -0.08856315 0.033449166
0.15773751 -0.0055867103 -0.056730274 -0.14580761 -0.13001616 0.33782488 -0.13582757 0.07017315
0.50410295 -0.16038437 0.113180794 -0.28840372 0.027208293 0.025826529 -0.28207722 0.057979304
-0.094220944 0.29423803 -0.15030372 -0.09266635 0.11374928 -0.23851831 -0.0786969 0.27273634
-0.16351819 -0.18859306 -0.024674412 -0.092291966 0.0017107252 -0.273954 -0.33031142 0.3811964
0.37895605 0.30036443 0.010500129 -0.10703456 0.124935105 0.09561259 -0.046257246 0.024373794
0.32243654 -0.31614918 0.12915473 -0.07928338 -0.091648385 0.11061262 -0.041287877 0.02391487
0.0031423788 0.3243077 0.18864983 -0.30463237 -0.12183304 -0.076497614 -0.31995085 -0.043360732
0.31348497 -0.04375274 0.11901401 -0.20651071 -0.29204988 0.2665065 0.05494389 0.08908663
-0.22819252 0.054170135 0.2606338 0.14601538 0.24154001 -0.071117386 -0.20170368 0.0841798
-0.13366051 -0.13879879 -0.06796275 0.15684599 0.120944835 0.35132927 0.12406204 -0.15345201
-0.27022722 0.07723112 -0.4693726 0.22129215 0.22403596 -0.17495626 0.28821847 0.11075029
-0.22351462 -0.10176456 -0.06341549 0.2132102 -0.26222077 0.25829104 0.01709149 -0.14739648
-0.126058 -0.20904891 0.058385022 -0.14074118 0.070128515 -0.1300473 -0.063878916 0.07242425
0.0016808072 0.08326281 0.023344936 0.23892345 0.040457297 -0.10175622 0.049223755 0.03582876
0.12762026 0.06111874 -0.059008062 -0.04376083 -0.23178901 0.19371589 0.1967769 -0.31973863
00000000: 7754 56bd cadb debd 496d 65be 3650 05bd
00000010: de25 65be d898 ec3d 2e8c 8e3d 7086 17be
00000020: ca56 73bd 488d 003e 7b9d 843e e1c0 4c3e
00000030: e5b8 6d3a d2db 1dbe a5ce 5e3e 7513 8fbd
00000040: 588e 76be ded9 513e 5b9c 5dbe 0645 c13c
00000050: d6df c63d e3fa 37be 8af2 18bd df83 f23d
00000060: 61e2 283d 52f0 71be 239d 863c 8fc3 593e
00000070: efad 47be 3332 0b3e 433f be3d 6256 a2be
00000080: ac7c 1c3e 8284 06be 473a fa3d e3d2 adbd
00000090: 2e3d 2bbe c108 7e3e c7d6 0dbe 3f48 2438
000000a0: 404e 833d a454 5fbd 6a9e 6dbd ad6b 0b3e
000000b0: 5d69 983d 4225 823a 629b ff3d 8cae f7bc
000000c0: 154c 823e 165e d73d b3a3 35be 77ac 5a3d
000000d0: 795a 603d 129e f93d e1f9 b73c 74cb d0bc
000000e0: 8f28 d9bd 93e1 8a3e 6c09 69bb ad9f 4e3e
000000f0: 9d6e a13d 99d9 3ebd 56e0 ae3d a3e5 663e
00000100: 6d44 0ebe 791f 23b9 b9b6 15be d1da 3abe
00000110: 826e 88be a983 023e 2873 61be 1261 8fbd
00000120: 9e34 533e 58a3 a63d 6ba9 7a3e 9fd3 4ebe
00000130: b577 093e 192f a93d ccb2 13be 5ad4 b53e
00000140: aeb0 cd3e 4337 823b 100f 943d d752 c8bd
00000150: 8817 b93d ce9d e6bc 8f2d b03d c085 a6bd
00000160: 43ee 49bd 8446 2d3e 231e 7c3d 3ce3 28bd
00000170: e219 513e cd4d 15be ccc7 35bd b8de 8cbb
00000180: 9580 12be 7186 e03d 2140 9d3d 650c 7ebe
00000190: 2058 103e cf3e c9be 517e 38be 3ee2 3bbe
000001a0: ce76 af3e f4ce 31be b6a2 76bd 773e 0dbe
000001b0: 063a 853d 9520 743e 1ef4 763e 9244 8dbe
000001c0: a856 733e 3613 023e 4a99 0bbe b7cb 76be
000001d0: c604 db3d bb1e 4e3e 98e8 823d 56a4 c23d
000001e0: 4037 403e 52dc 6a3e 57cb bd3d d113 76be
000001f0: 8e21 4abe 4a4a 3abe a204 95bd 54d9 673e
00000200: 4732 c9bd 28d3 93be c7d5 75bd cf55 d139
00000210: ccf1 613d eac0 a8be 9960 b5bd fe01 093d
00000220: f185 213e b910 b7bb 015e 68bd 974e 15be
00000230: f522 05be 62f7 ac3e 6216 0bbe f1b6 8f3d
00000240: e40c 013f cd3b 24be 55cb e73d a7a9 93be
00000250: ede3 de3c 2892 d33c 6d6c 90be b57b 6d3d
00000260: e9f6 c0bd 5ea6 963e 38e9 19be dbc7 bdbd
00000270: 62f5 e83d 253e 74be d72b a1bd 19a4 8b3e
00000280: 5071 27be 8a1e 41be fe21 cabc 9203 bdbd
00000290: 6a3a e03a b343 8cbe 941e a9be 2d2c c33e
000002a0: 8706 c23e 5ec9 993e bc08 2c3c ef34 dbbd
000002b0: fadd ff3d 89d0 c33d 3d78 3dbd 8dab c73c
000002c0: 6716 a53e 4ede a1be 2341 043e 535f a2bd
000002d0: 26b2 bbbd df88 e23d 7a1d 29bd 1ee9 c33c
000002e0: 5ef0 4d3b a90b a63e 6c2d 413e c6f8 9bbe
000002f0: 9a83 f9bd c8aa 9cbd 99d0 a3be 069b 31bd
00000300: 1a81 a03e 1336 33bd 9ebd f33d 8b77 53be
00000310: 9087 95be 8a73 883e d80c 613d 0d73 b63d
00000320: 4dab 69be 81e1 5d3d cb71 853e 0e85 153e
00000330: 4456 773e fea5 91bd 698b 4ebe 7566 ac3d
00000340: 4dde 08be 4521 0ebe 0e30 8bbd 3c9c 203e
00000350: edb1 f73d 6ee1 b33e 3d14 fe3d 8622 1dbe
00000360: 395b 8abe 592b 9e3d 9b51 f0be 699a 623e
00000370: af69 653e bc27 33be 5f91 933e 0cd1 e23d
00000380: 04e1 64be f069 d0bd fbdf 81bd c653 5a3e
00000390: cd41 86be b93e 843e 7403 8c3c 1aef 16be
000003a0: 5915 01be eb10 56be 2225 6f3d 751e 10be
000003b0: 8a9f 8f3d 1f2b 05be f3d2 82bd 2a53 943d
000003c0: 884e dc3a b185 aa3d e13d bf3c 59a8 743e
000003d0: 8db6 253d 9165 d0bd d99e 493d 2ec1 123d
000003e0: e3ae 023e a557 7a3d 70b2 71bd 8e3e 33bd
000003f0: 195a 6dbe 755d 463e e27f 493e c8b4 a3be

encoder_lstm.bias_ih_l1 f4 [128]
-0.056679208 -0.14100057 -0.2590659 -0.19753447 0.059956647 0.09804606 0.20914496 0.06906441
-0.18872605 -0.033444524 0.25830793 -0.16137707 0.12938257 0.10038015 0.03137804 -0.10222547
0.10935797 -0.07464605 -0.08366767 0.010147821 0.088018574 -0.18216632 -0.19370568 -0.22426833
0.13085395 0.08558465 -0.18462728 0.07924694 -0.028985213 -0.13258617 0.052485522 -0.011214184
0.14835669 -0.030909987 0.24276352 0.09449943 -0.054100867 0.0828223 0.06406944 -0.118732296
0.35339543 -0.20175192 0.24729525 0.2229711 0.12676856 0.16297854 0.2605914 -0.034590945
-0.18506604 0.2717437 0.2664851 -0.044425912 -0.05871888 -0.023792248 0.18214707 -0.040581044
0.099865474 0.27074647 -0.12625192 0.36139867 0.44001117 -0.017012445 -0.095498495 0.08190828
0.034268975 -0.13009764 -0.067087166 0.06685668 -0.12598956 -0.025305824 0.005375935 -0.03462709
-0.19258742 0.029194592 0.22226521 0.22134008 0.08182252 -0.06749325 -0.08662511 0.10996965
-0.1003414 0.20431301 -0.22178717 0.098957546 0.019457959 0.023638332 0.09405208 -0.16987836
0.048610557 0.03147892 -0.1176584 -0.013994014 0.06665044 0.01801249 0.04393748 -0.088532746
-0.10219639 0.1239281 0.053843137 0.18458343 0.169895 -0.19811377 0.2099174 0.0064339587
0.08462898 -0.12391557 0.11096942 0.21150798 0.09679052 0.018455595 -0.09503496 0.17520079
-0.12439031 0.20586006 0.14556123 0.118161194 0.115669236 0.2193063 0.18706654 -0.14952329
0.07427752 0.011516364 0.13416623 0.1888525 -0.002539681 -0.027063297 -0.012374067 -0.021429533
00000000: 7528 68bd 7462 10be 49a4 84be 7a46 4abe
00000010: 1a95 753d 5fcc c83d 192a 563e a471 8d3d
00000020: 6741 41be 20fd 08bd f040 843e 0840 25be
00000030: dd7c 043e 1c94 cd3d 4286 003d 965b d1bd
00000040: 12f7 df3d 07e0 98bd f559 abbd 0c43 263c
00000050: 1543 b43d cf89 3abe c85a 46be 99a6 65be
00000060: 94fe 053e 0147 af3d ef0e 3dbe 384c a23d
00000070: 6672 edbc abc4 07be 0ffb 563d b2bb 37bc
00000080: d1ea 173e f136 fdbc 0097 783e eb88 c13d
00000090: df98 5dbd bd9e a93d d736 833d eb29 f3bd
000000a0: 3ff0 b43e 0e98 4ebe f73a 7d3e 8952 643e
000000b0: 9ecf 013e d9e3 263e 3c6c 853e 3caf 0dbd
000000c0: f481 3dbe fe21 8b3e bc70 883e f2f7 35bd
000000d0: 3583 70bd f6e7 c2bc c384 3a3e 4f38 26bd
000000e0: 4586 cc3d 489f 8a3e 2f48 01be 3f09 b93e
000000f0: 2549 e13e af5d 8bbc b794 c3bd 87bf a73d
00000100: a05d 0c3d 5138 05be ff64 89bd 28ec 883d
00000110: 6803 01be 294e cfbc 9d28 b03b 23d5 0dbd
00000120: a335 45be 7f29 ef3c 7e99 633e f9a6 623e
00000130: 9192 a73d e739 8abd 8168 b1bd c537 e13d
00000140: cb7f cdbd 6e37 513e 2d1c 63be 41aa ca3d
00000150: 4c66 9f3c 2da5 c13c 609e c03d 98f4 2dbe
00000160: dd1b 473d 0af0 003d e3f6 f0bd 2647 65bc
00000170: 0780 883d ee8e 933c c9f7 333d a850 b5bd
00000180: 574c d1bd 04ce fd3d 9f8a 5c3d 7003 3d3e
00000190: f4f8 2d3e 56de 4abe 96f4 563e f5d3 d23b
000001a0: f551 ad3d 72c7 fdbd ef43 e33d 8c95 583e
000001b0: 1c3a c63d 3030 973c b0a1 c2bd d667 333e
000001c0: 59c0 febd fbcc 523e 010e 153e 7ffe f13d
000001d0: fee3 ec3d d591 603e 5f8e 3f3e a21c 19be
000001e0: d01e 983d 22af 3c3c df62 093e 8d62 413e
000001f0: c770 26bb d9b3 ddbc 99bc 4abc fd8c afbc
