W3-Design/checkpoints/epoch_8.pt (torch, 384133 bytes, 24 tensors)

encoder_cnn.0.weight f4 [32, 3, 3]
0	0xbe43bc3f	-0.19114779
1	0xbd4ab994	-0.049493387
2	0xbe32b843	-0.17453103
3	0x3e61e8fe	0.22061536
4	0xbe85813c	-0.2607516
5	0x3e65f8de	0.22458217
6	0x3e01617b	0.12634842
7	0x3e31ac10	0.17350793
8	0x3e392886	0.18081865
9	0xba8ae066	-0.001059544
10	0xbbd3b2e7	-0.006460536
11	0xbdd14811	-0.10218824
12	0xbda895ed	-0.08231721
13	0xbe01d1f1	-0.12677743
14	0x3dd43eb2	0.10363521
15	0xbd9354a5	-0.07193879
16	0x3eaa4594	0.3325621
17	0xbb601216	-0.0034190468
18	0x3d0153a2	0.0315739
19	0x3e639ca7	0.22227727
20	0x3ef3503d	0.47522154
21	0x3e8aa9bd	0.27082625
22	0x3eaaafcd	0.3333725
23	0xbe7b28ae	-0.24527237
24	0xbda22454	-0.07917085
25	0x3e3192c2	0.1734114
26	0xbc813135	-0.015770534
27	0xbd130578	-0.035893887
28	0x3e022065	0.1270767
29	0xbe1940aa	-0.14966074
30	0x3c56f72e	0.013120456
31	0x3d475db4	0.048673347
32	0x3c8a5836	0.016887765
33	0x3de6bf2a	0.112669304
34	0x3e4d6df2	0.20061472
35	0xbd6235ba	-0.05522702
36	0xbd94c66d	-0.07264409
37	0x3e2bf5fd	0.16793056
38	0xbbbd0a7a	-0.005769071
39	0x3ee3193d	0.44355193
40	0xbe20e7c6	-0.15713415
41	0x3e9ddda9	0.30833176
42	0x3d5ffb97	0.054683294
43	0x3dbb46dc	0.09144375
44	0xbeab9ce9	-0.3351815
45	0xbba25fcf	-0.004955269
46	0xbd94c759	-0.07264585
47	0x3ea13c1a	0.31491166
48	0xbe5e803f	-0.2172861
49	0xbe325d06	-0.17418298
50	0x3d65fb94	0.056148127
51	0x3e83124a	0.2559989
52	0x3ea7cf02	0.32775122
53	0xbe76c94f	-0.2410023
54	0xbe299530	-0.16560817
55	0xbe1ac6dc	-0.15114921
56	0x3e13e3c3	0.14442353
57	0x3e0c4e27	0.13701688
58	0x3dc16555	0.09443156
59	0xbe3b8b23	-0.18314795
60	0xbcf6f05e	-0.030143913
61	0x3e2120b5	0.15735133
62	0xbe93219e	-0.28736585
63	0x3d3d2648	0.046179086
64	0xbdefaee1	-0.117032774
65	0x3e8fc00d	0.2807621
66	0x3eac6a7d	0.33674994
67	0xbe52f746	-0.2060214
68	0xbea0bc8e	-0.31393856
69	0xbdb4ce47	-0.08828407
70	0xbd1cb0ba	-0.038254477
71	0x3ee29273	0.44252357
72	0x3c970051	0.018432768
73	0x3e11b333	0.14228515
74	0xbdd3e2fb	-0.103460275
75	0xbdc3d89b	-0.095627986
76	0xbe8d51ff	-0.2760162
77	0x3ebcebe8	0.36898732
78	0xbe9b0c46	-0.302828
79	0x3e6e0759	0.2324499
80	0xbd741000	-0.05958557
81	0xbdf3403f	-0.11877488
82	0x3e2e365f	0.17012928
83	0xbe233d0b	-0.15941255
84	0x3e9d97f6	0.3078
85	0x3cd13ebc	0.02554261
86	0xbe2ce55d	-0.1688437
87	0x3e40aa33	0.18814926
88	0x3e4d2491	0.2003348
89	0x3da6daa1	0.08147169
90	0xbdd96c5b	-0.1061637
91	0xbc10b552	-0.008832293
92	0x3ca1bcd5	0.019743362
93	0x3e46079c	0.1933884
94	0xbebd22a5	-0.36940494
95	0xbeca6653	-0.39531192
96	0xbea89335	-0.3292481
97	0x3d4b7044	0.04966761
98	0xbe37ea75	-0.17960532
99	0xbca178ef	-0.019710986
100	0x3d4f8b6c	0.050670072
101	0x3e6ce348	0.23133576
102	0x3cd4be64	0.025969692
103	0x3e9412f2	0.28920704
104	0xbb9be9e4	-0.0047581065
105	0xbe8eb85f	-0.2787504
106	0xbeb8a85c	-0.36065948
107	0xb97363fd	-0.00023211534
108	0xbe313e41	-0.17308904
109	0x3e4ea22a	0.20179048
110	0x3dc8711c	0.09787199
111	0xbdd10a25	-0.10207013
112	0xbec37824	-0.38177598
113	0xbef0cbdc	-0.47030532
114	0x3eb2e4ca	0.34940177
115	0xbd66b9f6	-0.05632969
116	0xbe6a2781	-0.22866632
117	0x3e052662	0.13002923
118	0xbd9379f0	-0.07200992
119	0x3e832b4c	0.2561897
120	0xbc22a175	-0.00992619
121	0xbea1356a	-0.31486064
122	0xbe697c73	-0.2280138
123	0xbe512757	-0.20425163
124	0xbeb3a448	-0.35086274
125	0xbea44704	-0.3208543
126	0xbdd1b9fb	-0.10240551
127	0xbe2f7dab	-0.17137782
128	0xbddfe2b7	-0.10931914
129	0x3eb8c514	0.3608786
130	0xbc1fbb19	-0.009749197
131	0xbe46e747	-0.19424163
132	0x3df77cda	0.120843604
133	0x3e30f7f4	0.17282087
134	0xbe11f6a5	-0.14254244
135	0x3eebc6a4	0.46049988
136	0x3e81f203	0.25379953
137	0xbc28cfac	-0.010303419
138	0xbea77b36	-0.3271119
139	0x3dcbd5db	0.09952899
140	0xbe076ea3	-0.13225798
141	0xbeb4ab5e	-0.35286993
142	0xbbf10a06	-0.007355931
143	0xbd9ee6d1	-0.077588685
144	0x3e4dee98	0.20110548
145	0xbe26bf3b	-0.16283886
146	0xbeaf6d4a	-0.34263068
147	0x3e0516b9	0.1299695
148	0xbda4d5d3	-0.08048596
149	0xbe20ff69	-0.15722431
150	0x3e0b1f21	0.13586093
151	0xbe556f39	-0.2084321
152	0x3dcc347a	0.099709466
153	0x3deb8784	0.11500457
154	0x3eadac54	0.33920538
155	0x3da9e00b	0.08294686
156	0x3e6b79ea	0.22995725
157	0xbebed933	-0.37275085
158	0x3e942a01	0.28938296
159	0xbd947933	-0.072496794
160	0xbea43cce	-0.3207764
161	0xbdb9bde1	-0.0906942
162	0x3e75191f	0.23935364
163	0x3e3a1187	0.18170749
164	0xbe2e4069	-0.17016758
165	0xbe3795ae	-0.17928192
166	0xbef7ed8e	-0.48423427
167	0xbe27dda1	-0.16393138
168	0x3db8d4a0	0.0902493
169	0xbe8cdaff	-0.2751083
170	0xbda18103	-0.07885935
171	0xbe08b0a9	-0.1334864
172	0x3e0624c8	0.13099968
173	0x3daa14b1	0.08304728
174	0xbe87f8c5	-0.26556984
175	0xbed87a3d	-0.4228076
176	0x3defc4fc	0.11707494
177	0xbeb6542c	-0.35611093
178	0xbd1ddb83	-0.03853942
179	0x3e0080b6	0.125491
180	0xbd3a7ec5	-0.045531053
181	0xbdb1c68c	-0.08680448
182	0xbdbd44af	-0.09241616
183	0xbdb5f6c2	-0.08884956
184	0x3e9b709f	0.3035936
185	0x3dd648e5	0.10463122
186	0x3e7fbb1a	0.24973717
187	0x3e611df8	0.21984088
188	0xbe054f46	-0.13018522
189	0x3ebabd33	0.36472473
190	0xbd145706	-0.036215805
191	0xbd1dd15a	-0.03852973
192	0xbe09062f	-0.13381265
193	0x3e891ad6	0.26778287
194	0x3dbf20c4	0.093324214
195	0xbdbadc63	-0.09124067
196	0xbeccf0f3	-0.4002758
197	0xbe997f50	-0.29979944
198	0x3dfe6733	0.124220274
199	0xbed4f5d0	-0.4159379
200	0x3d733d41	0.05938459
201	0x3dbfd76b	0.093672596
202	0x3e2a1b68	0.16612017
203	0xbde335a0	-0.110942125
204	0xbdb2bce2	-0.08727433
205	0xbe459728	-0.19295943
206	0xbe900983	-0.28132257
207	0x3e47f657	0.19527565
208	0xbe577ec7	-0.21044455
209	0xbe25ad60	-0.16179419
210	0xbdf6529d	-0.12027476
211	0x3d50e42c	0.05099885
212	0xbc671d8b	-0.014106165
213	0x3dd5252a	0.10407479
214	0x3e553dc2	0.2082434
215	0x3e911de8	0.2834313
216	0x3d7c645d	0.06161915
217	0x3e057c07	0.13035594
218	0xbddb6b61	-0.1071384
219	0x3de20488	0.110360205
220	0x3ce28675	0.027652005
221	0xbe5f300d	-0.21795674
222	0x3cee9d9f	0.029127894
223	0x3d6503dd	0.055911887
224	0x3da420a1	0.08014036
225	0x3e818b3b	0.25301537
226	0x3c0ceb24	0.008600984
227	0x3eb40319	0.35158613
228	0x3e47dd7c	0.19518083
229	0x3e46ccb1	0.19414021
230	0xbda417b8	-0.080123365
231	0xbe93eec8	-0.28893113
232	0x3dc183f3	0.094489954
233	0x3e991a01	0.29902652
234	0xbed5eca7	-0.41782114
235	0xbd0267de	-0.031837337
236	0xbe338b78	-0.17533672
237	0x3eb40295	0.3515822
238	0x3e39a1bf	0.18128107
239	0xbe3b8363	-0.18311839
240	0x3ea2a04e	0.31762928
241	0xbc099752	-0.008397894
242	0xbdd24d05	-0.102685966
243	0xbe584f7d	-0.21124072
244	0xbc6a9be3	-0.014319393
245	0xbd6df62a	-0.05809609
246	0xbdd66f16	-0.10470407
247	0xbdb3bb37	-0.08775943
248	0x3e89f2c9	0.26943043
249	0xbe290639	-0.1650628
250	0x3e96bca8	0.29440808
251	0x3e05bacf	0.13059543
252	0x3e700ae0	0.23441648
253	0xbce61e50	-0.028090626
254	0xbd266be2	-0.04063023
255	0xbd16a42f	-0.03677767

encoder_cnn.0.bias f4 [32]
0	0xbdfd8153	-0.12378182
1	0xbd864358	-0.065558136
2	0x3f1424b4	0.57868505
3	0xbf60b823	-0.8778097
4	0xbe209baa	-0.15684381
5	0x3d49bb1c	0.049250707
6	0xbf104b1b	-0.563646
7	0xbe355f0c	-0.17712039
8	0x3dc87ade	0.0978906
9	0xbea1ed49	-0.31626347
10	0x3e69f487	0.22847186
11	0x3db68b54	0.089132935
12	0x3eab2a6f	0.33430812
13	0xbe01a775	-0.12661536
14	0xbefb332c	-0.4906248
15	0x3ef34e95	0.4752089
16	0xbeafed57	-0.34360763
17	0x3e8e3813	0.27777156
18	0x3eb63d6d	0.3559374
19	0xbeac6f5e	-0.33678716
20	0xbee17995	-0.44038072
21	0x3f0b88ab	0.54505414
22	0x3e2b91fb	0.16754906
23	0xbee5492b	-0.44782385
24	0xbe43744e	-0.19087335
25	0xbd171870	-0.03688854
26	0xbefb1343	-0.49038133
27	0xbf0916f6	-0.5355066
28	0xbf000ed8	-0.5002265
29	0xbe485a39	-0.19565667
30	0xbeeebb3c	-0.46627223
31	0x3dd2de78	0.10296339

encoder_cnn.2.weight f4 [64, 32, 3]
0	0xbe1c7b72	-0.15281466
1	0x3d50161e	0.050802343
2	0x3c94d32e	0.018167105
3	0x3d1f883f	0.038948294
4	0x3da7b3b0	0.081885695
5	0x3e1c9a32	0.15293196
6	0x3e5fc996	0.21854243
7	0x3e182556	0.14857993
8	0x3d37573b	0.044760924
9	0x3c20b0e5	0.0098078
10	0xbe3490f2	-0.17633417
11	0xbc5da722	-0.013528617
12	0x3d836c12	0.06417097
13	0x3d4d7444	0.050159708
14	0xbdcef2d8	-0.101049125
15	0xbd585e16	-0.052824102
16	0x3db17b90	0.08666146
17	0xbd6d30a6	-0.057907723
18	0x3ec0584e	0.3756737
19	0x3e71a0d0	0.23596501
20	0x3e388ee6	0.18023261
21	0x3d182fdb	0.037155014
22	0xbb288009	-0.002571108
23	0xbda85626	-0.082195565
24	0x3e3894c6	0.18025503
25	0x3bd7fe72	0.0065916115
26	0x3dcce21d	0.10004065
27	0x3d076e63	0.033064257
28	0x3d09c14c	0.033631608
29	0x3e15ef23	0.14642005
30	0x3d87ada3	0.066249155
31	0x3e4b1745	0.19833095
32	0x3dd4f694	0.103985935
33	0x3dc345ec	0.09534821
34	0x3d00a522	0.031407483
35	0xbdca078e	-0.09864722
36	0x3dcabafe	0.09898947
37	0x3c30021d	0.010742691
38	0x3cb7258f	0.022356777
39	0x3e82ad04	0.25522625
40	0x3e6228f8	0.22085941
41	0x3e4e015a	0.20117703
42	0x3e395e85	0.18102463
43	0xbca37ba1	-0.019956412
44	0x3de18280	0.11011219
45	0x3e6b7302	0.22993091
46	0x3e4b8132	0.19873503
47	0xbbdde681	-0.006771863
48	0x3e4c052b	0.19923846
49	0x3e1eb308	0.15497983
50	0x3e278e9c	0.16362995
51	0x3e17cfe5	0.14825399
52	0x3d7032cc	0.058642194
53	0xbcbe50fd	-0.023231978
54	0xbc966e01	-0.018363
55	0xbc4d4d5f	-0.012530654
56	0xbd14de07	-0.036344554
57	0x3d9b21bc	0.07574794
58	0x3d46f476	0.04857298
59	0x3e068cb6	0.13139614
60	0x3d0f91db	0.035051208
61	0xbe1aa60b	-0.15102403
62	0x3d499d83	0.04922248
63	0x3dcb287a	0.0991983
64	0x3d05f7b7	0.032706942
65	0xbd7146c9	-0.058905397
66	0x3e9bb227	0.30409357
67	0x3d577e7b	0.052610856
68	0x3e27e811	0.1639712
69	0xbd0e9d63	-0.034818064
70	0xbdd5eb18	-0.10445231
71	0x3d4e9fa4	0.050445214
72	0x3de33201	0.11093522
73	0xbd4ba279	-0.049715493
74	0x3dbbb132	0.09164657
75	0x3d48c3d3	0.049014878
76	0x3e284e89	0.16436209
77	0xbddf99e1	-0.10918022
78	0xbd9e1810	-0.07719433
79	0x3dae9664	0.085247785
80	0xbd3e088d	-0.046394873
81	0x3e13ca3e	0.14432618
82	0x3ce0c20d	0.02743628
83	0xbd0f7024	-0.035019055
84	0xbdda70e2	-0.10666062
85	0xbebff41e	-0.37490934
86	0xbe4788d8	-0.19485795
87	0x3dccd696	0.100018665
88	0x3d394bd0	0.045238316
89	0x3e0a1d92	0.13487843
90	0x3e8201ff	0.25392148
91	0x3da1b044	0.07894948
92	0x3e3b2452	0.18275574
93	0x3e39cb45	0.18143947
94	0x3d9f1ee3	0.07769563
95	0x3da38a94	0.07985416
96	0xbda6b90d	-0.081407644
97	0xbc4a6bdd	-0.012354818
98	0x3d9ba07a	0.07598968
99	0xbd40dab9	-0.04708359
100	0xbcc13006	-0.02358247
101	0xbae4532b	-0.0017419806
102	0xbece14bf	-0.40250203
103	0xbe94fbcf	-0.29098365
104	0xbe8270c7	-0.25476667
105	0xbd83a4a4	-0.06427887
106	0x3cf008b6	0.029301029
107	0xbdb8da2a	-0.090259865
108	0xbea1c45f	-0.31595132
109	0xbeb17e41	-0.34666637
110	0xbe5d4c92	-0.2161124
111	0x3d35ea00	0.044412613
112	0x3d6d7089	0.05796865
113	0x3d9dd44b	0.07706507
114	0x3d56072e	0.05225294
115	0xbe0b690e	-0.13614294
116	0xbe55bfac	-0.20873898
117	0xbe05076b	-0.12991111
118	0x3d0250e0	0.03181541
119	0x3d578213	0.052614283
120	0x3e0fa1f6	0.14026627
121	0xbe2228df	-0.15835904
122	0x3bf29157	0.0074025798
123	0x3cd066d7	0.025439663
124	0x3d1261e7	0.0357379
125	0xbc650cde	-0.013980119
126	0x3bb5244b	0.005528008
127	0xbc806280	-0.015671968
128	0xbba783bb	-0.005112139
129	0xbea94527	-0.33060572
130	0xbe1a95da	-0.15096226
131	0xbecdf403	-0.4022523
132	0x3d53c3ca	0.05170039
133	0x3d47c1c0	0.04876876
134	0x3cad807c	0.02117943
135	0x3cc0b20f	0.023522405
136	0x3d9980bb	0.074952565
137	0x3de9c74a	0.114149645
138	0xbdb9d262	-0.090733305
139	0xbcd509ee	-0.026005711
140	0xbe0c13d2	-0.13679436
141	0xbdeb4786	-0.114882514
142	0xbd083fa1	-0.033263806
143	0xbde94fe6	-0.113921925
144	0xbdff8c5a	-0.12477942
145	0x3d8e772f	0.06956326
146	0xbd68d833	-0.05684681
147	0xbe34ba35	-0.17649157
148	0xbe8a3291	-0.26991704
149	0xbe53bf16	-0.20678362
150	0x3d77f7fb	0.060539227
151	0x3db49511	0.08817495
152	0x3de82b72	0.113364115
153	0x3e2a0984	0.16605192
154	0x3df440e5	0.1192644
155	0x3e102acd	0.14078827
156	0xbcf53f4e	-0.029937413
157	0xbc1b7b70	-0.009489879
158	0xbcefbbde	-0.029264387
159	0xbe68704c	-0.22699088
160	0xbe4ae176	-0.19812569
161	0xbe3a6828	-0.18203795
162	0x3c8d4d7a	0.017248858
163	0xbd84e560	-0.06489062
164	0xbd507c05	-0.050899524
165	0x3c9d5bb2	0.019208763
166	0xbd7828df	-0.060585853
167	0xb8cda9d0	-9.806792e-05
168	0xbd080246	-0.033205293
169	0xbc8f2f8f	-0.017478732
170	0x3d165d66	0.036710165
171	0xbe508c89	-0.2036611
172	0xbe497987	-0.19675265
173	0xbdb88686	-0.09010033
174	0xbd4bea9f	-0.0497843
175	0xbd20c15d	-0.039246906
176	0xbe4b0fee	-0.19830295
177	0xbe1cca35	-0.15311511
178	0xbd62581e	-0.055259816
179	0xbcbf9f15	-0.023391286
180	0xbe013dc6	-0.12621221
181	0xbdc83b1b	-0.097768985
182	0x3da1f81c	0.07908651
183	0x3cb997fd	0.022655481
184	0x3b3fce95	0.002926742
185	0x3a58443e	0.0008249915
186	0xbd9cac34	-0.07650033
187	0xbd670693	-0.056402754
188	0xbdac43e8	-0.084113896
189	0xbc9a7530	-0.018854707
190	0xbe4273e9	-0.18989529
191	0xbe2aaf1c	-0.16668361
192	0x3e95f8a6	0.29291266
193	0x3e742dfd	0.23845668
194	0x3e05e15d	0.1307425
195	0x3e42b345	0.19013698
196	0x3ebb06a9	0.3652852
197	0xbcab9596	-0.020945352
198	0xbe86b95a	-0.26313287
199	0xbe12f361	-0.14350654
200	0xbea83b80	-0.32857895
201	0x3e14e082	0.14538768
202	0xbd82e825	-0.06391934
203	0xbd32af7a	-0.04362438
204	0xbe1a1823	-0.1504827
205	0xbe995bc7	-0.29952833
206	0xbf1ae6f9	-0.60508686
207	0xbe16cd39	-0.14726724
208	0x3eb24cd4	0.3482424
209	0xbd9d1779	-0.07670493
210	0xbd9e89dd	-0.07741139
211	0x3d1c88b5	0.03821631
212	0x3dc515f6	0.09623329
213	0xbd76cd00	-0.060254097
214	0x3ea1a013	0.3156744
215	0xbe334fee	-0.1751096
216	0x3dd36db3	0.10323658
217	0xbe62c338	-0.22144783
218	0xbdf6ce4f	-0.12051069
219	0x3e88c4af	0.26712558
220	0xbbe1071f	-0.006867304
221	0xbd87d897	-0.06633108
222	0x3d851573	0.06498232
223	0x3e6d460a	0.23171249
224	0x3dbadd5f	0.091242544
225	0xbdc8f04b	-0.09811457
226	0x3ddd8908	0.10817152
227	0xbe6a9bb0	-0.22910953
228	0xbe203cea	-0.15648237
229	0xbc4d7e82	-0.012542369
230	0x3dd0ffc4	0.102050334
231	0xbe953bd0	-0.29147196
232	0xbe3264cc	-0.17421263
233	0xbe21daca	-0.15806118
234	0x3eec50fe	0.46155542
235	0x3e3889ab	0.18021266
236	0xbcfa28d5	-0.030537048
237	0x3dbec4d9	0.093148895
238	0xbe13d96e	-0.14438412
239	0xbebcd64f	-0.36882254
240	0x3eb4317b	0.35194
241	0x3e4abf77	0.197996
242	0xbe065809	-0.1311952
243	0x3c54686e	0.012964351
244	0xbdde62e6	-0.10858707
245	0xbedd1e55	-0.43187204
246	0xbe856f49	-0.26061466
247	0xbe6c3579	-0.23067273
248	0x3d4f199c	0.050561532
249	0xbe5df647	-0.21675979
250	0x3dc81859	0.09770269
251	0x3e23a798	0.159819
252	0x3e97960b	0.2960666
253	0x3e7db6fa	0.24776831
254	0xbd05dcc3	-0.032681238
255	0x3acdd572	0.001570387

encoder_cnn.2.bias f4 [64]
0	0x3e032cbd	0.12810035
1	0xbdb59384	-0.08866027
2	0x3cf47d48	0.029844895
3	0x3cf8b9af	0.030361978
4	0x3b02f652	0.0019983244
5	0x3e152dd2	0.1456826
6	0xbd83b838	-0.06431621
7	0xbc434c4a	-0.011920044
8	0xbe211984	-0.1573239
9	0xbc81c6eb	-0.015841922
10	0x3e8852a1	0.2662554
11	0xbcdddbbf	-0.027082322
12	0x3d6451ca	0.055742063
13	0xbdbea1fc	-0.0930824
14	0xbded8c5e	-0.115990385
15	0xbd707312	-0.05870349
16	0x3dd2850e	0.102792844
17	0x39cb96fb	0.00038831666
18	0xbd4a982f	-0.04946154
19	0xbdb45fc1	-0.08807326
20	0xbe12c0da	-0.1433138
21	0xbcbc779c	-0.023006253
22	0x3d846531	0.06464613
23	0x3d53604d	0.05160551
24	0xbe6cd71e	-0.23128936
25	0x3e105843	0.14096169
26	0xbe3c3cbd	-0.18382545
27	0xbd138c36	-0.036022387
28	0x3dc093ed	0.094032146
29	0xbdeab9fa	-0.114612535
30	0x3d1865e8	0.03720656
31	0xbe7da61d	-0.24770398
32	0xbe0d354f	-0.13789867
33	0x3dc6179c	0.09672472
34	0x3e4cf069	0.20013584
35	0xbe2216d8	-0.15829027
36	0xbdb15303	-0.08658411
37	0xbe8701e3	-0.26368627
38	0x3e3ac8a1	0.18240596
39	0x3aa7f1c5	0.0012813142
40	0xbe00e000	-0.12585449
41	0xbe46e96b	-0.1942498
42	0x3df58c2c	0.11989626
43	0xbe1b7bf9	-0.1518401
44	0xbd353068	-0.044235617
45	0xbed01cee	-0.40647072
46	0xbe64c086	-0.22339067
47	0xbe18be69	-0.14916386
48	0xbe06d596	-0.13167414
49	0x3e8a4ded	0.27012578
50	0xbd93cb13	-0.07216468
51	0xbe617838	-0.22018516
52	0xbe8e537e	-0.27798074
53	0xbd698a3b	-0.057016592
54	0xbdc647c4	-0.09681657
55	0x3cf66d3c	0.030081384
56	0xbd65587a	-0.05599258
57	0xbe13cc2c	-0.14433354
58	0xbd1f03f3	-0.038822126
59	0xbe028728	-0.1274687
60	0xbea81803	-0.3283082
61	0x3e987084	0.29773343
62	0xbe3707b7	-0.17874037
63	0xbe4f3bc2	-0.2023764

encoder_lstm.weight_ih_l0 f4 [128, 64]
0	0x3e997c9a	0.29977876
1	0x3d36b825	0.044609208
2	0x3d8f9349	0.07010514
3	0x3cf516e8	0.02991815
4	0x3ecfd7c4	0.40594304
5	0x3dcf9721	0.101362474
6	0xbd985bc3	-0.07439377
7	0x3e409ca1	0.18809749
8	0x3e94b196	0.29041737
9	0x3d59abfe	0.05314254
10	0x3e70b4ee	0.23506519
11	0x3e8b8b4e	0.2725472
12	0x3e577169	0.21039356
13	0xbe12791b	-0.1430401
14	0xbdc04539	-0.09388203
15	0x3e6fe358	0.23426569
16	0x3e6d9ccb	0.23204343
17	0xbe0201c1	-0.12695982
18	0xbd96730f	-0.073461644
19	0x3c56eb6b	0.013117651
20	0xbc4cb5d6	-0.012494525
21	0x3de76a97	0.11299627
22	0x3e5d1f82	0.2159405
23	0xbd9cc834	-0.07655373
24	0x3dd88e40	0.10574007
25	0x3e04c924	0.12967354
26	0xbeba67bd	-0.3640727
27	0x3df36198	0.11883849
28	0x3dde42cb	0.108525835
29	0xbdccf1fa	-0.10007091
30	0x3e2ce9d3	0.16886072
31	0x3e099a0c	0.1343767
32	0x3e1981c4	0.14990908
33	0x3e7c0220	0.24610186
34	0xbd5e147b	-0.05421875
35	0xbb8010b7	-0.0039082426
36	0xbd0b57a2	-0.03401912
37	0xbd7e58e6	-0.0620965
38	0x3e53a0ce	0.20666811
39	0xbe01c596	-0.1267303
40	0x3d809472	0.06278314
41	0x3e1546ed	0.14577837
42	0x3ec930fb	0.39295182
43	0xbcc5a69c	-0.024127297
44	0x3d68528c	0.056719348
45	0xbb82ca59	-0.003991407
46	0xbddfd4a3	-0.10929229
47	0x3e6b4c10	0.22978234
48	0x3ea32bef	0.31869456
49	0x3e8b3f18	0.27196574
50	0x3e44625f	0.1917815
51	0xbb3874f5	-0.0028145884
52	0x3e3f057a	0.18654433
53	0xbd199f03	-0.03750516
54	0xbe046036	-0.12927327
55	0x3dd94252	0.10608353
56	0xbaeb392f	-0.0017946119
57	0xbe5a73b5	-0.21333201
58	0xbdb2bca7	-0.08727389
59	0xbd2bc367	-0.041934397
60	0x3d0acba2	0.033885606
61	0x3ea0b49b	0.3138779
62	0xbd5b6a0e	-0.05356794
63	0xbde20ead	-0.110379554
64	0xbe2e8e43	-0.17046456
65	0xbd5e5cb8	-0.054287642
66	0xbe1e76da	-0.15475026
67	0xbd85c185	-0.065310515
68	0x3b58b83d	0.00330688
69	0xbe677b6b	-0.22605674
70	0x3dcac275	0.09900371
71	0x3d9234cf	0.07138979
72	0x3df0daac	0.11760458
73	0x3e20b939	0.15695657
74	0xbd96e1d8	-0.07367295
75	0xbe0f733b	-0.140088
76	0x3da0a10d	0.07843218
77	0xbcd44fcc	-0.025916956
78	0x3d43d466	0.04780998
79	0x3d3f9608	0.04677394
80	0x3e7876db	0.2426409
81	0x3e1cc28d	0.1530859
82	0xbe869c82	-0.2629128
83	0xbd448402	-0.047977455
84	0x3e53c36e	0.2068002
85	0xbdd5dda1	-0.10442663
86	0xbf149c8f	-0.5805139
87	0xbd758fe0	-0.059951663
88	0x3e3c3801	0.18380739
89	0xbea6c8b3	-0.32574996
90	0x3e49e737	0.19717108
91	0x3e23bce9	0.15990032
92	0x3d04d2c8	0.03242758
93	0xbd68adf3	-0.056806516
94	0xbe4791eb	-0.19489257
95	0x3d3a7deb	0.04553024
96	0xbcb96ca0	-0.022634804
97	0x3ccde3fa	0.025133122
98	0xbe88e2a0	-0.267354
99	0xbd8aab1e	-0.06770919
100	0xbe5b00cf	-0.21387027
101	0xbdbeff24	-0.09326008
102	0x3e02b34c	0.12763709
103	0x3b22f591	0.0024865607
104	0xbcceb154	-0.025231041
105	0x3daaa4d5	0.083322205
106	0x3de04434	0.10950509
107	0xbe0d0b22	-0.13773778
108	0x3e9bbe89	0.30418804
109	0xbc96564f	-0.018351702
110	0x3ed04f0c	0.40685308
111	0xbd00b806	-0.0314255
112	0xbda6d845	-0.08146719
113	0xbe2ee3bc	-0.17079061
114	0xbe523fd3	-0.2053216
115	0x3d923a1b	0.07139989
116	0xbe28e91b	-0.16495173
117	0xbd8b9adb	-0.06816646
118	0x3e251b96	0.16123804
119	0x3deafd75	0.11474124
120	0x3d6b0ed8	0.057387203
121	0x3c38b2b4	0.011273075
122	0x3dca971d	0.09892104
123	0xbe1bd702	-0.15218738
124	0x3dfcfee2	0.123533025
125	0xbe4e6ad3	-0.20157938
126	0xbee95353	-0.45571384
127	0xbe4173d8	-0.18891847
128	0x3df21dd8	0.118220985
129	0xbd881187	-0.06643968
130	0x3e6df997	0.23239742
131	0xbe024a42	-0.1272364
132	0x3e62b8ad	0.2214076
133	0xbc9fa5b9	-0.019488202
134	0x3e7f1837	0.24911581
135	0xbda466d8	-0.080274284
136	0xbd877d9c	-0.06615755
137	0x3e1040f2	0.14087275
138	0x3ce8cb91	0.02841738
139	0xbda44388	-0.08020693
140	0xbe3eb901	-0.18625261
141	0xbdf87d7e	-0.12133311
142	0x3d45313a	0.04814265
143	0xbcb3ac0b	-0.021932622
144	0x3c9447bd	0.018100614
145	0x3d4c2e63	0.049848925
146	0xbdab36ca	-0.083600596
147	0x3e551857	0.20810066
148	0x3deb401e	0.11486839
149	0xbd8a23a7	-0.067450814
150	0x3cf0fd42	0.029417638
151	0xbe1ecdb8	-0.15508163
152	0x3d52493f	0.051339384
153	0xbd249439	-0.04018042
154	0x3e14ab11	0.14518382
155	0xbb9da9c4	-0.0048114974
156	0x3e1bfc2e	0.15232918
157	0x3dff311f	0.12460541
158	0xbe5119bf	-0.20419978
159	0x3c6b2a4a	0.014353344
160	0xbe4aa0a4	-0.19787842
161	0xbbb9df24	-0.0056723524
162	0xbe7afba4	-0.24510056
163	0x3b034ada	0.0020033629
164	0x3dfae3d6	0.122504875
165	0xbccae9d2	-0.024769697
166	0xbd920343	-0.071295284
167	0x3cb1d229	0.021706657
168	0x3ea50164	0.32227623
169	0x3e10f445	0.14155681
170	0xbe20afe6	-0.156921
171	0x3c485206	0.012226587
172	0x3e25e690	0.16201234
173	0xbf163122	-0.5866872
174	0x3d197e61	0.03747404
175	0xbdedd812	-0.11613478
176	0x3c16764f	0.00918348
177	0x3d47d073	0.048782777
178	0x3e57a1bd	0.21057792
179	0xbcbfb3e8	-0.023401216
180	0xbdc128b1	-0.094315894
181	0xbd2b3653	-0.041799854
182	0x3dd61b44	0.10454419
183	0x3c114834	0.008867312
184	0x3b581ad1	0.0032974968
185	0x3dd1dc05	0.102470435
186	0x3c25b44d	0.010113788
187	0xbcfd0c93	-0.030889785
188	0xbd6c7c33	-0.057735633
189	0xbe691db7	-0.22765242
190	0x3d9b8eda	0.07595606
191	0xbdb7d284	-0.089756995
192	0xbe7b9836	-0.24569783
193	0x3de4eadc	0.11177608
194	0xbd6ce11d	-0.057831872
195	0x3e5aa32f	0.21351312
196	0xbe80cb32	-0.25155026
197	0xbdbed346	-0.09317641
198	0xbdfbd5e5	-0.122966565
199	0xbea804d1	-0.32816175
200	0xbcbb1a0c	-0.022839569
201	0x3d1a0d24	0.037610188
202	0xbe6e1283	-0.23249249
203	0x3ef10b0c	0.4707874
204	0x3c8ce734	0.01720009
205	0xbe3026dc	-0.17202324
206	0xbd33844c	-0.04382734
207	0xbd86bb7d	-0.06578729
208	0xbe8361f2	-0.25660664
209	0xbefacf22	-0.48986155
210	0xbe83cc0e	-0.2574162
211	0x3de2125a	0.110386565
212	0x3c71f17e	0.014767049
213	0xbc7b910a	-0.015354404
214	0x3e7440f3	0.23852901
215	0xbc512357	-0.012764773
216	0x3e5f0c37	0.21782003
217	0xbe3c4649	-0.18386187
218	0xbdf60e3b	-0.12014433
219	0x3e03835b	0.12843077
220	0x3d9059c3	0.07048371
221	0x3dca6ff5	0.09884635
222	0xbea66a8d	-0.32503167
223	0x3d832fa4	0.06405571
224	0xbe4af3c2	-0.19819549
225	0xbe8fcec4	-0.28087437
226	0xbd865775	-0.0655965
227	0xbde40b02	-0.11134912
228	0xbe176f5d	-0.14788575
229	0xbd61970c	-0.05507569
230	0xbe060ef4	-0.13091642
231	0x3d98ab1e	0.07454513
232	0x3e2d1b83	0.16905026
233	0x3de9bc5e	0.11412881
234	0xbdf2ad39	-0.11849446
235	0x3e9ac6dc	0.30229843
236	0xbe23e4ca	-0.16005245
237	0x3dc01055	0.09378115
238	0x3e020857	0.12698494
239	0x3d8c1e62	0.068417326
240	0x3d33dc9d	0.043911565
241	0x3e49b54a	0.19698063
242	0x3d69d0b9	0.05708382
243	0xbd83bf2a	-0.06432946
244	0x3e2be5f4	0.16786939
245	0x3ce85414	0.028360404
246	0xbd1afb9c	-0.03783761
247	0xbdf11836	-0.11772196
248	0x3d96f679	0.0737123
249	0x3d482760	0.048865676
250	0x3e9a442c	0.30130136
251	0xbdb4692e	-0.08809124
252	0xbd385410	-0.045002043
253	0xbe3d5dd8	-0.1849283
254	0xbeb64448	-0.3559897
255	0xbe631ed7	-0.22179733

encoder_lstm.weight_hh_l0 f4 [128, 32]
0	0x3dc8ea4c	0.098103136
1	0x3c4c53b3	0.012471127
2	0xbe4c9f86	-0.19982728
3	0x3a4d21c7	0.00078251626
4	0x3e354d6e	0.17705318
5	0xbd05aec0	-0.032637358
6	0xbe51ec8e	-0.20500395
7	0xbd1e26af	-0.03861111
8	0xbd9c54a3	-0.07633331
9	0x3e9f3028	0.31091428
10	0x3dbccf53	0.092192315
11	0xbe196c77	-0.14982782
12	0xbe5a2984	-0.213049
13	0xbc4a1d05	-0.01233602
14	0x3d9d5722	0.07682635
15	0xbea94b32	-0.33065182
16	0xbdd2bc37	-0.102898054
17	0xbd789bb3	-0.06069536
18	0x3e2e57df	0.17025708
19	0xbcdb7d11	-0.026793035
20	0x3e8d1dfc	0.2756194
21	0x3dbc8b24	0.092062265
22	0x3e97dfe3	0.29663
23	0xbdac5e2c	-0.08416399
24	0xbe302596	-0.17201838
25	0xbe678363	-0.22608714
26	0xbe28d949	-0.16489138
27	0xbe8020a8	-0.25024915
28	0x3e28649f	0.16444634
29	0x3e4e7555	0.20161946
30	0x3e920d62	0.28525835
31	0xbeb1e973	-0.3474842
32	0xbe50ff29	-0.20409836
33	0x3d911d2b	0.070856415
34	0xbe9bcdfa	-0.30430585
35	0x3e0fbd6a	0.140371
36	0x3d30e53e	0.043187372
37	0xbc3d9f2a	-0.011573592
38	0x3e423c2c	0.18968266
39	0xbdea68fc	-0.114458054
40	0x3e5538de	0.20822474
41	0xbd869e48	-0.065731585
42	0xbdec2d6c	-0.11532101
43	0x3a0e4600	0.0005427301
44	0x3eb9ec17	0.36312935
45	0x3df1b2e9	0.118017025
46	0x3db67ed1	0.08910907
47	0x3e54b2ed	0.2077138
48	0xbe167206	-0.14691934
49	0x3de5b35a	0.11215849
50	0x3dbc7cd0	0.092034936
51	0xbe108ce4	-0.14116246
52	0xbe02e7b2	-0.12783697
53	0xbce2ade3	-0.027670806
54	0x3c33a1c0	0.010963857
55	0xbe5ce2e3	-0.21570925
56	0x3d93f420	0.072242975
57	0xbe02274d	-0.12710305
58	0x3e05b7a1	0.1305833
59	0xbdd594c0	-0.104287624
60	0x3ca75485	0.020426044
61	0xbe884372	-0.26613957
62	0xbeb78f3d	-0.3585147
63	0x3e89a5e8	0.2688439
64	0xbe9c027c	-0.30470645
65	0x3dee8f8b	0.116484724
66	0xbe0f0136	-0.13965306
67	0xbdbdfeb3	-0.09277096
68	0xbd8e5303	-0.06949427
69	0x3cf76790	0.03020075
70	0x3ec519ac	0.3849615
71	0x3ec10b91	0.37704137
72	0x3e335f20	0.17516756
73	0xbc8a1162	-0.016853992
74	0xbec15332	-0.37758785
75	0x3e8f0c6d	0.27939168
76	0x3d7699e6	0.060205363
77	0x3df8f899	0.12156791
78	0xbea7f83b	-0.32806572
79	0x3dc71d70	0.09722412
80	0xbe66e360	-0.22547674
81	0x3e95f3e8	0.29287648
82	0xbe3f5703	-0.18685536
83	0xbe0aa26f	-0.13538526
84	0xbe195926	-0.14975414
85	0xbe3f2ed9	-0.18670215
86	0xbdb6d61c	-0.08927557
87	0xbe83c1ae	-0.25733703
88	0x3e235ed6	0.15954146
89	0x3dd6b497	0.104836635
90	0xbe9eff75	-0.31054273
91	0xbd4b15fa	-0.049581505
92	0xbdca1806	-0.09867863
93	0xbe2a97ae	-0.16659424
94	0xbec3c3f7	-0.38235447
95	0x3e33c964	0.17557293
96	0xbdd1c1c7	-0.10242038
97	0xbe17f778	-0.14840496
98	0xbe899909	-0.2687457
99	0x3e3f6701	0.18691637
100	0xbe4cf079	-0.20013608
101	0xbbe2a9e3	-0.0069172247
102	0xbd8bd1e9	-0.068271466
103	0x3ebd0bcf	0.36923072
104	0xbe9cfa4f	-0.3065972
105	0xbe7df078	-0.24798763
106	0xbe2de26d	-0.16980906
107	0xbda13b3a	-0.07872625
108	0x3d408fe0	0.04701221
109	0xbba85e61	-0.005138204
110	0xbe078551	-0.1323445
111	0x3dcbd1c5	0.0995212
112	0x3d585ece	0.052824788
113	0x3e4d7125	0.20062692
114	0x3d709e44	0.058744684
115	0xbe57471e	-0.21023223
116	0x3e02293e	0.12711045
117	0xbdf9681d	-0.12178061
118	0xbe38db14	-0.18052322
119	0xbe955833	-0.29168853
120	0x3e70322c	0.23456639
121	0x3dcdbd29	0.10045845
122	0xbeb93f09	-0.36180905
123	0xbe8c74f3	-0.27432975
124	0xbd95c4ee	-0.07312952
125	0xbdbd3b35	-0.092398085
126	0x3e73ab5d	0.23795839
127	0xbcb8caf3	-0.022557711
128	0x3eb2913d	0.34876433
129	0xbc3463bf	-0.011010109
130	0xbd93b999	-0.07213134
131	0x3e86d352	0.263331
132	0x3e750ad1	0.23929907
133	0xbe7e2975	-0.24820502
134	0xbd42072a	-0.047370113
135	0x3ce77754	0.028255142
136	0x3e37215f	0.17883824
137	0x3e407d00	0.18797684
138	0x3d558ebc	0.052138075
139	0x3e80e3b6	0.2517373
140	0xbec145d2	-0.3774858
141	0x3cfc31fa	0.03078555
142	0x3e62d5a1	0.22151805
143	0xbc7759d7	-0.015097103
144	0x3dea5a3d	0.11442993
145	0xbdcf18ee	-0.10112177
146	0x3de3e729	0.11128075
147	0xbde1b877	-0.11021512
148	0x3ea49d85	0.32151428
149	0x3e1569fb	0.1459121
150	0xbe72dc91	-0.23716952
151	0xbda5d2b1	-0.08096827
152	0xbe471c06	-0.19444284
153	0x3e1c31f8	0.15253437
154	0x3ceeac7a	0.029134978
155	0xbe986b90	-0.29769564
156	0x3ed690b4	0.41907275
157	0xbdd82321	-0.10553575
158	0xbdc3b118	-0.09555262
159	0x3ccc5387	0.024942173
160	0x3c9a43b6	0.018831115
161	0x3d9c65f1	0.07636631
162	0x3e6110b7	0.21979032
163	0x3df6d995	0.12053219
164	0x3ea2312a	0.31678134
165	0xbcb6ddb7	-0.022322519
166	0xbdf37863	-0.11888196
167	0x3d42a539	0.04752085
168	0x3e374e41	0.17900945
169	0x3c65ca40	0.014025271
170	0x3ea736af	0.32658908
171	0xbe30c787	-0.17263614
172	0x3ec9cfba	0.39416295
173	0x3db23b11	0.08702672
174	0x3eb2eece	0.3494782
175	0xbc93f20c	-0.018059753
176	0x3b6fed04	0.0036609778
177	0x3c537a92	0.012907641
178	0xbd959f4d	-0.07305775
179	0x3e937cb9	0.28806093
180	0x3e2f3327	0.17109357
181	0x3e52e546	0.20595273
182	0x3e050b17	0.12992512
183	0x3ea8f32e	0.3299803
184	0xbda1af0d	-0.078947164
185	0x3e3a1de5	0.18175466
186	0x3e224cc7	0.158496
187	0xbac5dbc4	-0.0015095402
188	0x3e4cafbc	0.19988912
189	0xbd250714	-0.040289953
190	0x3e131332	0.14362791
191	0x3d63cfd1	0.05561811
192	0x3e0d450b	0.13795869
193	0xbe95390e	-0.29145092
194	0x3e002ae5	0.12516363
195	0xbc8a3b73	-0.01687405
196	0x3e4a75e7	0.19771539
197	0xbecb20a6	-0.39673346
198	0xbde0f466	-0.10984115
199	0xbe0c231e	-0.13685271
200	0xbe1ceb4f	-0.15324138
201	0x3ec11071	0.37707856
202	0x3d97e9c2	0.07417633
203	0xbf1bbe85	-0.60837585
204	0xbc6809d8	-0.014162503
205	0x3e9510b3	0.29114303
206	0x3d618c25	0.055065293
207	0xbea69a13	-0.32539424
208	0xbe4b7995	-0.19870599
209	0xbee411e1	-0.4454489
210	0x3e635b29	0.22202744
211	0x3bc56506	0.006024006
212	0x3d0b8115	0.03405865
213	0x3ea41eec	0.32054842
214	0x3eb56849	0.35431126
215	0xbd838132	-0.064211264
216	0x3dc9d41e	0.09854911
217	0xbdfc94eb	-0.12333091
218	0x3de375d2	0.11106457
219	0xbe4c67d9	-0.1996149
220	0x3da1c62f	0.07899129
221	0x3dfba332	0.122869864
222	0xbd2aa1c7	-0.04165819
223	0x3e68e64b	0.227441
224	0xbe31d447	-0.17366134
225	0x3d01424c	0.031557366
226	0xbdc71c90	-0.09722245
227	0xbdc0565a	-0.0939147
228	0xbd89f8d1	-0.06736911
229	0x3dbaf664	0.091290265
230	0x3e154247	0.14576064
231	0x3e92d503	0.2867814
232	0xbe9b6d05	-0.30356613
233	0xbe99d1ff	-0.30043027
234	0x3b85e913	0.0040866225
235	0xbd6e0e55	-0.058119137
236	0x3e624ee4	0.22100407
237	0x3e0f3459	0.13984813
238	0xbd4be29d	-0.049776662
239	0xbc2d11ef	-0.010563358
240	0x3e46874c	0.19387549
241	0xbd9dfe46	-0.077145144
242	0xbe5548d1	-0.20828559
243	0x3e0e36e6	0.1388813
244	0x3d942f8d	0.07235632
245	0xbe97da31	-0.29658654
246	0x3c2147ea	0.009843806
247	0xbc8329a9	-0.016011076
248	0x3dddea6f	0.1083573
249	0xbe251a4d	-0.16123314
250	0x3dd32c36	0.10311167
251	0xbdeb378f	-0.11485206
252	0xbba5b93b	-0.0050574816
253	0xbe7f6590	-0.24941087
254	0x3e3b45c6	0.18288335
255	0x3c2a199e	0.010382084

encoder_lstm.bias_ih_l0 f4 [128]
0	0x3db63757	0.08897274
1	0xbd4eb42d	-0.050464798
2	0xbddb4fab	-0.10708555
3	0xbe2d3ca0	-0.16917658
4	0x3e144b0a	0.1448175
5	0x3eab7ec5	0.33495155
6	0x3bd5d594	0.0065257046
7	0x3d4b20bb	0.04959176
8	0xbc67d635	-0.014150192
9	0x3dc4d9de	0.09611867
10	0xbd019121	-0.031632546
11	0xbd037633	-0.032095145
12	0xbe1429fe	-0.14469144
13	0xbe9c7e81	-0.30565265
14	0x3d821a95	0.06352726
15	0xbd63d6db	-0.055624824
16	0x3dc0c658	0.09412831
17	0x3e17b0d5	0.1481355
18	0xbe23b7a1	-0.15988018
19	0xbdcf6c9f	-0.1012814
20	0x3cb6c2e6	0.022309732
21	0x3e6a8083	0.22900586
22	0xbd11e6df	-0.035620566
23	0x3e8cafb3	0.27477798
24	0x3e82ff11	0.25585225
25	0xbd3ab899	-0.045586202
26	0x3b8071a4	0.003919797
27	0xbd883ce1	-0.06652237
28	0x3e6daa0a	0.23209396
29	0xbbbfee21	-0.0058572446
30	0x3d957fa7	0.072997384
31	0xbdc4b11c	-0.096040934
32	0x3e9a5c4f	0.3014855
33	0xbe614437	-0.21998678
34	0xbe94a1b0	-0.29029608
35	0x3d0f13af	0.03493088
36	0x3e851d57	0.25998947
37	0x3da7abc0	0.081870556
38	0x3eb5aedd	0.35484973
39	0xbccc2db2	-0.024924133
40	0x3c0ea5e6	0.008706545
41	0xbe15e0d6	-0.1463655
42	0x3e90f8be	0.28314775
43	0xbdf421ab	-0.11920484
44	0xbdcd758b	-0.10032185
45	0xbe93929c	-0.28822792
46	0xbe0d22f6	-0.13782868
47	0xbe4f463b	-0.20241635
48	0x3df9ccdc	0.12197277
49	0x3c88dd58	0.016707107
50	0x3ddbc0d7	0.10730141
51	0x3e1d4749	0.15359224
52	0xbb97f7ab	-0.0046376786
53	0x3d419c40	0.047268152
54	0xbe59de41	-0.2127619
55	0x3cbce387	0.023057712
56	0xbd3618e6	-0.04445734
57	0xbe398e2a	-0.18120638
58	0xbd215a12	-0.03939254
59	0xbe016bd9	-0.12638797
60	0xbe021a62	-0.12705377
61	0x3e614906	0.22000512
62	0xbcadff79	-0.021239983
63	0x3ed24c62	0.410739
64	0x3d47ba7b	0.048761826
65	0x3e60d461	0.21956016
66	0xbe20dd68	-0.1570946
67	0x3e30eb2a	0.17277208
68	0x3e893a76	0.26802415
69	0xbebd9c06	-0.370331
70	0xbe8e34a5	-0.2777454
71	0xbe9c4030	-0.3051772
72	0xbd635536	-0.055501185
73	0x3e28a907	0.16470729
74	0x3e6425ef	0.22280096
75	0x3d942839	0.07234234
76	0xbe9751ad	-0.295545
77	0xbde5f869	-0.11229021
78	0x3e17d2bf	0.14826487
79	0xbe8cae26	-0.27476615
80	0x3e04a7cf	0.12954639
81	0x3d99383d	0.0748143
82	0x3e8f2450	0.27957392
83	0x3cf1fa4e	0.0295383
84	0xbd3c0081	-0.045898918
85	0x3e7129c3	0.23551087
86	0xbd99fd11	-0.07518972
87	0x3e159e4f	0.14611171
88	0xbe206ad5	-0.15665753
89	0x3e56992d	0.2095687
90	0x3cfe9182	0.031075243
91	0xbe509eb0	-0.20373034
92	0x3e97ea95	0.2967116
93	0x3c954621	0.018221917
94	0x3e3573bd	0.17719932
95	0xbe61d6fe	-0.2205467
96	0x3df548c6	0.11976771
97	0xbed083de	-0.40725607
98	0xbed306ca	-0.41216117
99	0x3c2e409b	0.01063552
100	0x3e8631dc	0.26209915
101	0x3cb258cd	0.02177086
102	0x3e07c44f	0.1325848
103	0x3e58d458	0.21174753
104	0x3c70936f	0.014683588
105	0x3c7753f1	0.015095697
106	0x3e9e11c9	0.30872944
107	0x3c432f53	0.011913138
108	0xbeaccd4a	-0.33750373
109	0xbe884349	-0.26613835
110	0x3e1a0627	0.1504141
111	0xbe3bf6b4	-0.18355829
112	0x3d615ee1	0.055022124
113	0x3d956b27	0.07295828
114	0x3deeb1ce	0.11655007
115	0xbe92cb21	-0.286706
116	0xba11f6b3	-0.0005568072
117	0xbd941e5e	-0.072323546
118	0xbe5f59bd	-0.21811576
119	0x3f033330	0.5124998
120	0xbea6b9de	-0.3256368
121	0x3dae3a24	0.08507183
122	0xbe1329ce	-0.14371416
123	0xbc1cf2f0	-0.009579405
124	0x3f0c6ae9	0.5485063
125	0xbe00f5f9	-0.12593831
126	0xbe96fea2	-0.29491144
127	0x3e761827	0.24032651

encoder_lstm.bias_hh_l0 f4 [128]
0	0x3ea9a94f	0.33136985
1	0xbe612601	-0.21987154
2	0xbe44c25f	-0.19214772
3	0xbe440ec4	-0.19146258
4	0x3e457252	0.19281891
5	0x3d786e56	0.0606521
6	0x3e7fc086	0.24975786
7	0xbda820b1	-0.082093604
8	0x3e800ec5	0.25011268
9	0x3cc64b95	0.024205962
10	0xbddddafd	-0.10832784
11	0xbe66dc72	-0.2254503
12	0xbe62893c	-0.22122663
13	0xbe0ceecf	-0.13762973
14	0xbcdd7a62	-0.027035896
15	0xbcf07c49	-0.029356139
16	0xbd1ff763	-0.039054286
17	0x3de6c6a3	0.11268356
18	0xbe5b57f1	-0.21420266
19	0xbe3f1fb0	-0.18664432
20	0xbdd9293b	-0.10603567
21	0x3e4b7bce	0.19871446
22	0xbd08adf2	-0.033369012
23	0x3e32a425	0.17445429
24	0x3e2f05fb	0.17092125
25	0x3e5a77b4	0.21334726
26	0xbe351eae	-0.17687485
27	0xbd5f0596	-0.054448687
28	0x3ec83b51	0.39107755
29	0xbe6ad35d	-0.22932191
30	0xbe2630cc	-0.16229552
31	0x3e2c21b6	0.16809735
32	0x3e489fbd	0.19592185
33	0xbd96d505	-0.07364849
34	0xbea1f43a	-0.31631643
35	0xbdbe8a94	-0.093037754
36	0x3dafb0fa	0.085786775
37	0x3d46165e	0.048361175
38	0x3e648ffe	0.22320554
39	0xbd6a68a8	-0.057228714
40	0x3e45cf94	0.19317466
41	0x3c778e3d	0.015109596
42	0x3e938249	0.28810337
43	0xbe15f920	-0.14645815
44	0x3c9bb7bb	0.019008508
45	0xbe88fe49	-0.26756504
46	0x3e2a1871	0.16610886
47	0xbe74d147	-0.23907958
48	0xbdcee095	-0.101014294
49	0xbe812f8f	-0.25231597
50	0x3dd0b4a7	0.10190707
51	0x3c823c9d	0.015898043
52	0xbe0d0704	-0.13772207
53	0x3e1506c8	0.14553368
54	0xbe84c035	-0.25927892
55	0x3ca05fef	0.019576995
56	0x3d4ad7c6	0.049522184
57	0xbe90030e	-0.2812733
58	0xbe4416d4	-0.19149333
59	0xbeaab4ab	-0.33340964
60	0x3e43019e	0.19043586
61	0x3ea428f0	0.32062483
62	0x3e307df2	0.17235544
63	0x3e890ad0	0.26766062
64	0x3e895724	0.26824296
65	0x3d7fc017	0.06243905
66	0x3d5036fc	0.050833687
67	0xbdc9976e	-0.09843336
68	0x3ce50929	0.02795847
69	0xbe923553	-0.28556308
70	0xbe8cfda4	-0.27537262
71	0xbe75c5fc	-0.24001306
72	0x3e5077db	0.20358221
73	0x3d883289	0.06650264
74	0x3eb3d79e	0.3512544
75	0x3e110e5b	0.14165632
76	0xbe8ea89a	-0.27863008
77	0x3de52688	0.1118899
78	0x3e6c22ce	0.23060152
79	0xbe56df6b	-0.20983665
80	0x3e2a4572	0.16628054
81	0xbe1cd6b2	-0.15316275
82	0x3eb0a80a	0.34503204
83	0xbe388e44	-0.1802302
84	0x3d1df572	0.038564153
85	0x3d0d0c6c	0.034435675
86	0xbe18ba47	-0.14914809
87	0x3ec649a5	0.3872806
88	0xbe6c44e4	-0.23073155
89	0x3d3829cb	0.044961732
90	0xbcdc1197	-0.026863856
91	0xbe184c0d	-0.14872761
92	0x3e9322f9	0.2873762
93	0xbe71c4dd	-0.23610254
94	0xbe16c2cd	-0.14722748
95	0xbcedc3c2	-0.029024009
96	0x3dd97722	0.10618426
97	0xbe4f5073	-0.20245533
98	0xbe6f72e2	-0.23383668
99	0x3e54a866	0.20767364
100	0x3e70a38a	0.23499885
101	0x3e313d36	0.17308506
102	0x3e586ec2	0.21136001
103	0x3ddcc491	0.107796796
104	0xbdfcd010	-0.12344372
105	0xbe0efd4d	-0.13963814
106	0x3dcfe4eb	0.101510845
107	0x3e4ecff6	0.20196518
108	0xbce06c8e	-0.027395513
109	0xbe944c9a	-0.28964692
110	0x3e76d3dd	0.24104257
111	0xbda3d65b	-0.079998694
112	0xbe6434e4	-0.22285801
113	0x3e8df91f	0.27729127
114	0x3d67989e	0.05654203
115	0xbdd79d83	-0.1052809
116	0x3da19c61	0.07891155
117	0xbc257c59	-0.010100448
118	0xbdd6126d	-0.10452733
119	0x3eb71e90	0.35765505
120	0xbe5e73d2	-0.2172387
121	0x3deab3b6	0.114600584
122	0xbca3c15a	-0.019989658
123	0x3de5f882	0.1122904
124	0x3f042786	0.5162281
125	0xbe0f158c	-0.13973063
126	0xbe2661a7	-0.16248189
127	0x3e7f6b25	0.24943216

encoder_lstm.weight_ih_l1 f4 [128, 32]
0	0xbd257913	-0.04039867
1	0xbd336d34	-0.043805316
2	0x3df77132	0.12082137
3	0x3d3b0641	0.04566026
4	0x3efb83c2	0.4912396
5	0x3cd0c885	0.02548624
6	0xbeda4e47	-0.42637846
7	0x3e30ccbe	0.17265603
8	0xbdc46d2a	-0.09591134
9	0xbdef066b	-0.11671146
10	0x3ead0688	0.33794045
11	0xbe489a8a	-0.19590202
12	0xbdfb4122	-0.122682825
13	0x3d041464	0.03224601
14	0x3d8840a2	0.06652953
15	0x3c788e84	0.015170697
16	0x3dc67dcc	0.096919626
17	0xbd782d03	-0.0605898
18	0xbe87650a	-0.26444274
19	0xbcfe5b2d	-0.031049335
20	0x3ea72263	0.32643422
21	0x3d42720b	0.04747204
22	0xbe26db87	-0.1629468
23	0x3cce86d7	0.025210781
24	0x3dc52844	0.09626821
25	0x3c838234	0.016053297
26	0x3e796510	0.24354959
27	0xbe47c2a5	-0.19507845
28	0x3f02f079	0.5114818
29	0xbe9847a8	-0.2974217
30	0x3da8424e	0.082157716
31	0xbc52293d	-0.012827215
32	0x3e16cb16	0.14725909
33	0x3dd68cde	0.10476087
34	0xbe34acd4	-0.17644054
35	0x3e43ca92	0.19120243
36	0x3e8be1ea	0.27320796
37	0xbdda2291	-0.10651124
38	0xbe65c181	-0.22437097
39	0x3dedbbed	0.116081096
40	0xbdf8cb61	-0.121481664
41	0xbe4a39cb	-0.19748609
42	0x3e0ce469	0.13759007
43	0xbc4c83b8	-0.012482576
44	0x3e2bd521	0.16780521
45	0xbe11bbbb	-0.1423177
46	0xbd0a9ab8	-0.033838958
47	0x3da4a1d1	0.080386765
48	0xbdea5d61	-0.11443592
49	0xbe10fd47	-0.14159118
50	0x3cbd6072	0.023117278
51	0xbd84ff0f	-0.06493961
52	0x3e2c36d3	0.16817789
53	0xbea92a58	-0.33040118
54	0xbdd13569	-0.10215265
55	0x3d8431f1	0.06454838
56	0x3dce6319	0.10077495
57	0xbd96a7d6	-0.07356231
58	0xbe19fabd	-0.15037055
59	0x3daf3c44	0.08556417
60	0x3e0218ee	0.12704822
61	0xbdd6f79b	-0.10496446
62	0xbe943de9	-0.28953484
63	0xbce4c976	-0.027928095
64	0x3d3b5dc8	0.045743734
65	0x3dc19120	0.094515085
66	0xbe66c509	-0.225361
67	0x3d4e02e3	0.05029572
68	0x3e7d2df5	0.24724562
69	0x3ec8443d	0.39114562
70	0x3e4acd9c	0.19804996
71	0x3de6df98	0.11273116
72	0x3d511975	0.05104967
73	0x3ddc85d7	0.107677154
74	0xbd4e92f1	-0.050433103
75	0xbb5e40c2	-0.003391311
76	0xbe6e73bd	-0.23286338
77	0xbdff9d2d	-0.12481151
78	0x3e6d281e	0.23159835
79	0xbe1aa543	-0.15102105
80	0xbdbc8e22	-0.09206797
81	0x3cfe12d8	0.031014845
82	0x3e746b91	0.23869158
83	0x3de60847	0.112320475
84	0x3e431151	0.19049574
85	0xbe969b68	-0.2941544
86	0xbd724744	-0.059149995
87	0xbe4ca052	-0.19983032
88	0xbe9a28d1	-0.30109265
89	0xbe159ad7	-0.14609848
90	0xbe31ce26	-0.17363796
91	0x3decce64	0.115628034
92	0xbc76c677	-0.015061966
93	0xbec762e5	-0.38942638
94	0xbdf45d4a	-0.11931856
95	0x3df00209	0.11719138
96	0x3d75e3eb	0.060031813
97	0x3e9728d0	0.29523325
98	0xbe3477a6	-0.17623767
99	0x3e8db82a	0.2767957
100	0x3ed16a37	0.40901348
101	0x3db4c555	0.088267006
102	0xbdd9c70d	-0.10633669
103	0x3dd002b5	0.10156766
104	0xbe43de55	-0.19127782
105	0xbdf410e7	-0.11917286
106	0x3e24bc65	0.16087492
107	0xbe019e71	-0.12658097
108	0x3eebe1ee	0.46070808
109	0x3d12dc6c	0.035854742
110	0x3dc1f9c0	0.09471464
111	0x3d5b280d	0.053504992
112	0xbe86208d	-0.2619671
113	0x3d71bf9a	0.059020616
114	0x3e04893a	0.12942973
115	0xbe04db8d	-0.12974377
116	0x3c283430	0.010266349
117	0xbdf86f60	-0.12130618
118	0x3df97cc0	0.12181997
119	0x3e6ba4d3	0.23012094
120	0x3e2a7504	0.166462
121	0x3d507be6	0.05089941
122	0xbdcf898f	-0.10133659
123	0x3e61e2bf	0.22059153
124	0x3ee90b4d	0.45516434
125	0xbed38e02	-0.4131928
126	0x3e1bfa04	0.15232092
127	0x3e7680bd	0.24072547
128	0x3df8de00	0.12151718
129	0x3dc74d6e	0.097315654
130	0xbe25b514	-0.16182357
131	0x3c0d1002	0.008609774
132	0x3e836aeb	0.2566751
133	0x3d821a54	0.06352678
134	0xbea89d89	-0.3293269
135	0xbd8e76a7	-0.06956225
136	0xbf0c7013	-0.5485851
137	0xbe3ce698	-0.1844734
138	0x3ea78515	0.3271872
139	0xbd433f4b	-0.047667783
140	0x3c0471a9	0.008083739
141	0x3e883061	0.2659941
142	0x3eb77830	0.35833883
143	0x37ce809e	2.4617006e-05
144	0xbd92a8f4	-0.071611315
145	0x3d8fcbb6	0.07021277
146	0xbd01cdb5	-0.03169032
147	0x3ea11c48	0.3146689
148	0xbdd17dfc	-0.10229108
149	0xbe36b308	-0.17841733
150	0xbda72a7a	-0.08162399
151	0x3e848a60	0.25886822
152	0x3e70e5e2	0.23525193
153	0x3e0b00f4	0.13574582
154	0xbd2477ff	-0.0401535
155	0xbd9607f8	-0.07325739
156	0x3d77d23c	0.06050323
157	0xbe858864	-0.2608062
158	0x3e896981	0.26838306
159	0x3e845897	0.2584884
160	0xbcaf0e5d	-0.021369154
161	0x3d9d4c6d	0.07680593
162	0xbe67d86b	-0.2264115
163	0x3d311d2b	0.043240707
164	0xbdcf90cf	-0.10135042
165	0x3e17ff7a	0.1484355
166	0x3e4fcffc	0.20294183
167	0x3d63dab8	0.05562851
168	0xbe0ee639	-0.1395501
169	0xbea898f4	-0.32929194
170	0xbde76f8a	-0.11300571
171	0x3d6b5619	0.057455156
172	0x3e366ec8	0.17815697
173	0xbe66585f	-0.22494648
174	0xbe69654e	-0.22792551
175	0x3e38f75c	0.1806311
176	0xbd98de07	-0.07464223
177	0x3e377d1a	0.17918816
178	0x3e88e775	0.26739088
179	0x3e1348ee	0.14383289
180	0xbe728b69	-0.23685993
181	0xbe09a708	-0.13442624
182	0x3d8e94f4	0.06962004
183	0xbd544bdb	-0.051830154
184	0xbcc99fb9	-0.024612295
185	0x3d6da059	0.058014248
186	0x3dc6b6ca	0.09702833
187	0x3e617f9d	0.22021337
188	0xbe8b127f	-0.2716255
189	0x3d779a5a	0.060449935
190	0xbd7518fb	-0.059838276
191	0x3dc85e60	0.097836256
192	0x3e93ef13	0.28893337
193	0x3e66128c	0.22468013
194	0xbd4b3e30	-0.049619853
195	0x3e10d2e1	0.14142944
196	0x3de0e7ae	0.109816894
197	0xbce119b9	-0.027478086
198	0xbe74e17c	-0.2391414
199	0x3df4f055	0.11959902
200	0xbd253d7e	-0.040341847
201	0x3db49f72	0.08819474
202	0x3e955272	0.29164463
203	0xbdbdddad	-0.09270797
204	0x3d3c1668	0.045919806
205	0xbd2dbadd	-0.042414535
206	0x3dcad9f5	0.09904853
207	0xbe45a584	-0.1930142
208	0x3e924aff	0.28572842
209	0xbe1e55a9	-0.15462364
210	0xbcd448f8	-0.0259137
211	0x3c6ed465	0.014577006
212	0x3d3d0ed9	0.046156738
213	0x3e02711c	0.1273846
214	0xbdbcb957	-0.09215038
215	0x3e60004c	0.21875113
216	0xbd9ff661	-0.07810665
217	0xbdc9058d	-0.09815512
218	0x3d7b1362	0.06129778
219	0xbea4e951	-0.32209256
220	0x3e97723f	0.2957935
221	0x3da3685b	0.079788886
222	0x3dc120db	0.09430095
223	0xbe8d67ba	-0.276182
224	0x3da64989	0.081194945
225	0x3e8f4086	0.27978915
226	0x3bf6ddfe	0.0075337877
227	0x3e6901fc	0.22754663
228	0x3e7d60fe	0.24744031
229	0x3dcfec00	0.10152435
230	0x3e031fb0	0.12805057
231	0x3eb429e8	0.35188222
232	0xbeb108fb	-0.34577164
233	0xbd51b58a	-0.05119852
234	0xbdc1a890	-0.09455979
235	0xbd6d8235	-0.057985503
236	0x3d1ada6a	0.037805952
237	0x3d499dfa	0.049222924
238	0x3d407961	0.046990756
239	0xbe2deda1	-0.1698518
240	0x3e469020	0.19390917
241	0xbd80b11a	-0.062837794
242	0x3d56bd1b	0.05242644
243	0xbd7454f8	-0.059651345
244	0x3da59721	0.08085466
245	0xbd5ad7d9	-0.053428505
246	0xbc47c319	-0.012192511
247	0xbe57f8d1	-0.2109101
248	0x3e5cbda9	0.21556725
249	0x3d8d57d2	0.06901516
250	0xbe080df2	-0.1328657
251	0x3d2fc221	0.042909745
252	0x3ea07fc2	0.3134747
253	0xbdec72eb	-0.11545356
254	0x3e40b9f7	0.1882094
255	0x3e16307c	0.14666933

encoder_lstm.weight_hh_l1 f4 [128, 32]
0	0xbcaded2c	-0.021231256
1	0x3d599426	0.0531198
2	0xbe169fdf	-0.14709423
3	0xbe1959df	-0.1497569
4	0xbdd7f11e	-0.10544036
5	0x3d6a7733	0.057242583
6	0xbca1057d	-0.019655937
7	0xbe0a671c	-0.13515896
8	0xbd894779	-0.067030855
9	0x3e0ee558	0.13954675
10	0x3e93144c	0.28726423
11	0x3e5cc0b5	0.21557887
12	0x3d3b92e6	0.04579439
13	0xbe36c0d8	-0.17847002
14	0x3e0376ec	0.12838334
15	0xbc45f59d	-0.012082485
16	0xbe71cf1b	-0.2361416
17	0x3e365af4	0.17808133
18	0xbe4e3bcc	-0.20139998
19	0x3c194369	0.009354451
20	0x3e5fea76	0.21866783
21	0xbdb7d02e	-0.08975254
22	0xbde4b9a3	-0.1116822
23	0x3df82b0d	0.12117586
24	0x3c9f3730	0.019435495
25	0xbe5e396d	-0.21701594
26	0xbd87a714	-0.066236645
27	0x3e409ff4	0.18811017
28	0xbe0ba06b	-0.13635413
29	0x3da072b1	0.07834376
30	0x3c109c7f	0.008826374
31	0xbe445f41	-0.19176961
32	0x3dfd3f34	0.12365571
33	0xbddd8bb0	-0.10817659
34	0x3e1ebe89	0.15502371
35	0xbdd093e9	-0.101844616
36	0xbe05efcf	-0.13079761
37	0x3da9ed06	0.08297162
38	0xbe458f61	-0.19292976
39	0x3d143792	0.03618581
40	0x3da3d54a	0.07999666
41	0x3c9cf375	0.019159058
42	0xbd9b8561	-0.075937994
43	0x3e3a3a7f	0.18186377
44	0x3dadda1c	0.08488867
45	0x3d065255	0.03279336
46	0x3d2d0e11	0.042249743
47	0x3cb7af8d	0.022422576
48	0x3e8fbb6d	0.28072682
49	0x3d97872f	0.07398831
50	0xbdd55930	-0.10417402
51	0xbd52cb92	-0.05146367
52	0x3d74d86c	0.05977671
53	0x3e3d6c9c	0.18498462
54	0x3cde44cc	0.027132414
55	0x3c89b116	0.016808074
56	0xbe18ab54	-0.14909106
57	0x3ea667ae	0.32500976
58	0xbd956142	-0.07293941
59	0x3de551dd	0.11197255
60	0x3d53f535	0.05174752
61	0xbe377c50	-0.17918515
62	0x3c239ab5	0.0099856155
63	0x3e83b5fc	0.2572478
64	0xbdca6602	-0.09882738
65	0xbd73783a	-0.05944083
66	0xbe6bf3b9	-0.23042192
67	0xbe07c03b	-0.13256924
68	0xbe89b615	-0.2689673
69	0x3e1de67b	0.15419953
70	0xbe0252df	-0.12726925
71	0xbdce24d0	-0.10065615
72	0x3e079273	0.1323946
73	0x3d357e66	0.044309996
74	0x3e963d70	0.29343748
75	0xbe215091	-0.1575339
76	0x3e2e175f	0.17001103
77	0x3cca87e2	0.024722997
78	0xbd2e2193	-0.042512488
79	0x3e824734	0.2544495
80	0x3ead112c	0.33802164
81	0x3d9b5c57	0.07585972
82	0x3cddb454	0.027063526
83	0xbd59f5eb	-0.05321304
84	0x3d4240bc	0.047425017
85	0xbd862a55	-0.06551043
86	0x3df67fa3	0.120360635
87	0xbe0f936a	-0.14021078
88	0xbdd2e398	-0.10297316
89	0x3e4136b3	0.18868522
90	0x3e017ff4	0.12646466
91	0x3c9e72c4	0.019341834
92	0x3e900cc6	0.28134745
93	0xbda86b16	-0.0822355
94	0x3cf593c6	0.02997769
95	0xbddda9c1	-0.108233936
96	0xbdcad86e	-0.09904562
97	0x3dd7f0db	0.105439864
98	0x3d07a92c	0.03312032
99	0xbe816212	-0.25270134
100	0x3daa24ee	0.08307825
101	0xbea47c2a	-0.3212598
102	0xbdf7e523	-0.12104251
103	0xbe4092e1	-0.1880603
104	0x3e609404	0.21931463
105	0xbe17c90f	-0.14822792
106	0xbcada69e	-0.021197613
107	0xbd58e958	-0.05295691
108	0x3e2955a8	0.16536582
109	0x3e3d927d	0.18512912
110	0x3e82ccd0	0.25546885
111	0xbe955692	-0.2916761
112	0x3e292bad	0.16520567
113	0x3e2fa049	0.17150988
114	0xbe0e53c5	-0.13899143
115	0xbe3ecd7b	-0.18633072
116	0x3e1d0d3d	0.15337081
117	0x3e31fa53	0.17380647
118	0x3d7a05ba	0.061040618
119	0x3d009b50	0.031398118
120	0x3e2e1c19	0.17002906
121	0x3e89468c	0.26811635
122	0x3de1ff7b	0.11035057
123	0xbe51ce60	-0.20488882
124	0xbe3207ef	-0.17385839
125	0xbe1e7072	-0.15472582
126	0xbd6814e7	-0.05666056
127	0x3e0aeaa3	0.1356607
128	0xbd1c06e1	-0.038092498
129	0xbe859a27	-0.2609417
130	0xbd896c16	-0.06710069
131	0xbd1bbd18	-0.03802213
132	0x3cba1dfa	0.022719372
133	0xbe836b30	-0.25667715
134	0xbd9bfc26	-0.07616453
135	0x3d4744a5	0.04864945
136	0x3da709ae	0.08156143
137	0x3d2b745e	0.041859023
138	0xbbb4c15a	-0.0055162134
139	0xbddcc0fc	-0.10778996
140	0xbd9e7356	-0.07736842
141	0x3e8e41d9	0.27784613
142	0xbe452707	-0.19253169
143	0x3d5812d6	0.05275234
144	0x3eeabb4f	0.4584603
145	0xbe191906	-0.14950952
146	0x3d70fc62	0.05883444
147	0xbe588468	-0.21144259
148	0x3d62e12d	0.055390526
149	0x3da35688	0.07975489
150	0xbea0bea5	-0.3139545
151	0xbcba68be	-0.022755023
152	0xbe018587	-0.12648593
153	0x3e8adb52	0.27120453
154	0xbe482e59	-0.1954893
155	0xbd8619c6	-0.06547885
156	0x3e27e807	0.16397105
157	0xbe7f5b72	-0.24937227
158	0xbd86ecb3	-0.065881155
159	0x3ea2c0b6	0.31787652
160	0xbe44663d	-0.19179626
161	0xbe692295	-0.22767098
162	0xbd9860cb	-0.07440337
163	0xbd621cf8	-0.055203408
164	0xbbf3eecb	-0.007444238
165	0xbe9cede4	-0.30650246
166	0xbebc116b	-0.3673204
167	0x3eb50fa3	0.35363492
168	0x3eaf46bc	0.34233654
169	0x3e8c3797	0.27386162
170	0xbca06f45	-0.019584307
171	0xbe24cad8	-0.16093004
172	0x3df75cdb	0.12078258
173	0x3dfd8dcb	0.123805605
174	0xbd696e4a	-0.056989945
175	0x3c3de6db	0.011590685
176	0x3e98b6f7	0.2982709
177	0xbe902e2c	-0.28160226
178	0x3dd56ab1	0.104207404
179	0xbda563af	-0.08075654
180	0xbe2a339d	-0.16621251
181	0x3d730b75	0.0593371
182	0x3a4e9774	0.00078808446
183	0x3d228de3	0.039686095
184	0x3d92ac38	0.07161754
185	0x3e891b22	0.26778513
186	0x3e71ba18	0.23606145
187	0xbe94f5dd	-0.2909383
188	0xbe2023f4	-0.15638715
189	0xbcb5c70c	-0.02218964
190	0xbe9543b6	-0.29153222
191	0xbdebe1d5	-0.115176834
192	0x3e85de06	0.26145953
193	0xbd9bd69e	-0.07609294
194	0x3d2b25c1	0.04178405
195	0xbe22c061	-0.15893699
196	0xbe9165cc	-0.28397977
197	0x3e7c8f48	0.24664032
198	0xbba5cf7f	-0.005060136
199	0x3db7130b	0.08939179
200	0xbe29ffc4	-0.16601473
201	0x3d8ead61	0.06966663
202	0x3e3afe35	0.18261035
203	0x3dccb539	0.09995503
204	0x3e4eac40	0.20182896
205	0x3b36924b	0.0027858193
206	0xbe80a145	-0.2512304
207	0x3e458cd2	0.19292
208	0xbdf9d70c	-0.1219922
209	0xbe223364	-0.15839916
210	0xbcde22b9	-0.027116166
211	0x3e136a8a	0.1439611
212	0x3e1b1685	0.1514531
213	0x3e886771	0.2664142
214	0x3e2d238f	0.16908096
215	0xbe014d36	-0.1262711
216	0xbe44c30f	-0.19215034
217	0xbc363db4	-0.01112311
218	0xbebd760c	-0.37004125
219	0x3e51eab3	0.20499687
220	0x3e30c1cb	0.17261426
221	0xbe2be4f2	-0.16786554
222	0x3e9b35d7	0.30314514
223	0x3d240fd9	0.040054176
224	0xbe54a31c	-0.20765346
225	0xbd773a77	-0.06035849
226	0xbd5fa1d9	-0.05459771
227	0x3e2195cd	0.157798
228	0xbe8c3213	-0.27381954
229	0x3e99218a	0.299084
230	0xbbad1d9d	-0.005283071
231	0xbe2d960a	-0.16951767
232	0xbe1212c9	-0.14264978
233	0xbe62c92e	-0.22147056
234	0x3d8ceb74	0.068808466
235	0xbe15cb8e	-0.14628431
236	0x3d8ba218	0.06818026
237	0xbe07302a	-0.13201967
238	0xbd96d79f	-0.07365345
239	0x3dee423f	0.11633729
240	0xbcd48ab4	-0.025945045
241	0x3de97443	0.11399128
242	0x3c512fd6	0.012767753
243	0x3e831603	0.2560273
244	0x3db90ec6	0.09036021
245	0xbdb25a02	-0.08708574
246	0x3cc8fd58	0.024534866
247	0x3caa85a6	0.020815682
248	0x3e01e126	0.12683544
249	0x3d44d2b6	0.048052512
250	0xbda145c7	-0.07874637
251	0xbc994ad3	-0.018712437
252	0xbe456986	-0.19278535
253	0x3e40c303	0.18824391
254	0x3e42d5a2	0.19026807
255	0xbe9df724	-0.30852616
