W3-Design/checkpoints/epoch_25.pt (torch, 384725 bytes, 24 tensors)

encoder_cnn.0.weight f4 [32, 3, 3]
-0.25120428 -0.09783402 -0.2857006 0.22337045 -0.26258972 0.13588487 0.15740533 0.20287679
0.11527964 0.24801102 0.22673663 0.10348604 -0.23810773 -0.2537147 0.087515846 -0.25297773
0.17609137 -0.10597891 0.0688494 0.16865505 0.35484457 -0.036856666 0.17256004 -0.39157873
-0.3289515 0.010911989 -0.16500793 0.032087084 0.12293055 -0.19284426 0.029753678 0.042132124
0.03448816 0.19186023 0.2809833 0.05456831 -0.08023376 0.07884415 -0.09711786 0.5694757
-0.054389678 0.5675068 0.16287278 0.16609341 -0.28533936 0.018755466 -0.15023202 0.3305178
-0.36067492 -0.3222256 0.04254284 0.108496256 0.16461533 -0.32159498 0.047881074 -0.12213133
0.26850092 0.2503785 0.14205612 -0.1456962 -0.12429234 0.1866307 -0.3160219 0.21709448
-0.062400624 0.24844125 0.29955384 -0.27478474 -0.4761334 -0.036588 -0.044556744 0.3659385
0.11131435 0.24359971 -0.0022476474 -0.10044505 -0.28483716 0.2866263 -0.31774524 0.23489982
-0.117906794 0.13413318 0.31940824 0.05522095 0.09620371 -0.2882308 -0.46961498 0.0044917213
-0.042513642 -0.11513479 0.039458647 0.00051931257 0.012159541 0.4317637 -0.1975489 -0.23260133
-0.1604771 0.19281588 -0.04639935 -0.13752474 -0.014957279 0.23247682 0.062855855 0.35550967
0.1097752 -0.1650969 -0.21376531 0.09911751 -0.1255374 0.2538059 0.10876648 -0.0887869
-0.3489384 -0.4757082 0.3331548 -0.06778295 -0.25882018 0.16259341 -0.03205645 0.09220056
0.10281207 0.009577228 -0.052829158 -0.042382207 0.09439662 -0.011497829 -0.15295294 -0.17015249
-0.10210988 0.31469956 -0.05176706 -0.21292865 0.2036495 0.23951304 -0.08864243 0.28946188
0.16722678 -0.15304081 -0.40602314 0.058521327 -0.2190393 -0.39327982 -0.03913229 -0.1366253
0.1331695 -0.20844488 -0.3598778 0.14320081 -0.0448575 -0.1482278 0.21242514 -0.12347035
0.14757317 -0.045252334 0.18198735 0.014770125 0.17201254 -0.44335127 0.18874012 -0.10612793
-0.35351095 -0.15932506 0.21885368 0.08770483 -0.33781776 -0.19671476 -0.5027137 -0.24480742
0.08790022 -0.288552 -0.17382775 -0.10948174 0.19320895 0.09734135 -0.014239073 -0.13813505
0.055103224 -0.07659644 0.25246668 0.18810563 -0.19165528 -0.16760921 -0.16222583 -0.18429613
0.23000121 0.02560103 0.23668216 0.20264429 -0.17445205 0.25900123 -0.17718163 -0.05115412
-0.15563995 0.24852781 0.11238132 -0.10863424 -0.40079147 -0.2895725 0.13005315 -0.29088196
0.14025132 0.122987375 0.19672707 -0.07858548 -0.05921335 -0.16719551 -0.31143066 0.12961613
-0.29432872 -0.33742934 -0.15718958 0.0042530275 -0.11980349 0.14331226 0.24177603 0.29541114
0.080494486 0.30299354 -0.066627674 0.31169638 0.23575823 -0.14515045 0.040970165 0.083336204
0.14987329 0.47755623 0.24556161 0.36127794 0.22167005 0.21612503 0.012633547 -0.4432238
-0.10130355 0.1421556 -0.399524 0.0027863963 -0.23344712 0.368873 0.20666102 -0.18888548
0.33974797 0.01135029 -0.11849795 -0.19862129 0.060829002 0.10458869 -0.13769135 -0.08562276
0.2905126 -0.11071527 0.36666492 0.16540635 0.24120098 -0.08781576 0.081522584 -0.049373664
00000000: d99d 80be 345d c8bd 5947 92be 39bb 643e
00000010: 2972 86be 6725 0b3e dd2e 213e efbe 4f3e
00000020: bb17 ec3d 9af6 7d3e a62d 683e 7df0 d33d
00000030: 83d2 73be e5e6 81be 823b b33d 4c86 81be
00000040: 4c51 343e 790b d9bd ea00 8d3d e9b3 2c3e
00000050: 30ae b53e 04f7 16bd 94b3 303e 027d c8be
00000060: 556c a8be 33c8 323c d7f7 28be bf6d 033d
00000070: 03c3 fb3d f778 45be fcbd f33c bc92 2c3d
00000080: 7543 0d3d 0277 443e 0bdd 8f3e 0583 5f3d
00000090: 9951 a4bd 0b79 a13d bbe5 c6bd 29c9 113f
000000a0: b6c7 5ebd 2048 113f 1fc8 263e 6414 2a3e
000000b0: 0018 92be 10a5 993c 6cd6 19be a139 a93e
000000c0: 62aa b8be c1fa a4be 6741 2e3d 4933 de3d
000000d0: ec90 283e 19a8 a4be f21e 443d fe1f fabd
000000e0: f478 893e 9c31 803e 2977 113e 6231 15be
000000f0: fb8c febd 1e1c 3f3e 9fcd a1be 044e 5e3e
00000100: cc97 7fbd 6267 7e3e 1f5f 993e 96b0 8cbe
00000110: c2c7 f3be 4cdd 15bd 2281 36bd 4b5c bb3e
00000120: c7f8 e33d 3472 793e 444d 13bb 22b6 cdbd
00000130: 2dd6 91be afc0 923e 81af a2be 9489 703e
00000140: 1e79 f1bd 355a 093e 7a89 a33e 5d2f 623d
00000150: 7306 c53d fd92 93be 6071 f0be 4a2f 933b
00000160: c922 2ebd cacb ebbd 649f 213d 7a22 083a
00000170: d038 473c 2210 dd3e 424a 4abe 0b2f 6ebe
00000180: 1c54 24be 8771 453e 3f0d 3ebd 49d3 0cbe
00000190: 600f 75bc 670e 6e3e 92ba 803d 5d05 b63e
000001a0: d2d1 e03d 290f 29be 4be5 5abe 1ffe ca3d
000001b0: e08c 00be d9f2 813e f6c0 de3d e8d5 b5bd
000001c0: 0ea8 b2be 0690 f3be 4493 aa3e cad1 8abd
000001d0: 1484 84be e37e 263e a04d 03bd a6d3 bc3d
000001e0: 228f d23d cee9 1c3c 6363 58bd f798 2dbd
000001f0: 0453 c13d 6461 3cbc b29f 1cbe 743c 2ebe
00000200: fc1e d1bd 4d20 a13e b209 54bd f809 5abe
00000210: 7f89 503e e842 753e 2a8a b5bd 5934 943e
00000220: 7f3d 2b3e bbb6 1cbe 44e2 cfbe 0fb4 6f3d
00000230: d74b 60be f95b c9be 2e49 20bd 81e7 0bbe
00000240: 965d 083e 9372 55be e741 b8be 3ca3 123e
00000250: 7fbc 37bd 07c9 17be fa85 593e 06de fcbd
00000260: 6c1d 173e 835a 39bd e45a 3a3e 65fe 713c
00000270: 0e24 303e f0fe e2be 1745 413e 9a59 d9bd
00000280: 63ff b4be 1c26 23be 2e1b 603e 979e b33d
00000290: 73f6 acbe 986f 49be d8b1 00bf ccae 7abe
000002a0: 0805 b43d 16bd 93be e7ff 31be f637 e0bd
000002b0: 91d8 453e e75a c73d 004b 69bc 4673 0dbe
000002c0: ebb3 613d 98de 9cbd 5043 813e c39e 403e
000002d0: 4841 44be c0a1 2bbe 871e 26be 20b8 3cbe
000002e0: 7085 6b3e 40b9 d13c cf5c 723e fc81 4f3e
000002f0: 8fa3 32be cf9b 843e 1a6f 35be fc86 51bd
00000300: 1460 1fbe 137e 7e3e 2d28 e63d a17b debd
00000310: 8a34 cdbe d942 94be a72c 053e 7bee 94be
00000320: 0b9e 0f3e cee0 fb3d d272 493e 6df1 a0bd
00000330: b389 72bd 4d35 2bbe d773 9fbe 17ba 043e
00000340: 41b2 96be 8ac3 acbe 4ef6 20be fb5c 8b3b
00000350: 885b f5bd 73c0 123e 2394 773e 2140 973e
00000360: 4bda a43d f821 9b3e 1774 88bd ab96 9f3e
00000370: 9b6a 713e 52a2 14be 55d0 273d 2cac aa3d
00000380: 6278 193e 4082 f43e 8174 7b3e 6cf9 b83e
00000390: 79fd 623e e14f 5d3e f0fc 4e3c 3bee e2be
000003a0: 3c78 cfbd 3d91 113e 698e ccbe f99b 363b
000003b0: c30c 6fbe ecdc bc3e f29e 533e 326b 41be
000003c0: 72f3 ad3e 91f6 393c 0eaf f2bd 6163 4bbe
000003d0: d527 793d 9832 d63d f6fe 0cbe fc5a afbd
000003e0: 11be 943e b0be e2bd 81bb bb3e 4860 293e
000003f0: 64fd 763e c0d8 b3bd 50f5 a63d 0a3c 4abd

encoder_cnn.0.bias f4 [32]
-0.33033997 -0.260353 1.2988412 -1.4278228 -0.007792729 0.050361287 -1.0107805 -0.22510792
-0.31883883 -0.33971214 -0.3921651 -0.32324037 -0.11398247 -0.97021997 -0.87765014 0.22299896
-0.9371534 0.06439644 -0.05711227 -1.1062047 -0.7927634 0.43876848 -0.08920392 -0.73426974
-0.5895368 0.71218073 -0.80466217 -0.88786024 -1.0139283 -0.15086488 0.21390143 0.21438687
00000000: 5222 a9be fd4c 85be 6e40 a63f e6c2 b6bf
00000010: 265a ffbb a347 4e3d 4161 81bf b182 66be
00000020: d83e a3be c0ee adbe ddc9 c8be c37f a5be
00000030: a46f e9bd 5660 78bf aead 60bf d759 643e
00000040: 49e9 6fbf 48e2 833d 8eee 69bd 1e98 8dbf
00000050: 8bf2 4abf 43a6 e03e 8bb0 b6bd 1af9 3bbf
00000060: e2eb 16bf 7a51 363f 57fe 4dbf cf4a 63bf
00000070: 67c8 81bf 537c 1abe fa08 5b3e 3b88 5b3e

encoder_cnn.2.weight f4 [64, 32, 3]
-0.19751693 -0.21611267 0.03151039 0.36253285 0.3233662 0.26537675 0.62328774 0.23031498
0.15367633 0.09002993 -0.55967385 -0.015901279 0.021565277 0.07167121 -0.33965078 -0.06901446
-0.22130565 -0.02354687 0.056180645 0.23154786 0.14322044 -0.08662783 -0.16410273 -0.24431862
0.41914406 0.18369295 -0.009761838 0.43037394 0.026196498 -0.08766382 -0.04779849 0.14414363
0.13904826 0.0889218 -0.080501996 -0.15992354 0.14665127 -0.20168504 -0.049981654 0.2161918
0.27194005 0.1166065 0.03611622 -0.121252686 0.021709025 0.34446722 0.29987717 0.018641196
0.28815755 0.19944112 0.12663227 0.30766943 0.18160458 0.00921552 -0.08617946 -0.051652435
-0.09187902 -0.4136826 -0.39169073 -0.055291746 -0.018549927 -0.23025016 0.062119067 0.06199456
0.041699942 -0.13456489 0.19745722 -0.046060365 0.06357252 -0.2809 -0.26884922 -0.032277152
0.2799653 0.07960397 0.32308793 -0.0048331325 0.06717423 -0.29266086 -0.12734245 -0.026508031
-0.07594366 0.034738887 -0.29752582 -0.040361606 -0.046483453 -0.21687573 -0.40265888 0.12068517
-0.013837642 0.034075465 0.36757457 -0.072242506 -0.21025653 0.23383977 -0.08129269 -0.12704681
-0.057530984 -0.013345773 0.07498447 -0.08125367 -0.0597663 -0.027858453 -0.49966037 -0.23986332
-0.1858747 -0.06428742 0.029288992 -0.09094834 -0.3175043 -0.28851962 -0.2161124 -0.04493488
-0.005736074 0.07099601 0.05872972 -0.12752867 -0.19030361 -0.24164775 0.077787034 0.009582893
0.09560246 -0.19848816 -0.048368566 0.024143502 0.03748863 -0.015361794 -0.051673815 -0.07598483
-0.07669133 -0.34266135 -0.18003842 -0.47742125 -0.006129043 -0.015785176 -0.043616924 -0.03585834
0.016016405 0.03987148 -0.12233735 -0.05327369 -0.14382254 -0.16869669 -0.07728761 -0.16616261
-0.17734656 0.048252866 -0.062057395 -0.3253915 -0.3612959 -0.34790874 0.00324856 0.030062329
0.044258077 0.1074643 0.06651133 0.07344892 -0.02986094 -0.009508518 -0.02993864 -0.30111837
-0.2728997 -0.27877223 -0.021258537 -0.11111155 -0.11803539 0.04359351 -0.036638927 0.023461256
-0.032541443 0.05323128 0.049789593 -0.24908864 0.039251883 0.066687405 -0.044921905 -0.044286184
-0.18859366 -0.19222932 -0.08355773 -0.073635265 -0.17625599 -0.076090164 0.06659575 -0.010738587
-0.10538167 -0.01036504 -0.13576777 -0.10946194 -0.1781464 -0.16889903 -0.17088419 -0.22140256
0.22873615 0.1217841 -0.08455852 0.040549356 0.22803043 0.20328598 -0.50079787 -0.17665707
-0.21021596 -0.016389223 -0.2265573 -0.0073101204 -0.30266517 -0.31299 -1.713333 -0.21146892
0.44366455 -0.122140616 -0.08809423 0.33130488 0.11060313 0.027165093 0.17011043 -0.45096985
-0.11736859 -0.32971483 -0.24552903 -0.09677459 -0.016952626 -0.26824734 -0.21137571 0.05271829
-0.14428031 -0.1781761 -0.044050694 -0.42497614 -0.24578711 0.092157945 0.006874908 -0.34863374
-0.16047522 -0.34889743 0.30455068 0.011655424 -0.23993687 -0.11977917 0.10674202 -0.29087675
0.16681603 0.024445131 -0.29503584 0.09918908 -0.09373969 -0.11283748 -0.5637684 -0.44173232
-0.11050452 -0.116542645 0.20727384 -0.09821224 0.18404175 0.092203595 -0.23916247 -0.34373507
00000000: e141 4abe a44c 5dbe 0a11 013d e89d b93e
00000010: 4190 a53e 76df 873e c98f 1f3f b1d7 6b3e
00000020: 545d 1d3e 9d61 b83d c946 0fbf 6643 82bc
00000030: aaa9 b03c 5bc8 923d b5e6 adbe 7457 8dbd
00000040: f39d 62be 5ee5 c0bc ad1d 663d e21a 6d3e
00000050: 61a8 123e ef69 b1bd 8c0a 28be a92e 7abe
00000060: 0d9a d63e 011a 3c3e 1ef0 1fbc f959 dc3e
00000070: 0a9a d63c 1789 b3bd 59c8 43bd 639a 133e
00000080: ab62 0e3e a21c b63d 3bde a4bd ffc2 23be
00000090: c02b 163e 8686 4ebe 90b9 4cbd 6261 5d3e
000000a0: ba3b 8b3e 64cf ee3d 9aee 133d 5453 f8bd
000000b0: 20d7 b13c 025e b03e 8089 993e 6cb5 983c
000000c0: 6389 933e 4b3a 4c3e e4ab 013e d986 9d3e
000000d0: 8df6 393e b1fc 163c db7e b0bd 8191 53bd
000000e0: 112b bcbd 35ce d3be b08b c8be 9979 62bd
000000f0: 04f6 97bc b3c6 6bbe 9070 7e3d 02ee 7d3d
00000100: 8fcd 2a3d 61cb 09be 3a32 4a3e cba9 3cbd
00000110: 4f32 823d 20d2 8fbe 9ba6 89be 0c35 04bd
00000120: 9d57 8f3e 6807 a33d c86b a53e 415f 9ebb
00000130: a592 893d a5d7 95be 0f66 02be 5f27 d9bc
00000140: 5a88 9bbd 5d4a 0e3d 4e55 98be 3652 25bd
00000150: 6f65 3ebd ac14 5ebe 4e29 cebe c929 f73d
00000160: 47b7 62bc b792 0b3d bc32 bc3e e1f3 93bd
00000170: 7d4d 57be b173 6f3e c87c a6bd 8f18 02be
00000180: 9ca5 6bbd 3ba8 5abc 7591 993d 5368 a6bd
00000190: 82cd 74bd 6937 e4bc 7cd3 ffbe bb9e 75be
000001a0: f055 3ebe 1fa9 83bd 78ef ef3c 2043 babd
000001b0: ec8f a2be d8b8 93be 924c 5dbe a30d 38bd
000001c0: adf5 bbbb 5b66 913d 938e 703d e096 02be
000001d0: f3de 42be 8272 77be cf4e 9f3d 9101 1d3c
000001e0: 39cb c33d 7b40 4bbe 1e1e 46bd 98c8 c53c
000001f0: ad8d 193d 09b0 7bbc eca7 53bd ef9d 9bbd
00000200: 5810 9dbd 4f71 afbe fe5b 38be 8f70 f4be
00000210: 24d6 c8bb ea4f 81bc a9a7 32bd 32e0 12bd
00000220: d634 833c 4750 233d 018c fabd 8335 5abd
00000230: 3746 13be d3be 2cbe f748 9ebd 8826 2abe
00000240: 569a 35be cca4 453d e52f 7ebd b799 a6be
00000250: c7fb b8be 1821 b2be cbe5 543b 4645 f63c
00000260: f547 353d 3e16 dc3d 1837 883d 636c 963d
00000270: ee9e f4bc 9dc9 1bbc e141 f5bc 302c 9abe
00000280: 82b9 8bbe 3cbb 8ebe 6226 aebc 748e e3bd
00000290: 8abc f1bd 1c8f 323d b312 16bd d231 c03c
000002a0: 2d4a 05bd 0b09 5a3d 2cf0 4b3d 1811 7fbe
000002b0: 95c6 203d 6893 883d 0800 38bd 6e65 35bd
000002c0: b21e 41be c3d7 44be 5120 abbd 16ce 96bd
000002d0: 737c 34be 29d5 9bbd 5a63 883d e6f0 2fbc
000002e0: 58d2 d7bd 21d2 29bc b506 0bbe 952d e0bd
000002f0: 036c 36be def3 2cbe 44fc 2ebe 5ab7 62be
00000300: cf39 6a3e f169 f93d 042d adbd 1517 263d
00000310: cf80 693e 332a 503e 4a34 00bf 97e5 34be
00000320: da42 57be b142 86bc a3fe 67be bc89 efbb
00000330: eef6 9abe 3a40 a0be 7f4e dbbf 4f8b 58be
00000340: 0028 e33e dc24 fabd bf6a b4bd cba0 a93e
00000350: e583 e23d 5489 de3c 6e31 2e3e 85e5 e6be
00000360: f15e f0bd 62d0 a8be f66b 7bbe c231 c6bd
00000370: 3ce0 8abc b757 89be e072 58be 22ef 573d
00000380: 38be 13be cc73 36be 806e 34bd 7996 d9be
00000390: 9eaf 7bbe 4ebd bc3d e946 e13b 1f80 b2be
000003a0: 9e53 24be afa2 b2be 11ee 9b3e 64f6 3e3c
000003b0: 03b2 75be c84e f5bd 8f9b da3d cced 94be
000003c0: d2d1 2a3e 2841 c83c f00e 97be a523 cb3d
000003d0: 98fa bfbd 5617 e7bd 2053 10bf bd2a e2be
000003e0: 3250 e2bd e9ad eebd 983f 543e 8023 c9bd
000003f0: 7175 3c3e 3dd5 bc3d 02e7 74be 0bfe afbe

encoder_cnn.2.bias f4 [64]
-0.033160884 -0.14615141 -0.09235985 0.010170659 0.15380462 0.12738109 -0.5239399 -0.13597491
-0.18906665 -0.015841922 0.084919944 -0.16652511 0.21913823 -0.11519024 -0.109046094 0.19047865
0.17269263 0.14121076 -0.16213386 -0.11969517 -0.1433138 0.11652291 0.37876335 0.34383202
-0.16781026 -0.14992774 -0.33983254 -0.15450817 0.34123456 -0.12303653 -0.046657607 -0.34325722
-0.20183653 -0.20264433 0.18009266 -0.2769172 -0.04300915 -0.5039693 0.06301119 -0.001716445
-0.1914159 -0.44549808 0.17670646 -0.22384463 -0.2939633 -0.5401993 -0.42682898 -0.16602808
-0.33129498 0.12070114 -0.3752696 -0.3068002 -0.27798074 -0.08861675 -0.3358856 -0.06700188
-0.05599258 -0.2160119 -0.1423479 -0.1274687 -0.36977643 0.15250567 -0.321686 -0.21965772
00000000: b5d3 07bd b7a8 15be 2927 bdbd d6a2 263c
00000010: f57e 1d3e 3070 023e ed20 06bf 023d 0bbe
00000020: b09a 41be ebc6 81bc 82ea ad3d 8f85 2abe
00000030: c665 603e dce8 ebbd 8f53 dfbd d60c 433e
00000040: 56d6 303e 8e99 103e 6b06 26be be22 f5bd
00000050: dac0 12be 90a3 ee3d 45ed c13e c00a b03e
00000060: 74d6 2bbe a886 19be 88fe adbe 6437 1ebe
00000070: 4cb6 ae3e 94fa fbbd 0c1c 3fbd 69bf afbe
00000080: 3cae 4ebe ff81 4fbe 366a 383e 17c8 8dbe
00000090: 5d2a 30bd 2204 01bf 030c 813d 56fa e0ba
000000a0: 8802 44be 5318 e4be 8af2 343e 8737 65be
000000b0: 5c82 96be 804a 0abf 5489 dabe 4403 2abe
000000c0: 7f9f a9be 2932 f73d 5623 c0be ea14 9dbe
000000d0: 7e53 8ebe b37c b5bd 33f9 abbe 4838 89bd
000000e0: 7a58 65bd 3932 5dbe a6c3 11be 2887 02be
000000f0: 5653 bdbe 722a 1c3e 07b4 a4be f4ed 60be

encoder_lstm.weight_ih_l0 f4 [128, 64]
0.53244233 0.0490344 0.17918465 -0.18791145 0.20664617 -0.42474413 0.5509751 -0.112838194
0.28547895 0.05314254 0.037778456 -0.4203234 0.112824224 -0.1588498 0.101299234 0.34631306
-0.4658882 -0.12498642 -0.07345593 0.012746684 -0.012494525 -0.06478897 1.333427 -0.98487586
0.45658785 0.23530822 -0.093893155 0.014095674 -0.39654702 -0.10007091 0.21837963 0.14861485
0.2533106 0.24584088 -0.066789456 0.37673917 0.55515367 0.09245638 0.0725526 -0.1267303
0.06291755 0.54354656 0.17212515 -0.12784362 -0.29755694 0.16982004 -0.015340165 0.22978234
0.37462687 0.07176098 0.3190796 0.40035105 0.18654433 -0.03750516 0.19043206 0.24211223
-0.0017946119 -0.43684036 -0.05543783 -0.041934397 0.12583925 -0.1800932 -0.0885729 -0.110379554
0.31613088 0.013198756 -0.16145527 0.13225637 0.042217214 0.41158304 -0.028006723 0.24418576
0.115149185 0.15695657 0.10734393 -0.3370628 0.10836869 -0.046548545 0.18192045 -0.018463215
0.43605673 -0.26537138 -0.2142334 -0.048549235 0.2068002 0.11810074 -1.0559356 -0.25786
0.21048938 -0.24437676 0.18405373 0.24556464 0.1253212 -0.05680707 -0.4858943 0.08664867
0.378215 0.13032207 -0.046533946 -0.09148587 -0.19459723 -0.29258767 0.20309094 0.0024865607
-0.05700903 -0.021136226 -0.21700937 -0.12776542 0.14475064 0.17133017 0.35411426 -0.0314255
-0.38464415 0.20709151 -0.20275718 0.2625519 -0.16495173 -0.06816646 -0.025976352 0.21064414
0.057387203 0.0942989 0.13718988 -0.15218738 0.1404109 -0.16064881 -0.42791057 -0.18891847
0.010594008 -0.06362771 0.27526918 -0.1416412 0.35660207 0.06304095 -0.05723968 -0.023379877
-0.065919705 0.14087275 0.21200277 0.098575346 -0.45109138 -0.079198174 -0.07456149 0.29986224
-0.057282016 0.50133777 -0.034713417 0.20801158 0.11486839 0.033468235 0.07167636 0.08704977
-0.15089944 -0.030978968 0.10839674 -0.09917364 0.28560993 0.12460541 -0.20530857 -0.0048394823
-0.11135927 0.15962991 0.029132126 -0.07347627 0.23797117 -0.080650024 -0.006199886 0.021706657
0.35086587 0.014879229 0.29575992 -0.07080607 0.2270457 -0.6116988 0.11177134 -0.11613478
0.22996646 0.10611161 0.37342116 -0.0043736775 -0.094315894 -0.041720472 0.53660256 0.1369982
0.0032974968 -0.33074814 0.010651241 -0.030889785 -0.0069047897 -0.1755712 0.10641072 -0.089756995
-0.08047774 0.23627008 0.2896392 -0.028926412 0.00903025 0.04731645 0.06741812 -0.17119105
0.0060604434 0.037610188 -0.07669118 0.38668934 0.30189776 -0.10212911 0.22603734 0.16252948
-0.122603714 0.42843306 -0.008521001 0.113063455 0.014767049 0.352299 0.38099596 0.39517128
0.44109738 -0.076510906 -0.010609049 0.19896354 0.17281885 0.12509197 0.08258954 0.087580346
-0.31082755 -0.19500166 0.08511286 -0.11128621 -0.18934993 -0.24291156 -0.09504013 0.07454513
0.19786564 -0.13091937 0.0697249 0.104040824 0.28960976 0.61699295 0.07255379 0.068417326
0.33958557 0.03318333 -0.030173047 0.0937369 0.16786939 0.027988454 -0.10763268 0.056672838
0.0737123 0.1235288 0.2749156 -0.08809124 -0.057369296 -0.0044771885 -0.43427408 -0.22179733
00000000: 244e 083f 4cd8 483d 2e7c 373e dc6b 40be
00000010: 0e9b 533e 1078 d9be b40c 0d3f b617 e7bd
00000020: 4c2a 923e feab 593d 95bd 1a3d a134 d7be
00000030: 6310 e73d 86a9 22be f975 cf3d f24f b13e
00000040: e688 eebe e1f8 ffbd 1070 96bd 78d7 503c
00000050: d6b5 4cbc 14b0 84bd bcad aa3f d320 7cbf
00000060: e2c5 e93e a3f4 703e 0e4b c0bd 8bf1 663c
00000070: 3608 cbbe faf1 ccbd e99e 5f3e 7e2e 183e
00000080: edb1 813e b6bd 7b3e e9c8 88bd f5e3 c03e
00000090: 8d1e 0e3f c559 bd3d 7596 943d 96c5 01be
000000a0: ebda 803d de25 0b3f 9341 303e 70e9 02be
000000b0: 6259 98be 4ee5 2d3e 5155 7bbc 104c 6b3e
000000c0: 18cf bf3e 6cf7 923d 675e a33e d0fa cc3e
000000d0: 7a05 3f3e 039f 19bd 9f00 433e 45ec 773e
000000e0: 2f39 ebba 8aa9 dfbe c712 63bd 67c3 2bbd
000000f0: 01dc 003e 5a6a 38be b565 b5bd ad0e e2bd
00000100: e8db a13e 983f 583c 8854 25be 376e 073e
00000110: f5eb 2c3d 03bb d23e 5b6e e5bc d50b 7a3e
00000120: 56d3 eb3d 39b9 203e 22d7 db3d 7f93 acbe
00000130: 67f0 dd3d b0a9 3ebd 5b49 3a3e 2b40 97bc
00000140: d442 df3e c2de 87be 0060 5bbe 90db 46bd
00000150: 6ec3 533e cdde f13d e628 87bf 3a06 84be
00000160: 878a 573e e73d 7abe 9578 3c3e 4c75 7b3e
00000170: 3354 003e 88ae 68bd 23c7 f8be dc74 b13d
00000180: 65a5 c13e 2673 053e 619a 3ebd f25c bbbd
00000190: 7f44 47be 0dce 95be 12f7 4f3e 91f5 223b
000001a0: 4d82 69bd e125 adbc b437 5ebe f0d4 02be
000001b0: 8339 143e 2d71 2f3e 774e b53e 06b8 00bd
000001c0: 14f0 c4be cc0f 543e 949f 4fbe 346d 863e
000001d0: 1be9 28be db9a 8bbd 5ccc d4bc 19b3 573e
000001e0: d80e 6b3d c81f c13d 817b 0c3e 02d7 1bbe
000001f0: e0c7 0f3e 1f81 24be 1817 dbbe d873 41be
00000200: 7d92 2d3c 3f4f 82bd 15f0 8c3e 640a 11be
00000210: 8c94 b63e 9d1b 813d 2874 6abd 2887 bfbc
00000220: e900 87bd f240 103e 4117 593e dfe1 c93d
00000230: 73f5 e6be a732 a2bd b2b3 98bd 8b87 993e
00000240: 8ca0 6abd ac57 003f a82f 0ebd fd00 553e
00000250: 1e40 eb3d fd15 093d 0ecb 923d 2647 b23d
00000260: 6285 1abe 9bc7 fdbc 1cff dd3d 8d1b cbbd
00000270: 773b 923e 1f31 ff3d 693c 52be 8594 9ebb
00000280: 5410 e4bd 0676 233e 7fa6 ee3c ba7a 96bd
00000290: b7ae 733e d72b a5bd 6a28 cbbb 29d2 b13c
000002a0: b1a4 b33e 02c8 733c d86d 973e c602 91bd
000002b0: ab7e 683e 4b98 1cbf 5fe8 e43d 12d8 edbd
000002c0: 547c 6b3e 0b51 d93d 0f31 bf3e 1151 8fbb
000002d0: b128 c1bd 16e3 2abd c95e 093f 4249 0c3e
000002e0: d11a 583b d257 a9be 8b82 2e3c 930c fdbc
000002f0: 9341 e2bb f0c8 33be dded d93d 84d2 b7bd
00000300: 83d1 a4bd c9f0 713e 974b 943e 15f7 ecbc
00000310: 9df3 133c e5ce 413d 8312 8a3d b54c 2fbe
00000320: af96 c63b 240d 1a3d 4410 9dbd 25fc c53e
00000330: 5892 9a3e 1129 d1bd 5576 673e 216e 263e
00000340: a817 fbbd 945b db3e ab9b 0bbc d08d e73d
00000350: 7ef1 713c 8960 b43e e711 c33e e453 ca3e
00000360: 84d7 e13e c0b1 9cbd 94d1 2dbc 19bd 4b3e
00000370: 6df7 303e 1c18 003e b424 a93d 535d b33d
00000380: ca24 9fbe 84ae 47be a74f ae3d 06ea e3bd
00000390: f3e4 41be cfbd 78be 66a4 c2bd 1eab 983d
000003a0: 4a9d 4a3e ba0f 06be eecb 8e3d 5b13 d53d
000003b0: bb47 943e 40f3 1d3f 1597 943d 621e 8c3d
000003c0: 29de ad3e 3eeb 073d 772d f7bc 22f9 bf3d
000003d0: f4e5 2b3e 0b48 e53c 866e dcbd c721 683d
000003e0: 79f6 963d abfc fc3d bdc1 8c3e 2e69 b4bd
000003f0: 11fc 6abd 61b5 92bb 2c59 debe d71e 63be

encoder_lstm.weight_hh_l0 f4 [128, 32]
-0.57912415 0.69389826 -0.06247665 0.10895286 1.5081772 -0.21785694 0.5443646 -0.6455492
0.6112687 0.2842108 0.5586769 -0.72958213 -0.15768494 -0.3801794 0.11085559 1.1172833
-0.4400734 0.4536385 -0.05097198 0.30015364 0.82352096 0.65060335 0.7725463 0.5185625
-0.605875 -0.8526191 0.65912807 -0.6465038 0.59122604 -0.12624475 -0.6660361 0.0059058145
-0.24919482 -0.111734316 -0.6135864 -0.3048351 -0.09473902 -0.13603863 -0.5860099 -0.6349624
0.6996727 0.4285028 0.2621498 -0.3195196 -0.09699569 0.371524 0.54687196 0.47732037
-0.3974086 0.66699183 -0.5550412 0.26979163 0.100308515 0.4969803 0.42713162 -0.07164327
-0.32201546 0.8245322 0.42264724 -0.6109715 0.19981694 -0.46304065 -0.04213518 -0.07416067
-0.30517736 0.3705946 -0.2398037 -0.36730167 0.50372076 -0.03519995 0.027298642 0.38800788
0.03413436 -0.15239762 -0.28229102 -0.05155723 0.2843428 0.22473809 -0.20834671 0.06703751
-0.28490537 0.25500217 -0.37916332 -0.25874084 -0.45554662 -0.39031953 -0.13140848 -0.20845194
0.17309779 0.27656907 -0.6616873 -0.39161843 -0.060238488 -0.13251482 -0.51354307 0.031697247
-0.7416785 -0.61637574 -0.29924828 0.8710372 -0.2403647 0.062687874 -0.28163722 1.0863036
-0.71305186 -0.19423802 -0.5819204 0.09898174 0.64849526 0.6310897 -0.2894315 0.062164955
0.3092802 -0.084040165 -0.52854145 -0.23902844 -0.10659773 -0.8980363 -0.6612161 -0.75649446
1.0502442 0.26514754 -0.8553336 -0.11742236 -0.33770287 0.46449044 0.3505218 -0.15421489
0.64423335 -0.07036229 0.09510959 0.13055675 -0.39864135 -0.19709308 0.08176391 -0.07906314
0.4745546 -0.6157195 -0.12558933 0.7693541 -0.1881756 0.21928866 0.38696507 -0.8384714
0.07939801 0.16239631 0.4754605 -0.2630287 0.22897579 0.50372255 -0.037303362 0.1636364
0.027002564 -0.12710403 -0.09255034 -0.69084543 0.9118609 -0.09743685 -0.06414618 -0.21634145
0.39747122 0.6681049 -0.20802286 -0.45063502 0.64412904 -0.8662325 -0.58235675 -0.53608793
0.3145369 0.3329349 0.7572713 -0.32078934 -0.30511597 -0.5784336 0.28811368 -0.3645362
-0.02002837 0.15321964 0.44800794 0.37801734 0.25921726 0.3879588 0.86298823 1.2352515
-0.42737275 0.24261059 0.31662717 -0.34467325 0.93768346 0.012589741 -0.39180496 0.061270945
0.3012688 -0.3579322 0.32302102 0.55926996 -0.3005056 0.11014705 1.1026583 0.32275483
-0.23258114 0.36465335 -0.2656892 -0.93358713 0.3795453 0.14301525 -0.111605234 -0.77916884
0.08261331 -0.79607767 -0.255819 -0.4985503 -0.21978177 0.639932 0.2907265 -0.36935005
0.35157573 -0.42041346 0.097754754 0.2405801 -0.31735113 0.04013524 -0.022810588 0.2844476
0.2457725 -0.06038758 -0.17964822 -0.40715742 0.20155148 -0.7001111 0.06984188 0.30158618
0.122048266 -0.32661384 0.30191365 -0.109262854 -0.18076898 0.19312184 0.42428285 0.36641976
0.23850532 0.19017035 -0.03385627 0.21985796 0.40518388 -0.007262083 0.5172184 0.42606696
0.4661657 0.028197514 0.2957815 -0.7115694 0.14518532 -0.2896748 -0.29210424 -0.4769259
00000000: 7b41 14bf 51a3 313f 84e7 7fbd ad22 df3d
00000010: f30b c13f e415 5fbe 7a5b 0b3f b642 25bf
00000020: 1b7c 1c3f 1484 913e 7305 0f3f e5c5 3abf
00000030: 2978 21be e0a6 c2be 4108 e33d 2403 8f3f
00000040: 4d51 e1be 4e43 e83e ffc7 50bd bdad 993e
00000050: 45d2 523f f18d 263f 98c5 453f 83c0 043f
00000060: a01a 1bbf 3f45 5abf 9ebc 283f 4681 25bf
00000070: 975a 173f 4e46 01be 5881 2abf 9085 c13b
00000080: ed2c 7fbe f6d4 e4bd 0014 1dbf 5913 9cbe
00000090: 8806 c2bd b64d 0bbe bf04 16bf e58c 22bf
000000a0: c01d 333f b864 db3e 8038 863e 1398 a3be
000000b0: ada5 c6bd 6538 be3e cdff 0b3f 5663 f43e
000000c0: 2479 cbbe fabf 2a3f 2e17 0ebf 2122 8a3e
000000d0: 8d6e cd3d 3474 fe3e ffb0 da3e b5b9 92bd
000000e0: 36df a4be 8b14 533f 3865 d83e a168 1cbf
000000f0: d09c 4c3e aa13 edbe f095 2cbd 8de1 97bd
00000100: 3540 9cbe 93be bd3e 1a8f 75be f70e bcbe
00000110: d8f3 003f d32d 10bd 67a1 df3c f8a8 c63e
00000120: 78d0 0b3d 1f0e 1cbe 7388 90be ad2d 53bd
00000130: 6195 913e be21 663e d758 55be f64a 893d
00000140: 1edf 91be a58f 823e b221 c2be ae79 84be
00000150: 683d e9be f6d7 c7be f28f 06be 6d74 55be
00000160: 8c40 313e 769a 8d3e 5764 29bf 3682 c8be
00000170: a2bc 76bd f7b1 07be 8f77 03bf f9d4 013d
00000180: a4de 3dbf cdca 1dbf 1237 99be 4bfc 5e3f
00000190: 2a22 76be 8062 803d c132 90be ff0b 8b3f
000001a0: 918a 36bf 55e6 46be bcf8 14bf f0b6 ca3d
000001b0: c903 263f 188f 213f 5e30 94be aea0 7e3d
000001c0: f959 9e3e 401d acbd 7e4e 07bf dfc3 74be
000001d0: e94f dabd b5e5 65bf 7545 29bf 9fa9 41bf
000001e0: 676e 863f 6bc1 873e 25f7 5abf 227b f0bd
000001f0: 64e7 acbe b1d1 ed3e 9877 b33e 82ea 1dbe
00000200: 7aec 243f 1b1a 90bd d1c8 c23d abb0 053e
00000210: b81a ccbe c5d2 49be d673 a73d dbeb a1bd
00000220: d2f8 f23e cb9f 1dbf 7d9a 00be 64f4 443f
00000230: 1bb1 40be 358d 603e 4920 c63e 10a6 56bf
00000240: 6d9b a23d 384b 263e 8f6f f33e b3ab 86be
00000250: a178 6a3e f6f3 003f 69cb 18bd 4d90 273e
00000260: 7b34 dd3c 8f27 02be 088b bdbd 3fdb 30bf
00000270: b76f 693f f98c c7bd 135f 83bd 9d88 5dbe
00000280: 5981 cb3e ec08 2b3f f203 55be a2b9 e6be
00000290: a4e5 243f 6ac1 5dbf 5515 15bf 0f3d 09bf
000002a0: fb0a a13e 7176 aa3e 88dc 413f 803e a4be
000002b0: 2938 9cbe 3914 14bf a383 933e 7da4 babe
000002c0: 8912 a4bc 9ce5 1c3e 4c61 e53e 7d8b c13e
000002d0: 20b8 843e 89a2 c63e ccec 5c3f b91c 9e3f
000002e0: 9ad0 dabe e96e 783e f51c a23e 0379 b0be
000002f0: 060c 703f 3345 4e3c a99a c8be 3ef7 7a3d
00000300: e73f 9a3e e442 b7be 0363 a53e 512c 0f3f
00000310: dfdb 99be c794 e13d e823 8d3f 1f40 a53e
00000320: c029 6ebe d8b3 ba3e 6a08 88be 91ff 6ebf
00000330: c353 c23e 9772 123e 4991 e4bd 9c77 47bf
00000340: 2b31 a93d bfcb 4bbf b5fa 82be fc41 ffbe
00000350: 790e 61be 95d2 233f 1bda 943e 731b bdbe
00000360: bc01 b43e 6f40 d7be a533 c83d a15a 763e
00000370: d97b a2be d964 243d 45dd babc 1ea3 913e
00000380: c9ab 7b3e f858 77bd b4f5 37be f076 d0be
00000390: 8363 4e3e 7b3a 33bf 4209 8f3d 8169 9a3e
000003a0: 71f4 f93d ee39 a7be 6d94 9a3e 34c5 dfbd
000003b0: 811b 39be bbc1 453e 9a3b d93e 5f9b bb3e
000003c0: bd3a 743e 04bc 423e dfac 0abd 7222 613e
000003d0: 4374 cf3e c4f6 edbb 6d68 043f 7325 da3e
000003e0: 45ad ee3e 79fe e63c ac70 973e 6a29 36bf
000003f0: 76ab 143e 4150 94be b08e 95be a22f f4be

encoder_lstm.bias_ih_l0 f4 [128]
-0.2983547 0.0247306 0.06653734 0.13638195 0.19843793 1.0647454 0.0086037405 0.522828
-0.4589816 0.1931062 -0.046194855 0.017401172 0.04155611 0.09028179 -0.33937886 -0.20347074
-0.06595446 0.017644636 0.06381388 0.028698746 0.33955994 0.32833675 0.4679017 0.45193088
0.414335 -0.078857996 -0.30730808 0.031121753 -0.027856665 0.011402782 0.0034421205 -0.19150524
0.47405633 0.19926071 -0.30078584 0.5490681 0.31922445 0.18290985 0.12934802 0.22391164
0.15328857 -0.25975505 0.25778347 -0.15363109 0.27657315 -0.17267373 -0.18836726 -0.32416362
-0.08315992 -0.28790554 0.49582556 -0.16611527 -0.06508546 -0.03263726 0.13253714 -0.12062819
-0.16867678 -0.27603945 -0.049988724 -0.26122245 -0.050122708 0.24648948 0.05543049 0.515078
-0.32694343 0.48341954 -0.45036238 -0.37583077 0.052805055 -0.41420108 0.008222465 -0.27492473
0.0051576 0.28575224 0.101215124 0.01628129 -0.49833104 -0.3837987 -0.05975597 0.05930576
0.003240758 0.2504711 0.11830808 0.016499083 -0.269921 0.3083459 0.21336162 0.30844802
-0.26570022 0.14698024 0.29085922 -0.43138137 0.27287996 -0.16063571 -0.2576141 -0.38482943
0.15003914 -0.15361147 -0.59874845 0.19839783 0.39758193 0.40310517 0.21656659 0.4127263
-0.013393038 0.005097752 0.42554373 -0.24710542 0.016295811 -0.12249939 -0.07316885 -0.21124233
-0.088104144 0.03155759 0.37029976 -0.24102208 -0.24772751 -0.051759962 -0.025783764 0.404976
-0.16166559 -0.29345104 -0.19332354 0.14435245 0.9198965 0.12199031 -0.33828261 0.20794994
00000000: f2c1 98be d497 ca3c bb44 883d b6a7 0b3e
00000010: 5033 4b3e 9449 883f b4f6 0c3c 0ed8 053f
00000020: a3ff eabe a2bd 453e d136 3dbd e78c 8e3c
00000030: bd36 2a3d a9e5 b83d 11c3 adbe a25a 50be
00000040: 2213 87bd 7c8b 903c dab0 823d a219 eb3c
00000050: cdda ad3e c11b a83e d090 ef3e 7c63 e73e
00000060: b823 d43e 4d80 a1bd 7c57 9dbe 0cf3 fe3c
00000070: a933 e4bc bcd2 3a3c 3395 613b f319 44be
00000080: 83b7 f23e 000b 4c3e 9a00 9abe ba8f 0c3f
00000090: 6371 a33e b84c 3b3e cf73 043e 1849 653e
000000a0: aef7 1c3e 9dfe 84be 32fc 833e 7851 1dbe
000000b0: ff9a 8d3e 62d1 30be 59e3 40be c6f8 a5be
000000c0: c04f aabd 5b68 93be d9dc fd3e 1f1a 2abe
000000d0: 874b 85bd a6ae 05bd d1b7 073e ea0b f7bd
000000e0: 9bb9 2cbe 0b55 8dbe fac0 4cbd f3be 85be
000000f0: 784d 4dbd bd67 7c3e 150b 633d 27dc 033f
00000100: 2165 a7be c482 f73e e695 e6be e46c c0be
00000110: 1d4a 583d 2a12 d4be 85b7 063c efc2 8cbe
00000120: 1601 a93b 1e4e 923e e049 cf3d 5760 853c
00000130: 3f25 ffbe 4381 c4be adc2 74bd 99ea 723d
00000140: e662 543b bf3d 803e 824b f23d 1629 873c
00000150: 1633 8abe 84df 9d3e 787b 5a3e e6ec 9d3e
00000160: dc09 88be fd81 163e 80eb 943e 05de dcbe
00000170: ecb6 8b3e b07d 24be ffe5 83be 5d08 c5be
00000180: dca3 193e 534c 1dbe 9447 19bf cd28 4b3e
00000190: dc8f cb3e cd63 ce3e a2c3 5d3e dd50 d33e
000001a0: 796e 5bbc 0b0b a73b dee0 d93e 3409 7dbe
000001b0: cb7e 853c f6e0 fabd 8dd9 95bd e94f 58be
000001c0: f26f b4bd 8842 013d ee97 bd3e 7ece 76be
000001d0: 48ac 7dbe 4102 54bd 7938 d3bc 0459 cf3e
000001e0: aa8b 25be 373f 96be 9bf6 45be 21d1 133e
000001f0: 567e 6b3f 0ed6 f93d 6133 adbe d4f0 543e

encoder_lstm.bias_hh_l0 f4 [128]
-0.055957716 -0.14467601 -0.018525273 0.11409628 0.24643819 0.790454 0.251837 0.39114106
-0.19471978 0.12119205 -0.12289097 -0.17595455 -0.034979 0.25830495 -0.4299408 -0.17720193
-0.19913591 -0.017807784 0.009492871 -0.056664 0.21121536 0.29804495 0.47015333 0.3516062
0.32940507 0.180074 -0.48810196 0.04319503 0.13112928 -0.21206091 -0.23185387 0.07263217
0.368488 0.34559792 -0.32680604 0.42109823 0.1450198 0.14940062 -0.0022979404 0.19160713
0.33775324 -0.09828038 0.26273906 -0.18088405 0.3958993 -0.15201163 0.11556977 -0.3608245
-0.30614442 -0.55693704 0.49043047 -0.30380857 -0.19816634 0.06562781 0.086019374 -0.12410859
-0.074697696 -0.37610647 -0.2020887 -0.46824443 0.2673663 0.34711084 0.24902576 0.3719999
-0.10746352 0.32629788 -0.24243103 -0.64703524 -0.18725973 -0.32943162 0.010595447 -0.20976292
0.26424655 0.1875461 0.22966915 0.085595325 -0.48141697 -0.15961659 0.022581901 0.12423426
0.039974276 0.022492869 0.1837694 -0.19326389 -0.18545736 0.10727017 0.13940388 0.5496226
-0.33977565 -0.017626772 0.23292124 -0.37637854 0.26354384 -0.41496336 -0.58203745 -0.19330557
0.13645563 0.05119001 -0.42042735 0.3954391 0.3704828 0.55441844 0.29534248 0.30877662
-0.1515216 -0.14963263 0.2183259 -0.057054717 0.32640445 -0.14600712 0.017458804 -0.10768227
-0.36598685 0.23589173 0.31029284 -0.05959835 -0.16825917 0.010463542 0.08780249 0.25013202
-0.053269997 -0.26392102 -0.06959984 0.2662184 0.88761824 0.10819782 -0.20585509 0.21705602
00000000: eb33 65bd f325 14be 50c2 97bc 4fab e93d
00000010: 4b5a 7c3e 315b 4a3f c7f0 803e a443 c83e
00000020: 9f64 47be 8a33 f83d 43ae fbbd 6e2d 34be
00000030: 2446 0fbd 8c40 843e 3321 dcbe 6c74 35be
00000040: 49ea 4bbe a1e1 91bc fd87 1b3c 8318 68bd
00000050: d748 583e 5999 983e f0b7 f03e ba05 b43e
00000060: c8a7 a83e 5265 383e 80e8 f9be 46ed 303d
00000070: c146 063e 7f26 59be 1a6b 6dbe 2dc0 943d
00000080: 76aa bc3e 36f2 b03e 1f53 a7be 309a d73e
00000090: 1280 143e 7afc 183e 0b99 16bb a934 443e
000000a0: feed ac3e 3947 c9bd bc85 863e ab39 39be
000000b0: 50b3 ca3e f0a8 1bbe d8af ec3d fdbd b8be
000000c0: f6be 9cbe 6d93 0ebf b419 fb3e cc8c 9bbe
000000d0: 1eec 4abe e067 863d ed2a b03d a52c febd
000000e0: 1bfb 98bd 0791 c0be 57f0 4ebe bcbd efbe
000000f0: 3ce4 883e 83b8 b13e 9c00 7f3e c576 be3e
00000100: d515 dcbd 8410 a73e d73f 78be 1aa4 25bf
00000110: 04c1 3fbe 43ab a8be 8798 2d3c 17cc 56be
00000120: 534b 873e 160c 403e 642e 6b3e 9a4c af3d
00000130: 497c f6be 8872 23be aefd b83c 886e fe3d
00000140: 11bc 233d f742 b83c 0c2e 3c3e f8e6 45be
00000150: 89e8 3dbe 76b0 db3d e4bf 0e3e 11b4 0c3f
00000160: 13f7 adbe 0566 90bc e882 6e3e b0b4 c0be
00000170: 38ef 863e 1476 d4be 6800 15bf e5f1 45be
00000180: 06bb 0b3e 9eac 513d 4142 d7be fe76 ca3e
00000190: ecaf bd3e 5eee 0d3f 2137 973e f817 9e3e
000001a0: 7a28 1bbe 4c39 19be d390 5f3e 35b2 69bd
000001b0: 7c1e a73e e482 15be c405 8f3c 8688 dcbd
000001c0: a162 bbbe 9a8d 713e b4de 9e3e 661d 74bd
000001d0: 224c 2cbe 476f 2b3c cbd1 b33d 4e11 803e
000001e0: a431 5abd a820 87be 5c8a 8ebd c74d 883e
000001f0: f33a 633f d296 dd3d adcb 52be ef43 5e3e

encoder_lstm.weight_ih_l1 f4 [128, 32]
0.39519048 -0.0062134787 0.14326806 -0.26403332 0.35494626 0.19670577 -0.20492342 0.2854303
-0.031873368 0.15322043 0.096776314 0.04909279 -0.080162056 -0.68743473 0.02848248 -0.07243185
0.09896248 -0.23685364 -0.29542455 0.07293087 0.25671116 0.28641453 0.08981698 0.039091196
0.33766124 0.29374948 0.43530652 -0.61100096 0.42970744 -0.19055697 -0.052185055 -0.20012608
0.34734586 -0.17816424 -0.043839477 -0.008888537 0.437345 -0.38755694 -0.35116008 0.36344397
-0.18216984 -0.21306095 0.1631342 0.008245747 0.2009455 0.1031609 -0.17470874 -0.00942008
-0.15273912 -0.3084661 0.09312108 -0.21519355 0.4141838 -0.26057875 0.13605797 -0.097393826
0.55570495 -0.56073093 -0.06683114 -0.025541829 0.25898957 -0.4026345 -0.6949071 0.25088987
-0.14427978 0.23372671 0.016140498 0.7503185 0.025817623 0.6473631 0.47441408 0.5493583
0.053251375 -0.07266438 -0.08759154 0.17818177 0.073691554 0.009776561 0.273206 0.09372996
0.062168453 0.029359812 -0.051482286 0.19498116 0.0781115 -0.3152469 -0.13360421 -0.34626025
-0.21341343 -0.070256755 -0.21030147 0.68451804 0.011411952 -0.5647608 -0.0252573 0.2539356
-0.0060506687 0.5512496 -0.2782917 -0.2747646 0.5105811 -0.3965998 -0.3290912 -0.10147976
-0.1893148 -0.062179033 0.4867897 0.07168697 0.51757246 0.0040831733 0.3163863 -0.12368988
-0.14219043 -0.17843437 0.2032947 -0.41313913 0.23193039 -0.114386834 0.1298653 0.2402223
0.21294495 0.20566264 -0.29231808 0.27165657 0.5111999 -0.32111633 0.06515676 0.20413068
-0.11659029 0.253047 -0.32995608 -0.02336768 0.13144378 -0.069833145 -0.07026795 -0.23869415
-0.9378598 0.025044803 0.13588865 -0.26770872 -0.279722 0.10846302 0.07745843 0.12159534
-0.25336745 0.25045878 0.3120584 -0.17719227 -0.34685 -0.49201763 -0.2670381 0.07045486
-0.1649092 0.2501235 -0.31797692 0.07690006 0.47402924 -0.501414 0.10509284 0.43514344
-0.1055306 0.014411581 -0.1872864 0.024658758 -0.020423973 -0.08161553 0.04528636 -0.13892776
-0.100506 -0.20602846 -0.029693829 -0.17610125 0.004589142 -0.046464134 -0.12270049 0.36085632
-0.19240429 0.52145356 0.44806036 0.33648223 -0.10945611 -0.19187094 0.027469125 0.13125831
-0.24191393 0.12187144 0.11527478 0.24508527 -0.10771276 0.03766378 0.06683637 -0.024058793
-0.05584646 -0.056415148 -0.47264248 0.63507676 -0.5314748 0.61500525 -0.21167748 0.12136805
-0.022044733 -0.12423322 0.1991876 0.11839305 0.103503145 0.08978848 -0.056557167 -0.09454127
0.07887287 -0.16609713 -0.17696929 0.20633028 0.20536777 -0.10051684 -0.15126014 0.22450826
0.057463534 -0.025205038 0.16080867 -0.026509365 -0.2625814 0.35492817 0.12863508 -0.623705
0.03244559 0.16148882 -0.14972238 0.14178422 0.066758014 0.14977975 0.70034575 0.7107286
-0.35308537 -0.38333964 -0.23690139 0.06857186 0.1816383 0.000572492 -0.023519522 -0.13989012
0.24727656 -0.18743971 -0.34101045 0.1810241 0.1931969 0.11508572 0.17502321 -0.6933093
0.3942184 -0.4228206 -0.050409738 -0.024221638 0.23825382 0.0021283166 0.044008203 -0.015462797
00000000: 6856 ca3e 709a cbbb ddb4 123e 602f 87be
00000010: 84bb b53e 3d6d 493e 72d7 51be ec23 923e
00000020: a68d 02bd d1e5 1c3e a932 c63d 8515 493d
00000030: 012c a4bd b9fb 2fbf 1754 e93c 2657 94bd
00000040: d7ac ca3d c389 72be e341 97be c85c 953d
00000050: a56f 833e eda4 923e f7f1 b73d 171e 203d
00000060: efe1 ac3e 5566 963e 7fe0 de3e 8f6a 1cbf
00000070: 9d02 dc3e 5e21 43be ffbf 55bd daed 4cbe
00000080: 51d7 b13e b070 36be 0691 33bd 3aa1 11bc
00000090: afeb df3e dd6d c6be 41cb b3be 5415 ba3e
000000a0: bb8a 3abe a62c 5abe a70c 273e 2b19 073c
000000b0: a8c4 4d3e 0646 d33d d9e6 32be ae56 1abc
000000c0: a567 1cbe 45ef 9dbe 44b6 be3d b35b 5cbe
000000d0: e60f d43e 946a 85be c852 0b3e 6a76 c7bd
000000e0: ae42 0e3f 108c 0fbf c4de 88bd 193d d1bc
000000f0: 489a 843e 1c26 cebe 6fe5 31bf a374 803e
00000100: 14be 13be 0e56 6f3e 1439 843c e014 403f
00000110: 7b7f d33c 97b9 253f 67e6 f23e bfa2 0c3f
00000120: 1d1e 5a3d 10d1 94bd 3163 b3bd 4875 363e
00000130: 99eb 963d de2d 203c a8e1 8b3e 7ef5 bf3d
00000140: 59a4 7e3d fd83 f03c 17df 52bd 24a9 473e
00000150: ecf8 9f3d 0b68 a1be 8bcf 08be 0649 b1be
00000160: 0d89 5abe c6e2 8fbd 4559 57be 933c 2f3f
00000170: 32f9 3a3c 2a94 10bf 66e8 cebc d903 823e
00000180: b044 c6bb b21e 0d3f 407c 8ebe f2ad 8cbe
00000190: 71b5 023f 210f cbbe a47e a8be 9fd4 cfbd
000001a0: bddb 41be 71af 7ebd 803c f93e 9ed0 923d
000001b0: a17f 043f 24cc 853b 63fd a13e 1f51 fdbd
000001c0: 5e9a 11be 80b7 36be 7c2c 503e f986 d3be
000001d0: 297f 6d3e a543 eabd 69fb 043e d6fc 753e
000001e0: 3e0e 5a3e 3a99 523e b7aa 95be 9216 8b3e
000001f0: ffdd 023f 5c69 a4be e870 853d a207 513e
00000200: e4c6 eebd 608f 813e 01f0 a8be 946d bfbc
00000210: 3399 063e ae04 8fbd a5e8 8fbd 3d6c 74be
00000220: 9417 70bf c22a cd3c 6526 0b3e 1e11 89be
00000230: b937 8fbe dc21 de3d 86a2 9e3d fa06 f93d
00000240: 61b9 81be 223c 803e 1ec6 9f3e e471 35be
00000250: 5396 b1be bce9 fbbe 38b9 88be a34a 903d
00000260: f5dd 28be 3010 803e dfcd a2be c77d 9d3d
00000270: f6b3 f23e ab5c 00bf ea3a d73d 1fcb de3e
00000280: 6d20 d8bd 8d1e 6c3c 02c8 3fbe 2a01 ca3c
00000290: 2d50 a7bc 0b26 a7bd 317e 393d 1443 0ebe
000002a0: 17d6 cdbd 20f9 52be 7940 f3bc e353 34be
000002b0: 8360 963b 2d51 3ebd 654a fbbd 29c2 b83e
000002c0: a105 45be fb7d 053f 2b68 e53e 6647 ac3e
000002d0: 862a e0bd d179 44be ee06 e13c 9468 063e
000002e0: 49b8 77be bc97 f93d 2f15 ec3d a2f7 7a3e
000002f0: 8298 dcbd 5645 1a3d 82e1 883d f216 c5bc
00000300: 42bf 64bd 9213 67bd 32fe f1be 6494 223f
00000310: bc0e 08bf fc70 1d3f fbc1 58be d08f f83d
00000320: 2897 b4bc fd6d febd d6f7 4b3e 0e78 f23d
00000330: 75f9 d33d 06e3 b73d 7da8 67bd da9e c1bd
00000340: 1988 a13d 5e15 2abe 7037 35be 3f48 533e
00000350: ee4b 523e c6db cdbd f0e3 1abe 7ee5 653e
00000360: e25e 6b3d cc7a cebc 07ab 243e 2b2a d9bc
00000370: 1271 86be 25b9 b53e eab8 033e 22ab 1fbf
00000380: abe5 043d 535d 253e d350 19be e22f 113e
00000390: 6db8 883d dd5f 193e dc49 333f 4ff2 353f
000003a0: 9bc7 b4be 1845 c4be 4796 72be 676f 8c3d
000003b0: 64ff 393e 4a13 163a 03ac c0bc 5b3f 0fbe
000003c0: 1136 7d3e 32f0 3fbe ec98 aebe 625e 393e
000003d0: 68d5 453e 10b2 eb3d 4939 333e b87c 31bf
000003e0: fed6 c93e f17b d8be 717a 4ebd 756c c6bc
000003f0: cff8 733e 3a7b 0b3b f241 343d ac57 7dbc

encoder_lstm.weight_hh_l1 f4 [128, 32]
-0.024699125 -0.21824986 -0.15239777 0.0004167234 -0.18531817 -0.035124097 0.13418804 -0.08168426
0.06340162 0.028317176 0.26262906 0.16106956 -0.12079941 -0.36790696 0.059099 0.034409072
-0.6337719 0.20655413 -0.3101735 0.37005317 0.035950698 -0.29721132 -0.05378381 0.3505076
0.027806038 -0.15377723 0.26301554 0.36853486 -0.19554237 0.29771754 -0.008019785 -0.36784312
0.12455525 -0.15114017 0.20449083 -0.025526308 -0.277167 0.40431187 -0.122058116 -0.3604739
0.07850595 0.015503122 -0.16391958 0.03727325 0.014993578 -0.04651725 0.050616417 0.03953823
0.21199848 0.08552607 -0.18565221 0.28732425 0.09195112 -0.084245965 0.28219804 0.10564892
-0.18703501 0.32040206 0.23451117 0.28025004 -0.112629436 -0.055558477 0.30177647 0.1335331
-0.10640029 0.15979825 -0.3411308 -0.16379483 -0.30912566 0.17355265 -0.056180984 -0.05022365
0.23191617 0.16110228 0.06362995 -0.22863798 -0.030761305 0.067305565 0.051448155 0.3664439
0.3563631 -0.1778868 0.22198136 -0.1182472 0.15959935 -0.17371051 0.08903576 0.08049006
-0.040531136 0.20851687 0.26695445 0.0029966647 0.10364996 -0.00729101 -0.020345109 0.025291506
-0.011959808 0.07666999 0.1449689 -0.221279 0.24798506 -0.4677546 -0.115035474 -0.19058038
0.34224066 -0.26747894 -0.063073315 -0.063927956 0.027985174 0.15928534 0.16384774 -0.10583025
0.0049318387 0.013176044 -0.22782873 -0.14761505 0.15236267 0.24664828 -0.10127788 0.30640167
0.20020476 -0.017281098 0.14579763 -0.116625756 0.100488245 -0.07773783 -0.04153582 0.16145653
-0.23409133 -0.36702862 -0.4059152 0.19133228 -0.08055085 -0.019884942 -0.0006866229 -0.36376303
-0.13641255 -0.16087455 -0.16804275 -0.358431 0.041129965 0.43100724 0.13689303 0.3769251
0.715216 0.2887533 -0.009049255 -0.36679515 -0.07285603 -0.24137598 -0.22405595 0.022273181
0.027820384 0.06388857 -0.14194413 0.034032967 -0.10105524 -0.04720992 0.034646958 0.1750474
-0.1879487 -0.17896038 -0.25304508 -0.24111697 0.16610081 -0.018856209 -0.29211357 0.5674244
0.3529079 0.19093914 0.29188442 -0.06974012 0.18559325 0.0027081654 -0.02686264 -0.081306525
0.24647696 -0.36679947 0.0118223345 -0.29851553 -0.04549836 0.103009015 -0.2800229 -0.1409078
0.122604474 0.34859252 0.19234185 -0.28137964 -0.047891986 -0.20719326 -0.5899213 0.02892627
0.26618606 -0.21911985 -0.33039021 -0.24333963 -0.420045 0.55949855 0.10914177 0.12823881
-0.45552236 -0.23028968 0.1975853 -0.022552034 0.3954339 -0.11865009 0.01623303 -0.060142405
-0.27041513 -0.13782926 0.16164598 -0.018470261 0.057771876 0.2618584 0.31752723 -0.12148022
0.052914515 -0.0030604915 -0.23212862 0.20878498 0.521476 -0.37775907 0.37535632 -0.0090790605
-0.24024591 -0.106414594 -0.47799072 0.18191501 -0.6159004 0.30443832 0.04737804 -0.38868058
-0.56207573 0.32541242 0.019835 -0.05602653 0.2643146 -0.39525923 0.041110344 0.53189385
0.03229572 0.24831891 0.24535584 0.32267624 0.16334772 -0.07935562 0.2586735 -0.28114125
0.36157608 0.038859658 0.11809273 0.12571427 -0.6137176 0.25813347 0.8405964 -0.1885476
00000000: d255 cabc e47c 5fbe 290e 1cbe ab7b da39
00000010: 0cc4 3dbe 49de 0fbd 9768 093e 144a a7bd
00000020: b5d8 813d 6cf9 e73c 5177 863e 6bef 243e
00000030: ae65 f7bd 4d5e bcbe cb11 723d 87f0 0c3d
00000040: e03e 22bf ed82 533e 10cf 9ebe 9c77 bd3e
00000050: 0a41 133d 152c 98be 6a4c 5cbd bb75 b33e
00000060: 7dc9 e33c c777 1dbe f9a9 863e 9ab0 bc3e
00000070: 423c 48be 6f6e 983e 6b65 03bc ef55 bcbe
00000080: d316 ff3d 7dc4 1abe 0b66 513e 8c1c d1bc
00000090: d5e8 8dbe f701 cf3e 9bf9 f9bd 0990 b8be
000000a0: bac7 a03d ce00 7e3c 89da 27be d6ab 183d
000000b0: a0a7 753c df88 3ebd 2953 4f3d d7f2 213d
000000c0: 2116 593e 4b28 af3d 9d1b 3ebe 2a1c 933e
000000d0: de50 bc3d 2689 acbd 437c 903e 765e d83d
000000e0: 1b86 3fbe bd0b a43e b223 703e ef7c 8f3e
000000f0: 43aa e6bd 4991 63bd 7282 9a3e e7bc 083e
00000100: 65e8 d9bd 27a2 233e b2a8 aebe d5b9 27be
00000110: b845 9ebe c9b7 313e 081e 66bd 50b7 4dbd
00000120: 6f7b 6d3e fff7 243e 6b50 823d 1320 6abe
00000130: 22ff fbbc 80d7 893d 4dbb 523d 899e bb3e
00000140: 3975 b63e f527 36be 154f 633e 972b f2bd
00000150: 036e 233e 2be1 31be 6158 b63d f9d7 a43d
00000160: fa03 26bd 7285 553e 41ae 883e b163 443b
00000170: 6e46 d43d 6de9 eebb c9aa a6bc 2230 cf3c
00000180: 12f3 43bc 2805 9d3d ba72 143e f696 62be
00000190: ccef 7d3e 887d efbe b897 ebbd 8127 43be
000001a0: 2b3a af3e 00f3 88be 952c 81bd a9ec 82bd
000001b0: 2a41 e53c b21b 233e b4c7 273e 88bd d8bd
000001c0: 439b a13b 56e0 573c ef4b 69be 6628 17be
000001d0: f604 1c3e 5e91 7c3e c76a cfbd aee0 9c3e
000001e0: 7a02 4d3e 1791 8dbc f94b 153e 7cd9 eebd
000001f0: c8cc cd3d 0335 9fbd 7721 2abd dc54 253e
00000200: a3b5 6fbe 2deb bbbe 1ed4 cfbe 9cec 433e
00000210: d8f7 a4bd bfe5 a2bc 7cfe 33ba 263f babe
00000220: bbaf 0bbe 4cbc 24be 6613 2cbe 4584 b7be
00000230: e577 283d fbac dc3e b02d 0c3e 54fc c03e
00000240: 6518 373f 79d7 933e 5443 14bc 93cc bbbe
00000250: 8b35 95bd 442b 77be ec6e 65be 3f76 b63c
00000260: 93e7 e33c 03d8 823d cd59 11be 2766 0b3d
00000270: 0df6 cebd 305f 41bd f8e9 0d3d a03f 333e
00000280: a075 40be 6441 37be 208f 81be 5ee7 76be
00000290: 5516 2a3e 5678 9abc e98f 95be ba42 113f
000002a0: 58b0 b43e 8d85 433e e071 953e e8d3 8ebd
000002b0: 280c 3e3e 7a7b 313b 0a0f dcbc 0984 a6bd
000002c0: 7564 7c3e 24cd bbbe 77b2 413c 07d7 98be
000002d0: 7d5c 3abd 64f6 d23d 295f 8fbe 224a 10be
000002e0: 0e18 fb3d b87a b23e 43f5 443e fe10 90be
000002f0: 632a 44bd 782a 54be 1505 17bf c9f6 ec3c
00000300: 8a49 883e f460 60be e828 a9be 062e 79be
00000310: 2310 d7be 4c3b 0f3f b885 df3d 0951 033e
00000320: 3a3a e9be 0fd1 6bbe cd53 4a3e 0bbf b8bc
00000330: 5076 ca3e d2fe f2bd 22fb 843c e257 76bd
00000340: da73 8abe 1d23 0dbe 8686 253e f24e 97bc
00000350: 34a2 6c3d 4e12 863e ee92 a23e 9fca f8bd
00000360: e4bc 583d 8792 48bb 20b3 6dbe bbcb 553e
00000370: 737f 053f a369 c1be b42e c03e 57c0 14bc
00000380: 0603 76be e5ef d9bd 33bb f4be ee47 3a3e
00000390: a6ab 1dbf 57df 9b3e 7a0f 423d 2401 c7be
000003a0: 32e4 0fbf 759c a63e 037d a23c 137c 65bd
000003b0: 3e54 873e 6b5f cabe 5263 283d 322a 083f
000003c0: 8448 043d 5047 7e3e 903e 7b3e d235 a53e
000003d0: a044 273e 3385 a2bd da70 843e bff1 8fbe
000003e0: 8020 b93e 4e2b 1f3d 9ada f13d 3ebb 003e
000003f0: 991c 1dbf 122a 843e 5331 573f 9f12 41be

encoder_lstm.bias_ih_l1 f4 [128]
0.017563965 -0.24929112 -0.30275598 -0.10245561 -0.11501443 0.19607252 0.18748096 0.09236927
-0.3301787 -0.059937943 0.16746317 -0.040250875 0.37976578 0.26899415 -0.14903846 -0.17995472
0.054931764 -0.14808525 -0.08606287 0.046429694 0.15850815 -0.14158402 -0.29061106 -0.2835027
0.325835 0.025745003 -0.21635054 0.16638647 -0.2758758 -0.19252563 -0.018293096 -0.10725258
0.044500276 -0.13693948 0.5705531 -0.0072697056 -0.0030821199 0.18201493 -0.0008555869 0.029679773
0.57250434 -0.32229456 0.34869307 0.26176748 0.45596054 0.110082425 0.4404262 -0.21959174
-0.38475832 0.20986973 0.504982 0.031569395 -0.06677952 -0.003514898 0.2478688 -0.20278907
0.47902474 0.21633574 -0.26325792 0.2578691 0.47901508 0.07478942 -0.041504923 0.091513105
0.08068434 -0.1821412 -0.11676768 -0.22472645 -0.1694783 0.07066544 0.072401844 -0.082429856
-0.34842 -0.029581875 0.14513524 0.2837685 0.06623062 0.057326954 -0.033419337 0.1605535
-0.07461104 0.092661306 -0.14627115 -0.022115879 0.0784006 0.3209259 0.09750904 -0.26194236
0.09854505 0.047290016 -0.36574936 -0.0634854 -0.024862174 -0.034643598 0.04471055 -0.08294387
-0.2424094 -0.073235646 0.21534473 0.071250655 0.32489854 0.06643056 0.17371258 0.07434653
0.42108953 -0.19737472 -0.098862514 0.18904354 0.01450355 -0.12446864 -0.17505492 0.0922933
-0.21536255 0.12337203 0.057994317 0.4182821 0.15019628 0.21011056 0.4471372 -0.2164787
0.1319848 -0.07771542 0.06585228 0.22281958 -0.10409742 -0.038824096 0.15133539 -0.20396543
00000000: 4ee2 8f3c 2c46 7fbe d502 9bbe 3fd4 d1bd
00000010: af8c ebbd 3cc7 483e 02fb 3f3e 1a2c bd3d
00000020: 2f0d a9be 7d81 75bd 777b 2b3e 1ade 24bd
00000030: a970 c23e 9ab9 893e 8a9d 18be 0d46 38be
00000040: 2100 613d a9a3 17be bb41 b0bd 102d 3e3d
00000050: f64f 223e 67fb 10be f9ca 94be 4427 91be
00000060: d8d3 a63e 2fe7 d23c ff8a 5dbe 3761 2a3e
00000070: 983f 8dbe 7025 45be 67db 95bc 3ea7 dbbd
00000080: ec45 363d dd39 0cbe c50f 123f b636 eebb
00000090: 64fd 49bb 1f62 3a3e 7749 60ba ff22 f33c
000000a0: a58f 123f cb03 a5be e687 b23e 6306 863e
000000b0: a973 e93e e572 e13d 8b7f e13e a8dc 60be
000000c0: 0bff c4be 17e8 563e 8046 013f e94e 013d
000000d0: b3c3 88bd 345a 66bb 52d1 7d3e f0a7 4fbe
000000e0: bb42 f53e 1e87 5d3e bec9 86be 6b07 843e
000000f0: 7741 f53e 322b 993d 1101 2abd 396b bb3d
00000100: d53d a53d 3983 3abe e523 efbd b11e 66be
00000110: b88b 2dbe 0bb9 903d 6b47 943d fcd0 a8bd
00000120: 1b64 b2be b055 f2bc 559e 143e 1b4a 913e
00000130: eba3 873d abcf 6a3d b7e2 08bd 2368 243e
00000140: accd 98bd 36c5 bd3d 1bc8 15be 5c2c b5bc
00000150: 7e90 a03d 6650 a43e d2b2 c73d 4f1d 86be
00000160: fdd1 c93d 2db3 413d 8043 bbbe a204 82bd
00000170: c2ab cbbc 72e6 0dbd 6922 373d 7ade a9bd
00000180: 2b3a 78be 92fc 95bd 5483 5c3e ddeb 913d
00000190: 1a59 a63e bf0c 883d b6e1 313e fe42 983d
000001a0: 0c99 d73e 991c 4abe 6e78 cabd a194 413e
000001b0: 4ca0 6d3c 6ae9 febd 9941 33be 4504 bd3d
000001c0: 0088 5cbe 7aaa fc3d 738b 6d3d 1229 d63e
000001d0: 0ecd 193e 3927 573e 2bef e43e 98ac 5dbe
000001e0: 0627 073e 4329 9fbd 8fdd 863d d12a 643e
000001f0: 0731 d5bd 0406 1fbd aaf7 1a3e 50dc 50be
