W3-Design/checkpoints/epoch_5.pt (torch, 384133 bytes, 24 tensors)

encoder_cnn.0.weight f4 [32, 3, 3]
-0.2000904 -0.036537576 -0.16281082 0.21710682 -0.2528155 0.24669798 0.10294169 0.15547505
0.1760864 -0.13517837 -0.17197014 -0.18974474 -0.18297292 -0.22580309 0.031733193 -0.08990157
0.3167591 -0.007271825 -0.0025340475 0.21740247 0.48708007 0.24235786 0.28692678 -0.27308783
-0.067744255 0.1733183 -0.01755611 -0.05441438 0.09462776 -0.24620251 0.046931602 0.08995098
0.021708101 0.11734875 0.21241584 -0.04299308 -0.0026988368 0.2502881 0.12472099 0.3959818
-0.19465724 0.25140736 0.066750616 0.110369675 -0.28273907 -0.063499354 -0.13065362 0.27593628
-0.32118076 -0.27743614 -0.03290091 0.21695341 0.29012161 -0.2984965 -0.025618706 -0.027214546
0.23194556 0.15299608 0.117040396 -0.16489686 -0.01592226 0.17309625 -0.16183284 0.11731356
-0.10695992 0.34792703 0.32286572 -0.21476378 -0.33233786 -0.041872088 0.016874706 0.47225407
0.031299412 0.1513923 -0.20482774 0.0054535037 -0.16769601 0.29172632 -0.2454625 0.29718342
-0.10955221 -0.23705752 0.12265498 -0.2500076 0.26352847 -0.008853416 -0.226677 0.19395597
0.19097675 0.04959171 -0.05597576 0.052605554 0.10338886 0.16567853 -0.38422206 -0.36830908
-0.23268908 0.14051479 -0.0713555 -0.10360886 -0.025811411 0.1838439 0.047632776 0.31668773
0.038638286 -0.24362887 -0.32565656 0.041823637 -0.13804196 0.2514357 0.18512602 -0.11364404
-0.38591516 -0.4645837 0.3773257 -0.0374284 -0.2265701 0.1381868 -0.06592541 0.23553266
-0.02497939 -0.31116873 -0.23098919 -0.2305591 -0.3696034 -0.35654956 -0.053721134 -0.12331544
-0.09187421 0.38983873 0.010891119 -0.19137579 0.07852113 0.14152907 -0.1762136 0.5068914
0.30582792 0.038235843 -0.1729884 0.24941154 0.013868681 -0.22863579 0.106239066 0.026769167
0.22656909 -0.09335977 -0.3488811 0.115714535 -0.0768141 -0.16201138 0.10618723 -0.2279296
0.07993732 0.092938125 0.3165578 0.1091731 0.28394577 -0.31292275 0.33099204 -0.009275687
-0.24784277 -0.023921665 0.2870298 0.27885544 -0.11700935 -0.12464503 -0.41773653 -0.102862775
0.12458992 -0.24073574 -0.050896693 -0.058228903 0.20371053 0.12095323 -0.34215266 -0.48675767
0.057497986 -0.3296673 -0.003601759 0.14577594 -0.10215077 -0.1703642 -0.21141045 -0.11994504
0.2646887 0.02276592 0.21938062 0.19534819 -0.15050134 0.268905 -0.123691715 -0.044434007
-0.082097255 0.31411797 0.14706717 -0.038403496 -0.35074973 -0.25451946 0.16803621 -0.37160978
0.08612595 0.12774271 0.22115636 -0.058730736 -0.10135733 -0.18979368 -0.27181184 0.1319578
-0.23519053 -0.2381379 -0.13002862 0.06132891 -0.05506703 0.1004644 0.20283614 0.2787554
-0.083636284 0.08186357 -0.18388355 0.037758656 0.011309128 -0.23689964 0.08602994 0.11889576
0.13386995 0.23106793 -0.0014791753 0.38286585 0.18658155 0.1995545 -0.0779004 -0.2624013
0.12790088 0.26145038 -0.3910024 -0.03388778 -0.18977787 0.36766818 0.18621375 -0.1848614
0.26509726 -0.04568132 -0.12950553 -0.2395064 -0.04245206 -0.030639652 -0.13196747 -0.11345194
0.34711838 -0.19932455 0.2608018 0.1408759 0.24960281 -0.053451817 -0.061544333 -0.06924353
00000000: 7fe4 4cbe 6da8 15bd e1b7 26be 4051 5e3e
00000010: 0971 81be 659e 7c3e 18d3 d23d da34 1f3e
00000020: fe4f 343e 336c 0abe f118 30be 724c 42be
00000030: 415d 3bbe ed38 67be aafa 013d 501e b8bd
00000040: 402e a23e 7d48 eebb 4312 26bb c19e 5e3e
00000050: 8f62 f93e a92c 783e 11e8 923e 2bd2 8bbe
00000060: 80bd 8abd 5a7a 313e d5d1 8fbc 9de1 5ebd
00000070: 33cc c13d 831c 7cbe 5a3b 403d 3838 b83d
00000080: 30d5 b13c 8b54 f03d 8a83 593e 8319 30bd
00000090: f8de 30bb c325 803e b86d ff3d 20be ca3e
000000a0: 3a54 47be 77b8 803e 8cb4 883d 7f09 e23d
000000b0: 2dc3 90be f30b 82bd 10ca 05be 8547 8d3e
000000c0: ce71 a4be 1c0c 8ebe 1bc3 06bd 0929 5e3e
000000d0: d28a 943e 89d4 98be 52de d1bc 0af1 debc
000000e0: 2383 6d3e 01ab 1c3e e0b2 ef3d b9da 28be
000000f0: 666f 82bc 2540 313e 82b7 25be 1742 f03d
00000100: cd0d dbbd 7e23 b23e a84e a53e 09eb 5bbe
00000110: 3028 aabe 1182 2bbd d33c 8a3c 49cb f13e
00000120: d033 003d 9506 1b3e 5dbe 51be 4eb3 b23b
00000130: 81b8 2bbe 275d 953e 865a 7bbe 6d28 983e
00000140: e95c e0bd 35bf 72be 8932 fb3d ff00 80be
00000150: 34ed 863e eb0d 11bc 041e 68be 659c 463e
00000160: 698f 433e ad20 4b3d d746 65bd ec78 573d
00000170: 8abd d33d a2a7 293e c1b8 c4be 0293 bcbe
00000180: 0c46 6ebe 1ce3 0f3e d522 92bd e230 d4bd
00000190: 7472 d3bc 9341 3c3e 961a 433d e524 a23e
000001a0: 2e43 1e3d d979 79be 75bc a6be 434f 2b3d
000001b0: df5a 0dbe 2ebc 803e ad91 3d3e 35be e8bd
000001c0: ac96 c5be eadd edbe d630 c13e 864e 19bd
000001d0: fe01 68be d780 0d3e e703 87bd 792f 713e
000001e0: 94a1 ccbc 8251 9fbe 6e88 6cbe af17 6cbe
000001f0: a83c bdbe aa8d b6be b10a 5cbd ce8c fcbd
00000200: 8c28 bcbd f198 c73e aa70 323c 04f8 43be
00000210: b0cf a03d ffec 103e 5771 34be a3c3 013f
00000220: 7a95 9c3e 309d 1c3d df23 31be bd65 7f3e
00000230: 7739 633c 801f 6abe de93 d93d 034b db3c
00000240: ba01 683e 6833 bfbd 8ba0 b2be befb ec3d
00000250: b650 9dbd 50e6 25be b178 d93d 6166 69be
00000260: 2db6 a33d 5856 be3d dd13 a23e 2596 df3d
00000270: 5761 913e 6937 a0be ca77 a93e 0df9 17bc
00000280: 7fca 7dbe 5ef7 c3bc 92f5 923e 24c6 8e3e
00000290: 99a2 efbd e545 ffbd 90e1 d5be b8a9 d2bd
000002a0: 0029 ff3d 6e83 76be 0d79 50bd 6e81 6ebd
000002b0: 7e99 503e 54b6 f73d a22e afbe 4d38 f9be
000002c0: 0283 6b3d 27ca a8be 7d0b 6cbb 4a46 153e
000002d0: 6c34 d1bd f473 2ebe fb7b 58be bfa5 f5bd
000002e0: 4785 873e 987f ba3c 50a5 603e 5b09 483e
000002f0: 061d 1abe ebad 893e 1552 fdbd 6f00 36bd
00000300: 9b22 a8bd 12d4 a03e c798 163e fc4c 1dbd
00000310: 7895 b3be 6050 82be af11 2c3e a343 bebe
00000320: cd62 b03d fcce 023e d076 623e a48f 70bd
00000330: 6f94 cfbd 4659 42be ec2a 8bbe f21f 073e
00000340: c9d5 70be 6cda 73be 3926 05be 0634 7b3d
00000350: f78d 61bd 48c0 cd3d 47b4 4f3e 07b9 8e3e
00000360: 8049 abbd 16a8 a73d f84b 3cbe d2a8 1a3d
00000370: ec49 393c d295 72be 7730 b03d 9f7f f33d
00000380: 3415 093e 129d 6c3e e3e0 c1ba fe06 c43e
00000390: 3c0f 3f3e 0458 4c3e 3f8a 9fbd 7759 86be
000003a0: 73f8 023e d3dc 853e 7731 c8be eacd 0abd
000003b0: 2155 42be 013f bc3e d1ae 3e3e 4f4c 3dbe
000003c0: d4ba 873e 561c 3bbd 199d 04be 2a41 75be
000003d0: 36e2 2dbd 0200 fbbc 7b22 07be 7e59 e8bd
000003e0: 80b9 b13e bc1b 4cbe d087 853e c641 103e
000003f0: e197 7f3e 4bf0 5abd e915 7cbd 8dcf 8dbd

encoder_cnn.0.bias f4 [32]
-0.031622298 0.06335123 0.29381955 -0.70754904 -0.3249585 0.19296739 -0.48811558 -0.072854586
0.026122065 -0.0870155 0.3351279 0.037232663 0.41813326 -0.08823921 -0.33475637 0.30981722
-0.29240564 0.19381067 0.3401046 -0.19786768 -0.24092093 0.46994716 0.19621651 -0.29290804
-0.07779552 -0.14242688 -0.3860094 -0.39907303 -0.37276524 0.04345457 -0.40240923 0.15691745
00000000: 6286 01bd 4abe 813d 846f 963e ef21 35bf
00000010: f660 a6be 3e99 453e 49ea f9be c934 95bd
00000020: f1fd d53c 2f35 b2bd e295 ab3e 4781 183d
00000030: 9015 d63e c2b6 b4bd 3065 abbe 5da0 9e3e
00000040: 31b6 95be 4e76 463e 3122 ae3e d39d 4abe
00000050: fab3 76be ea9c f03e fbec 483e 0bf8 95be
00000060: 4253 9fbd 5ad8 11be 06a3 c5be 4d53 ccbe
00000070: 16db bebe 6bfd 313d 9508 cebe f8ae 203e

encoder_cnn.2.weight f4 [64, 32, 3]
-0.14151506 0.050255165 -0.03282008 -0.03436372 0.004979446 0.064775355 0.21058431 0.1687419
0.04711453 0.03506362 -0.107409544 -0.057893194 0.06239828 0.03506993 -0.07063085 -0.08431101
0.0366336 -0.059353944 0.30289847 0.2629985 0.19465554 -0.0076061925 -0.06713602 -0.11146772
0.090068296 0.028566038 0.031235343 0.05246863 0.063458085 0.08928789 0.007924381 0.16377498
0.08119364 0.07691786 0.033941057 0.007954448 0.035683036 -0.025674056 -0.0025763116 0.20104066
0.17086025 0.1834539 0.11396359 -0.036411297 0.034089327 0.23605879 0.22126289 0.02163784
0.11310782 0.09879111 0.08902193 0.107243136 0.006774959 0.0052418904 -0.078816906 -0.06420429
-0.07140277 0.008057706 -0.031019215 0.12576665 0.04277128 -0.11718859 0.008935985 0.08485449
0.04085157 -0.02698251 0.2535504 0.018417282 0.13047747 -0.0392064 -0.0832108 -0.023597963
0.051322024 -0.03898016 0.0099640405 0.056593712 0.16747619 -0.10360847 -0.11944996 0.037637256
-0.12410164 0.14025146 -0.034625307 -0.0039072246 -0.18147196 -0.36518297 -0.27293152 0.0939423
0.049330328 0.05620058 0.25741333 0.08897738 0.14702916 0.08091958 0.035367806 -0.021850314
0.015245581 0.05619302 0.1209406 0.02344906 0.027667603 0.038676247 -0.2045916 -0.14786929
-0.11789213 -0.07770808 0.00802416 -0.06149088 -0.19358277 -0.19328035 -0.10052955 0.10134241
0.15885645 0.14167264 0.11710094 0.10891955 -0.07841302 0.06542922 0.11654574 0.13335915
0.06794853 -0.19729312 0.02535216 0.0874792 0.03203957 0.020964874 0.07649633 0.06539463
0.079364814 -0.26338008 -0.11343066 -0.36123008 0.12975118 0.14563365 0.11493246 0.050702237
0.13400151 0.1505147 -0.020595688 0.009981117 -0.078256294 -0.02028161 0.04360733 -0.034521673
-0.08959454 0.07864969 0.011883314 -0.14443484 -0.21148433 -0.1446427 0.12900245 0.13360225
0.20523079 0.2061363 0.15072532 0.17107484 0.05521875 0.02146859 0.011556873 -0.16445668
-0.1243611 -0.13185358 0.0776335 0.03480038 -0.020923289 0.09691737 -0.0426192 0.057597652
-0.037985723 -0.06729946 0.038644016 -0.08508344 -0.07491294 -0.03653804 0.012182131 -0.02275628
-0.1596151 -0.0684859 -0.0019429303 0.010828076 -0.013002735 -0.039593942 0.0869862 0.11507309
0.050126296 0.07444741 -0.0053175003 0.0420394 -0.058294464 0.1200224 -0.06966964 -0.09914068
0.05533358 -0.0007061265 -0.06426472 -0.004321931 0.14822972 -0.21854895 -0.1609857 -0.026377128
-0.17328405 -0.003145535 -0.1658351 -0.109812334 -0.008022316 -0.14460398 -0.22967415 -0.33029312
0.15874144 -0.21169943 -0.07565838 -0.04611871 -0.062120702 -0.1507792 0.31076384 -0.122691885
0.0722573 -0.26053637 -0.022312291 0.04236323 -0.1900775 -0.18217279 -0.07033605 0.06848466
-0.07663438 -0.05830221 0.16004412 -0.2114485 -0.23855667 -0.16051255 -7.7247765e-05 -0.2561878
-0.1606219 -0.19655147 0.24119297 -0.04978722 -0.21909195 -0.053085465 -0.22391187 -0.0563437
0.15688676 -0.004078951 -0.26150277 -0.0284501 -0.13760443 -0.16953325 -0.24307702 -0.29684135
0.021022419 -0.27259493 0.033282034 0.076183304 0.06721256 0.024927083 -0.18107769 0.0023148218
00000000: 53e9 10be 5cd8 4d3d 596e 06bd f9c0 0cbd
00000010: 9f2a a33b f1a8 843d 6aa3 573e adca 2c3e
00000020: 2afb 403d df9e 0f3d 89f9 dbbd 6a21 6dbd
00000030: 5795 7f3d 7da5 0f3d e8a6 90bd 40ab acbd
00000040: 1d0d 163d 1f1d 73bd 8215 9b3e bda7 863e
00000050: c853 473e 5e3d f9bb 9c7e 89bd 3049 e4bd
00000060: ba75 b83d 5303 ea3c 43e1 ff3c 59e9 563d
00000070: 50f6 813d 92dc b63d 43d5 013c a1b4 273e
00000080: da48 a63d 1c87 9d3d c705 0b3d 6053 023c
00000090: 6028 123d 6652 d2bc 56d7 28bb 9add 4d3e
000000a0: fdf5 2e3e 57db 3b3e be65 e93d 0324 15bd
000000b0: 40a1 0b3d 65b9 713e bd92 623e d741 b13c
000000c0: 13a5 e73d fe52 ca3d 2151 b63d 4aa2 db3d
000000d0: 7a00 de3b 2ac4 ab3b c26a a1bd 8a7d 83bd
000000e0: 9e3b 92bd 7804 043c 021c febc f9c8 003e
000000f0: f030 2f3d 9200 f0bd 3d68 123c 31c8 ad3d
00000100: fa53 273d 6d0a ddbc 5cd1 813e d7df 963c
00000110: e39b 053e e496 20bd 6d6a aabd 8450 c1bc
00000120: 0b37 523d a9a9 1fbd 3740 233c cfce 673d
00000130: e17e 2b3e ad30 d4bd 2ea2 f4bd 8629 1a3d
00000140: 0029 febd 149e 0f3e 44d3 0dbd 2d08 80bb
00000150: c9d3 39be 43f9 babe aebd 8bbe d264 c03d
00000160: 990e 4a3d 9432 663d aecb 833e c639 b63d
00000170: d08e 163e 2ab9 a53d d5dd 103d 6eff b2bc
00000180: 9ac8 793c a72a 663d b5af f73d 3e18 c03c
00000190: 2ba7 e23c fc6a 1e3d 7680 51be 0c6b 17be
000001a0: 6e71 f1bd 6a25 9fbd c477 033c dcdd 7bbd
000001b0: 903a 46be 49eb 45be 70e2 cdbd 9c8c cf3d
000001c0: 44ab 223e a212 113e 9ed2 ef3d 3711 df3d
000001d0: 0197 a0bd c1ff 853d 88af ee3d 4d8f 083e
000001e0: 9928 8b3d 3507 4abe 55af cf3c 4b28 b33d
000001f0: ed3b 033d 87be ab3c 1caa 9c3d 9fed 853d
00000200: 058a a23d c1d9 86be 554e e8bd 26f3 b8be
00000210: 7edd 043e fd20 153e b661 eb3d 26ad 4f3d
00000220: b137 093e 8720 1a3e 4ab8 a8bc d787 233c
00000230: d644 a0bd 9e25 a6bc 9a9d 323d 9966 0dbd
00000240: 587d b7bd 1713 a13d 3bb2 423c bae6 13be
00000250: 598f 58be 371d 14be 3819 043e 07cf 083e
00000260: 0528 523e 6515 533e bd57 1a3e 3e2e 2f3e
00000270: 0e2d 623d e5de af3c 0a59 3d3c 5567 28be
00000280: 08b1 febd a004 07be 50fe 9e3d d88a 0e3d
00000290: 5167 abbc 9d7c c63d 7891 2ebd 84eb 6b3d
000002a0: eb96 1bbd 4dd4 89bd 3049 1e3d 3a40 aebd
000002b0: f56b 99bd e9a8 15bd 9097 473c 616b babc
000002c0: 2472 23be 5642 8cbd eca9 feba 3e68 313c
000002d0: 6c09 55bc 422d 22bd d225 b23d 71ab eb3d
000002e0: 3b51 4d3d e277 983d 6d3e aebb 8231 2c3d
000002f0: 2dc6 6ebd 4ece f53d f5ae 8ebd 450a cbbd
00000300: 77a5 623d 591b 39ba 399d 83bd fc9e 8dbb
00000310: 88c9 173e 4ccb 5fbe 6fd9 24be d914 d8bc
00000320: 6071 31be 5225 4ebb add0 29be 4ae5 e0bd
00000330: 0870 03bc 1113 14be b32f 6bbe 2e1c a9be
00000340: 1e8d 223e bcc7 58be c8f2 9abd f9e6 3cbd
00000350: 4772 7ebd dd65 1abe 701c 9f3e e245 fbbd
00000360: a3fb 933d 0665 85be 44c8 b6bc 1185 2d3d
00000370: ada3 42be 818b 3abe 590c 90bd af41 8c3d
00000380: 7cf2 9cbd 4cce 6ebd 9be2 233e f585 58be
00000390: 3348 74be 675d 24be 1400 a2b8 0c2b 83be
000003a0: 117a 24be ca44 49be 4afb 763e afed 4bbd
000003b0: a459 60be 2570 59bd 2749 65be a7c8 66bd
000003c0: eca6 203e b9a8 85bb b1e3 85be 2f10 e9bc
000003d0: 2de8 0cbe 209a 2dbe 2fe9 78be 97fb 97be
000003e0: 3537 ac3c 9091 8bbe be52 083d fe05 9c3d
000003f0: bda6 893d e233 cc3c 6e6c 39be 44b4 173b

encoder_cnn.2.bias f4 [64]
0.111537755 0.013433332 -0.026980568 0.02459072 0.0042433375 0.20167308 0.019244956 0.029252797
-0.10946886 -0.015841922 0.22218254 -0.19151129 0.049974404 -0.0930824 0.019014398 0.00781823
0.06730177 0.013581759 -0.060329847 -0.08807326 -0.14290912 0.0036354682 -0.0819627 0.0903602
-0.1431981 0.12456839 -0.075749405 -0.055869248 0.0615543 -0.114612535 0.038834333 -0.24814631
-0.09294102 0.13754289 0.19651383 -0.07126809 -0.05831622 -0.09397611 0.11240397 0.0012813142
-0.11586693 -0.14300813 0.029245423 -0.11857625 0.00455464 -0.32757744 -0.2332454 -0.14916386
-0.053539023 0.16936241 0.029537167 -0.12065282 -0.27798074 -0.057016592 -0.09681657 0.027106091
-0.05599258 -0.112952955 0.00011373923 -0.09933013 -0.2765378 0.24399976 -0.20039201 -0.16723204
00000000: e86d e43d 7a17 5c3c 5a06 ddbc 7a72 c93c
00000010: b20b 8b3b 6383 4e3e 99a7 9d3c 90a3 ef3c
00000020: 3631 e0bd ebc6 81bc d283 633e 891b 44be
00000030: f6b1 4c3d fca1 bebd 15c4 9b3c 0918 003c
00000040: 83d5 893d 0786 5e3c 6e1c 77bd c15f b4bd
00000050: c556 12be 0941 6e3b 0fdc a7bd c50e b93d
00000060: 86a2 12be b61d ff3d 8122 9bbd 27d7 64bd
00000070: 5d20 7c3d fab9 eabd c010 1f3d 111a 7ebe
00000080: dd57 bebd 0bd8 0c3e ec3a 493e 01f5 91bd
00000090: fddc 6ebd 8c76 c0bd 0d34 e63d c5f1 a73a
000000a0: a44b edbd b970 12be 1994 ef3c 1bd8 f2bd
000000b0: 173f 953b 3bb8 a7be e2d7 6ebe 69be 18be
000000c0: bc4b 5bbd 576d 2d3e eef7 f13c d318 f7bd
000000d0: 7e53 8ebe 3b8a 69bd c447 c6bd 980d de3c
000000e0: 7a58 65bd e153 e7bd 4987 ee38 986d cbbd
000000f0: 5d96 8dbe 13db 793e 9033 4dbe e03e 2bbe

encoder_lstm.weight_ih_l0 f4 [128, 64]
0.25572526 0.015365526 0.002928365 0.03924193 0.39889103 0.072759904 -0.13054064 0.1496805
0.2971606 0.05314254 0.09266606 0.07389654 0.15832624 -0.1430401 -0.14544775 0.23775029
0.22600307 -0.17938863 -0.11748281 0.013117651 -0.012725398 0.10515437 0.20245653 -0.06790496
0.10585672 0.0926023 -0.3878739 0.06488446 0.06026631 -0.10007091 0.116330944 0.1165522
0.10892801 0.19528523 -0.06493162 -0.05050736 -0.028294977 -0.1364411 0.17595291 -0.1267303
0.045577552 0.14642419 0.21420364 -0.021417422 -0.041336615 -0.091144554 -0.15761621 0.22978234
0.2756279 0.25166592 0.18854456 -0.058235258 0.18654433 -0.03750516 -0.12927327 0.10608353
-0.0017946119 -0.21638194 -0.053522762 -0.042668678 -0.01008985 0.28518167 -0.083770506 -0.12159527
-0.088428594 -0.015306615 -0.16105019 -0.08856925 -0.09422142 -0.16201769 0.101510644 0.11174965
0.112280235 0.15695657 -0.06917217 -0.13985185 -0.051091075 -0.025916956 0.05080778 0.18588075
0.15605234 0.08638881 -0.21181005 -0.047977455 0.2068002 -0.13285245 -0.15761235 -0.043297812
0.25563487 -0.25776324 0.09418421 0.10943349 -0.1632098 -0.056806516 -0.14813334 0.034958214
-0.011984674 -0.00077452714 -0.3414827 -0.06921529 -0.15992545 -0.13455431 0.15152311 0.0024865607
-0.043624163 -0.04322267 0.081040755 -0.017325688 0.24275218 -0.11627967 0.3686419 -0.0314255
-0.073000655 -0.07533624 -0.13124388 -0.001886838 -0.16495173 -0.06816646 0.16123804 0.13954787
0.057387203 -0.053600732 -0.06073502 -0.12293122 0.1426834 -0.24416322 -0.317559 -0.22682735
0.13196726 0.0059437295 0.3761644 -0.11891033 0.099405326 0.038259715 0.2048242 -0.0014878032
-0.031589005 0.14087275 0.0939402 0.104385816 -0.12824303 -0.12133311 0.07680049 0.048327304
0.07608334 0.019192103 -0.100934826 0.20810066 0.11486839 -0.067342155 0.11480322 -0.11827168
0.14763877 -0.056630343 0.077965446 -0.012004297 0.11994711 0.12460541 -0.22451702 0.026006578
-0.10639167 -0.015545073 -0.22203158 0.072002664 0.031141328 -0.085657485 -0.05928798 0.021706657
0.27715796 0.103534065 -0.08491478 0.1137929 0.21668087 -0.09819024 -0.05670555 -0.11613478
0.09960899 0.1082344 0.19841082 -0.034216974 -0.094315894 -0.041799854 0.10454419 0.01574137
0.0032974968 0.022089614 0.010740611 -0.029733237 0.023742136 -0.14128697 0.06303837 -0.09484662
-0.15845403 0.16422042 -0.21520643 0.18382591 -0.23474258 -0.06337649 -0.08021032 -0.25457618
0.032628767 0.037610188 -0.1703245 0.23376834 0.025336334 -0.17202324 -0.03389478 -0.053292334
-0.1280826 -0.4814157 -0.19760382 0.110386565 0.0459085 0.091942884 0.17614856 0.047344282
0.20686401 -0.109841704 -0.115970224 0.17122194 0.024147002 0.09884635 -0.27607226 0.083968274
-0.14523582 -0.18212079 -0.06604224 -0.080529295 -0.1803748 -0.010605463 -0.04796943 0.07454513
0.20953386 0.120799884 -0.047724307 0.33882123 -0.07919368 0.17202826 0.15416552 0.068417326
0.044622425 0.20559753 0.11467613 -0.015590289 0.16786939 0.028360404 -0.03783761 -0.1252161
0.0737123 0.08090191 0.32362434 -0.07648971 0.003013531 -0.17455484 -0.28379667 -0.22315498
00000000: 6cee 823e b0bf 7b3c d0e9 3f3b 25bc 203d
00000010: 723b cc3e 2503 953d 72ac 05be d845 193e
00000020: 6f25 983e feab 593d b4c7 bd3d 1257 973d
00000030: 4620 223e 1b79 12be 41f0 14be d074 733e
00000040: 596d 673e a7b1 37be d49a f0bd 6beb 563c
00000050: 307e 50bc 2d5b d73d c450 4f3e c111 8bbd
00000060: 68cb d83d 46a6 bd3d 6897 c6be 25e2 843d
00000070: ced9 763d faf1 ccbd eb3e ee3d ebb2 ee3d
00000080: a615 df3d daf8 473e dffa 84bd cee0 4ebd
00000090: deca e7bc 37b7 0bbe 002d 343e 96c5 01be
000000a0: 87af 3a3d 39f0 153e 3358 5b3e 9773 afbc
000000b0: 9550 29bd ffa9 babd 2566 21be 104c 6b3e
000000c0: 1a1f 8d3e 5bda 803e d311 413e 1888 6ebd
000000d0: 7a05 3f3e 039f 19bd 3660 04be 5242 d93d
000000e0: 2f39 ebba 3a93 5dbe af3a 5bbd 5ac5 2ebd
000000f0: e64f 25bc 5503 923e df8f abbd f106 f9bd
00000100: 0d1a b5bd 99c8 7abc 57ea 24be cc63 b5bd
00000110: 29f7 c0bd f7e7 25be d0e4 cf3d 00dd e43d
00000120: 2ef3 e53d 39b9 203e 23aa 8dbd 5335 0fbe
00000130: e044 51bd cc4f d4bc d21b 503d 8657 3e3e
00000140: 2fcc 1f3e 9eec b03d bce4 58be 0284 44bd
00000150: 6ec3 533e 790a 08be 2265 21be 0c59 31bd
00000160: 93e2 823e 8bf9 83be a7e3 c03d aa1e e03d
00000170: 7820 27be f3ad 68bd 44b0 17be 5830 0f3d
00000180: 5e5b 44bc a309 4bba d2d6 aebe bfc0 8dbd
00000190: 7fc3 23be 9bc8 09be e028 1b3e 91f5 223b
000001a0: 40af 32bd 410a 31bd b2f8 a53d 9aee 8dbc
000001b0: 0794 783e 0924 eebd a2be bc3e 06b8 00bd
000001c0: 5e81 95bd e349 9abd cc64 06be c74f f7ba
000001d0: 1be9 28be db9a 8bbd 961b 253e a3e5 0e3e
000001e0: d80e 6b3d 718c 5bbd 49c5 78bd 5dc3 fbbd
000001f0: 991b 123e ec05 7abe 1897 a2be 6e45 68be
00000200: 6d22 073e 9ec3 c23b 9f98 c03e 4287 f3bd
00000210: 0595 cb3d 38b6 1c3d 6fbd 513e 6402 c3ba
00000220: 7963 01bd f240 103e b863 c03d 3bc8 d53d
00000230: 2452 03be 7e7d f8bd 9349 9d3d daf2 453d
00000240: 95d1 9b3d c238 9d3c ebb6 cebd 5718 553e
00000250: 1e40 eb3d afea 89bd f31d eb3d 6c38 f2bd
00000260: 9e2e 173e 38f5 67bd 59ac 9f3d acad 44bc
00000270: d5a6 f53d 1f31 ff3d cae7 65be bf0b d53c
00000280: e0e3 d9bd c3b0 7ebc 3f5c 63be 2276 933d
00000290: 191c ff3c 316d afbd f4d7 72bd 29d2 b13c
000002a0: a6e7 8d3e ab09 d43d cde7 adbd 410c e93d
000002b0: 97e1 5d3e f717 c9bd 1444 68bd 12d8 edbd
000002c0: ccff cb3d ffa9 dd3d 352c 4b3e 1927 0cbd
000002d0: b128 c1bd 5336 2bbd 441b d63d 0cf4 803c
000002e0: d11a 583b 47f5 b43c 63f9 2f3c 1e93 f3bc
000002f0: de7e c23c 88ad 10be 431a 813d f23e c2bd
00000300: c641 22be 6629 283e 135f 5cbe dc3c 3c3e
00000310: 5c60 70be 88cb 81bd 4f45 a4bd cf57 82be
00000320: bea5 053d 240d 1a3d 8c69 2ebe f860 6f3e
00000330: 258e cf3c dc26 30be 41d5 0abd 1049 5abd
00000340: 1628 03be 1e7c f6be a858 4abe 5a12 e23d
00000350: 8d0a 3c3d 8d4c bc3d 4a60 343e 14ec 413d
00000360: 29d4 533e b0f4 e0bd cc81 edbd ce54 2f3e
00000370: efcf c53c f56f ca3d 5859 8dbe 8ff7 ab3d
00000380: b3b8 14be df7d 3abe 2741 87bd 8bec a4bd
00000390: 2cb4 38be 89c2 2dbc 987b 44bd 1eab 983d
000003a0: 0b90 563e ee65 f73d 907a 43bd fa79 ad3e
000003b0: 4c30 a2bd 2d28 303e 91dd 1d3e 621e 8c3d
000003c0: 01c6 363d 2988 523e 52db ea3d 696e 7fbc
000003d0: f4e5 2b3e 1454 e83c 9cfb 1abd a638 00be
000003e0: 79f6 963d e7af a53d 17b2 a53e a3a6 9cbd
000003f0: a97e 453b 81be 32be cc4d 91be bd82 64be

encoder_lstm.weight_hh_l0 f4 [128, 32]
0.0921723 0.031580858 -0.18644279 -0.0042974893 0.1776393 -0.032424536 -0.15050694 -0.025166618
-0.09491108 0.2888477 0.082962096 -0.08313062 -0.2152736 -0.01237371 0.046348147 -0.33132216
-0.11956248 -0.06465042 0.14590512 -0.07614115 0.23863372 0.069027394 0.2771658 -0.11032465
-0.17266244 -0.2286804 -0.14623074 -0.23654777 0.1695937 0.16892062 0.25800654 -0.2971738
-0.17559478 -0.02994999 -0.24045037 0.24586518 0.0027584706 0.09062737 0.18829657 -0.04287458
0.13256288 -0.08773992 -0.13532194 0.19239584 0.21633022 0.09657949 0.08178311 0.16993463
-0.067101106 0.0456479 -0.028649773 -0.13692054 -0.13025929 0.023776762 0.0020544631 -0.18769196
0.03391576 -0.111534715 0.14772327 -0.01690996 -0.08635047 -0.186807 -0.1988909 0.2126986
-0.2964802 0.08295109 -0.08358155 -0.056399494 0.009310474 -0.02995056 0.2935021 0.3365151
0.06244208 -0.029902121 -0.3587162 0.14682633 0.14520693 0.12335145 -0.25587916 0.016950617
-0.151798 0.2529738 -0.067726895 -0.13303696 -0.06609428 -0.1220751 -0.10075222 -0.18632291
0.114136755 0.04407297 -0.332243 0.04218361 -0.041470956 -0.114517115 -0.35578442 0.15663855
-0.16201103 -0.15559867 -0.19875006 0.067510135 -0.2708625 0.10383626 0.035219245 0.35842565
-0.44362184 -0.24865426 -0.34904084 -0.0068637906 0.032708686 -0.0059961984 -0.20857349 0.080142826
-0.032126717 0.09414018 0.011269406 -0.20918977 0.11168066 -0.05633221 -0.12403302 -0.35283607
0.19051617 0.01618816 -0.2880819 0.016779572 -0.2220979 -0.08203058 0.21216068 0.15857369
0.31040326 0.057374083 0.046064902 -0.102544755 0.1693516 -0.2226018 -0.02217088 -0.017695023
0.24612728 0.13201487 0.006813009 0.05067216 -0.38363102 0.1457518 0.2070786 -0.030658334
0.23728396 -0.1441373 0.019449135 0.0078076585 0.28027228 0.1843634 -0.0034937025 -0.106170654
-0.0126265725 0.10537955 0.10608664 -0.06576658 0.3979042 0.038230512 -0.027178636 -0.067546934
-0.08862946 -0.10744033 0.25189456 0.045429163 0.18907039 0.061510358 -0.0157443 0.12897159
0.05999501 0.024641102 0.12021692 -0.072221234 0.18832731 0.10503048 0.2533446 0.0271878
0.043643914 -0.03847372 -0.11191668 0.19952068 0.09938888 0.15978096 0.10258395 0.21488465
-0.16544873 -0.060242478 0.13144702 -0.015068622 0.09276968 -0.03239856 -0.0840075 0.037208952
0.049236078 -0.35080206 0.08301439 0.22219123 0.012434273 -0.27046493 0.1036128 -0.076113686
-0.17817087 0.30611786 -0.014361594 -0.50288725 -0.021751055 0.09446403 -0.032928094 -0.2660069
-0.0752515 -0.5329933 0.17760783 -0.16005893 -0.08027665 0.25646532 0.18366778 -0.14648558
0.21642293 -0.13688353 0.09269323 -0.16176207 -0.036656644 0.19466859 0.014407837 0.123015456
-0.12682672 -0.034212533 -0.20861521 0.040579706 -0.06438171 0.12726612 0.076593645 0.20018649
-0.28142455 -0.19522873 0.040056266 0.081145614 0.073952414 0.103814356 -0.008231577 -0.00861769
0.090290464 -0.022178829 -0.2264306 0.15621762 0.10378334 -0.23304306 0.045240466 0.029647501
0.04250703 -0.15649135 0.13814355 -0.10638869 0.0320138 -0.2716752 0.20839967 0.12401613
00000000: d5c4 bc3d ee5a 013d dcea 3ebe f4d1 8cbb
00000010: 14e7 353e 97cf 04bd 7e1e 1abe 392a cebc
00000020: be60 c2bd d9e3 933e 08e8 a93d 6340 aabd
00000030: af70 5cbe 1abb 4abc 8ed7 3d3d 0fa3 a9be
00000040: 2cdd f4bd 7067 84bd 2768 153e e4ef 9bbd
00000050: 665c 743e 3c5e 8d3d ade8 8d3e e4f1 e1bd
00000060: 6cce 30be 322b 6abe 83bd 15be 9439 72be
00000070: f9a9 2d3e 87f9 2c3e 6f19 843e 2a27 98be
00000080: 1ecf 33be ae59 f5bc 9f38 76be 15c4 7b3e
00000090: 75c7 343b d89a b93d d1d0 403e 419d 2fbd
000000a0: 90be 073e fdb0 b3bd d691 0abe 6a03 453e
000000b0: ab85 5d3e 78cb c53d e77d a73d 5803 2e3e
000000c0: 4e6c 89bd 4bf9 3a3d eeb2 eabc e634 0cbe
000000d0: b162 05be 7cc7 c23c 2ca4 063b 5232 40be
000000e0: 41eb 0a3d 506c e4bd c544 173e c286 8abc
000000f0: 84d8 b0bd 564a 3fbe 0eaa 4bbe a9cd 593e
00000100: 41cc 97be 43e2 a93d ce2c abbd 2803 67bd
00000110: f58a 183c e05a f5bc e845 963e b54b ac3e
00000120: 44c3 7f3d 4bf5 f4bc a6a9 b7be a459 163e
00000130: 20b1 143e af9f fc3d 9802 83be 05dc 8a3c
00000140: ef70 1bbe c885 813e 66b4 8abd d73a 08be
00000150: 705c 87bd 8302 fabd 2e57 cebd 6fcb 3ebe
00000160: 88c0 e93d dc85 343d c11b aabe b9c8 2c3d
00000170: 73dd 29bd f387 eabd 6029 b6be db65 203e
00000180: 38e6 25be 4255 1fbe 2385 4bbe c142 8a3d
00000190: 7dae 8abe 1ba8 d43d 0e42 103d 9183 b73e
000001a0: 6722 e3be 399f 7ebe 7bb5 b2be a6e9 e0bb
000001b0: 8bf9 053d c27b c4bb 4a94 55be ec21 a43d
000001c0: 4e97 03bd 91cc c03d 51a3 383c d835 56be
000001d0: d4b8 e43d 9abc 66bd 0605 febd eea6 b4be
000001e0: ac16 433e 089d 843c 797f 93be 5075 893c
000001f0: a26d 63be a6ff a7bd a640 593e 2461 223e
00000200: 2ded 9e3e 1601 6b3d 8dae 3c3d fc02 d2bd
00000210: 816a 2d3e baf1 63be b59f b5bc 27f5 90bc
00000220: ca08 7c3e e82e 073e a93f df3b 9c8d 4f3d
00000230: 496b c4be f63f 153e 6a0c 543e 3027 fbbc
00000240: 91fa 723e ba98 13be cb53 9f3c 63d7 ff3b
00000250: d97f 8f3e c2c9 3c3e 9af6 64bb 0070 d9bd
00000260: afdf 4ebc 3cd1 d73d f443 d93d a1b0 86bd
00000270: 19ba cb3e 9997 1c3d bba5 debc 0c56 8abd
00000280: 5d83 b5bd ad09 dcbd 53f8 803e ee13 3a3d
00000290: ab9b 413e 49f2 7b3d 31fa 80bc 2111 043e
000002a0: 54bd 753d 23dc c93c 4a34 f63d bae8 93bd
000002b0: e0d8 403e 381a d73d 62b6 813e f3b8 de3c
000002c0: f6c3 323d 9f96 1dbd 9334 e5bd 264f 4c3e
000002d0: 668c cb3d 9f9d 233e 8917 d23d b90a 5c3e
000002e0: 646b 29be d1c0 76bd 0c9a 063e 62e2 76bc
000002f0: 08fe bd3d 5ab4 04bd 200c acbd 6a68 183d
00000300: c5ab 493d 549c b3be 7303 aa3d 1986 633e
00000310: 1fb9 4b3c 617a 8abe f332 d43d 7ee1 9bbd
00000320: 6d72 36be 7bbb 9c3e e44c 6bbc 38bd 00bf
00000330: 452f b2bc 5b76 c13d 9cdf 06bd 0e32 88be
00000340: 751d 9abd 4072 08bf d4de 353e 7de6 23be
00000350: 1668 a4bd 6c4f 833e 6813 3c3e 5100 16be
00000360: f99d 5d3e 322b 0cbe f3d5 bd3d f5a4 25be
00000370: 4725 16bd 3457 473e d90e 6c3c 87ef fb3d
00000380: ddde 01be 7122 0cbd 3a9f 55be e836 263d
00000390: 8fda 83bd 0d52 023e 21dd 9c3d b0fd 4c3e
000003a0: e116 90be 0aea 47be 0a12 243d ac2f a63d
000003b0: 5d74 973d 9f9c d43d bddd 06bc 3631 0dbc
000003c0: 35ea b83d 60b0 b5bc 6cdd 67be 83f7 1f3e
000003d0: 5c8c d43d d7a2 6ebe 114e 393d 51df f23c
000003e0: da1b 2e3d 453f 20be 8175 0d3e 50e2 d9bd
000003f0: e720 033d 0319 8bbe b966 553e 2bfc fd3d

encoder_lstm.bias_ih_l0 f4 [128]
0.04343812 -0.022340832 -0.04305907 -0.19400233 0.20140791 0.22709705 0.0059983446 0.05701403
-0.008737522 0.1819933 -0.031245438 -0.082529835 -0.12886044 -0.21576773 0.08056093 -0.034711413
0.05048171 0.14052762 -0.24952859 -0.08840198 0.0143463425 0.237113 -0.039797958 0.27238056
0.13673878 -0.058906395 0.06732038 -0.20144427 0.17853399 0.047935635 0.10993754 -0.10522252
0.23896012 -0.06298301 -0.21062517 0.0623725 0.17349736 0.11555485 0.21708289 -0.04775153
-0.09960983 -0.06911953 0.19832341 -0.057883944 -0.17601092 -0.20678131 -0.17406277 -0.07111901
0.2176368 0.05805978 0.029894965 0.16221216 0.050440136 0.117082894 -0.07035996 -0.013949346
0.011013083 -0.08898437 -0.017508803 -0.008801153 -0.013293222 -0.0075276964 -0.065578885 0.23922168
0.07661964 0.15100093 -0.098362 0.050961994 0.20189545 -0.28416887 -0.26369467 -0.2668377
-0.12036966 0.174961 0.19196811 -0.040882923 -0.31283647 -0.060624614 0.124047905 -0.236434
0.14274392 0.062470652 0.1736015 0.02880789 0.02627609 0.16762991 -0.03944844 0.08553059
-0.07978665 0.17000727 -0.029750144 -0.08934005 0.19674027 0.13286056 0.11740719 -0.16192304
0.0903952 -0.2963071 -0.3170864 -0.118750885 0.16545485 -0.1367488 0.108343534 0.12702282
-0.060305547 0.14312734 0.20552656 0.0055696587 -0.24359669 -0.1653447 0.048951663 -0.12301806
0.15445735 0.05788449 0.06032704 -0.20506352 0.06047625 -0.019008487 -0.122948244 0.40015465
-0.3147776 0.07254596 -0.17015722 0.08529983 0.42588103 -0.06855693 -0.21755262 0.26978016
00000000: 2cec 313d 1f04 b7bc b55e 30bd 8ca8 46be
00000010: e03d 4e3e 218c 683e c38d c43b 8b87 693d
00000020: d327 0fbc 745c 3a3e 6ff6 ffbc 6705 a9bd
00000030: fef3 03be 37f2 5cbe 21fd a43d 8e2d 0ebd
00000040: e9c5 4e3d 79e6 0f3e 6c84 7fbe 190c b5bd
00000050: ec0c 6b3c c0cd 723e 2f03 23bd 7775 8b3e
00000060: 4005 0c3e d547 71bd 44df 893d 6847 4ebe
00000070: 9dd1 363e 2858 443d ef26 e13d e87e d7bd
00000080: f6b1 743e 3dfd 80bd 20ae 57be 4e7a 7f3d
00000090: 4ba9 313e 05a8 ec3d fa4a 5e3e 1c97 43bd
000000a0: 3d00 ccbd 8a8e 8dbd 4b15 4b3e b717 6dbd
000000b0: 353c 34be 7bbe 53be 833d 32be d8a6 91bd
000000c0: 2edc 5e3e 18d0 6d3d 49e6 f43c f21a 263e
000000d0: 519a 4e3d 28c9 ef3d e218 90bd cc8b 64bc
000000e0: 3870 343c 703d b6bd 9f6e 8fbc b632 10bc
000000f0: d0cb 59bc e5aa f6bb 394e 86bd 87f6 743e
00000100: c2ea 9c3d fd9f 1a3e 0472 c9bd 86bd 503d
00000110: aebd 4e3e 957e 91be fd02 87be f39e 88be
00000120: 5e84 f6bd fa28 333e 4a93 443e da74 27bd
00000130: 1a2c a0be 8451 78bd d40c fe3d c11b 72be
00000140: 762b 123e 3ae1 7f3d 97c4 313e 86fe eb3c
00000150: f440 d73c 2da7 2b3e b094 21bd a92a af3d
00000160: 2f67 a3bd 6316 2e3e 93b6 f3bc ebf7 b6bd
00000170: 4876 493e 990c 083e 2e73 f03d 27cf 25be
00000180: 1e21 b93d 90b5 97be 2659 a2be aa33 f3bd
00000190: ff6c 293e e107 0cbe 37e3 dd3d 4512 023e
000001a0: f302 77bd f98f 123e 8e75 523e af81 b63b
000001b0: 6971 79be 1f50 29be 8a81 483d e5f0 fbbd
000001c0: 112a 1e3e 4918 6d3d 7c19 773d 2cfc 51be
000001d0: f2b5 773d b0b7 9bbc 4acc fbbd 12e1 cc3e
000001e0: 882a a1be fa92 943d b23d 2ebe adb1 ae3d
000001f0: 140d da3e 9367 8cbd 1dc6 5ebe a020 8a3e

encoder_lstm.bias_hh_l0 f4 [128]
0.28583476 -0.1917481 -0.1281215 -0.21628891 0.24941064 -0.047203302 0.24923146 -0.074671306
0.2555253 0.11008117 -0.107940435 -0.27588433 -0.20539564 -0.04774326 -0.0100021325 -0.008442777
-0.08270095 0.10507453 -0.30385083 -0.1737651 -0.11399934 0.2068221 -0.037546348 0.17205656
0.05180758 0.20002638 -0.11347425 -0.18937054 0.3375192 -0.17552921 -0.12535474 0.1589161
0.13339624 0.08335508 -0.23664553 -0.06559629 -0.00070610153 0.08204537 0.08543724 -0.08005611
0.08485873 0.09235531 0.20327938 -0.08513673 -0.05668099 -0.18611854 0.12987514 -0.107782334
-0.0053507863 -0.2109638 0.024500582 0.02451835 -0.08264409 0.21534882 -0.11687692 -0.017430084
0.10499258 -0.18905202 -0.16961002 -0.21582247 0.30419776 0.09309196 0.12801723 0.09614381
0.296102 -0.006120239 0.10956591 -0.22024336 -0.038169857 -0.19940059 -0.261322 -0.20167299
0.1387137 0.07675575 0.32042187 0.028431142 -0.29592136 0.16355559 0.20638487 -0.17150465
0.1794777 -0.16550657 0.23905998 -0.18096133 0.11073833 -0.0334443 -0.11340751 0.32669944
-0.15386093 0.005399505 -0.087689154 -0.034336865 0.18740486 -0.12146496 -0.20701964 0.029599886
0.076811604 -0.09150506 -0.13876198 0.07828716 0.1383546 0.014565324 0.18711881 0.023072165
-0.19843253 -0.011606746 -0.0016923866 0.19562262 0.066511996 -0.18885268 0.13957983 -0.019458983
-0.12342348 0.2622175 0.00031901037 -0.023638856 0.13994424 0.04321489 -0.009359732 0.24531052
-0.20638087 0.10207485 -0.046433233 0.20716956 0.39360553 -0.08234918 -0.0851233 0.2788859
00000000: ef58 923e 9d59 44be 4832 03be d77a 5dbe
00000010: 8165 7f3e 4058 41bd 8836 7f3e 45ed 98bd
00000020: 36d4 823e 3d72 e13d e00f ddbd b640 8dbe
00000030: 3c53 52be 708e 43bd fcdf 23bc 9353 0abc
00000040: 1e5f a9bd 5131 d73d 5692 9bbe 7aef 31be
00000050: 7c78 e9bd 2cc9 533e 33ca 19bd 982f 303e
00000060: 2f34 543d b7d3 4c3e 3065 e8bd 5aea 41be
00000070: 51cf ac3e eebd 33be fe5c 00be e7ba 223e
00000080: 0699 083e 11b6 aa3d 3553 72be 5957 86bd
00000090: ac19 39ba 6707 a83d b8f9 ae3d 75f4 a3bd
000000a0: 6aca ad3d c824 bd3d 7828 503e 2a5c aebd
000000b0: 532a 68bd dc95 3ebe fdfd 043e fcbc dcbd
000000c0: a655 afbb e506 58be 72b5 c83c b5da c83c
000000d0: 4e41 a9bd 6784 5c3e 2b5d efbd 89c9 8ebc
000000e0: 5a06 d73d da96 41be 40ae 2dbe 9100 5dbe
000000f0: cfbf 9b3e ffa6 be3d f316 033e 0ce7 c43d
00000100: ae9a 973e 498c c8bb 1864 e03d 7a87 61be
00000110: ff57 1cbd ab2f 4cbe ffcb 85be 5d83 4ebe
00000120: f70a 0e3e 1e32 9d3d 560e a43e 6de8 e83c
00000130: 0183 97be 1e7b 273e 8e56 533e ea9e 2fbe
00000140: 01c9 373e 8e7a 29be 24cc 743e ed4d 39be
00000150: c7ca e23d e4fc 08bd 3242 e8bd 2645 a73e
00000160: b88d 1dbe 55ee b03b 5f96 b3bd d0a4 0cbd
00000170: 0fe7 3f3e 9fc2 f8bd f5fc 53be 767b f23c
00000180: 674f 9d3d 0167 bbbd 9f17 0ebe 0555 a03d
00000190: d4ac 0d3e 66a3 6e3c 139c 3f3e d601 bd3c
000001a0: e631 4bbe 392a 3ebc 12d3 ddba 4c51 483e
000001b0: 7137 883d 9962 41be 04ee 0e3e 7268 9fbc
000001c0: 73c5 fcbd 5f41 863e d940 a739 46a6 c1bc
000001d0: 8b4d 0f3e 1902 313d 9059 19bc ae32 7b3e
000001e0: 8255 53be 9e0c d13d c630 3ebd 4224 543e
000001f0: aa86 c93e b0a6 a8bd 2055 aebd 22ca 8e3e

encoder_lstm.weight_ih_l1 f4 [128, 32]
-0.040127404 -0.02935225 0.2009115 0.048706632 0.3400654 0.17122266 -0.38742712 0.07975523
-0.06551399 -0.09261436 0.3334646 -0.17402029 -0.12991586 0.034379907 0.07935819 0.13177021
0.05539917 -0.028721113 -0.28033087 0.059452236 0.13027593 0.044040494 -0.15221283 0.0110712135
0.11054715 0.021621045 0.2893009 -0.19811115 0.3917862 -0.30199617 0.21554841 -0.042778116
0.19375233 0.023043737 -0.16774891 0.22345926 0.13955304 0.019884927 -0.20844467 0.021758884
-0.12683178 -0.07441488 0.106201716 0.016253442 0.057441317 -0.14485665 -0.111304395 0.078477785
-0.14534989 -0.07333951 0.043000463 0.01945181 0.12724686 -0.17616913 -0.028839452 0.10268638
-0.02542352 -0.016531168 0.0038937056 0.012948529 0.04758833 -0.03141309 -0.22064146 -0.1341802
0.091863066 0.030510962 -0.34578368 0.059199248 0.23794724 0.37384805 0.17842403 0.0489124
-0.014461675 0.2030576 0.043458685 0.05375094 -0.19657739 -0.11996983 0.19906516 -0.10297049
-0.07583345 0.00094698905 0.21979983 0.09666007 0.16798384 -0.2992927 -0.00032644125 -0.20187068
-0.20470704 0.046593968 -0.1589731 0.12070765 -0.0038456041 -0.32877478 0.015371126 0.06957058
0.07991313 0.25267184 -0.14592588 0.2479526 0.27561143 0.23894727 -0.02426622 0.07637213
-0.15968479 -0.06096961 0.056991197 -0.07425371 0.346973 0.034861337 -0.06394706 0.11086897
-0.19322895 -0.005028933 0.069020115 -0.0748152 -0.01634609 -0.104524076 0.19985266 0.24218497
0.105185285 -0.0052584596 -0.020648984 0.21981858 0.29978096 -0.36419302 0.15417843 0.22882523
0.16487712 0.039172236 -0.26414105 0.016486118 0.29354373 0.07751496 -0.33249795 0.0035979105
-0.40697467 -0.1030204 0.2618381 -0.085471965 -0.03756924 0.26076955 0.35768914 0.02301929
-0.011628251 -0.04067542 -0.06101766 0.32377896 0.05194104 -0.12510368 -0.056761768 0.29512337
0.18197614 0.023761218 0.052343745 -0.11177565 0.108806066 -0.22657487 0.2290107 0.08189082
0.034945015 0.07420938 -0.054836452 0.08791099 -0.0070266197 0.01844868 0.18449979 0.13843901
-0.1701253 -0.3501259 -0.199088 0.040712822 0.23773876 -0.22934428 -0.21451256 0.13005523
-0.05983503 0.08273118 0.042032257 0.13215645 -0.30053684 -0.09787746 0.1631916 -0.017881854
0.028774422 -0.0024589638 0.11234401 0.2851492 -0.16576348 0.11932335 -0.08337016 0.061061803
0.15902872 0.24636886 -0.1833076 0.15148261 -0.023176238 0.07384279 -0.17140123 0.07583797
-0.056011893 0.09669367 0.22068536 -0.19348265 0.07921833 -0.058642093 0.016360797 -0.060568955
0.21661465 -0.17771295 -0.06510743 -0.0045198477 -0.06511243 -0.00955907 -0.18912555 0.09444389
-0.16088642 -0.11056139 -0.019156558 -0.27251953 0.15771928 -0.037152484 -0.03160302 -0.10536854
0.06091922 0.16093299 0.0065605347 0.2177168 0.18049468 0.14652412 0.09963574 0.22421023
-0.21999876 0.08394727 -0.057540838 -0.1276101 0.15369445 0.06454282 0.06029242 -0.058453396
0.1291222 -0.14139822 0.0015106453 -0.04082593 0.109895326 -0.082161784 -0.07065742 -0.16053088
0.18622415 -0.0070833694 -0.15567654 -0.051213983 0.21564497 -0.18835476 0.14838365 0.25364095
00000000: a25c 24bd 2174 f0bc bfbb 4d3e 9b80 473d
00000010: 0d1d ae3e fe54 2f3e d95c c6be b656 a33d
00000020: 332c 86bd 99ac bdbd dfbb aa3e 6032 32be
00000030: aa08 05be f2d1 0c3d 8c86 a23d c5ee 063e
00000040: 3dea 623d 8a48 ebbc 8787 8fbe 3084 733d
00000050: 0e67 053e ce63 343d aedd 1bbe 0964 353c
00000060: 8b66 e23d 9e1e b13c 3f1f 943e a6dd 4abe
00000070: 3398 c83e 3e9f 9abe b9b8 5c3e 1b38 2fbd
00000080: 0367 463e 38c6 bc3c 5fc6 2bbe 81d2 643e
00000090: fee6 0e3e b7e5 a23c 8572 55be b03f b23c
000000a0: 31e0 01be d466 98bd 4980 d93d f025 853c
000000b0: 9647 6b3d 4d55 14be 8ff3 e3bd f6b8 a03d
000000c0: 9ad6 14be 0633 96bd 4121 303d 6759 9f3c
000000d0: 004d 023e ae65 34be b740 ecbc 3d4d d23d
000000e0: fc44 d0bc 5f6c 87bc 8a2d 7f3b 1126 543c
000000f0: fbeb 423d 03ab 00bd d6ef 61be 8966 09be
00000100: b422 bc3d 20f2 f93c 8f0a b1be e97a 723d
00000110: 71a8 733e 0369 bf3e cab4 363e 5e58 483d
00000120: a9f0 6cbc 55ee 4f3e bc01 323d f229 5c3d
00000130: 954b 49be beb2 f5bd bdd7 4b3e 31e2 d2bd
00000140: 914e 9bbd 5c3f 783a 3513 613e b7f5 c53d
00000150: f503 2c3e e53c 99be 3426 abb9 30b7 4ebe
00000160: b99e 51be 51d9 3e3d d8c9 22be 9335 f73d
00000170: 8806 7cbb 2b55 a8be 2dd7 7b3c 057b 8e3d
00000180: 7fa9 a33d 345e 813e 986d 15be 49e7 7d3e
00000190: f11c 8d3e 98ae 743e f4c9 c6bc fe68 9c3d
000001a0: 6984 23be 45bb 79bd 9a6f 693d 5412 98bd
000001b0: 72a6 b13e c3ca 0e3d adf6 82bd 450f e33d
000001c0: cfdd 45be bfc9 a4bb 6b5a 8d3d b638 99bd
000001d0: 3ce8 85bc b810 d6bd 2da6 4c3e 56ff 773e
000001e0: 626b d73d 284f acbb 0f28 a9bc 1f18 613e
000001f0: e47c 993e 8277 babe f3e0 1d3e 2951 6a3e
00000200: 8cd5 283e 1173 203d 7f3d 87be e50d 873c
00000210: 5d4b 963e 2ac0 9e3d 2c3d aabe ecca 6b3b
00000220: fc5e d0be 5cfc d2bd a50f 863e ed0b afbd
00000230: 34e2 19bd 9683 853e 0823 b73e f392 bc3c
00000240: 6b84 3ebc 459b 26bd a7ed 79bd 5bc6 a53e
00000250: 21c0 543d 2e1b 00be 077f 68bd 691a 973e
00000260: f457 3a3e e3a6 c23c 6566 563d a2ea e4bd
00000270: b7d5 de3d 3e03 68be c881 6a3e 60b6 a73d
00000280: 8122 0f3d 16fb 973d 309c 60bd ad0a b43d
00000290: 8f3f e6bb b021 973c 83ed 3c3e f5c2 0d3e
000002a0: 5435 2ebe b443 b3be badd 4bbe 7dc2 263d
000002b0: ca71 733e 3ad9 6abe 2ea9 5bbe 332d 053e
000002c0: 9415 75bd f76e a93d 042a 2c3d 0554 073e
000002d0: f7df 99be fa73 c8bd b31b 273e f77c 92bc
000002e0: 56b8 eb3c 9126 21bb 9e14 e63d 13ff 913e
000002f0: e7bd 29be cd5f f43d f9bd aabd f11b 7a3d
00000300: 6dd8 223e 1e48 7c3e fdb4 3bbe 421e 1b3e
00000310: 18dc bdbc e43a 973d ce83 2fbe f050 9b3d
00000320: ba6c 65bd 5507 c63d 58fb 613e 5120 46be
00000330: 383d a23d b132 70bd 1407 863c 2717 78bd
00000340: 3bd0 5d3e 62fa 35be 0b57 85bd 3b1b 94bb
00000350: aa59 85bd a59d 1cbc 21aa 41be cc6b c13d
00000360: 69bf 24be 036e e2bd 37ee 9cbc ae87 8bbe
00000370: 2a81 213e 342d 18bd 2b72 01bd 76cb d7bd
00000380: 6f86 793d 9ecb 243e c1f9 d63b 27f1 5e3e
00000390: 99d3 383e 6b0a 163e d30d cc3d 5e97 653e
000003a0: 5b47 61be 8cec ab3d f1af 6bbd 39ac 02be
000003b0: 1462 1d3e 072f 843d 2ff5 763d d46c 6fbd
000003c0: 9c38 043e b2ca 10be d800 c63a 1739 27bd
000003d0: cd10 e13d 7044 a8bd d6b4 90bd 3562 24be
000003e0: 8bb1 3e3e 9c1b e8bb ac69 1fbe c1c5 51bd
000003f0: 09d2 5c3e 12e0 40be e2f1 173e 3add 813e

encoder_lstm.weight_hh_l1 f4 [128, 32]
-0.063001335 -0.063506745 -0.12921478 -0.15065838 0.08955901 0.0462224 -0.090283625 -0.07905461
-0.0033850593 0.10425232 0.16342856 0.158104 -0.10732062 -0.055836968 0.16834462 -0.0347318
-0.25693867 0.14832897 -0.18343045 0.045144685 0.07382592 -0.104649425 0.031473774 0.1641572
0.031620733 -0.29287404 -0.03415607 0.22484316 -0.2091541 0.03231593 -0.015920885 -0.15922222
0.12689133 -0.13505994 0.113884404 -0.087472655 -0.024298495 0.090184875 -0.20759305 0.079287186
0.091592036 0.046956934 -0.09531676 0.029791052 0.064205855 0.017278107 0.07860657 -0.010279392
0.26599395 0.16218725 -0.13858771 0.03534831 -0.054727584 0.14733134 0.061087668 0.007239815
-0.15026775 0.32622033 -0.05764099 0.129931 0.043655984 -0.13323838 -0.06107213 0.21785487
-0.12979962 -0.076767825 -0.1636451 -0.17109953 -0.21651645 0.2409271 -0.12804405 -0.07350359
0.11147617 0.008116821 0.21398607 -0.13796543 0.15780945 0.026477486 -0.006624295 0.16967894
0.3276457 0.2044493 -0.012142874 -0.046364553 0.008115122 -0.050717086 0.051309608 -0.04834283
-0.020976828 0.2575831 0.112103805 0.010238525 0.20619556 -0.04873683 0.0501206 -0.080243364
-0.041154053 0.09353383 0.034354676 -0.22144891 0.034942094 -0.22410078 -0.10828735 -0.24092217
0.21748614 -0.075414695 0.021539455 -0.100795954 0.15716389 0.13437825 0.13462883 -0.13207205
0.1592653 0.1810666 -0.13436744 -0.174409 0.09105637 0.16990511 0.15900058 -0.1276319
0.066272415 0.26373222 0.05025197 -0.20005703 -0.10559343 -0.15571897 -0.04409203 0.12371373
0.09094551 -0.18251956 -0.16018108 -0.10444493 -0.06363927 -0.09161195 -0.047615826 -0.017231723
-0.052774698 0.0819245 0.033532288 -0.03951578 -0.042687107 0.17009573 -0.23438017 0.10088619
0.33034676 -0.09388493 -0.05321621 -0.09934895 0.14407833 0.10538097 -0.20211513 -0.0760806
-0.16038969 0.15197922 -0.27519298 0.09101149 0.22787327 -0.31652546 -0.028230827 0.33959866
-0.1456078 -0.16404791 -0.04946362 -0.02006881 -0.13704035 -0.2621165 -0.33520794 0.28610483
0.22908679 0.28382456 0.05033528 -0.07227249 0.1806211 0.13208939 -0.14914212 0.028854523
0.21403763 -0.21627456 0.10442354 -0.059389316 -0.010272579 0.05875668 0.010666619 0.07134449
0.101375595 0.2119784 0.18701814 -0.23525503 -0.11839137 0.061905883 -0.11207228 -0.14040306
0.17703666 -0.14622694 0.16563459 -0.16596307 -0.25137845 0.2092065 -0.059445545 0.13581492
-0.0541146 0.030449737 0.09116299 0.051522452 0.13032955 0.04273625 -0.19991124 0.12383201
-0.0027376332 -0.14733668 -0.009000419 0.058796577 0.057801116 0.26192617 0.10893937 -0.02819502
-0.07507412 0.06485361 -0.25730366 0.083091445 0.15521336 -0.13318413 0.2872597 0.08664504
-0.2129997 -0.045857508 0.11975777 0.1086225 -0.25264344 0.23115693 -0.022247171 -0.15869492
-0.08589276 -0.24254987 -0.007324535 -0.18556136 -0.031023728 -0.10321724 -0.053867627 0.063089214
0.009581824 0.10936604 0.0151277045 0.18369418 0.0096784225 0.025072614 -0.013354365 0.05733797
0.14468038 0.08163649 -0.020401863 -0.058169823 -0.16132769 0.11151026 0.0890889 -0.20343825
00000000: d806 81bd d30f 82bd e150 04be 3146 1abe
00000010: b76a b73d b353 3d3d 9fe6 b8bd 62e7 a1bd
00000020: dfd7 5dbb 3e82 d53d d159 273e 04e6 213e
00000030: eaca dbbd 4eb5 64bd 8862 2c3e ef42 0ebd
00000040: 778d 83be 8de3 173e 31d5 3bbe a2e9 383d
00000050: 0b32 973d 7052 d6bd a5ea 003d d318 283e
00000060: be84 013d 96f3 95be 3ce7 0bbd 493d 663e
00000070: 7e2c 56be b55d 043d 846c 82bc 260b 23be
00000080: cdef 013e 274d 0abe 3a3c e93d dd24 b3bd
00000090: a30d c7bc d9b2 b83d 4693 54be 5261 a23d
000000a0: 9b94 bb3d ea55 403d 6f35 c3bd 5d0c f43c
000000b0: 5c7e 833d d18a 8d3c 7bfc a03d e56a 28bc
000000c0: 5c30 883e 6a14 263e f0e9 0dbe 64c9 103d
000000d0: 082a 60bd 07de 163e 1037 7a3d f83b ed3b
000000e0: cadf 19be 5a06 a73e f518 6cbd a20c 053e
000000f0: 9ed0 323d a46f 08be c526 7abd 5915 5f3e
00000100: 31ea 04be 7338 9dbd 9592 27be b734 2fbe
00000110: 7db6 5dbe 98b5 763e fb1d 03be 0d89 96bd
00000120: 9e4d e43d 6afc 043c 2a1f 5b3e cf46 0dbe
00000130: cd98 213e 50e7 d83c 9d10 d9bb 51c0 2d3e
00000140: 2dc1 a73e 285b 513e e8f2 46bc c2e8 3dbd
00000150: 4af5 043c b8bc 4fbd 062a 523d 2203 46bd
00000160: 99d7 abbc efe1 833e ae96 e53d 7dbf 273c
00000170: ee24 533e 45a0 47bd 424b 4d3d a256 a4bd
00000180: 2791 28bd aa8e bf3d 7db7 0c3d 81c3 62be
00000190: 711f 0f3d ad7a 65be c2c5 ddbd 4db4 76be
000001a0: b0b4 5e3e 0573 9abd 8373 b03c 1c6e cebd
000001b0: 92ef 203e 749a 093e 24dc 093e e53d 07be
000001c0: 7116 233e 8669 393e 9e97 09be 4698 32be
000001d0: c37b ba3d 9bfb 2d3e 0cd1 223e f0b1 02be
000001e0: d5b9 873d e907 873e 02d5 4d3d c0db 4cbe
000001f0: 5e41 d8bd cb74 1fbe d899 34bd a05d fd3d
00000200: a441 ba3d 68e6 3abe 8206 24be 39e7 d5bd
00000210: 4e55 82bd 0c9f bbbd d008 43bd 8b29 8dbc
00000220: 482a 58bd 08c8 a73d 2759 093d 4cdb 21bd
00000230: add8 2ebd 932d 2e3e 5b01 70be 6b9d ce3d
00000240: 3623 a93e be46 c0bd 3ef9 59bd 7677 cbbd
00000250: 4589 133e fad1 d73d 45f7 4ebe 25d0 9bbd
00000260: 323d 24be 71a0 1b3e 18e6 8cbe 3b64 ba3d
00000270: 9c57 693e a00f a2be 5644 e7bc e0df ad3e
00000280: 361a 15be 2dfc 27be 5d9a 4abd 5867 a4bc
00000290: 4e54 0cbe 2234 86be 60a0 abbe 557c 923e
000002a0: ba95 6a3e 7451 913e 5e2c 4e3d 9903 94bd
000002b0: bdf4 383e 7142 073e b6b8 18be 5260 ec3c
000002c0: ae2c 5b3e 1477 5dbe 02dc d53d 3642 73bd
000002d0: 524e 28bc d8aa 703d 0bc3 2e3c 0f1d 923d
000002e0: 029e cf3d de10 593e af81 3f3e b2e6 70be
000002f0: 2d77 f2bd 0691 7d3d 2786 e5bd d2c5 0fbe
00000300: 1949 353e 84bc 15be 1d9c 293e 39f2 29be
00000310: adb4 80be 3b3a 563e 2c7d 73bd 1113 0b3e
00000320: 45a7 5dbd ba71 f93c a9b3 ba3d 3509 533d
00000330: 1c75 053e 350c 2f3d 88b5 4cbe a39b fd3d
00000340: dd69 33bb 6ddf 16be 7e76 13bc aed4 703d
00000350: ddc0 6c3d 301b 863e 9b1b df3d 3ef9 e6bc
00000360: 76c0 99bd f8d1 843d 4ebd 83be d92b aa3d
00000370: 40f0 1e3e 6c61 08be b413 933e f472 b13d
00000380: 981c 5abe 15d5 3bbd 9043 f53d 7975 de3d
00000390: 7b5a 81be 67b4 6c3e b33f b6bc ec80 22be
000003a0: 8be8 afbd fe5e 78be a702 f0bb cc03 3ebe
000003b0: 7925 febc 8f63 d3bd 4da4 5cbd eb34 813d
000003c0: 15fd 1c3c 4dfb df3d 31da 773c 541a 3c3e
000003d0: 3f92 1e3c 1565 cd3c 44cc 5abc 38db 6a3d
000003e0: 1827 143e 0831 a73d cf21 a7bc 7b43 6ebd
000003f0: 1633 25be 7e5f e43d 3e74 b63d 1e52 50be

encoder_lstm.bias_ih_l1 f4 [128]
-0.04270216 -0.11962961 -0.18496488 -0.12990613 0.16633484 0.11912478 0.00049903675 0.051925536
-0.15694007 0.039831504 0.09275262 -0.02984383 0.14363787 0.118026465 0.026167493 -0.16493094
0.21507944 -0.052931815 -0.029799575 0.032259706 0.1041867 -0.06614617 -0.115505345 -0.17146856
0.10013057 0.109968 -0.08179954 0.12605022 -0.08500581 -0.016644122 0.10612525 0.09581825
0.14971071 0.01209043 0.11312439 0.062614255 0.0469148 0.054485474 -0.03957402 -0.06407024
0.21120006 -0.15804961 0.03475096 0.17609642 0.051936865 0.2018227 0.18441977 -0.08487622
-0.02285328 0.14518276 0.23332414 -0.014450314 -0.024529275 0.0076583256 0.10577458 -0.047988486
-0.054285064 0.15384482 -0.17275237 0.34217763 0.291213 -0.07276675 -0.060664363 0.0912383
0.012837837 -0.1345385 -0.04332599 -0.034104064 -0.060285844 -0.009946314 -0.041489575 0.004541193
-0.15198882 0.04886931 0.16575664 0.16364491 0.052237753 -0.027401607 -0.09809595 0.112777635
-0.11653064 0.15264072 -0.1716782 0.057740793 0.019171095 0.079709664 0.072056465 -0.120959125
0.034672447 -0.0036698147 -0.11607606 -0.03882791 -0.019411474 0.008357443 0.032667026 -0.118045434
-0.11032423 0.15493302 -0.03998069 0.060325254 0.24413328 -0.17105119 0.030880684 0.0013306004
0.04183767 -0.014480456 0.013016239 0.1195626 0.14821088 -0.009402217 -0.13051954 0.14329271
0.020578295 0.20800748 0.19004342 0.17533788 0.11438313 0.2548316 0.06067138 -0.08958101
0.09588715 0.036803573 0.09907392 0.19425449 -0.06696871 0.013241095 -0.037484806 0.07695926
00000000: 76e8 2ebd 5e00 f5bd 6f67 3dbe 1d06 05be
00000010: ae53 2a3e b1f7 f33d cad1 023a dfaf 543d
00000020: e6b4 20be 5c26 233d 16f5 bd3d 0c7b f4bc
00000030: ce15 133e dcb7 f13d 365d d63c a8e3 28be
00000040: c93d 5c3e 08cf 58bd 3d1e f4bc c122 043d
00000050: d65f d53d a577 87bd 118e ecbd 7495 2fbe
00000060: 4211 cd3d e736 e13d 8486 a7bd 4f13 013e
00000070: 8717 aebd 4159 88bc 3258 d93d 5c3c c43d
00000080: c44d 193e f016 463c c3ad e73d e73b 803d
00000090: bc29 403d 292c 5f3d 5e18 22bd 4237 83bd
000000a0: d444 583e c2d7 21be 0657 0e3d 9f52 343e
000000b0: c0bb 543d 9caa 4e3e 89d8 3c3e 95d3 adbd
000000c0: cd36 bbbc caaa 143e 86ec 6e3e 03c1 6cbc
000000d0: 9ef1 c8bc b1f2 fa3b 58a0 d83d 938f 44bd
000000e0: 045a 5ebd 7f89 1d3e ffe5 30be e831 af3e
000000f0: df19 953e bc06 95bd 327b 78bd 25db ba3d
00000100: cb55 523c 76c4 09be 9876 31bd b4b0 0bbd
00000110: 4aee 76bd ddf5 22bc f9f0 29bd 4ace 943b
00000120: f5a2 1bbe 302b 483d 1cbc 293e 8892 273e
00000130: 41f7 553d 5679 e0bc 88e6 c8bd f6f7 e63d
00000140: 9ea7 eebd d94d 1c3e 69cc 2fbe 9c81 6c3d
00000150: b30c 9d3c d23e a33d 5792 933d 6bb9 f7bd
00000160: b204 0e3d 4681 70bb 49b9 edbd 040a 1fbd
00000170: d004 9fbc a8ed 083c dccd 053d cec1 f1bd
00000180: abf1 e1bd c3a6 1e3e cbc2 23bd 9d17 773d
00000190: 13fe 793e 0b28 2fbe 7df9 fc3c 8a67 ae3a
000001a0: fa5d 2b3d 6f3f 6dbc 1042 553c 3ddd f43d
000001b0: 98c4 173e c20b 1abc eaa6 05be 53bb 123e
000001c0: d093 a83c eaff 543e be9a 423e c68b 333e
000001d0: b441 ea3d 4a79 823e 8e82 783d 4076 b7bd
000001e0: 7b60 c43d 58bf 163d 44e7 ca3d a6ea 463e
000001f0: e426 89bd 2df1 583c ab89 19bd d19c 9d3d
