W3-Design/checkpoints/epoch_23.pt (torch, 384725 bytes, 24 tensors)

encoder_cnn.0.weight f4 [32, 3, 3]
0	0xbe4ff1d1	-0.2030709
1	0xbd17e9df	-0.03708827
2	0xbe6d2772	-0.23159578
3	0x3e89655c	0.26835144
4	0xbe5ba8c6	-0.214511
5	0x3e2cd08d	0.16876431
6	0x3e3c1e24	0.18370873
7	0x3e6a7187	0.2289487
8	0x3e004d54	0.12529498
9	0x3e8089c2	0.251051
10	0x3e6f958d	0.23396893
11	0x3de44c41	0.11147357
12	0xbe8ed423	-0.27896222
13	0xbe95d0c2	-0.29260832
14	0x3d272c8b	0.040813964
15	0xbe93db50	-0.2887826
16	0x3e107f0e	0.14110968
17	0xbe191278	-0.14948452
18	0x3dbea8bc	0.09309527
19	0x3e44f082	0.19232371
20	0x3ebefcf3	0.3730236
21	0x3cb2d9e2	0.02183241
22	0x3e6a8f97	0.22906338
23	0xbeab96c0	-0.3351345
24	0xbe8ef6ed	-0.27922764
25	0x3d790f34	0.060805514
26	0xbdeaa716	-0.1145765
27	0xbd27bdc6	-0.040952466
28	0x3d847e89	0.06469447
29	0xbe4cc79d	-0.19998021
30	0xbbd1c545	-0.00640169
31	0x3baa55a9	0.0051982
32	0x3c695d98	0.014243506
33	0x3e162a6a	0.14664617
34	0x3e77c90a	0.24197784
35	0x3cb7078b	0.022342464
36	0xbd9c38a1	-0.076279886
37	0x3dd37576	0.10325138
38	0xbe0156cf	-0.12630771
39	0x3f0d09bc	0.5509298
40	0xbda1f90c	-0.0790883
41	0x3f048f3f	0.51781076
42	0x3e404f4c	0.1878025
43	0x3e15a128	0.14612257
44	0xbea75f3e	-0.32689852
45	0x3d559dd0	0.052152455
46	0xbdf46e6f	-0.11935126
47	0x3eb71c54	0.357638
48	0xbebec8da	-0.37262613
49	0xbead0bf3	-0.3379818
50	0x3cd62b6e	0.026143756
51	0x3daeb320	0.08530259
52	0x3e10abed	0.14128084
53	0xbeb914bc	-0.36148632
54	0x3d6c675d	0.057715762
55	0xbdbefe4c	-0.09325847
56	0x3e936ff4	0.2879635
57	0x3e72e10c	0.23718661
58	0x3e09403a	0.13403407
59	0xbdcd4984	-0.100237876
60	0xbe1b1f4a	-0.15148655
61	0x3e32ccd0	0.17460942
62	0xbe9dd3d5	-0.30825678
63	0x3e916959	0.28400686
64	0xbc97396c	-0.018459998
65	0x3e9f9e3a	0.31175405
66	0x3e7ca3d9	0.24671878
67	0xbea0d170	-0.31409788
68	0xbf051dca	-0.5199858
69	0xbddfe4f3	-0.109323405
70	0xbdda6d90	-0.10665429
71	0x3e937ddb	0.28806958
72	0x3e1b2cd1	0.15153815
73	0x3e8cb06f	0.27478358
74	0xbca23363	-0.019799894
75	0xbd7300b1	-0.05932683
76	0xbe740687	-0.23830615
77	0x3e97ecb9	0.29672793
78	0xbe8626d2	-0.26201493
79	0x3e93ecf2	0.28891712
80	0xbdb8d01a	-0.09024067
81	0x3e49b0aa	0.19696298
82	0x3ec4cc25	0.38437
83	0x3e14df07	0.14538203
84	0x3e3925e2	0.18080857
85	0xbe529bad	-0.20567198
86	0xbecb6c29	-0.39730957
87	0x3d8882ee	0.06665598
88	0x3c8c7f1b	0.017150452
89	0xbd6dbac2	-0.058039434
90	0xbb6fbd97	-0.003658151
91	0xbd33d770	-0.04390663
92	0xbce96795	-0.028491775
93	0x3ecb45d5	0.39701715
94	0xbe5fff0d	-0.21874638
95	0xbe7b75fc	-0.24556726
96	0xbe43e799	-0.19131316
97	0x3e38f9ce	0.18064043
98	0xbd5d3ed0	-0.05401498
99	0xbe805a47	-0.25068876
100	0xbe02245a	-0.1270918
101	0x3e245f99	0.16052093
102	0xbd356ca3	-0.044293057
103	0x3e7edc26	0.24888667
104	0x3d2c3f6c	0.04205267
105	0xbe85bd1f	-0.2612085
106	0xbea07aed	-0.31343785
107	0x3db466ff	0.088087074
108	0xbcff6cd6	-0.031179827
109	0x3eac2c41	0.33627513
110	0x3e55c89b	0.20877306
111	0xbd115850	-0.035484612
112	0xbe941cbf	-0.28928182
113	0xbecc5f8b	-0.39916644
114	0x3ec77c75	0.3896214
115	0xbad7db6e	-0.0016468593
116	0xbe3e8b99	-0.1860794
117	0x3e116da0	0.14201975
118	0xbdc642de	-0.09680723
119	0x3d45c5fd	0.04828452
120	0x3e121304	0.14265066
121	0xbd1eb8c8	-0.03875044
122	0xbdbdc3a4	-0.09265831
123	0x3ceecfd8	0.029151842
124	0x3d932a2a	0.071857765
125	0xbd1ff77f	-0.03905439
126	0xbe3caef4	-0.18426114
127	0xbe4e86bb	-0.20168583
128	0xbdc6711f	-0.09689545
129	0x3ea65647	0.324877
130	0xbd3f30a1	-0.046677236
131	0xbe548733	-0.207547
132	0x3e60e4fe	0.21962354
133	0x3e822321	0.25417426
134	0xbda52e73	-0.080655
135	0x3e8dc86e	0.27691978
136	0x3e1e1ad6	0.15439925
137	0xbe1f982f	-0.15585397
138	0xbee0a3c7	-0.43874952
139	0x3cbc73fc	0.023004524
140	0xbe6ab510	-0.22920632
141	0xbed7b89a	-0.42133027
142	0xbd901e1b	-0.07036992
143	0xbe116fa0	-0.14202738
144	0x3e174f86	0.1477643
145	0xbe4fcff2	-0.20294169
146	0xbeab550a	-0.33463317
147	0x3e3d6cd1	0.18498541
148	0xbc34ecba	-0.011042768
149	0xbdda42a5	-0.10657243
150	0x3e7a6cfb	0.24455635
151	0xbdbf7c89	-0.09349925
152	0x3e383f47	0.17992888
153	0xbd63f3f2	-0.055652566
154	0x3e2e90a1	0.17047359
155	0x3cf1827f	0.02948117
156	0x3e02b702	0.12765124
157	0xbef99e31	-0.48753503
158	0x3e3cf17d	0.18451495
159	0xbe0aed2e	-0.1356704
160	0xbec3c937	-0.38239452
161	0xbe15244d	-0.14564629
162	0x3e8ca6f7	0.27471134
163	0x3dfc86f5	0.123304285
164	0xbea4c79f	-0.3218355
165	0xbdf2ccaa	-0.11855443
166	0xbedb6b52	-0.42855316
167	0xbe30143a	-0.17195216
168	0x3e2dca6c	0.16971749
169	0xbe4d345a	-0.20039502
170	0xbdadc7e5	-0.084853925
171	0xbdbe1d43	-0.09282925
172	0x3e3dab94	0.18522483
173	0x3e0462f1	0.12928368
174	0xb8e53937	-0.00010930228
175	0xbdde36b8	-0.108502805
176	0x3e192506	0.1495553
177	0xbdcb3356	-0.09921901
178	0x3e6210cf	0.22076724
179	0x3e369138	0.17828834
180	0xbe0ffba9	-0.14060844
181	0xbdc78691	-0.097424634
182	0xbe020060	-0.12695456
183	0xbe0a17c2	-0.13485625
184	0x3e928cf1	0.28623155
185	0x3d236e24	0.03989996
186	0x3e8f7f7f	0.2802696
187	0x3e7d814a	0.24756351
188	0xbe29a1ef	-0.16565679
189	0x3e854a2d	0.26033154
190	0xbe02a77a	-0.127592
191	0xbcd19d30	-0.025587648
192	0xbe12e252	-0.14344147
193	0x3e92345b	0.2855557
194	0x3e1d0a29	0.15335907
195	0xbdbab795	-0.09117047
196	0xbebf9d5e	-0.3742475
197	0xbe81af60	-0.25329113
198	0x3db0070c	0.08595094
199	0xbe919e33	-0.2844101
200	0x3e1873e6	0.14887962
201	0x3dc132ad	0.09433494
202	0x3e4432a4	0.19159943
203	0xbd9f6b69	-0.07784159
204	0xbd8f9aba	-0.070119336
205	0xbe2b23c1	-0.16712858
206	0xbe984535	-0.297403
207	0x3df30b3e	0.11867379
208	0xbe97ee79	-0.29674128
209	0xbe9db52f	-0.30802295
210	0xbe0d45bf	-0.13796137
211	0x3cc658df	0.024212299
212	0xbdde2e1a	-0.10848637
213	0x3e2a1b38	0.16611946
214	0x3e880635	0.26567236
215	0x3e9d1512	0.30680138
216	0x3d15e07c	0.036591038
217	0x3e754fbf	0.23956202
218	0xbe1f3ca2	-0.15550473
219	0x3e8e39e8	0.27778554
220	0x3e50888f	0.20364593
221	0xbe36db92	-0.17857197
222	0x3d1da116	0.0384837
223	0x3d85188d	0.06498823
224	0x3dcd1dc5	0.10015444
225	0x3f030eb5	0.51194316
226	0x3e913348	0.28359437
227	0x3ec895f8	0.39176917
228	0x3e6f487d	0.23367496
229	0x3e62790d	0.2211649
230	0x3cd1b68b	0.025599739
231	0xbee4620c	-0.44606054
232	0xbdc97f92	-0.09838785
233	0x3e22eb6a	0.15910116
234	0xbed32cf9	-0.4124525
235	0x3c340ab4	0.01098888
236	0xbe521868	-0.20517123
237	0x3ec5682d	0.38556042
238	0x3e68bfdc	0.22729439
239	0xbe324e18	-0.17412603
240	0x3ebb572f	0.36589953
241	0x3d164f20	0.036696553
242	0xbde542e2	-0.111943975
243	0xbe71cdaf	-0.23613618
244	0x3cfa1573	0.030527806
245	0x3c3d98d0	0.011572078
246	0xbe12a956	-0.14322409
247	0xbdb533f5	-0.08847801
248	0x3e62e7c8	0.2215873
249	0xbe010d15	-0.12602647
250	0x3eb3b4b6	0.3509881
251	0x3dafa8bd	0.08577106
252	0x3e8490f4	0.2589184
253	0xbdc00444	-0.093758136
254	0x3c3564bc	0.01107138
255	0xbd77cd5e	-0.060498588

encoder_cnn.0.bias f4 [32]
0	0xbec17496	-0.3778426
1	0xbe4bd7a4	-0.19906479
2	0x3f99a0fb	1.2002252
3	0xbfad97ec	-1.3561988
4	0x3d4139fa	0.04717443
5	0x3dbcc4b1	0.092172034
6	0xbf81603f	-1.0107497
7	0xbe1c6d4f	-0.15276073
8	0xbea4c154	-0.32178748
9	0xbecc8429	-0.3994458
10	0xbeb923d5	-0.3616015
11	0xbe61a320	-0.22034883
12	0xbdeaf632	-0.11472739
13	0xbf5c377c	-0.8602216
14	0xbf61a4c0	-0.88142014
15	0x3e87fedc	0.2656163
16	0xbf721c74	-0.94574666
17	0x3e021f8c	0.12707347
18	0xbe012ed2	-0.12615517
19	0xbf86224c	-1.0479217
20	0xbf52a71c	-0.8228624
21	0x3ed48920	0.41510868
22	0xbd7bf30c	-0.061511084
23	0xbf3ca389	-0.73687035
24	0xbf17bbe2	-0.5927106
25	0x3f2cf6e4	0.67564225
26	0xbf4f67f6	-0.81018007
27	0xbf661551	-0.89876276
28	0xbf767da0	-0.9628544
29	0xbe1da151	-0.15393569
30	0x3e1c44db	0.15260641
31	0x3e210eb3	0.15728264

encoder_cnn.2.weight f4 [64, 32, 3]
0	0xbe49ad51	-0.19695021
1	0xbe2eefed	-0.17083712
2	0x3bdd4882	0.0067530284
3	0x3e9de5b9	0.30839327
4	0x3e8aad0e	0.27085155
5	0x3e907461	0.2821379
6	0x3f0dd055	0.55396014
7	0x3e758d18	0.23979604
8	0x3dedeae0	0.116170645
9	0xbda5732b	-0.08078607
10	0xbefc0f3a	-0.49230367
11	0xbdd23d65	-0.10265616
12	0x3dfbcd2c	0.12294993
13	0x3dc5d3a2	0.096595064
14	0xbe82b692	-0.25529915
15	0xbe1c87ce	-0.1528618
16	0xbe8d1a07	-0.2755892
17	0xbd5d3d14	-0.054013327
18	0x3e133b3e	0.14378068
19	0x3e7d27c5	0.24722202
20	0x3e2a8fb5	0.16656382
21	0xbdb63e6b	-0.08898624
22	0xbe0686bb	-0.13137333
23	0xbe3a3fd7	-0.18188415
24	0x3ee78ff1	0.45227006
25	0x3dcef93b	0.10106131
26	0x3de5bddb	0.11217853
27	0x3eb7d423	0.35904035
28	0x3d8db8c0	0.06920004
29	0xbd8f36bb	-0.06992861
30	0xbd9ce00d	-0.07659922
31	0x3e2bed62	0.16789773
32	0x3e10491f	0.14090393
33	0x3de5d44c	0.11222133
34	0xbdd72f53	-0.10507073
35	0xbd9e6c16	-0.077354595
36	0x3d89c412	0.067268506
37	0xbe1be935	-0.1522568
38	0xbd677849	-0.056511197
39	0x3e4a238c	0.19740123
40	0x3e4ae98a	0.1981565
41	0x3e54f338	0.20795906
42	0x3cdcc629	0.026949959
43	0xbe0a71a5	-0.13519914
44	0x3bdd2f82	0.006750048
45	0x3e8047fd	0.25054923
46	0x3e7e5a80	0.2483921
47	0xbce50777	-0.027957661
48	0x3e8f0f56	0.27941388
49	0x3e4db334	0.20087892
50	0x3dd5b1e0	0.104343176
51	0x3e5c2853	0.21499757
52	0x3ddfdde8	0.10930997
53	0xbcba4346	-0.022737157
54	0xbe2e0e6f	-0.16997693
55	0xbda4e0e2	-0.080507055
56	0xbdfaddd2	-0.1224934
57	0xbea83ad9	-0.32857397
58	0xbe8a757f	-0.27042767
59	0xbdcfdf4d	-0.10150013
60	0xbc1db962	-0.009626718
61	0xbe6ea834	-0.23306352
62	0x3d352443	0.044224035
63	0xbd089977	-0.03334948
64	0xbcce8f33	-0.025214767
65	0xbe3acc4a	-0.18241993
66	0x3e01b146	0.1266528
67	0xbd7c1331	-0.06154174
68	0x3b96fffe	0.0046081534
69	0xbe90fd0e	-0.28318065
70	0xbe896268	-0.2683289
71	0xbd5096b3	-0.050924968
72	0x3e9e8df8	0.3096769
73	0x3e1a95b0	0.15096164
74	0x3e8800d3	0.2656313
75	0x3d8825bc	0.06647822
76	0x3e0a5d3d	0.1351213
77	0xbe8c4b8b	-0.27401385
78	0xbe3fa8b9	-0.18716706
79	0xbc578844	-0.013155047
80	0xbe04f9f0	-0.12985969
81	0x3d0b5412	0.034015723
82	0xbe6265e7	-0.22109185
83	0xbc2e2d4a	-0.010630915
84	0xbdcb94f5	-0.09940521
85	0xbe951b48	-0.29122376
86	0xbe7cd7ae	-0.2469165
87	0x3e0acdac	0.1355502
88	0xbcda6bd6	-0.026662748
89	0x3df3d4a2	0.11905791
90	0x3e93a4ec	0.28836763
91	0xbe18d141	-0.14923574
92	0xbe95b963	-0.29243
93	0x3e20c48f	0.15699981
94	0xbdbb9988	-0.09160143
95	0xbe38aa56	-0.18033728
96	0xbd6ba59c	-0.057530984
97	0xbc5aa83b	-0.013345773
98	0x3d999175	0.07498447
99	0xbda66853	-0.08125367
100	0xbd74cd82	-0.0597663
101	0xbce43769	-0.027858453
102	0xbeffd37c	-0.49966037
103	0xbe759ebb	-0.23986332
104	0xbe3e55f0	-0.1858747
105	0xbd83a91f	-0.06428742
106	0x3cefef78	0.029288992
107	0xbdba4320	-0.09094834
108	0xbea28fec	-0.3175043
109	0xbe93b8d8	-0.28851962
110	0xbe5d4c92	-0.2161124
111	0xbd380da3	-0.04493488
112	0xbbbbf5ad	-0.005736074
113	0x3d91665b	0.07099601
114	0x3d708e93	0.05872972
115	0xbe0296e0	-0.12752867
116	0xbe42def3	-0.19030361
117	0xbe777282	-0.24164775
118	0x3d9f4ecf	0.077787034
119	0x3c1d0191	0.009582893
120	0x3dc3cb39	0.09560246
121	0xbe4b407b	-0.19848816
122	0xbd461e1e	-0.048368566
123	0x3cc5c898	0.024143502
124	0x3d198dad	0.03748863
125	0xbc7bb009	-0.015361794
126	0xbd53a7ec	-0.051673815
127	0xbd9b9def	-0.07598483
128	0xbd9d1058	-0.07669133
129	0xbeaf714f	-0.34266135
130	0xbe385bfe	-0.18003842
131	0xbef4708f	-0.47742125
132	0xbbc8d624	-0.006129043
133	0xbc814fea	-0.015785176
134	0xbd32a7a9	-0.043616924
135	0xbd12e032	-0.03585834
136	0x3c8334d6	0.016016405
137	0x3d235047	0.03987148
138	0xbdfa8c01	-0.12233735
139	0xbd5a3583	-0.05327369
140	0xbe134637	-0.14382254
141	0xbe2cbed3	-0.16869669
142	0xbd9e48f7	-0.07728761
143	0xbe2a2688	-0.16616261
144	0xbe359a56	-0.17734656
145	0x3d45a4cc	0.048252866
146	0xbd7e2fe5	-0.062057395
147	0xbea699b7	-0.3253915
148	0xbeb8fbc7	-0.3612959
149	0xbeb22118	-0.34790874
150	0x3b54e5cb	0.00324856
151	0x3cf64546	0.030062329
152	0x3d3547f5	0.044258077
153	0x3ddc163e	0.1074643
154	0x3d883718	0.06651133
155	0x3d966c63	0.07344892
156	0xbcf49eee	-0.02986094
157	0xbc1bc99d	-0.009508518
158	0xbcf541e1	-0.02993864
159	0xbe9a2c30	-0.30111837
160	0xbe8bb982	-0.2728997
161	0xbe8ebb3c	-0.27877223
162	0xbcae2662	-0.021258537
163	0xbde38e74	-0.11111155
164	0xbdf1bc8a	-0.11803539
165	0x3d328f1c	0.04359351
166	0xbd1612b3	-0.036638927
167	0x3cc031d2	0.023461256
168	0xbd054a2d	-0.032541443
169	0x3d5a090b	0.05323128
170	0x3d4bf02c	0.049789593
171	0xbe7f1118	-0.24908864
172	0x3d20c695	0.039251883
173	0x3d889368	0.066687405
174	0xbd380008	-0.044921905
175	0xbd35656e	-0.044286184
176	0xbe411eb2	-0.18859366
177	0xbe44d7c3	-0.19222932
178	0xbdab2051	-0.08355773
179	0xbd96ce16	-0.073635265
180	0xbe347c73	-0.17625599
181	0xbd9bd529	-0.076090164
182	0x3d88635a	0.06659575
183	0xbc2ff0e6	-0.010738587
184	0xbdd7d258	-0.10538167
185	0xbc29d221	-0.01036504
186	0xbe0b06b5	-0.13576777
187	0xbde02d95	-0.10946194
188	0xbe366c03	-0.1781464
189	0xbe2cf3de	-0.16889903
190	0xbe2efc44	-0.17088419
191	0xbe62b75a	-0.22140256
192	0x3eaf42a8	0.34230542
193	0x3e63e967	0.22257005
194	0xbd037711	-0.032095972
195	0x3d716331	0.058932487
196	0x3e93d6c2	0.28874785
197	0x3e5030ef	0.20331167
198	0xbf12683e	-0.5719031
199	0xbeae5006	-0.34045428
200	0xbe551a59	-0.20810832
201	0x3cc3b0a0	0.023887932
202	0xbe3ad023	-0.1824346
203	0x3b326488	0.0027220566
204	0xbe5ad2af	-0.21369432
205	0xbebdd186	-0.37073916
206	0xbfd1e0ed	-1.6396767
207	0xbddd36dc	-0.10801479
208	0x3f182ada	0.59440386
209	0xbdba1d53	-0.090876244
210	0xbda715d6	-0.08158462
211	0x3e900834	0.28131258
212	0xbc6b172c	-0.014348786
213	0x3c48e8e2	0.012262555
214	0x3e2ad11a	0.16681328
215	0xbef43a53	-0.47700748
216	0xbdef617c	-0.116885155
217	0xbe56ea69	-0.20987858
218	0xbe7b6bf6	-0.24552903
219	0x3d8ae4e0	0.06781936
220	0xbe063ee9	-0.13109936
221	0xbe8957b7	-0.26824734
222	0xbe060fc8	-0.13091958
223	0x3dcec360	0.100958586
224	0xbdb08a91	-0.086201794
225	0xbe00e250	-0.12586331
226	0x3daec7bd	0.08534191
227	0xbec77648	-0.3895743
228	0xbe36ab20	-0.17838717
229	0x3d5ef6ce	0.05443459
230	0xbc43e4da	-0.011956418
231	0xbeb9752f	-0.36222216
232	0xbe61f8cf	-0.22067569
233	0xbeb2a2af	-0.34889743
234	0x3ed8ccec	0.42343843
235	0x3dd155a1	0.102214105
236	0xbe289944	-0.16464716
237	0x3d0cc5ec	0.03436844
238	0x3e120dbb	0.1426305
239	0xbe71fc8c	-0.23631495
240	0x3e914106	0.2836992
241	0x3d8e5cac	0.069512695
242	0xbe82b91c	-0.25531852
243	0x3e745a66	0.2386261
244	0x3d549c34	0.05190678
245	0xbdd18a8c	-0.10231504
246	0xbed37408	-0.41299462
247	0xbec61bb7	-0.3869302
248	0xbd965ecd	-0.073423006
249	0xbe4210ea	-0.18951765
250	0x3e5ef5a0	0.21773386
251	0xbdc92392	-0.098212376
252	0x3e996580	0.2996025
253	0x3e351ffa	0.1768798
254	0xbe350c58	-0.1768049
255	0xbe33abb1	-0.17545964

encoder_cnn.2.bias f4 [64]
0	0xbd923beb	-0.07140335
1	0xbe15a8b7	-0.14615141
2	0x3d4e6fcd	0.05039959
3	0xbd366b22	-0.044535764
4	0x3e0e59d2	0.13901451
5	0x3da37eb8	0.07983154
6	0xbef72dff	-0.4827728
7	0xbdea59b2	-0.11442889
8	0xbe419ab0	-0.18906665
9	0xbc81c6eb	-0.015841922
10	0xbd2fd6e1	-0.042929534
11	0xbe24da69	-0.16098942
12	0x3e473206	0.19452676
13	0xbdebe8dc	-0.11519024
14	0xbd2b8114	-0.041871145
15	0x3c985083	0.018593078
16	0x3dfa4945	0.12221006
17	0x3e1a779a	0.15084687
18	0xbe26066b	-0.16213386
19	0xbdf522be	-0.11969517
20	0xbe12c0da	-0.1433138
21	0x3e31669e	0.17324302
22	0x3e886b95	0.2664458
23	0x3eb6636b	0.35622725
24	0xbe2bd674	-0.16781026
25	0xbe06f277	-0.1317843
26	0xbeb6e0e6	-0.3571846
27	0xbe486075	-0.19568045
28	0x3eac3e65	0.33641353
29	0xbdfbfa94	-0.12303653
30	0xbcc4add9	-0.024008678
31	0xbeafbf69	-0.34325722
32	0xbe41f6a9	-0.1894175
33	0xbe5e277f	-0.21694754
34	0x3e386a36	0.18009266
35	0xbe6608a4	-0.22464234
36	0xbc9ef4a5	-0.019403765
37	0xbef5739a	-0.4793976
38	0x3dd4e5c1	0.103953846
39	0xbae0fa56	-0.001716445
40	0xbe440288	-0.1914159
41	0xbee44b39	-0.4458864
42	0x3df92671	0.12165535
43	0xbda312c8	-0.079625666
44	0xbe71702d	-0.23577948
45	0xbf0b293e	-0.54359806
46	0xbec8f0de	-0.39246267
47	0xbe2a0344	-0.16602808
48	0xbea0c9fc	-0.31404102
49	0x3d591c5e	0.05300557
50	0xbeb77e7b	-0.35838684
51	0xbeb6ba6e	-0.3568911
52	0xbe8e537e	-0.27798074
53	0xbdb57cb3	-0.08861675
54	0xbeabf933	-0.3358856
55	0xbd57abb7	-0.052653994
56	0xbd65587a	-0.05599258
57	0xbe8b9ab3	-0.27266464
58	0xbe11c3a6	-0.1423479
59	0xbe028728	-0.1274687
60	0xbea26f95	-0.31725755
61	0x3e4e2083	0.2012959
62	0xbea4b407	-0.321686
63	0xbe60edf4	-0.21965772

encoder_lstm.weight_ih_l0 f4 [128, 64]
0	0x3f23a57d	0.6392439
1	0x3d48d84c	0.0490344
2	0x3e3673c4	0.17817599
3	0xbe5813c1	-0.21101286
4	0x3e538d29	0.20659317
5	0xbea10688	-0.31450295
6	0x3f09854c	0.5371902
7	0x3d9c357b	0.07627388
8	0x3e922a4c	0.28547895
9	0x3d59abfe	0.05314254
10	0x3e6ed2f8	0.23322666
11	0xbed554db	-0.41666302
12	0x3e283de8	0.16429865
13	0xbe22a986	-0.1588498
14	0x3dc92ff6	0.09823601
15	0x3f0caaf5	0.5494836
16	0xbe81acad	-0.25327054
17	0xbe27f28a	-0.16401115
18	0xbd967010	-0.07345593
19	0x3c50d778	0.012746684
20	0xbc4cb5d6	-0.012494525
21	0xbd89faa6	-0.067372605
22	0x3fa0cc86	1.2562416
23	0xbf604462	-0.87604344
24	0x3ee9c5e2	0.45658785
25	0x3e70f4a3	0.23530822
26	0xbdc2cf69	-0.095122166
27	0x3d0d757a	0.034535863
28	0xbe921d22	-0.28537852
29	0xbdccf1fa	-0.10007091
30	0x3e5f9ee9	0.21837963
31	0x3e182e7e	0.14861485
32	0x3e9b5d23	0.30344495
33	0x3eab2197	0.33424065
34	0xbd88c8e9	-0.066789456
35	0x3ece1cdf	0.40256402
36	0x3f0e1e8d	0.55515367
37	0xbe1a847e	-0.15089604
38	0x3e9deb83	0.30843744
39	0xbe01c596	-0.1267303
40	0x3d80daeb	0.06291755
41	0x3ee85a5c	0.4538144
42	0x3e0f2bf0	0.13981605
43	0xbe02e970	-0.12784362
44	0xbe181906	-0.14853296
45	0x3e478524	0.19484383
46	0xbc7b5551	-0.015340165
47	0x3e6b4c10	0.22978234
48	0x3edc5d38	0.4303987
49	0x3e8615dd	0.26188555
50	0x3ebe39d4	0.37153494
51	0x3ee81654	0.45329535
52	0x3e3f057a	0.18654433
53	0xbd199f03	-0.03750516
54	0x3e43009f	0.19043206
55	0x3eac53a3	0.3365756
56	0xbaeb392f	-0.0017946119
57	0xbe89f1bb	-0.26942238
58	0xbd6312c7	-0.05543783
59	0xbd2bc367	-0.041934397
60	0x3dcfded1	0.10149921
61	0x3c2eaf37	0.010661892
62	0xbdb565b5	-0.0885729
63	0xbde20ead	-0.110379554
64	0x3e32e627	0.17470609
65	0x3c583f98	0.013198756
66	0xbe4cd6d5	-0.20003827
67	0x3d194bb2	0.037425704
68	0x3d7a2b8b	0.061076682
69	0x3ea9ec65	0.33188167
70	0xbd4d99fc	-0.05019568
71	0x3e8ee079	0.27905634
72	0x3debd356	0.115149185
73	0x3e20b939	0.15695657
74	0x3c7593fc	0.0149888955
75	0xbe9172f9	-0.2840803
76	0x3dc1f4d0	0.094705224
77	0xbd3ea9b0	-0.046548545
78	0x3db78b40	0.08962107
79	0xbdcb64de	-0.09931348
80	0x3e922c32	0.28549343
81	0xbe14bacc	-0.14524382
82	0xbe5b6000	-0.2142334
83	0xbd46db90	-0.048549235
84	0x3e53c36e	0.2068002
85	0x3e894559	0.2681072
86	0xbef7ccf8	-0.48398566
87	0xbe99a991	-0.3001218
88	0x3e578a87	0.21048938
89	0xbe7a3de7	-0.24437676
90	0x3e578d8d	0.21050091
91	0x3e8398d4	0.25702536
92	0x3de96c45	0.11397604
93	0xbd68ae88	-0.05680707
94	0xbef9c76f	-0.48784968
95	0x3db174dc	0.08664867
96	0x3edf366e	0.43596214
97	0x3e4a6852	0.19766358
98	0xbd3e9a61	-0.046533946
99	0x3d10ccbe	0.035351507
100	0xbe47447f	-0.19459723
101	0xbe951158	-0.29114795
102	0x3ecafa47	0.3964407
103	0x3b22f591	0.0024865607
104	0xbd69824d	-0.05700903
105	0xbd86fad0	-0.065908074
106	0xbd09ef5e	-0.033675544
107	0xbe02d5b7	-0.12776838
108	0xbd41e4ef	-0.04733747
109	0x3e028158	0.12744653
110	0x3eb54e77	0.35411426
111	0xbd00b806	-0.0314255
112	0xbe9eb6a8	-0.3099873
113	0x3e3366c4	0.1751967
114	0xbdf1e2c9	-0.11810834
115	0x3e8624eb	0.2620004
116	0xbe28e91b	-0.16495173
117	0xbd8b9adb	-0.06816646
118	0xbcd4cc5c	-0.025976352
119	0x3e9f329a	0.31093293
120	0x3d6b0ed8	0.057387203
121	0x3db0f979	0.08641333
122	0x3e0c7b81	0.13718988
123	0xbe1bd702	-0.15218738
124	0x3e62de0f	0.22155021
125	0xbe3536b2	-0.17696646
126	0xbedb1718	-0.42791057
127	0xbe4173d8	-0.18891847
128	0xbd167eb0	-0.036741912
129	0xbd824f3f	-0.06362771
130	0x3eaa90af	0.3331351
131	0xbe097dfb	-0.13426964
132	0x3eb1b422	0.34707743
133	0x3d870ff5	0.065948404
134	0xbd5354fc	-0.05159472
135	0xbc3a4718	-0.011369489
136	0xbd8700e9	-0.065919705
137	0x3e1040f2	0.14087275
138	0xbe17bf63	-0.14819102
139	0x3d9fa2c8	0.0779472
140	0xbee2813d	-0.44239226
141	0xbda232a7	-0.079198174
142	0xbd951a34	-0.072803885
143	0x3e055609	0.13021101
144	0x3e500607	0.20314799
145	0x3eb20172	0.34766728
146	0xbd0e2fa8	-0.034713417
147	0x3e5500fd	0.20801158
148	0x3deb401e	0.11486839
149	0x3d9a28e5	0.07527331
150	0x3d6d6c45	0.057964582
151	0x3ddf49f6	0.10902779
152	0xbe1a8562	-0.15089944
153	0xbcfdc791	-0.03097895
154	0x3deba703	0.11506464
155	0xbdb5f5f2	-0.08884801
156	0x3e5a18c3	0.21298508
157	0x3dff311f	0.12460541
158	0xbe523b74	-0.20530492
159	0xbb9e9485	-0.0048394823
160	0xbe03357f	-0.12813376
161	0x3e01972d	0.12655325
162	0x3ceea67f	0.029132126
163	0xbd926c7a	-0.071495965
164	0x3e75385f	0.23947285
165	0xbdbe0ccf	-0.09279787
166	0xbdf8182a	-0.12113984
167	0x3cb1d229	0.021706657
168	0x3eb3a4b1	0.35086587
169	0x3cacf5ab	0.021113237
170	0x3e0efeeb	0.13964431
171	0xbd5f69c2	-0.054544218
172	0x3e807815	0.25091615
173	0xbf21e841	-0.63245016
174	0x3de4e89f	0.111771815
175	0xbdedd812	-0.11613478
176	0x3e1b342a	0.15156618
177	0x3da3bf90	0.07995522
178	0x3e951d83	0.29124078
179	0xbbd4e33d	-0.0064968155
180	0xbdc128b1	-0.094315894
181	0xbd2ae316	-0.041720472
182	0x3f095ec9	0.53660256
183	0x3e179297	0.14802013
184	0x3b581ad1	0.0032974968
185	0xbea0b839	-0.3139055
186	0x3c2e828b	0.010651241
187	0xbcfd0c93	-0.030889785
188	0xbc9d6c1a	-0.019216586
189	0xbe1d860b	-0.15383165
190	0x3dd9eddd	0.10641072
191	0xbdb7d284	-0.089756995
192	0xbdc92997	-0.09822386
193	0x3e71f0c9	0.23627008
194	0x3e25d1cf	0.16193317
195	0xbcac6523	-0.02104432
196	0x3c6a89c5	0.014315073
197	0x3dd307f9	0.10304255
198	0xbd8fcfb9	-0.07022042
199	0xbe19a09d	-0.15002675
200	0x3bc696af	0.0060604434
201	0x3d1a0d24	0.037610188
202	0xbe6892c6	-0.2271224
203	0x3eb53c92	0.35397774
204	0x3e86e090	0.26343203
205	0xbdd12911	-0.10212911
206	0x3e8e3170	0.27772093
207	0x3d5ca8f5	0.053872067
208	0xbe5dc9a0	-0.21658945
209	0x3ed04010	0.40673876
210	0xbc0b9bab	-0.008521001
211	0x3de78dd0	0.113063455
212	0x3c71f17e	0.014767049
213	0x3e9daf62	0.3079787
214	0x3e92809e	0.28613752
215	0x3ea28b16	0.3174674
216	0x3ee1d784	0.44109738
217	0xbe5168c3	-0.2045012
218	0xbdb788cf	-0.08961641
219	0x3e6c843b	0.23097317
220	0x3e4d74ff	0.20064162
221	0x3e00181c	0.12509197
222	0xbd857fdb	-0.06518527
223	0x3db35d53	0.087580346
224	0xbea1526b	-0.31508192
225	0xbe933c83	-0.28757104
226	0x3dae4fa7	0.08511286
227	0xbd71e45c	-0.05905567
228	0xbe5097e1	-0.20370437
229	0xbea06661	-0.3132811
230	0xbe1fdc49	-0.15611376
231	0x3d98ab1e	0.07454513
232	0x3e4a9d4a	0.19786564
233	0xbdda508f	-0.106598966
234	0x3dd8ef2e	0.10592495
235	0x3e38a6ef	0.1803243
236	0x3da7baa2	0.08189894
237	0x3ea4a31d	0.32155696
238	0x3d949715	0.07255379
239	0x3d8c1e62	0.068417326
240	0x3e8b0daf	0.27158877
241	0x3d8803ff	0.06641387
242	0xbbc2601f	-0.0059318687
243	0x3d8fe1b0	0.07025468
244	0x3e2be5f4	0.16786939
245	0x3ce5480b	0.027988454
246	0xbddc6e86	-0.10763268
247	0x3dd3579a	0.10319443
248	0x3d96f679	0.0737123
249	0x3d92978e	0.07157813
250	0x3e8cc1bd	0.2749156
251	0xbdb4692e	-0.08809124
252	0xbd05b506	-0.03264334
253	0xbb0950a7	-0.0020952614
254	0xbede592c	-0.43427408
255	0xbe631ed7	-0.22179733

encoder_lstm.weight_hh_l0 f4 [128, 32]
0	0xbeccb374	-0.39980662
1	0x3f11a297	0.5688872
2	0xbe78e6cc	-0.24306792
3	0x3e140809	0.1445619
4	0x3fbcc2ee	1.4746988
5	0xbee21a93	-0.441609
6	0x3ee4932c	0.44643533
7	0xbf1729a2	-0.590479
8	0x3ecc6800	0.39923096
9	0x3f1f5209	0.6223455
10	0x3f6b8674	0.92002034
11	0xbf4524b9	-0.7700916
12	0xbe9ccd38	-0.3062532
13	0xbebad94a	-0.36493903
14	0xbe645f05	-0.22301872
15	0x3f39cc74	0.72577596
16	0xbeb5db15	-0.3551871
17	0x3e77d655	0.24202855
18	0x3de4b006	0.11166386
19	0x3e3dc82b	0.1853339
20	0x3f3604ca	0.7110106
21	0x3f1887c1	0.59582144
22	0x3f5b2083	0.85596484
23	0x3ed68ee1	0.41905883
24	0xbf15d7f7	-0.5853266
25	0xbf232e1c	-0.6374223
26	0x3ec101c2	0.37696654
27	0xbf030da8	-0.5119271
28	0x3f02636b	0.5093295
29	0x3d8a5961	0.06755329
30	0xbf0ef60c	-0.5584419
31	0xbda001e2	-0.07812859
32	0xbe90e459	-0.28299215
33	0x3dbcdd25	0.092218675
34	0xbf2fb4e7	-0.6863541
35	0xbe8ddbb3	-0.2770668
36	0xbe055ab0	-0.13022876
37	0x3be049d4	0.0068447385
38	0xbe9b850d	-0.30374947
39	0xbf2b5aae	-0.6693524
40	0x3f2656e0	0.6497631
41	0x3ecc17a7	0.39861795
42	0x3e5be800	0.2147522
43	0xbeb3604a	-0.350344
44	0xbe16bd5f	-0.14720677
45	0x3eb69bdd	0.3566579
46	0x3f02ce01	0.51095587
47	0x3f1893cc	0.5960052
48	0xbee71229	-0.45131043
49	0x3f142925	0.5787528
50	0xbec4c665	-0.38432613
51	0x3e91cf15	0.28478304
52	0x3d36f191	0.04466397
53	0x3eeadce3	0.45871648
54	0x3e908fb6	0.28234643
55	0x3e03efcc	0.12884444
56	0xbe8f76ef	-0.28020427
57	0x3f6d4a08	0.9269109
58	0x3edbc4bf	0.42923543
59	0xbeefca4e	-0.46834034
60	0x3e96c78f	0.29449126
61	0xbf0bdc72	-0.5463325
62	0xbd9629dc	-0.07332203
63	0xbda2f758	-0.07957333
64	0xbe9a655d	-0.3015546
65	0x3ead4cc3	0.33847627
66	0xbe812e5d	-0.25230685
67	0xbebb95e1	-0.36637786
68	0x3ee1781d	0.44036952
69	0xbd59e2aa	-0.05319468
70	0x3e0d0fb8	0.13775527
71	0x3eca56ae	0.39519256
72	0x3d1872f3	0.037219
73	0xbe61e548	-0.2206012
74	0xbea37513	-0.31925258
75	0xbd0fe0c9	-0.03512648
76	0x3ea90e45	0.330187
77	0x3e75c2bb	0.24000065
78	0xbe43f104	-0.19134909
79	0x3be04b38	0.0068449043
80	0xbe8305ab	-0.25590262
81	0x3e8af891	0.27142766
82	0xbecfb205	-0.40565506
83	0xbe710c9b	-0.23539965
84	0xbe80a215	-0.2512366
85	0xbed5ed66	-0.41782683
86	0xbe04eacc	-0.12980193
87	0xbe53de46	-0.2069026
88	0x3e20d70d	0.15707035
89	0x3e77c728	0.24197066
90	0xbf386ba9	-0.72039276
91	0xbed6e855	-0.4197413
92	0xbda8e079	-0.0824594
93	0xbdef261b	-0.1167719
94	0xbf0b8537	-0.54500145
95	0x3d966a0d	0.07344446
96	0xbf3eb305	-0.7449191
97	0xbf2a46ed	-0.66514474
98	0xbea4a126	-0.32154197
99	0x3f5dda64	0.8666136
100	0xbedde759	-0.43340567
101	0x3e41d35d	0.18928285
102	0xbe870795	-0.26372972
103	0x3f8dfa8e	1.1092088
104	0xbf58b96b	-0.84657925
105	0xbe4e1db8	-0.20128524
106	0xbf23a0f9	-0.639175
107	0x3e17264f	0.14760707
108	0x3f2e4de0	0.6808758
109	0x3f4c1eba	0.79734385
110	0xbef3dac1	-0.47627833
111	0xbda8db85	-0.08244995
112	0x3eacbcf5	0.33737913
113	0xbe3524fa	-0.17689887
114	0xbf106d46	-0.5641674
115	0xbe83b9c5	-0.25727668
116	0xbd3017d3	-0.04299147
117	0xbf650b39	-0.8947025
118	0xbf46fded	-0.7773121
119	0xbf50916e	-0.8147191
120	0x3f82b4f2	1.021147
121	0x3e74f0a7	0.23919927
122	0xbf7d8cd7	-0.9904303
123	0xbd9d044a	-0.07666834
124	0xbec7de7e	-0.39036936
125	0x3eebacee	0.46030372
126	0x3eb61443	0.35562333
127	0xbd93684e	-0.07197629
128	0x3f1ec524	0.6201956
129	0xbbc9e3a4	-0.00616117
130	0x3e4f6d7a	0.20256606
131	0x3de92519	0.11384029
132	0xbe287299	-0.16449966
133	0xbe9cf2ae	-0.306539
134	0x3d6a6e94	0.05723436
135	0xbd8ab88b	-0.0677348
136	0x3ec9ac7b	0.39389405
137	0xbf11b93e	-0.5692328
138	0xbe033274	-0.12812215
139	0x3f46ece8	0.7770524
140	0xbe23335a	-0.15937558
141	0x3d6f1a9e	0.058374994
142	0x3e9ed0e5	0.3101875
143	0xbf4fb1e4	-0.81130815
144	0x3df1602d	0.11785922
145	0x3df18d63	0.117945455
146	0x3f098cbe	0.5373038
147	0xbef4b065	-0.47790828
148	0x3e0e471e	0.13894317
149	0x3f01d3dd	0.507139
150	0xbd128838	-0.03577444
151	0x3e1e50a0	0.15460443
152	0x3cdf563e	0.027262803
153	0xbdeed5d6	-0.1166188
154	0xbe4a84ac	-0.19777173
155	0xbf304af3	-0.68864363
156	0x3f61d845	0.88220626
157	0xbde8dae7	-0.11369877
158	0xbd166f4d	-0.03672724
159	0xbe53e5ee	-0.2069318
160	0x3eca3f9d	0.39501658
161	0x3f29b042	0.66284573
162	0xbe8371e8	-0.2567284
163	0xbee8ceae	-0.45470184
164	0x3f1ffefc	0.6249845
165	0xbf5b85bf	-0.85750955
166	0xbf172bcf	-0.5905122
167	0xbf0d23dd	-0.5513285
168	0x3ea15f9b	0.31518254
169	0x3eaa36d2	0.3324495
170	0x3f42dae4	0.7611525
171	0xbe8ea8f3	-0.27863273
172	0xbe9c0cdd	-0.30478564
173	0xbf188938	-0.5958438
174	0x3e94a851	0.29034665
175	0xbea3988d	-0.31952325
176	0xbcb09d68	-0.021559432
177	0x3e195bea	0.14976469
178	0x3ee5f67b	0.44914612
179	0x3ed60eff	0.41808316
180	0x3e82ff95	0.2558562
181	0x3ec8c94f	0.39216086
182	0x3f5c7921	0.8612233
183	0x3f9e23ff	1.2354735
184	0xbedb862b	-0.428758
185	0x3e8157f9	0.2526243
186	0x3ea1f34c	0.31630933
187	0xbe9627f7	-0.29327366
188	0x3f6a8539	0.9160953
189	0x3cea75ae	0.028620567
190	0xbec66611	-0.38749745
191	0x3d06ba82	0.03289271
192	0x3e3fff25	0.18749674
193	0xbed979b8	-0.42475677
194	0x3f002607	0.50058025
195	0x3f1aafb1	0.60424334
196	0xbe383216	-0.17987856
197	0x3dd99484	0.1062403
198	0x3f81f53a	1.0152962
199	0x3e65716a	0.22406545
200	0xbe83f5eb	-0.25773558
201	0x3e94afe8	0.29040456
202	0xbe53c090	-0.20678926
203	0xbf2dd2c4	-0.6789973
204	0x3ed4077a	0.41411954
205	0x3e0f1a0f	0.13974784
206	0xbd948a3e	-0.0725293
207	0xbf44af2c	-0.7682979
208	0xbd5e7dcd	-0.05431919
209	0xbf354f2c	-0.7082393
210	0xbe170ebd	-0.14751716
211	0xbebf948e	-0.37418026
212	0xbe244693	-0.16042547
213	0x3ec85cc1	0.39133266
214	0x3ed354d1	0.41275647
215	0xbe89e09c	-0.26929176
216	0x3e8c7084	0.27429593
217	0xbea2c831	-0.3179336
218	0x3d6c7854	0.05773194
219	0x3ef16080	0.47143936
220	0xbe993aa6	-0.29927558
221	0x3d1859c1	0.03719497
222	0xbdc82a2c	-0.09773669
223	0x3e4619f0	0.19345832
224	0x3e26f4b6	0.16304287
225	0xbd7df006	-0.061996482
226	0xbe365551	-0.17805983
227	0xbe994720	-0.29937077
228	0x3ebacc22	0.36483866
229	0xbf0b91fe	-0.5451964
230	0xbe14660d	-0.14492054
231	0x3e8b03f7	0.27151462
232	0x3d373300	0.04472637
233	0xbeb60e8f	-0.35557982
234	0x3e798746	0.24368009
235	0xbdb15d75	-0.08660404
236	0xbe61f827	-0.22067319
237	0x3e681201	0.22663118
238	0x3eb2f2a0	0.34950733
239	0x3eb948ef	0.36188456
240	0x3e441b3c	0.19151014
241	0x3e4b76d3	0.19869547
242	0xbcbc9d04	-0.02302409
243	0x3de26e01	0.11056138
244	0x3eaec499	0.34134367
245	0xbca06edc	-0.019584112
246	0x3ee5c296	0.4487502
247	0x3ebbb8a7	0.36664316
248	0x3ec69c39	0.38791063
249	0xba96285c	-0.001145612
250	0x3e90aab9	0.2825525
251	0xbf165feb	-0.5874011
252	0x3e33098f	0.17484115
253	0xbea72ecb	-0.32652888
254	0xbe63fa7b	-0.2226352
255	0xbefd9e99	-0.49535063

encoder_lstm.bias_ih_l0 f4 [128]
0	0xbdf27330	-0.118383765
1	0x3b8e1b01	0.004336715
2	0x3d54f38c	0.051990077
3	0x3dfc9ad6	0.1233422
4	0x3e4d03df	0.20021008
5	0x3f739f01	0.95164496
6	0x3ce574bb	0.028009763
7	0x3ee8b2fa	0.45449048
8	0xbed9b1c6	-0.42518443
9	0x3e921527	0.28531763
10	0x3dd27591	0.1027633
11	0x3cea1595	0.028574744
12	0xbd38a7e5	-0.04508199
13	0x3c54240d	0.012948048
14	0xbe9a7af7	-0.3017194
15	0xbe216ae9	-0.15763439
16	0xbc1fd5f2	-0.009755598
17	0x3dd1f96a	0.1025265
18	0x3dcd6a7c	0.10030076
19	0x3d2d4737	0.042304244
20	0x3e5ff440	0.21870518
21	0x3e94065b	0.289111
22	0x3ebd8a28	0.37019467
23	0x3ebb390b	0.36566958
24	0x3edb3940	0.42817116
25	0xbd3fc644	-0.04681994
26	0xbe905272	-0.281879
27	0x3d289fea	0.04116813
28	0xbe0fbffe	-0.14038083
29	0xbdbd27ee	-0.092361316
30	0x3ca83aa6	0.020535778
31	0xbe314929	-0.17313065
32	0x3ed8a474	0.42312968
33	0x3ea3ce2e	0.3199324
34	0xbe21d6c8	-0.15804589
35	0x3f048847	0.5177044
36	0x3e91328b	0.28358874
37	0x3e62f4bd	0.22163673
38	0x3debcaef	0.11513316
39	0x3e4d5feb	0.20056121
40	0x3db7efe9	0.08981306
41	0xbe768f7f	-0.24078177
42	0x3e02dbd4	0.1277917
43	0xbe9ee99b	-0.31037602
44	0x3e8cbc15	0.27487245
45	0xbcfe0ac3	-0.031010991
46	0xbd495a20	-0.049158216
47	0xbeadbb39	-0.33931902
48	0xbdfeb778	-0.12437338
49	0xbe6bdf50	-0.23034406
50	0x3f07048c	0.52741313
51	0xbdb42f3b	-0.08798071
52	0x3d83572e	0.064131126
53	0xbc627727	-0.013822353
54	0x3df71bc6	0.12065844
55	0xbde98607	-0.11402517
56	0xbe1cb33b	-0.15302746
57	0xbe9c16c1	-0.3048611
58	0x3cedfdfa	0.02905177
59	0xbe8a5e94	-0.27025282
60	0xbdcb6312	-0.099310055
61	0x3e5b3ebf	0.21410654
62	0x3dd8f317	0.10593241
63	0x3f176d91	0.5915156
64	0xbeb178c3	-0.34662446
65	0x3edfcd74	0.43711436
66	0xbec3887f	-0.38190076
67	0xbe8e33a5	-0.27773777
68	0x3dd71fb1	0.105040915
69	0xbebfd6e7	-0.37468645
70	0x3d6d3a92	0.057917185
71	0xbeaaa968	-0.33332372
72	0x3cd3a2f4	0.025834538
73	0x3e85e0bd	0.26148024
74	0xbd8ab1be	-0.06772183
75	0x3c99ff1a	0.0187984
76	0xbefe2f01	-0.49645236
77	0xbecb81f4	-0.39747584
78	0xbda225b7	-0.0791735
79	0x3da81d1d	0.08208678
80	0xbcbaeaed	-0.0228171
81	0x3e4eec7e	0.20207402
82	0x3dc19998	0.09453124
83	0xbc963636	-0.018336397
84	0xbe67943b	-0.22615139
85	0x3e4a2963	0.1974235
86	0x3e71febc	0.2363233
87	0x3e80409f	0.25049302
88	0xbe8d4c9d	-0.27597514
89	0x3e29afda	0.16570988
90	0x3e556196	0.20838007
91	0xbebc69d6	-0.36799496
92	0x3e8cbb32	0.2748657
93	0xbe072112	-0.13196209
94	0xbe79339b	-0.24336092
95	0xbeb65b7a	-0.35616666
96	0x3de93339	0.11386723
97	0xbc09e59a	-0.008416558
98	0xbf15ddcf	-0.5854158
99	0x3e80f4d5	0.25186792
100	0x3ea1ebf7	0.3162534
101	0x3eb389be	0.35066026
102	0x3ea15c88	0.31515908
103	0x3ec52b44	0.38509572
104	0xbdace80d	-0.08442698
105	0xbb915745	-0.004435452
106	0x3ec4b6cc	0.38420713
107	0xbe83c992	-0.25739723
108	0xbc07c1ba	-0.008285934
109	0xbdef2a11	-0.116779454
110	0xbd05a064	-0.032623664
111	0xbe8f6439	-0.2800615
112	0xbcea4bb3	-0.02860055
113	0x3d49dc15	0.049282152
114	0x3eaf9d66	0.34299773
115	0xbe393186	-0.18085298
116	0xbe5ad6a2	-0.21370938
117	0xbc6a5cd7	-0.014304361
118	0xbda0949b	-0.07840844
119	0x3ec2702f	0.37976214
120	0xbe102d7b	-0.1407985
121	0xbe72c0a7	-0.23706304
122	0xbe7766b6	-0.24160275
123	0x3dc703c2	0.097175136
124	0x3f6881af	0.9082288
125	0x3d91e7bf	0.0712428
126	0xbe921e25	-0.28538623
127	0x3e347980	0.17624474

encoder_lstm.bias_hh_l0 f4 [128]
0	0x3dfdfad3	0.124013565
1	0xbe290817	-0.16506992
2	0xbd07772d	-0.03307264
3	0x3dcef6ca	0.10105665
4	0x3e7e2ab9	0.24820985
5	0x3f2d668a	0.6773459
6	0x3e8ae05f	0.27124307
7	0x3ea546c1	0.32280543
8	0xbe24c8f1	-0.16092278
9	0x3e5a86a1	0.2134042
10	0x3cd58b91	0.026067527
11	0xbe28bc55	-0.16478093
12	0xbdf91278	-0.12161726
13	0x3e39509e	0.1809716
14	0xbec8d919	-0.39228132
15	0xbe0684b3	-0.13136558
16	0xbe125e04	-0.14293677
17	0x3d895e0d	0.06707392
18	0x3d3c55a6	0.04598012
19	0xbd305e20	-0.043058515
20	0x3db90ea5	0.09035996
21	0x3e8483f4	0.25881922
22	0x3ebeb148	0.3724463
23	0x3e87db49	0.2653449
24	0x3eafbd50	0.3432412
25	0x3e5933e3	0.212112
26	0xbeece376	-0.4626729
27	0x3d5a1397	0.05324134
28	0x3c9869d9	0.01860516
29	0xbea1b3e8	-0.3158257
30	0xbe5bea37	-0.21476065
31	0x3dba61c8	0.091006815
32	0x3ea29773	0.31756172
33	0x3eeebb09	0.46627071
34	0xbe3c7bad	-0.18406554
35	0x3ec78b2b	0.38973364
36	0x3de0050d	0.10938463
37	0x3e40a47e	0.18812749
38	0xbc87444a	-0.016512055
39	0x3e2c4b79	0.16825666
40	0x3e8c6e27	0.2742779
41	0xbda26bb5	-0.079307
42	0x3e07eee8	0.13274729
43	0xbeacddc0	-0.33762932
44	0x3ec9d466	0.3941986
45	0xbc298e7c	-0.010348912
46	0x3e82725b	0.2547787
47	0xbec08070	-0.3759799
48	0xbeb1d8e7	-0.34735796
49	0xbeffad94	-0.49937117
50	0x3f05a2f8	0.52201796
51	0xbe67173f	-0.22567461
52	0xbd8d35aa	-0.06895001
53	0x3dacf032	0.08444251
54	0x3d97d71d	0.074140765
55	0xbdf0a6c9	-0.11750562
56	0xbd71dc23	-0.05904783
57	0xbecf52bd	-0.40492812
58	0xbdfc00a7	-0.12304812
59	0xbef45d61	-0.47727492
60	0x3e5f6a65	0.2181793
61	0x3ea123fc	0.31472766
62	0x3e995bae	0.2995276
63	0x3ee599c5	0.4484388
64	0xbe023255	-0.12714513
65	0x3e8f5b34	0.2799927
66	0xbe322504	-0.17396933
67	0xbf0c87a0	-0.5489445
68	0xbe0a43cf	-0.1350243
69	0xbe947000	-0.289917
70	0x3d76f2bf	0.060290094
71	0xbe894c5f	-0.2681608
72	0x3e91e15d	0.2849225
73	0x3e273179	0.16327466
74	0x3d78c19f	0.060731526
75	0x3db47453	0.088112496
76	0xbef5860c	-0.47953832
77	0xbe3173c8	-0.17329323
78	0x3b4f5e64	0.0031641955
79	0x3e168b37	0.14701544
80	0x3c64017c	0.0139163695
81	0xbcd43647	-0.025904788
82	0x3e23d4ef	0.15999196
83	0xbe6992fc	-0.22809976
84	0xbe11168a	-0.14168754
85	0xbb6f492e	-0.0036512124
86	0x3e264317	0.1623653
87	0x3efbbbc8	0.49166703
88	0xbeb339d4	-0.35005057
89	0x3a9079ad	0.001102259
90	0x3e1a0d4d	0.15044136
91	0xbea04081	-0.31299213
92	0x3e87f37a	0.26552945
93	0xbec5c7c0	-0.3862896
94	0xbf115a4e	-0.5677842
95	0xbe289849	-0.16464342
96	0x3dcd6180	0.10028362
97	0x3e49192f	0.19638513
98	0xbed06ed8	-0.40709567
99	0x3ee5d751	0.44890836
100	0x3e940c07	0.28915426
101	0x3f008141	0.50197226
102	0x3ec9b1f3	0.39393577
103	0x3e8ff25f	0.28114602
104	0xbe63e5d3	-0.2225564
105	0xbe22fc89	-0.15916647
106	0x3e353ca2	0.17698911
107	0xbd89eca0	-0.06734586
108	0x3e9a889f	0.3018236
109	0xbe0fa76d	-0.14028712
110	0x3d6d958e	0.058003955
111	0xbe34bd11	-0.17650248
112	0xbe9ceb3e	-0.30648226
113	0x3e81da0e	0.25361675
114	0x3e90e429	0.28299072
115	0x3a15b5ac	0.000571097
116	0xbe09766b	-0.13424079
117	0x3d4446c8	0.047919065
118	0x3d1016de	0.035178058
119	0x3e66513a	0.22491923
120	0xbd04b7fe	-0.03240203
121	0xbe5483af	-0.20753358
122	0xbdf16a60	-0.117878675
123	0x3e604c6a	0.2190415
124	0x3f603e4c	0.8759506
125	0x3d6b50d6	0.057450138
126	0xbe1ca143	-0.15295891
127	0x3e3dcc9b	0.18535082

encoder_lstm.weight_ih_l1 f4 [128, 32]
0	0x3e997dc1	0.29978755
1	0xbca8dff8	-0.02061461
2	0x3e862407	0.26199362
3	0xbe84b4c0	-0.2591915
4	0x3ecad1b1	0.39613107
5	0x3e50b031	0.20379712
6	0xbe888329	-0.26662567
7	0x3e8541e2	0.26026827
8	0x3d8483f1	0.06470478
9	0x3e2228e0	0.15835905
10	0x3e03c5bd	0.128684
11	0xbd0813c0	-0.03322196
12	0xbd81a62c	-0.06330523
13	0xbf2cb006	-0.6745609
14	0x3dee4ebd	0.11636112
15	0x39df5cc2	0.00042602984
16	0x3d2c41b2	0.04205484
17	0xbe5c8865	-0.21536405
18	0xbe87c48f	-0.2651715
19	0x3d7d9752	0.06191189
20	0x3e709432	0.23494032
21	0x3e934672	0.28764683
22	0x3df885ef	0.12134921
23	0x3d8273d2	0.06369747
24	0x3eb62a58	0.3557918
25	0x3e98ec2b	0.29867682
26	0x3efe870a	0.49712402
27	0xbf12449c	-0.5713594
28	0x3ed39f7f	0.41332623
29	0xbe1642e8	-0.1467396
30	0xbdedc83b	-0.116104566
31	0xbe1c719c	-0.15277714
32	0x3e75bfa9	0.23998894
33	0xbe8cad55	-0.27475992
34	0xbbf57314	-0.007490525
35	0x3cdf9783	0.027293926
36	0x3eef5660	0.46745586
37	0xbeb33b25	-0.3500606
38	0xbec4d454	-0.38443244
39	0x3ea90aec	0.33016145
40	0xbe21c2e0	-0.15796995
41	0xbe497f89	-0.19677557
42	0x3e440497	0.19142376
43	0x3d9d7464	0.076882154
44	0x3e477066	0.1947647
45	0x3d9f6d2d	0.077844955
46	0xbe10308c	-0.14081019
47	0xbc8490f2	-0.016182397
48	0xbe18c96a	-0.14920583
49	0xbed12652	-0.4084955
50	0x3d09c896	0.03363856
51	0xbe04d31b	-0.12971155
52	0x3ea0be1c	0.31395042
53	0xbe99103c	-0.29895198
54	0x3c86009b	0.01635771
55	0xbd8c96dc	-0.06864712
56	0x3f03707f	0.5134353
57	0xbeead4f4	-0.45865595
58	0xbdfba4ce	-0.122872934
59	0x3c7ba08e	0.015358103
60	0x3e733cfd	0.23753734
61	0xbda6bcc4	-0.08141473
62	0xbf3f6e58	-0.74777746
63	0x3e97db66	0.29659575
64	0xbdbbdffa	-0.091735795
65	0x3e78d612	0.24300411
66	0x3ce1389e	0.027492817
67	0x3f34ebd1	0.7067233
68	0x3ce46de7	0.027884437
69	0x3f31329f	0.69217867
70	0x3ed09041	0.40735057
71	0x3ef8383e	0.4848041
72	0x3db3222f	0.087467544
73	0x3da09e89	0.07842738
74	0xbd3e4510	-0.046452582
75	0x3e50f7cc	0.20407027
76	0x3dae685d	0.085159995
77	0xbd72f5aa	-0.059316315
78	0x3e9d70d9	0.30750158
79	0x3d123ded	0.03570359
80	0x3d2b1667	0.04176941
81	0x3df25ef3	0.118345164
82	0xbc9cbac9	-0.019132035
83	0x3e26c892	0.16287449
84	0x3e035f48	0.12829316
85	0xbe95bea1	-0.29247
86	0xbdc0a8cb	-0.09407195
87	0xbe882c6c	-0.2659639
88	0xbe3da352	-0.18519333
89	0xbcb170db	-0.021660259
90	0xbe372bbe	-0.1788778
91	0x3f236b8e	0.6383599
92	0x3ca47d99	0.02007942
93	0xbedce972	-0.43146855
94	0xbd5b3720	-0.05351937
95	0x3e5dfa9e	0.21677634
96	0x3d531e5e	0.051542632
97	0x3f26b369	0.6511751
98	0xbe776161	-0.24158241
99	0xbe68596f	-0.22690366
100	0x3eef5925	0.467477
101	0xbeb7eb1b	-0.3592156
102	0xbedb843a	-0.42874318
103	0xbd940b9f	-0.07228779
104	0xbe49439b	-0.19654696
105	0xbd8fbcf5	-0.070184626
106	0x3ef33b41	0.47506145
107	0x3d90ed14	0.07076469
108	0x3f0a813d	0.5410345
109	0xbd730fa5	-0.05934109
110	0x3ea4c92c	0.32184732
111	0xbe17a14b	-0.14807622
112	0xbe4ca4d8	-0.19984758
113	0xbe0156d1	-0.12630774
114	0x3e58b9dd	0.21164651
115	0xbeb06840	-0.34454536
116	0x3e9230b7	0.2855279
117	0xbdd9374e	-0.10606252
118	0x3e0a61d3	0.1351388
119	0x3e5a3e1e	0.21312758
120	0x3e5bfc56	0.21482977
121	0x3e157640	0.1459589
122	0xbe6f7f5f	-0.23388432
123	0x3e85d2c1	0.26137355
124	0x3f1222d6	0.57084405
125	0xbeb987a1	-0.3623629
126	0x3e1cf8e3	0.15329318
127	0x3e15cdf3	0.14629345
128	0xbe1fc7de	-0.15603587
129	0x3e5baee7	0.21453439
130	0xbecf7adc	-0.40523422
131	0xbbe9f1db	-0.007139427
132	0x3e28cb20	0.16483736
133	0xbd72404c	-0.05914335
134	0xbdc79e0e	-0.097469434
135	0xbe876b30	-0.26448965
136	0xbf7691b1	-0.9631606
137	0xbd51d1f3	-0.051225614
138	0x3e401d46	0.18761167
139	0xbe67ed3f	-0.22649096
140	0xbe991fd8	-0.29907107
141	0x3d9145d4	0.07093397
142	0x3d62ffae	0.055419616
143	0x3deb83ee	0.11499773
144	0xbe569797	-0.20956264
145	0x3e9d3fc1	0.30712703
146	0x3eafd834	0.34344637
147	0xbe1bbbf1	-0.15208413
148	0xbebff39d	-0.3749055
149	0xbf0234eb	-0.50861996
150	0xbe8943b8	-0.26809478
151	0x3dd396fc	0.10331532
152	0xbe54b1aa	-0.20770898
153	0x3e98eed2	0.29869705
154	0xbea030ab	-0.3128713
155	0x3db9017e	0.09033488
156	0x3ee89dbb	0.4543284
157	0xbed514df	-0.41617486
158	0x3dfef135	0.1244835
159	0x3ebce8dc	0.36896408
160	0xbdec1cc0	-0.11528921
161	0xbcd7a3a6	-0.02632315
162	0xbe3f7ecc	-0.18700713
163	0x3cad9127	0.021187378
164	0x3da5a5f5	0.080882944
165	0xbd6a6e1f	-0.057233926
166	0x3d4a07fa	0.049324013
167	0xbe223d52	-0.15843704
168	0xbdc3d7e8	-0.09562665
169	0xbe0acfb6	-0.13555798
170	0x3c25a3ab	0.010109822
171	0xbe31e2c8	-0.17371666
172	0xbd19e0ae	-0.037567787
173	0xbde66fe3	-0.112518094
174	0xbdf3cc86	-0.11904244
175	0x3eac0fe9	0.33605888
176	0xbe228f47	-0.15874968
177	0x3efa3bb2	0.4887367
178	0x3ecaed78	0.396343
179	0x3eaff278	0.34364676
180	0xbdea239b	-0.114325725
181	0xbe41ad90	-0.18913865
182	0x3cbd4c90	0.023107797
183	0x3e1d6448	0.15370286
184	0xbe6c7939	-0.23093118
185	0x3e1a4330	0.15064692
186	0x3de10b04	0.10988429
187	0x3e60fff3	0.21972637
188	0xbdfdb881	-0.12388707
189	0x3d926747	0.07148605
190	0x3c926fb7	0.017875535
191	0xbd00d024	-0.0314485
192	0xbde7c9e9	-0.11317808
193	0xbd4443e3	-0.047916304
194	0xbee104c2	-0.43948942
195	0x3f1fea43	0.6246683
196	0xbf02be9f	-0.51072115
197	0x3f152479	0.5825878
198	0xbdac20aa	-0.08404668
199	0x3de5876c	0.1120747
200	0xbb8aca7a	-0.004235563
201	0xbdb60e2b	-0.08889421
202	0x3e69a11a	0.22815362
203	0x3df23d89	0.11828143
204	0x3dde5309	0.108556814
205	0x3dc377b9	0.0954432
206	0xbcd4a278	-0.025956377
207	0xbd9f74a3	-0.077859186
208	0x3e11be42	0.14232734
209	0xbe4bd398	-0.19904935
210	0xbe4a09f7	-0.19730364
211	0x3e858ed8	0.26085544
212	0x3e2143ab	0.1574847
213	0xbe216116	-0.15759692
214	0xbe4f9754	-0.20272571
215	0x3e746ad0	0.2386887
216	0x3c514d95	0.012774845
217	0xbbfe6080	-0.0077629685
218	0x3dd115d2	0.1020924
219	0xbe35fd85	-0.17772491
220	0xbe8d31f0	-0.27577162
221	0x3ee7dbce	0.45284885
222	0x3e1e0603	0.15431981
223	0xbf18611a	-0.59523165
224	0x3d139c19	0.03603754
225	0x3dbce642	0.09223606
226	0xbdc384c7	-0.0954681
227	0x3daebf49	0.085325785
228	0x3dd04fd1	0.10171474
229	0x3e10d003	0.1414185
230	0x3f3079a5	0.68935615
231	0x3f27b39d	0.65508443
232	0xbeaa8fc7	-0.33312818
233	0xbe90aed8	-0.28258395
234	0xbe2f04ff	-0.1709175
235	0xbc04a164	-0.008095119
236	0x3e214021	0.1574712
237	0xbd9bcac3	-0.07607033
238	0xbc768f9b	-0.015048887
239	0xbdf299f5	-0.11845771
240	0x3ea008c1	0.3125668
241	0xbe41b600	-0.18917084
242	0xbebd873f	-0.37017247
243	0x3e4599d1	0.19296958
244	0x3e46145e	0.19343707
245	0x3df9fc74	0.12206355
246	0x3e4ac174	0.19800359
247	0xbf2526af	-0.6451215
248	0x3ee3bff1	0.44482377
249	0xbeaeb5c1	-0.34123042
250	0xbc03497f	-0.008013128
251	0xbc886176	-0.016648035
252	0x3e8d09f2	0.2754665
253	0x3d40f3ef	0.047107633
254	0xbca93d11	-0.020659002
255	0x3bdcd330	0.0067390427

encoder_lstm.weight_hh_l1 f4 [128, 32]
0	0xbcd2f7b2	-0.025752876
1	0xbe6da03b	-0.23205654
2	0xbe3d687d	-0.1849689
3	0xbd857a8a	-0.06517513
4	0xbe4d12f1	-0.20026757
5	0x3cab6d2f	0.020926086
6	0x3db45a5f	0.088062994
7	0xbd25e327	-0.040499832
8	0x3d6c68e4	0.05771722
9	0xbd490bc5	-0.04908349
10	0x3e83b31f	0.25722596
11	0x3e84ec85	0.259617
12	0xbda565d7	-0.08076065
13	0xbe9a96c3	-0.30193147
14	0x3e16290e	0.14664099
15	0xbdf9ead9	-0.12202997
16	0xbf1237bf	-0.5711631
17	0x3e43910f	0.19098304
18	0xbe7c9f3a	-0.24670115
19	0x3e8af004	0.27136242
20	0x3d95af80	0.073088646
21	0xbe5671bf	-0.20941828
22	0xbd764e6e	-0.06013339
23	0x3ea89734	0.3292786
24	0x3d80d141	0.06289912
25	0xbe30f769	-0.1728188
26	0x3e3acf1e	0.18243071
27	0x3e9523ca	0.29128867
28	0xbe3a5115	-0.18194993
29	0x3e533b39	0.2062806
30	0x3b5d23ff	0.003374338
31	0xbe8f5e4e	-0.28001636
32	0x3d3806b1	0.044928256
33	0xbe64d8fb	-0.22348396
34	0x3e3eca2b	0.18631808
35	0xbd0142ae	-0.03155773
36	0xbe8fdfd6	-0.2810046
37	0x3edc651c	0.4304589
38	0xbdf7170e	-0.12064944
39	0xbe5cecee	-0.21574757
40	0x3dc8c8ae	0.098039016
41	0xbd9b8cee	-0.075952396
42	0xbe143088	-0.14471638
43	0x3d974fd3	0.07388272
44	0x3c7cee11	0.015437619
45	0x3cb54dcd	0.022131825
46	0x3ddb60a1	0.1071179
47	0xbddc6599	-0.10761566
48	0x3e6fa011	0.23400904
49	0x3d8b8ce3	0.068139814
50	0xbe3c46c2	-0.18386367
51	0x3e8e7422	0.27822977
52	0x3d90b0e6	0.07064991
53	0xbd5a143a	-0.053241946
54	0x3e8316c0	0.25603294
55	0x3d9eb21b	0.07748815
56	0xbe624605	-0.22097023
57	0x3e85b738	0.26116347
58	0x3e4d3e0f	0.20043205
59	0x3e754324	0.23951393
60	0xbdb8b861	-0.090195425
61	0xbd923930	-0.07139814
62	0x3e81f5f2	0.25382954
63	0x3e1d3fdc	0.15356392
64	0xbdf26dfa	-0.118373826
65	0x3de8211b	0.11334439
66	0xbeaba39d	-0.33523265
67	0xbe49c82f	-0.1970527
68	0xbe96236d	-0.29323903
69	0x3e568ec3	0.20952897
70	0xbc5270cd	-0.012844277
71	0xbd1e0a7e	-0.038584225
72	0x3e8d020c	0.27540624
73	0x3e27d310	0.16389108
74	0x3dc01050	0.09378111
75	0xbe4aab2c	-0.1979186
76	0xbcd3188a	-0.025768537
77	0x3df9b262	0.12192227
78	0x3dca24a6	0.098702714
79	0x3e9dd070	0.30823088
80	0x3ece967c	0.40349185
81	0xbe5a2205	-0.2130204
82	0x3e2a8a0a	0.1665422
83	0xbdad6f40	-0.08468485
84	0x3e3b3e20	0.18285418
85	0xbe0ac4bc	-0.1355161
86	0x3d9fdca3	0.07805755
87	0x3dc64f0e	0.09683047
88	0xbd9b8c07	-0.075950675
89	0x3e7fe066	0.24987945
90	0x3e8586ee	0.26079506
91	0x3d0262ad	0.031832386
92	0x3e19fdb6	0.1503819
93	0xbc8c8485	-0.017153034
94	0xbd314140	-0.043275118
95	0xbcab2204	-0.020890243
96	0x3d2c3f93	0.042052817
97	0x3e442191	0.1915343
98	0x3e193a62	0.14963678
99	0xbe7b5282	-0.24543193
100	0x3e78c49b	0.24293749
101	0xbee9a4dc	-0.4563359
102	0xbdc67b83	-0.09691527
103	0xbe9758f4	-0.29560053
104	0x3e9bcdb0	0.30430365
105	0xbe29dc86	-0.1658803
106	0xbd7ea9e4	-0.06217374
107	0xbd93d67b	-0.07218643
108	0x3d942346	0.072332904
109	0x3e094ea7	0.1340891
110	0x3e0cb4d3	0.13740854
111	0xbd7c75f7	-0.061635938
112	0xbccabb86	-0.024747621
113	0x3c2d0ef1	0.010562644
114	0xbe786b65	-0.24259718
115	0xbdae80d2	-0.08520664
116	0x3e25380a	0.16134658
117	0x3e6af0ab	0.2294337
118	0x3bc238cb	0.0059271804
119	0x3e8f662c	0.28007638
120	0x3e9f78db	0.31146893
121	0x3cad2514	0.021135844
122	0x3e478361	0.19483711
123	0xbda0bbda	-0.0784833
124	0x3dc06759	0.09394712
125	0xbd6dbded	-0.058042455
126	0x3d5069c9	0.050882135
127	0x3e3dd733	0.18539123
128	0xbe9e938d	-0.30971947
129	0xbed46e91	-0.41490605
130	0xbe9e4a66	-0.30916137
131	0x3e559093	0.20855932
132	0xbd93eacf	-0.072225206
133	0xbdf19473	-0.117958926
134	0xbd8ea4ff	-0.06965064
135	0xbe892d4d	-0.26792374
136	0xbc16d033	-0.009204912
137	0xbe6a00d7	-0.22851883
138	0xbe163132	-0.14667204
139	0xbec23912	-0.37934166
140	0xbd0a3963	-0.033746134
141	0x3efff5af	0.4999213
142	0x3d87415b	0.066042624
143	0x3e88c0d6	0.26709622
144	0x3f35b99d	0.7098635
145	0x3e91c73d	0.2847232
146	0xbc957d77	-0.018248303
147	0xbeb2f06a	-0.34949046
148	0xbdeecd86	-0.11660294
149	0xbe4fe838	-0.20303428
150	0xbe8d9132	-0.27649838
151	0x3d08aa7f	0.033365723
152	0xbd8524d7	-0.06501167
153	0x3dc5a5db	0.09650775
154	0xbe040a48	-0.12894547
155	0xbd1582f5	-0.036501843
156	0xbd95b785	-0.07310394
157	0xbc29bf5a	-0.010360563
158	0xbba7ae82	-0.0051172385
159	0x3e0a8995	0.13529046
160	0xbe01ee42	-0.12688544
161	0xbe1e76bd	-0.15474983
162	0xbe4c1925	-0.19931467
163	0xbe7269f2	-0.23673227
164	0x3e1382bf	0.14405344
165	0xbd4e9860	-0.050438285
166	0xbe8a9bf5	-0.2707211
167	0x3f12a778	0.5728679
168	0x3ecf9b5c	0.40548217
169	0x3e7a158a	0.24422279
170	0x3e839d53	0.25705966
171	0xbd8b4278	-0.06799787
172	0x3dd9a062	0.10626294
173	0x3c451122	0.012028011
174	0xbd31b368	-0.043383986
175	0xbe056e95	-0.13030465
176	0x3e6e0518	0.2324413
177	0xbebb73d5	-0.3661181
178	0xbcf38111	-0.02972463
179	0xbea14a41	-0.31501964
180	0xbd3c00d5	-0.04589923
181	0x3db64411	0.088997014
182	0xbe9179c6	-0.28413218
183	0xbe3031a5	-0.17206438
184	0x3db3f70d	0.087873556
185	0x3eaf1ada	0.34200174
186	0x3e647c56	0.22313055
187	0xbeaa5d94	-0.3327452
188	0xbd5d5da0	-0.054044366
189	0xbe2e4501	-0.1701851
190	0xbf179a32	-0.5921966
191	0xbc2aa297	-0.010414741
192	0x3e82ff6d	0.255855
193	0xbe6d81d8	-0.23194063
194	0xbe8842cd	-0.26613465
195	0xbe75f231	-0.2401817
196	0xbed41a5b	-0.41426358
197	0x3ee142af	0.43996188
198	0x3dbda025	0.09259061
199	0x3e64bbc9	0.2233726
200	0xbecf82f6	-0.40529603
201	0xbe9cf0fa	-0.306526
202	0x3e7b7f8e	0.24560377
203	0xbd0cba97	-0.034357633
204	0x3ea80c8a	0.32822067
205	0xbdf26bf0	-0.11836994
206	0x3c8ae6e7	0.016955806
207	0xbe2bfe2c	-0.16796178
208	0xbe5bf554	-0.21480304
209	0xbe169d90	-0.14708543
210	0x3d412f6a	0.04716436
211	0xbcf5aa1c	-0.029988341
212	0x3da5ccd8	0.080957115
213	0x3e886a28	0.2664349
214	0x3e8f0096	0.27930135
215	0xbd344fda	-0.044021465
216	0x3cfd004a	0.030883927
217	0xbbbfd732	-0.0058545107
218	0xbe8fd29c	-0.2809037
219	0x3e4fbd74	0.20287114
220	0x3f07c9db	0.5304238
221	0xbea6e0ba	-0.32593328
222	0x3eb124a7	0.34598276
223	0x3c1303f3	0.00897311
224	0xbe62d727	-0.22152387
225	0xbdcf314f	-0.10116827
226	0xbf0359ba	-0.51308787
227	0x3e2d0c31	0.16899182
228	0xbf1bb65b	-0.6082513
229	0x3ead7979	0.3388174
230	0x3db7320d	0.08945093
231	0xbeb15c55	-0.34640756
232	0xbf0d1d0f	-0.55122465
233	0x3e7e2b89	0.24821295
234	0x3dc920af	0.09820687
235	0xbd044d8c	-0.032300517
236	0x3e934ecc	0.28771055
237	0xbee2eb4c	-0.44320142
238	0x3d6e02b6	0.058108054
239	0x3f02fea8	0.51169825
240	0xbd917b56	-0.071036026
241	0x3e67e036	0.22644123
242	0x3e860ebf	0.26183125
243	0x3e923405	0.28555313
244	0x3e3e2289	0.18567862
245	0xbd14c66d	-0.036322046
246	0x3e62fe3d	0.22167297
247	0xbe694d7b	-0.22783463
248	0x3e75b5cc	0.23995131
249	0x3d164fdb	0.03669725
250	0x3d621fe5	0.0552062
251	0x3e1a5f8b	0.15075509
252	0xbf1bc81e	-0.6085223
253	0x3e7597e2	0.2398372
254	0x3f47e04b	0.7807662
255	0xbe653d6b	-0.2238671
