W3-Design/checkpoints/epoch_11.pt (torch, 384725 bytes, 24 tensors)

encoder_cnn.0.weight f4 [32, 3, 3]
-0.17648691 -0.053488173 -0.21963517 0.2631928 -0.23806739 0.20159093 0.16094397 0.19609359
0.16598673 0.027875721 0.050185688 -0.027511407 -0.03801617 -0.07267875 0.18071541 -0.05297889
0.3591352 0.034760214 0.09413798 0.2471679 0.48980805 0.17068613 0.28014883 -0.30645037
-0.16395245 0.10374932 -0.08769504 0.020726701 0.18397251 -0.15959434 -0.067103826 -0.029894607
-0.06348615 0.07872718 0.16805707 -0.09447191 -0.09617322 0.12758794 -0.061595663 0.459987
-0.10289028 0.37480992 0.026203088 0.12304854 -0.3439956 -0.014988317 -0.0988899 0.31073138
-0.21109562 -0.1747453 0.09697939 0.2839931 0.33849365 -0.21266606 -0.08360259 -0.09003946
0.239549 0.18468025 0.12734231 -0.1165743 -0.020794213 0.14455737 -0.27497774 0.10045202
-0.10064457 0.2529163 0.33988413 -0.23279476 -0.37876642 0.01812413 -0.0063978718 0.43128994
0.048418846 0.16754337 -0.07380966 -0.08343822 -0.26566473 0.38582876 -0.28620228 0.24727806
-0.0005004661 -0.014091157 0.28607893 -0.14644933 0.3029286 0.02449653 -0.22537993 0.14520596
0.16351661 0.05932497 -0.08741799 0.0098427655 0.07573445 0.2645851 -0.29757768 -0.31127548
-0.24019636 0.13889821 -0.09603935 -0.030166298 0.040796664 0.2660132 0.016012438 0.2785264
-0.0033211145 -0.28357974 -0.35595655 0.01241691 -0.1567016 0.22141187 0.14135472 -0.104188435
-0.38510787 -0.46585464 0.37920752 -0.035069115 -0.22232378 0.10772148 -0.120195925 0.21674202
0.015290588 -0.29983634 -0.21344382 -0.11840874 -0.27089506 -0.2544553 -0.1781938 -0.23351353
-0.1435289 0.30588993 -0.0588738 -0.23236436 0.115031 0.16996758 -0.14748955 0.44517705
0.23866698 -0.08951601 -0.34926966 0.07667988 -0.14501894 -0.37234977 -0.020534169 -0.043480553
0.18849412 -0.18499105 -0.2971579 0.13406935 -0.07520664 -0.1235676 0.16810012 -0.17429976
0.133936 0.118345745 0.33640048 0.06804501 0.1735852 -0.42584425 0.24809495 -0.13842747
-0.383017 -0.11663222 0.24463527 0.18544498 -0.15908426 -0.1827946 -0.48440972 -0.16257286
0.109445065 -0.25998357 -0.07259196 -0.12827553 0.1426595 0.10588724 -0.1990443 -0.35271618
0.16109152 -0.27972198 0.038214266 0.1718942 -0.09342098 -0.116726965 -0.09798732 -0.101971805
0.29356897 0.104163535 0.24392626 0.21134335 -0.14004244 0.3984726 -0.075588904 -0.07592113
-0.13645989 0.24361855 0.071329124 -0.11833062 -0.42765066 -0.31767055 0.07716945 -0.44101158
0.06765655 0.075434804 0.16667315 -0.08908332 -0.04648238 -0.14325905 -0.22469395 0.15580986
-0.23987202 -0.18905373 -0.13687769 0.027682222 -0.04739914 0.092031665 0.19539687 0.26568344
0.06947108 0.15201935 -0.007921131 0.16418844 0.08315712 -0.13654533 -0.039222687 0.0049918713
0.09645897 0.3393241 0.069685966 0.4017366 0.22950281 0.22666112 -0.011446978 -0.27473396
0.08441326 0.36565623 -0.44657972 -0.051954564 -0.18175718 0.32443392 0.15635921 -0.20688011
0.30985805 -0.019489275 -0.12586226 -0.23821132 -0.033157136 -0.09141864 -0.13482128 -0.113286786
0.21399094 -0.16755243 0.29544067 0.08602715 0.31144205 -0.032054845 -0.003797056 -0.072968066
00000000: fcb8 34be 6a16 5bbd 0be8 60be 35c1 863e
00000010: f0c7 73be da6d 4e3e 7fce 243e c2cc 483e
00000020: 6df8 293e a05b e43c 828f 4d3d 9a5f e1bc
00000030: d8b6 1bbd 99d8 94bd 760d 393e 6400 59bd
00000040: 92e0 b73e ba60 0e3d 6acb c03d 9519 7d3e
00000050: 1fc8 fa3e 58c8 2e3e ab6f 8f3e 10e7 9cbe
00000060: 27e3 27be 867a d43d 7599 b3bd 0bcb a93c
00000070: 4a63 3c3e b36c 23be bb6d 89bd 89e5 f4bc
00000080: 0705 82bd b73b a13d 2717 2c3e 7d7a c1bd
00000090: 77f6 c4bd 6aa6 023e bc4b 7cbd 6b83 eb3e
000000a0: 24b8 d2bd 16e7 bf3e dca7 d63c df00 fc3d
000000b0: 3120 b0be 8f91 75bc ca86 cabd 2f18 9f3e
000000c0: 7329 58be 6ff0 32be 219d c63d 8b67 913e
000000d0: 0a4f ad3e 22c5 59be d637 abbd 9c66 b8bd
000000e0: 554c 753e d21c 3d3e 0666 023e 82be eebd
000000f0: a058 aabc d906 143e e2c9 8cbe cab9 cd3d
00000100: be1e cebd 3f7e 813e 4b05 ae3e c061 6ebe
00000110: aced c1be 0e79 943c 3da5 d1bb 09d2 dc3e
00000120: d752 463d 7d90 2b3e 8529 97bd a8e1 aabd
00000130: 3505 88be 598b c53e 1b89 92be 7636 7d3e
00000140: b631 03ba 99de 66bc f078 923e d0f6 15be
00000150: 7519 9b3e f2ac c83c ffc9 66be dfb0 143e
00000160: e670 273e bdfe 723d 3408 b3bd 8d43 213c
00000170: aa1a 9b3d b377 873e 1a5c 98be 805f 9fbe
00000180: 09f6 75be 553b 0e3e 47b0 c4bd 501f f7bc
00000190: 671a 273d e232 883e 842c 833c 039b 8e3e
000001a0: 0ea7 59bb 5d31 91be f03f b6be 4c70 4b3c
000001b0: 6276 20be cbb9 623e 4bbf 103e bf60 d5bd
000001c0: dc2c c5be 8084 eebe 7d27 c23e a2a4 0fbd
000001d0: d8a8 63be 149d dc3d 4829 f6bd 9ff1 5d3e
000001e0: 6085 7a3c 2684 99be 0491 5abe 4880 f2bd
000001f0: c2b2 8abe f747 82be 6f78 36be 2c1e 6fbe
00000200: 3df9 12be 9b9d 9c3e a725 71bd ecf0 6dbe
00000210: 5f95 eb3d fb0b 2e3e 8007 17be 3fee e33e
00000220: 1e65 743e 2b54 b7bd 79d3 b2be 570a 9d3d
00000230: d87f 14be a1a4 bebe 4637 a8bc aa18 32bd
00000240: 9a04 413e 4b6e 3dbe 1525 98be 7a49 093e
00000250: f005 9abd 0311 fdbd 7022 2c3e a37b 32be
00000260: 8526 093e 415f f23d af3c ac3e 2f5b 8b3d
00000270: 52c0 313e 4208 dabe 9a0c 7e3e eebf 0dbe
00000280: ce1a c4be e0dc eebd ab81 7a3e 4ae5 3d3e
00000290: fce6 22be 822e 3bbe 8d04 f8be 8079 26be
000002a0: bc24 e03d 911c 85be 18ab 94bd a95a 03be
000002b0: 5515 123e 69db d83d 45d2 4bbe 3797 b4be
000002c0: 2df5 243e b837 8fbe 9086 1c3d 0805 303e
000002d0: 8053 bfbd 8c0e efbd 93ad c8bd 98d6 d0bd
000002e0: ac4e 963e b153 d53d cec7 793e 646a 583e
000002f0: 4967 0fbe 9a04 cc3e 5bce 9abd 8a7c 9bbd
00000300: 24bc 0bbe 2477 793e 0115 923d 5357 f2bd
00000310: 07f5 dabe b7a5 a2be 040b 9e3d 45cc e1be
00000320: 848f 8a3d 907d 9a3d 5eac 2a3e 5171 b6bd
00000330: 4f64 3ebd 80b2 12be 2c16 66be 9f8c 1f3e
00000340: 03a1 75be 4d97 41be aa29 0cbe d4c5 e23c
00000350: 9a25 42bd 197b bc3d 1e16 483e a907 883e
00000360: db46 8e3d f6aa 1b3e a2c7 01bc 0421 283e
00000370: 484e aa3d 8ad2 0bbe f8a7 20bd da92 a33b
00000380: 488c c53d e3bb ad3e 84b7 8e3d 6bb0 cd3e
00000390: c902 6b3e da19 683e 1b8c 3bbc eea9 8cbe
000003a0: dce0 ac3d 4b37 bb3e 19a6 e4be 4fce 54bd
000003b0: 8e1e 3abe 341c a63e a11c 203e 61d8 53be
000003c0: b7a5 9e3e f9a7 9fbc 09e2 00be abed 73be
000003d0: c7cf 07bd b239 bbbd 970e 0abe e702 e8bd
000003e0: 7120 5b3e dd92 2bbe 0044 973e 012f b03d
000003f0: 5575 9f3e f14b 03bd 07d8 78bb 4870 95bd

encoder_cnn.0.bias f4 [32]
-0.17975873 -0.13362044 0.86794657 -0.9984423 -0.13872631 -0.06366087 -0.72513765 -0.20596702
-0.051701043 -0.3153846 0.09981334 -0.007518079 0.25169462 -0.22929823 -0.57695174 0.40704882
-0.50714517 0.30035046 0.3035109 -0.4675113 -0.56021976 0.5401152 0.07418379 -0.50994825
-0.30259413 0.14503896 -0.5701007 -0.5882434 -0.56783277 -0.18198189 -0.40932417 0.056451596
00000000: ac12 38be ccd3 08be bf31 5e3f ea99 7fbf
00000010: 450e 0ebe a160 82bd 9fa2 39bf 05e9 52be
00000020: 79c4 53bd 177a a1be f06a cc3d 385a f6bb
00000030: 1ede 803e 28cd 6abe 1cb3 13bf b468 d03e
00000040: 44d4 01bf 89c7 993e c865 9b3e a45d efbe
00000050: 906a 0fbf fd44 0a3f aced 973d f88b 02bf
00000060: 9eed 9abe 1885 143e 1ff2 11bf 1f97 16bf
00000070: 7d5d 11bf 7659 3abe f092 d1be ca39 673d

encoder_cnn.2.weight f4 [64, 32, 3]
-0.10225454 0.124775566 0.13044165 0.04886494 0.049168788 0.17623542 0.15666066 0.13839774
0.035221543 0.14366792 -0.26530752 0.1201352 0.12922975 0.13369402 0.0017117003 -0.12076101
0.015464333 -0.10155881 0.38673636 0.16887361 0.30907044 -0.117459424 -0.09350371 -0.13514045
0.14166173 -0.105438836 0.06219666 0.15770951 0.015539009 0.29713655 0.019935139 0.14712635
0.07286109 0.030536855 -0.028184157 -0.15359096 0.04692886 -0.05259753 -0.027412953 0.17460862
0.1753917 0.14381795 0.22105128 0.03879394 0.1842081 0.10213365 0.067722596 -0.044072356
0.2569527 0.2502501 0.23588827 0.054625545 -0.043361932 -0.08855237 -0.09307373 -0.089671716
-0.07289069 0.018510243 -0.0037802747 0.099105045 0.09251209 -0.056898925 0.19513488 -0.022906475
-0.0487179 -0.113556795 0.2724251 0.113424696 0.17601952 -0.0068887123 -0.0024882397 0.10973047
0.14578553 -0.20051107 0.16102932 0.019472493 0.16724546 -0.12622294 -0.020082084 0.12818165
0.05925725 0.1968548 0.06795589 0.05456379 -0.1664743 -0.3887284 -0.22523436 0.12380664
-0.11537279 0.19129331 0.27048355 0.090824544 0.18986225 0.100544736 0.049625304 0.07220951
-0.08094809 -0.013345773 0.07498447 -0.08125367 -0.0597663 -0.027858453 -0.49966037 -0.23986332
-0.1858747 -0.06428742 0.029288992 -0.09094834 -0.3175043 -0.28851962 -0.2161124 -0.040371895
-0.0077549247 0.06899597 0.05872972 -0.12752867 -0.19030361 -0.24164775 0.077787034 0.009582893
0.12732741 -0.17336996 -0.030868009 0.024143502 0.03748863 -0.015361794 -0.03159646 -0.057184637
-0.05544694 -0.34266135 -0.18003842 -0.47384766 0.0065659895 -0.003935259 -0.030588875 -0.018255228
0.03176068 0.054525953 -0.14330569 -0.07843025 -0.17170078 -0.13714321 -0.06597005 -0.13449962
-0.16796465 0.029348608 -0.07680683 -0.29365852 -0.3304579 -0.33571765 0.017692734 0.042753533
0.057162788 0.12399894 0.086042285 0.08752052 -0.02986094 -0.009508518 -0.02993864 -0.27085787
-0.25185984 -0.24711724 -0.021258537 -0.11111155 -0.10810596 0.01269419 -0.067729086 -0.0074528065
-0.032541443 0.05323128 0.049789593 -0.24908864 0.039251883 0.066687405 -0.089221366 -0.077410735
-0.21904823 -0.19722602 -0.08355773 -0.080847435 -0.14453639 -0.061036192 0.07611605 -0.010738587
-0.10538167 -0.01036504 -0.13576777 -0.10946194 -0.1781464 -0.16695134 -0.16758792 -0.18964013
0.3192679 0.26599517 0.111861005 0.14403573 0.2975193 -0.09638856 -0.15593497 -0.16830349
-0.134673 0.12781069 -0.08421773 -0.103554465 -0.18037648 -0.3552689 -0.7880822 -0.13478705
0.42099068 -0.099125326 -0.068364695 0.11738722 0.09106699 -0.038173664 0.28627068 -0.20397861
0.11254307 -0.23557188 -0.11765208 0.25456873 -0.040531296 -0.09562945 -0.001314693 0.1733885
0.02825205 -0.1519049 0.023928357 -0.3060812 -0.22946343 -0.067458205 0.041168317 -0.3734022
-0.20951453 -0.18583517 0.41327366 0.14954005 -0.09466205 0.102812245 -0.09819158 -0.42959005
0.2813329 0.17372836 -0.1896046 -0.022829808 -0.13509244 -0.41097182 -0.38375148 -0.29648402
-0.004303328 -0.27049866 0.05696702 0.114369296 0.30375034 0.26179016 -0.05306519 -0.15862562
00000000: d46a d1bd 558a ff3d 7f92 053e 9a26 483d
00000010: 3665 493d 0f77 343e a76b 203e 23b8 0d3e
00000020: 7744 103d af1d 133e 63d6 87be 7209 f63d
00000030: ce54 043e 16e7 083e 225b e03a 8c51 f7bd
00000040: 1d5e 7d3c 11fe cfbd 4f02 c63e 34ed 2c3e
00000050: 7b3e 9e3e 918e f0bd e07e bfbd 4262 0abe
00000060: c60f 113e 51f0 d7bd edc1 7e3d 9a7e 213e
00000070: 5497 7e3c 4822 983e 044f a33c 4aa8 163e
00000080: 3238 953d 6d28 fa3c 76e2 e6bc f346 1dbe
00000090: 7a38 403d 8270 57bd 2191 e0bc 9acc 323e
000000a0: e299 333e 0345 133e 445b 623e 65e6 1e3d
000000b0: 0ca1 3c3e 722b d13d 25b2 8a3d 3785 34bd
000000c0: 4e8f 833e c820 803e b28c 713e 09bf 5f3d
000000d0: 489c 31bd f25a b5bd 719d bebd cea5 b7bd
000000e0: b747 95bd cba2 973c 7cbe 77bb 96f7 ca3d
000000f0: fb76 bd3d d90e 69bd 70d1 473e 5ca6 bbbc
00000100: 6c8c 47bd 7790 e8bd 4d7b 8b3e 354b e83d
00000110: 763e 343e b5ba e1bb bc11 23bb 5eba e03d
00000120: cd48 153e c652 4dbe dfe4 243e c784 9f3c
00000130: 6542 2b3e 9640 01be 2f83 a4bc 0d42 033e
00000140: bbb7 723d 4e94 493e 752c 8b3d 487e 5f3d
00000150: 3d78 2abe 6907 c7be d6a3 66be 568e fd3d
00000160: 9248 ecbd 65e2 433e d27c 8a3e 3802 ba3d
00000170: 406b 423e 66ea cd3d e743 4b3d 94e2 933d
00000180: 1dc8 a5bd 3ba8 5abc 7591 993d 5368 a6bd
00000190: 82cd 74bd 6937 e4bc 7cd3 ffbe bb9e 75be
000001a0: f055 3ebe 1fa9 83bd 78ef ef3c 2043 babd
000001b0: ec8f a2be d8b8 93be 924c 5dbe 005d 25bd
000001c0: 061d febb c24d 8d3d 938e 703d e096 02be
000001d0: f3de 42be 8272 77be cf4e 9f3d 9101 1d3c
000001e0: 1e62 023e e587 31be e8de fcbc 98c8 c53c
000001f0: ad8d 193d 09b0 7bbc 4a6b 01bd 703a 6abd
00000200: 551c 63bd 4f71 afbe fe5b 38be 299c f2be
00000210: 8327 d73b 58f3 80bb 8595 fabc fd8b 95bc
00000220: 7d17 023d 9b56 5f3d babe 12be 0aa0 a0bd
00000230: 54d2 2fbe 456f 0cbe 4e1b 87bd 45ba 09be
00000240: edfe 2bbe 7e6c f03c e64c 9dbd 695a 96be
00000250: c731 a9be 2fe3 abbe 5af0 903c 541e 2f3d
00000260: 8723 6a3d 28f3 fd3d f036 b03d f53d b33d
00000270: ee9e f4bc 9dc9 1bbc e141 f5bc e2ad 8abe
00000280: c6f3 80be 4d0c 7dbe 6226 aebc 748e e3bd
00000290: a866 ddbd 4bfb 4f3c 8cb5 8abd ac36 f4bb
000002a0: 2d4a 05bd 0b09 5a3d 2cf0 4b3d 1811 7fbe
000002b0: 95c6 203d 6893 883d b1b9 b6bd 8589 9ebd
000002c0: 2e4e 60be 9ef5 49be 5120 abbd 5793 a5bd
000002d0: 5901 14be 1601 7abd bbe2 9b3d e6f0 2fbc
000002e0: 58d2 d7bd 21d2 29bc b506 0bbe 952d e0bd
000002f0: 036c 36be 4bf5 2abe 2b9c 2bbe 0631 42be
00000300: 1577 a33e 8530 883e 6217 e53d 1a7e 133e
00000310: 7354 983e 5e67 c5bd 6bad 1fbe c057 2cbe
00000320: b8e7 09be cee0 023e 587a acbd 5d14 d4bd
00000330: 9db4 38be cee5 b5be c1bf 49bf 9e05 0abe
00000340: 178c d73e 3802 cbbd ca02 8cbd b668 f03d
00000350: 5481 ba3d fd5b 1cbd 1292 923e c5df 50be
00000360: fb7c e63d c139 71be 93f3 f0bd d556 823e
00000370: 2504 26bd 60d9 c3bd c751 acba c18c 313e
00000380: d870 e73c f58c 1bbe 6705 c43c adb6 9cbe
00000390: 76f8 6abe 8727 8abd 1ca0 283d 932e bfbe
000003a0: fa8a 56be 934b 3ebe 9b98 d33e 0721 193e
000003b0: 2dde c1bd 3a8f d23d ab18 c9bd 3af3 dbbe
000003c0: de0a 903e d9e5 313e b527 42be 9405 bbbc
000003d0: ac55 0abe e66a d2be 137b c4be c1cc 97be
000003e0: ef02 8dbb cd7e 8abe 4056 693d 733a ea3d
000003f0: 2a85 9b3e 5c09 863e e25a 59bd c16e 22be

encoder_cnn.2.bias f4 [64]
0.06628495 -0.12504913 -0.063287005 0.030361978 0.0223825 0.07267052 -0.18105225 -0.06662635
-0.1573239 -0.015841922 0.2086434 -0.15145229 0.07657773 -0.0930824 -0.07858243 -0.09441837
0.12415693 -0.08495858 -0.082584016 -0.08807326 -0.1433138 -0.018377325 0.041999158 0.2810444
-0.22072902 0.110759854 -0.24298365 -0.09297866 0.097262636 -0.114612535 -0.03443086 -0.34312138
-0.11859328 0.13026078 0.32931277 -0.068585075 -0.16487932 -0.30039448 0.14250612 0.0012813142
-0.1718204 -0.34054238 0.12074712 -0.08222996 0.011233971 -0.42812237 -0.30589116 -0.16602808
-0.1837751 0.2858669 -0.26168695 -0.27221462 -0.27798074 -0.057016592 -0.09681657 0.030081384
-0.05599258 -0.16897972 -0.10962221 -0.1274687 -0.31665725 0.23666479 -0.290368 -0.21965772
00000000: 67c0 873d e10c 00be 9e9c 81bd afb9 f83c
00000010: 815b b73c 48d4 943d c365 39be 6573 88bd
00000020: 8419 21be ebc6 81bc 9ea6 553e 4f16 1bbe
00000030: c9d4 9c3d fca1 bebd d3ef a0bd 6b5e c1bd
00000040: fd45 fe3d c4fe adbd cf21 a9bd c15f b4bd
00000050: dac0 12be 0b8c 96bc 4f07 2c3d 0de5 8f3e
00000060: ca06 62be 10d6 e23d b5d0 78be 986b bebd
00000070: a231 c73d fab9 eabd 6007 0dbd 9bad afbe
00000080: 09e1 f2bd 1563 053e af9b a83e 5576 8cbd
00000090: 20d6 28be 4ecd 99be 20ed 113e c5f1 a73a
000000a0: b0f1 2fbe 925b aebe 444a f73d 2e68 a8bd
000000b0: b10e 383c db32 dbbe c49d 9cbe 4403 2abe
000000c0: 8a2f 3cbe 255d 923e d5fb 85be b75f 8bbe
000000d0: 7e53 8ebe 3b8a 69bd c447 c6bd 3c6d f63c
000000e0: 7a58 65bd 0509 2dbe 9c81 e0bd 2887 02be
000000f0: e620 a2be 4158 723e 1dab 94be f4ed 60be

encoder_lstm.weight_ih_l0 f4 [128, 64]
0.3315968 0.0490344 0.07557574 0.02991815 0.24724957 0.22290657 -0.08943938 0.19409695
0.29041737 0.05314254 0.15616007 -0.187449 0.19541326 -0.1430401 -0.09332553 0.28174165
0.18358822 -0.154427 -0.07345735 0.013117651 -0.012494525 0.20881802 0.35636002 -0.18624483
0.10573501 0.116425484 -0.36478367 0.09965926 0.027112743 -0.10007091 0.18477033 0.14861485
0.09659877 0.22890754 -0.14942172 -0.005732151 -0.016710782 -0.08037839 0.08115488 -0.1267303
0.062782675 0.12810051 0.16015795 0.09709616 -0.036020774 -0.0039853086 -0.11781962 0.22978234
0.292455 0.15748788 0.11341078 -0.016266735 0.18654433 -0.03750516 -0.12927327 0.10608353
-0.0017946119 -0.24675621 -0.09201982 -0.041934397 -0.00045665927 0.26640207 -0.088685974 -0.110379554
-0.12551437 -0.042772695 -0.1511273 -0.065310515 0.028251221 -0.2372918 0.09730895 0.15355498
0.11760458 0.15695657 -0.027758429 -0.14990517 0.12559214 -0.025916956 0.077069685 0.12710278
0.28007844 0.17870188 -0.2168296 -0.047977455 0.2068002 -0.10090898 -0.19722062 0.048527747
0.12588485 -0.30826044 0.23429216 0.1548537 0.10772177 -0.056806516 -0.19757655 0.08661244
0.07965164 0.1399294 -0.23118931 -0.0781327 -0.20478387 -0.095215045 0.24822558 0.0024865607
-0.02658772 0.10604109 0.15608713 -0.15330327 0.3533107 0.013310943 0.404069 -0.0314255
-0.046213616 -0.07204761 -0.13176167 0.118822634 -0.16495173 -0.06816646 0.16123804 0.11474124
0.057387203 0.028988991 0.10538346 -0.15218738 0.15679246 -0.13429755 -0.4279353 -0.18891847
0.043213844 -0.06362771 0.17957313 -0.1272364 0.19390829 0.07327886 0.25078005 0.055556428
-0.06615755 0.14087275 0.17859179 0.07393679 -0.20373955 -0.12133311 0.053236645 0.08293734
0.056786463 0.020112133 -0.053387478 0.20810066 0.11486839 0.0867574 0.19038463 -0.014915617
0.0444974 -0.06678191 0.14231409 -0.10680972 0.014040223 0.12460541 -0.23115022 -0.0048394823
-0.09671548 0.008139472 -0.15602316 0.064003125 0.28235278 -0.009411322 -0.049519792 0.021706657
0.32253787 0.15348834 -0.11112531 0.0007935525 0.28621978 -0.7460112 0.06502991 -0.11613478
0.018838027 0.16261002 0.26145747 0.16473643 -0.094315894 -0.041799854 0.10454419 0.008867312
0.0032974968 0.0060621975 0.008757309 -0.030889785 -0.1181227 -0.11052972 0.0904115 -0.089756995
-0.24861518 0.25879303 0.121709935 0.21351312 -0.009209604 -0.10109224 0.0017759359 -0.12222239
-0.022839569 0.037610188 -0.07891913 0.6604659 0.32761604 -0.17202324 0.009035696 0.078448966
-0.40650386 0.15331258 0.0053013046 0.110386565 0.014767049 0.48224863 0.47672415 0.03824908
0.22759637 -0.15765616 -0.05795534 0.14268088 -0.0528219 0.09884635 -0.25389507 0.087580346
-0.23031375 -0.2981922 0.074622735 0.063507676 0.043730427 -0.3192923 -0.16182911 0.07454513
0.16860142 0.1947242 0.00661597 0.38957646 0.018232917 0.3844592 0.17960583 0.068417326
-0.034325235 0.3088192 0.027274327 0.22189197 0.16786939 0.028360404 -0.03783761 -0.11772196
0.0737123 0.17197752 0.30058762 -0.08809124 -0.13525017 -0.083348006 -0.42867103 -0.22179733
00000000: 0ec7 a93e 4cd8 483d 74c7 9a3d e816 f53c
00000010: fe2e 7d3e 9f41 643e fe2b b7bd 5ac1 463e
00000020: 96b1 943e feab 593d 6de8 1f3e a1f2 3fbe
00000030: 6a1a 483e 1b79 12be 7521 bfbd 7140 903e
00000040: 8dfe 3b3e 1d22 1ebe cf70 96bd 6beb 563c
00000050: d6b5 4cbc 64d4 553e d274 b63e f7b6 3ebe
00000060: 998b d83d 7c70 ee3d edc4 babe 271a cc3d
00000070: 8b1b de3c faf1 ccbd 6f34 3d3e 7e2e 183e
00000080: 93d5 c53d bd66 6a3e 0202 19be c5d4 bbbb
00000090: 0de5 88bc 6d9d a4bd 8834 a63d 96c5 01be
000000a0: 3494 803d c82c 033e 7200 243e 5ada c63d
000000b0: 858a 13bd 3197 82bb 6a4b f1bd 104c 6b3e
000000c0: a9bc 953e 8144 213e e943 e83d d141 85bc
000000d0: 7a05 3f3e 039f 19bd 3660 04be 5242 d93d
000000e0: 2f39 ebba a9ad 7cbe e374 bcbd 67c3 2bbd
000000f0: c56b efb9 da65 883e fea0 b5bd ad0e e2bd
00000100: d786 00be 6c32 2fbd 1dc1 1abe 85c1 85bd
00000110: 1b6f e73c 9ffc 72be ea49 c73d 843d 1d3e
00000120: acda f03d 39b9 203e a565 e3bc be80 19be
00000130: 3a9b 003e cc4f d4bc b6d6 9d3d 3b27 023e
00000140: 7166 8f3e a0fd 363e 9408 5ebe 0284 44bd
00000150: 6ec3 533e 5ea9 cebd 34f4 49be 08c5 463d
00000160: f5e7 003e 50d4 9dbe 49ea 6f3e f891 1e3e
00000170: 3b9d dc3d f3ad 68bd 8251 4abe dd61 b13d
00000180: 6620 a33d a749 0f3e e4bc 6cbe 0904 a0bd
00000190: ddb2 51be 1b00 c3bd d92e 7e3e 91f5 223b
000001a0: 7dce d9bc 122c d93d 4ed5 1f3e 88fb 1cbe
000001b0: 24e5 b43e 2416 5a3c 22e2 ce3e 06b8 00bd
000001c0: 7d4a 3dbd b38d 93bd 88ec 06be 4859 f33d
000001d0: 1be9 28be db9a 8bbd 961b 253e 75fd ea3d
000001e0: d80e 6b3d 527a ed3c 49d3 d73d 02d7 1bbe
000001f0: 348e 203e 4c85 09be 561a dbbe d873 41be
00000200: 0001 313d 3f4f 82bd 05e2 373e 424a 02be
00000210: e58f 463e 3a13 963d 3e66 803e 238f 633d
00000220: 9c7d 87bd f240 103e c4e0 363e 2c6c 973d
00000230: 1aa1 50be 7e7d f8bd ab0e 5a3d 0ddb a93d
00000240: ec98 683d 33c2 a43c d4ac 5abd 5718 553e
00000250: 1e40 eb3d ddad b13d 30f4 423e a260 74bc
00000260: e842 363d f4c4 88bd c9ba 113e 0ebf dabd
00000270: f708 663c 1f31 ff3d a5b2 6cbe 8594 9ebb
00000280: c412 c6bd 6c5b 053c 89c4 1fbe 1214 833d
00000290: 8b90 903e f231 1abc 44d5 4abd 29d2 b13c
000002a0: af23 a53e 0c2c 1d3e ab95 e3bd 6806 503a
000002b0: 668b 923e 97fa 3ebf 672e 853d 12d8 edbd
000002c0: 3552 9a3c 3e83 263e c1dd 853e abb0 283e
000002d0: b128 c1bd 5336 2bbd 441b d63d 3448 113c
000002e0: d11a 583b 66a5 c63b d17a 0f3c 930c fdbc
000002f0: 50ea f1bd 685d e2bd aa29 b93d 84d2 b7bd
00000300: fa94 7ebe 8580 843e 0f43 f93d 2fa3 5a3e
00000310: e1e3 16bc 7309 cfbd 85c6 e83a bb4f fabd
00000320: 0c1a bbbc 240d 1a3d 5aa0 a1bd 4b14 293f
00000330: 4abd a73e dc26 30be 750a 143c daa9 a03d
00000340: 4621 d0be f9fd 1c3e 91b6 ad3b 5a12 e23d
00000350: 7ef1 713c 4be9 f63e 3015 f43e 11ab 1c3d
00000360: 060f 693e 9e70 21be 9462 6dbd f01a 123e
00000370: c75b 58bd f56f ca3d 89fe 81be 535d b33d
00000380: 5ed7 6bbe a6ac 98be ced3 983d 5010 823d
00000390: ad1e 333d 487a a3be 88b6 25be 1eab 983d
000003a0: daa5 2c3e c865 473e c7ca d83b 9176 c73e
000003b0: 335d 953c d6d7 c43e 97ea 373e 621e 8c3d
000003c0: 9e98 0cbd 8d1d 9e3e 696e df3c a637 633e
000003d0: f4e5 2b3e 1454 e83c 9cfb 1abd 3618 f1bd
000003e0: 79f6 963d e01a 303e 9fe6 993e 2e69 b4bd
000003f0: 057f 0abe 5cb2 aabd c57a dbbe d71e 63be

encoder_lstm.weight_hh_l0 f4 [128, 32]
0.09030249 0.06956249 -0.07553876 0.5833196 0.053395294 0.17295794 0.061167233 -0.08622593
-0.056085262 0.29835725 -0.023688596 -0.16808578 -0.15054949 -0.07163685 -0.13082573 -0.4606218
-0.11282659 -0.3313345 0.22920597 -0.047853358 0.31905824 0.12258906 0.30477458 -0.039058223
-0.26017773 -0.8326606 -0.1474496 -0.2454116 -0.016469436 0.15555197 -0.26046267 -0.31562912
-0.089281976 0.14164524 -0.48550528 0.34433976 0.15126583 -0.14858559 0.08748292 -0.21872441
0.31334275 -0.06277431 0.029641934 0.09757663 0.2326887 0.5271674 0.21976082 0.17571974
-0.16152313 0.20604546 0.2507315 -0.11172731 -0.044714317 0.043493733 -0.0008507012 -0.06361844
0.009349196 0.06726335 0.13421693 -0.10704734 0.12772155 -0.22551122 -0.09039998 0.07155521
-0.24023992 0.356089 -0.22768928 -0.2520565 0.051622063 -0.10042855 0.13355917 0.35433573
0.30711988 -0.01041794 -0.25823268 0.22780897 0.13952279 0.2898474 -0.18924306 0.21065927
-0.0323016 0.42347297 -0.3529029 0.022854429 -0.018642744 -0.47236335 -0.03353576 -0.16520382
0.20668052 0.19089864 -0.62665325 0.08915343 0.01762654 -0.21074197 -0.3839243 0.06481547
-0.18722944 -0.2322044 -0.1525996 0.3531658 -0.06674249 -0.2178574 -0.29614496 0.5484666
-0.3548842 -0.18574145 -0.20582536 -0.07775863 0.122196876 0.056279387 -0.14717112 -0.0770083
0.44716868 0.12222274 -0.0937863 -0.4015948 0.044843316 -0.5695565 -0.44318175 -0.30870584
0.6584306 0.13243032 -0.75655484 -0.09427271 0.007615485 0.4404673 0.26474246 -0.22857666
0.4811222 -0.12017606 0.11733508 0.40041873 0.19652162 -0.32116473 -0.08369083 0.056378298
0.25509408 -0.05758054 0.15694948 0.56988126 -0.3174452 -0.057930566 0.35710096 -0.113725565
0.21160924 -0.087496325 0.14486538 -0.28904188 0.2659618 0.22382914 -0.24203424 0.0044110077
0.097724445 0.2693172 0.031766422 -0.14750685 0.48816863 0.02219355 0.04204121 -0.1253571
0.022424564 -0.027056511 0.3036548 0.0016283592 0.24162114 0.091524996 -0.11720181 0.04394522
0.20981386 -0.07688537 0.26044402 -0.049686518 0.46973222 0.0742674 0.29527968 -0.031179527
0.08036338 -0.028402645 -0.20136464 0.26929677 0.09823406 0.20013262 0.22641361 0.3168963
-0.034361266 0.07739023 0.25507107 -0.0967774 0.17634322 0.067528576 0.12887318 -0.10761405
0.10952933 -0.27437577 0.52943957 0.082155615 0.16860355 -0.27912992 0.5078117 -0.09401814
-0.19013914 0.35064843 -0.028687313 -0.5702589 0.22392051 0.38671827 -0.004537847 -0.449914
-0.19276446 -0.50472826 0.23588917 -0.14544551 -0.04608179 0.30396482 0.3029545 -0.14556126
0.09817456 -0.14005727 0.084207706 -0.18034902 0.067487925 0.058812007 -0.1383981 0.21068932
-0.084737815 0.024202133 -0.026794191 -0.053548623 0.060091704 -0.0482132 0.017516384 0.4605258
-0.19469358 -0.22736633 0.097152 -0.10165633 -0.1531058 0.17254293 0.046249934 -0.038379926
0.26599377 0.0074172975 -0.22335997 0.20447133 0.1419671 -0.31582603 0.120950855 0.040425375
0.2544737 -0.09805545 0.13680877 -0.40618703 0.12161322 -0.17761801 0.2429367 -0.26503575
00000000: 83f0 b83d c776 8e3d 11b4 9abd 6f54 153f
00000010: 06b5 5a3d e31b 313e 7e8a 7a3d 3897 b0bd
00000020: a9b9 65bd 48c2 983e 960e c2bc ae1e 2cbe
00000030: a529 1abe 57b6 92bd 2ef7 05be 9fd6 ebbe
00000040: a111 e7bd ada4 a9be f8b4 6a3e e201 44bd
00000050: 9a5b a33e f90f fb3d 6a0b 9c3e 84fb 1fbd
00000060: 0436 85be 3f29 55bf 07fd 16be 2e4d 7bbe
00000070: e9ea 86bc 0449 1f3e 5d5b 85be 249a a1be
00000080: 78d9 b6bd 730b 113e 2694 f8be 4d4d b03e
00000090: 6ee5 1a3e d226 18be 3f2a b33d 4bf9 5fbe
000000a0: 766e a03e d18f 80bd a4d3 f23c 42d6 c73d
000000b0: f245 6e3e 71f4 063f fb08 613e e0ef 333e
000000c0: 5266 25be 95fd 523e e15f 803e 4ad1 e4bd
000000d0: 5c26 37bd 7c26 323d 9701 5fba 624a 82bd
000000e0: 5f2d 193c 5ec1 893d 2a70 093e a33b dbbd
000000f0: 70c9 023e 6aec 66be a023 b9bd 8a8b 923d
00000100: 7401 76be 4c51 b63e 6127 69be 8d0d 81be
00000110: a871 533d 7cad cdbd bcc3 083e 7e6b b53e
00000120: d13e 9d3e 02b0 2abc 1337 84be c146 693e
00000130: 10df 0e3e e166 943e efc8 41be 10b7 573e
00000140: af4e 04bd 73d1 d83e b0af b4be 3639 bb3c
00000150: abb8 98bc 9cd9 f1be cb5c 09bd 312b 29be
00000160: 0fa4 533e ef7a 433e 596c 20bf 1396 b63d
00000170: 8965 903c becc 57be ba91 c4be f9bd 843d
00000180: 13b9 3fbe fdc6 6dbe 1243 1cbe 26d2 b43e
00000190: 49b0 88bd 0316 5fbe 50a0 97be 4f68 0c3f
000001a0: 62b3 b5be 0233 3ebe e2c3 52be eb3f 9fbd
000001b0: 5b42 fa3d 3785 663d 07b4 16be 87b6 9dbd
000001c0: 4bf3 e43e ea4f fa3d 0813 c0bd d59d cdbe
000001d0: a0ad 373d 74ce 11bf b8e8 e2be b10e 9ebe
000001e0: e88e 283f d09b 073e 94ad 41bf 0d12 c1bd
000001f0: 528b f93b ee84 e13e 538c 873e 0010 6abe
00000200: a655 f63e de1e f6bd 604d f03d af03 cd3e
00000210: f73c 493e b46f a4be 1966 abbd eeec 663d
00000220: b19b 823e 93d9 6bbd 5db7 203e bde3 113f
00000230: 2d88 a2be 9a48 6dbd f0d5 b63e f3e8 e8bd
00000240: 18b0 583e 4631 b3bd 9757 143e 4cfd 93be
00000250: 252c 883e 7733 653e d3d7 77be 378a 903b
00000260: c123 c83d f2e3 893e 821d 023d 090c 17be
00000270: 3df1 f93e 3fcf b53c 6733 2c3d 9d5d 00be
00000280: b8b3 b73c 9ea5 ddbc a478 9b3e ab6e d53a
00000290: 886b 773e 7571 bb3d 8107 f0bd e7ff 333d
000002a0: 72d9 563e 1476 9dbd eb58 853e 1784 4bbd
000002b0: be80 f03e 8219 983d e62e 973e 356c ffbc
000002c0: 8e95 a43d aaac e8bc 8832 4ebe 44e1 893e
000002d0: f02e c93d 91ef 4c3e f8d8 673e 3b40 a23e
000002e0: 66be 0cbd c57e 9e3d ad98 823e 3b33 c6bd
000002f0: 5193 343e 6c4c 8a3d 55f7 033e c164 dcbd
00000300: ea50 e03d fb7a 8cbe 5a89 073f 3441 a83d
00000310: 69a6 2c3e 1eea 8ebe f3ff 013f 958c c0bd
00000320: d6b3 42be 3188 b33e a801 ebbc 7dfc 11bf
00000330: 6b4b 653e f0ff c53e 38b2 94bb 215b e6be
00000340: 0c64 45be df35 01bf ee8c 713e abef 14be
00000350: 42c0 3cbd 47a1 9b3e da1c 9b3e 030e 15be
00000360: be0f c93d 2c6b 0fbe 1775 ac3d 6aad 38be
00000370: 1c37 8a3d dce4 703d 3bb8 0dbe f1be 573e
00000380: 058b adbd 8d43 c63c 7e7f dbbc cd55 5bbd
00000390: b822 763d 347b 45bd 857e 8f3c 0aca eb3e
000003a0: c15d 47be b8d2 68be a1f7 c63d 3231 d0bd
000003b0: c4c7 1cbe 18af 303e 9270 3d3d 4534 1dbd
000003c0: 5630 883e cd0c f33b 7ab8 64be ef60 513e
000003d0: d35f 113e f3b3 a1be 15b5 f73d 1495 253d
000003e0: 604a 823e 4cd1 c8bd 9917 0c3e bff7 cfbe
000003f0: 5a10 f93d 7fe1 35be 66c4 783e c4b2 87be

encoder_lstm.bias_ih_l0 f4 [128]
-0.12240928 0.07565752 0.025199303 -0.076358266 0.08507999 0.36353612 0.02990077 0.16069062
-0.28832346 0.00025029771 -0.0035374379 -0.017904071 -0.19070874 -0.1269221 -0.087272435 0.009924848
-0.028203286 0.16075458 -0.11888539 -0.14403214 -0.004990026 0.1039832 -0.07617185 0.31033722
0.41025534 -0.08457557 -0.0779275 -0.094823 0.16801147 0.06243547 0.012509584 -0.019895218
0.37389055 0.023965899 -0.35303265 -0.0030787718 0.2678637 0.07021712 0.3427715 0.037745062
0.03347276 -0.2321033 0.34835815 -0.14188956 0.048746932 -0.23031549 0.1131834 -0.17076354
0.06733953 -0.019745164 0.22295997 0.12529284 -0.05086764 -0.017125683 -0.1958761 0.19753769
-0.07528241 -0.24057582 0.09508948 -0.17815013 -0.09781352 0.29546162 0.12423776 0.46123827
-0.14061995 0.24719541 -0.279095 0.21949947 0.26328847 -0.3589368 -0.29195654 -0.36280486
-0.0802537 0.07642136 -0.116829045 0.067388155 -0.5458843 -0.31504822 0.11769208 -0.1716116
0.07763346 0.15081136 0.3639191 -0.0067917416 -0.047986712 0.09680514 -0.13820094 0.23188989
-0.19385278 0.26578087 -0.016628718 -0.21976927 0.31355914 -0.03331456 0.13140365 -0.2626579
0.09252302 -0.113472134 -0.39859256 0.06639721 0.21689993 0.096750945 0.14840898 0.32060546
-0.043205794 -0.0010703177 0.37509525 -0.05778454 -0.28435123 -0.13468607 0.20301715 -0.22075509
0.004451483 0.14528868 0.18145725 -0.2990513 -0.09706268 -0.09117483 -0.24726368 0.28236863
-0.30929866 0.027546095 -0.18955597 0.12560649 0.6544654 -0.06406562 -0.2891192 0.23279785
00000000: b7b1 fabd 54f2 9a3d c56e ce3c b961 9cbd
00000010: 6b3e ae3d 6821 ba3e 76f2 f43c 158c 243e
00000020: 229f 93be 643a 8339 5cd4 67bb 8fab 92bc
00000030: 2749 43be def7 01be e4bb b2bd d49b 223c
00000040: 940a e7bc d99c 243e 2f7a f3bd 297d 13be
00000050: 5f83 a3bb 25f5 d43d fdff 9bbd 85e4 9e3e
00000060: fd0c d23e f535 adbd 7498 9fbd 9032 c2bd
00000070: 330b 2c3e 56bc 7f3d 00f5 4c3c 4cfb a2bc
00000080: 956e bf3e 2254 c43c b2c0 b4be 38c5 49bb
00000090: 6e25 893e fecd 8f3d bf7f af3e 919a 1a3d
000000a0: bc1a 093d 7dac 6dbe 005c b23e 7f4b 11be
000000b0: ddaa 473d d3d7 6bbe b3cc e73d a3dc 2ebe
000000c0: 4fe9 893d 9cc0 a1bc 9e4f 643e c44c 003e
000000d0: 965a 50bd 294b 8cbc bf93 48be 5247 4a3e
000000e0: aa2d 9abd 8259 76be 46be c23d fd6c 36be
000000f0: 7452 c8bd bf46 973e 5e70 fe3d 6c27 ec3e
00000100: adfe 0fbe cb20 7d3e 8ae5 8ebe 78c4 603e
00000110: bfcd 863e 90c6 b7be 547b 95be 8fc1 b9be
00000120: 0d5c a4bd cd82 9c3d 1144 efbd cd02 8a3d
00000130: 13bf 0bbf 004e a1be 8c08 f13d f4ba 2fbe
00000140: 4bfe 9e3d 4b6e 1a3e 9b53 ba3e 428d debb
00000150: b78d 44bd c641 c63d 8c84 0dbe 8b74 6d3e
00000160: 5881 46be 6e14 883e f338 88bc 320b 61be
00000170: d38a a03e d974 08bd ae8e 063e 197b 86be
00000180: b67c bd3d 1464 e8bd 5314 ccbe 43fb 873d
00000190: 041b 5e3e 5c25 c63d 86f8 173e 6626 a43e
000001a0: 8ff8 30bd e749 8cba 7c0c c03e 7baf 6cbd
000001b0: 7c96 91be 25eb 09be bae3 4f3e 9f0d 62be
000001c0: bfdd 913b 8ec6 143e eecf 393e 411d 99be
000001d0: ccc8 c6bd dfb9 babd b132 7dbe 9f92 903e
000001e0: 655c 9ebe 59a8 e13c f61a 42be fd9e 003e
000001f0: 0b8b 273f d634 83bd 6f07 94be 8f62 6e3e

encoder_lstm.bias_hh_l0 f4 [128]
0.119988196 -0.09374893 -0.059862886 -0.09864418 0.13308138 0.08923693 0.27313495 0.029005323
-0.024060206 -0.071662694 -0.08023288 -0.2112589 -0.26724395 0.04109938 -0.17783475 0.036193438
-0.16138522 0.12530236 -0.17320757 -0.22939509 -0.13333546 0.07369152 -0.07392034 0.21001303
0.32532418 0.17435774 -0.2587218 -0.08274941 0.32699513 -0.16102865 -0.22278343 0.24424191
0.26832598 0.17030409 -0.379053 -0.13104795 0.09366151 0.036707766 0.21112657 0.0054404438
0.21794096 -0.07062844 0.35331377 -0.16914287 0.1680768 -0.20965247 0.417119 -0.20742677
-0.15564701 -0.28876907 0.21756592 -0.012401597 -0.18395218 0.08113958 -0.24239334 0.19405697
0.018697295 -0.3406427 -0.057010647 -0.3851716 0.21967568 0.3960807 0.3178322 0.31816
0.07886145 0.090073764 -0.07116593 -0.051705755 0.023223286 -0.27416888 -0.28958374 -0.2976409
0.17883071 -0.021783235 0.011624226 0.1367024 -0.52896947 -0.09086647 0.2000291 -0.10668251
0.114367425 -0.07716615 0.42937723 -0.21655986 0.036476392 -0.104270615 -0.21215896 0.47305942
-0.26792634 0.1011745 -0.07456781 -0.16476698 0.30422375 -0.28763983 -0.19302304 -0.071135946
0.078939565 0.09132832 -0.22026768 0.26343608 0.18980001 0.24806581 0.22718473 0.21665448
-0.18133415 -0.1558031 0.16787717 0.13226779 0.025758758 -0.15819485 0.29364583 -0.117196254
-0.27342933 0.34962317 0.12144982 -0.11762626 -0.017594399 -0.02895164 -0.13367629 0.12752292
-0.20090044 0.05707539 -0.06583111 0.24747641 0.62218714 -0.07785795 -0.15669 0.24190328
00000000: 5fbc f53d 70ff bfbd c932 75bd f605 cabd
00000010: 7c46 083e dac1 b63d 58d8 8b3e 929c ed3c
00000020: e919 c5bc e4c3 92bd 2351 a4bd 4154 58be
00000030: 33d4 88be d357 283d 501a 36be 923f 143d
00000040: 2b42 25be 434f 003e 535d 31be 8ce6 6abe
00000050: 1789 08be 94eb 963d 8c63 97bd a80d 573e
00000060: e490 a63e d68a 323e 2f77 84be 8678 a9bd
00000070: e86b a73e b2e4 24be 5721 64be 8d1a 7a3e
00000080: 0662 893e 3264 2e3e 3c13 c2be 6f31 06be
00000090: 9bd1 bf3d e25a 163d 9031 583e c045 b23b
000000a0: ea2b 5f3e a5a5 90bd 8be5 b43e ca33 2dbe
000000b0: 531c 2c3e 23af 56be 9f90 d53e af67 54be
000000c0: ee61 1fbe 8ad9 93be 9ac9 5e3e 1130 4bbc
000000d0: f65d 3cbe 822c a63d f635 78be dfb6 463e
000000e0: 122b 993c b868 aebe ff83 69bd 3635 c5be
000000f0: a9f2 603e 17cb ca3e e7ba a23e dee5 a23e
00000100: 1d82 a13d 9878 b83d 71bf 91bd 6ac9 53bd
00000110: c33e be3c dd5f 8cbe 5244 94be 6364 98be
00000120: 661f 373e c172 b2bc 8a73 3e3c b7fb 0b3e
00000130: 8b6a 07bf 3318 babd 6ed4 4c3e 5c7c dabd
00000140: 7839 ea3d 4909 9ebd 55d7 db3e dec1 5dbe
00000150: 4568 153d d58b d5bd 3340 59be d834 f23e
00000160: a42d 89be 9434 cf3d 02b7 98bd adb8 28be
00000170: 37c3 9b3e 8745 93be d5a7 45be b9af 91bd
00000180: 11ab a13d 580a bb3d da8d 61be 18e1 863e
00000190: ef5a 423e f704 7e3e 1da3 683e acda 5d3e
000001a0: a9af 39be d98a 1fbe fee7 2b3e 3571 073e
000001b0: 0804 d33c d5fd 21be bf58 963e 9704 f0bd
000001c0: eefe 8bbe cf01 b33e afba f83d 09e6 f0bd
000001d0: 2122 90bc fd2b edbc 70e2 08be 5e95 023e
000001e0: d8b8 4dbe e2c7 693d 76d2 86bd 756a 7d3e
000001f0: a847 1f3f fd73 9fbd 5873 20be 7eb5 773e

encoder_lstm.weight_ih_l1 f4 [128, 32]
0.01102205 -0.09183602 0.09853665 -0.123243906 0.4167805 0.02991872 -0.33014295 0.34603202
-0.10683345 -0.08846634 0.24328178 -0.15962373 -0.07123684 -0.25052387 -0.0037988492 0.018622428
0.08074121 -0.21789883 -0.37345377 -0.015915405 0.16195807 0.09808322 -0.05275242 0.00321739
0.27769554 -0.1430987 0.3208077 -0.2697836 0.4502734 -0.2511823 -0.04803421 -0.07439999
0.1696614 0.0019166849 -0.104620166 0.1780902 0.403642 -0.26639625 -0.31559017 0.24719578
-0.09498287 -0.2164084 0.062000062 0.02071255 0.2456687 -0.038798936 -0.05157378 0.052974436
-0.14748916 -0.17737605 0.10107719 -0.12904167 0.17085615 -0.31794426 -0.06065943 0.10881714
0.24459405 -0.1637719 -0.17879361 0.010443909 0.29792893 -0.03514 -0.4252131 -0.014638935
-0.104380675 0.19586596 -0.07341003 0.40282503 0.23954849 0.44842774 0.25061294 0.40242165
-0.01792821 0.15773694 -0.014394184 -0.083348826 -0.21393092 -0.0784284 0.22070353 -0.07421772
-0.014973803 0.121295735 0.08806938 0.108009815 0.20438245 -0.4169566 -0.21594292 -0.27638268
-0.15832822 -0.095161185 -0.2737579 0.26986706 0.0062252637 -0.5451011 -0.17305307 0.18877833
0.011957866 0.2578472 -0.17178255 0.23465036 0.44157 -0.05504042 -0.11998988 0.07873065
-0.21826008 -0.030657122 0.24167152 -0.15298066 0.55855983 -0.119788475 0.19744 0.085414395
-0.22613971 0.12991142 0.051189948 -0.22110489 -0.00467701 -0.17652309 0.08200081 0.19350465
0.21587437 0.14023007 -0.16194665 0.26987433 0.49343055 -0.39522672 0.20136255 0.25894228
0.11363024 0.24332829 -0.048427396 0.025002047 0.2302081 0.03424717 -0.19294417 -0.33592406
-0.72595656 -0.22118115 0.30185091 -0.05078524 -0.04901338 -0.07866554 0.21461809 0.0044333325
-0.10043844 -0.016273264 0.055160575 0.14624664 -0.1986104 -0.19463399 -0.23511352 0.16037902
0.15907738 0.05115014 -0.14505897 0.043155715 0.09875957 -0.41118023 0.22517788 0.35648122
-0.04821289 0.13186805 -0.19840479 0.08036972 -0.033095986 0.12822263 0.17295478 0.027761778
-0.0898604 -0.35358617 -0.057414077 0.06691003 0.10458324 -0.05489296 -0.16186419 0.22963728
-0.03874635 0.25409633 0.34296745 0.15279274 -0.18370248 -0.14956057 0.020069996 0.03393906
-0.076036535 0.09873173 0.07018239 0.27663687 -0.24607736 0.11342148 -0.0071186135 0.10529191
0.21926263 0.17557864 -0.15946412 0.40016448 -0.092819825 0.21028125 -0.22155319 0.16214423
0.011014711 0.097789 0.22427817 0.090469584 -0.066183746 -0.027713485 0.08480674 -0.17667203
0.1635458 -0.2204627 -0.1511927 0.059430797 0.008995691 0.15292943 -0.043796025 0.22405067
-0.053422973 -0.060801312 0.17725854 -0.372446 0.06703403 0.08279438 0.2382332 -0.40618187
0.03791495 0.2812368 -0.033850625 0.32209092 0.17210604 0.2030427 0.2580973 0.22670834
-0.37159103 -0.111005194 -0.11009315 0.022555703 -0.044847474 -0.049534164 -0.05482567 -0.12505344
0.1339406 -0.17167817 -0.03132641 -0.07525341 -0.017053228 -0.026857512 -0.01341786 -0.24677823
0.21304497 0.020319805 -0.11936111 0.031611957 0.20170686 -0.14596435 0.3362719 0.15802784
00000000: d495 343c 8614 bcbd 95cd c93d 4d67 fcbd
00000010: 4164 d53e 1a18 f53c 7f08 a9be 1c2b b13e
00000020: 7fcb dabd d72d b5bd dc1e 793e 6774 23be
00000030: 9fe4 91bd aa44 80be 1df6 78bb 108e 983c
00000040: a65b a53d df20 5fbe 5535 bfbe 0661 82bc
00000050: 56d8 253e dbdf c83d ec12 58bd d9da 523b
00000060: 1c2e 8e3e 7788 12be e840 a43e 1321 8abe
00000070: 3c8a e63e f79a 80be 85bf 44bd 065f 98bd
00000080: b8bb 2d3e 4639 fb3a 1943 d6bd 475d 363e
00000090: 2aaa ce3e 1765 88be 0995 a1be e420 7d3e
000000a0: 6186 c2bd 2a9a 5dbe c7f3 7d3d 5ead a93c
000000b0: 9390 7b3e a2eb 1ebd 073f 53bd b9fb 583d
000000c0: 6607 17be 11a2 35be 8f01 cf3d 8023 04be
000000d0: eaf4 2e3e 97c9 a2be 0676 78bd 85db de3d
000000e0: dd76 7a3e d2b3 27be ac15 37be ee1c 2b3c
000000f0: 248a 983e f6ee 0fbd 88b5 d9be 25d8 6fbc
00000100: 89c5 d5bd 1691 483e ff57 96bd 153f ce3e
00000110: 334c 753e 5298 e53e 5750 803e 360a ce3e
00000120: 2ede 92bc cb85 213e 95d5 6bbc cab2 aabd
00000130: b510 5bbe 129f a0bd 1b00 623e 76ff 97bd
00000140: af54 75bc e669 f83d b85d b43d 4034 dd3d
00000150: a249 513e 567b d5be 2420 5dbe 0882 8dbe
00000160: cb20 22be dee3 c2bd ff29 8cbe 042c 8a3e
00000170: 4cfd cb3b bf8b 0bbf d334 31be 1b4f 413e
00000180: edea 433c 8c04 843e c4e7 2fbe 2f48 703e
00000190: 7715 e23e 1072 61bd 41bd f5bd 893d a13d
000001a0: 927f 5fbe a524 fbbc bd78 773e f6a6 1cbe
000001b0: c7fd 0e3f a953 f5bd b62d 4a3e beed ae3d
000001c0: 2b91 67be 8007 053e 8dac 513d 5269 62be
000001d0: 9a41 99bb 78c2 34be 0af0 a73d 1526 463e
000001e0: 2c0e 5d3e 7998 0f3e 58d5 25be f82c 8a3e
000001f0: eea2 fc3e 285b cabe fc31 4e3e 1594 843e
00000200: f9b6 e83d 0d2b 793e ce5b 46bd 18d1 cc3c
00000210: acbb 6b3e c346 0c3d 2893 45be 3dfe abbe
00000220: 4ad8 39bf 507d 62be 348c 9a3e 2f04 50bd
00000230: 41c2 48bd 661b a1bd d8c4 5b3e 7d45 913b
00000240: abb2 cdbd 824f 85bc 0ef0 613d aec1 153e
00000250: 8660 4bbe 224e 47be 99c1 70be 663a 243e
00000260: 2ee5 223e cf82 513d 578a 14be 0cc4 303d
00000270: 7542 ca3d 3786 d2be 0895 663e b584 b63e
00000280: e17a 45bd 6b08 073e a02a 4bbe e198 a43d
00000290: a88f 07bd cb4c 033e 0f1b 313e ab6c e33c
000002a0: bb08 b8bd 3f09 b5be 062b 6bbd 2008 893d
000002b0: bd2f d63d 71d7 60bd babf 25be 0926 6b3e
000002c0: 7eb4 1ebd ea18 823e 6e99 af3e b375 1c3e
000002d0: 811c 3cbe 6826 19be d569 a43c af03 0b3d
000002e0: 0bb9 9bbd dc33 ca3d c9bb 8f3d 59a3 8d3e
000002f0: b4fb 7bbe 8549 e83d 4243 e9bb 49a3 d73d
00000300: 6286 603e e3ca 333e 904a 23be 5ce2 cc3e
00000310: 5218 bebd f853 573e d7de 62be 2309 263e
00000320: 0c77 343c 9945 c83d 2da9 653e 1e48 b93d
00000330: 588b 87bd 6407 e3bc 28af ad3d 83e9 34be
00000340: 8d78 273e f9c0 61be 42d2 1abe b56d 733d
00000350: aa62 133c 8899 1c3e 7663 33bd 8a6d 653e
00000360: 0cd2 5abd cc0a 79bd 4383 353e 3eb1 bebe
00000370: 2349 893d 1a90 a93d 67f3 733e 12f7 cfbe
00000380: b54c 1b3d 45fe 8f3e f4a6 0abd 1ae9 a43e
00000390: 913c 303e 6dea 4f3e 5425 843e 3b26 683e
000003a0: 2e41 bebe b156 e3bd 8478 e1bd bdc6 b83c
000003b0: fcb1 37bd 56e4 4abd e290 60bd 020e 00be
000003c0: ba27 093e 67cc 2fbe 1f50 00bd 761e 9abd
000003d0: 36b3 8bbc 4904 dcbc 95d6 5bbc 6fb3 7cbe
000003e0: 7628 5a3e b875 a63c 9973 f4bd 8a7b 013d
000003f0: 3e8c 4e3e ae77 15be d52b ac3e 0dd2 213e

encoder_lstm.weight_hh_l1 f4 [128, 32]
-0.045999 -0.11182982 -0.22577123 -0.03943116 -0.23355955 0.09768992 0.080120556 -0.1817334
-0.10623944 0.12748997 0.2723687 0.20583944 -0.020849034 -0.16661824 0.20559444 -0.0891769
-0.2637054 0.23768902 -0.25617534 0.038185 0.08196413 -0.17879155 -0.043193217 0.096293874
0.07471447 -0.23509471 0.028599659 0.27065706 -0.18752751 0.1362152 0.090700835 -0.31661427
0.13942215 -0.1566232 0.095541485 -0.06261757 -0.19317767 0.2651988 -0.11924862 -0.03923191
0.05044804 -0.06688344 -0.07027217 0.11458243 0.005506776 0.010360266 0.14991452 -0.04369986
0.20461676 0.123784125 -0.19660817 0.08487968 -0.0029292256 0.087666355 0.04956873 -0.043242175
-0.08311915 0.2492185 0.047326375 0.21225056 0.07706182 -0.012979985 0.11712657 0.18937339
-0.19858009 -0.042197462 -0.19760178 -0.15786457 -0.27715892 0.12782346 -0.25249317 -0.044804145
0.27406746 0.08069785 0.18126647 -0.24003573 0.12420816 0.14336704 -0.15326853 0.391673
0.41470274 -0.061507966 0.10950254 -0.119894035 0.041341048 -0.039010916 0.12511261 -0.024912337
-0.08744224 0.16160442 0.06016315 -0.106404506 0.14283822 -0.14932251 -0.040948436 -0.052441698
-0.10890444 0.14127411 0.045073166 -0.20568216 0.16645046 -0.31518042 -0.1648539 -0.21355546
0.31471574 -0.15692939 -0.050518062 -0.120232135 0.079730965 0.21078417 0.27493316 -0.28422254
0.20305383 0.11458492 -0.14916825 -0.26133224 0.13005826 0.18243955 0.07841213 0.051936623
0.20283948 0.2178204 0.08772296 -0.22027878 -0.1729815 -0.1704575 -0.053617015 0.21106151
-0.15641221 -0.3637383 -0.14644526 0.08502921 -0.012705289 -0.23226662 -0.016293159 0.012921864
0.20970394 -0.041905712 -0.14730692 -0.2213078 -0.16880746 0.40205356 -0.05179529 0.045858175
0.55498916 -0.1544002 0.14650281 -0.21200949 -0.0022981346 -0.06610543 -0.19423491 0.12146969
-0.1414556 0.20235033 -0.035400078 -0.13171831 0.018769711 -0.14320298 0.011603475 0.17763834
-0.15557651 -0.17733814 -0.012804006 -0.10462768 0.041546904 -0.27137288 -0.3607195 0.3850712
0.38291204 0.31338364 0.018010737 -0.10380775 0.14724481 0.08643164 -0.06423577 0.059306588
0.3190546 -0.37919882 0.14747266 -0.08442408 -0.075199276 0.13883205 -0.049044125 0.012923459
-0.05152718 0.3282584 0.16399077 -0.35680503 -0.10929197 -0.08579198 -0.33106172 -0.031153062
0.2668022 -0.10194855 0.11738534 -0.19457528 -0.2814218 0.25802594 0.072721 0.10737591
-0.19448279 0.011103703 0.24338071 0.07235192 0.22229715 -0.019965457 -0.16784751 0.055547636
-0.1358097 -0.15933391 -0.08742393 0.15366986 0.068531096 0.35746664 0.14072737 -0.0820089
-0.3281392 0.077945545 -0.47500157 0.17213333 0.16904543 -0.16998905 0.28741586 0.09359944
-0.23703733 -0.1367238 -0.09786635 0.2230171 -0.22899164 0.2587149 0.035852075 -0.16145383
-0.12943242 -0.2441547 0.03679376 -0.19000773 0.051260017 -0.10596345 -0.03242249 0.05035282
0.013012571 0.05925932 0.014999864 0.25134382 0.014577331 -0.11088243 0.09516199 0.013173642
0.12895355 -6.6664055e-05 -0.054567706 -0.0694369 -0.24806157 0.23159623 0.21771932 -0.3477015
00000000: 7369 3cbd 0807 e5bd 9330 67be 9182 21bd
00000010: 3c2a 6fbe a711 c83d 3f16 a43d 5218 3abe
00000020: 1094 d9bd bb8c 023e e973 8b3e 93c7 523e
00000030: 98cb aabc f99d 2abe 5987 523e 61a2 b6bd
00000040: 6504 87be c064 733e 6a29 83be e067 1c3d
00000050: cfdc a73d 2215 37be 5feb 30bd b935 c53d
00000060: e603 993d abbc 70be d549 ea3c 9093 8a3e
00000070: 3607 40be ff7b 0b3e 5cc1 b93d 441b a2be
00000080: aec4 0e3e d561 20be 41ab c33d a43d 80bd
00000090: 5ed0 45be 23c8 873e 9f38 f4bd a4b1 20bd
000000a0: 9ba2 4e3d 2ffa 88bd dbea 8fbd 31aa ea3d
000000b0: 2f72 b43b 1bbe 293c 3183 193e a0fe 32bd
000000c0: 0e87 513e 8882 fd3d a753 49be 66d5 ad3d
000000d0: 40f8 3fbb 6b8a b33d 9508 4b3d b51e 31bd
000000e0: 5f3a aabd 2233 7f3e 4dd9 413d 3658 593e
000000f0: 96d2 9d3d 01aa 54bc 0ee0 ef3d 19eb 413e
00000100: 9458 4bbe 3fd7 2cbd 1f58 4abe 40a7 21be
00000110: c6e7 8dbe 27e4 023e c946 81be 8d84 37bd
00000120: 9252 8c3e ea44 a53d eb9d 393e edcb 75be
00000130: d960 fe3d cfce 123e 6df2 1cbe 5d89 c83e
00000140: eb53 d43e c7ef 7bbd de42 e03d 018b f5bd
00000150: 3b55 293d e9c9 1fbd 851d 003e f514 ccbc
00000160: eb14 b3bd a17b 253e a36d 763d 9bea d9bd
00000170: 2f44 123e 00e8 18be 8cb9 27bd 1bcd 56bd
00000180: 4b09 dfbd 29aa 103e a49e 383d 589e 52be
00000190: fd71 2a3e 545f a1be 76cf 28be 48ae 5abe
000001a0: 6c22 a13e 19b2 20be 07ec 4ebd 443c f6bd
000001b0: fd49 a33d ced7 573e 0ac4 8c3e 9e85 91be
000001c0: 58ed 4f3e 80ab ea3d 90bf 18be 57cd 85be
000001d0: fe2d 053e 6fd1 3a3e 8a96 a03d 7fbb 543d
000001e0: 27b5 4f3e 500c 5f3e 18a8 b33d c390 61be
000001f0: 1022 31be 698c 2ebe 849d 5bbd 8220 583e
00000200: 862a 20be e83b babe bff5 15be cb23 ae3d
00000210: d829 50bc 4dd7 6dbe 3b79 85bc 3ab6 533c
00000220: a1bc 563e 53a5 2bbd a0d7 16be 839e 62be
00000230: dddb 2cbe f7d9 cd3e 4c27 54bd c8d5 3b3d
00000240: c513 0e3f 161b 1ebe d504 163e 0419 59be
00000250: 4d9c 16bb 4962 87bd 84e5 46be 1ac5 f83d
00000260: bdd9 10be ed34 4f3e acff 10bd 2ae1 06be
00000270: f0c2 993c cda3 12be 801c 3e3c d3e6 353e
00000280: 734f 1fbe 2198 35be e5c7 51bc 0947 d6bd
00000290: 162d 2a3d 63f1 8abe 3ab0 b8be 0d28 c53e
000002a0: 0c0d c43e d273 a03e 418b 933c 2899 d4bd
000002b0: 58c7 163e 1203 b13d 0b8e 83bd 77eb 723d
000002c0: 205b a33e 5926 c2be 1303 173e 88e6 acbd
000002d0: 1402 9abd fd29 0e3e 7ee2 48bd eabc 533c
000002e0: 2a0e 53bd 7c11 a83e 32ed 273e 26af b6be
000002f0: 78d4 dfbd b5b3 afbd ec80 a9be b534 ffbc
00000300: 4c9a 883e 67ca d0bd ba67 f03d be3e 47be
00000310: 8516 90be fa1b 843e bfee 943d e7e7 db3d
00000320: 7f26 47be 4eec 353c cb38 793e 3e2d 943d
00000330: dda1 633e 998e a3bc 38e0 2bbe eb85 633d
00000340: b311 0bbe 6e28 23be 510b b3bd a25b 1d3e
00000350: 085a 8c3d de05 b73e d61a 103e 48f4 a7bd
00000360: dc01 a8be eaa1 9f3d 6833 f3be b843 303e
00000370: 3f1a 2d3e 9c11 2ebe 2c28 933e 10b1 bf3d
00000380: eab9 72be 5301 0cbe 276e c8bd 985e 643e
00000390: c97c 6abe 4876 843e a0d9 123d 2754 25be
000003a0: ef89 04be b103 7abe 0eb5 163d 6391 42be
000003b0: 06f6 513d 5e03 d9bd 72cd 04bd c23e 4e3d
000003c0: ae32 553c e7b9 723d fdc1 753c 23b0 803e
000003d0: c2d5 6e3c 5416 e3bd 4ae4 c23d 42d6 573c
000003e0: 660c 043e fecd 8bb8 6382 5fbd ef34 8ebd
000003f0: da03 7ebe 9027 6d3e d0f1 5e3e ee05 b2be

encoder_lstm.bias_ih_l1 f4 [128]
-0.03980105 -0.15383793 -0.32197374 -0.18365005 -0.031936422 0.10582671 0.19637923 0.048419576
-0.1857239 -0.019047078 0.253037 -0.16229513 0.11644036 0.14088604 0.05775527 -0.12771967
0.12296962 -0.048848864 -0.09985018 -0.00853285 0.05958022 -0.19955589 -0.2215594 -0.21364748
0.19232094 0.08399727 -0.21081406 0.111742325 -0.044655487 -0.15987006 0.027129492 -0.020487001
0.16989154 -0.061786074 0.23840624 0.101954274 -0.07537663 0.14276321 0.040730957 -0.11421299
0.38152218 -0.2148152 0.2525639 0.2148824 0.101178445 0.18537366 0.29089227 -0.097694196
-0.17752774 0.2340794 0.28851163 -0.05874321 -0.07637788 -0.0009648332 0.15284814 -0.03243415
0.16731562 0.29913017 -0.15229385 0.4041676 0.4440768 -0.016422117 -0.104666926 0.09996624
0.06574157 -0.12592283 -0.057857785 0.04395107 -0.11835578 -0.026183639 -0.0037401232 -0.06058241
-0.1535132 0.016852856 0.1959914 0.25188333 0.06690903 -0.08728763 -0.079428956 0.144622
-0.11694214 0.2009994 -0.21727955 0.10167144 0.020457936 -0.014460478 0.099404596 -0.18309185
0.061099477 -0.013006064 -0.080167755 0.004688294 0.051067356 -0.0003435928 0.046536177 -0.09127112
-0.10292189 0.12143955 0.032409374 0.19613938 0.10725355 -0.2058792 0.23715103 -0.017567165
0.12209617 -0.114261225 0.07449949 0.2175652 0.057131987 0.047989447 -0.04395631 0.18798997
-0.1016969 0.25345483 0.16945817 0.103968404 0.111821726 0.22160502 0.1821282 -0.15812801
0.08600328 -0.0042397864 0.12501383 0.23270284 -0.046183538 -0.07916406 -0.025688877 -0.06655312
00000000: 6d06 23bd b187 1dbe bed9 a4be c20e 3cbe
00000010: c4cf 02bd adbb d83d a317 493e 9b53 463d
00000020: 682e 3ebe 9e08 9cbc 118e 813e b230 26be
00000030: 4978 ee3d 6e44 103e ca90 6c3d f2c8 02be
00000040: 7fd7 fb3d bf15 48bd 407e ccbd 5ecd 0bbc
00000050: 640a 743d 6158 4cbe 78e0 62be 68c6 5abe
00000060: c8ef 443e c306 ac3d a4df 57be 29d9 e43d
00000070: ace8 36bd fab4 23be ab3e de3c 5bd4 a7bc
00000080: 0cf8 2d3e 6513 7dbd c420 743e 67cd d03d
00000090: 105f 9abd 8530 123e 81d5 263d 80e8 e9bd
000000a0: e056 c33e 84f8 5bbe 0e50 813e 220a 5c3e
000000b0: a536 cf3d 98d2 3d3e d5ef 943e e513 c8bd
000000c0: d5c9 35be 83b2 6f3e ccb7 933e b89c 70bd
000000d0: 026c 9cbd dcec 7cba 3984 1c3e acd9 04bd
000000e0: c954 2b3e 9727 993e ebf2 1bbe 0eef ce3e
000000f0: 095e e33e ad87 86bc 9d5b d6bd 1abb cc3d
00000100: 84a3 863d eaf1 00be 49fc 6cbd 0a06 343d
00000110: 8464 f2bd 127f d6bc db1c 75bb 4325 78bd
00000120: 9032 1dbe 000f 8a3c f8b1 483e daf6 803e
00000130: 9a07 893d dbc3 b2bd a6ab a2bd ca17 143e
00000140: 5c7f efbd c9d2 4d3e 887e 5ebe 1e39 d03d
00000150: 6797 a73c a4eb 6cbc a394 cb3d 6e7c 3bbe
00000160: 7243 7a3d 6317 55bc fe2e a4bd 43a0 993b
00000170: 012c 513d 3f24 b4b9 b89c 3e3d 5aec babd
00000180: b6c8 d2bd 4cb5 f83d b1bf 043d c3d8 483e
00000190: c0a7 db3d ffd1 52be b8d7 723e 04e9 8fbc
000001a0: 8f0d fa3d ca01 eabd 3093 983d 69c9 5e3e
000001b0: 3b03 6a3d 9590 443d 880b 34bd 7180 403e
000001c0: 7746 d0bd d5c4 813e 7186 2d3e 63ed d43d
000001d0: ca02 e53d 6dec 623e d17f 3a3e 4fec 21be
000001e0: 7d22 b03d e8ed 8abb a003 003e a749 6e3e
000001f0: f32a 3dbd c420 a2bd 7b71 d2bc 014d 88bd
