W3-Design/checkpoints/epoch_27.pt (torch, 384725 bytes, 24 tensors)

encoder_cnn.0.weight f4 [32, 3, 3]
000000 2b 9a 64 be ce a2 8e bd 52 2b 82 be 74 50 7a 3e
       -0.22324435 -0.06964646 -0.25423676 0.24444753
000010 1e 7e 79 be 61 2e 20 3e 7f 8d 34 3e 2d 8e 60 3e
       -0.24364516 0.15642692 0.17632101 0.21929236
000020 d5 17 0a 3e c8 9b db 3d bb 70 b7 3d f5 db c5 3d
       0.13485654 0.10723072 0.089570485 0.09661094
000030 21 c4 af be cf 23 b6 be e8 e0 83 3d ac fe b2 be
       -0.34329322 -0.35574195 0.06439382 -0.34959924
000040 6d de a7 3d 92 dd 19 be da 32 82 3d 35 81 31 3e
       0.08196721 -0.15025929 0.063573554 0.17334445
000050 9f 93 aa 3e ce c4 16 bd 3a c7 24 3e c2 f5 d7 be
       0.3331575 -0.03680878 0.16091624 -0.42179686
000060 ea 8b b1 be fb 54 bd bc af 4a 54 be dc 14 87 bb
       -0.34677058 -0.02311181 -0.20731615 -0.0041223597
000070 57 ae 24 3e 65 d4 31 be 1b 20 1b bb f1 0f 70 3d
       0.1608213 -0.17366178 -0.002367026 0.058608953
000080 e2 31 3a 3d 95 1a 4e 3e 58 74 8b 3e ee 7d ba 3d
       0.04545773 0.20127328 0.272372 0.091060504
000090 83 69 58 bd 60 2d d7 3d 0b 1c 84 bd 40 34 17 3f
       -0.052835 0.105067015 -0.06450661 0.590641
0000a0 be f8 21 bd b1 e8 13 3f df d1 e3 3d 52 24 1e 3e
       -0.03954386 0.57776934 0.11124014 0.15443543
0000b0 ec c9 8e be 9b ad d6 3c 7f 2a 0b be fa 94 b3 3e
       -0.2788843 0.026205828 -0.1359043 0.35074598
0000c0 19 35 be be 56 b5 a6 be ad 1b 02 3d 6f 93 0a 3e
       -0.37149885 -0.32560223 0.031764675 0.13532804
0000d0 17 06 4c 3e 39 0c 9a be 54 40 18 3d 15 e1 a6 bd
       0.19924198 -0.3008745 0.037170723 -0.081484
0000e0 84 92 b5 3e 09 8e 96 3e a6 13 0a 3e 4f 5c 34 be
       0.35463345 0.2940524 0.13484058 -0.17613338
0000f0 25 d1 d3 bd 57 21 19 3e ff d7 c5 be 3c 3a 49 3e
       -0.103426255 0.14954124 -0.38641354 0.19651121
000100 c4 d8 a2 bd d9 ee 59 3e 33 48 a8 3e a9 b1 71 be
       -0.07951501 0.2128252 0.32867584 -0.23602928
000110 63 d5 dd be 72 f7 04 3c 7a 64 f0 3b a6 a1 d7 3e
       -0.43326864 0.008115636 0.0073361965 0.42115515
000120 0f 62 98 3d c4 e3 48 3e 3d 62 67 bc a0 0f cb bd
       0.07440578 0.19618136 -0.014122543 -0.099150896
000130 fd e7 8d be 16 9a a1 3e 02 da a3 be 1c 76 73 3e
       -0.27716056 0.3156287 -0.32002264 0.23775524
000140 9c d6 d7 bd fe 31 2e 3e 9e 5c b5 3e 2d b9 44 3d
       -0.1053898 0.17011258 0.35422224 0.04802816
000150 6a 29 1b 3e b0 6a 68 be 7a 9d cb be 1e 7b 0e 3d
       0.15152517 -0.22696948 -0.39768583 0.034785382
000160 a5 44 38 bb fb 72 7c bd 70 94 0c 3d 62 02 6a 3d
       -0.0028117087 -0.06163309 0.03432125 0.05713118
000170 7d 4a 91 3d c5 ed db 3e ad a1 30 be a9 20 5b be
       0.07094286 0.4295484 -0.17249174 -0.21399178
000180 e5 00 58 be 01 84 4c 3e f8 48 76 bc 88 a6 d5 bd
       -0.21094091 0.1997223 -0.015032046 -0.10432154
000190 44 e0 90 3c c7 38 0e 3e e1 43 d6 3d 42 13 c8 3e
       0.017685063 0.13888846 0.104621656 0.39077193
0001a0 71 ee 97 3d 50 25 04 be fa 8f 50 be 21 55 85 bd
       0.07418526 -0.12904859 -0.20367423 -0.06510378
0001b0 ae 5a fc bd 5f c9 7f 3e 17 af 00 3e d0 0f ac bd
       -0.12321983 0.2497916 0.12566791 -0.084014535
0001c0 2d 44 ac be 74 f9 de be ed fa b9 3e 50 b3 ea bc
       -0.33645764 -0.43549693 0.36324254 -0.028649956
0001d0 4e a9 4a be 3f 94 5b 3e ab f4 86 bd 49 02 aa 3d
       -0.19791147 0.2144327 -0.065896355 0.08301217
0001e0 d3 25 63 3d 0b 06 1e bd 8f 71 b4 bc 9e 7a b9 bd
       0.055455994 -0.03857998 -0.022026805 -0.090565905
0001f0 82 3d 45 3d 5a 25 9a 3c 63 cd 22 be 81 02 36 be
       0.04815436 0.018816639 -0.15898661 -0.17774393
000200 6d 6d e8 bd a9 06 a2 3e a7 7f 5a bd 7a bb 5c be
       -0.11348996 0.31645706 -0.053344395 -0.21555892
000210 17 0a 55 3e b5 99 73 3e ce 02 b9 bd 8c fd 8d 3e
       0.2080463 0.23789103 -0.09033738 0.27732503
000220 6a a0 1e 3e 54 d6 41 be f2 d0 c1 be 2d 19 a1 3d
       0.1549088 -0.18929416 -0.37854725 0.0786613
000230 e2 49 61 be 86 4a ad be e0 7d 98 3b 85 5c ed bd
       -0.2200084 -0.3384592 0.0046536773 -0.11589912
000240 62 a5 45 3e 2d 46 19 be d3 55 8a be 4e 63 47 3e
       0.1930137 -0.14968176 -0.27018604 0.19471475
000250 77 de bc 3a ef 72 b3 bd 79 f6 85 3e d8 c0 a7 bd
       0.0014409561 -0.08762156 0.26164606 -0.08191079
000260 91 4f 48 3e d4 1a 70 bd 08 dc 20 3e 22 c1 ad 39
       0.19561602 -0.058619335 0.15708935 0.00033141027
000270 a4 e0 29 3e ed ee e5 be 0b bc 35 3e b9 11 d8 bd
       0.165896 -0.44908848 0.17747514 -0.10550255
000280 f6 cb af be 95 57 27 be 5d ef 6b 3e ea 32 b6 3d
       -0.34335297 -0.16342004 0.23040529 0.0889643
000290 08 d2 ad be 86 b8 24 be 62 ed f2 be 36 00 68 be
       -0.33949304 -0.16086015 -0.47446734 -0.2265633
0002a0 77 bf 15 3e 9a cb 6c be b0 9b 25 be 35 22 24 be
       0.1462382 -0.23124543 -0.16172671 -0.16028674
0002b0 7a 83 13 3e 32 5c 99 3d 60 1b 0b bd 02 2f 10 be
       0.14405623 0.07488288 -0.033961654 -0.14080432
0002c0 02 75 66 3d df 20 14 bd 45 d0 90 3e 3c 12 55 3e
       0.05626393 -0.03616416 0.28283897 0.20807737
0002d0 5b 35 58 be ee 7a 3b be bc cc 4d be 4a 35 3c be
       -0.21114103 -0.18308613 -0.20097631 -0.18379703
0002e0 e7 3c 6f 3e 2f c2 ac 3c 0c 29 70 3e c2 03 4e 3e
       0.23363076 0.021088688 0.23453158 0.20118621
0002f0 dc 69 3b be 4c 06 1e 3e a3 97 8b be 6e 68 09 be
       -0.18302101 0.1543209 -0.27264127 -0.13418743
000300 19 26 45 be f0 99 57 3e 67 2b 96 3d fc 87 e3 bd
       -0.19252814 0.21054816 0.07332497 -0.11109921
000310 71 a4 d2 be 24 b8 9e be d7 4e c4 3d 0d 56 af be
       -0.41141084 -0.30999863 0.0958535 -0.3424534
000320 48 1c 04 3e 64 f5 0a 3e 83 2d 56 3e f9 61 82 bd
       0.12901413 0.13570172 0.20915799 -0.06366343
000330 cc 85 d6 b9 f7 0b b5 bd 5f b4 83 be 78 03 1d 3e
       -0.00040916947 -0.08840173 -0.2572355 0.15333354
000340 19 4b 8b be fb 09 a0 be 00 b0 09 be e6 42 c9 3c
       -0.27205732 -0.31257614 -0.13446045 0.024568032
000350 a0 55 d0 bd 50 66 25 3e 21 2a 83 3e 3e 95 9c 3e
       -0.10172582 0.1615231 0.2561808 0.30582613
000360 a7 69 04 3e 67 f5 b4 3e 63 c8 67 3c 39 3f a9 3e
       0.12930928 0.35343477 0.014146897 0.33056048
000370 90 75 7c 3e 46 97 c7 bd 16 d7 42 3c ed 2a 85 3d
       0.24654222 -0.0974565 0.011892101 0.06502328
000380 79 be 08 3e 5d 34 b9 3e 3d a7 23 3e d2 de ac 3e
       0.1335391 0.36172763 0.15981765 0.33763748
000390 69 5e 42 3e 80 c5 30 3e 59 69 cf 3c d0 51 f8 be
       0.18981327 0.1726284 0.025318788 -0.48499918
0003a0 30 19 17 be 26 98 21 3e 7b 0c c9 be e7 c0 35 3c
       -0.14755702 0.15780696 -0.39267334 0.011093355
0003b0 b5 17 7b be 46 46 c3 3e c7 af 60 3e 02 8f 46 be
       -0.24520762 0.38139552 0.21942054 -0.1939049
0003c0 09 6b ae 3e 76 7f 19 3c eb 36 09 be 1e e2 81 be
       0.34066036 0.009368768 -0.13399856 -0.25367826
0003d0 b6 df a1 3c 1d b9 7e 3c 71 61 30 be f7 19 f5 bd
       0.019759994 0.015547064 -0.17224671 -0.11967843
0003e0 d8 e2 26 3e 4b 86 04 be e6 ec a8 3e fc e8 fb 3d
       0.16297472 -0.12941854 0.3299324 0.123002976
0003f0 cb cb 83 3e aa f8 8b bd a5 46 14 3e 69 4f 97 bd
       0.2574142 -0.06834538 0.14480074 -0.07388193

encoder_cnn.0.bias f4 [32]
000000 0d a7 a9 be ee 70 85 be df bb a9 3f cb 18 bc bf
       -0.33135262 -0.2606272 1.3260459 -1.4695066
000010 c9 5f 5f 3d a9 ca b8 3a cc 57 72 bf 1c 8a 94 be
       0.054534707 0.0014098483 -0.9466522 -0.2901162
000020 d4 36 b4 be 1f 02 c7 be 5d 5f d1 be bd 5e b5 be
       -0.3519808 -0.38868806 -0.4089307 -0.35423842
000030 5e 6a 41 be d3 0c 78 bf 2a d4 66 bf 15 b2 15 3e
       -0.18888232 -0.9689457 -0.90167487 0.14618714
000040 03 bb 7f bf 7c 78 b3 3c ae 99 34 be f0 c5 8b bf
       -0.9989473 0.021908037 -0.17636749 -1.0919781
000050 ba aa 4e bf 47 6c de 3e 33 48 48 be ae 79 41 bf
       -0.8072926 0.43441984 -0.19558792 -0.75576293
000060 8f 30 11 bf bc 0e 3e 3f bd 37 4f bf ef a7 56 bf
       -0.5671472 0.7424123 -0.80944425 -0.83849996
000070 5e b5 86 bf 08 1f ec bd 91 9b 6e 3e d4 20 67 3e
       -1.0524099 -0.11529356 0.23301531 0.22571117

encoder_cnn.2.weight f4 [64, 32, 3]
000000 49 2a 14 be 10 33 56 be a3 05 27 bd 65 f5 a3 3e
       -0.14469256 -0.20917916 -0.04077686 0.3202316
000010 50 bb a3 3e 3e f4 51 3e 60 b4 1d 3f 01 ca 4f 3e
       0.31978846 0.20503327 0.61603355 0.20291902
000020 fd e3 df 3d 90 61 85 3d c8 0d 2e bf c0 67 11 be
       0.10932157 0.06512749 -0.6798978 -0.14199734
000030 96 25 34 bc bb 84 74 3d 8a 77 ac be ab cb 98 bd
       -0.010995289 0.059696894 -0.3368495 -0.074607216
000040 43 98 5e be aa 11 c5 bd 84 e6 cc 3c 82 b1 5f 3e
       -0.2173777 -0.0962251 0.025012262 0.21845058
000050 ef 65 3e 3e 1e ba 90 bd 19 94 31 be c3 90 37 be
       0.18593572 -0.07066749 -0.17341651 -0.17926316
000060 2e 2a a6 3e 13 a7 38 3e a2 89 84 bd 03 ee d8 3e
       0.32454056 0.18032484 -0.06471564 0.4236909
000070 13 da 9f bc f3 82 0d be 16 7c 0a bd 97 f5 dd 3d
       -0.019513166 -0.13819484 -0.033809744 0.10837858
000080 7b a0 01 3e f9 2f 1d 3d 68 5f 03 be 70 2a 00 be
       0.12658875 0.03837583 -0.12829363 -0.12516189
000090 46 9f 22 3e 10 c1 87 be 12 1f fe bd 1f aa 4b 3e
       0.1588107 -0.26514482 -0.1240827 0.19889115
0000a0 31 53 87 3e 7c 5c c4 3d 13 98 54 3d cc be f4 bd
       0.26430658 0.095879525 0.05190284 -0.11950454
0000b0 e2 ce 1a bd 19 1c ad 3e 31 23 8e 3e 79 af 58 bd
       -0.037794955 0.338105 0.27761224 -0.05290172
0000c0 f4 00 9d 3e 6b 22 42 3e f8 1c 2d 3d ea c0 a7 3e
       0.3066479 0.18958442 0.042263955 0.3276437
0000d0 a9 84 3f 3e 24 71 38 bd d1 e4 a7 bd 78 95 b4 bd
       0.1870295 -0.045029774 -0.0819794 -0.088175714
0000e0 bc ad 39 be 82 b4 d4 be b8 98 8c be 99 49 5d 3e
       -0.1813268 -0.41543967 -0.27460265 0.21610107
0000f0 5c c8 00 3d 99 1c 58 be f4 22 97 3c 6a b8 90 3d
       0.031441078 -0.21104659 0.018449284 0.07066424
000100 f1 e8 3d 3d ca 7c 4a be 44 62 52 3e aa 5c 93 bd
       0.04636473 -0.19774166 0.20545298 -0.07195409
000110 75 33 fe 3b ce 6b 8a be 12 7e 8f be 32 af e8 bd
       0.007757599 -0.27035373 -0.28025872 -0.11361541
000120 70 ca 84 3e c1 ce 7b 3d 4e 8a 87 3e d9 3d d6 bd
       0.25935698 0.061476473 0.26472706 -0.10461015
000130 ab a9 b3 3c 29 70 8f be 16 40 bd bd cc 85 77 bd
       0.02193149 -0.2801526 -0.09240739 -0.060430333
000140 37 e6 20 be be 81 26 3e 4c 81 87 be 09 a0 24 be
       -0.1571282 0.1626043 -0.26465833 -0.16076674
000150 52 e0 14 bd 9f cf 29 be d2 ac a4 be d7 8a b0 3b
       -0.03634674 -0.16583107 -0.321631 0.0053876447
000160 51 0b 85 bd ba 55 03 bd 6d 7e d2 3e 62 ba 0f bd
       -0.06496299 -0.032064177 0.4111208 -0.035089858
000170 1c 22 22 3d 14 95 64 3e fa d9 11 be 0a 24 4a be
       0.03958331 0.22322494 -0.14243308 -0.1974031
000180 9c a5 6b bd 3b a8 5a bc 75 91 99 3d 53 68 a6 bd
       -0.057530984 -0.013345773 0.07498447 -0.08125367
000190 82 cd 74 bd 69 37 e4 bc 7c d3 ff be bb 9e 75 be
       -0.0597663 -0.027858453 -0.49966037 -0.23986332
0001a0 f0 55 3e be 1f a9 83 bd 78 ef ef 3c 20 43 ba bd
       -0.1858747 -0.06428742 0.029288992 -0.09094834
0001b0 ec 8f a2 be d8 b8 93 be 92 4c 5d be a3 0d 38 bd
       -0.3175043 -0.28851962 -0.2161124 -0.04493488
0001c0 ad f5 bb bb 5b 66 91 3d 93 8e 70 3d e0 96 02 be
       -0.005736074 0.07099601 0.05872972 -0.12752867
0001d0 f3 de 42 be 82 72 77 be cf 4e 9f 3d 91 01 1d 3c
       -0.19030361 -0.24164775 0.077787034 0.009582893
0001e0 39 cb c3 3d 7b 40 4b be 1e 1e 46 bd 98 c8 c5 3c
       0.09560246 -0.19848816 -0.048368566 0.024143502
0001f0 ad 8d 19 3d 09 b0 7b bc ec a7 53 bd ef 9d 9b bd
       0.03748863 -0.015361794 -0.051673815 -0.07598483
000200 58 10 9d bd 4f 71 af be fe 5b 38 be 8f 70 f4 be
       -0.07669133 -0.34266135 -0.18003842 -0.47742125
000210 24 d6 c8 bb ea 4f 81 bc a9 a7 32 bd 32 e0 12 bd
       -0.006129043 -0.015785176 -0.043616924 -0.03585834
000220 d6 34 83 3c 47 50 23 3d 01 8c fa bd 83 35 5a bd
       0.016016405 0.03987148 -0.12233735 -0.05327369
000230 37 46 13 be d3 be 2c be f7 48 9e bd 88 26 2a be
       -0.14382254 -0.16869669 -0.07728761 -0.16616261
000240 56 9a 35 be cc a4 45 3d e5 2f 7e bd b7 99 a6 be
       -0.17734656 0.048252866 -0.062057395 -0.3253915
000250 c7 fb b8 be 18 21 b2 be cb e5 54 3b 46 45 f6 3c
       -0.3612959 -0.34790874 0.00324856 0.030062329
000260 f5 47 35 3d 3e 16 dc 3d 18 37 88 3d 63 6c 96 3d
       0.044258077 0.1074643 0.06651133 0.07344892
000270 ee 9e f4 bc 9d c9 1b bc e1 41 f5 bc 30 2c 9a be
       -0.02986094 -0.009508518 -0.02993864 -0.30111837
000280 82 b9 8b be 3c bb 8e be 62 26 ae bc 74 8e e3 bd
       -0.2728997 -0.27877223 -0.021258537 -0.11111155
000290 8a bc f1 bd 1c 8f 32 3d b3 12 16 bd d2 31 c0 3c
       -0.11803539 0.04359351 -0.036638927 0.023461256
0002a0 2d 4a 05 bd 0b 09 5a 3d 2c f0 4b 3d 18 11 7f be
       -0.032541443 0.05323128 0.049789593 -0.24908864
0002b0 95 c6 20 3d 68 93 88 3d 08 00 38 bd 6e 65 35 bd
       0.039251883 0.066687405 -0.044921905 -0.044286184
0002c0 b2 1e 41 be c3 d7 44 be 51 20 ab bd 16 ce 96 bd
       -0.18859366 -0.19222932 -0.08355773 -0.073635265
0002d0 73 7c 34 be 29 d5 9b bd 5a 63 88 3d e6 f0 2f bc
       -0.17625599 -0.076090164 0.06659575 -0.010738587
0002e0 58 d2 d7 bd 21 d2 29 bc b5 06 0b be 95 2d e0 bd
       -0.10538167 -0.01036504 -0.13576777 -0.10946194
0002f0 03 6c 36 be de f3 2c be 44 fc 2e be 5a b7 62 be
       -0.1781464 -0.16889903 -0.17088419 -0.22140256
000300 3a 94 4b 3e fe 82 aa 3d d9 22 e8 bd 86 8e ab bd
       0.19880763 0.08325766 -0.11334772 -0.083767936
000310 71 27 69 3e 06 69 52 3e e0 44 dd be bc 9f 4c be
       0.22768952 0.20547876 -0.4321661 -0.19982809
000320 fc dd 8b be 14 3f 43 bc a0 06 3d be 8b 5a c5 bb
       -0.27317798 -0.0119168945 -0.18459558 -0.0060227565
000330 c7 2c 72 be 90 b3 89 be e4 4d db bf 59 46 64 be
       -0.23649894 -0.26894808 -1.7133145 -0.2229246
000340 87 33 e0 3e ef 5f 23 be 74 80 3a be 9b 73 bc 3e
       0.43789312 -0.15954565 -0.18213063 0.3680695
000350 a6 a9 44 3d de 4e c6 3d 70 9b 72 3e 85 e5 e6 be
       0.04801335 0.096830115 0.23692107 -0.45096985
000360 f1 5e f0 bd a8 cd 3b be f6 6b 7b be b3 78 9c bb
       -0.11736859 -0.1834017 -0.24552903 -0.0047751307
000370 82 18 9c 3c 3f 4c 93 be e1 7a 52 be 69 0a c0 3d
       0.019054655 -0.2876911 -0.20554687 0.093769856
000380 38 be 13 be 20 90 07 be 13 b5 23 bd 6d c0 e9 be
       -0.14428031 -0.13238573 -0.039967608 -0.45654622
000390 d5 50 87 be a3 19 f3 3d 6b e7 04 bc 1f 80 b2 be
       -0.26428857 0.11870124 -0.008111815 -0.34863374
0003a0 09 2a 23 be af a2 b2 be d5 74 8f 3e a3 24 85 bc
       -0.15934004 -0.34889743 0.28018823 -0.016252821
0003b0 b5 3a 88 be 6b ae ef bd 8f 9b da 3d e4 4a 95 be
       -0.2660729 -0.117031895 0.10674202 -0.291587
0003c0 03 fb 0a 3e e1 61 de bb b6 77 9d be eb be 99 3d
       0.13572316 -0.0067865704 -0.30755395 0.07507118
0003d0 14 1f ec bd 29 fe f4 bd cb 18 17 bf a5 9f f4 be
       -0.11529365 -0.1196254 -0.59022206 -0.4777805
0003e0 9f 23 ee bd aa dc 9b bd 2b b1 40 3e 42 76 0b be
       -0.11627888 -0.07610448 0.18817584 -0.1361933
0003f0 4c bd 24 3e 0a 88 82 3d a7 81 88 be 60 ff ac be
       0.16087836 0.06373604 -0.26661417 -0.33788586

encoder_cnn.2.bias f4 [64]
000000 01 53 56 bd b7 a8 15 be 05 50 09 be 86 16 bf bb
       -0.052325252 -0.14615141 -0.13409431 -0.0058315424
000010 7b ce 8e 3d 66 45 2f 3d 2d d5 18 bf 3f 9f 50 be
       0.06972977 0.042790793 -0.5970028 -0.20373248
000020 b0 9a 41 be eb c6 81 bc 70 82 15 3d 9c 68 d7 bd
       -0.18906665 -0.015841922 0.036501348 -0.105179995
000030 e9 ec cc 3d dc e8 eb bd 43 6f 1d be b7 3e 28 3e
       0.100061245 -0.11519024 -0.15374474 0.16430174
000040 2e d6 a3 3d 74 db 1e 3e 6b 06 26 be be 22 f5 bd
       0.07999836 0.15513402 -0.16213386 -0.11969517
000050 da c0 12 be 29 5f 93 3d 08 52 fb 3e ad c7 ce 3e
       -0.1433138 0.07195885 0.49086022 0.40386716
000060 74 d6 2b be 6a 00 41 be 30 d4 a7 be b1 02 21 be
       -0.16781026 -0.18847814 -0.32779074 -0.15723683
000070 3c e1 b4 3e 94 fa fb bd 14 38 42 bc 69 bf af be
       0.3532809 -0.12303653 -0.01185419 -0.34325722
000080 1f 86 93 be a3 31 6c be 36 6a 38 3e d8 99 9f be
       -0.28813264 -0.2306581 0.18009266 -0.3117206
000090 5d 2a 30 bd a1 8f 0a bf 69 f9 5e 3d 56 fa e0 ba
       -0.04300915 -0.5412541 0.054437075 -0.001716445
0000a0 88 02 44 be f9 ae cb be 72 2c 57 3e 3d e9 fb bd
       -0.1914159 -0.3978193 0.21013048 -0.12300346
0000b0 36 8c 4d be c2 65 17 bf 54 89 da be 44 03 2a be
       -0.20073017 -0.59139645 -0.42682898 -0.16602808
0000c0 6e 6f 90 be 9a db d8 bc 03 f4 e6 be 6d c7 ce be
       -0.28210014 -0.026471902 -0.4510804 -0.40386525
0000d0 7e 53 8e be b3 7c b5 bd 33 f9 ab be 6b e4 26 be
       -0.27798074 -0.08861675 -0.3358856 -0.16298072
0000e0 7a 58 65 bd 1c 8c 35 be a6 c3 11 be 28 87 02 be
       -0.05599258 -0.17729229 -0.1423479 -0.1274687
0000f0 06 7a dc be b9 de 24 3e 07 b4 a4 be f4 ed 60 be
       -0.43061846 0.16100587 -0.321686 -0.21965772

encoder_lstm.weight_ih_l0 f4 [128, 64]
000000 4f be f0 3e 4c d8 48 3d 2e 7c 37 3e 12 f5 81 be
       0.47020194 0.0490344 0.17918465 -0.25382286
000010 9c 3f 62 3e d5 04 17 bf 28 f0 22 3f ec 5a 1b be
       0.22094578 -0.5899175 0.636477 -0.15171403
000020 4c 2a 92 3e fe ab 59 3d 4a d7 1c 3d 5f 96 b6 be
       0.28547895 0.05314254 0.038291253 -0.356616
000030 a7 cb 34 3e 86 a9 22 be 1f 8f ce 3d 36 e4 9a 3e
       0.17655812 -0.1588498 0.10085892 0.30252236
000040 7a a9 ea be 7c 7c 04 3d 10 70 96 bd 78 d7 50 3c
       -0.45832425 0.03234528 -0.07345593 0.012746684
000050 d6 b5 4c bc c6 c1 06 be bd f2 c6 3f 5d fc 6a bf
       -0.012494525 -0.13159856 1.5542828 -0.91791326
000060 e2 c5 e9 3e a3 f4 70 3e 23 2c b4 bb 96 84 e4 3c
       0.45658785 0.23530822 -0.0054984256 0.027895253
000070 94 fc bf be fa f1 cc bd e9 9e 5f 3e 7e 2e 18 3e
       -0.3749739 -0.10007091 0.21837963 0.14861485
000080 51 9d 5b 3e eb b1 7b 3e e9 c8 88 bd 81 b6 dd 3e
       0.2144673 0.24579589 -0.066789456 0.43303302
000090 8d 1e 0e 3f 7b 74 89 3d 0e 23 3a 3d 96 c5 01 be
       0.55515367 0.0671167 0.045443587 -0.1267303
0000a0 eb da 80 3d 28 67 10 3f ff 6c 98 3e 18 96 67 be
       0.06291755 0.56407404 0.29770657 -0.2261585
0000b0 93 48 0a be 2d e2 85 3e 51 55 7b bc 10 4c 6b 3e
       -0.13504247 0.2614912 -0.015340165 0.22978234
0000c0 bc e3 b5 3e dc af d2 3d 58 bf ce 3e 80 bb 87 3e
       0.3552531 0.10287449 0.4038036 0.2651024
0000d0 7a 05 3f 3e 03 9f 19 bd 9f 00 43 3e ce bd b3 3e
       0.18654433 -0.03750516 0.19043206 0.35105747
0000e0 2f 39 eb ba 70 ba ef bd c7 12 63 bd 67 c3 2b bd
       -0.0017946119 -0.11705482 -0.05543783 -0.041934397
0000f0 7a 5f dd 3d 64 ae 6d be b5 65 b5 bd ad 0e e2 bd
       0.10809226 -0.23211056 -0.0885729 -0.110379554
000100 79 85 56 3e 98 3f 58 3c dd 29 28 be b4 24 e1 3d
       0.20949353 0.013198756 -0.1642222 0.10993329
000110 44 89 84 3c 18 41 b9 3e 8b 14 64 bc d4 fd 00 3e
       0.016178735 0.36182475 -0.013920913 0.12596828
000120 56 d3 eb 3d 39 b9 20 3e f5 6d c3 3d 5d 65 ba be
       0.115149185 0.15695657 0.09542457 -0.3640546
000130 67 0a bc 3d b0 a9 3e bd c5 2a f8 3d 88 bd af bd
       0.091816716 -0.046548545 0.12117533 -0.08581072
000140 98 c3 c0 3e a8 84 76 be 00 60 5b be 90 db 46 bd
       0.37649226 -0.24074042 -0.2142334 -0.048549235
000150 6e c3 53 3e f7 a6 cf 3d 99 a1 92 bf e3 28 77 be
       0.2068002 0.10139268 -1.1455566 -0.24136691
000160 87 8a 57 3e e7 3d 7a be 69 45 f6 3d 90 d0 2c 3e
       0.21048938 -0.24437676 0.12024958 0.16876435
000170 65 c4 2a 3e 88 ae 68 bd be 44 dd be dc 74 b1 3d
       0.16676481 -0.05680707 -0.4321651 0.08664867
000180 60 a3 8f 3e 18 94 2a 3d 61 9a 3e bd 50 d3 1a be
       0.28054333 0.04164514 -0.046533946 -0.15119672
000190 7f 44 47 be 98 40 a8 be 32 fb 1f 3e 91 f5 22 3b
       -0.19459723 -0.3286178 0.15623167 0.0024865607
0001a0 4d 82 69 bd 68 34 c7 bd cc 57 71 be 7d e7 13 be
       -0.05700903 -0.097267926 -0.23568648 -0.14443775
0001b0 2e f4 89 3e e0 1f 3d 3e 77 4e b5 3e 06 b8 00 bd
       0.26944107 0.1846919 0.35411426 -0.0314255
0001c0 f0 42 c7 be 01 9d 13 3e b8 09 08 be 86 ee 33 3e
       -0.38918257 0.14415361 -0.13284957 0.17571458
0001d0 1b e9 28 be db 9a 8b bd 5c cc d4 bc ab 40 88 3e
       -0.16495173 -0.06816646 -0.025976352 0.26611838
0001e0 d8 0e 6b 3d 0b bd 68 3d 81 7b 0c 3e 02 d7 1b be
       0.057387203 0.05682091 0.13718988 -0.15218738
0001f0 86 50 dc 3d 1d b1 8e be 18 17 db be d8 73 41 be
       0.10757546 -0.27869502 -0.42791057 -0.18891847
000200 99 25 bc 3d 3f 4f 82 bd 54 ba 9a 3e 47 c4 29 be
       0.09186859 -0.06362771 0.30220282 -0.1657878
000210 96 3e db 3e e4 1e 72 bc a5 73 3e bd d9 57 8f bd
       0.42821187 -0.014777873 -0.046497006 -0.069991775
000220 e9 00 87 bd f2 40 10 3e cc f7 b2 3d 8b 45 28 3e
       -0.065919705 0.14087275 0.0873867 0.16432779
000230 42 10 d0 be a7 32 a2 bd c2 66 92 bd 9a 40 60 3e
       -0.40637404 -0.079198174 -0.07148506 0.21899644
000240 a3 8f a9 bd 6b 9d 20 3f a8 2f 0e bd fd 00 55 3e
       -0.0827935 0.627402 -0.034713417 0.20801158
000250 1e 40 eb 3d 26 35 07 bd 69 b8 d6 3d c8 c8 93 bd
       0.11486839 -0.03300967 0.10484392 -0.0721603
000260 62 85 1a be 9b c7 fd bc 57 d8 08 3e 38 7f e7 bd
       -0.15089944 -0.030978968 0.13363777 -0.11303562
000270 1d b8 71 3e 1f 31 ff 3d 84 02 33 be 85 94 9e bb
       0.2360539 0.12460541 -0.17481428 -0.0048394823
000280 29 6b 18 be 46 95 0d 3e 7f a6 ee 3c 11 d8 f2 bd
       -0.14884628 0.13826475 0.029132126 -0.11857618
000290 b7 ae 73 3e 44 d5 e9 bc cb 95 68 bd 29 d2 b1 3c
       0.23797117 -0.028544076 -0.05678348 0.021706657
0002a0 b1 a4 b3 3e 22 be 07 3c 38 51 d6 3e 94 33 df bd
       0.35086587 0.008285077 0.4185884 -0.108985096
0002b0 7a d2 e2 bd ab 56 02 bf 5f e8 e4 3d 12 d8 ed bd
       -0.110753015 -0.50913495 0.11177134 -0.11613478
0002c0 1c 6d 97 3e 20 56 99 3d 5a 64 82 3e 20 66 20 bd
       0.2957543 0.0748713 0.25467187 -0.039159894
0002d0 b1 28 c1 bd 16 e3 2a bd c9 5e 09 3f e6 40 e9 3d
       -0.094315894 -0.041720472 0.53660256 0.113893315
0002e0 d1 1a 58 3b 24 01 ac be 8b 82 2e 3c 93 0c fd bc
       0.0032974968 -0.3359462 0.010651241 -0.030889785
0002f0 20 4c 02 3d c4 75 0c be dd ed d9 3d 84 d2 b7 bd
       0.03181088 -0.13716799 0.10641072 -0.089756995
000300 a8 28 0e be c9 f0 71 3e 28 49 94 3e f8 07 98 bc
       -0.13882697 0.23627008 0.28962064 -0.018558487
000310 73 c5 11 3d 8d 02 fd 3d f3 0e 6c 3d e4 62 59 be
       0.035588693 0.12354002 0.057631444 -0.2122913
000320 af 96 c6 3b 24 0d 1a 3d 6e fc 2a bd 46 77 83 3e
       0.0060604434 0.037610188 -0.041744642 0.25676936
000330 0e c0 8b 3e 11 29 d1 bd cd a6 6b 3e ec 9a 48 3d
       0.27294964 -0.10212911 0.23012848 0.04897587
000340 42 c7 d0 bd 13 c0 f8 3e ab 9b 0b bc d0 8d e7 3d
       -0.101942554 0.4858404 -0.008521001 0.113063455
000350 7e f1 71 3c ea f4 65 3e d1 15 5b 3e df 6f 76 3e
       0.014767049 0.22456709 0.21395041 0.24066113
000360 84 d7 e1 3e c0 b1 9c bd 95 ca 0d 3c e9 a9 09 3e
       0.44109738 -0.076510906 0.008654256 0.13443722
000370 02 5c 16 3e 1c 18 00 3e 3b 6a a9 3d 53 5d b3 3d
       0.14683536 0.12509197 0.08272215 0.087580346
000380 06 fc cc be 40 9f 75 be a7 4f ae 3d a3 98 5a be
       -0.4003603 -0.2398653 0.08511286 -0.21347289
000390 f3 e4 41 be 02 07 4b be 03 59 e8 bd 1e ab 98 3d
       -0.18934993 -0.19826892 -0.11345103 0.07454513
0003a0 4a 9d 4a 3e a8 25 05 be 2b 41 68 3e ba 94 d3 3d
       0.19786564 -0.13002646 0.2268111 0.10331102
0003b0 cd 86 20 3f d4 61 1c 3f 15 97 94 3d 62 1e 8c 3d
       0.6270569 0.61086774 0.07255379 0.068417326
0003c0 ea 3f aa 3e 11 77 0b 3d 03 17 73 bd 87 6b c9 3d
       0.33251888 0.034049097 -0.059348118 0.09834962
0003d0 f4 e5 2b 3e 0b 48 e5 3c 86 6e dc bd 9e ea c5 bd
       0.16786939 0.027988454 -0.10763268 -0.0966389
0003e0 79 f6 96 3d 8f d5 28 3e bd c1 8c 3e 2e 69 b4 bd
       0.0737123 0.16487716 0.2749156 -0.08809124
0003f0 9d 08 ac bd db 41 42 bd 2c 59 de be d7 1e 63 be
       -0.0840008 -0.047426086 -0.43427408 -0.22179733

encoder_lstm.weight_hh_l0 f4 [128, 32]
000000 95 09 02 bf 1e 14 46 3f 8e ce d4 bd fe b2 35 bd
       -0.5079587 0.77374446 -0.1039096 -0.044360153
000010 88 62 e2 3f 61 91 a6 be f4 80 dd 3e 14 57 4d bf
       1.7686319 -0.3253279 0.43262446 -0.80210996
000020 b9 e7 26 3f fe 5e 8d 3e 20 7b cc 3e 81 06 40 bf
       0.6519733 0.27611536 0.39937687 -0.75009924
000030 1f aa 8b bd 42 15 f5 be fa 71 85 3e c5 7b b6 3f
       -0.068195574 -0.4786778 0.2606352 1.4256521
000040 8d 49 13 bf ee f4 09 3f 5c 2b 27 bd 00 37 e1 3e
       -0.57534105 0.5388936 -0.040812835 0.43987274
000050 f3 8b 62 3f e7 29 51 3f 48 b5 6e 3f 70 da 13 3f
       0.88494796 0.8170456 0.93245363 0.57755184
000060 6a 79 3d bf 19 5c 5e bf 8d fd 3a 3f d3 82 49 bf
       -0.7401339 -0.8685928 0.7304314 -0.78715247
000070 bc 7a 32 3f 4f 4b 80 be 8a 35 2c bf 70 1c db 3c
       0.6971853 -0.25057456 -0.67269194 0.026746958
000080 7e 3e bd bd 90 22 6c bd d1 55 05 bf 66 64 8b be
       -0.09240435 -0.05765015 -0.5208407 -0.27225035
000090 12 3f 09 bd 4b a7 62 be 6d f2 06 bf 6a cd 0a bf
       -0.033507414 -0.2213413 -0.5271366 -0.54219687
0000a0 d6 14 20 3f 65 30 0a 3f d0 17 1d 3e 02 e8 ca be
       0.62531793 0.53980094 0.15341115 -0.39630133
0000b0 14 72 f0 bd 54 d6 ee 3e 19 0e 00 3f 29 7b cb 3e
       -0.11740509 0.46647894 0.5002151 0.397424
0000c0 b6 89 99 be f8 00 50 3f 2e 61 fe be a9 11 c3 3e
       -0.29987878 0.8125148 -0.49683517 0.3809941
0000d0 05 6f a5 3d 14 2b 06 3f 86 70 ec 3e 0d c5 22 be
       0.08077816 0.5240948 0.461796 -0.15895481
0000e0 f4 4d 99 be c6 2a 3c 3f 02 71 a6 3e ea fc 21 bf
       -0.29942286 0.7350277 0.32508093 -0.6327654
0000f0 07 3e 2e 3e c4 f0 f5 be 37 1f d4 3c f9 23 d0 bc
       0.17015849 -0.48035252 0.02589379 -0.025407778
000100 f2 11 ab be bb 08 bc 3e f3 3d 87 be c7 e8 b1 be
       -0.3341213 0.3672541 -0.2641445 -0.34747908
000110 40 f4 36 3f 0b 26 7a bd 64 2b c6 be a4 9a d3 3e
       0.71466446 -0.061071437 -0.3870498 0.4132892
000120 d6 e7 42 bd 2f 59 5b be 88 d5 8c be 7b 59 9c 3c
       -0.047584377 -0.2142074 -0.2750666 0.019085636
000130 a0 ff 8c 3e 10 37 68 3e 6f 6d 2d be 99 4d cd 3d
       0.27538776 0.22677255 -0.16936277 0.10024566
000140 68 2c 69 be 49 0d 0e 3e 13 78 c4 be 52 04 74 be
       -0.22770846 0.13872255 -0.3837286 -0.23829773
000150 1e 0f 2d bf 74 6d a9 be 66 5e ac bd 97 2c 7c be
       -0.6760119 -0.3309132 -0.084164426 -0.24626385
000160 3f 59 74 3e b1 1a 89 3e 06 9c 28 bf a1 b3 e9 be
       0.2386217 0.26778176 -0.6586307 -0.45644858
000170 65 f3 ba bd 25 57 8a bd cf ae 0d bf 96 87 2d bd
       -0.09128455 -0.06754903 -0.5534486 -0.042365633
000180 71 25 5f bf d2 fd 12 bf f8 a6 a2 be 1d 9e 43 3f
       -0.87166506 -0.5741855 -0.31768012 0.76413137
000190 51 ec 66 be e0 96 7b 3c c0 10 af be df bf 87 3f
       -0.22551085 0.015355796 -0.34192467 1.060543
0001a0 8e 87 36 bf 5a c7 a0 bd ff 1b 08 bf 74 37 72 3e
       -0.7130059 -0.07850523 -0.5316772 0.23653966
0001b0 25 c9 1c 3f c5 b1 1d 3f ea 1a 97 be a2 b9 c0 3c
       0.6124442 0.6159938 -0.2951272 0.023526017
0001c0 9c 6d 97 3e ae f3 98 bd f0 5d 10 bf f1 c7 35 be
       0.29575813 -0.07468353 -0.5639334 -0.17752053
0001d0 be 3e 00 be a1 09 4c bf 06 48 17 bf b3 f2 4e bf
       -0.12523934 -0.7970219 -0.59094274 -0.8083908
0001e0 05 29 84 3f 50 9a 7e 3e 1a d9 64 bf a4 da 92 be
       1.0325018 0.24863553 -0.8939377 -0.28682435
0001f0 9c c0 a0 be bd 26 f8 3e e5 6d 91 3e cb 42 31 be
       -0.3139695 0.48467055 0.28404155 -0.17310636
000200 34 e1 0f 3f 06 db 84 bc b8 f6 24 3e 56 b8 95 3d
       0.5620301 -0.01621772 0.1610974 0.0731055
000210 12 e7 f2 be b6 56 8c be 68 34 b6 3d 2d 41 31 3c
       -0.47441918 -0.27409905 0.088967144 0.010818762
000220 92 ca d8 3e 16 12 38 bf 79 ae 83 be 5f 87 3d 3f
       0.4234205 -0.71902597 -0.2571905 0.74034685
000230 0b ec 56 be 1e 04 25 3e 2d 5d a7 3e a4 28 5b bf
       -0.20988481 0.16114852 0.32688275 -0.8560889
000240 bd 80 ec 3d 2c 7b 84 3e 1e 1b f1 3e c4 57 32 3e
       0.115479924 0.25875223 0.47091 0.17416292
000250 f0 4d 67 3e 95 20 13 3f dd 9e bd 3c 4b e0 bd 3d
       0.22588325 0.5747159 0.023147041 0.09271296
000260 21 5f 5a 3d f7 9a 63 be d0 76 5e bd bd d8 60 bf
       0.05331338 -0.22227083 -0.054312527 -0.87830716
000270 99 14 5f 3f 58 a0 1c bd ab c8 77 bd 9e 13 04 be
       0.87140805 -0.038238853 -0.060494106 -0.12898108
000280 81 35 dd 3e ad 06 25 3f 97 a4 a6 be 3a 53 b4 be
       0.43204883 0.6446331 -0.32547447 -0.35219747
000290 1b ad 40 3f 6a 44 60 bf b3 89 ff be d5 b6 f0 be
       0.7526414 -0.8760439 -0.49909744 -0.4701449
0002a0 04 9e b4 3e f8 1e d2 3e 67 67 11 3f af 19 bf be
       0.35276806 0.41039252 0.56798404 -0.37324283
0002b0 78 7f 6d be df 7a 10 bf 8e 42 8e 3e 4c 06 cc be
       -0.23193157 -0.56437486 0.27785152 -0.39848554
0002c0 03 ec 1b 3e 67 0d c2 bc 22 4d f8 3e 9d c4 8e 3e
       0.1522675 -0.023688031 0.48496348 0.2788438
0002d0 b4 ea c6 3e 6e 6f 8c 3e 2f b0 39 3f 49 81 96 3f
       0.3885094 0.27428764 0.7253446 1.1758205
0002e0 fa 9d a2 be f1 5c f2 3d a0 e4 37 3e 9f 92 21 be
       -0.31761152 0.118341334 0.17958307 -0.15778588
0002f0 fb c4 5b 3f 1c a6 05 3e 5e 32 26 bf dc 66 21 3e
       0.85847443 0.13051647 -0.64920604 0.15761894
000300 d4 fd b1 3e 16 50 c6 be cc 21 fd 3d f0 40 0d 3f
       0.34763968 -0.38732976 0.12359962 0.5517721
000310 fe d9 a3 be 68 b1 dd 3d 05 31 88 3f 7e 6a 91 3e
       -0.32002252 0.10824853 1.063996 0.2840156
000320 b7 6d 39 be c0 7b c9 3e cb 63 56 be 10 78 8c bf
       -0.18108259 0.39352226 -0.20936505 -1.097414
000330 4a 24 e9 3e 96 4a 1f 3e 79 c7 92 bd ff b9 3c bf
       0.455355 0.15555796 -0.07166953 -0.7372131
000340 62 44 e0 3d 86 a8 46 bf af d3 86 be de 13 bc be
       0.10950543 -0.77600896 -0.26333377 -0.36733907
000350 75 f3 75 be 8c 98 5c 3f 56 02 84 3e 34 e9 b2 be
       -0.24018653 0.8617027 0.25783032 -0.34943545
000360 91 44 d4 3e cc 21 cd be de ba e8 3d 1a e3 8f 3d
       0.41458562 -0.40064847 0.11363767 0.07025738
000370 34 e8 d0 be c8 25 a2 3d 7c 9f ab bd 1c 8b 2b 3e
       -0.40802157 0.079173625 -0.083800286 0.16752285
000380 8b 7d 9a 3e 2e 2f ed bc 34 a7 4c be 3d a8 d0 be
       0.30173907 -0.028953161 -0.19985658 -0.40753356
000390 fe b4 43 3e 4c 38 43 bf ee d1 0d 3e 07 bc 75 3e
       0.19112012 -0.7625778 0.13849613 0.23997508
0003a0 cb 03 37 3e 8e 7e a2 be 36 83 b6 3e 3d e3 8e 3e
       0.1787254 -0.3173718 0.3564698 0.27907744
0003b0 f5 11 48 be a1 f0 49 3e cc 5e f6 3e 17 e3 d1 3e
       -0.195381 0.19720699 0.481192 0.40993568
0003c0 0f 3c 7f 3e cc d7 49 3e cf 44 7d 3c a8 a0 ef 3e
       0.24925254 0.19711226 0.0154583 0.46802258
0003d0 70 8c ec 3e f3 7d 65 3d c7 89 11 3f a7 a2 f7 3e
       0.46200895 0.056028318 0.56850857 0.4836628
0003e0 74 00 06 3f e7 fa 0a bd f9 7c 97 3e f2 ad 67 bf
       0.5234444 -0.033930685 0.29587534 -0.90499794
0003f0 f9 b6 47 3d 0f 11 b0 be cb f8 ac be bb 7a f7 be
       0.04875848 -0.34388015 -0.33783564 -0.48335823

encoder_lstm.bias_ih_l0 f4 [128]
000000 d4 78 89 be 51 9c ad bd 08 cf 1a 3d 46 6a de 3d
       -0.26849997 -0.084770806 0.037795097 0.10860114
000010 79 cb b7 3d b3 52 88 3f 4f 92 50 bc f4 e9 11 3f
       0.08974356 1.0650238 -0.012730195 0.5699761
000020 88 43 06 bf 5c 85 32 3e 88 1d 92 bd 81 0d 7e bc
       -0.52446795 0.17433685 -0.07134539 -0.015506149
000030 26 9f be 3b 7b d1 5e bc 14 17 c5 be 3f 57 8a be
       0.005817312 -0.013599749 -0.3849417 -0.27019688
000040 48 61 be bd 2d d6 20 3c 2f c6 28 3d 2d 20 ac 3d
       -0.09295899 0.0098166885 0.041204628 0.084045745
000050 d3 08 eb 3e 17 85 04 3f 74 7d 08 3f c0 9c 01 3f
       0.4590517 0.5176558 0.53316426 0.50629807
000060 95 c0 d6 3e 18 ad 9d bd f0 0c 81 be 90 47 12 3e
       0.41943803 -0.07699031 -0.25205183 0.14285111
000070 1c c7 4d 3c 4f 58 48 bd ab 7e 16 bd ab bc 43 be
       0.012559678 -0.048912343 -0.036741894 -0.1911494
000080 02 ca dd 3e 36 a9 82 3e 97 2d c0 bd 73 ab 19 3f
       0.43318182 0.25519723 -0.093836956 0.60027236
000090 43 b1 9b 3e 85 e5 10 3e 52 b0 1f 3e 14 10 5e 3e
       0.30408677 0.14150055 0.15594605 0.21685821
0000a0 84 21 1b 3e 03 1a 86 be 28 af e0 bc be f0 8f 3e
       0.15149504 -0.2619172 -0.027427271 0.2811336
0000b0 7a 58 43 3e 9e db 5a be 28 16 10 be 17 62 8d be
       0.1907672 -0.2137284 -0.14070952 -0.276139
0000c0 16 01 8d bd 56 f0 b8 be 7c 70 f3 3e 8e 5c ac bd
       -0.06884973 -0.36120862 0.47546756 -0.08416091
0000d0 89 f7 7d bd fc 4f 2f 3d 5b da c8 3d e3 ec 46 bd
       -0.062003646 0.04280089 0.09807273 -0.048565757
0000e0 a7 a9 34 be 5d 6e 9f be f6 49 da bd e7 c2 93 be
       -0.17642842 -0.31138888 -0.10658638 -0.28859636
0000f0 11 c5 34 bd 20 8f a0 3e aa 21 75 3d 0a d6 14 3f
       -0.04413325 0.31359196 0.059846558 0.581391
000100 4d 24 71 be 68 03 d9 3e dc 60 03 bf 27 7b d3 be
       -0.23549004 0.4238541 -0.5131967 -0.41304895
000110 c1 a3 b2 3d a9 76 92 be 34 0a 3c 3d 62 e1 8f be
       0.0872264 -0.28606156 0.045908168 -0.2810164
000120 1d 3a 10 3e b0 5b 32 3e 34 88 f9 3d c3 ca 5a 3b
       0.14084668 0.17417789 0.12184182 0.0033385016
000130 33 13 f7 be 19 07 da be 34 57 94 bd 74 39 5b 3d
       -0.48256835 -0.4258354 -0.07243195 0.05352159
000140 1b 63 65 3d fb 92 20 3e 4c 35 df 3d c8 0c 13 3e
       0.056002717 0.15681069 0.108988374 0.14360344
000150 96 80 50 be 04 cb 89 3e ec a7 8d 3e da 27 9e 3e
       -0.20361552 0.269127 0.27667177 0.3088978
000160 c8 52 8e be 50 d0 07 3e 15 c1 93 3e 0d 45 f0 be
       -0.27797532 0.13263059 0.28858247 -0.46927682
000170 0a 7e a4 3e c1 a6 42 be 9d 8b 57 be 8d c6 c0 be
       0.3212741 -0.19008924 -0.21049352 -0.37651482
000180 3a 8b f8 3d ab f8 8c bd 8b a0 20 bf c8 de 2b 3e
       0.1213593 -0.06883367 -0.6274497 0.16784203
000190 e7 2b c6 3e e9 af bf 3e 57 00 23 3e 96 94 e1 3e
       0.3870537 0.37438896 0.15918098 0.44058675
0001a0 3f 0a 58 bd 2f 20 b2 3d 09 90 c4 3e 60 35 96 be
       -0.052744146 0.08697545 0.3839114 -0.29337597
0001b0 f2 53 cd bc ff ef dd bd aa 90 94 bd 30 e3 3e be
       -0.025064442 -0.10836791 -0.07254155 -0.18641353
0001c0 fe 0a c1 bd 26 65 07 3d 5b f8 e2 3e cb c7 95 be
       -0.09425925 0.033055447 0.44330105 -0.29253992
0001d0 3a e8 36 be df 01 99 bc 39 28 76 bc 1a 0e c6 3e
       -0.17862025 -0.01867765 -0.015024238 0.38682634
0001e0 03 47 0a be 9a 9a a4 be e8 b9 55 be b4 9e e1 3d
       -0.13503651 -0.32149202 -0.20871699 0.11016598
0001f0 df 32 78 3f 6e 9a 27 3e 20 cd 94 be 97 03 74 3e
       0.96952623 0.16367504 -0.29062748 0.23829494

encoder_lstm.bias_hh_l0 f4 [128]
000000 69 d5 d5 bc 89 23 82 be 8e 9b 41 bd 20 c6 b0 3d
       -0.026102738 -0.25417736 -0.04726749 0.08631539
000010 ba 0c 0d 3e f6 6d 4a 3f 1d 09 6c 3e f8 66 e0 3e
       0.13774386 0.7907404 0.23050351 0.4382856
000020 8d 39 85 be ee c2 d1 3d 3b 98 17 be f8 df 55 be
       -0.2602047 0.10242258 -0.14804165 -0.20886219
000030 66 d4 90 bd 20 21 1e 3e 36 75 f3 be 7d c8 79 be
       -0.07071762 0.15442324 -0.47550362 -0.24392886
000040 7c 91 67 be f7 01 d2 bc 37 e5 56 bc cc 9f ac ba
       -0.22614092 -0.025635703 -0.0131161725 -0.0013170182
000050 70 52 a9 3e e9 87 f9 3e fc 10 09 3f c2 db cf 3e
       0.33070707 0.48736504 0.5354154 0.4059735
000060 a5 44 ab 3e ec 4e 3a 3e f5 9d dd be 7b a4 1e 3e
       0.3345081 0.18194169 -0.43284574 0.15492432
000070 b1 a9 2f 3e f5 74 8b be 9d 48 8b be 07 7b 95 3d
       0.17154576 -0.2723767 -0.27203837 0.07298856
000080 f5 bc a7 3e e5 95 cd 3e 94 77 f5 bd e0 d1 f1 3e
       0.3276135 0.40153423 -0.11985698 0.47230434
000090 97 ff 04 3e d4 2a dd 3d 9f 10 c7 3c a5 fb 3c 3e
       0.12988125 0.107991844 0.024299918 0.1845537
0000a0 b8 02 ac 3e 78 b5 cd bd da 16 b8 bc 9f fc 81 3e
       0.33595824 -0.10044378 -0.022471834 0.25388047
0000b0 81 c4 9e 3e 36 b3 45 be 06 25 27 3e 4e 27 a0 be
       0.31009296 -0.19306645 0.16322717 -0.31279987
0000c0 37 6b 95 be 2c 57 21 bf 57 ad f0 3e 31 2d 63 be
       -0.2918336 -0.6302364 0.47007248 -0.22185208
0000d0 27 c4 47 be 8b 73 10 3e 94 2a 53 3d 43 2e 55 bd
       -0.1950842 0.14106576 0.051554278 -0.05204607
0000e0 55 db a8 bd 59 aa d2 be 7e 72 84 be db c1 fd be
       -0.08244959 -0.4114559 -0.258686 -0.49561962
0000f0 4c f5 8b 3e c5 13 d4 3e 25 c3 81 3e 8b 6a e0 3e
       0.27335584 0.41421333 0.25344196 0.43831286
000100 bb 26 83 bc 28 91 88 3e a6 4b 9c be 45 2b 2f bf
       -0.016009679 0.26673245 -0.30526465 -0.684254
000110 c8 81 1c be b4 1f 4e be 5b c2 45 3d 33 09 5d be
       -0.15283883 -0.20129281 0.048281055 -0.2158554
000120 55 c4 cc 3e 84 96 9b 3d c8 26 80 3e dc ca 94 3d
       0.3999354 0.07597068 0.25029588 0.07265255
000130 3a 6a ee be c8 7e 4e be f3 4a 22 3c d1 95 f2 3d
       -0.4656542 -0.2016555 0.009905565 0.118449815
000140 89 ec bd 3d 21 c0 91 bd dd a2 32 3e f3 7e 87 bd
       0.09273631 -0.07116724 0.1744494 -0.066160105
000150 22 06 f4 bd 21 5e 8b 3d 45 94 4f 3e 83 d1 0c 3f
       -0.11915232 0.06805063 0.20271404 0.5500719
000160 ff 3f b4 be da f8 02 bd e9 2d 6c 3e b8 1b d4 be
       -0.35205075 -0.031975605 0.23064388 -0.41427398
000170 59 b6 9f 3e 72 8a e3 be 47 f0 08 bf 61 6e 3d be
       0.31193808 -0.44441563 -0.53491634 -0.18499137
000180 52 b9 dc 3d 1f 3b 0b 3e 7a f4 e5 be 0f d2 ba 3e
       0.107775345 0.13596772 -0.44913083 0.36488387
000190 f7 4b b8 3e 94 94 06 3f 09 ab 73 3e ae 5b ac 3e
       0.35995457 0.5257046 0.23795713 0.33663696
0001a0 24 74 43 be 1a c3 8a bd 02 ef 34 3e 92 9b d3 bd
       -0.19087273 -0.06775494 0.17669299 -0.10332407
0001b0 71 f1 91 3e 63 0a 07 be 02 2a 94 3c 27 af a9 bd
       0.28504518 -0.13187556 0.018086437 -0.08285361
0001c0 25 89 be be 63 16 73 3e 21 3f c4 3e 95 90 e3 bd
       -0.37214008 0.23739009 0.38329414 -0.11111561
0001d0 ed 0f cb bd 4c 5d 32 3d e7 da c9 3d b4 8c 6d 3e
       -0.09915147 0.043546006 0.098562054 0.23198205
0001e0 5c 3d da bc 0b 7c 95 be 4b 11 ae bd ab 99 6d 3e
       -0.026640587 -0.291962 -0.08499392 0.23203151
0001f0 7c ef 6f 3f b1 7a 19 3e 2b ff 21 be b8 56 7d 3e
       0.937248 0.1498821 -0.15819995 0.24740112

encoder_lstm.weight_ih_l1 f4 [128, 32]
000000 2c 0d db 3e 19 35 8f bd 9b 20 a6 3d b7 a9 97 be
       0.42783487 -0.069925494 0.08111688 -0.2962167
000010 b6 07 cc 3e 64 10 24 3e a4 66 66 be 65 fd 82 3e
       0.39849633 0.16021878 -0.22500092 0.2558395
000020 0c 23 04 3e bf c3 b6 3d 33 a5 3c 3e f3 e0 e0 3d
       0.12903994 0.08924054 0.18422394 0.10980406
000030 9e 7a b7 bd 61 38 33 bf 4d fa 0a 3e d9 bb 12 3c
       -0.08958934 -0.700079 0.13572045 0.008955919
000040 e3 19 28 3e 8d f4 85 be 41 2f a7 be 59 30 4d 3c
       0.16416125 -0.2616314 -0.3265324 0.012523734
000050 a6 49 89 3e 1f 48 78 3e e3 f4 e9 3d a3 4d 13 3e
       0.26814002 0.24246262 0.114236616 0.14385085
000060 b6 a4 8d 3e 50 32 de 3e be 8d eb 3e 59 41 2a bf
       0.27664727 0.4339776 0.46006578 -0.6650596
000070 d3 29 f8 3e a4 c4 68 be 9a b2 7c bd c7 31 82 be
       0.4846941 -0.22731262 -0.061693765 -0.25428602
000080 00 ba a2 3e 8e bb 70 be 7f 5c a6 bd 26 ee b1 bc
       0.31782532 -0.23509046 -0.08123111 -0.021720003
000090 c6 b4 07 3f 48 1f ab be 0e 9b cc be 54 78 96 3e
       0.53010213 -0.33422303 -0.39962047 0.29388678
0000a0 c7 36 06 be d3 2e 3e be 68 5c 6c 3e bc 6d c9 3b
       -0.13106833 -0.1857255 0.23082125 0.0061471146
0000b0 f1 0d 86 3e 3d a0 cb 3d 69 6d f1 bd 03 3e 07 3e
       0.2618251 0.099426724 -0.117884465 0.1320725
0000c0 b6 4a 0d be a3 37 ac be d0 07 f8 3d fb f3 e3 be
       -0.13798031 -0.33636197 0.12110865 -0.4452208
0000d0 87 db a5 3e 28 f9 c3 be bf 15 c0 3d 06 b5 30 bc
       0.3239405 -0.3827603 0.09379148 -0.010785347
0000e0 0c 31 08 3f 01 fd ec be 3e 0f 8c bd 62 5a 6d 3d
       0.5319984 -0.46286777 -0.06838845 0.057947524
0000f0 7e d4 60 3e 7b 41 e5 be 4f d4 45 bf 9f 62 70 3e
       0.2195606 -0.4477652 -0.7727708 0.23475121
000100 b4 69 45 be 7c 61 5d 3e 38 32 8e 3c 38 7e 2e 3f
       -0.19278604 0.21619219 0.01735793 0.68161345
000110 b5 59 58 3c 95 bb 31 3f d0 97 cc 3e 9e 5f 0f 3f
       0.013204982 0.6942685 0.39959574 0.56005275
000120 d6 68 12 3d 62 f7 42 bd a9 70 0c bd 7e b9 47 3e
       0.03574451 -0.047599204 -0.03428713 0.19504353
000130 2d a1 d0 3d 59 54 55 bd b8 86 87 3e 3f ab 27 3e
       0.10186992 -0.052082393 0.2646997 0.16373919
000140 6a ab ae 3d 46 11 cd 38 d1 9e d3 bd 33 73 81 3e
       0.085287884 9.778379e-05 -0.10333026 0.25283203
000150 63 8d 57 3d 7d 5c c9 be 45 eb 0f be a4 cb b7 be
       0.05262507 -0.39328375 -0.14054592 -0.35897553
000160 9e e2 85 be 29 9e 0c bd 5e 0f 3a be 36 e3 28 3f
       -0.26149458 -0.03433052 -0.18169925 0.65971696
000170 a9 28 b2 3c ed d6 04 bf 0f 4f 15 bd 55 3c 48 3e
       0.021747904 -0.5189045 -0.03645235 0.19554265
000180 8e 8e 5d bd 8f 1e fe 3e 6b 61 9d be 3b d0 79 be
       -0.05409103 0.4963269 -0.30738387 -0.2439584
000190 d4 d2 f9 3e bc 79 a3 be ac 0d 9d be f3 e1 24 be
       0.48793662 -0.31928813 -0.30674493 -0.16101818
0001a0 b4 12 76 be d7 8c 34 bd 34 9f 00 3f 35 9a 69 3e
       -0.24030572 -0.044079628 0.50242925 0.22812732
0001b0 05 53 e6 3e 34 65 2a 3c ff 10 6f 3e 56 36 b3 bc
       0.44985214 0.010400105 0.23346327 -0.021876495
0001c0 09 4e fc bd 15 31 5a be 97 bb 19 3d 08 f6 e6 be
       -0.123195715 -0.21307786 0.037532415 -0.45109582
0001d0 cc 72 40 3e 27 79 88 be c0 84 49 3d 3c 5b 9b 3e
       0.18793792 -0.26654932 0.049198866 0.30343044
0001e0 72 69 2a 3e 31 38 e0 3d 4d 04 dd be 7a e5 ce 3e
       0.16641787 0.10948218 -0.43167344 0.40409452
0001f0 5f 56 08 3f 96 03 dc be c7 2c a2 bc 88 b9 4a 3e
       0.5325679 -0.42971486 -0.019796742 0.19797337
000200 38 ea fc bd 14 d3 a5 3e 7e 5d c0 be 82 55 a6 bc
       -0.12349361 0.32387602 -0.3757133 -0.020304445
000210 47 22 2b 3d ff af ef bc d8 c4 0c bd 8c 0f 57 be
       0.041780736 -0.029258726 -0.034367412 -0.21002024
000220 96 23 7e bf ea db ba 3d 93 a9 ef 3d 66 c1 92 be
       -0.9927305 0.091239765 0.117022656 -0.28663176
000230 24 07 bb be 22 c8 01 3e 0b a8 fe 3b 58 5e b2 3c
       -0.36528885 0.12674001 0.007771497 0.021773502
000240 8c ce 5f be bd 53 05 3e 72 00 9d 3e c3 ce 3f be
       -0.21856135 0.13020225 0.30664402 -0.18731217
000250 d6 de c1 be e1 be f9 be 85 6b 9d be 29 98 17 3d
       -0.37865323 -0.48778442 -0.30746093 0.037010346
000260 ab 7a 59 be 48 33 81 3e 5b df b4 be 78 0b b2 3d
       -0.212382 0.25234437 -0.35326657 0.08693594
000270 de 33 16 3f 9f c0 f5 be a1 18 4f 3e 2d b3 ce 3e
       0.58672893 -0.4799852 0.20224239 0.40371075
000280 52 f9 e4 bd 5c eb 24 bd 32 3c 33 be 73 22 bc 3c
       -0.111803666 -0.04026352 -0.17503431 0.022965645
000290 17 84 4b bd b4 ea b7 bd 78 fe bc bc bb 18 01 be
       -0.049686518 -0.08980313 -0.023070559 -0.1260709
0002a0 96 82 e0 bd 7b a7 0f be f7 0a e7 bc 70 5b 0f be
       -0.10962407 -0.14028732 -0.02820347 -0.13999724
0002b0 7e c7 bf 3b 70 cb 25 bd 66 6e 0a be 2c e6 c4 3e
       0.0058526387 -0.040477216 -0.13518676 0.38456857
0002c0 21 ed 4c be f2 8c ff 3e 7b 27 da 3e b9 96 c2 3e
       -0.20012332 0.4991222 0.42608246 0.38005617
0002d0 e4 1a f0 bd 06 58 73 be 23 24 ef 3c 49 f2 e5 3d
       -0.11723879 -0.23764047 0.029192036 0.11227853
0002e0 0c 5d 7f be 66 35 21 3e a6 39 9c 3d 12 53 98 3e
       -0.24937838 0.15743026 0.07628183 0.29750878
0002f0 d2 ba ca bd 9f cc f5 3c e5 e1 b3 3d 1e df 6b bd
       -0.098989144 0.030004798 0.0878332 -0.057585828
000300 89 44 b8 bd 1b 87 e9 bd 2a ea fb be d7 55 20 3f
       -0.08997447 -0.114027224 -0.4920209 0.6263098
000310 a7 d5 0d bf cb 67 29 3f 67 34 21 be 60 21 e5 3d
       -0.5540413 0.66174 -0.15742646 0.111880064
000320 32 06 c9 bc 32 b3 0f 3d bb 17 33 3e 4c 11 ea 3d
       -0.024539087 0.035083003 0.17489521 0.1142908
000330 61 51 10 3e e4 2e cd 3c 61 2a 74 bd 2a 8c 01 bd
       0.14093544 0.025046773 -0.05961073 -0.03162781
000340 ae 7a 81 3d f8 12 73 be 14 73 db bd c3 a5 65 3e
       0.063222274 -0.23737705 -0.10715309 0.22426514
000350 3c 95 b8 3d 07 2e 0f be 74 0e 45 be a5 6b 6d 3e
       0.09012839 -0.13982402 -0.19243795 0.23185594
000360 08 7b 39 3c 7e fd 3b 3d 52 c1 33 3e 63 06 9e 3d
       0.011320837 0.045896046 0.17554215 0.07716062
000370 0d 06 5b be f9 92 a8 3e 04 82 f6 3d d6 ee 30 bf
       -0.21389027 0.3292463 0.12036517 -0.69114435
000380 ef 84 4c bd 35 d0 1a 3e bb 3e 3b be 40 36 1d 3e
       -0.049931463 0.15118487 -0.18285649 0.15352726
000390 3f 02 be 3d bc f8 76 3e 5b 73 1f 3f f4 b4 53 3f
       0.09277772 0.24118322 0.62285393 0.8269799
0003a0 4c 01 e3 be 63 96 c0 be f5 5f 96 be fa 9a 0f 3e
       -0.44336927 -0.37614736 -0.29370084 0.14023963
0003b0 50 56 01 3e 28 a4 59 3d 21 ed eb bd 63 54 12 be
       0.12630582 0.053135067 -0.11519838 -0.14290003
0003c0 c3 8f ad 3e 71 c5 23 be 46 6c ea be 7f 72 3c 3e
       0.33898744 -0.15993287 -0.4578573 0.18403052
0003d0 ac 2c c9 3d d7 80 42 3b b0 34 ac 3d 80 ad 53 bf
       0.098229736 0.0029678845 0.08408487 -0.82686615
0003e0 fb 97 9a 3e 91 01 ee be 15 0c f2 bd 98 47 97 3c
       0.30194077 -0.4648557 -0.11818711 0.018466756
0003f0 68 71 5a 3e 19 d6 aa 3d 8d 1d 83 3d d3 c8 dc bc
       0.21332324 0.08341617 0.06402121 -0.02695123
