W3-Design/checkpoints/epoch_20.pt (torch, 384725 bytes, 24 tensors)

encoder_cnn.0.weight f4 [32, 3, 3]
00000000: 2902 40be 484e fcbc 0c2d 7fbe 29f5 8b3e
00000010: 8b7d 5abe 3589 143e 6819 383e 664d 5c3e
00000020: e6cf bc3d df05 4c3e 601b 383e 2931 0f3d
00000030: 9841 a3be 6466 b5be 0296 d5bc 4a8f a2be
00000040: 48fd b73d 48df 45be c791 023e 9733 7f3e
00000050: ef48 e43e 1d81 9f3d d590 653e 02d1 aebe
00000060: ccd9 75be 4aef 533d 8e1a 02be 99f4 86bd
00000070: c663 673d 3f34 32be badc 04bd 5e33 84bc
00000080: 5ecb b23c c333 083e 7a50 6b3e 787e 873c
00000090: 5bef b7bd f198 063e 6c15 a2bd e5d3 093f
000000a0: eab5 a1bd a6aa fd3e 7a9c f33d 584e 203e
000000b0: a8ee acbe ccfb ed3c ee05 17be 8b7a ac3e
000000c0: aa77 c4be 0bd8 b1be b9c0 fd3c 0b99 8f3d
000000d0: 0990 0a3e 1570 afbe 5ccb d13d 6611 d7bd
000000e0: 999b 863e 2d04 613e b8af e93d 23bd f8bd
000000f0: 8228 31be aa24 fd3d c243 bbbe 9404 3f3e
00000100: fa05 04be 0e4e 543e f647 5f3e 2736 aebe
00000110: 43be 05bf b377 15be 088d 0cbe fe22 953e
00000120: b12b d93d f8b2 643e 1b92 633d e0d3 d5bd
00000130: 0356 8dbe e894 a43e 77ea 94be 28f1 853e
00000140: 95c3 77bd 662f c23d 220e a33e 624a b33d
00000150: 73df 823e d445 22be 38ab b2be c539 d03d
00000160: d627 1b3d e5a8 81bd 26c5 b03a 6e7d db3c
00000170: 241e 853d 3e13 d83e 5dee 3abe ccf8 54be
00000180: 6439 2ebe 95b8 3a3e cda3 38bd 47e2 d2bd
00000190: e438 753c d6af 733e add5 5f3d f191 b23e
000001a0: 6760 703c 845c 3abe a77f 71be afe6 283d
000001b0: c32c c5bd dd06 8d3e 00bc 083e 9412 6dbd
000001c0: aa16 a0be 1c48 d6be b41d c83e 40fe 3dba
000001d0: d6c0 3abe 4e13 e83d 3551 5abd 7bbd e33d
000001e0: 7679 303e 3660 bdbd 2d0a 2dbe 342c 953d
000001f0: b25d c3bc 5a71 12be a10d 23be cf6b 3fbe
00000200: 05ed bdbd 7255 aa3e 2349 23bd 76bb 5abe
00000210: 5505 553e 4f26 773e ddc3 cabd 06d8 973e
00000220: 9452 243e afde 43be ec75 ecbe bf73 5cbc
00000230: 955c 8abe cf7b e6be be6a d7bd 37df 24be
00000240: ca3a 173e 0738 3fbe 1c1a a6be 7eca 403e
00000250: 361b de3a eff6 c1bd 9bec 853e 6e13 9abd
00000260: 2f0a 503e e95b 2bbd 08ee 383e 4425 8bbd
00000270: e5a6 b63d b568 07bf 3931 f53d 6939 2fbe
00000280: 72ce d6be df46 3abe f763 823e bf7a 1d3e
00000290: beb0 7fbe ec97 09be f389 ddbe 9beb 14be
000002a0: 77dc 1e3e e180 55be c21b 8ebd ea6e 16be
000002b0: 9eea 003e 72ef c03d 8876 b7bd 6d3b 4ebe
000002c0: ce8f 133e 54b0 37be b7bf 0e3e aee1 2f3e
000002d0: a88f 0abe 213d fbbd d285 27be e9ac 12be
000002e0: f38e 8a3e 679e 533c a48d 843e 7f38 643e
000002f0: 962e 4abe 3fcf 6e3e 88a5 2abe 1054 e8bd
00000300: 8e53 43be af8f 6b3e c729 cf3d ba0b 07be
00000310: f5e7 d7be 04ac 96be 6fb3 373d 5af0 a8be
00000320: d106 b93d fb77 de3d 0d84 633e f889 43bd
00000330: 501d 94bd 7fda 22be fe00 96be 065f 153e
00000340: 7bbc 78be 59a8 8bbe 4ea5 f7bd f4cb 4d3d
00000350: 3ded d0bd 2681 213e 0cfe 843e 1bf7 903e
00000360: 91e4 0dbc 40a8 593e ec62 47be d76f 7f3e
00000370: 3818 503e 2b69 49be 6732 c63b 5e9c 273d
00000380: a099 3a3d 4329 ff3e f43c 773e 626f d13e
00000390: 1066 843e 1dd4 793e 1192 043d b233 d6be
000003a0: a4d0 8ebd a0f7 363e 9bc3 cebe 4fc8 56bc
000003b0: b018 4cbe 97a8 bf3e 6209 543e b08f 45be
000003c0: 3191 ba3e 12c1 f53c a534 fabd 78ad 84be
000003d0: f023 29bc f1db 59bd fcdd 2abe 3015 fcbd
000003e0: 7c46 273e 31c9 18be d006 a63e b58b 513d
000003f0: 580d 343e 493f e7bd 9da0 983b 44b1 f3bd
-0.18750824 -0.030799046 -0.24919528 0.2733548 -0.21336953 0.14505465 0.17978442 0.215139
0.09219341 0.19924115 0.17979193 0.034958992 -0.31885982 -0.3542968 -0.026072506 -0.31749946
0.089838564 -0.19323456 0.12750922 0.24922024 0.44586894 0.07788298 0.2241853 -0.34143835
-0.24008864 0.051741876 -0.12705442 -0.06589622 0.056491636 -0.17402743 -0.032437064 -0.016137775
0.021825489 0.13300996 0.22979918 0.016539797 -0.089812 0.1314428 -0.07914242 0.5383895
-0.078960255 0.49544257 0.1189508 0.15654886 -0.3377583 0.02905073 -0.14748356 0.33687243
-0.38372546 -0.3473514 0.030975686 0.070116125 0.13531508 -0.342652 0.10243866 -0.10501365
0.26290587 0.21974249 0.11410469 -0.1214545 -0.17300609 0.12360509 -0.36575133 0.1865409
-0.12892905 0.207329 0.21804795 -0.3402569 -0.5224344 -0.14596443 -0.13725674 0.2912826
0.106040366 0.22333896 0.05555926 -0.104408026 -0.27604684 0.32144856 -0.29085132 0.2616055
-0.060489256 0.09481697 0.3184672 0.08754422 0.25561103 -0.1584695 -0.34896255 0.10167269
0.037879787 -0.06331042 0.0013486489 0.026793208 0.064998895 0.4220218 -0.18254991 -0.20798033
-0.1701408 0.18234475 -0.045078088 -0.10297065 0.014967177 0.23797545 0.054647136 0.3487697
0.014671422 -0.18199354 -0.23583852 0.041235622 -0.09627678 0.275443 0.13352966 -0.057879046
-0.3126729 -0.4185189 0.39085162 -0.0007247664 -0.18237624 0.11331807 -0.0533001 0.11120125
0.17233834 -0.092468664 -0.16898413 0.07283822 -0.023848388 -0.14301053 -0.15923168 -0.1869347
-0.092737235 0.33268315 -0.03986467 -0.21360573 0.20802815 0.24135707 -0.09900639 0.29657
0.16047126 -0.19127916 -0.46183717 -0.01345533 -0.2702376 -0.45016333 -0.10518406 -0.16100775
0.1476852 -0.18673716 -0.32441795 0.18827245 0.0016945365 -0.09470927 0.26157078 -0.07523237
0.20316385 -0.0418357 0.18059552 -0.06794217 0.08918551 -0.52894145 0.11972279 -0.17111744
-0.4195438 -0.18191098 0.25466892 0.15378855 -0.24969766 -0.1343686 -0.4326931 -0.14543001
0.15513788 -0.20849945 -0.06938888 -0.14690748 0.125895 0.094206706 -0.08958155 -0.20139857
0.14410326 -0.17938358 0.13940321 0.17175934 -0.13531363 -0.12267519 -0.16359642 -0.14323772
0.27062187 0.012916184 0.25889313 0.22287177 -0.19744334 0.23321246 -0.16664708 -0.11344159
-0.19074842 0.2300403 0.1011539 -0.13188067 -0.42169157 -0.29428113 0.044848856 -0.32995874
0.09034503 0.10862728 0.22218342 -0.047739 -0.072321534 -0.15903662 -0.29297632 0.1458703
-0.2429065 -0.27276877 -0.12092076 0.050243333 -0.102014996 0.15771922 0.25975072 0.28313527
-0.0086604515 0.21255589 -0.1947133 0.24945007 0.20321739 -0.19669025 0.006048489 0.040920608
0.045556664 0.49836168 0.24144346 0.4090529 0.25859118 0.24397321 0.032365862 -0.41836315
-0.06973389 0.17867899 -0.4038361 -0.013109281 -0.19931293 0.3743331 0.20706704 -0.19293094
0.36438897 0.02999929 -0.122170724 -0.25913596 -0.01032351 -0.053188268 -0.16686243 -0.12308729
0.16335481 -0.14920498 0.32427073 0.051158626 0.17583215 -0.112913676 0.0046578185 -0.11899045

encoder_cnn.0.bias f4 [32]
00000000: 1e98 b2be 1708 acbd d4de 903f 9296 a1bf
00000010: 02e8 14bd cc74 ee3d 10fe 63bf 5172 f7bd
00000020: bec2 70be abad c6be e32e 8bbe fb9b 88be
00000030: 60e3 81bd 2c27 35bf 8b7b 56bf 4916 aa3e
00000040: 3ea8 64bf 2554 573e d193 9dbd 88e0 6dbf
00000050: 568b 40bf 38f6 f23e 8c91 a4bd 91d8 3cbf
00000060: c994 08bf 091b 0c3f 6117 44bf f1fb 58bf
00000070: 0cf9 58bf b2a6 61be 2bad b53b 5ad7 073e
-0.3488168 -0.083999805 1.1318002 -1.2624075 -0.036354072 0.11643371 -0.89059544 -0.12082351
-0.23511788 -0.38804373 -0.2718421 -0.26681504 -0.063421965 -0.70762897 -0.8378226 0.33220127
-0.8931922 0.21028192 -0.07694209 -0.9292073 -0.7521261 0.47453475 -0.08035573 -0.73767954
-0.5335203 0.5472875 -0.76598173 -0.8475943 -0.84755015 -0.22036245 0.005544325 0.13265744

encoder_cnn.2.weight f4 [64, 32, 3]
00000000: e185 febd d397 2fbd c6b4 40bc 0cf7 9a3e
00000010: 3baa 883e 29a4 933e c5a0 073f 6ed2 7b3e
00000020: 701d 013e c90f 87bd ed4e ebbe df66 f6bd
00000030: 49f8 1c3e 978b dd3d f5ef 38be 9be6 31be
00000040: 07c4 81be 6b6d 45bd a2ea 6b3e d31e 2c3e
00000050: defa b73d 107d febd f64e 22be 7cb3 41be
00000060: 49ff d33e c532 743d 7761 0d3e 85da 693e
00000070: e3cb ff3d 0e07 8eba 601c a5bd a58f 583e
00000080: 4b2e 1a3e 3c75 0f3e 8049 7bbd 67b8 abbd
00000090: c9f7 363d d7b1 18be 9a42 95bd 18a8 6b3e
000000a0: 664b 4e3e 90c9 673e dfcb 9b3d 0b47 75bd
000000b0: ce94 e7ba 1f11 853e de6e 873e 6b3d 40bb
000000c0: 7702 843e 7a14 3f3e 3759 823d a577 643e
000000d0: 6d14 f63d a442 7f3b 291f 1fbe 030c 66bd
000000e0: 6b07 d7bd 5fda 98be b714 6abe 2358 a2bd
000000f0: d7e0 053d af24 29be 1251 173d 936c 1ebd
00000100: eeeb 88bc a3d9 1dbe ab84 343e 87a1 4ebc
00000110: 4b63 683d 4625 64be 2fdc 63be 8068 c6bd
00000120: 9f71 ac3e fcdf 553e 2f30 853e 33d2 a93d
00000130: e5cf 1d3e 4874 8bbe 0d50 07be 83d7 493d
00000140: 8452 00be c359 8e3d 88d4 28be e1ce f13b
00000150: 3fce fcbd 2e18 9bbe 16fe 73be f1ab b83c
00000160: 8832 dabd 4a3a 0fbd 1d9c cf3e 71e7 693c
00000170: 1604 cebd c4ef 243e bdaa abbd 9ecb 01be
00000180: 9ca5 6bbd 3ba8 5abc 7591 993d 5368 a6bd
00000190: 82cd 74bd 6937 e4bc 7cd3 ffbe bb9e 75be
000001a0: f055 3ebe 1fa9 83bd 78ef ef3c 2043 babd
000001b0: ec8f a2be d8b8 93be 924c 5dbe a30d 38bd
000001c0: adf5 bbbb 5b66 913d 938e 703d e096 02be
000001d0: f3de 42be 8272 77be cf4e 9f3d 9101 1d3c
000001e0: 39cb c33d 7b40 4bbe 1e1e 46bd 98c8 c53c
000001f0: ad8d 193d 09b0 7bbc eca7 53bd ef9d 9bbd
00000200: 5810 9dbd 4f71 afbe fe5b 38be 8f70 f4be
00000210: 24d6 c8bb ea4f 81bc a9a7 32bd 32e0 12bd
00000220: d634 833c 4750 233d 018c fabd 8335 5abd
00000230: 3746 13be d3be 2cbe f748 9ebd 8826 2abe
00000240: 569a 35be cca4 453d e52f 7ebd b799 a6be
00000250: c7fb b8be 1821 b2be cbe5 543b 4645 f63c
00000260: f547 353d 3e16 dc3d 1837 883d 636c 963d
00000270: ee9e f4bc 9dc9 1bbc e141 f5bc 302c 9abe
00000280: 82b9 8bbe 3cbb 8ebe 6226 aebc 748e e3bd
00000290: 8abc f1bd 1c8f 323d b312 16bd d231 c03c
000002a0: 2d4a 05bd 0b09 5a3d 2cf0 4b3d 1811 7fbe
000002b0: 95c6 203d 6893 883d 0800 38bd 6e65 35bd
000002c0: b21e 41be c3d7 44be 5120 abbd 16ce 96bd
000002d0: 737c 34be 29d5 9bbd 5a63 883d e6f0 2fbc
000002e0: 58d2 d7bd 21d2 29bc b506 0bbe 952d e0bd
000002f0: 036c 36be def3 2cbe 44fc 2ebe 5ab7 62be
00000300: 3ba4 c43e 2423 833e 166e a3bc 9417 623d
00000310: fee0 8a3e abd9 213e 255d e1be 13fe afbe
00000320: 56d3 7abe 9b2d 8e3d 8f91 20be c94d 46bd
00000330: 7a0b 6dbe 8fba d1be 1750 b2bf 76cc acbd
00000340: 4e35 193f 8946 b6bb 1bad 63be 2a45 753e
00000350: 720b b1bc 8812 413d 4145 643e fadb f2be
00000360: 525a 37bd 1820 15be bd15 46be ac26 8ebd
00000370: b589 81be d543 13bf a092 13be 12ef ad3d
00000380: 402b 04be 37d6 85bc 395a c83d 2604 40be
00000390: 013c 76be 3825 cabd dad0 80bd 325a ecbe
000003a0: a37d 57be f994 acbe d205 e23e 39ea 0a3e
000003b0: 3c0f 4fbe 5dd8 1e3d 1245 fd3d 2653 8bbe
000003c0: 763a 8a3e 708b 7f3d f68a a7be 171d 873e
000003d0: a19a 8e3d 779a adbd 9ca9 ddbe ddb0 c5be
000003e0: 7904 e2bd 67c0 3dbe 3c48 813e 78b1 8fbd
000003f0: dc91 ad3e c727 6e3e 1809 30be 7de6 25be
-0.12427879 -0.0428694 -0.01176185 0.30266607 0.26692376 0.28836182 0.5297969 0.24591991
0.12608886 -0.06594808 -0.45958653 -0.1203134 0.15329088 0.1081764 -0.18060286 -0.17373125
-0.2534487 -0.048200052 0.23038724 0.16808634 0.08983396 -0.124261975 -0.15850434 -0.18916124
0.41405705 0.05961873 0.13806711 0.22837265 0.1249006 -0.0010835843 -0.08062053 0.21148546
0.15056722 0.14009565 -0.061349392 -0.08384781 0.0446699 -0.1491159 -0.07288094 0.23013341
0.2014595 0.22635484 0.07607245 -0.059882205 -0.0017668249 0.25989625 0.26451772 -0.0029333483
0.2578313 0.18660155 0.06364673 0.22311266 0.12015615 0.0038949633 -0.1553923 -0.0561638
-0.10499462 -0.29854104 -0.22859465 -0.07926967 0.032685127 -0.165179 0.03694255 -0.038677763
-0.016714063 -0.15415053 0.17628734 -0.012611753 0.05673532 -0.22279844 -0.22251962 -0.096879005
0.33680436 0.20886225 0.26013324 0.082920454 0.15411337 -0.27237153 -0.1321413 0.049277794
-0.12531477 0.069507144 -0.16487324 0.007379398 -0.12344026 -0.30291885 -0.23827395 0.022542926
-0.10654169 -0.0349677 0.40548792 0.014276371 -0.10059373 0.16107088 -0.08382175 -0.1267533
-0.057530984 -0.013345773 0.07498447 -0.08125367 -0.0597663 -0.027858453 -0.49966037 -0.23986332
-0.1858747 -0.06428742 0.029288992 -0.09094834 -0.3175043 -0.28851962 -0.2161124 -0.04493488
-0.005736074 0.07099601 0.05872972 -0.12752867 -0.19030361 -0.24164775 0.077787034 0.009582893
0.09560246 -0.19848816 -0.048368566 0.024143502 0.03748863 -0.015361794 -0.051673815 -0.07598483
-0.07669133 -0.34266135 -0.18003842 -0.47742125 -0.006129043 -0.015785176 -0.043616924 -0.03585834
0.016016405 0.03987148 -0.12233735 -0.05327369 -0.14382254 -0.16869669 -0.07728761 -0.16616261
-0.17734656 0.048252866 -0.062057395 -0.3253915 -0.3612959 -0.34790874 0.00324856 0.030062329
0.044258077 0.1074643 0.06651133 0.07344892 -0.02986094 -0.009508518 -0.02993864 -0.30111837
-0.2728997 -0.27877223 -0.021258537 -0.11111155 -0.11803539 0.04359351 -0.036638927 0.023461256
-0.032541443 0.05323128 0.049789593 -0.24908864 0.039251883 0.066687405 -0.044921905 -0.044286184
-0.18859366 -0.19222932 -0.08355773 -0.073635265 -0.17625599 -0.076090164 0.06659575 -0.010738587
-0.10538167 -0.01036504 -0.13576777 -0.10946194 -0.1781464 -0.16889903 -0.17088419 -0.22140256
0.38406548 0.25612748 -0.019949954 0.055198267 0.2712478 0.1580569 -0.44016376 -0.3437353
-0.24494681 0.06942292 -0.15680526 -0.048414025 -0.23148909 -0.40962645 -1.3930691 -0.08437435
0.5984696 -0.0055626077 -0.22234003 0.23952165 -0.021611903 0.047136813 0.22292043 -0.47433454
-0.04476387 -0.14563024 -0.1934423 -0.0694097 -0.25300375 -0.5752538 -0.14411402 0.08492865
-0.12907124 -0.016337497 0.097828336 -0.18751583 -0.24046327 -0.0987038 -0.06289835 -0.46162564
-0.2104402 -0.33707407 0.44145066 0.13565911 -0.20220655 0.03878056 0.1236669 -0.27211875
0.26997727 0.062388837 -0.32723206 0.2638938 0.06963087 -0.084767275 -0.43293464 -0.38611498
-0.11036009 -0.18530427 0.25250423 -0.07016271 0.33900344 0.23257361 -0.17190969 -0.16201206

encoder_cnn.2.bias f4 [64]
00000000: 874b 07bd b7a8 15be b308 ea3c 8e5b bebd
00000010: 944d 173e 649d c83d 80c8 f9be 2474 0cbe
00000020: b09a 41be ebc6 81bc 280f 08be f880 0abe
00000030: f2b1 e63d dce8 ebbd c7c9 bbbd 595d 85bb
00000040: 66f1 303e 47df e93d 6b06 26be be22 f5bd
00000050: dac0 12be 8677 783e be74 8d3e a548 ad3e
00000060: 74d6 2bbe 047a 39bd bde8 a3be cbbe 27be
00000070: 7b44 a03e 94fa fbbd fb07 d5bd 69bf afbe
00000080: 460b 1dbe 9546 9abd 366a 383e 1450 88be
00000090: be88 9ebd 6ef5 06bf 395f 3f3e 56fa e0ba
000000a0: 8802 44be 964f 02bf 0c1e 323e 9b62 34be
000000b0: 5952 1bbe a597 e9be c102 87be 4403 2abe
000000c0: 4f10 8abe 4098 1c3d 6fdf b2be 8df9 d6be
000000d0: 7e53 8ebe b37c b5bd fc20 9bbe a5b0 76bd
000000e0: 7a58 65bd fb79 3dbe a6c3 11be 2887 02be
000000f0: f9c5 8bbe d5ee 4f3e 07b4 a4be f4ed 60be
-0.033031013 -0.14615141 0.028568601 -0.092948064 0.14775687 0.09795645 -0.48785782 -0.13716179
-0.18906665 -0.015841922 -0.13287032 -0.1352576 0.11264409 -0.11519024 -0.09169345 -0.004069966
0.17279586 0.1141954 -0.16213386 -0.11969517 -0.1433138 0.24264345 0.2762813 0.33844486
-0.16781026 -0.04528238 -0.32013503 -0.16381375 0.31302246 -0.12303653 -0.10401913 -0.34325722
-0.15336332 -0.07532994 0.18009266 -0.26623595 -0.07740925 -0.52718246 0.18688668 -0.001716445
-0.1914159 -0.5090269 0.17394274 -0.1761574 -0.15168132 -0.45623508 -0.2636929 -0.16602808
-0.26965567 0.038231134 -0.3493609 -0.41987267 -0.27798074 -0.08861675 -0.30298603 -0.060227055
-0.05599258 -0.18503563 -0.1423479 -0.1274687 -0.2729948 0.20305951 -0.321686 -0.21965772

encoder_lstm.weight_ih_l0 f4 [128, 64]
00000000: e6c7 e33e 4cd8 483d bef0 3d3e 2587 b6bd
00000010: 0883 a13e 6a5b b1bd 9806 1e3d 1fa3 513e
00000020: 4c2a 923e feab 593d f8d2 6e3e c9ce afbe
00000030: bcc2 683e 86a9 22be 05bb debd 1fb1 6c3e
00000040: 6d86 353e 4682 f1bd 1070 96bd 78d7 503c
00000050: d6b5 4cbc cad9 e6bd ead2 713f 5345 62bf
00000060: e2c5 e93e fc53 703e a0d7 37be 8194 673e
00000070: b990 70be faf1 ccbd e99e 5f3e 7e2e 183e
00000080: 455d a73e 824c aa3e e9c8 88bd a9e9 633e
00000090: 8d1e 0e3f 17f8 bcbd dac8 bf3e 96c5 01be
000000a0: ebda 803d 306e 943e c9a2 c73d 9ab2 053e
000000b0: 96bd 87be 03ed 813d 1175 63bc 104c 6b3e
000000c0: bcf4 ce3e 091a 1e3d ff2d 963e c1df 223e
000000d0: 7a05 3f3e 039f 19bd 9f00 433e ef56 263e
000000e0: 2f39 ebba b17b 2abe c712 63bd 67c3 2bbd
000000f0: 4d0e 333d a01c 3a3e b565 b5bd ad0e e2bd
00000100: 07f5 503e 983f 583c a1e5 5ebe 819d 96bd
00000110: 528f aa3d edd1 823e f4f7 95bc c158 693e
00000120: 56d3 eb3d 39b9 203e fc93 753c acd1 8fbe
00000130: a0ea a93d b0a9 3ebd 4b2f 183e 2984 ef3d
00000140: bd80 983e 5a44 64be 0060 5bbe 90db 46bd
00000150: 6ec3 533e 72e2 383e 6ffa 48be 4949 6fbd
00000160: 878a 573e 206b 8bbe 30ab 373e 2ee8 513e
00000170: efb6 333e 88ae 68bd 155e 03bf dc74 b13d
00000180: ef4f af3e f521 503e 619a 3ebd f7d3 6e3d
00000190: 1161 47be 4ed5 fcbd 7042 b33e 91f5 223b
000001a0: 4d82 69bd 9004 533d a315 1fbe 7087 48be
000001b0: ae04 943b 44da 7ebc a7f9 a93e 06b8 00bd
000001c0: 02e7 2cbe 1cd1 c83d fa85 95bd 15f2 553e
000001d0: 1be9 28be db9a 8bbd d307 bebc 8264 793e
000001e0: d80e 6b3d 2999 823d 817b 0c3e 02d7 1bbe
000001f0: f02d 173e 37f2 6bbe 1817 dbbe d873 41be
00000200: 3d45 723d 3f4f 82bd f897 b83e 4644 56bd
00000210: 10b4 c23e 6923 153e cb79 c73c 7b34 3d3d
00000220: e900 87bd f240 103e 1f34 093e feb1 3a3d
00000230: 9f5d bfbe a732 a2bd 14c8 c4bb 7562 833e
00000240: 227a 453e ec31 913e a82f 0ebd fd00 553e
00000250: 1e40 eb3d 08ca 093e e9c0 a73d d670 153e
00000260: 6285 1abe 85f0 683d ee49 363e 8c7b fabb
00000270: 0c78 543e 1f31 ff3d e5dd 14be 8594 9ebb
00000280: b1ee eabd 90dc ce3d 7fa6 ee3c 47ef 99bc
00000290: 0093 9d3e 1f2f 4cbd 857e adbd 29d2 b13c
000002a0: b1a4 b33e 2025 c43d 8ddf 1c3e ec71 cebb
000002b0: 2176 8c3e 07f4 0abf 1257 273e 12d8 edbd
000002c0: c144 163e 1055 133e ff17 a33e b806 833d
000002d0: b128 c1bd 16e3 2abd 2fff 033f 6c75 513e
000002e0: d11a 583b a4d8 6ebe 8b82 2e3c 930c fdbc
000002f0: 5212 00bb ecc8 1dbe dded d93d 84d2 b7bd
00000300: 0134 35be c9f0 713e 6620 1c3e e6bb c73b
00000310: 7f6c 863d c147 a63b 0fed e6bd 9d6f 33be
00000320: af96 c63b 240d 1a3d 9da2 dfbd 4d45 a53e
00000330: f969 933e 1129 d1bd 4e6b 223e 69a1 7c3b
00000340: a63f b1bd 52a5 073f ab9b 0bbc d08d e73d
00000350: 7ef1 713c efe9 893e b936 8e3e 5e73 423e
00000360: 84d7 e13e 7fda 58be 61b0 12be e74c 5c3e
00000370: 44ef 0e3e 1c18 003e a261 85bd 535d b33d
00000380: b0ff d6be bc97 a3be a74f ae3d 92f2 7cbd
00000390: 0974 15be 9e56 72be d449 56be 1eab 983d
000003a0: 4a9d 4a3e 0dce e6bc 0278 273e c746 823e
000003b0: 0008 11bd c286 803e dfec 963d 621e 8c3d
000003c0: 3de4 3a3e 891f 163e 7691 a0bc ee0f de3c
000003d0: f4e5 2b3e 0b48 e53c 866e dcbd 3cd9 063e
000003e0: 79f6 963d ac92 623d bdc1 8c3e 2e69 b4bd
000003f0: 0824 84bd 9708 80bd 2c59 debe d71e 63be
0.44488448 0.0490344 0.18548867 -0.089124955 0.3154528 -0.08660014 0.038580507 0.20472382
0.28547895 0.05314254 0.23322666 -0.34337452 0.22730535 -0.1588498 -0.10875515 0.23114441
0.1772706 -0.11792426 -0.07345593 0.012746684 -0.012494525 -0.11272009 0.94462454 -0.8838703
0.45658785 0.23469537 -0.17953348 0.22615243 -0.23492707 -0.10007091 0.21837963 0.14861485
0.32688347 0.33261496 -0.066789456 0.22257103 0.55515367 -0.09227007 0.37457925 -0.1267303
0.06291755 0.28990316 0.09747846 0.13056412 -0.2651183 0.063440345 -0.013882891 0.22978234
0.40421093 0.038599048 0.29331967 0.15905668 0.18654433 -0.03750516 0.19043206 0.162441
-0.0017946119 -0.16648747 -0.05543783 -0.041934397 0.04371481 0.18174982 -0.0885729 -0.110379554
0.2040597 0.013198756 -0.21767284 -0.0735426 0.083281174 0.25550786 -0.01830671 0.22787763
0.115149185 0.15695657 0.0149888955 -0.28089654 0.08296704 -0.046548545 0.14861791 0.116951294
0.2978572 -0.22291699 -0.2142334 -0.048549235 0.2068002 0.18055132 -0.19626783 -0.0584195
0.21048938 -0.27230167 0.17936397 0.20498726 0.17550252 -0.05680707 -0.5131543 0.08664867
0.34240672 0.20325454 -0.046533946 0.058307614 -0.19470622 -0.12345372 0.35011625 0.0024865607
-0.05700903 0.051518023 -0.15535598 -0.19582915 0.0045171594 -0.015554968 0.33198282 -0.0314255
-0.16884997 0.098055094 -0.073009446 0.20893128 -0.16495173 -0.06816646 -0.02319709 0.24354747
0.057387203 0.06376869 0.13718988 -0.15218738 0.14763618 -0.23041616 -0.42791057 -0.18891847
0.059148062 -0.06362771 0.36053443 -0.052311204 0.38028002 0.14564289 0.024350068 0.046192627
-0.065919705 0.14087275 0.13398789 0.045579903 -0.37376115 -0.079198174 -0.0060052965 0.25661054
0.19284871 0.283584 -0.034713417 0.20801158 0.11486839 0.13455975 0.081910916 0.14593825
-0.15089944 0.056870002 0.1780164 -0.0076441225 0.20748919 0.12460541 -0.14537771 -0.0048394823
-0.11471308 0.10100663 0.029132126 -0.018790854 0.30776215 -0.049849626 -0.08471397 0.021706657
0.35086587 0.095773935 0.15319653 -0.0063002016 0.27433875 -0.54278606 0.16341808 -0.11613478
0.14674665 0.14387918 0.31854245 0.06397766 -0.094315894 -0.041720472 0.51561254 0.20454949
0.0032974968 -0.2332483 0.010651241 -0.030889785 -0.001954217 -0.15408677 0.10641072 -0.089756995
-0.17695619 0.23627008 0.15246734 0.0060953973 0.06563663 0.0050744717 -0.11275684 -0.17523046
0.0060604434 0.037610188 -0.10919688 0.32279435 0.28791788 -0.10212911 0.15861246 0.0038548356
-0.08654718 0.52986634 -0.008521001 0.113063455 0.014767049 0.2693629 0.27776125 0.18989322
0.44109738 -0.211771 -0.14325096 0.21513711 0.1395846 0.12509197 -0.065127626 0.087580346
-0.4199195 -0.31951702 0.08511286 -0.06175477 -0.14595045 -0.23665854 -0.209266 0.07454513
0.19786564 -0.028174425 0.16354373 0.25444624 -0.03540802 0.25102812 0.07369398 0.068417326
0.18251128 0.14660467 -0.019600611 0.027107205 0.16786939 0.027988454 -0.10763268 0.13168806
0.0737123 0.05531566 0.2749156 -0.08809124 -0.06452185 -0.062516384 -0.43427408 -0.22179733

encoder_lstm.weight_hh_l0 f4 [128, 32]
00000000: 394f 753d 5f21 583e bae5 d6be d9b8 f43e
00000010: 6fc1 533f 0ad3 97be 0b9d 9ebd 0e40 8cbe
00000020: e4cb 4a3d 76df 103f 2d87 f53e f53d 18bf
00000030: 223d febd 3da1 34be ca7c 633c fadb 953e
00000040: 4a8c a73c 884c 49be 813e 473e e025 52bd
00000050: 465e 123f d115 a73e bb42 f63e 245a 153e
00000060: db4e 82be 17b0 58bf 665c 1ebd c78d 12be
00000070: efb6 063e f8ff 043f 10a5 0ebf e88b 8ebe
00000080: 9c72 46be 3b62 3a3e 26cd 02bf fc15 01bd
00000090: 10d7 003e c42e 2dbe df1c 7cbc 44ce dfbe
000000a0: 39f4 ef3e bd24 683e 72fb ce3d 20c9 bfbe
000000b0: 7abc 81be d1f2 0a3f 8da2 f93e bce5 ef3e
000000c0: 9b6c 38be 0ca3 ea3e 56b0 32be 4cc0 e83c
000000d0: 45d8 993d 71bb 3f3e 5fe2 843d 70fb 053e
000000e0: b8af 00be 4d5a 113f 12af 133e c11b 6abe
000000f0: f7f5 a23e 7fbc b5be e40a 35be 3309 c2bc
00000100: 5ab8 94be 843e ae3e f718 51be 7d5d d1be
00000110: f3c2 383e 6702 53bd 1643 e33d a555 c73e
00000120: 287a 693d d317 b9bd 1808 77be 0ccb 523e
00000130: 40af 953e 6bdc 5c3e 6e77 58be ab37 913d
00000140: 4a8b 91be b316 703e a3ba d4be f257 88be
00000150: e303 76be 99ca c7be 8fc6 dbbd a1e2 51be
00000160: 9d5d 4b3e 134a 8e3e 6ea0 33bf e743 f1bd
00000170: c16d a0bd a547 f5bd 6799 04bf 22a7 243d
00000180: cda9 2cbf d54c 33bf 66b0 7dbe 0477 673f
00000190: cf91 e7be 6dce 2e3e db53 a6be bb4e 8e3f
000001a0: 283b 44bf cfd0 48be e60f 24bf 8cfa 9f3d
000001b0: 60b8 303f 3175 223f 7bb0 c8be 6c21 65be
000001c0: 16a6 cf3e 2063 5ebe 09ae 1ebf 32d5 dcbe
000001d0: bad5 83bd 4569 51bf 2bba 3dbf 2996 4dbf
000001e0: a12c 873f 6909 3f3e e5be 5bbf c0f0 92bd
000001f0: 47f4 d1be 18d2 c33e c723 8e3e b385 b73d
00000200: 47ce 413f 2949 d9bc 0a14 823e 53a4 103e
00000210: 47a7 2ebe ab3e c7be 6bbb 873c 4528 1cbc
00000220: 3cb6 c33e b64a 05bf d773 22be d517 413f
00000230: d954 d4bd 1083 e13c cc9c af3e 1ef7 49bf
00000240: e4a1 0d3e 6dfc e43d e482 f53e ef9e 25bf
00000250: 5eb3 1c3e 9145 0d3f e328 18bd 1b93 bd3d
00000260: 2ec8 dc3d 172b 3ebe 6fab 92be 4be6 10bf
00000270: b0fe 413f 739b bfbd 6c61 7abc 88ea fdbd
00000280: 8cc9 8e3e d254 dd3e 92eb 9abd e10d ebbe
00000290: fab1 923e 8b32 e8be 3760 e4be f3b1 d1be
000002a0: 7c23 e73e 01a1 4f3e cdc9 423f f975 33be
000002b0: 99d3 9cbd ae1a ccbe 7935 ef3e 12c2 66be
000002c0: 89ee 42be f80a 7f3e cc3e 843e 0dbb 093f
000002d0: b2bb 963e 8f77 ef3e 5d4f 3c3f 180f 6c3f
000002e0: f33e cfbe 53e3 243e 8bd4 d73e fe4f 90be
000002f0: 0e6a 283f e355 b3be 5612 febe 9a6d eb3d
00000300: a26a 0c3e d554 9fbe bb46 1d3f 4344 0e3f
00000310: 77e7 9abe 5aa8 343e 19b1 903f ee87 0c3e
00000320: 1202 52be 7747 ab3e c36c 05be 78c8 0fbf
00000330: a48e 903e 0510 2e3e 407d 9abd ff4c 3cbf
00000340: 1670 d1bc 16a4 34bf 272d dbbd b4bd 90be
00000350: 8d15 dfbd 32b6 bc3e 8605 9a3e dadd 4ebe
00000360: 5afe 633e 81db 73be 0840 ad3d 6dc6 bf3e
00000370: 6a93 58be 00e8 123e 73db 2e3d 36c9 133e
00000380: 6d03 9e3d a3cf 1c3d e3bc febd 0db4 55be
00000390: 15f9 9d3e 8b02 ebbe 9edc 1dbe 268c c63e
000003a0: 36d9 63bd 5648 c4be bd69 373e bd68 01be
000003b0: 423c 67be 8450 8d3e 88ca 883e 6c70 d13e
000003c0: 35d2 8e3e c0dd 973e 9942 bcbd e505 f83d
000003d0: 6873 893e 77bd bdbc bdf2 bd3e 3681 903e
000003e0: 9db4 903e 44fe 3abd ee4b 513e 0bde fbbe
000003f0: 68ba 083e b467 9abe 220e f7bd f3f4 c4be
0.059890006 0.2110648 -0.41972142 0.47797278 0.8271703 -0.29653198 -0.07744797 -0.2739262
0.04951085 0.56590974 0.47954693 -0.5946954 -0.12414004 -0.17639633 0.0138847325 0.2926939
0.020452637 -0.196581 0.19457437 -0.05130565 0.571751 0.32633832 0.48097786 0.14585167
-0.25450787 -0.8464369 -0.038662337 -0.14311896 0.13155721 0.5195308 -0.55720615 -0.27841115
-0.19379658 0.18201534 -0.5109428 -0.031515107 0.1258204 -0.16912371 -0.015387743 -0.43712056
0.46866015 0.22670265 0.10106553 -0.37458134 -0.2533911 0.5427676 0.4875683 0.4685496
-0.1801018 0.4582752 -0.1745008 0.028412007 0.07511953 0.18723847 0.06488489 0.13084197
-0.12567031 0.56778413 0.14422253 -0.2286215 0.3182828 -0.35495374 -0.17679936 -0.023686027
-0.290469 0.3403207 -0.2041968 -0.40891638 0.18043117 -0.051515963 0.1109678 0.3893253
0.057001263 -0.09037747 -0.24124181 0.20585269 0.29235268 0.21568458 -0.21139309 0.07090696
-0.28426582 0.23446159 -0.41548643 -0.26629597 -0.2402492 -0.39021757 -0.107312314 -0.20496608
0.1985993 0.2779089 -0.7016667 -0.117805295 -0.07833434 -0.11976556 -0.51796573 0.040198453
-0.67446595 -0.7003911 -0.24774322 0.9041598 -0.4522843 0.17070933 -0.32485852 1.1117777
-0.76652765 -0.19610904 -0.6408676 0.0781146 0.69031334 0.6346007 -0.39197144 -0.2237603
0.405564 -0.217175 -0.61984307 -0.43131405 -0.064372495 -0.81801254 -0.74112195 -0.8030725
1.0560495 0.18655933 -0.85838157 -0.07174826 -0.4100668 0.38246226 0.2776167 0.08961048
0.7570538 -0.026524143 0.25405914 0.14125185 -0.17055999 -0.38915 0.01656886 -0.009531085
0.3822497 -0.52067125 -0.15864502 0.7542699 -0.10367746 0.027528316 0.34299314 -0.78892696
0.13831288 0.11180959 0.47951424 -0.6469564 0.15302798 0.55184275 -0.037148368 0.09256574
0.10780369 -0.18571125 -0.28646418 -0.566014 0.7577925 -0.093558215 -0.015282016 -0.12398249
0.27888143 0.43228775 -0.07564463 -0.45909026 0.2865141 -0.4535106 -0.44604656 -0.40956077
0.4514426 0.20276262 0.76089174 -0.17525472 -0.076575466 -0.39864105 0.46720484 -0.2253497
-0.19036306 0.24906528 0.2582916 0.5380104 0.29440075 0.46770903 0.735586 0.9221053
-0.40477714 0.16102342 0.42154345 -0.2818603 0.65786827 -0.35026464 -0.49623364 0.11495514
0.13712552 -0.3111941 0.6143605 0.5557291 -0.3025472 0.17642346 1.1304046 0.13723728
-0.20508602 0.3345296 -0.1302977 -0.56165266 0.28233826 0.16998298 -0.07543421 -0.73554987
-0.025566142 -0.70562875 -0.107019715 -0.28269732 -0.10892782 0.36857754 0.3008234 -0.20201817
0.22264996 -0.23814203 0.084594786 0.37456074 -0.21149984 0.14346313 0.04268975 0.14432225
0.07715497 0.038283955 -0.12438371 -0.20869465 0.30854097 -0.45900378 -0.1541619 0.387788
-0.05562707 -0.38336438 0.1791143 -0.1263761 -0.2258158 0.2760049 0.2671702 0.40906084
0.2789475 0.2966137 -0.0919239 0.12110499 0.2684586 -0.023161633 0.37099257 0.2822358
0.28262797 -0.045652643 0.20439121 -0.49192843 0.13352358 -0.30157244 -0.120632425 -0.3846813

encoder_lstm.bias_ih_l0 f4 [128]
00000000: bed0 cfbc 394e 003e bcd0 713d 8176 943d
00000010: fee1 063e cd20 4b3f 5adc 7e3b b2cb b53e
00000020: 843c d6be 15d7 763e da5b 0f3d 525b 813d
00000030: 2964 9bbc e843 943d 2ce9 7bbe 83c5 0fbe
00000040: 2d71 6abd e495 1b3e 1eaf c83d d173 e43b
00000050: 3d40 cc3d 8bd3 553e f255 b23e 7834 b73e
00000060: 6a88 093f 7ddc 8cbd 0b24 6fbe 9a38 af3b
00000070: 1422 02be 4867 14bd b5a1 eb3c d071 14be
00000080: b3c4 f23e 2d70 863e f4c0 9cbe 27c0 eb3e
00000090: 2f04 6e3e d7d5 263e eace 263d 040b 0a3e
000000a0: 60b4 963d 0d25 2ebe f426 873e b0a4 1abe
000000b0: ea21 2a3e 7f31 38bd 8049 16be cf66 84be
000000c0: 465a d4bd 54c2 38be d4a6 f53e ef52 54bd
000000d0: 30ee a9bd 6e52 f8bd 0ab3 9d3d 0589 97bd
000000e0: 8d55 b2bd fc58 89be 81f0 bfbd 30d4 94be
000000f0: 9827 f2bd 4d6f 4b3e def0 e63d e627 133f
00000100: fabd 72be 82e0 bc3e 6270 6cbe 99ad 56be
00000110: 9d7d 493c fd64 d4be 679e 2abd 29f8 cebe
00000120: fa39 013e 3cb4 703e ff60 66bd 829f 61bd
00000130: a506 24bf e06d fabe a192 74bd abc5 5d3d
00000140: b9f7 b63c 7ba7 d73d 9e86 8b3d c8c7 0cbc
00000150: 5c2a b3bd 2072 273e cdfb 77bd c063 e13d
00000160: fcb6 66be 714d e73d df18 883e 15e7 90be
00000170: f88a 883e 28ee 2ebe 3866 14be 68ea 8abe
00000180: ef43 093e e496 5b3c 475e 0dbf e271 653e
00000190: c0b9 8c3e dec8 9b3e de0c 533e 86de d13e
000001a0: 6b4e dfbd 0a8f bbbd 3e13 aa3e f5d8 5ebe
000001b0: 1cee a03c 56fd 87bd 4865 81bd 37fb 77be
000001c0: a0be 37bc 07cd c33c 2fa9 ba3e 44e5 1abe
000001d0: 74b4 66be bfce e9bc 3144 c4bd e4a2 b73e
000001e0: 4894 55be 91c9 6cbe 05cf 90be 0d80 163e
000001f0: 5f4b 663f a621 f03d 4151 b8be 5832 563e
-0.02536809 0.1252984 0.059036955 0.07249165 0.13172147 0.79346925 0.0038888664 0.3550697
-0.41843045 0.24105485 0.034999706 0.06316246 -0.018968659 0.072395146 -0.24600667 -0.14040188
-0.05723684 0.15193897 0.09799026 0.006971814 0.0997319 0.20881478 0.34831196 0.35782218
0.53723776 -0.06877992 -0.23353593 0.0053473236 -0.12708312 -0.03623131 0.028763631 -0.14496541
0.47415695 0.26257458 -0.30615962 0.46045038 0.23243783 0.16292511 0.040724672 0.13480765
0.073586226 -0.17006321 0.26396906 -0.15101886 0.166145 -0.04496908 -0.14676476 -0.25859687
-0.10368781 -0.1804288 0.47978842 -0.051836904 -0.08297384 -0.12125097 0.077001646 -0.07399181
-0.08707724 -0.26825702 -0.09372044 -0.29068136 -0.11823958 0.19866677 0.112764105 0.57482755
-0.23705283 0.36890036 -0.23089746 -0.2096466 0.012298015 -0.41483298 -0.04165497 -0.40423706
0.12619773 0.23506254 -0.056244846 -0.05508376 -0.6407264 -0.48911953 -0.05971015 0.05414359
0.02233492 0.10529991 0.068127856 -0.008592553 -0.08748314 0.16352129 -0.06054287 0.11005354
-0.2253074 0.11294068 0.26581475 -0.28301302 0.26668525 -0.17083037 -0.14492118 -0.27131963
0.13404821 0.013402674 -0.5522198 0.22406724 0.27485466 0.30426687 0.20610377 0.40990084
-0.10903629 -0.09158142 0.33217806 -0.2176245 0.01964479 -0.06640117 -0.06318146 -0.24216925
-0.011214882 0.023901476 0.36457202 -0.1512652 -0.22529775 -0.028540967 -0.09583319 0.35866463
-0.20857346 -0.23123766 -0.28282943 0.14697285 0.8995876 0.11725168 -0.35999492 0.20917642

encoder_lstm.bias_hh_l0 f4 [128]
00000000: d23c 5e3e 36aa 34bd 7733 d5bc f1a4 4d3d
00000010: d408 383e 59e8 043f 740d 7d3e bebe 643e
00000020: 4ade 1dbe 6433 2d3e 96c8 2abd 6351 05be
00000030: 6f97 c3bd 3c30 763e c252 acbe 7ebe e9bd
00000040: 0dfd 42be 7490 ee3d 74de 323d 678b a0bd
00000050: 1a66 eabc a8ce 363e 127d b33e bed6 833e
00000060: 0095 e73e 11b7 423e 0823 d4be f9b5 8e3c
00000070: baab 023d ebf6 84be 047d 53be 4310 f43d
00000080: b2b7 bc3e 0a5d d13e 7313 aabe e83a aa3e
00000090: 7487 6e3d 8485 043e 8234 babd 1ded d13d
000000a0: 6a1f 843e fcb7 0cbc 76b0 893e f08c 36be
000000b0: 5629 923e 271f c7bc bdf1 203e 2b2c 97be
000000c0: 9b41 a7be 3c1f e6be d3e3 f23e 6f14 42be
000000d0: f73d 5dbe f64c bcbc a2b9 f93c e3a9 9ebd
000000e0: 302c e23b f894 bcbe 2ab8 7bbe 1bd3 febe
000000f0: 2808 4c3e 123c 993e 41db 9c3e 740e dd3e
00000100: d2f6 8fbc 4fdc 583e 3823 bcbc 5f32 f6be
00000110: c83b 69be 16fe a8be 38e6 20bd 2a9b adbe
00000120: 0744 c53e 0e24 0c3e 12e2 933d 4426 693c
00000130: 29b2 1fbf 19a6 87be 9a5c b93c dadb f33d
00000140: a2f1 713d ce3e fbbd 3fcb 083e cb98 5fbe
00000150: 08e5 45bb 67d1 19bd b3ba 09be e6d3 b33e
00000160: a648 99be 9ca0 53bd 6ddd 543e 937b 69be
00000170: 3dc3 833e 3bae d9be 264e f0be 046c a3bd
00000180: 33b6 f63d 3871 5f3e a86f bfbe 6f9b d73e
00000190: 92b3 7d3e b241 e93e b5db 913e aca5 9c3e
000001a0: e418 7dbe a439 7cbe e7ea ff3d 1ee1 e1bc
000001b0: a1d5 a83e 3e22 b8bd 5fd7 e03c 9eef 0dbe
000001c0: 7404 94be d7b6 693e f8ef 9b3e 7d0f f73c
000001d0: 2f54 15be 99f6 093d 056f 913c 9db6 503e
000001e0: 0e29 cdbd 998c 4ebe 31ec 22be 53a5 893e
000001f0: fc07 5e3f 3fe2 d33d 2e07 69be 6785 5f3e
0.21702889 -0.04410764 -0.026025517 0.05020613 0.17972118 0.51917034 0.24712163 0.22338387
-0.15416828 0.16914135 -0.0416952 -0.13019328 -0.09550368 0.24041837 -0.3365689 -0.114132866
-0.19041844 0.11648646 0.04366918 -0.07839089 -0.028613139 0.1785227 0.3505636 0.25749773
0.45230865 0.19015147 -0.41432977 0.017420756 0.031902052 -0.25969633 -0.20653158 0.11917164
0.36858898 0.40891296 -0.33217964 0.33248067 0.058234647 0.12941557 -0.09092046 0.10250304
0.25805217 -0.008588787 0.26892442 -0.17827201 0.28547162 -0.024306847 0.15717216 -0.29525885
-0.3266724 -0.44945705 0.4743944 -0.18953107 -0.21605669 -0.022985917 0.030484024 -0.07747247
0.00690224 -0.36832404 -0.24581972 -0.49770436 0.19924986 0.29928643 0.30636027 0.4317509
-0.017573748 0.21177791 -0.022966012 -0.48085305 -0.22776711 -0.33006352 -0.039282054 -0.33907443
0.38528463 0.13685629 0.07220854 0.014230315 -0.62381226 -0.2649391 0.022627164 0.11907168
0.05906833 -0.122678384 0.13358782 -0.2183563 -0.0030196328 -0.037553217 -0.13450126 0.35122603
-0.2993824 -0.05166684 0.20787592 -0.22801046 0.25734892 -0.4251574 -0.46934623 -0.07979587
0.120464705 0.21820533 -0.37389874 0.42110774 0.24775532 0.45557934 0.28487936 0.30595148
-0.24716526 -0.24631363 0.12495976 -0.027573165 0.32975486 -0.08990906 0.027446447 -0.13860938
-0.28909647 0.22823654 0.3045652 0.030158753 -0.14582895 0.03368244 0.017753134 0.20382161
-0.10017596 -0.20170821 -0.15910412 0.26883945 0.86730933 0.103458874 -0.22756645 0.21828233

encoder_lstm.weight_ih_l1 f4 [128, 32]
00000000: a5a4 673e a932 63bd b0ab 6b3e a872 84be
00000010: 33b2 d23e 6a0f 463e c7a2 9abe 0d09 813e
00000020: e0bb 173d 2a7c 543d eeb3 dd3d c341 083e
00000030: c629 c6bd fb57 10bf 42b6 b33d 6dc8 d93d
00000040: a7d2 b8bd 28ae 2abe 13f8 80be 77f7 d53d
00000050: c266 873e ad44 713e 1423 053e 2acb 893d
00000060: 1d4a a23e 9083 853e f5a1 013f 3e06 19bf
00000070: c562 d43e 26c4 62be d68f 3cbe 4b3a 433c
00000080: 142e 5c3e d4f5 87be 75d8 a53d fa3c 0a3d
00000090: 54eb 013f b5c3 cbbe 4b86 eabe c43b 923e
000000a0: 2ffe 1dbe 7cea e3bd c17a 323e d28f 123e
000000b0: a4fd 0e3e fb96 0a3c a1d6 01be 0086 89bd
000000c0: 0bcb 10be 3cf5 b0be a330 183e cf84 45be
000000d0: d46e 7a3e 784d 87be ba8b edbc d57d 7b39
000000e0: a14e eb3e 90ed c4be ca6d 28be 3d88 abbd
000000f0: 095c 3f3e bdb9 14be df25 41bf 0b07 053e
00000100: 2bdd dabd 7a18 5e3e d0d9 603d eb78 523f
00000110: 76b1 8a3d a295 333f 6de3 a33e 291e 013f
00000120: e514 723d 0f70 2c3c 692b 9bbd 0a2e 783e
00000130: ab7c d93d eab6 41be e127 8d3e 0fc6 b13c
00000140: 3cd4 fd3d 146a d73d 47aa ec3c 731f 883e
00000150: e168 c13d d3b2 95be 8d19 01be 7532 97be
00000160: e233 42be 9f67 24bd 6ef9 64be 5677 033f
00000170: 5575 c23c 7a71 fabe 0360 8cbd 7526 343e
00000180: f9b6 043d 31dc 103f 63db a4be f0a3 60be
00000190: 47b0 ec3e d2e4 b1be 90ec babe b772 d5bd
000001a0: 63b7 50be 60ff cabd ad95 d53e cdfa e2bc
000001b0: a76c 203f 5619 87bd 8284 933e c678 6b3c
000001c0: 8248 90be d089 d8bd 4f12 7a3e 7e28 9cbe
000001d0: 17fa 833e 5b77 41be e449 e73d 6632 753e
000001e0: f6b2 3c3e 45f5 0f3e 796c 74be c5e6 873e
000001f0: 35a6 053f 6b8f a9be 059b 0e3e 64aa 533e
00000200: 91cc 85bd 8deb 993e b6fa aebe a365 3bbd
00000210: 78bf 943d 7859 12be 6f37 f5bd 358d 9cbe
00000220: 4aab 63bf 75f1 68bd 4778 893e 6305 85be
00000230: ed5d 23be 38cd 883d ec83 0f3e cdde a93d
00000240: b216 41be 88ce 1e3e 544f 713e 2c53 bfbd
00000250: ee5d 96be 8eb5 dfbe e324 41be d5aa 093e
00000260: a035 c9bd a2ff b13e fd87 77be 8948 173e
00000270: eb6b 993e 47ad 00bf 5ded 943d fd6e d13e
00000280: 4e4e 02be 28d6 263e 7017 73be 9d5c 803d
00000290: 39e9 5a3d 11f0 d8bc 58e8 ab3d c43e 91bd
000002a0: bbf6 eabd 8035 06be ab76 93bc 93f3 0bbe
000002b0: 0875 bebc 54b6 b2bd 82c8 0dbe 6211 843e
000002c0: fc6a adbd 1677 d63e 57e7 d93e 44fa be3e
000002d0: c559 1dbe 545e 63be 5e85 83bb 5884 a03d
000002e0: 541c 77be 7626 aa3d 31a3 9d3d d609 b03e
000002f0: 78c8 10be 0ca9 cb3d a91a 953d be89 1c3d
00000300: 5e2f d0bd 8aca 833d 7962 c8be 0622 313f
00000310: 6388 03bf 2e68 0a3f 6439 08be 03f2 0f3e
00000320: 43fa 113d d282 723d d351 453e 4c14 593e
00000330: dc51 ad3d d1c8 123e 10e1 993c a16e 67be
00000340: ef74 223e 4411 74be 182e 72be d5aa 643e
00000350: b1ab dd3d 6743 00bd ca29 41be 2701 4e3e
00000360: bc92 653d ea69 a4bd bb6c 903d eb3c 88be
00000370: c686 aabe dd1b c03e cc3f 753e 5af6 0fbf
00000380: 49bc 4bbc 7e43 2a3e db90 9bbd b4cb 0d3e
00000390: e78f 133e 7dd1 053e 51d6 153f dc6e 063f
000003a0: 92b4 c0be bfac b1be 6a8d 18be 974f 8c3d
000003b0: 1ddd 083e 50eb bfbd 5ba9 7fbd c586 00be
000003c0: 3365 d33e d953 61be 550d 9bbe 2636 163e
000003d0: 4178 ef3d a570 1b3e ec7a 003e e8ca 01bf
000003e0: bb26 ca3e f198 ecbd 7618 6abd 7146 1bbe
000003f0: 62e6 8f3e b5e3 8f3d 28c2 293c b37b 423d
0.226214 -0.055468235 0.23014712 -0.25868726 0.4115158 0.19341817 -0.30202314 0.25202218
0.037044406 0.051876225 0.108253345 0.13306336 -0.096759364 -0.5638425 0.08774997 0.10633931
-0.09024554 -0.16667998 -0.25189266 0.10447591 0.26445585 0.23561354 0.13001662 0.067282036
0.3169717 0.26076937 0.5063775 -0.5977515 0.41481605 -0.22145137 -0.18414244 0.011915754
0.21501952 -0.2655474 0.080979265 0.033749558 0.5074971 -0.3979775 -0.45805582 0.28561223
-0.15428995 -0.11128709 0.1742964 0.14312676 0.13963944 0.008458848 -0.1267953 -0.067150116
-0.14139955 -0.345621 0.14862303 -0.19288944 0.2445634 -0.2642629 -0.02899729 0.00023984101
0.45958427 -0.38462496 -0.16448131 -0.08375595 0.18687452 -0.14523979 -0.7544841 0.12990968
-0.10686716 0.21689025 0.054895222 0.82215756 0.06772129 0.70150197 0.3200945 0.50436646
0.059101958 0.010524764 -0.07576639 0.24236313 0.10619482 -0.18917432 0.27569488 0.021700887
0.12393996 0.1051828 0.028889788 0.26586494 0.09443832 -0.29237995 -0.12607403 -0.29530683
-0.18965104 -0.040137883 -0.22360775 0.5135397 0.023737589 -0.489147 -0.0685425 0.17592795
0.03240106 0.56585985 -0.3219863 -0.21937537 0.4622824 -0.3474489 -0.36508608 -0.10422271
-0.20382456 -0.0991199 0.41715756 -0.027707482 0.6266579 -0.06596629 0.28812033 0.014372056
-0.2818032 -0.10573161 0.24421047 -0.30499643 0.2577674 -0.18893187 0.112933904 0.23945007
0.18427643 0.14058407 -0.23869504 0.2654325 0.52206737 -0.33117232 0.13926323 0.20670468
-0.065331586 0.30062523 -0.34175652 -0.045751225 0.07263082 -0.14291942 -0.11973464 -0.30576482
-0.8893324 -0.056870896 0.26849577 -0.25980672 -0.15953799 0.06679767 0.14015168 0.08294449
-0.18856314 0.15508473 0.23565418 -0.09342036 -0.29368538 -0.43693203 -0.18861727 0.13444073
-0.09824681 0.34765345 -0.24172969 0.14773764 0.29965147 -0.502644 0.07271836 0.4090499
-0.12725183 0.16292632 -0.2373941 0.062676646 0.053445075 -0.02648166 0.083939254 -0.0709205
-0.11472841 -0.13106346 -0.018000921 -0.13667135 -0.023249164 -0.087261826 -0.13846019 0.25794512
-0.08467671 0.4188773 0.4255931 0.37300313 -0.15366276 -0.22203952 -0.0040137013 0.078377426
-0.241319 0.08308117 0.07697142 0.34382504 -0.14138973 0.099443525 0.07280476 0.0382173
-0.101652846 0.06435116 -0.3913763 0.6919254 -0.51379985 0.54065216 -0.13303143 0.14057164
0.03563906 0.05920679 0.19269495 0.21199149 0.08462879 0.14334418 0.018784076 -0.22600795
0.15864919 -0.23834711 -0.23650396 0.22330792 0.10823763 -0.03131428 -0.18863598 0.20117627
0.05604814 -0.08028014 0.07051989 -0.26608977 -0.3330595 0.37521258 0.23950118 -0.5623528
-0.012435027 0.16627309 -0.07595988 0.13847238 0.14410363 0.13068195 0.58530146 0.5251291
-0.37637764 -0.34702107 -0.14897695 0.06851118 0.13365598 -0.09371054 -0.06241737 -0.1255141
0.41288146 -0.22004642 -0.3028361 0.14669093 0.116928585 0.15179689 0.12546891 -0.50700235
0.39482674 -0.11552609 -0.057152234 -0.1516359 0.28105456 0.070258535 0.010361232 0.04748125

encoder_lstm.weight_hh_l1 f4 [128, 32]
00000000: 59e8 e7bd 9c74 33be 63ae 65be 6456 a0bd
00000010: 4131 5cbe 0fcd 0a3d 8eb8 e03d e38e 8dbd
00000020: d979 073d 2014 c4bd a9b9 933e 60fd 443e
00000030: beaf 71bd c752 3abe 4edc 863e 3b25 41be
00000040: c706 e8be 7f41 823e 48bd 56be 56d3 273e
00000050: a49b 643d 4872 3cbe 7c01 aebd 4791 8f3e
00000060: 910a 143d 0333 2ebe 33f3 983d 2ec0 7f3e
00000070: 874a 55be a4a6 5e3e bbce 3c3c 324f 88be
00000080: 2eca c43d d474 72be 9081 633e 639a 17bc
00000090: a26e 61be 1390 963e e087 24be af27 4ebe
000000a0: 19da 163e 3294 e0bd 63f6 04be 1dbf 9a3d
000000b0: 760d 423d 931e c13c 5782 be3d a664 f0bc
000000c0: 09ee 543e be40 c03c 99d6 61be 11b2 813e
000000d0: c5cd 5f3d f004 0bbc 1180 4e3e f0f6 cd3d
000000e0: c693 30be b70f 7e3e e582 3e3e dd24 463e
000000f0: 1973 d03c 02cc a0bd 8312 243e 104f bb3d
00000100: e4c2 05be ac77 8b3d d60d ccbe 4f62 24be
00000110: e378 a3be 0cc2 533e e0d9 95bd 0da5 01bd
00000120: 6006 6b3e c575 153e 5b4f 7e3d c37f 69be
00000130: 88df 0c3d 423b 003e 2c06 6abb b8b7 c83e
00000140: 00fe f53e dd35 17be 103a 223e 2c9e 92bd
00000150: f4a4 173e c9a0 31be b09e eb3d c15d 923d
00000160: 3b13 5239 2d2d 123e b981 773e c54c 943d
00000170: c41f 3f3e de2a 0b3d ff21 adbc cc7b cebd
00000180: c9ab a7bd ef8f 303e a370 213d 28a2 89be
00000190: fe51 8b3e e130 d6be ed4c fdbd 83b2 72be
000001a0: e7e9 653e a671 5abe eb96 053d ff7b 9abd
000001b0: eac5 ff3c c1dd 303e 28cc 453e 3a48 ecbd
000001c0: 7e9e 253d 399c e03c bd37 19be 5617 92be
000001d0: 31f5 203e f484 9e3e d6a6 a4bd a4ee 353e
000001e0: 6b60 7a3e 61db e03d b065 323e 5f05 2dbe
000001f0: 1206 9cbc 42e3 65be b5b0 8fbd cbba 853e
00000200: 3ca5 62be 3f15 d4be 3e8a 60be 20a5 203e
00000210: 974f 873a e61a 32be c3c0 72bd 40e9 22be
00000220: 07c7 bd3d 1fb7 2bbe c466 4bbe a940 a3be
00000230: b1ad f4bd e42a e53e a448 e8bc d17f 2e3e
00000240: 1e20 263f 5656 123e 59fc 7ebd 701b 94be
00000250: d618 7abd d9dc 50be 809b 94be cac2 c23c
00000260: e170 1bbe fc92 013e 35d0 afbd 7ab8 41bd
00000270: 3016 bbbc c692 f13c d8a9 cabc 2ced af3d
00000280: f1ce 0ebe 3303 fdbd 3c25 8dbe 42f9 49be
00000290: b579 223e 48d9 ecbc 5ecb 91be b881 ed3e
000002a0: c1cc a83e cbf5 883e d38a 603e e856 d1bd
000002b0: 58c6 ff3d fe41 023d ddb2 233d d6e3 f3bc
000002c0: 53e8 763e cbdc aabe 06f5 8f3b 9bba 4dbe
000002d0: 24de a1bd d3b5 1d3d 74c7 40be 7616 a1bd
000002e0: a70a 293e ad73 8b3e 4afc 443e 1517 90be
000002f0: 00fd 41bd 81ca ccbd 0f76 febe b438 df3c
00000300: 6f7a 883e ab6b 6cbe 479d 3abe 6443 55be
00000310: 7472 d7be 1256 cc3e c0a6 133e eb36 483e
00000320: d3e8 abbe f0bb 82be ae75 6d3e ebda b1bd
00000330: 9c8e 953e f1b4 d0bd 3cbf da3c fed2 29be
00000340: c342 51be 2e1d 1ebe a0e5 cd3b d82c 773d
00000350: 4d87 bf3c 5ffb 7e3e 497e 883e 3bd2 473b
00000360: 4f58 eabc 91ab 053d 089b a3be 15f6 703e
00000370: dfa8 023f 9e70 7dbe 254e b73e 209c afbc
00000380: 48fb 48be 7a08 48be bad9 c7be ed4b 683e
00000390: c46f cbbe 4409 b13e 92e0 7f3c 16f7 6bbe
000003a0: 33be c7be 5243 183e 0106 d9bc efdf b4bd
000003b0: e60e ae3e 493d c9be e063 2a3a c619 d93e
000003c0: 1097 0ebd 20ee 2f3d 0ae3 423e 9f10 8c3e
000003d0: b542 033e 31b6 f2bd 1518 763e 24ab 18be
000003e0: 6af6 b43e 4df4 91bb b4ee 263d 18d1 3e3d
000003f0: cad3 aebe 393e 923e 8118 d73e 2dc5 bbbe
-0.11323614 -0.17524952 -0.22429805 -0.07828978 -0.21503164 0.033886965 0.10972701 -0.06912019
0.033075187 -0.09574151 0.28852585 0.1923728 -0.05900549 -0.1819564 0.26339954 -0.18861859
-0.4531767 0.25440595 -0.20970643 0.16389212 0.055812493 -0.1840297 -0.08496377 0.28040525
0.03614289 -0.17011647 0.074682616 0.24975654 -0.20829211 0.21743256 0.011523898 -0.2662292
0.09608875 -0.23677379 0.22217393 -0.009253117 -0.2201486 0.29406795 -0.16067457 -0.20132326
0.14731635 -0.10965766 -0.12984614 0.07555983 0.04737612 0.02357415 0.09302204 -0.029344868
0.20793928 0.023468371 -0.22054519 0.25331166 0.054639596 -0.008485064 0.20166041 0.10056865
-0.17243871 0.24810682 0.1860462 0.1935 0.025445508 -0.078514114 0.16022687 0.09145939
-0.13062626 0.06809935 -0.39854306 -0.16053127 -0.31928167 0.20679492 -0.07316947 -0.031651545
0.2295165 0.14595707 0.062087398 -0.22802643 0.034392864 0.12522605 -0.0035709245 0.39202666
0.4804535 -0.14766641 0.15842462 -0.07159075 0.14809018 -0.17346491 0.115048766 0.071467884
0.00020034325 0.14275046 0.24170579 0.07241205 0.18664461 0.03397643 -0.021134375 -0.10082206
-0.08187062 0.17242406 0.03941406 -0.26881528 0.27210993 -0.41834167 -0.12368188 -0.2370091
0.22452508 -0.21332416 0.03261463 -0.07543182 0.031222302 0.17272092 0.1931616 -0.115372136
0.040434353 0.027418243 -0.14962669 -0.2853343 0.15718533 0.3096081 -0.08039634 0.17766815
0.24450843 0.10979343 0.17421603 -0.1689658 -0.019045863 -0.22449973 -0.07016126 0.26119074
-0.22133344 -0.4142246 -0.21927735 0.1568799 0.0010323402 -0.17393073 -0.059265863 -0.1590929
0.09266477 -0.16769074 -0.1986342 -0.3188527 -0.119471915 0.44759285 -0.02835495 0.17040946
0.64892757 0.14290747 -0.062252376 -0.28927183 -0.06105884 -0.20396747 -0.29024887 0.023774523
-0.15179779 0.12653726 -0.08584634 -0.04729507 -0.022837728 0.029488932 -0.024739191 0.08590159
-0.1394613 -0.12354126 -0.2756747 -0.1972399 0.1586674 -0.028912202 -0.2847547 0.4638803
0.32968715 0.26750025 0.21927957 -0.10221654 0.12489003 0.031801216 0.0399655 -0.029771727
0.24112062 -0.33371577 0.0043932227 -0.20090716 -0.07903698 0.03850348 -0.18826085 -0.07865612
0.1650797 0.2723669 0.19236866 -0.2814261 -0.04736042 -0.09999562 -0.49699447 0.027248718
0.2665591 -0.23087947 -0.18224059 -0.20826489 -0.42079508 0.39909416 0.14419079 0.195522
-0.33576068 -0.2553401 0.23189422 -0.086843334 0.29210365 -0.10190762 0.026702516 -0.16584393
-0.20435624 -0.15440819 0.006283477 0.0603455 0.023379946 0.24900578 0.26658848 0.0030490297
-0.028606562 0.03263432 -0.31954217 0.23531373 0.51038927 -0.24749991 0.35801807 -0.02143675
-0.19627106 -0.19534484 -0.390333 0.22685213 -0.39733708 0.34577382 0.015617507 -0.23043475
-0.39012298 0.1486943 -0.02649212 -0.088317744 0.33995742 -0.3930457 0.0006499868 0.42402476
-0.034812033 0.042951703 0.19031921 0.2735643 0.12818415 -0.118511565 0.24032624 -0.14909035
0.3534425 -0.0044541718 0.04075499 0.046586126 -0.34145957 0.28563097 0.42010882 -0.3667387

encoder_lstm.bias_ih_l1 f4 [128]
00000000: a622 723d b130 62be 46c3 a5be fc7b ebbd
00000010: 3066 abbd 37c2 213e c3fa 293e dcc6 893d
00000020: a680 bdbe 4def bbbd ac0e 6a3e 6fa1 233c
00000030: d756 c73e 87a4 943e 9da0 7bbd 9dbc 56be
00000040: b228 ba3d cf84 30be 77b6 fdbc 10a6 e43c
00000050: b638 303e c9c7 4ebd eda3 a6be b8fa 8fbe
00000060: a136 c53e 0539 78bc 056c a2be 4ece e43d
00000070: f552 67be d815 23be 4568 94bd afac 54bd
00000080: 2def db3d b664 69be c163 f83e baab db3c
00000090: ffb0 05bd 1dfe 133e 5cee f3bc 79e2 c2bd
000000a0: 522a ef3e 867d babe 4466 b53e 5382 143e
000000b0: 1584 dc3e 2197 b73d 3d2c af3e 3dd8 8abe
000000c0: 28f4 a3be 560f 573e 84c0 f63e 58d8 fe3b
000000d0: ad10 c6bd 9747 dc3d 8ab6 383e 0508 12be
000000e0: d7e3 d03e 0038 2e3e d393 aebe efc0 9c3e
000000f0: f3b6 cb3e a886 6b3b 9499 fabd a82c 4b3d
00000100: eb36 2c3d f22d 10be 5c31 e6bd 8eea 73bd
00000110: b665 37be d9b7 cb3d 040e 1fbc 20bf 13be
00000120: 5f10 a8be 2784 b5bc f91a 1e3e 7108 853e
00000130: 115f 823d d446 d93c 5213 37bd a363 ed3d
00000140: d09f b2bc 0461 e53d 9b9b 9dbd 7eb5 d5bb
00000150: 658a 893d 07ed 883e c5f7 1a3c 3faa 53be
00000160: 6c0a 1f3e abb4 4c3d 6f1f 95be bf18 eabd
00000170: b5b3 b13c 0e74 cc3c eac7 203d d389 38bd
00000180: 56a8 22be d319 62bd 92d6 173e 8ad1 d13d
00000190: b112 453e 2223 86bd 5eb2 323e 9f29 50bc
000001a0: c7ab 693e a452 5bbe 87bb 74bd efd1 4c3e
000001b0: b208 8e3d 135f 28bd 9f04 4cbe 6900 d23d
000001c0: f838 37be 0a34 433d bddb 273e 4475 b63e
000001d0: 947e 663e 497e 5c3e df6a ac3e 23ca 5bbe
000001e0: 25ab 383e f091 c6bc fdd5 19bd 3d15 733e
000001f0: bdd1 9abd 428f 3bbc 7e19 403d 0c1f d4bd
0.059115075 -0.22088887 -0.32375544 -0.114982575 -0.083691 0.15796743 0.16599564 0.067273825
-0.37012213 -0.091765024 0.2285716 0.009987219 0.3893344 0.29031774 -0.06143247 -0.20970388
0.09089793 -0.17238162 -0.030970795 0.027911216 0.17209134 -0.0504835 -0.3254694 -0.2812097
0.3851824 -0.015150313 -0.31723037 0.11172162 -0.2259024 -0.15926301 -0.0724645 -0.051922496
0.107389785 -0.22792324 0.48513606 0.026815284 -0.0326395 0.14452405 -0.029776745 -0.095158525
0.46711975 -0.36423892 0.35429585 0.1450284 0.4306952 0.089643724 0.3421344 -0.27118102
-0.32022214 0.21001944 0.48193753 0.007777255 -0.096711494 0.10755842 0.18038383 -0.14260872
0.40798828 0.1701355 -0.34097156 0.30615947 0.39788017 0.0035938416 -0.12236324 0.049603134
0.04204456 -0.14080027 -0.11239883 -0.05954986 -0.17909893 0.099471755 -0.009707931 -0.14428377
-0.3282499 -0.022157742 0.15439977 0.25983003 0.06365789 0.026523031 -0.04469616 0.1159127
-0.02180472 0.11200145 -0.07695695 -0.0065218797 0.0671585 0.26743338 0.009458487 -0.20670412
0.1553132 0.049976986 -0.29125544 -0.11430501 0.021692136 0.024957683 0.039253153 -0.045053314
-0.15884528 -0.05520041 0.14827946 0.102450445 0.19245411 -0.0654967 0.17450854 -0.012705236
0.22819434 -0.21418244 -0.059749153 0.20001958 0.06935252 -0.041106295 -0.19923638 0.102539845
-0.17892826 0.04765705 0.16392417 0.35636342 0.22509223 0.21532549 0.33675286 -0.21463828
0.18034036 -0.02423951 -0.03755759 0.2373857 -0.07559536 -0.01144773 0.04689931 -0.10357484
