W3-Design/checkpoints/epoch_28.pt (torch, 384725 bytes, 24 tensors)

encoder_cnn.0.weight f4 [32, 3, 3]
00000000: 0958 66be 7da8 92bd b550 82be e645 773e
00000010: 11b6 7dbe e50d 1e3e 2681 2f3e 1039 5a3e
00000020: 3cd8 053e 54e2 dc3d eb2b b83d b2f4 c53d
00000030: e40c aebe b438 b4be 4ca0 893d c66a afbe
00000040: 092a b93d e17f 12be 7921 993d 87a0 323e
00000050: a1e8 a83e 6751 bbbc 637c 353e 4ab4 d2be
00000060: 1b55 a9be 1806 2cba 9f3a 43be a73b 193c
00000070: 7a5c 283e 6035 31be 76b6 40bb 1cd0 6a3d
00000080: 97b3 323d 409c 423e 752c 843e af23 a03d
00000090: 31d4 86bd 49f2 d33d 1f6d 8cbd 0517 153f
000000a0: 0157 5bbd 8a61 113f d468 c93d 457b 133e
000000b0: 2523 96be cff0 e63c 0f40 0abe 2432 b43e
000000c0: b3ae babe 726e a2be 896f 1a3d 30c5 183e
000000d0: f4dd 5e3e 8325 93be ced7 123d 83c3 68bd
000000e0: d646 c23e e16d a43e 478d f13d 157f 5bbe
000000f0: 766d 95bd b4e1 063e d671 d4be 5cbb 543e
00000100: f4fd 13bd 488b 7f3e 25b6 843e 04a0 77be
00000110: 6df4 e0be 1e58 5fbd e877 e6bc 61e9 c83e
00000120: 2f10 843d e794 353e 2b8f 93bc 9684 93bd
00000130: 7336 80be 83ff b33e 59d7 9cbe b415 813e
00000140: f357 b8bd 2374 283e f2a0 b43e e7af 093d
00000150: bb87 2d3e 0034 61be 638c c8be e1e7 303d
00000160: b455 88bb 8712 69bd 3b1d 81bc b728 6e3d
00000170: a3ee a83d 1f3b d33e 9a5c 0cbe df4c 3cbe
00000180: a8a1 4ebe 6eef 803e 61a1 013d a0a2 9dbd
00000190: cb3f 423d c782 a73d 33d3 033e c53b d13e
000001a0: f02a 973d 9676 f7bd ac06 54be e74b 02bd
000001b0: 51f1 f9bd e3d1 7f3e 44cc ff3d 4096 abbd
000001c0: c8bf abbe 69cb dfbe f870 b93e ef4c dcbc
000001d0: 2565 4cbe 152d 6a3e 4309 0abd 3360 0c3e
000001e0: 88dd 743d b3e1 83bc 2990 ad3d 392f bcbd
000001f0: bfda 833d f924 ba3d 3c36 24be 600e 37be
00000200: acb3 e8bd ad3f a03e 8e71 6cbd 00bc 5fbe
00000210: 6b05 4d3e 6baf 693e c28d c8bd aad9 8d3e
00000220: a865 1e3e d7d4 41be c603 c2be 9ce2 a13d
00000230: aeb1 60be 0874 aebe f5a9 9d3b 1dc7 ebbd
00000240: 294f 483e c7b7 16be ad12 89be da12 4c3e
00000250: 9e18 c43b c015 aabd 0a99 883e 0624 9dbd
00000260: 83cd 4d3e 6944 69bd 26ad 213e 134b 693a
00000270: 24a4 2a3e 7fca e4be e1b5 373e 6778 d8bd
00000280: eb99 adbe 3328 23be 38c7 6a3e fa8c b23d
00000290: 0c8b aebe d9ba 27be 60d8 f3be 5161 69be
000002a0: d51b 113e f8a3 6dbe 0203 26be a71f 32be
000002b0: 6e64 fb3d a560 5a3d 83e2 70bd 3175 28be
000002c0: 76da 743b 4d94 35bc 85ff 9e3e 5a99 593e
000002d0: 23b9 5abe 8876 3ebe aba9 4fbe 41b6 3fbe
000002e0: 8af5 6a3e 2af1 923c 1c7d 6a3e 9010 473e
000002f0: 42da 41be 6bf6 1d3e 66a4 8bbe b449 09be
00000300: 6ae4 47be 3a97 573e 9702 943d ba14 f4bd
00000310: 00a2 d3be 0230 a1be 300b db3d c069 aabe
00000320: f444 0c3e fdb5 033e 7c11 523e c852 93bd
00000330: 0c7b d4bc 5b25 debd d949 91be e2a9 193e
00000340: 26cc 8cbe b014 a0be 1657 11be 3ad2 843c
00000350: 3f46 d9bd 5b75 183e 1bbc 773e 588c 973e
00000360: 2ab4 153e e938 c13e c08e 0a3d a544 ab3e
00000370: 7378 713e 087a ebbd 2cc5 c63c cef5 a63d
00000380: 2031 0d3e f8fa ac3e b68d 213e 91ff a63e
00000390: cc80 4d3e 9b1b 363e 25f2 523d 1ecb efbe
000003a0: da68 06be 63b2 3a3e 9d72 c9be 987f 273c
000003b0: be2c 7cbe c115 c23e 654d 5d3e caf3 49be
000003c0: 8d43 ac3e 8928 4c3b 3beb 0fbe 3f4e 82be
000003d0: 3ed6 a53c 3670 843c 90ac 31be c5ef f8bd
000003e0: eae7 233e 6786 05be 0352 a73e 7e19 f13d
000003f0: 5eee 613e 9776 46bd cb29 1a3e 7892 fcbc
-0.2249452 -0.07161043 -0.254522 0.24147758 -0.24776484 0.15434988 0.1713911 0.2131083
0.13070768 0.10785356 0.08992752 0.096658126 -0.3399421 -0.3519951 0.06720027 -0.3426115
0.09041221 -0.14306594 0.074770875 0.17444049 0.32989982 -0.022865964 0.17723231 -0.41153175
-0.33072743 -0.00065621873 -0.19065331 0.009352601 0.16441527 -0.17305517 -0.002940563 0.057327375
0.0436283 0.19004917 0.25815168 0.07819306 -0.06583441 0.103489466 -0.06856751 0.5823825
-0.05354977 0.5678946 0.098344475 0.14402492 -0.29323688 0.028190998 -0.13500999 0.35194504
-0.3646141 -0.31724888 0.037704024 0.14918971 0.21764356 -0.28739557 0.03585034 -0.05682708
0.3794467 0.3211508 0.11794525 -0.21435197 -0.07296269 0.13172036 -0.414931 0.20774597
-0.03613086 0.24955475 0.25920215 -0.24182135 -0.43936482 -0.054527394 -0.028133348 0.39240554
0.06448399 0.17732583 -0.018012604 -0.07203023 -0.2504154 0.35155877 -0.30633047 0.2521187
-0.0900115 0.16450553 0.35279042 0.03361502 0.16946308 -0.21992493 -0.39169607 0.043189887
-0.0041606072 -0.056902435 -0.015761008 0.058144297 0.08248641 0.41256043 -0.137072 -0.18388699
-0.20178854 0.2518267 0.031648044 -0.07697034 0.04742412 0.08179241 0.12873535 0.40865913
0.073812366 -0.12083165 -0.2070567 -0.031810667 -0.122042306 0.24982409 0.124901325 -0.08378267
-0.33544755 -0.43709877 0.36219 -0.026892154 -0.19960459 0.2286876 -0.03370024 0.13708572
0.05978158 -0.016098833 0.08474762 -0.091886945 0.06438207 0.09089083 -0.16036314 -0.17876577
-0.11362395 0.3129858 -0.05772548 -0.2184906 0.20021598 0.22820823 -0.09792663 0.27705127
0.15468466 -0.18928848 -0.37893504 0.079045504 -0.2194278 -0.340729 0.00481152 -0.11512587
0.19561447 -0.14718543 -0.2677206 0.19929066 0.00598438 -0.0830493 0.2667926 -0.076728866
0.20097928 -0.056950007 0.15788707 0.00088994316 0.16664177 -0.44685742 0.17940475 -0.1056984
-0.33906493 -0.15933304 0.22927558 0.087182954 -0.3409046 -0.1637987 -0.4762602 -0.2279103
0.14170773 -0.2320708 -0.16212085 -0.17394887 0.12275015 0.053314824 -0.05880977 -0.16450955
0.0037361658 -0.011082721 0.3105432 0.21249905 -0.21359687 -0.18599904 -0.20279567 -0.18721868
0.22945228 0.017937262 0.22899288 0.19439912 -0.18930915 0.15426032 -0.27273864 -0.13407022
-0.19520727 0.21053782 0.072270565 -0.11918016 -0.41334534 -0.3148194 0.10695493 -0.33283806
0.13698179 0.12862392 0.20514482 -0.07193524 -0.02593758 -0.10846969 -0.28376654 0.15006211
-0.27499503 -0.31265783 -0.14193377 0.016213525 -0.106091015 0.14888518 0.2419285 0.2959926
0.14619508 0.37738732 0.033827543 0.3345081 0.23581104 -0.11497885 0.02426394 0.08152352
0.13788271 0.33785224 0.15776715 0.32616857 0.20068663 0.17783968 0.05150046 -0.46834654
-0.13125935 0.18232112 -0.39345255 0.010223292 -0.24626443 0.37907222 0.21611555 -0.19721904
0.33645287 0.003115209 -0.14054577 -0.25450322 0.02024376 0.016166788 -0.17350984 -0.121551074
0.16006437 -0.13039552 0.32679757 0.117724404 0.22063586 -0.04845294 0.15055005 -0.03083156

encoder_cnn.0.bias f4 [32]
00000000: 76ab a5be 211b 8ebe d26d a63f d918 c2bf
00000010: 8982 8b3d dbc0 a7bc eae1 69bf 0e08 81be
00000020: 18ec b5be cb5d c2be d841 e4be e44a b7be
00000030: ae3c 4abe affd 7fbf afc3 63bf 1c2c 113e
00000040: 24df 80bf 42da 6c3c 455a 38be e77b 89bf
00000050: b765 4cbf add7 dd3e aa34 36be f844 3cbf
00000060: 8ff3 0dbf c32c 3a3f af59 4dbf 707c 55bf
00000070: 177e 8ebf 45c6 05be e6fc 8a3e 0f07 543e
-0.32357377 -0.27755073 1.3002264 -1.5163833 0.06812007 -0.020477703 -0.9136034 -0.25201458
-0.35531688 -0.37962183 -0.44581485 -0.35799325 -0.1974971 -0.99996465 -0.88970464 0.14176983
-1.0068097 0.014456334 -0.18003185 -1.0740937 -0.79842705 0.4332861 -0.17793527 -0.7354274
-0.55449766 0.7272455 -0.8021497 -0.83393 -1.113223 -0.13063915 0.2714607 0.20705818

encoder_cnn.2.weight f4 [64, 32, 3]
00000000: 1fbc 37be d8d7 74be 17a5 52bd 2954 a43e
00000010: 2468 a43e f465 5d3e f71d 1d3f d8b8 4e3e
00000020: aa9d d43d 80a1 cd3d 87a3 25bf 6f2e 30be
00000030: 9a7e 433c 9153 b73d f9e7 a3be 7007 8bbd
00000040: 7487 5bbe b988 a2bd fff9 aa3b f237 6d3e
00000050: b868 543e 996a 613c f8ad 20be d9e4 1bbe
00000060: 1d74 a33e ef10 353e cd25 84bd e8cf d93e
00000070: c601 dfbc c1dd 18be d0c2 8a3d 8c41 e73d
00000080: 23ba 643e 1dd1 483d 6430 e4bd 56b8 adbd
00000090: 4d31 2c3e 4e58 7ebe f4b3 fabd a275 363e
000000a0: 2404 613e a4a1 953d 730f 903c aed0 08be
000000b0: 4191 83bd f2b7 ae3e 8e75 933e fafc 57bd
000000c0: a7fa a23e 7f2d 423e 8396 193d ff49 a73e
000000d0: 9edd 3f3e 8530 03bd 047b a1bd f546 9abd
000000e0: 1347 32be c35f c1be 1f1b 98be b3b8 7a3e
000000f0: 9ab5 913c 9f1d 74be dc5b b53b b4ac 883d
00000100: a678 483d a0fa 3bbe 62a4 633e 6b7c 5ebd
00000110: 7d70 df3c f57f 89be 057a 80be ecc1 d3bd
00000120: f460 883e 7596 a23d 4c25 703e 4863 00be
00000130: 3044 fe3b ecbc 94be 3c50 efbd 70f9 52bd
00000140: d159 31be 4379 163e a02a 9dbe 0d72 3abe
00000150: 5a0e 843d 764d 20be e346 86be 03cf d83b
00000160: fdd7 7ebd 562a 13bd 6f1c cf3e 6dca 2bbd
00000170: b097 7a3c cab0 6a3e 3f92 06be 27ef 4dbe
00000180: 9ca5 6bbd 3ba8 5abc 7591 993d 5368 a6bd
00000190: 82cd 74bd 6937 e4bc 7cd3 ffbe bb9e 75be
000001a0: f055 3ebe 1fa9 83bd 78ef ef3c 2043 babd
000001b0: ec8f a2be d8b8 93be 924c 5dbe a30d 38bd
000001c0: adf5 bbbb 5b66 913d 938e 703d e096 02be
000001d0: f3de 42be 8272 77be cf4e 9f3d 9101 1d3c
000001e0: 39cb c33d 7b40 4bbe 1e1e 46bd 98c8 c53c
000001f0: ad8d 193d 09b0 7bbc eca7 53bd ef9d 9bbd
00000200: 5810 9dbd 4f71 afbe fe5b 38be 8f70 f4be
00000210: 24d6 c8bb ea4f 81bc a9a7 32bd 32e0 12bd
00000220: d634 833c 4750 233d 018c fabd 8335 5abd
00000230: 3746 13be d3be 2cbe f748 9ebd 8826 2abe
00000240: 569a 35be cca4 453d e52f 7ebd b799 a6be
00000250: c7fb b8be 1821 b2be cbe5 543b 4645 f63c
00000260: f547 353d 3e16 dc3d 1837 883d 636c 963d
00000270: ee9e f4bc 9dc9 1bbc e141 f5bc 302c 9abe
00000280: 82b9 8bbe 3cbb 8ebe 6226 aebc 748e e3bd
00000290: 8abc f1bd 1c8f 323d b312 16bd d231 c03c
000002a0: 2d4a 05bd 0b09 5a3d 2cf0 4b3d 1811 7fbe
000002b0: 95c6 203d 6893 883d 0800 38bd 6e65 35bd
000002c0: b21e 41be c3d7 44be 5120 abbd 16ce 96bd
000002d0: 737c 34be 29d5 9bbd 5a63 883d e6f0 2fbc
000002e0: 58d2 d7bd 21d2 29bc b506 0bbe 952d e0bd
000002f0: 036c 36be def3 2cbe 44fc 2ebe 5ab7 62be
00000300: ca73 523e 85f8 ba3d 1550 21be 8464 a4bd
00000310: f52a 5e3e cfa0 313e 74c9 e4be 68b9 38be
00000320: fcdd 8bbe a7ab cc3c 8ea2 2dbe 8b5a c5bb
00000330: 8b14 5fbe dfb2 85be e44d dbbf 258f 5abe
00000340: 63e6 df3e 3f61 35be 876e 91be 4755 c33e
00000350: a6a9 443d 3576 e33d fa6d 753e 85e5 e6be
00000360: f15e f0bd c37f 04be f66b 7bbe 8508 14bc
00000370: 2fc6 a23c 3f4c 93be 797d 3abe 3c7f f63d
00000380: 38be 13be a73e e3bd e4bd 8fbc b76e e9be
00000390: 7d1b 8dbe 71de fd3d 251f 4abd f2c6 4fbe
000003a0: 092a 23be afa2 b2be 5d33 913e 06db 733a
000003b0: 8d0f 9fbe 8184 fbbd 8f9b da3d e44a 95be
000003c0: 44e1 213e d579 a7bb 4780 9dbe baa4 803d
000003d0: 4318 08be 76f9 1dbe b932 19bf e6db fdbe
000003e0: 2b9e 27be 76a0 d2bd fe9b 373e 955c 45be
000003f0: 6761 253e 8d02 913d a465 9fbe 3561 b0be
-0.17942856 -0.23910463 -0.051426973 0.3209546 0.32110703 0.21620923 0.6137385 0.201877
0.103816345 0.10040569 -0.6470265 -0.17205213 0.01193204 0.08951486 -0.3201292 -0.06788528
-0.2143839 -0.07936234 0.00521779 0.23165873 0.20743072 0.013758325 -0.15691364 -0.15224017
0.31924525 0.17682241 -0.064525224 0.42541432 -0.027222525 -0.14928342 0.06775439 0.11291799
0.2233663 0.04902755 -0.11142042 -0.08482425 0.16815682 -0.24838373 -0.122413546 0.17818311
0.21974236 0.07306221 0.017585492 -0.13360855 -0.06424189 0.34124714 0.28800625 -0.05273149
0.31831858 0.18962668 0.037497055 0.32673642 0.18736884 -0.032028694 -0.078847915 -0.07533065
-0.17409925 -0.37768373 -0.29708192 0.2448452 0.01778679 -0.23839425 0.005534632 0.066735655
0.048943184 -0.18357325 0.22230676 -0.054317873 0.027275318 -0.26855436 -0.25093094 -0.10339722
0.2663647 0.07938854 0.23451728 -0.12537873 0.0077595934 -0.29050386 -0.11685225 -0.051507413
-0.17319418 0.14694695 -0.30696583 -0.1820757 0.0644805 -0.15654549 -0.26225957 0.0066164746
-0.0622177 -0.035929047 0.4045138 -0.041941095 0.015294954 0.22919002 -0.13141726 -0.2011076
-0.057530984 -0.013345773 0.07498447 -0.08125367 -0.0597663 -0.027858453 -0.49966037 -0.23986332
-0.1858747 -0.06428742 0.029288992 -0.09094834 -0.3175043 -0.28851962 -0.2161124 -0.04493488
-0.005736074 0.07099601 0.05872972 -0.12752867 -0.19030361 -0.24164775 0.077787034 0.009582893
0.09560246 -0.19848816 -0.048368566 0.024143502 0.03748863 -0.015361794 -0.051673815 -0.07598483
-0.07669133 -0.34266135 -0.18003842 -0.47742125 -0.006129043 -0.015785176 -0.043616924 -0.03585834
0.016016405 0.03987148 -0.12233735 -0.05327369 -0.14382254 -0.16869669 -0.07728761 -0.16616261
-0.17734656 0.048252866 -0.062057395 -0.3253915 -0.3612959 -0.34790874 0.00324856 0.030062329
0.044258077 0.1074643 0.06651133 0.07344892 -0.02986094 -0.009508518 -0.02993864 -0.30111837
-0.2728997 -0.27877223 -0.021258537 -0.11111155 -0.11803539 0.04359351 -0.036638927 0.023461256
-0.032541443 0.05323128 0.049789593 -0.24908864 0.039251883 0.066687405 -0.044921905 -0.044286184
-0.18859366 -0.19222932 -0.08355773 -0.073635265 -0.17625599 -0.076090164 0.06659575 -0.010738587
-0.10538167 -0.01036504 -0.13576777 -0.10946194 -0.1781464 -0.16889903 -0.17088419 -0.22140256
0.20551983 0.091294326 -0.15753205 -0.08026984 0.21696074 0.173465 -0.44684947 -0.18039477
-0.27317798 0.024984194 -0.16956541 -0.0060227565 -0.2178518 -0.2611303 -1.7133145 -0.21343668
0.4373046 -0.17712878 -0.28404638 0.38151 0.04801335 0.111065306 0.23967734 -0.45096985
-0.11736859 -0.12939362 -0.24552903 -0.009035234 0.019869892 -0.2876911 -0.18211927 0.12035987
-0.14428031 -0.11095934 -0.017546602 -0.4559228 -0.27560034 0.12395943 -0.049346108 -0.20290735
-0.15934004 -0.34889743 0.283595 0.00093023514 -0.31066552 -0.122811325 0.10674202 -0.291587
0.15808588 -0.005110959 -0.3076193 0.06281419 -0.13290505 -0.15427193 -0.5984302 -0.49581832
-0.1636893 -0.10284512 0.179306 -0.19273598 0.16150437 0.07080565 -0.31132233 -0.34449163

encoder_cnn.2.bias f4 [64]
00000000: aa0a 4bbd b7a8 15be 13f4 13be f04a 363c
00000010: 45bd 6c3d ca64 6b3d 1a47 1bbf 9257 4fbe
00000020: b09a 41be ebc6 81bc 277a 103d 8a24 c8bd
00000030: b7de d43d dce8 ebbd 7478 e7bd c752 133e
00000040: d508 953d af20 073e 6b06 26be be22 f5bd
00000050: dac0 12be c337 b73d 3c1b f93e f716 c33e
00000060: 74d6 2bbe 6a00 41be 8395 a8be 3d8b 0cbe
00000070: bbd8 bd3e 94fa fbbd 9a59 523d 69bf afbe
00000080: 3cfd 95be 5f3c 61be 366a 383e 86bc a8be
00000090: 5d2a 30bd 1f2d 0abf 2794 8f3d 56fa e0ba
000000a0: 8802 44be 8d6a d2be da98 753e 8e5a b1bd
000000b0: f644 46be b16c 1cbf 5489 dabe 4403 2abe
000000c0: 77bb a6be b3cc 1fbc a2e9 dbbe d31b bebe
000000d0: 7e53 8ebe b37c b5bd 33f9 abbe 9594 0bbe
000000e0: 7a58 65bd ea61 25be a6c3 11be 2887 02be
000000f0: 3a48 cabe d506 133e 07b4 a4be f4ed 60be
-0.049570717 -0.14615141 -0.14448576 0.011126265 0.05779769 0.057469167 -0.6065537 -0.20248249
-0.18906665 -0.015841922 0.035272744 -0.09772594 0.10394042 -0.11519024 -0.113022715 0.14387046
0.07277075 0.13196062 -0.16213386 -0.11969517 -0.1433138 0.089461826 0.4865359 0.38103458
-0.16781026 -0.18847814 -0.32926568 -0.1372499 0.37079415 -0.12303653 0.051354982 -0.34325722
-0.29294765 -0.21995686 0.18009266 -0.32956332 -0.04300915 -0.539751 0.0701068 -0.001716445
-0.1914159 -0.41096917 0.2398409 -0.0865985 -0.19362244 -0.6110335 -0.42682898 -0.16602808
-0.325649 -0.009753394 -0.42951685 -0.37130603 -0.27798074 -0.08861675 -0.3358856 -0.13630898
-0.05599258 -0.16150633 -0.1423479 -0.1274687 -0.3950823 0.14358075 -0.321686 -0.21965772

encoder_lstm.weight_ih_l0 f4 [128, 64]
00000000: b69c d63e 4cd8 483d 2e7c 373e 0bf5 81be
00000010: de26 443e a437 10bf 7529 253f b3b7 c2bd
00000020: 4c2a 923e feab 593d 5ec6 243c 3a9a 98be
00000030: 1171 023e 86a9 22be 4263 c73d cea0 aa3e
00000040: 0869 f7be a147 6f3d 1070 96bd 78d7 503c
00000050: d6b5 4cbc 5c66 20be 1db2 ff3f 968e 5abf
00000060: e2c5 e93e a3f4 703e f91c 813c ce99 a53d
00000070: 22de a9be faf1 ccbd e99e 5f3e 7e2e 183e
00000080: 33a9 883e 78b1 983e e9c8 88bd 65c3 f43e
00000090: 8d1e 0e3f 4283 86bb f2d9 3a3d 96c5 01be
000000a0: ebda 803d 5793 113f d640 ab3e 65ec 66be
000000b0: 5b32 2dbe b9cc 823e 5155 7bbc 104c 6b3e
000000c0: 2781 d03e e4c1 dc3d a814 ea3e a521 883e
000000d0: 7a05 3f3e 039f 19bd 9f00 433e becc 9c3e
000000e0: 2f39 ebba 7cdc f0bd c712 63bd 67c3 2bbd
000000f0: cf31 d93d e6fc 32be b565 b5bd ad0e e2bd
00000100: a02e 553e 983f 583c b869 a4be 26c1 a93d
00000110: ab41 5e3d 8215 d03e a9b3 8abd f7a7 063e
00000120: 56d3 eb3d 39b9 203e ef61 893d 93bd b5be
00000130: 9f00 e43c b0a9 3ebd 6433 f83d ffd3 b0bd
00000140: fe31 bf3e f0be 5abe 0060 5bbe 90db 46bd
00000150: 6ec3 533e b739 d53d b878 92bf 22fa 7abe
00000160: 878a 573e e73d 7abe 9865 dd3d 6bec 383e
00000170: bfe5 2c3e 88ae 68bd be44 ddbe dc74 b13d
00000180: 11cd 8f3e e988 433d 619a 3ebd 7fe2 1abe
00000190: 7f44 47be 59a9 babe 538b 153e 91f5 223b
000001a0: 4d82 69bd 8aa3 01be aaa5 85be 5f1f 23be
000001b0: f32d 783e a905 713e 774e b53e 06b8 00bd
000001c0: 43f6 c3be 044b f23d 419e f7bd d260 2d3e
000001d0: 1be9 28be db9a 8bbd 5ccc d4bc d895 793e
000001e0: d80e 6b3d 77bf 093d 817b 0c3e 02d7 1bbe
000001f0: f5c3 e03d e910 8bbe 1817 dbbe d873 41be
00000200: f673 c03d 3f4f 82bd a7a3 943e 82c9 2bbe
00000210: e518 c93e f035 06bd 7789 c7bc 9848 9cbd
00000220: e900 87bd f240 103e b3d8 23bd 1eb1 e03d
00000230: 8dd1 dabe a732 a2bd 5776 50be 6560 0e3e
00000240: a0ab a9bd 5183 163f a82f 0ebd fd00 553e
00000250: 1e40 eb3d f67f 95bd 8927 3a3e 6be1 95bd
00000260: 6285 1abe 9bc7 fdbc ce61 f83d b347 19be
00000270: 7dba 5f3e 1f31 ff3d 9977 53be 8594 9ebb
00000280: f896 1abe a6a7 053e 7fa6 ee3c d5e3 f9bd
00000290: b7ae 733e d20b 5ebd 7071 03be 29d2 b13c
000002a0: b1a4 b33e 3989 0b3c 062d 0d3f f9de e8bd
000002b0: afd1 92bd ab4a edbe 5fe8 e43d 12d8 edbd
000002c0: 63ac 903e 1888 a33d 87ea 803e 0ea8 36bd
000002d0: b128 c1bd 16e3 2abd c95e 093f bb22 f23d
000002e0: d11a 583b 706d aebe 8b82 2e3c 930c fdbc
000002f0: fb66 483d 4965 46be dded d93d 84d2 b7bd
00000300: 0721 0dbe c9f0 713e 0fd7 763e 161c 98bd
00000310: 7bf9 1e3d 2d7d 0a3e b306 143d eda1 5fbe
00000320: af96 c63b 240d 1a3d 6340 21bd dbf2 843e
00000330: 65e9 8c3e 1129 d1bd 0d70 6c3e 5967 2d3d
00000340: 29a1 e7bd 19ef e93e ab9b 0bbc d08d e73d
00000350: 7ef1 713c 7a0d 883e 0f25 663e a9b8 803e
00000360: 84d7 e13e c0b1 9cbd 01f8 e0ba c60e 003e
00000370: dab7 0b3e 1c18 003e 90ea 533d 535d b33d
00000380: 5bab cabe 9123 79be a74f ae3d 8df3 55be
00000390: f3e4 41be 6a2a 83be 6d48 ddbd 1eab 983d
000003a0: 4a9d 4a3e 3362 59be 33ad 313e 4f20 ba3d
000003b0: 41b3 343f cbf3 363f 1597 943d 621e 8c3d
000003c0: 2ab6 aa3e e943 ad3b 4472 b8bc ce8f 7d3d
000003d0: f4e5 2b3e 0b48 e53c 866e dcbd 8ea9 17be
000003e0: 79f6 963d 297e 063e bdc1 8c3e 2e69 b4bd
000003f0: 7f6c ebbd a278 37bd 2c59 debe d71e 63be
0.41916436 0.0490344 0.17918465 -0.25382265 0.19155452 -0.563349 0.64516383 -0.09507694
0.28547895 0.05314254 0.01005706 -0.29805166 0.12738444 -0.1588498 0.09735729 0.3332581
-0.4832232 0.05841792 -0.07345593 0.012746684 -0.012494525 -0.15664047 1.9976231 -0.8537382
0.45658785 0.23530822 0.015760886 0.080859765 -0.33177286 -0.10007091 0.21837963 0.14861485
0.2669159 0.29822898 -0.066789456 0.47805324 0.55515367 -0.0041050026 0.045618005 -0.1267303
0.06291755 0.5686545 0.33447903 -0.22551115 -0.1691374 0.25546816 -0.015340165 0.22978234
0.40723535 0.10779169 0.45718884 0.2658817 0.18654433 -0.03750516 0.19043206 0.30624956
-0.0017946119 -0.11760804 -0.05543783 -0.041934397 0.10605203 -0.17479286 -0.0885729 -0.110379554
0.20818567 0.013198756 -0.32111907 0.08288793 0.054261845 0.4064141 -0.06772549 0.13150011
0.115149185 0.15695657 0.067081325 -0.35496196 0.027832327 -0.046548545 0.12119177 -0.08634185
0.3734283 -0.213619 -0.2142334 -0.048549235 0.2068002 0.10411399 -1.144309 -0.2450948
0.21048938 -0.24437676 0.10810393 0.18058936 0.16884516 -0.05680707 -0.4321651 0.08664867
0.2808614 0.04773799 -0.046533946 -0.15125464 -0.19459723 -0.36457327 0.14603929 0.0024865607
-0.05700903 -0.12660041 -0.26102954 -0.15929936 0.24236278 0.23537315 0.35411426 -0.0314255
-0.3827382 0.11830714 -0.120907314 0.16931465 -0.16495173 -0.06816646 -0.025976352 0.24373567
0.057387203 0.03362986 0.13718988 -0.15218738 0.10974876 -0.2716134 -0.42791057 -0.18891847
0.09397118 -0.06362771 0.29031107 -0.16776088 0.39276806 -0.032766283 -0.02435754 -0.07631034
-0.065919705 0.14087275 -0.040001582 0.109712824 -0.42738 -0.079198174 -0.20357643 0.13903959
-0.08284688 0.5879412 -0.034713417 0.20801158 0.11486839 -0.07299797 0.18179144 -0.07318386
-0.15089944 -0.030978968 0.1212803 -0.14968757 0.21848483 0.12460541 -0.20651092 -0.0048394823
-0.15096653 0.13052234 0.029132126 -0.12201659 0.23797117 -0.05421049 -0.12836242 0.021706657
0.35086587 0.008516603 0.55146825 -0.11370654 -0.071689 -0.4634603 0.11177134 -0.11613478
0.2825652 0.07984942 0.2517893 -0.044593863 -0.094315894 -0.041720472 0.53660256 0.118230306
0.0032974968 -0.3406787 0.010651241 -0.030889785 0.048926335 -0.19374575 0.10641072 -0.089756995
-0.1378213 0.23627008 0.24105476 -0.07427232 0.038812142 0.13524313 0.0361392 -0.21839114
0.0060604434 0.037610188 -0.039368045 0.25966534 0.27521816 -0.10212911 0.23089619 0.042334888
-0.11310036 0.4569023 -0.008521001 0.113063455 0.014767049 0.26572782 0.22475074 0.25140885
0.44109738 -0.076510906 -0.0017163755 0.12505636 0.13644353 0.12509197 0.051737368 0.087580346
-0.3958386 -0.24329974 0.08511286 -0.20893688 -0.18934993 -0.25618297 -0.1080483 0.07454513
0.19786564 -0.21228866 0.17351227 0.090881936 0.7058602 0.7146575 0.07255379 0.068417326
0.33342105 0.0052876365 -0.022515424 0.06190472 0.16786939 0.027988454 -0.10763268 -0.14810774
0.0737123 0.13134064 0.2749156 -0.08809124 -0.11495303 -0.04479278 -0.43427408 -0.22179733

encoder_lstm.weight_hh_l0 f4 [128, 32]
00000000: a669 0bbf bea4 403f 1eb3 ecbd 88a2 12bc
00000010: ea06 f63f 95a4 90be f714 e63e 3b44 42bf
00000020: 8701 233f cf1b 383e 17da ad3e 2ab3 24bf
00000030: 9148 c1bc f3b9 cfbe bcfa 523e 27ee ae3f
00000040: 7a0a 0cbf c6d8 043f 75c6 5ebd 2eff bf3e
00000050: 4e58 613f 8ed3 473f 1346 673f 48d1 0c3f
00000060: a755 31bf 72fa 62bf 2b78 273f c37d 3cbf
00000070: 0469 283f 8f93 57be 27d3 26bf 9043 f73c
00000080: d665 cabd e08b 89bd df93 01bf 6cd6 81be
00000090: cc95 51bd aec7 ecbd 8712 19bf 63e1 09bf
000000a0: 842e 213f b3ca 083f 9a8b 183e 12ab cabe
000000b0: 8d87 e7bd f3fb f23e e021 ff3e cbb1 cd3e
000000c0: 6fa8 94be 44e1 4c3f 095f 00bf 4208 e13e
000000d0: 9424 b43d 5d98 053f d320 e23e 408f 22be
000000e0: 8046 97be b818 3c3f abf7 bd3e 430f 1ebf
000000f0: daf7 293e 831c f5be be7e ed3c a600 5fbc
00000100: 078a 94be 3610 d33e e535 83be 0b56 bfbe
00000110: fdf1 753f 9e3e 06be c3f0 c3be 8335 c73e
00000120: 6e1b fd3c 2b12 39be a3a7 97be e9e1 08bd
00000130: c7ac 653e 0783 553e f816 14be 0226 cbbd
00000140: 482a 78be dad3 2c3e 0eb4 b3be 2928 8cbe
00000150: 831c 32bf 5e1b a0be 354e 22bd f965 63be
00000160: 73e0 523e 7337 8a3e 9f67 1fbf e596 f6be
00000170: a371 86bd 8fbe a2bd c145 1dbf 1503 15bd
00000180: 9b27 43bf 4430 e8be cab0 a0be 29c7 463f
00000190: 8f14 74be 3485 5fbd 0bee 5bbe bca8 883f
000001a0: 8b08 41bf c18f 07be c561 1fbf 4642 693e
000001b0: 126d 1e3f a5f5 213f 44b2 c8be 20e5 753d
000001c0: bc4b 973e bb8a 8cbd db3c 0bbf 7f32 27be
000001d0: 2de4 c3bd 3311 45bf 5c18 19bf 0fda 52bf
000001e0: c056 843f 66e7 6c3e 70af 5cbf 4803 80be
000001f0: 44af a3be 3856 043f 55ab 9d3e 13fd 29be
00000200: d2ea 1d3f 9104 153d 4b9b 9d3e 852f 503d
00000210: 27e0 0cbf 1240 c0be e6b6 ee3d c8cc e73c
00000220: 2364 ca3e 82b2 2dbf 19f0 95be c8e8 503f
00000230: 4bcb 3ebe 596f 1a3e 0be2 913e 8ea3 5ebf
00000240: 7e30 b93d 8caf b33e 01d2 ef3e a7c5 373e
00000250: 3d2d 223e 8dd5 253f 2431 7f3b 38ec 943d
00000260: 9db7 9f3d 1b9e 62be 3d24 41bc 77d1 67bf
00000270: e4e6 593f 8b0e 303c 698f 933c ae41 2ebe
00000280: 8ba3 ae3e aa32 143f cb5c b9be 6044 9abe
00000290: 4e70 353f 9aed 5fbf 8f5d 15bf 876a d8be
000002a0: a2b2 e03e 051e f13e 6cf3 093f c02d c0be
000002b0: 5ae3 94be 743f 06bf 3f00 893d e977 f6be
000002c0: 5618 883e 9ade 933d 58e5 c73e a14f 583e
000002d0: 9b6e 083f 7dd7 663e bbd5 2e3f 19f5 8f3f
000002e0: 1c8a 95be 6d05 e23d 3545 dd3d 68f2 b9bd
000002f0: 9a3b 4e3f 56c3 583e 3873 2dbf fcf9 663e
00000300: be3c da3e 42b9 d5be 0759 743e 3f7d 353f
00000310: c625 cfbe cb4d be3d cb12 893f 925c 853e
00000320: 264e d1bd 81c2 cd3e abb0 05be 7e14 8cbf
00000330: ea2c e03e 29b8 653e a90a 463c a1e7 3ebf
00000340: c065 323e e92c 5cbf 3bd6 7fbe 6977 eebe
00000350: 8492 1ebe 59d3 533f 8056 a13e 0146 a6be
00000360: 28ce 063f 8d74 dabe f066 253e 6996 833e
00000370: bfa1 05bf 279d d33d 8e67 4bbd 2738 213d
00000380: ff8f a63e b6ab ab3d 098e 89be 5f0f dcbe
00000390: 3526 433e 6ce5 47bf 7a6d 713d da6c 863e
000003a0: f867 4e3e eabf 68be 2bd2 b23e cdae c23e
000003b0: 3808 47be 9ad8 493e 1dcd 003f 812b d23e
000003c0: f60e 613e e31e 783e ef3f 183d cb4e ca3e
000003d0: 61cb f73e 0bd8 2d3d a265 173f 3294 fa3e
000003e0: 119b 0b3f 38cb 91bd 3093 a23e e277 53bf
000003f0: 9735 7b3c f669 9bbe 235c b0be 7524 02bf
-0.5445808 0.75251377 -0.115576014 -0.008949883 1.922086 -0.28250566 0.4493787 -0.7588536
0.63674206 0.17979358 0.33955452 -0.6433588 -0.023594173 -0.40571555 0.2060346 1.3666428
-0.54703486 0.5189327 -0.054388482 0.37499374 0.8802537 0.7805718 0.903413 0.5500684
-0.6927132 -0.886634 0.65417737 -0.736294 0.6578524 -0.21052383 -0.6516594 0.030183583
-0.09882705 -0.06716132 -0.5061626 -0.25358903 -0.051168248 -0.115615234 -0.59793895 -0.5385954
0.629616 0.53434294 0.14897004 -0.3958364 -0.11305151 0.47457847 0.49830532 0.40174708
-0.29034755 0.8003123 -0.5014501 0.43951613 0.08796039 0.5218561 0.44165668 -0.15874958
-0.29545975 0.7347522 0.37103018 -0.6174204 0.16598454 -0.47873315 0.0289911 -0.013610994
-0.29011557 0.41223305 -0.25627056 -0.37370333 0.9607237 -0.13109824 -0.38269624 0.38908014
0.030896869 -0.18073337 -0.29620084 -0.03341857 0.2242919 0.20850764 -0.14461887 -0.09919359
-0.24234879 0.1687769 -0.35098308 -0.2737439 -0.69574755 -0.3127088 -0.039625365 -0.22206868
0.20593433 0.2699543 -0.6226749 -0.48161998 -0.06564643 -0.079465024 -0.6143456 -0.036379892
-0.7623231 -0.45349324 -0.3138488 0.77647644 -0.23835967 -0.05457039 -0.21477525 1.0676494
-0.7540366 -0.13238432 -0.6225856 0.22779188 0.6188518 0.6326545 -0.39198506 0.060032964
0.29549968 -0.06862398 -0.54389733 -0.16327856 -0.095650055 -0.7697937 -0.59802794 -0.8236398
1.0338974 0.23135146 -0.86205196 -0.25002503 -0.31969655 0.5169406 0.30794778 -0.16600446
0.6168643 0.036381308 0.30782542 0.05082657 -0.5502953 -0.37548882 0.11655979 0.02829589
0.39529523 -0.67850506 -0.29284742 0.81605196 -0.18632238 0.15081538 0.2849277 -0.86968315
0.09042452 0.3509487 0.46839908 0.17946492 0.1583757 0.6477898 0.0038939202 0.07271618
0.07798693 -0.22130625 -0.011788425 -0.90553993 0.85117936 0.010745655 0.01801272 -0.17017242
0.34109148 0.5788981 -0.36203608 -0.3013029 0.7087449 -0.87471926 -0.58345884 -0.42268774
0.43886286 0.47093216 0.5388706 -0.37534904 -0.29079705 -0.5244057 0.066895 -0.4813836
0.26581067 0.07220192 0.39042163 0.21124126 0.5329377 0.2254314 0.68294877 1.1246673
-0.29206932 0.11036191 0.10804216 -0.090794384 0.80559695 0.21168265 -0.67753935 0.22556299
0.42624468 -0.41742903 0.23862086 0.70894235 -0.40458506 0.092921816 1.070886 0.26047188
-0.10219984 0.40187457 -0.13055675 -1.0943754 0.43784267 0.22433533 0.0120875025 -0.7457219
0.17421627 -0.8600603 -0.24984066 -0.46575478 -0.15485579 0.82744366 0.31511307 -0.32475284
0.5265832 -0.42667046 0.16152549 0.2570069 -0.5219993 0.10332709 -0.049659304 0.03936019
0.32531735 0.08382361 -0.26866177 -0.42980477 0.19057544 -0.78084445 0.058942296 0.26254922
0.20156848 -0.2272946 0.3492597 0.38023987 -0.19436729 0.19711533 0.5031298 0.41048816
0.21978363 0.24230532 0.037170347 0.3951324 0.48397353 0.042442363 0.59139454 0.4894119
0.5453349 -0.07118839 0.3175292 -0.826048 0.015332601 -0.3035428 -0.34445295 -0.5083688

encoder_lstm.bias_ih_l0 f4 [128]
00000000: 2f29 5cbe a2fd 9abd 3d17 303d 1f62 f23d
00000010: 68aa 9a3d 9692 8b3f 7891 10bd de34 193f
00000020: e65d 09bf d8c8 033e fabd 8dbd 68e2 943c
00000030: 3072 d93d cf33 1c3c 76f0 c1be 0be7 92be
00000040: 3f59 babd 5b8d e9bb 1b56 923d 4cbb b03d
00000050: 314f e33e a9ca e43e 8371 0c3f 949f 043f
00000060: 2047 da3e 41de b3bc a236 7bbe 14b9 313e
00000070: 7d49 cc3c 9b71 103c 2a9a 3ebc 641d 5dbe
00000080: 06b3 da3e f297 813e 953e d0bd 5b54 153f
00000090: 5967 883e dd7a 0b3e da6e 1b3e f80e 5d3e
000000a0: be7b 783d bc8a acbe 1df1 27bc 02f3 773e
000000b0: 2742 4d3e 47a8 43be 2534 12be da2b 7cbe
000000c0: 6f07 3bbd 1cbf 9ebe c99c fd3e d011 a2bd
000000d0: 605c 45bc d0ca 893c b8d4 f93d 8b69 8dbd
000000e0: e6c6 3ebe 4ac1 95be 083b adbd 8163 91be
000000f0: 0739 a7bd 541e a63e be51 9d3d 1da7 063f
00000100: 6c2f 77be 8265 da3e 4fa6 e6be 9388 d6be
00000110: 0238 cf3d 4581 abbe 2dd1 ed3b 5eb9 95be
00000120: d41a 353e 60b5 613e 3815 183e 9e35 623c
00000130: 1c9a 00bf e2f8 babe fb09 e9bd 0dc8 f03b
00000140: b2c3 873d 4d60 1ebd d7e6 923d 6f0f 223e
00000150: 1f89 57be ccc5 893e b428 913e d9ae a53e
00000160: 4fc7 95be c502 d73c 9cae 943e 4a72 fbbe
00000170: 12bb 8f3e 479e 3dbe 6410 7fbe e764 c5be
00000180: 3473 e73d 26a9 87bd 8b26 21bf 754b 413e
00000190: b60d b33e 4f6d b83e 0537 023e e28e e63e
000001a0: 45c5 5fbd 7619 dfbb 2aa0 b23e f44a 98be
000001b0: 2f6d ebbc 69a1 eebd b18f e0bd a134 3ebe
000001c0: b788 c1bd 1ce1 733d 9952 e73e 00f9 95be
000001d0: 4ae2 51be 2d54 013d 146f 84bd c7d1 be3e
000001e0: 71ba 27be c4f1 b2be 8034 3fbe 0862 e53d
000001f0: 83bc 7e3f 981b 383e ac46 92be 6a0d 8e3e
-0.21500085 -0.07567908 0.04299091 0.11835121 0.07552034 1.090411 -0.03529498 0.59846294
-0.536589 0.12869585 -0.06921001 0.018174365 0.10617483 0.0095338365 -0.3787877 -0.28691897
-0.090990536 -0.0071274466 0.071453296 0.08629474 0.44396356 0.44685867 0.54860705 0.51805997
0.4263239 -0.021956565 -0.2453256 0.17355758 0.024937386 0.008816148 -0.011633435 -0.21593243
0.4271471 0.25311238 -0.101681866 0.5833184 0.26641348 0.13621087 0.15179005 0.21587741
0.060664885 -0.33699596 -0.010250357 0.24213794 0.20044766 -0.19107161 -0.14277704 -0.24626103
-0.045661386 -0.3100518 0.4953368 -0.07913554 -0.01204595 0.016820341 0.12198776 -0.06904896
-0.18630561 -0.2924903 -0.08458525 -0.28396228 -0.08165174 0.32445014 0.07681607 0.52598745
-0.24139184 0.4265557 -0.45048758 -0.41901073 0.101181045 -0.33497062 0.0072576017 -0.29242986
0.17686015 0.22041845 0.14851844 0.013806729 -0.5023515 -0.36518008 -0.11378857 0.0073480667
0.06629123 -0.03866606 0.071729355 0.158262 -0.21048401 0.2690872 0.28351367 0.3235996
-0.29253623 0.026246438 0.29039466 -0.49110633 0.2807241 -0.1851741 -0.24908596 -0.38553545
0.1130127 -0.066240594 -0.62949437 0.18876441 0.34971398 0.36020896 0.12716301 0.45030886
-0.05463149 -0.006808455 0.3488782 -0.29744685 -0.028738586 -0.1165188 -0.10964907 -0.18574764
-0.094499044 0.059540853 0.45180205 -0.29291534 -0.20496479 0.031574417 -0.06466499 0.37269422
-0.16379716 -0.34950078 -0.18672371 0.112003386 0.99506396 0.17979276 -0.28569543 0.2774461

encoder_lstm.bias_hh_l0 f4 [128]
00000000: 5f6f e03c b9f7 7abe 4d53 2cbd cdbd c43d
00000010: 6af8 fc3d bded 503f f4ed 543e a4fc ee3e
00000020: 066e 8bbe 9692 683d 5e68 15be d762 33be
00000030: 30cf f23c 62d1 353e 984e f0be 0e74 85be
00000040: 9c8d 65be 1d68 2ebd d159 8c3c e845 743a
00000050: d698 a13e 6248 d53e 0b05 0d3f 9be1 d53e
00000060: 30cb ae3e bda9 723e 5c2c dabe ff15 3e3e
00000070: 8956 3c3e efcc 5bbe 54db 7cbe 7772 453d
00000080: f9a5 a43e a184 cc3e 65c4 02be d423 e93e
00000090: 91d7 bc3d 8d55 d23d 3805 a53c 89fa 3b3e
000000a0: ba02 7b3e 49bc 33be 2581 adbb 850a 5c3e
000000b0: 76b9 a33e e77f 2ebe 0407 253e 25db 90be
000000c0: cd8b 89be 8f3e 14bf a9d9 fa3e ba07 5ebe
000000d0: ee9b 14be a9b1 eb3d c58f 9a3d 348a 94bd
000000e0: 9715 bdbd 46fd c8be 755d 72be 8d62 fbbe
000000f0: 477f 713e f9a2 d93e 7c73 8a3e da0c c43e
00000100: 7380 b3bc 42f3 893e bf60 78be dcb1 30bf
00000110: a037 0ebe 721a 80be 42c9 1d3c f9b8 68be
00000120: 9934 df3e b549 fa3d 5bcf 8d3e 4a3b aa3d
00000130: 588b f8be 8a62 10be c9d2 00bd 9d05 943d
00000140: b0fe d23d 8d85 88be 997b 0c3e 50f3 52bd
00000150: b00b 01be 4649 8b3d c795 563e ed94 103f
00000160: 86b4 bbbe 23ae 0dbe f408 6e3e e548 dfbe
00000170: 61f3 8a3e 1506 e1be 69d1 12bf 3bab 46be
00000180: 4aa1 cb3d d7e2 0d3e c700 e7be 5188 c53e
00000190: c62d a53e 61f3 023f bde1 523e fa55 b13e
000001a0: 0663 45be 7a6a 25be 750f 113e ccf1 dbbd
000001b0: f00f 903e 0d63 0fbe 3cd2 9bbc 2452 a8bd
000001c0: a1a8 bebe af1a 873e 5f99 c83e 2b55 e4bd
000001d0: d081 00be 2f19 c03d c261 483d 1614 5f3e
000001e0: f5ec 62bd 35d3 a3be 8206 81bd 577b 6f3e
000001f0: 1d79 763f cefb 293e 2cf2 1cbe fcb6 923e
0.027396856 -0.24508561 -0.04207163 0.09606514 0.12352069 0.8161276 0.20793897 0.46677125
-0.2723238 0.05678042 -0.14590594 -0.17518173 0.02963981 0.17755654 -0.46934962 -0.26065105
-0.22417301 -0.04257976 0.017132672 0.0009318278 0.31561917 0.41656786 0.5508582 0.41773686
0.34139395 0.23697563 -0.4261197 0.18563078 0.18392386 -0.21464895 -0.24693042 0.048204865
0.32157877 0.39944938 -0.12770231 0.45535147 0.092208035 0.10270224 0.02014409 0.1835729
0.24512759 -0.17552294 -0.0052949362 0.21488388 0.31977433 -0.17040978 0.16115957 -0.28292194
-0.26864472 -0.57907957 0.48994187 -0.21682635 -0.14512607 0.11508495 0.07546953 -0.07252923
-0.092326336 -0.39255732 -0.23668464 -0.49098626 0.23583709 0.4250715 0.27041233 0.38291055
-0.021911835 0.26943403 -0.24255656 -0.6902139 -0.13888407 -0.25020176 0.009630503 -0.22726811
0.43594816 0.1222109 0.27697262 0.0831209 -0.4854381 -0.1410009 -0.03145102 0.07227633
0.10302484 -0.2666439 0.13719024 -0.051501572 -0.12602115 0.06801085 0.20955573 0.5647724
-0.36661166 -0.13835959 0.23245603 -0.43610302 0.27138808 -0.43949953 -0.57350785 -0.19401257
0.09942873 0.13856064 -0.4511778 0.38580564 0.32261485 0.51152617 0.20593925 0.34635907
-0.19276056 -0.16153899 0.14166053 -0.107394785 0.2813716 -0.14002629 -0.019021146 -0.08218792
-0.3723803 0.26387545 0.39179513 -0.11149057 -0.1254952 0.093798034 0.048921354 0.21785006
-0.05540176 -0.31997076 -0.063000694 0.23386894 0.96278554 0.16599962 -0.15326756 0.2865523

encoder_lstm.weight_ih_l1 f4 [128, 32]
00000000: e74a a73e def1 b2bd 37b8 a03d e7ff 85be
00000010: e12f e13e 3616 353e 714d 7abe df70 843e
00000020: a6f0 303d 2f81 873d 155c 2c3e 4c5d 2b3c
00000030: d490 08be 9cab 27bf 1063 313d 002e dd3c
00000040: 2fd1 553e 85d8 9ebe 6616 b3be b9bf 23bd
00000050: 054c 383e 9b4c 903e f215 00bc f329 1e3e
00000060: 0395 563e 1387 f33e 2e4d 123f 1af6 42bf
00000070: 7df6 043f e628 75be 1e85 b5bd 2542 69be
00000080: 8a99 a53e 709a 6bbe 93cd a5bd 5d20 5f3d
00000090: 8c18 0c3f 8d67 a9be 4592 e9be eea8 923e
000000a0: 5086 14be 0a32 3bbe ba67 7e3e ae88 42bd
000000b0: d453 483e be85 123e 9723 0ebe 7aa7 353e
000000c0: cfcf 0bbe 2065 b1be efca dd3d ac32 f1be
000000d0: c5f1 993e 2b41 c5be 856e 7e3d 937d 88ba
000000e0: df89 f93e 81e3 eebe 57e8 e8bc 1229 603c
000000f0: a136 5d3e 57eb f1be fbb3 4dbf e4d7 773e
00000100: 1a20 49be eff5 513e 44f8 753c 717d 263f
00000110: 8611 1e3d d195 323f 093c d93e 8ebb 083f
00000120: 0433 e53c 51d0 2dbc e4cc 4bbd cae1 3c3e
00000130: 868c 8c3d 0780 b7bd 4ef6 7e3e c7c9 3c3e
00000140: b167 b03d 13df 323b 04ae bfbd 469d 6c3e
00000150: 79cf 293d aaed 02bf a2f2 15be 2197 b1be
00000160: 63a9 96be ae90 303c 07db 11be 8d60 0a3f
00000170: 2064 0f3d 9161 06bf 9d19 84bd 853d 323e
00000180: 3acb 18bd 11e3 fd3e e926 a0be 87f2 86be
00000190: 8196 f03e 9d74 b4be 5568 7fbe cb96 3bbe
000001a0: a7f3 59be 5182 92bd f635 fd3e 3178 503e
000001b0: 3da6 f63e 8979 09bc dfcb 823e f3b4 00bd
000001c0: 73cf ffbd 82b5 49be 1dd3 823d 2913 c4be
000001d0: 3b1e 5c3e 25aa a0be 3b2e a93d dc94 923e
000001e0: 17ec 473e 5f55 f53d ebd0 e7be 2058 d43e
000001f0: 603f 063f ca50 d9be 32c0 11bc 0cd2 123e
00000200: 23ae 18be 2ce9 a63e 5df9 bbbe 272e 78bc
00000210: 5dba 293d 3cdd 32bd bd2d 29bd fa04 68be
00000220: 7a49 7dbf 7ce5 b53d d4fa 013e a02e 89be
00000230: 4e3d b4be 48bc b93d 7fa6 113c b443 a23c
00000240: a241 61be 5086 d93d 4036 9e3e 9df9 5ebe
00000250: aefb bfbe 36b8 0fbf bd9d 96be 8f39 263d
00000260: b5a4 58be f65d 8d3e 2d1c d4be 27b2 933d
00000270: 5489 0a3f f4ed 03bf 3786 513e f575 b23e
00000280: 9e59 0cbe 0034 9ebc fd61 1fbe e27d 283d
00000290: 1187 95bc 7e88 d1bd d9fb 1ebd 9ed4 d9bd
000002a0: 6f47 09be 1eb2 91bd 9064 34bd 11e7 0abe
000002b0: d756 85bb 9435 38bd f3be 26be 4364 c83e
000002c0: e4e5 19be 808c e83e 5b6b cd3e 3627 a23e
000002d0: 22a1 10be 4a74 7dbe a63f a73b f9ea bc3d
000002e0: 9eb0 89be 8809 163e daca f73d 1ddd 803e
000002f0: 3990 a1bd 5165 233d b376 d83d 8bc4 11bd
00000300: caf5 9cbd 3711 dfbd 80c0 e9be fd06 243f
00000310: 9a60 0fbf a04d 1c3f d751 4ebe 5dbd 823d
00000320: 4306 623c c6f4 e03d baa1 503e 2ba0 123e
00000330: cd1f 243e 910c 0dbc 243e cebc 506a dcbc
00000340: f5bf 9b3d 2f54 85be 483c 90bd 222b 5c3e
00000350: b722 043e e75e 4bbe 77c3 04be c4d6 7c3e
00000360: 0755 323d 2bf8 af3d 5d5c 6f3e db0d e33b
00000370: 819c 72be cc62 7a3e 4c1f e43d f7e2 2ebf
00000380: 9680 85bd 7191 3f3e 7baa 41be 9769 343e
00000390: c4ec c13d 818c 803e 9daf 243f 7fd0 513f
000003a0: 70ee e8be 873d c4be 3105 c8be 4b60 113e
000003b0: a6a9 e43c 1d91 353d 3c07 03be 8a50 13be
000003c0: a537 ac3e f4db 33be 0ac6 f0be 6ef3 773e
000003d0: 22c3 af3d 4146 5e3c 6986 943d cbf2 62bf
000003e0: 3241 943e 41ca 06bf 083f f8bd 174d d6bd
000003f0: 5f33 843e 4cc8 b03d b1bd 943d 295e 63bd
0.32674333 -0.08737539 0.07847636 -0.261718 0.4398184 0.17684254 -0.24443604 0.25867364
0.04319825 0.06616437 0.16832002 0.010459255 -0.13336498 -0.6549623 0.043307364 0.026999474
0.20880578 -0.31024566 -0.34978026 -0.039977763 0.17997749 0.28183445 -0.007817732 0.1544569
0.20955281 0.4756399 0.57149017 -0.7615677 0.5193861 -0.23941383 -0.08863281 -0.22779138
0.32343704 -0.23008132 -0.08095851 0.054474223 0.54724956 -0.33086815 -0.45619407 0.28644508
-0.14504361 -0.18280807 0.24844256 -0.04749363 0.19563228 0.14308831 -0.13880764 0.17739668
-0.13653491 -0.34647465 0.10829722 -0.47108972 0.30067268 -0.38526282 0.06211712 -0.0010413401
0.48738 -0.46657947 -0.0284311 0.013681667 0.2160287 -0.47249863 -0.80352753 0.2420345
-0.19641152 0.20503972 0.015012804 0.6503516 0.03859093 0.6975985 0.42428616 0.53411186
0.027978428 -0.0106087485 -0.049755946 0.18445507 0.0686274 -0.08959966 0.24898645 0.18436347
0.086135276 0.0027293607 -0.09359363 0.2310687 0.041457627 -0.51143897 -0.14643338 -0.34685615
-0.29426107 0.010776682 -0.14243709 0.54053575 0.035007596 -0.52492625 -0.06450198 0.1740628
-0.037303187 0.495873 -0.31279686 -0.2635691 0.46989825 -0.3524522 -0.24942143 -0.18319242
-0.21284352 -0.07153762 0.4945523 0.2035835 0.48173705 -0.008390793 0.25546166 -0.031422567
-0.1249074 -0.19698146 0.06387923 -0.38295868 0.21495907 -0.3137981 0.08260771 0.28629196
0.19523655 0.11979174 -0.4527658 0.41473484 0.5244045 -0.4244445 -0.008895921 0.14337939
-0.14910178 0.3259977 -0.36713687 -0.015147722 0.041437495 -0.043668017 -0.041303385 -0.22658148
-0.9894024 0.08881661 0.1269334 -0.26793385 -0.35203022 0.09069115 0.008889793 0.019807674
-0.21997693 0.10621321 0.30900764 -0.21774907 -0.37496704 -0.5614046 -0.2941722 0.040582236
-0.21156581 0.2761075 -0.41427746 0.07211714 0.54115796 -0.5153496 0.20461355 0.3485562
-0.13706061 -0.019311905 -0.15564723 0.041135676 -0.018252881 -0.10231112 -0.0388144 -0.10636257
-0.13406156 -0.07114051 -0.044041216 -0.13564707 -0.00406919 -0.04497297 -0.16283779 0.39138994
-0.15029103 0.45419693 0.40120968 0.3167054 -0.14123967 -0.24751392 0.005104023 0.09224505
-0.2689256 0.14652073 0.12099238 0.25168696 -0.078888364 0.039891545 0.10569515 -0.03558783
-0.07664068 -0.10891955 -0.45654678 0.64073163 -0.5600678 0.61055946 -0.20148407 0.063837744
0.013795438 0.10984187 0.20374194 0.14318912 0.16027756 -0.008608953 -0.025176115 -0.026906163
0.07604972 -0.2604079 -0.07042748 0.21500829 0.12903868 -0.19860421 -0.12965189 0.24691302
0.04353812 0.08592256 0.23375078 0.006929142 -0.23692514 0.2445175 0.11138782 -0.6831507
-0.065186664 0.18707825 -0.1891269 0.17618404 0.094689876 0.25107196 0.64330465 0.81958765
-0.45494413 -0.38328192 -0.3906646 0.14196889 0.027912926 0.044327844 -0.12795728 -0.14386192
0.33636203 -0.17564374 -0.47026092 0.24213955 0.085821405 0.0135665545 0.07252199 -0.8865172
0.2895599 -0.52652365 -0.12121397 -0.104639225 0.25820443 0.086319536 0.07262743 -0.05550972

encoder_lstm.weight_hh_l1 f4 [128, 32]
00000000: f00f d7bd 9b0b 86be 0b74 2abe 8fa0 31bd
00000010: f1a5 05be 78f6 d4bd 5836 3cbd b5ed e5bd
00000020: 54ff 083e a287 4bbd ed39 823e b6ba fd3d
00000030: 3594 b9bd 2299 95be af44 033e e62f 77bb
00000040: 4b51 30bf 845b 913d d890 72be 3bd0 803e
00000050: f42c 6bbc eea0 9dbe e66a bfbd 1c5e ca3e
00000060: 4c29 083d ed2e b9bd 23e7 e43d e4ca a53e
00000070: af78 25be baed 663e b18e b9bd 3e00 9abe
00000080: 577d debc 4a3d 87be 8651 243e ca54 47bd
00000090: 23b1 5cbe de64 013f e270 4dbe 02ba 13be
000000a0: c5f5 9b3c 0b72 38be a717 8cbe dac8 c53d
000000b0: 4c83 153e 4ea4 e03c 4d02 8cbc 420a 3bbd
000000c0: ed58 9d3e 82bd a23c cd9d 1dbd 7683 273e
000000d0: 37b6 453b f2b3 35bc 5918 133e 355b 9f3b
000000e0: 82c9 8fbd 28fb b53e b3e8 5f3e 0008 203e
000000f0: 49b7 49bd 0cff 41be cc24 583e 1f5f 613e
00000100: 6c0e 0cbe 4965 de3d dea9 86be 66b8 d1bd
00000110: 186e 91be 2245 243e 7cf8 06be 3ffe 41bd
00000120: 5167 af3e 7ed3 083e 6364 5f3d f112 94be
00000130: ca02 8fbb 19f4 f93d 7864 283d ec55 923e
00000140: c292 973e 0660 08be 3513 b33e 47c6 bdbd
00000150: 6ef2 a03d 4a23 00be 5e12 a93d 71ce c73d
00000160: 3780 7abd c216 6d3e 6601 573e 7690 7a3c
00000170: 825b b43d 20f1 b0bc 1758 7cbc a974 213e
00000180: 22b1 2ebe bbb7 20bd 9e0f 833e d46f 2cbe
00000190: e1ec 8c3e b924 c2be 1053 bebd 5168 fb3b
000001a0: 6d99 aa3e 6949 12bf d1cc 093b ce4e bebd
000001b0: 5d0d 89bd 409d 563e 7862 4b3d c950 87be
000001c0: 85db 293e e42c d63c ede3 c4bd b39e 87be
000001d0: 97ab 813d c121 953e 67fd 9ebe 2a81 893e
000001e0: 7638 133e 06a8 afbd 132d 203e 5c21 4ebe
000001f0: b20d 413e 192b c5bd 4d2e 8cbe 66e3 503e
00000200: 0448 86be df31 efbe e6dc 6dbe 3db5 423e
00000210: f1be 41be e101 b2bd 0b3f e9bc 98fa b9be
00000220: 8e57 aebd 9ac1 86be a88f 44be 9ce3 d5be
00000230: 2d43 90bd 33b0 f13e 7e1a b8bb f3a6 983e
00000240: 36ed 353f 2952 9a3e 39da 63bd 1eda 9cbe
00000250: 85a1 fdbd ec80 87be ae2f 6abe 7df2 9d3c
00000260: fd56 68bd 4431 f53d f621 3cbe 9c55 d83d
00000270: 67f6 093c 8658 013d 5a41 6c3d a432 cb3d
00000280: 7ff6 43be b62c 62be 3c99 3abe 221e 6abe
00000290: 1eae 203e 2257 88bd 94d7 c8be e5f0 153f
000002a0: 8489 d33e 4217 163e a86a 883e bb02 c1bd
000002b0: 8a59 003e d904 6e3c b5b1 04be cf2e 0fbe
000002c0: 6f0f 363e 456a b4be 6acc 91bd 480b 85be
000002d0: 1ea8 83bd af59 0f3c 88d8 9dbe 0866 24be
000002e0: c8fa 8a3d dcc9 b53e 348c 4e3e 536c 81be
000002f0: 3384 c6bc f5dc f8bd 7270 17bf 0776 a3bc
00000300: ee27 1c3e 4aeb 89be 1795 8bbe 563f 9bbe
00000310: 8b3e c9be 4933 283f f9e7 7a3d 7ce7 103e
00000320: 797d efbe 1303 8abe 715f a33d 4e79 503d
00000330: 88d7 f73e 71c3 1bbc 7454 7dbd de72 9ebd
00000340: a131 79be 1f60 68be 8293 8b3e 9c89 20bd
00000350: c736 21bc 4a6a 8c3e 7d9f 503e 3536 90bd
00000360: 4989 c83d 11ec f33d 6650 a0be e37e 083e
00000370: fd54 203f 64f9 d8be bde2 a13e 7441 813c
00000380: cbc1 8dbe cb3a e8bd 209a dfbe 7f17 483e
00000390: fb24 04bf 3f8c 4f3e 9984 a5bd 3af8 d4be
000003a0: 4855 0dbf 9b7b 983e 263f 58be 562d 11be
000003b0: 1813 8a3e 986a 96be aefa e73b 87ff 033f
000003c0: e9f0 3f3e f553 a63e 652f 113e f8e5 a73e
000003d0: 5bd8 c93d 1f29 61bd 6b53 293e a45e 7cbe
000003e0: e6af b73e 32ab abbd 1015 5f3e b37c ea3d
000003f0: 4944 35bf 1d9d 693e 4bf4 603f 6bf8 2ebe
-0.10501087 -0.2618073 -0.1664583 -0.04336601 -0.13051583 -0.10398573 -0.045950264 -0.1122698
0.1337865 -0.049689896 0.2543482 0.12389128 -0.090614714 -0.29218394 0.1281917 -0.0037717759
-0.68874043 0.07097533 -0.23688066 0.25158867 -0.014353979 -0.30786842 -0.09346561 0.39524925
0.03324251 -0.090421535 0.11176898 0.32381356 -0.16159318 0.22551623 -0.09060419 -0.3007831
-0.027159376 -0.26413947 0.16046724 -0.048664846 -0.21551947 0.50544536 -0.20062593 -0.14426425
0.01903809 -0.18012254 -0.27361795 0.0965745 0.14600867 0.027422097 -0.01709094 -0.04566408
0.30731907 0.019865755 -0.03848057 0.16358742 0.0030168423 -0.011090266 0.14364757 0.0048631676
-0.070208564 0.3554318 0.21866111 0.15628052 -0.04924706 -0.18944949 0.21107787 0.22008942
-0.13677377 0.10859162 -0.26301473 -0.10240249 -0.28404307 0.16041997 -0.13180727 -0.04736161
0.34258512 0.13361928 0.054539096 -0.289207 -0.004364346 0.12204761 0.04111144 0.28581178
0.29604155 -0.1331788 0.3497559 -0.09266334 0.0785874 -0.12513462 0.082554564 0.097561724
-0.06115743 0.23153213 0.20996627 0.015293231 0.08806516 -0.021599352 -0.015401862 0.15767159
-0.17059758 -0.03923772 0.25597852 -0.16839534 0.27524474 -0.37918642 -0.09293187 0.0076723476
0.3332018 -0.57143265 0.002102662 -0.092923746 -0.06692002 0.20958424 0.049654454 -0.26428822
0.16587646 0.026144452 -0.09613786 -0.26488265 0.06331556 0.29127315 -0.31052706 0.26856357
0.14377007 -0.0857697 0.15642194 -0.20129913 0.1885288 -0.09627361 -0.27379075 0.20399246
-0.2622682 -0.46717736 -0.23228797 0.1901445 -0.18920495 -0.086917646 -0.028472444 -0.36324
-0.085127935 -0.2631958 -0.19195426 -0.41775215 -0.07044063 0.47204742 -0.0056183925 0.29814872
0.7106508 0.30140808 -0.055628035 -0.3063516 -0.12384323 -0.26465547 -0.22869751 0.019280666
-0.056723583 0.11972287 -0.1837233 0.10563204 0.008420563 0.031578563 0.05767951 0.09921768
-0.19137 -0.22087368 -0.18222517 -0.22863057 0.1569142 -0.06657244 -0.39226973 0.585707
0.41315854 0.1465731 0.26643872 -0.09424349 0.12534156 0.014527523 -0.12958415 -0.139827
0.17779325 -0.35237327 -0.07119067 -0.2598517 -0.0642855 0.00874941 -0.30829263 -0.16054547
0.06786114 0.3550557 0.20170671 -0.25277957 -0.02423296 -0.12151519 -0.5915595 -0.01995374
0.15249607 -0.26937324 -0.27262184 -0.3032176 -0.3930553 0.65703255 0.061256383 0.14150804
-0.46775416 -0.2695547 0.079771884 0.050896935 0.48406625 -0.009507046 -0.06184812 -0.07736753
-0.24335338 -0.22692917 0.27260977 -0.039193735 -0.00983972 0.27424842 0.2037334 -0.07041589
0.0979181 0.119102605 -0.3131134 0.13329653 0.6262968 -0.4237777 0.316183 0.01577828
-0.27686915 -0.11339339 -0.43672276 0.19540213 -0.5161893 0.20268343 -0.080819316 -0.41595632
-0.55208254 0.29781803 -0.21117839 -0.1417745 0.26967692 -0.293782 0.007079444 0.5156178
0.18744244 0.3248593 0.14178236 0.3279264 0.0985572 -0.054970857 0.16535728 -0.24645478
0.35876387 -0.08382262 0.21785378 0.11449566 -0.7080732 0.2281384 0.8787276 -0.17086951

encoder_lstm.bias_ih_l1 f4 [128]
00000000: eb30 babb e4e1 65be fb15 a9be 42c0 04be
00000010: f1de 10be 356b 133e 51ab 6c3e 1e23 2fbc
00000020: 9c7a c4be 7a1e b9bc 1756 073e f686 66bd
00000030: d6a8 ba3e f115 963e ec4e 8fbe 30ae 82be
00000040: 2886 673d b513 ccbd 0ce9 49bd 1243 f13c
00000050: ba78 633e c7fd b9bd f66e 95be 1041 98be
00000060: 7152 ba3e 3a92 0d3e dede 65be 2094 613e
00000070: a549 9bbe 5f78 64be 857f 2e3d 248d dbbd
00000080: bca8 4abd 9ac4 6cbe a53f e63e 98a0 70bd
00000090: f757 913b c507 0d3e 1240 ef3c feef 953b
000000a0: 4570 083f b371 7abe 487a a73e 333d 8d3e
000000b0: a527 f33e 5b08 563d 36bd 8a3e 2f29 7bbe
000000c0: afc0 d8be 9342 963e 0675 043f 8a98 fc3c
000000d0: 837f 46be c706 28bd 6c3b 593e cdc9 46be
000000e0: 40bd e73e ffe3 3c3e 139f 6fbe 8cb9 933e
000000f0: 927d 063f 33ba 7e3d dcdb 5f3c 4581 073e
00000100: daa0 8e3d f5c5 38be 4cd1 e9bd b60a dbbd
00000110: 55bc 19be 2ecc ad3d 8590 813d 67ea 80bd
00000120: a584 b2be 4b3a 19bc a526 133e 912b 7b3e
00000130: 773b 853c 8e08 0a3d 39c1 dabd 7ff5 f93d
00000140: 4f6b d1bd 583f cc3d 3179 0bbe 1803 863c
00000150: 1d32 833c 99f7 fc3e 2e8d 743d 76ba 1cbe
00000160: 4821 a03d 4ccb c83d ae7d d3be f49c b6bd
00000170: f8a4 28bc 00ee 7338 8a47 d53d 73d1 adbc
00000180: 9f50 9cbe 1496 14be fcd3 5f3e 403d 023d
00000190: 672e a33e c963 3bbc bc08 813e 2ee9 1b3d
000001a0: 0b14 bd3e 60f8 41be 27ec 0dbe f87c 7a3e
000001b0: f300 ac3d b813 08be ea03 a7be 0538 e53b
000001c0: 7fcb 7fbe 1002 303e 01b6 e73d bd75 df3e
000001d0: 1279 513e 5fd5 0b3e 10d6 133f 5924 65be
000001e0: 05a1 673e dbf0 683a 6191 bc3d 18cd 893e
000001f0: 0def 0fbe 9dc4 3cbc eb32 853e 7c16 1bbe
-0.005682101 -0.22449452 -0.33024582 -0.12963966 -0.14147545 0.14396365 0.23112227 -0.010689525
-0.38374794 -0.02259754 0.13216434 -0.056281053 0.36456937 0.29313615 -0.279899 -0.2552352
0.056524426 -0.09964696 -0.049294516 0.029450927 0.22214022 -0.09081607 -0.2918622 -0.2973714
0.36391023 0.13825312 -0.22448298 0.22029161 -0.30329624 -0.22311543 0.04260208 -0.1072028
-0.049477324 -0.23121873 0.44970432 -0.058746904 0.004435535 0.13772495 0.029205356 0.0045757284
0.5329631 -0.24457435 0.3271048 0.27585754 0.47491184 0.052254062 0.2709748 -0.24527429
-0.42334506 0.29347667 0.51741064 0.030834455 -0.1938458 -0.04102209 0.21214074 -0.19412918
0.45261574 0.18446349 -0.23400526 0.288525 0.52535355 0.062189292 0.013663258 0.13232906
0.06964274 -0.18044265 -0.11416873 -0.10695402 -0.15013249 0.0848621 0.06326393 -0.06294709
-0.34866825 -0.009352277 0.1437021 0.24528338 0.016263707 0.033699565 -0.106813855 0.12205028
-0.102255456 0.09973019 -0.1362045 0.016358897 0.016015107 0.49407652 0.059704952 -0.15305504
0.07818848 0.09804401 -0.41306823 -0.08916655 -0.010293238 5.815737e-05 0.104140356 -0.021218037
-0.3053026 -0.14510375 0.2185821 0.031796694 0.3187134 -0.011437365 0.25201976 0.038064174
0.36929354 -0.18942404 -0.13859616 0.24461734 0.083986185 -0.13288772 -0.32620174 0.0069952034
-0.24979971 0.17188287 0.11314011 0.43644515 0.20456341 0.13655613 0.5774851 -0.22377147
0.22620018 0.0008885988 0.09207416 0.26914287 -0.14056034 -0.011521486 0.2601541 -0.15145296
