W3-Design/checkpoints/epoch_21.pt (torch, 384725 bytes, 24 tensors)

encoder_cnn.0.weight f4 [32, 3, 3]
0	0xbe863fe5	-0.26220623
1	0xbdd96fc9	-0.106170245
2	0xbe907dc9	-0.28220966
3	0x3e536a1f	0.2064595
4	0xbe90d688	-0.28288674
5	0x3ddfb874	0.109238535
6	0x3dfa2568	0.12214166
7	0x3e270072	0.16308764
8	0x3d8f4ba6	0.06996851
9	0x3e79e988	0.24405491
10	0x3e6ad2ef	0.22932027
11	0x3d9f31d1	0.077731736
12	0xbe9512c9	-0.29115894
13	0xbea6fdc5	-0.32615486
14	0xbc16188c	-0.009161126
15	0xbe90e67a	-0.2830084
16	0x3dfdd0eb	0.123933636
17	0xbe33d0b9	-0.1756009
18	0x3dd2cd14	0.10293022
19	0x3e6aa529	0.22914566
20	0x3ed89c12	0.42306572
21	0x3d3bdfd2	0.04586775
22	0x3e46e5d4	0.1942361
23	0xbec3aebf	-0.38219258
24	0xbe8641e5	-0.2622215
25	0x3cc72eef	0.024314372
26	0xbe219644	-0.15779978
27	0xbdf7b74b	-0.12095507
28	0x3adac371	0.0016690326
29	0xbe7f0777	-0.24905191
30	0xbdc8943e	-0.097939
31	0xbda0443e	-0.07825516
32	0xbd515df9	-0.05111501
33	0x3d9c19d6	0.07622115
34	0x3e31f02f	0.17376779
35	0xbd39817b	-0.045289498
36	0xbd9a6b0f	-0.07539951
37	0x3e1d7a71	0.15378739
38	0xbda0cfef	-0.0785216
39	0x3f080c26	0.5314354
40	0xbdbd4a23	-0.09242656
41	0x3efdf5da	0.49601632
42	0x3e0ba541	0.13637258
43	0x3e1e2bf4	0.15446454
44	0xbead5852	-0.33856446
45	0x3de752b5	0.11295072
46	0xbd810807	-0.06300359
47	0x3ed3b1c0	0.4134655
48	0xbe9be87a	-0.30450803
49	0xbe88a802	-0.2669068
50	0x3dc389f2	0.09547795
51	0x3e12eddd	0.1434855
52	0x3e560af7	0.2090262
53	0xbe93b5fd	-0.28849784
54	0x3d6ffb36	0.058589183
55	0xbde48170	-0.11157501
56	0x3e766eaa	0.24065652
57	0x3e83c257	0.25734207
58	0x3e0f2da3	0.13982253
59	0xbdc8d590	-0.09806359
60	0xbe135f7a	-0.1439189
61	0x3e2574eb	0.16157882
62	0xbea49717	-0.32146522
63	0x3e82d092	0.25549752
64	0xbd713ae4	-0.058894053
65	0x3e868ece	0.26280826
66	0x3e8ad01b	0.27111897
67	0xbe912160	-0.28345776
68	0xbef5d248	-0.48011994
69	0xbdbabcac	-0.091180176
70	0xbda1418b	-0.078738295
71	0x3eab6212	0.3347326
72	0x3e0aacd9	0.13542499
73	0x3e810850	0.25201654
74	0x3d20889d	0.039192785
75	0xbdcae71f	-0.09907364
76	0xbe8b02b9	-0.27150515
77	0x3e8dd236	0.2769944
78	0xbe95dba4	-0.29269135
79	0x3e8390c1	0.25696376
80	0xbde6c8dd	-0.112687804
81	0x3dbe4480	0.09290409
82	0x3e9a4171	0.30128053
83	0x3d987956	0.07445018
84	0x3e961644	0.29313862
85	0xbdcc9a2b	-0.09990343
86	0xbe963aef	-0.29341838
87	0x3e09f578	0.13472545
88	0x3dbf8865	0.09352187
89	0x3becb596	0.007223795
90	0x3bcbeaec	0.006223073
91	0x3c9cad4e	0.019125607
92	0x3d4b3cfb	0.049618702
93	0x3ece574e	0.40300983
94	0xbe3df86b	-0.18551795
95	0xbe51f843	-0.2050486
96	0xbe324ed0	-0.17412877
97	0x3e52db7c	0.20591539
98	0xbcf88597	-0.030337138
99	0xbe277689	-0.16353811
100	0xbd46c032	-0.048523135
101	0x3e6a93df	0.22907971
102	0x3cccbf0d	0.024993444
103	0x3ea2b036	0.31775063
104	0x3d67b075	0.056564767
105	0xbe4ecc1d	-0.2019505
106	0xbe833340	-0.25625038
107	0x3db91f15	0.090391316
108	0xbd83ddbd	-0.064387776
109	0x3e9be8fd	0.30451193
110	0x3e26c67d	0.16286655
111	0xbd17343c	-0.03691505
112	0xbe951f8d	-0.29125634
113	0xbecd6124	-0.40113175
114	0x3ed02bb9	0.40658358
115	0x3c6b80c1	0.014373959
116	0xbe2dfeba	-0.16991702
117	0x3e13a8c1	0.14419843
118	0xbd8e2759	-0.06941099
119	0x3db5b60f	0.088726155
120	0x3e55c8ea	0.20877424
121	0xbd8fe331	-0.07025755
122	0xbe158cf0	-0.14604545
123	0x3dbf03e5	0.09326915
124	0x3c017ec0	0.007903755
125	0xbddd889e	-0.10817073
126	0xbe52e414	-0.20594817
127	0xbe6b359f	-0.22969674
128	0xbdf90dee	-0.1216086
129	0x3e9c1ea0	0.30492115
130	0xbd89a104	-0.067201644
131	0xbe6d8724	-0.23196083
132	0x3e3ff0cf	0.18744205
133	0x3e62909c	0.22125477
134	0xbde99a51	-0.11406387
135	0x3eb221a2	0.34791285
136	0x3e5cd843	0.21566872
137	0xbe026f9d	-0.1273789
138	0xbece2543	-0.40262803
139	0x3d42fdcc	0.04760532
140	0xbe5d0cec	-0.2158696
141	0xbec87a29	-0.391557
142	0xbd472923	-0.048623215
143	0xbdf8212c	-0.12115702
144	0x3db4e58a	0.088328436
145	0xbe7b15d3	-0.24520044
146	0xbec8198c	-0.3908199
147	0x3e007322	0.1254392
148	0xbd75926f	-0.059954103
149	0xbe22d4c1	-0.15901472
150	0x3e49146e	0.196367
151	0xbe0c716a	-0.13715139
152	0x3e0d2d76	0.13786873
153	0x3d0b112c	0.033951923
154	0x3e82be76	0.25535935
155	0x3c62773e	0.013822375
156	0x3e2ca92d	0.1686141
157	0xbee66859	-0.45001486
158	0x3e4caf6d	0.19988795
159	0xbdc6e0f1	-0.09710873
160	0xbeb169db	-0.34651074
161	0xbde8cd1e	-0.11367248
162	0x3e91a59b	0.2844666
163	0x3e36276a	0.17788473
164	0xbe7e809c	-0.24853748
165	0xbdd7d277	-0.1053819
166	0xbece3fc0	-0.40283012
167	0xbe08e208	-0.13367474
168	0x3e33866e	0.1753175
169	0xbe3e9c8e	-0.18614408
170	0xbd82e8cc	-0.06392059
171	0xbdb6c929	-0.08925087
172	0x3e396843	0.18106179
173	0x3defcdf0	0.11709201
174	0xbbc60302	-0.006042839
175	0xbde70ea3	-0.112820886
176	0x3e3091d3	0.17243128
177	0xbddd2e8f	-0.10799896
178	0x3e5d52ea	0.2161366
179	0x3e3b97f1	0.1831968
180	0xbe2adcb0	-0.16685748
181	0xbe17e421	-0.14833118
182	0xbe319eda	-0.17345753
183	0xbe27556e	-0.16341183
184	0x3e811889	0.2521403
185	0xb9ca6ac7	-0.00038607998
186	0x3e768da6	0.24077472
187	0x3e54ef6f	0.20794462
188	0xbe56691c	-0.20938534
189	0x3e94ccc4	0.29062474
190	0xbde71c04	-0.112846404
191	0xbd91cc6a	-0.07119067
192	0xbe13bfa6	-0.14428577
193	0x3e8c43c1	0.27395442
194	0x3e09d3c3	0.13459687
195	0xbdd33a06	-0.103138015
196	0xbeca925c	-0.39564788
197	0xbe8d7de4	-0.2763511
198	0x3c66a7e5	0.014078115
199	0xbeb76814	-0.35821593
200	0x3db41752	0.087935105
201	0x3dc270a1	0.094941385
202	0x3e51fcc8	0.20506585
203	0xbd3aefce	-0.04563885
204	0xbd9624e0	-0.07331252
205	0xbe272a22	-0.16324666
206	0xbe8f8d72	-0.28037602
207	0x3d8ed9c2	0.06975128
208	0xbea39df2	-0.3195644
209	0xbea96a42	-0.3308888
210	0xbe40c2a5	-0.18824251
211	0xbc8f179a	-0.017467309
212	0xbe1672f4	-0.14692289
213	0x3dce4ebb	0.100736104
214	0x3e532170	0.20618224
215	0x3e820cb3	0.25400314
216	0xbc1f5872	-0.009725677
217	0x3e5d7678	0.21627223
218	0xbe2b8bd1	-0.16752554
219	0x3e8fac73	0.28061256
220	0x3e5e70cd	0.21722718
221	0xbe2df3b7	-0.16987501
222	0x3cbf7c11	0.02337459
223	0x3d3f8819	0.046760652
224	0x3d888e18	0.06667727
225	0x3ef2d918	0.47431254
226	0x3e61dbbb	0.22056477
227	0x3ebf20cd	0.37329713
228	0x3e7e6549	0.24843325
229	0x3e75f2ef	0.24018453
230	0x3cd12635	0.025530914
231	0xbedf2ae4	-0.4358741
232	0xbda03779	-0.078230806
233	0x3e2c3efa	0.16820899
234	0xbede1268	-0.43373418
235	0xbd131d50	-0.035916626
236	0xbe6e21cf	-0.23255084
237	0x3eb31acb	0.3498138
238	0x3e3c1ded	0.18370791
239	0xbe5f3685	-0.21798141
240	0x3eada60c	0.33915746
241	0x3c0c83d1	0.008576349
242	0xbe14558c	-0.14485759
243	0xbe9602cf	-0.29299018
244	0xbd1cca44	-0.038278833
245	0xbd4cad80	-0.04997015
246	0xbe513231	-0.20429303
247	0xbe22f80c	-0.15914935
248	0x3e1fb307	0.15595637
249	0xbe3b6842	-0.1830149
250	0x3e954bef	0.29159495
251	0x3d2e21b0	0.042512596
252	0x3e6b86a2	0.23000577
253	0xbd7537b1	-0.059867565
254	0x3d71988a	0.058983363
255	0xbd921e03	-0.071346305

encoder_cnn.0.bias f4 [32]
0	0xbe95550b	-0.29166445
1	0xbe036282	-0.12830546
2	0x3f99c214	1.2012353
3	0xbf9b6c4b	-1.2142423
4	0xbc33904e	-0.010959698
5	0x3d28dde3	0.041227233
6	0xbf6ecd8d	-0.93282396
7	0xbe2e4cad	-0.17021437
8	0xbe7b0bae	-0.24516174
9	0xbee1f988	-0.4413569
10	0xbea9f83e	-0.33197206
11	0xbe801cf6	-0.25022095
12	0xbdb4fcef	-0.08837306
13	0xbf3d0847	-0.73840755
14	0xbf5142e4	-0.8174269
15	0x3e8919b7	0.2677743
16	0xbf596fda	-0.84936297
17	0x3dfd5686	0.12370019
18	0xbde4409d	-0.111451365
19	0xbf85c745	-1.0451437
20	0xbf3d6e4a	-0.7399641
21	0x3ee0d3aa	0.43911487
22	0xbd8af726	-0.06785421
23	0xbf2bfc1c	-0.67181563
24	0xbf1500fe	-0.5820464
25	0x3f120401	0.5703736
26	0xbf3f2708	-0.7466893
27	0xbf500553	-0.81258124
28	0xbf6422d3	-0.8911564
29	0xbe2fa830	-0.17154002
30	0x3d46d0d4	0.048538998
31	0x3e240743	0.16018395

encoder_cnn.2.weight f4 [64, 32, 3]
0	0xbe21bd0b	-0.1579477
1	0xbd8f4f25	-0.069975175
2	0xbb57cf51	-0.0032929967
3	0x3e8d6123	0.27613172
4	0x3e767500	0.2406807
5	0x3e88632e	0.26638168
6	0x3f031ffb	0.51220673
7	0x3e4f36aa	0.20235696
8	0x3dab328a	0.08359249
9	0xbd939f73	-0.07208147
10	0xbeee07e1	-0.46490386
11	0xbdccc2ea	-0.099981144
12	0x3e1df7af	0.15426515
13	0x3d9bb75a	0.07603331
14	0xbe765727	-0.24056683
15	0xbe51d745	-0.20492275
16	0xbe93093f	-0.28717992
17	0xbd8c438d	-0.06848822
18	0x3e800be2	0.25009066
19	0x3e4743f9	0.19459523
20	0x3d9656b9	0.0734076
21	0xbe20e869	-0.15713657
22	0xbe3847ef	-0.1799619
23	0xbe618aa7	-0.22025548
24	0x3ec631bc	0.3870982
25	0x3d1891ab	0.037248295
26	0x3dd6cb45	0.10487989
27	0x3e82787c	0.25482547
28	0x3dfdc2ab	0.123906456
29	0xbc9d9ec7	-0.01924075
30	0xbdac904f	-0.08425962
31	0x3e719e85	0.23595627
32	0x3e1ac023	0.15112357
33	0x3e294b20	0.16532564
34	0xbd203db9	-0.039121363
35	0xbdd798f5	-0.10527221
36	0x3c86e4c4	0.016466506
37	0xbe3cd8a8	-0.18442023
38	0xbd8f4c5e	-0.06996988
39	0x3e4a46a7	0.19753514
40	0x3e5e4c28	0.21708739
41	0x3e5f04f9	0.2177924
42	0x3d335111	0.043778483
43	0xbdb3afca	-0.087737635
44	0xbb1bd20d	-0.0023776323
45	0x3e74c897	0.23904644
46	0x3e778ed7	0.24175583
47	0xbcbb7bcc	-0.02288618
48	0x3e95e6f9	0.2927778
49	0x3e5ecc14	0.21757537
50	0x3d8ce415	0.06879441
51	0x3e52bdf8	0.2058028
52	0x3dd76480	0.10517216
53	0xbca8550c	-0.020548366
54	0xbe33e8c6	-0.17569265
55	0xbd96c3d7	-0.07361572
56	0xbde4b488	-0.11167246
57	0xbe8c6489	-0.27420452
58	0xbe6dc916	-0.2322124
59	0xbdc7b84d	-0.097519495
60	0x3c3396a8	0.010961212
61	0xbe45d7ca	-0.19320598
62	0x3d25739b	0.040393453
63	0xbd0927ea	-0.03348533
64	0xbcbc7b2a	-0.023007948
65	0xbe2e490f	-0.17020057
66	0x3e23d2ec	0.15998429
67	0xbc8f8935	-0.01752148
68	0x3d5db630	0.054128826
69	0xbe6b91d5	-0.2300485
70	0xbe5a13c9	-0.2129661
71	0xbd98e7e0	-0.07466102
72	0x3eb4aaa7	0.35286447
73	0x3e6387aa	0.2221972
74	0x3e6bec5d	0.23039384
75	0x3dcb20b3	0.09918346
76	0x3e1faed0	0.1559403
77	0xbe9fdec9	-0.3122466
78	0xbe2c79db	-0.16843359
79	0x3c9f3200	0.019433022
80	0xbe13191e	-0.1436505
81	0x3d5b9d04	0.05361654
82	0xbe35eb90	-0.17765641
83	0xbb6c8141	-0.0036087784
84	0xbe0f8d2f	-0.14018701
85	0xbea3d68d	-0.31999627
86	0xbe802854	-0.25030768
87	0x3d54ca41	0.051950697
88	0xbdaa3666	-0.08311157
89	0x3d91eb56	0.07124965
90	0x3ed033e7	0.40664598
91	0x3d046259	0.032320354
92	0xbdeff0b3	-0.117158316
93	0x3e0a0487	0.1347829
94	0xbdc10940	-0.094255924
95	0xbe23a347	-0.15980254
96	0xbd6ba59c	-0.057530984
97	0xbc5aa83b	-0.013345773
98	0x3d999175	0.07498447
99	0xbda66853	-0.08125367
100	0xbd74cd82	-0.0597663
101	0xbce43769	-0.027858453
102	0xbeffd37c	-0.49966037
103	0xbe759ebb	-0.23986332
104	0xbe3e55f0	-0.1858747
105	0xbd83a91f	-0.06428742
106	0x3cefef78	0.029288992
107	0xbdba4320	-0.09094834
108	0xbea28fec	-0.3175043
109	0xbe93b8d8	-0.28851962
110	0xbe5d4c92	-0.2161124
111	0xbd380da3	-0.04493488
112	0xbbbbf5ad	-0.005736074
113	0x3d91665b	0.07099601
114	0x3d708e93	0.05872972
115	0xbe0296e0	-0.12752867
116	0xbe42def3	-0.19030361
117	0xbe777282	-0.24164775
118	0x3d9f4ecf	0.077787034
119	0x3c1d0191	0.009582893
120	0x3dc3cb39	0.09560246
121	0xbe4b407b	-0.19848816
122	0xbd461e1e	-0.048368566
123	0x3cc5c898	0.024143502
124	0x3d198dad	0.03748863
125	0xbc7bb009	-0.015361794
126	0xbd53a7ec	-0.051673815
127	0xbd9b9def	-0.07598483
128	0xbd9d1058	-0.07669133
129	0xbeaf714f	-0.34266135
130	0xbe385bfe	-0.18003842
131	0xbef4708f	-0.47742125
132	0xbbc8d624	-0.006129043
133	0xbc814fea	-0.015785176
134	0xbd32a7a9	-0.043616924
135	0xbd12e032	-0.03585834
136	0x3c8334d6	0.016016405
137	0x3d235047	0.03987148
138	0xbdfa8c01	-0.12233735
139	0xbd5a3583	-0.05327369
140	0xbe134637	-0.14382254
141	0xbe2cbed3	-0.16869669
142	0xbd9e48f7	-0.07728761
143	0xbe2a2688	-0.16616261
144	0xbe359a56	-0.17734656
145	0x3d45a4cc	0.048252866
146	0xbd7e2fe5	-0.062057395
147	0xbea699b7	-0.3253915
148	0xbeb8fbc7	-0.3612959
149	0xbeb22118	-0.34790874
150	0x3b54e5cb	0.00324856
151	0x3cf64546	0.030062329
152	0x3d3547f5	0.044258077
153	0x3ddc163e	0.1074643
154	0x3d883718	0.06651133
155	0x3d966c63	0.07344892
156	0xbcf49eee	-0.02986094
157	0xbc1bc99d	-0.009508518
158	0xbcf541e1	-0.02993864
159	0xbe9a2c30	-0.30111837
160	0xbe8bb982	-0.2728997
161	0xbe8ebb3c	-0.27877223
162	0xbcae2662	-0.021258537
163	0xbde38e74	-0.11111155
164	0xbdf1bc8a	-0.11803539
165	0x3d328f1c	0.04359351
166	0xbd1612b3	-0.036638927
167	0x3cc031d2	0.023461256
168	0xbd054a2d	-0.032541443
169	0x3d5a090b	0.05323128
170	0x3d4bf02c	0.049789593
171	0xbe7f1118	-0.24908864
172	0x3d20c695	0.039251883
173	0x3d889368	0.066687405
174	0xbd380008	-0.044921905
175	0xbd35656e	-0.044286184
176	0xbe411eb2	-0.18859366
177	0xbe44d7c3	-0.19222932
178	0xbdab2051	-0.08355773
179	0xbd96ce16	-0.073635265
180	0xbe347c73	-0.17625599
181	0xbd9bd529	-0.076090164
182	0x3d88635a	0.06659575
183	0xbc2ff0e6	-0.010738587
184	0xbdd7d258	-0.10538167
185	0xbc29d221	-0.01036504
186	0xbe0b06b5	-0.13576777
187	0xbde02d95	-0.10946194
188	0xbe366c03	-0.1781464
189	0xbe2cf3de	-0.16889903
190	0xbe2efc44	-0.17088419
191	0xbe62b75a	-0.22140256
192	0x3ec1c6a0	0.3784685
193	0x3e77ac82	0.241869
194	0xbd5c6de1	-0.053815726
195	0x3d1b3bc6	0.0378988
196	0x3e87d892	0.26532418
197	0x3e387d14	0.18016464
198	0xbf02d238	-0.5110202
199	0xbead7221	-0.33876136
200	0xbe53f07d	-0.20697208
201	0x3d6b813b	0.05749629
202	0xbe5b9ca9	-0.2144648
203	0xbd894f21	-0.06704546
204	0xbe3e1741	-0.18563558
205	0xbea5730e	-0.32314342
206	0xbfa4c469	-1.287244
207	0xbd8aae7d	-0.06771562
208	0x3f1f0651	0.62119013
209	0xbae9c6e0	-0.0017835759
210	0xbe190740	-0.14944172
211	0x3e93806b	0.28808913
212	0x3b3ef95c	0.002914033
213	0x3d54da0d	0.051965762
214	0x3e75e33e	0.24012467
215	0xbee354f1	-0.44400743
216	0xbdc7dc26	-0.09758787
217	0xbe31c32c	-0.17359608
218	0xbe6ce35b	-0.23133604
219	0xbc418b90	-0.011813059
220	0xbde1cf39	-0.11025853
221	0xbef99a89	-0.48750713
222	0xbe13dd8a	-0.14439979
223	0x3dcea150	0.10089362
224	0xbe042b40	-0.12907124
225	0xbce65519	-0.02811675
226	0x3decbcdc	0.115594596
227	0xbe782d45	-0.24236019
228	0xbe5dacd2	-0.21647957
229	0xbcea9062	-0.0286333
230	0xbc7be733	-0.015374946
231	0xbeddc7e0	-0.43316555
232	0xbe39b8ee	-0.18136951
233	0xbeb177f2	-0.34661824
234	0x3edaa7c0	0.42706108
235	0x3df0dc62	0.11760785
236	0xbe5d7f00	-0.21630478
237	0x3d034774	0.032050565
238	0x3e1274c8	0.14302361
239	0xbe7ec9db	-0.24881689
240	0x3e80b9bd	0.25141707
241	0x3c80f638	0.015742406
242	0xbead9e0d	-0.33909646
243	0x3e7f72ca	0.24946132
244	0x3d7e3e34	0.06207104
245	0xbdabab5f	-0.08382296
246	0xbedc3502	-0.43009192
247	0xbec2c698	-0.3804214
248	0xbdb5f473	-0.088845156
249	0xbe23e087	-0.16003619
250	0x3e65c471	0.22438218
251	0xbdc92af9	-0.098226495
252	0x3ea6b6fc	0.3256148
253	0x3e518bb1	0.20463444
254	0xbe488983	-0.19583707
255	0xbe3f35fc	-0.18672937

encoder_cnn.2.bias f4 [64]
0	0xbd733dd5	-0.05938514
1	0xbe15a8b7	-0.14615141
2	0x3d3f4723	0.0466987
3	0xbd13a96e	-0.036050253
4	0x3e1f7213	0.1557086
5	0x3dba0808	0.09083563
6	0xbee8479e	-0.4536714
7	0xbe0ae68c	-0.13564509
8	0xbe419ab0	-0.18906665
9	0xbc81c6eb	-0.015841922
10	0xbdb524f2	-0.088449374
11	0xbe1615b2	-0.14656714
12	0x3e3add4f	0.18248485
13	0xbdebe8dc	-0.11519024
14	0xbdf90397	-0.12158888
15	0xbd0fbc3e	-0.03509163
16	0x3dffa793	0.12483134
17	0x3e05e7dc	0.13076729
18	0xbe26066b	-0.16213386
19	0xbdf522be	-0.11969517
20	0xbe12c0da	-0.1433138
21	0x3e611fb3	0.21984749
22	0x3e6739e4	0.22580677
23	0x3eaa7909	0.33295467
24	0xbe2bd674	-0.16781026
25	0xbdbd2f75	-0.09237567
26	0xbeb6053b	-0.35550866
27	0xbe2db9dc	-0.16965431
28	0x3eb5cf9c	0.35509956
29	0xbdfbfa94	-0.12303653
30	0xbdb3fdfc	-0.08788678
31	0xbeafbf69	-0.34325722
32	0xbe37701e	-0.17913863
33	0xbe0d0a15	-0.13773377
34	0x3e386a36	0.18009266
35	0xbe7f6f75	-0.24944861
36	0xbd89265e	-0.06696771
37	0xbf01a072	-0.50635445
38	0x3e213159	0.15741481
39	0xbae0fa56	-0.001716445
40	0xbe440288	-0.1914159
41	0xbef5bfcc	-0.47997892
42	0x3da7c12b	0.08191141
43	0xbd55a92f	-0.0521633
44	0xbe197b92	-0.14988545
45	0xbf08583c	-0.53259635
46	0xbeabbc79	-0.3354223
47	0xbe2a0344	-0.16602808
48	0xbe90e9bd	-0.28303328
49	0x3d6e0ac5	0.05811574
50	0xbec20054	-0.37890875
51	0xbea714b9	-0.32632998
52	0xbe8e537e	-0.27798074
53	0xbdb57cb3	-0.08861675
54	0xbe9b21c0	-0.30299187
55	0x3bbec477	0.0058217603
56	0xbd65587a	-0.05599258
57	0xbe7dc379	-0.24781598
58	0xbe11c3a6	-0.1423479
59	0xbe028728	-0.1274687
60	0xbe8adb81	-0.27120593
61	0x3e28176d	0.16415186
62	0xbea4b407	-0.321686
63	0xbe60edf4	-0.21965772

encoder_lstm.weight_ih_l0 f4 [128, 64]
0	0x3f078aae	0.52945983
1	0x3d48d84c	0.0490344
2	0x3e09aa80	0.13443947
3	0xbdb1b502	-0.086771026
4	0x3e878a14	0.26472533
5	0xbe0029e4	-0.1251598
6	0x3eae5e43	0.3405629
7	0x3e1561d7	0.14588104
8	0x3e922a4c	0.28547895
9	0x3d59abfe	0.05314254
10	0x3e6ed2f8	0.23322666
11	0xbebb3b39	-0.3656862
12	0x3e209dc6	0.15685186
13	0xbe22a986	-0.1588498
14	0xbdab4262	-0.08362271
15	0x3ec181c6	0.37794322
16	0xbec1119d	-0.3770875
17	0xbe229e85	-0.15880783
18	0xbd967010	-0.07345593
19	0x3c50d778	0.012746684
20	0xbc4cb5d6	-0.012494525
21	0xbda1582f	-0.07878148
22	0x3f7c224c	0.9848983
23	0xbf6ce0ff	-0.92530817
24	0x3ee9c5e2	0.45658785
25	0x3e70f4d1	0.2353089
26	0xbe2b6dfa	-0.16741171
27	0x3da99a21	0.08281351
28	0xbe97df26	-0.29662436
29	0xbdccf1fa	-0.10007091
30	0x3e5f9ee9	0.21837963
31	0x3e182e7e	0.14861485
32	0x3e2f0a0f	0.17093681
33	0x3e9ee59a	0.31034547
34	0xbd88c8e9	-0.066789456
35	0x3e94e34c	0.29079664
36	0x3f0e1e8d	0.55515367
37	0xbe81f222	-0.25380045
38	0x3e931ad1	0.28731397
39	0xbe01c596	-0.1267303
40	0x3d80daeb	0.06291755
41	0x3e8f0d41	0.279398
42	0x3de84787	0.11341768
43	0xbdfe31ae	-0.124118194
44	0xbe89a31c	-0.26882255
45	0x3d40944b	0.047016423
46	0xbc7b5551	-0.015340165
47	0x3e6b4c10	0.22978234
48	0x3ebc0567	0.36722872
49	0x3d98e81d	0.07466147
50	0x3ea5626f	0.3230166
51	0x3e756a73	0.23966388
52	0x3e3f057a	0.18654433
53	0xbd199f03	-0.03750516
54	0x3e43009f	0.19043206
55	0x3e3fffd8	0.1874994
56	0xbaeb392f	-0.0017946119
57	0xbe372d86	-0.1788846
58	0xbd6312c7	-0.05543783
59	0xbd2bc367	-0.041934397
60	0x3da0db63	0.07854345
61	0x3df67129	0.12033302
62	0xbdb565b5	-0.0885729
63	0xbde20ead	-0.110379554
64	0x3e261846	0.16220197
65	0x3c583f98	0.013198756
66	0xbe62e3d5	-0.22157224
67	0xbcfbae7b	-0.030722847
68	0x3da78c3f	0.08181047
69	0x3e841cc1	0.25803187
70	0xbc4ffe84	-0.012694959
71	0x3e763082	0.24041942
72	0x3debd356	0.115149185
73	0x3e20b939	0.15695657
74	0x3c7593fc	0.0149888955
75	0xbe908821	-0.28228858
76	0x3dbbb318	0.09165019
77	0xbd3ea9b0	-0.046548545
78	0x3e1ac093	0.15112524
79	0x3dd4dc36	0.103935644
80	0x3eec5e53	0.46165714
81	0xbe46b5db	-0.1940531
82	0xbe5b6000	-0.2142334
83	0xbd46db90	-0.048549235
84	0x3e53c36e	0.2068002
85	0x3e555d81	0.2083645
86	0xbe6db5f7	-0.23213945
87	0xbe2582b8	-0.16163146
88	0x3e578a87	0.21048938
89	0xbe8cc731	-0.2749572
90	0x3e44b181	0.19208337
91	0x3e6e370a	0.23263183
92	0x3e22bae0	0.158916
93	0xbd68ae88	-0.05680707
94	0xbf035e15	-0.5131543
95	0x3db174dc	0.08664867
96	0x3eec024f	0.4609551
97	0x3e4d2106	0.20032129
98	0xbd3e9a61	-0.046533946
99	0x3c8e26b9	0.017352449
100	0xbe476111	-0.19470622
101	0xbe4551b1	-0.19269444
102	0x3eadde21	0.33958533
103	0x3b22f591	0.0024865607
104	0xbd69824d	-0.05700903
105	0x3cf097b9	0.029369222
106	0xbdedd0d2	-0.11612095
107	0xbeb16a3c	-0.34651363
108	0xbcb42326	-0.021989416
109	0x3ca20be6	0.019781064
110	0x3ea8d1dc	0.3297261
111	0xbd00b806	-0.0314255
112	0xbe5ac859	-0.21365489
113	0x3dfbbb57	0.122915916
114	0xbd91e30f	-0.07123386
115	0x3e1ea297	0.1549171
116	0xbe28e91b	-0.16495173
117	0xbd8b9adb	-0.06816646
118	0xbcbe07d3	-0.02319709
119	0x3e7056b2	0.23470572
120	0x3d6b0ed8	0.057387203
121	0x3d856966	0.06514244
122	0x3e0c7b81	0.13718988
123	0xbe1bd702	-0.15218738
124	0x3e37d965	0.17954023
125	0xbe50e764	-0.20400769
126	0xbedb1718	-0.42791057
127	0xbe4173d8	-0.18891847
128	0x3c6e5e5f	0.014548867
129	0xbd824f3f	-0.06362771
130	0x3eb4cb24	0.35311234
131	0xbcf77397	-0.030206485
132	0x3eb9879d	0.36236277
133	0x3dfde640	0.12397432
134	0x3d109420	0.035297513
135	0x3d519b30	0.05117339
136	0xbd8700e9	-0.065919705
137	0x3e1040f2	0.14087275
138	0x3e4f322e	0.20233986
139	0x3c109e00	0.008826733
140	0xbeb4e726	-0.35332602
141	0xbda232a7	-0.079198174
142	0xbdc39af2	-0.09551038
143	0x3ea76c2f	0.32699725
144	0x3e459991	0.19296862
145	0x3e8bb700	0.27288055
146	0xbd0e2fa8	-0.034713417
147	0x3e5500fd	0.20801158
148	0x3deb401e	0.11486839
149	0x3deae416	0.11469285
150	0x3d7fed34	0.062482074
151	0x3e555e8e	0.20836851
152	0xbe1a8562	-0.15089944
153	0x3d6b1e06	0.05740168
154	0x3e49dd2b	0.19713275
155	0x3c653225	0.013989006
156	0x3e312411	0.17298914
157	0x3dff311f	0.12460541
158	0xbe3ac762	-0.18240121
159	0xbb9e9485	-0.0048394823
160	0xbdf558d8	-0.11979836
161	0x3dadef96	0.08492963
162	0x3ceea67f	0.029132126
163	0xbc4862bf	-0.012230574
164	0x3e661a72	0.22471026
165	0xbd183f64	-0.03716983
166	0xbe040d6d	-0.12895747
167	0x3cb1d229	0.021706657
168	0x3eb3a4b1	0.35086587
169	0x3defa1e4	0.117008
170	0x3e1b563e	0.15169618
171	0x3cd79411	0.02631572
172	0x3e5207e2	0.2051082
173	0xbf099e81	-0.5375748
174	0x3e40258b	0.18764322
175	0xbdedd812	-0.11613478
176	0x3df330d1	0.11874545
177	0x3e2083f6	0.15675339
178	0x3e8315d8	0.25602603
179	0x3db33c51	0.08751739
180	0xbdc128b1	-0.094315894
181	0xbd2ae316	-0.041720472
182	0x3f081f83	0.53173083
183	0x3e68fb1c	0.2275204
184	0x3b581ad1	0.0032974968
185	0xbe5dafc0	-0.21649075
186	0x3c2e828b	0.010651241
187	0xbcfd0c93	-0.030889785
188	0xbb2c1d0a	-0.0026262426
189	0xbe359359	-0.1773199
190	0x3dd9eddd	0.10641072
191	0xbdb7d284	-0.089756995
192	0xbdf9a846	-0.12190299
193	0x3e71f0c9	0.23627008
194	0x3e0626ce	0.1310074
195	0x3ad01adb	0.0015877144
196	0x3d2fef4c	0.04295282
197	0x3d5aca08	0.05341533
198	0xbd96773f	-0.07346963
199	0xbe315d3c	-0.17320722
200	0x3bc696af	0.0060604434
201	0x3d1a0d24	0.037610188
202	0xbdf9acc3	-0.12191155
203	0x3eb052ae	0.3443808
204	0x3e8c37be	0.27386278
205	0xbdd12911	-0.10212911
206	0x3e4fc5b9	0.20290269
207	0xbd960dfe	-0.073268875
208	0xbe6b213e	-0.229619
209	0x3ed2cea5	0.41173282
210	0xbc0b9bab	-0.008521001
211	0x3de78dd0	0.113063455
212	0x3c71f17e	0.014767049
213	0x3e90d7aa	0.2828954
214	0x3e86c0de	0.2631902
215	0x3e6454e2	0.22298005
216	0x3ee1d784	0.44109738
217	0xbe58de4d	-0.21178551
218	0xbe14de66	-0.14537963
219	0x3e58db36	0.21177372
220	0x3e265132	0.16241911
221	0x3e00181c	0.12509197
222	0xbd85654a	-0.0651346
223	0x3db35d53	0.087580346
224	0xbec89a0b	-0.39180025
225	0xbe995291	-0.29945806
226	0x3dae4fa7	0.08511286
227	0xbd93f590	-0.07224572
228	0xbe15dbf9	-0.14634694
229	0xbe7ebdaa	-0.24877039
230	0xbe58cf08	-0.21172726
231	0x3d98ab1e	0.07454513
232	0x3e4a9d4a	0.19786564
233	0xbd19e788	-0.03757432
234	0x3e2f8d16	0.17143664
235	0x3e637aaa	0.22214761
236	0xbc74cd85	-0.014941578
237	0x3e7c8e1c	0.24663585
238	0x3d949715	0.07255379
239	0x3d8c1e62	0.068417326
240	0x3e3289ee	0.17435429
241	0x3dbb1f64	0.09136847
242	0xbcc4b2a7	-0.02401097
243	0x3cbf7c78	0.023374781
244	0x3e2be5f4	0.16786939
245	0x3ce5480b	0.027988454
246	0xbddc6e86	-0.10763268
247	0x3dfecea0	0.12441754
248	0x3d96f679	0.0737123
249	0x3d5d0b5b	0.053965908
250	0x3e8cc1bd	0.2749156
251	0xbdb4692e	-0.08809124
252	0xbd5a4422	-0.053287633
253	0xbd37f08b	-0.044907134
254	0xbede592c	-0.43427408
255	0xbe631ed7	-0.22179733

encoder_lstm.weight_hh_l0 f4 [128, 32]
0	0xbd4bac5b	-0.049724918
1	0x3e85009e	0.25977033
2	0xbe1d1cda	-0.15343037
3	0x3ec62e86	0.3870737
4	0x3f810e13	1.008242
5	0xbed17270	-0.4090762
6	0x3e29cfed	0.16583224
7	0xbeba8155	-0.36426798
8	0x3e5bcf68	0.21465838
9	0x3f0bca7f	0.5460586
10	0x3f328aed	0.69743234
11	0xbefc0036	-0.4921891
12	0xbe369c10	-0.1783297
13	0xbe67ad39	-0.22624673
14	0xbd819654	-0.06327501
15	0x3f046b97	0.5172667
16	0xbdbd2603	-0.09235766
17	0xbac467a4	-0.0014984501
18	0x3e7e8d44	0.24858576
19	0xbd06a886	-0.03287556
20	0x3f2cb201	0.6745911
21	0x3ec23870	0.37933683
22	0x3f1d0474	0.6133492
23	0x3e5df04e	0.216737
24	0xbeb6cc08	-0.35702538
25	0xbf48f2fb	-0.7849576
26	0x3e40a1ac	0.18811673
27	0xbea34531	-0.31888726
28	0x3e9c3a2b	0.3051313
29	0x3ead7b61	0.33883193
30	0xbf0279d5	-0.5096715
31	0xbe54e3f5	-0.20790084
32	0xbe6f4e0b	-0.23369615
33	0x3e58d12c	0.21173543
34	0xbf04a11b	-0.5180833
35	0xbd905abf	-0.070485584
36	0x3df8a5ab	0.12140974
37	0xbe2de4ad	-0.16981764
38	0xbe0aa23f	-0.13538454
39	0xbef38504	-0.4756242
40	0x3f033c4e	0.5126389
41	0x3e818a95	0.25301042
42	0x3dfa94c4	0.12235406
43	0xbed372cf	-0.4129853
44	0xbe902016	-0.2814948
45	0x3ef5ef82	0.48034292
46	0x3ee7db9c	0.45284736
47	0x3f007fda	0.50195086
48	0xbe7c2851	-0.24624754
49	0x3f044475	0.5166696
50	0xbe5e062f	-0.21682046
51	0x3cc3b82f	0.023891537
52	0x3dfa5beb	0.12224563
53	0x3e71d9f3	0.23618297
54	0x3dda786d	0.10667501
55	0x3e206c1f	0.15666245
56	0xbe198ab3	-0.14994316
57	0x3f16da38	0.58926725
58	0x3e467dea	0.1938397
59	0xbe963b2e	-0.29342026
60	0x3ebfcbdd	0.37460223
61	0xbecdd5c9	-0.40202168
62	0xbe75f62e	-0.24019691
63	0x3d2aa0e7	0.041657355
64	0xbe937b79	-0.2880514
65	0x3ea370c8	0.31921983
66	0xbe72e3ab	-0.23719661
67	0xbecbb305	-0.3978502
68	0x3ea46c77	0.32114002
69	0xbd6a10d3	-0.05714495
70	0x3e00bf25	0.12572916
71	0x3ecf7818	0.40521312
72	0x3d83d439	0.06436963
73	0xbdecd4c4	-0.11564019
74	0xbe85930e	-0.26088756
75	0x3e0cf67d	0.13765903
76	0x3ea97ea4	0.33104432
77	0x3e754827	0.23953305
78	0xbe671b28	-0.22568953
79	0x3d73a129	0.059479866
80	0xbe8f74fa	-0.28018934
81	0x3e51d41d	0.20491071
82	0xbed9a08e	-0.42505306
83	0xbe4f2e0d	-0.2023241
84	0xbe815891	-0.25262883
85	0xbecb202e	-0.3967299
86	0xbdb172bc	-0.08664462
87	0xbe62ff16	-0.2216762
88	0x3e598cca	0.21245113
89	0x3e7ea7b8	0.24868667
90	0xbf35be6b	-0.7099368
91	0xbe36c971	-0.17850281
92	0xbdc3c3d4	-0.095588356
93	0xbdff389c	-0.12461969
94	0xbf0c5060	-0.5481014
95	0x3d6c00d8	0.057617992
96	0xbf392552	-0.7232257
97	0xbf24bb03	-0.6434786
98	0xbeff513a	-0.49866658
99	0x3f68c0e0	0.90919304
100	0xbed68c55	-0.4190394
101	0x3e662bde	0.22477672
102	0xbe672165	-0.22571333
103	0x3f8e0855	1.1096293
104	0xbf53ce81	-0.82736975
105	0xbde6f360	-0.11276889
106	0xbf3c5082	-0.73560345
107	0x3cba68d0	0.022755057
108	0x3f2e4265	0.6807006
109	0x3f3ea165	0.7446502
110	0xbeeef9a8	-0.46674848
111	0xbdb5d5c5	-0.08878664
112	0x3ec0c3a7	0.3764927
113	0xbe37b159	-0.17938747
114	0xbf12e433	-0.57379454
115	0xbe9f8458	-0.31155658
116	0xbd952bab	-0.0728372
117	0xbf679a86	-0.9047016
118	0xbf511903	-0.8167879
119	0xbf4bf440	-0.7966957
120	0x3f8418cb	1.0320066
121	0x3e5551fc	0.20832056
122	0xbf79b36c	-0.975394
123	0xbd6b027e	-0.057375424
124	0xbec4243b	-0.38308892
125	0x3eeb8b3c	0.46004665
126	0x3eaa0cb4	0.33212817
127	0x3d21ed4f	0.039532956
128	0x3f450d2b	0.7697322
129	0xbbf1bb59	-0.00737707
130	0x3ece5712	0.40300804
131	0x3dd6cbec	0.10488114
132	0xbe32aaf2	-0.17448023
133	0xbedd047f	-0.43167493
134	0x3ca30a9e	0.019902524
135	0xbd1daf22	-0.038497098
136	0x3ed348cd	0.4126648
137	0xbf13ff00	-0.57810974
138	0xbde4543a	-0.111488774
139	0x3f38a2d5	0.7212346
140	0xbdecacb0	-0.11556375
141	0x3d36802f	0.04455584
142	0x3eabaf39	0.33532122
143	0xbf488605	-0.783295
144	0x3dce5c5b	0.10076209
145	0x3e0d7c35	0.13816912
146	0x3f02a8e2	0.51038945
147	0xbf01f9db	-0.50771874
148	0x3e0edc79	0.13951291
149	0x3f19d8ec	0.6009662
150	0xbb1ab02c	-0.0023603542
151	0x3dfee58f	0.124461286
152	0x3daf351f	0.08555054
153	0xbe354869	-0.17703404
154	0xbe6d8728	-0.2319609
155	0xbf379126	-0.71705854
156	0x3f4745c2	0.77840817
157	0xbdffb4f4	-0.12485686
158	0xbc73db7f	-0.014883875
159	0xbdd7b6a8	-0.10532886
160	0x3e7154ec	0.23567551
161	0x3f041585	0.51595336
162	0xbd2bba3e	-0.04192566
163	0xbee6e662	-0.45097643
164	0x3edb38bc	0.42816722
165	0xbf3c4028	-0.73535395
166	0xbf19d94f	-0.6009721
167	0xbef45981	-0.47724536
168	0x3edee297	0.4353225
169	0x3e8ace9a	0.2711075
170	0x3f425af1	0.75920016
171	0xbe5a198c	-0.21298808
172	0xbe4c50a0	-0.19952631
173	0xbef41437	-0.47671673
174	0x3ebaf56e	0.36515373
175	0xbe197376	-0.14985451
176	0xbd983778	-0.07432455
177	0x3e58b3ad	0.21162291
178	0x3ea01d23	0.3127223
179	0x3f035bd7	0.5131201
180	0x3e73f21a	0.23822823
181	0x3eea8634	0.45805514
182	0x3f52d393	0.82354087
183	0x3f80956b	1.0045599
184	0xbedf99b5	-0.43671957
185	0x3e653851	0.22384764
186	0x3eb5fb52	0.35543305
187	0xbe9456ee	-0.28972572
188	0x3f3bde36	0.7338594
189	0xbe58b726	-0.21163616
190	0xbec5caa4	-0.38631165
191	0x3db21de4	0.086971074
192	0x3e06e876	0.13174614
193	0xbea2d08c	-0.31799734
194	0x3f16457f	0.5869979
195	0x3f0e694d	0.55629426
196	0xbea05e9d	-0.31322184
197	0x3e39f044	0.1815806
198	0x3f900128	1.1250353
199	0x3e1143de	0.14186046
200	0xbe4fa97f	-0.20279501
201	0x3ea977de	0.33099264
202	0xbe2a6cdf	-0.16643094
203	0xbf10515b	-0.5637414
204	0x3e933bf6	0.28756684
205	0x3e38a4db	0.18031637
206	0xbd991c78	-0.07476133
207	0xbf3b35bd	-0.73128873
208	0xbd0e0aba	-0.0346782
209	0xbf330f55	-0.6994527
210	0xbde44682	-0.11146261
211	0xbe8f9703	-0.280449
212	0xbdb903d8	-0.09033936
213	0x3ebaad73	0.36460456
214	0x3e98bcc0	0.29831505
215	0xbe504802	-0.20339969
216	0x3e66e159	0.22546901
217	0xbe77b30d	-0.24189396
218	0x3db1a61b	0.0867426
219	0x3ee28177	0.442394
220	0xbe60c9b1	-0.21951939
221	0x3e10367e	0.14083287
222	0x3d0f0c6f	0.034923967
223	0x3e150cbf	0.14555643
224	0x3d854e67	0.06509095
225	0x3ce6036d	0.028077805
226	0xbe377a4b	-0.17917745
227	0xbe55bdb4	-0.20873147
228	0x3db876c9	0.090070315
229	0xbee536b5	-0.447683
230	0xbe2881a4	-0.16455704
231	0x3ec02f44	0.3753606
232	0xbd65dcfe	-0.056118958
233	0xbecf6349	-0.40505436
234	0x3e106985	0.14102753
235	0xbe0d9337	-0.1382569
236	0xbe75e091	-0.24011447
237	0x3e813d8d	0.25242272
238	0x3e7f6f8e	0.24944898
239	0x3ed52f96	0.41637868
240	0x3e9bcb23	0.3042842
241	0x3e80f18f	0.25184295
242	0xbda436e1	-0.0801828
243	0x3dad0f37	0.084501676
244	0x3e45ee81	0.19329263
245	0xbcdaaac2	-0.026692752
246	0x3eb83df7	0.35984775
247	0x3ea69918	0.32538676
248	0x3e925f1b	0.28588185
249	0xbc6bda8b	-0.014395366
250	0x3e392a4a	0.18082538
251	0xbef8b8a5	-0.48578373
252	0x3e20bb57	0.15696464
253	0xbe9a62a9	-0.30153397
254	0xbdf7c2e0	-0.12097716
255	0xbec4f4b5	-0.38467947

encoder_lstm.bias_ih_l0 f4 [128]
0	0xbdc9f7dc	-0.098617285
1	0x3dc86fe3	0.09786966
2	0x3d6266ab	0.055273693
3	0x3da2927a	0.079380944
4	0x3e247dbc	0.16063589
5	0x3f5d1129	0.8635431
6	0x3c5756f1	0.013143287
7	0x3eb62f03	0.35582742
8	0xbece9604	-0.40348828
9	0x3e8e7c71	0.27829316
10	0x3e16d468	0.14729464
11	0x3d653faa	0.055968918
12	0x3d2b9189	0.04188684
13	0x3e1ba98c	0.15201396
14	0xbe7e87b2	-0.24856451
15	0xbe3c5874	-0.18393117
16	0xbcc3841b	-0.023866704
17	0x3e1a7559	0.15083827
18	0x3ddc9e3a	0.10772367
19	0x3c9052f3	0.017617678
20	0x3e00e10b	0.12585847
21	0x3e5e234d	0.21693154
22	0x3eb2ce87	0.34923193
23	0x3eab1f20	0.33422184
24	0x3ed80bba	0.42196447
25	0xbd5d803e	-0.05407738
26	0xbe7b81ea	-0.24561277
27	0xbc6e6e1c	-0.014552619
28	0xbdb582ec	-0.08862862
29	0xbd352711	-0.04422671
30	0xbc1f46f4	-0.009721506
31	0xbe290ffe	-0.16510007
32	0x3eed070d	0.46294442
33	0x3e99ba70	0.30025053
34	0xbe9d7c4e	-0.307589
35	0x3ef81230	0.48451376
36	0x3e79f566	0.24410018
37	0x3e47678d	0.19473095
38	0x3d3f2c81	0.0466733
39	0x3e4a0b03	0.19730763
40	0x3d82ed05	0.06392864
41	0xbe48e107	-0.19617091
42	0x3e7d04c9	0.24708857
43	0xbe516810	-0.20449853
44	0x3e7ab412	0.24482754
45	0xbd37e78b	-0.04489855
46	0xbe061048	-0.13092148
47	0xbe80dc89	-0.25168255
48	0xbdd7cf0c	-0.10537538
49	0xbe64514e	-0.2229664
50	0x3ef9e89f	0.48810288
51	0xbdfbf1b8	-0.123019636
52	0xbd90554d	-0.0704752
53	0xbdd49091	-0.10379136
54	0x3d4c311a	0.049851514
55	0xbd5cb130	-0.053879917
56	0xbe08e3d1	-0.13368155
57	0xbe931101	-0.2872391
58	0xb89d141e	-7.4900905e-05
59	0xbe949ceb	-0.2902597
60	0xbe180dbf	-0.14848994
61	0x3e44e9d2	0.1922982
62	0x3dc51529	0.096231766
63	0x3f1651dc	0.5871866
64	0xbe5454eb	-0.20735519
65	0x3eb7c77f	0.3589439
66	0xbe805582	-0.25065237
67	0xbe4f8e1c	-0.20269054
68	0x3cf9825c	0.030457668
69	0xbee94a43	-0.4556447
70	0xbb1196e4	-0.0022215182
71	0xbeb63789	-0.35589245
72	0x3e01c569	0.12672962
73	0x3e995b35	0.29952398
74	0xbda34ff7	-0.079742365
75	0xbd1c7917	-0.038201418
76	0xbf10479f	-0.56359285
77	0xbeeff198	-0.4686401
78	0xbd4f9813	-0.05068214
79	0x3d918e5d	0.07107232
80	0x3c1254fc	0.008931395
81	0x3e0c17f2	0.1368101
82	0x3dbb04e5	0.09131793
83	0xbc241ad4	-0.010016162
84	0xbd78a816	-0.060707174
85	0x3e2448dd	0.1604342
86	0x3db2cb71	0.087302096
87	0x3e2ef89c	0.17087024
88	0xbe299046	-0.16558942
89	0x3e2d42a3	0.16919951
90	0x3e5cc7a9	0.2156054
91	0xbe9c3618	-0.3051002
92	0x3e90e050	0.28296137
93	0xbe41aa5e	-0.18912646
94	0xbe4ec7b9	-0.20193376
95	0xbea47f75	-0.32128492
96	0x3e18170a	0.14852539
97	0xbcbb8fd5	-0.022895733
98	0xbf0da153	-0.55324286
99	0x3e7f18d4	0.24911815
100	0x3e994646	0.29936427
101	0x3e98ef13	0.298699
102	0x3e5e3068	0.21698153
103	0x3ead23a8	0.33816266
104	0xbde27069	-0.11056597
105	0xbdd5d7b8	-0.10441536
106	0x3eac1edc	0.33617294
107	0xbe6f26ed	-0.23354693
108	0x3d04753f	0.032338377
109	0xbdaeda06	-0.085376784
110	0xbd907a2d	-0.07054553
111	0xbe6fa8d4	-0.23404247
112	0xbca095b1	-0.019602628
113	0x3d97b0a2	0.07406737
114	0x3ea36b5a	0.3191784
115	0xbe2e6e2f	-0.17034219
116	0xbe86b00c	-0.26306188
117	0x3a956552	0.0011397994
118	0xbd882902	-0.066484466
119	0x3eba2979	0.36359766
120	0xbe1d6337	-0.15369879
121	0xbe4d2cb4	-0.20036584
122	0xbe84b35d	-0.25918093
123	0x3db1ed46	0.086878344
124	0x3f5ddbd4	0.86663556
125	0x3dc57b59	0.09642667
126	0xbea2d332	-0.31801754
127	0x3e36f012	0.17865017

encoder_lstm.bias_hh_l0 f4 [128]
0	0x3e133b14	0.14378005
1	0xbd9281c9	-0.07153661
2	0xbcf407ae	-0.029788818
3	0x3d69dcea	0.057095446
4	0x3e55a492	0.2086356
5	0x3f16d8b2	0.589244
6	0x3e8343b1	0.25637582
7	0x3e658582	0.2241421
8	0xbe0e9167	-0.13922654
9	0x3e53552c	0.20637959
10	0x3d90968e	0.07059966
11	0xbe0caf30	-0.13738704
12	0xbd0deb23	-0.034648072
13	0x3ea3dbe8	0.32003713
14	0xbeada1fa	-0.3391264
15	0xbe21723e	-0.15766236
16	0xbe20d13c	-0.15704817
17	0x3dec4f64	0.1153858
18	0x3d5abce5	0.0534028
19	0xbd8abde6	-0.067745015
20	0xbb22f2df	-0.0024864
21	0x3e3f1e6a	0.18663946
22	0x3eb3f5a7	0.35148355
23	0x3e6f82af	0.23389696
24	0x3eac8fca	0.33703452
25	0x3e51c555	0.20485432
26	0xbeda51eb	-0.42640623
27	0xbb227ae7	-0.0024792494
28	0x3d90175d	0.07035706
29	0xbe890ed4	-0.26769125
30	0xbe7ae5db	-0.24501745
31	0x3dcad401	0.09903718
32	0x3eb6fa0c	0.35737646
33	0x3ee4a74b	0.44658884
34	0xbeaacebe	-0.33360857
35	0x3eb68ce3	0.35654363
36	0x3d8f267a	0.06989761
37	0x3e25174e	0.16122171
38	0xbdae05cc	-0.084971994
39	0x3e28f691	0.16500308
40	0x3e7e5ad6	0.24839339
41	0xbd0e1e57	-0.034696903
42	0x3e810bee	0.25204414
43	0xbe6d5050	-0.23175168
44	0x3eba725c	0.36415374
45	0xbcc68b66	-0.024236392
46	0x3e312af6	0.17301545
47	0xbe93a1c0	-0.28834343
48	0xbea81eba	-0.32835943
49	0xbefbe691	-0.49199346
50	0x3ef7259e	0.48270887
51	0xbe857c39	-0.26071337
52	0xbe50715f	-0.20355748
53	0xbbb516b1	-0.0055263867
54	0x3b5a7c0e	0.0033338103
55	0xbd6af2f0	-0.05736059
56	0xbd229e9a	-0.039702035
57	0xbec64cfd	-0.38730612
58	0xbe1bd39b	-0.1521744
59	0xbefe9bd7	-0.4972827
60	0x3e2d0e30	0.16899943
61	0x3e95f96d	0.2929186
62	0x3e946436	0.28982705
63	0x3ee36274	0.4441105
64	0x3c46a3f1	0.012124048
65	0x3e4eaa4b	0.20182149
66	0xbd2efb41	-0.042720083
67	0xbef2a290	-0.4738965
68	0xbe56a35d	-0.20960756
69	0xbebde35c	-0.37087524
70	0x391ec2a6	0.00015140566
71	0xbe94da96	-0.29073018
72	0x3ec589bb	0.38581643
73	0x3e4e267b	0.20131867
74	0x3d478518	0.048710912
75	0x3cfedfdc	0.031112604
76	0xbf0bf323	-0.5466787
77	0xbe7a5354	-0.2444585
78	0x3d01a906	0.031655334
79	0x3e0b43b1	0.13600041
80	0x3d3b0b33	0.045664977
81	0xbdbab631	-0.091167815
82	0x3e208a74	0.15677816
83	0xbe610dff	-0.21977995
84	0x3cc29d15	0.023756543
85	0xbd267664	-0.04064025
86	0x3c5a9ebf	0.013343512
87	0x3ed2f748	0.41204286
88	0xbe756aaf	-0.23966478
89	0x3b96786b	0.0045919917
90	0x3e217365	0.15766676
91	0xbe800cc3	-0.25009736
92	0x3e8c1895	0.27362505
93	0xbee30c4d	-0.44345322
94	0xbf06bf71	-0.52635866
95	0xbe04e04d	-0.12976189
96	0x3e0a2e28	0.1349417
97	0x3e3a45cb	0.18190686
98	0xbebff5dc	-0.37492263
99	0x3ee46eda	0.44615823
100	0x3e8b6656	0.27226514
101	0x3ee667e7	0.45001146
102	0x3e976d8d	0.29575768
103	0x3e6fd585	0.23421295
104	0xbe7ea9bd	-0.24869438
105	0xbe84aefb	-0.2591475
106	0x3e040ca0	0.12895441
107	0xbd322857	-0.043495502
108	0x3eaf555d	0.34244815
109	0xbddefefa	-0.10888477
110	0x3ca48371	0.020082207
111	0xbe059d5c	-0.13048309
112	0xbe984fc3	-0.29748353
113	0x3e8e8ac3	0.27840242
114	0x3e84b21d	0.2591714
115	0x3c359137	0.011081985
116	0xbe3bffd7	-0.18359314
117	0x3d81c492	0.06336321
118	0x3d40ee2b	0.047102135
119	0x3e55c419	0.20875587
120	0xbd398e26	-0.04530158
121	0xbe2eefbc	-0.17083639
122	0xbe0ab504	-0.13545614
123	0x3e55c12d	0.20874472
124	0x3f559871	0.8343573
125	0x3da93c02	0.08263399
126	0xbe3e0ae2	-0.18558839
127	0x3e40432d	0.18775626

encoder_lstm.weight_ih_l1 f4 [128, 32]
0	0x3e79b44e	0.24385187
1	0xbc15a291	-0.009132997
2	0x3e7ec440	0.24879551
3	0xbe5e435e	-0.21705386
4	0x3ed0ac27	0.40756342
5	0x3e62ef3d	0.22161575
6	0xbe9c6f81	-0.3055382
7	0x3e78f6d6	0.2431291
8	0x3d184f4d	0.037185002
9	0x3d3cd740	0.046103716
10	0x3de25dab	0.11053022
11	0x3de32202	0.11090471
12	0xbdd07139	-0.101778455
13	0xbf1dfa84	-0.6171038
14	0x3dc7dcb6	0.09758894
15	0x3db7b691	0.08970369
16	0xbd85a70a	-0.06526001
17	0xbe0cecb2	-0.13762167
18	0xbe7546c8	-0.23952782
19	0x3dd1fbd6	0.10253112
20	0x3e7d21c5	0.24719913
21	0x3e84ad3f	0.25913426
22	0x3e160776	0.14651284
23	0x3d8d3b99	0.06896133
24	0x3e947996	0.28999013
25	0x3e91b6b4	0.28459704
26	0x3f03116d	0.51198465
27	0xbf1d7ecd	-0.6152161
28	0x3ed89e90	0.42308474
29	0xbe535761	-0.20638801
30	0xbe064435	-0.13111956
31	0x3bdf5ffe	0.006816863
32	0x3e33b4dd	0.17549463
33	0xbe6828e0	-0.22671843
34	0x3b5914ba	0.0033123926
35	0x3db50e78	0.0884065
36	0x3eecc683	0.46245202
37	0xbeb865b7	-0.36015102
38	0xbed1e958	-0.4099834
39	0x3ea4a5e9	0.3215783
40	0xbe53412d	-0.20630331
41	0xbe2456e0	-0.16048765
42	0x3e094a38	0.13407218
43	0x3e0f204a	0.13977161
44	0x3e12051e	0.14259765
45	0x3d8542c5	0.06506876
46	0xbe3ea4c9	-0.18617548
47	0xbd868fad	-0.06570373
48	0xbe1a24ab	-0.1505305
49	0xbeb0c42a	-0.3452466
50	0x3e0546a5	0.1301523
51	0xbe29d6df	-0.16585873
52	0x3e799cec	0.24376267
53	0xbea5b58b	-0.3236507
54	0xbd694294	-0.05694826
55	0xbd96cbec	-0.07363114
56	0x3ed70674	0.4199711
57	0xbed889f1	-0.4229274
58	0xbe3a05f7	-0.18166338
59	0xbda868bb	-0.08223101
60	0x3e622247	0.22083388
61	0xbdac0658	-0.083996475
62	0xbf34f7f1	-0.7069083
63	0x3e0d7d99	0.13817443
64	0xbdf756ba	-0.12077089
65	0x3e813de1	0.25242522
66	0x3d1f03a2	0.038821824
67	0x3f4ea3c5	0.8071864
68	0x3db4b4c7	0.08823543
69	0x3f367080	0.7126541
70	0x3eb136a6	0.34612006
71	0x3f03169e	0.51206386
72	0x3d41a777	0.047278848
73	0xbbc5be44	-0.0060346443
74	0xbdac61b0	-0.0841707
75	0x3e57a043	0.21057229
76	0x3d970f5f	0.07375979
77	0xbe28cc94	-0.1648429
78	0x3e873bbc	0.2641276
79	0x3cc600ef	0.024170367
80	0x3db0d1f9	0.08633799
81	0x3e03764e	0.12838098
82	0x3b2abcbd	0.0026052438
83	0x3e6069d5	0.21915372
84	0x3db6464a	0.08900125
85	0xbe9acac6	-0.3023283
86	0xbe04b390	-0.12959123
87	0xbe9b6865	-0.30353084
88	0xbe54a6b5	-0.20766719
89	0xbd4e8413	-0.050418925
90	0xbe6b06ca	-0.22951809
91	0x3f075744	0.5286753
92	0x3d594932	0.05304832
93	0xbef33562	-0.47501665
94	0xbd79e204	-0.06100656
95	0x3e5174bb	0.20454685
96	0x3d508786	0.050910495
97	0x3f1bd3ae	0.6086987
98	0xbe856368	-0.26052403
99	0xbe5379f2	-0.20651987
100	0x3f06dc36	0.52679765
101	0xbeb7049d	-0.35745707
102	0xbeb2983f	-0.3488178
103	0xbd88bd58	-0.066767395
104	0xbe5cb572	-0.21553591
105	0xbdde6536	-0.10859148
106	0x3ee01bba	0.43771154
107	0xba2fc53e	-0.00067051116
108	0x3f2bd509	0.6712194
109	0xbdbffa8d	-0.09373961
110	0x3e96f6d7	0.294852
111	0xbc9f7c5b	-0.019468477
112	0xbe2b5a01	-0.16733553
113	0xbe0967e6	-0.1341854
114	0x3e6d687c	0.23184389
115	0xbe955511	-0.29166463
116	0x3e8f9f5c	0.2805127
117	0xbe4162fb	-0.18885414
118	0x3e073ead	0.13207503
119	0x3e47cf9b	0.19512789
120	0x3e4813dc	0.19538826
121	0x3defffd8	0.1171872
122	0xbe7d27aa	-0.24722162
123	0x3e843b13	0.2582632
124	0x3f0bec65	0.54657584
125	0xbea95b9f	-0.33077714
126	0x3e1b1471	0.15144517
127	0x3e4ecf0b	0.20196168
128	0xbdcde93f	-0.10054254
129	0x3e45c39c	0.193129
130	0xbecac226	-0.39601249
131	0xbd467cc8	-0.048458844
132	0x3dfb0b9f	0.12258076
133	0xbde790ba	-0.11306901
134	0xbd90fdf9	-0.070796914
135	0xbe9c7cea	-0.30564052
136	0xbf679384	-0.90459466
137	0xbda6195e	-0.08110307
138	0x3e6e707f	0.23285101
139	0xbe93f0c6	-0.28894633
140	0xbe7538d1	-0.23947455
141	0x3db00d98	0.08596343
142	0x3de1f330	0.110327125
143	0x3e01e2cc	0.12684172
144	0xbe660245	-0.22461803
145	0x3e87a70d	0.26494637
146	0x3e7e7452	0.2484906
147	0xbdc62e50	-0.09676802
148	0xbea5f3f3	-0.3241268
149	0xbef0250d	-0.46903268
150	0xbe5c9ca1	-0.21544124
151	0x3e12c274	0.1433199
152	0xbe112b43	-0.1417666
153	0x3eac72aa	0.33681232
154	0xbe828fe5	-0.25500408
155	0x3df22cf1	0.11824978
156	0x3eab24f1	0.33426622
157	0xbef460d0	-0.47730112
158	0x3d73d926	0.05953326
159	0x3ee02a26	0.43782157
160	0xbdf813d0	-0.12113154
161	0x3d83539d	0.06412432
162	0xbe5d7b02	-0.21628955
163	0x3ce89a26	0.028393816
164	0x3d7d17ea	0.061790384
165	0xbd27be3d	-0.04095291
166	0x3d3d78c8	0.046257764
167	0xbe154546	-0.14577207
168	0xbdcce00f	-0.10003673
169	0xbe2f73eb	-0.17134063
170	0x3be06a59	0.006848615
171	0xbe260a6c	-0.16214913
172	0xbd8f2d1e	-0.06991027
173	0xbdf2da85	-0.118580855
174	0xbdfb1fc9	-0.12261922
175	0x3ea03a19	0.31294325
176	0xbd363a11	-0.04448897
177	0x3f014446	0.504948
178	0x3ed722d1	0.4201875
179	0x3eb89217	0.36048958
180	0xbe04bab7	-0.12961851
181	0xbe590ca4	-0.21196228
182	0x3c188efa	0.009311432
183	0x3e109a2b	0.1412131
184	0xbe770d8a	-0.24126258
185	0x3e086551	0.13319899
186	0x3dd31b92	0.10307993
187	0x3e9d9cc6	0.3078367
188	0xbdcc27df	-0.09968542
189	0x3db0d132	0.08633651
190	0x3d0f2bd8	0.034953922
191	0x3d13e10e	0.0361033
192	0xbe09c5f5	-0.13454421
193	0x3c0a2d81	0.008433701
194	0xbed33d45	-0.41257682
195	0x3f2a85d6	0.6661047
196	0xbf087f69	-0.5331941
197	0x3f0e78c0	0.55653
198	0xbe3bede0	-0.18352461
199	0x3dde7265	0.10861663
200	0xbb815929	-0.0039473963
201	0x3d000451	0.031254116
202	0x3e4faf50	0.2028172
203	0x3e483053	0.19549684
204	0x3d0c7d3f	0.03429913
205	0x3dfde168	0.123965085
206	0xbc12f96a	-0.008970598
207	0xbe40b537	-0.18819128
208	0x3e4539e2	0.19260362
209	0xbe681137	-0.22662817
210	0xbe517ada	-0.2045702
211	0x3e71248e	0.23549101
212	0x3dd3f421	0.10349298
213	0xbda19abe	-0.07890843
214	0xbe6edcb6	-0.23326382
215	0x3e6c38a9	0.23068489
216	0x3bb298c3	0.0054503395
217	0xbc3d67fa	-0.0115604345
218	0x3d97908c	0.07400617
219	0xbe8876d4	-0.2665316
220	0xbe93021b	-0.28712544
221	0x3ee1c83e	0.44098085
222	0x3e78bf4e	0.24291727
223	0xbf13a7f7	-0.5767817
224	0xbbe368ae	-0.006939969
225	0x3e0e7b44	0.1391421
226	0xbdb866b2	-0.090039626
227	0x3deed105	0.11660961
228	0x3df456ba	0.11930604
229	0x3df9dfa5	0.1220086
230	0x3f225af7	0.6342005
231	0x3f122d04	0.5709994
232	0xbeb9c4cc	-0.36282957
233	0xbe960742	-0.29302412
234	0xbe5aab94	-0.21354514
235	0x3cfac16a	0.030609805
236	0x3e37c204	0.17945105
237	0xbdd4e9d0	-0.10396159
238	0xbd3e3ae5	-0.046442885
239	0xbe126868	-0.1429764
240	0x3eb18ba6	0.34676856
241	0xbe098099	-0.13427962
242	0xbe9f3564	-0.3109542
243	0x3e2317c7	0.15927039
244	0x3e003bf7	0.12522875
245	0x3e2315e4	0.1592632
246	0x3e0a4ad9	0.13505115
247	0xbf0c2678	-0.547462
248	0x3ec113a2	0.3771029
249	0xbe3fb66e	-0.18721935
250	0xbd479017	-0.0487214
251	0xbe0208f6	-0.12698731
252	0x3e462e4c	0.19353598
253	0x3d6d1c47	0.057888296
254	0xbc41d3a5	-0.011830245
255	0x3d5260e3	0.05136193

encoder_lstm.weight_hh_l1 f4 [128, 32]
0	0xbdc6126a	-0.09671481
1	0xbe4d39cd	-0.2004158
2	0xbe549a17	-0.20761906
3	0xbda336a6	-0.07969408
4	0xbe5352fd	-0.20637126
5	0x3cd3424a	0.025788445
6	0x3d940af1	0.072286494
7	0xbd99710f	-0.07492267
8	0x3d3d0944	0.046151415
9	0xbdd28967	-0.10280114
10	0x3e994b82	0.2994042
11	0x3e64367b	0.22286408
12	0xbd393918	-0.045220464
13	0xbe3e8db8	-0.18608749
14	0x3e69f906	0.22848901
15	0xbe3f52a8	-0.18683875
16	0xbee0df78	-0.43920493
17	0x3e815bdc	0.25265396
18	0xbe68e5f9	-0.22743978
19	0x3e352753	0.17690782
20	0x3d21b19f	0.039476033
21	0xbe2eaa6b	-0.17057197
22	0xbdd10b66	-0.10207252
23	0x3ea6c8f7	0.325752
24	0x3c812a07	0.01576711
25	0xbe21dc1a	-0.15806618
26	0x3d3d1592	0.04616315
27	0x3e788a04	0.24271399
28	0xbe3b9c51	-0.18321349
29	0x3e701bb4	0.23448068
30	0xb8c884fd	-9.561514e-05
31	0xbe71021e	-0.23535964
32	0x3c9cc5dc	0.019137315
33	0xbe8dd075	-0.27698103
34	0x3e67763c	0.22603697
35	0x3d2285c9	0.03967837
36	0xbe80f3f5	-0.25186124
37	0x3ea4b51f	0.32169434
38	0xbe40bee9	-0.18822826
39	0xbe494dab	-0.19658534
40	0x3e112aaa	0.14176431
41	0xbdfbc8f5	-0.12294189
42	0xbe2869a6	-0.16446552
43	0x3c49a530	0.01230745
44	0x3dadb437	0.08481639
45	0x3d9e5846	0.077316806
46	0x3d89fc0c	0.06737527
47	0xbd67a8ad	-0.056557346
48	0x3e84530c	0.2584461
49	0x3c00aa45	0.007853095
50	0xbe68760e	-0.22701284
51	0x3e80dff7	0.25170872
52	0xbb24a9e5	-0.002512568
53	0xbcf08af6	-0.029363137
54	0x3e7410b4	0.23834497
55	0x3db405b1	0.08790148
56	0xbe21ec49	-0.15812792
57	0x3e562bfb	0.20915215
58	0x3e3a7c6c	0.18211526
59	0x3e2cc3c2	0.1687155
60	0x3d20717c	0.039170727
61	0xbd757095	-0.05992182
62	0x3e3c54a3	0.18391661
63	0x3db7895a	0.089617446
64	0xbe0d5cb4	-0.13804895
65	0x3d4c1805	0.049827594
66	0xbec6d2b9	-0.38832644
67	0xbe1d3272	-0.15351275
68	0xbe904996	-0.28181142
69	0x3e342a04	0.17594153
70	0xbda7731b	-0.081762515
71	0x3c5e9bd0	0.013586953
72	0x3e5487b9	0.20754899
73	0x3dfe1521	0.12406374
74	0x3ddffdd9	0.109370895
75	0xbe724ccf	-0.23662113
76	0xbb7560fd	-0.0037441843
77	0x3e0e80b1	0.1391628
78	0x3ce58db2	0.028021667
79	0x3ecd8089	0.40137127
80	0x3ef316f3	0.47478446
81	0xbdefe02c	-0.11712679
82	0x3e4403da	0.19142094
83	0xbe011f00	-0.12609482
84	0x3e0dd9cd	0.13852616
85	0xbdff9750	-0.124800324
86	0x3d8c3236	0.068455145
87	0x3dbbe8bf	0.09175252
88	0xbc92b4ce	-0.01790848
89	0x3e2429d8	0.16031587
90	0x3e57152c	0.2100417
91	0x3cb87e40	0.022521138
92	0x3defc046	0.11706595
93	0x3c9935bf	0.018702386
94	0xbd68efca	-0.056869306
95	0xbdb6f9a5	-0.08934335
96	0xbd56e260	-0.05246198
97	0x3e36d0e0	0.17853117
98	0x3d8c9f28	0.06866294
99	0xbe80a8e6	-0.2512886
100	0x3e86f68e	0.2635998
101	0xbed262a0	-0.4109087
102	0xbdc107ab	-0.09425291
103	0xbe920b61	-0.28524306
104	0x3e74e5af	0.23915742
105	0xbe2f105c	-0.17096084
106	0xbce1baca	-0.027554888
107	0xbd933ee8	-0.07189733
108	0x3de6268a	0.112378195
109	0x3e2457b5	0.16049083
110	0x3e24daf8	0.16099155
111	0xbd9d2107	-0.07672315
112	0xbccf0e08	-0.025275245
113	0xbd38f4cc	-0.04515533
114	0xbe4b2a2f	-0.1984031
115	0xbe670ac7	-0.22562705
116	0x3e1fdf15	0.15612443
117	0x3e85ab90	0.26107454
118	0xbd31609d	-0.04330503
119	0x3e637b9b	0.2221512
120	0x3e9c36a3	0.30510435
121	0x3d4f89e3	0.05066861
122	0x3e5a5d99	0.21324767
123	0xbe3b8c20	-0.18315172
124	0x3dcfc13b	0.10144278
125	0xbe2adb90	-0.16685319
126	0xbcf57072	-0.029960845
127	0x3e53fb68	0.20701373
128	0xbe73a386	-0.23792848
129	0xbec6f88c	-0.388615
130	0xbe905af7	-0.281944
131	0x3e2a5135	0.1663254
132	0xbcc55093	-0.024086272
133	0xbe2c13f3	-0.16804485
134	0xbdf78079	-0.12085051
135	0xbe452373	-0.19251804
136	0x3cea090e	0.02856877
137	0xbe5f94df	-0.21834134
138	0xbdfcd245	-0.12344793
139	0xbea7269c	-0.32646644
140	0xbd20a6ea	-0.03922168
141	0x3eeb4be0	0.45956326
142	0x3c9eaccc	0.019369505
143	0x3e830a1c	0.2559365
144	0x3f2f4261	0.6846066
145	0x3e65f5e4	0.22457081
146	0xbccf67ca	-0.025318045
147	0xbeb53f36	-0.3539979
148	0xbd885752	-0.0665728
149	0xbe2cd576	-0.16878304
150	0xbe96ee0d	-0.29478493
151	0x3cea1a68	0.028577045
152	0xbddfffe4	-0.10937479
153	0x3dfe93b7	0.12430518
154	0xbe081f97	-0.132933
155	0xbd77cad2	-0.06049616
156	0xbd90966c	-0.07059941
157	0xbc280993	-0.010256189
158	0xbd0cbf18	-0.03436193
159	0x3e25c00e	0.16186544
160	0xbdb8dc8a	-0.090264395
161	0xbe051523	-0.12996344
162	0xbe59fcb2	-0.21287802
163	0xbe60b807	-0.21945201
164	0x3dffd3da	0.12491579
165	0xbd2552c6	-0.040362142
166	0xbe906363	-0.28200826
167	0x3f0125e8	0.50448465
168	0x3ec5da13	0.3864294
169	0x3e6cf405	0.23139961
170	0x3e923b43	0.28560838
171	0xbd961e99	-0.07330055
172	0x3d58e8da	0.05295644
173	0x3be33982	0.0069343457
174	0xbacb328e	-0.0015502737
175	0xbdb488dc	-0.08815166
176	0x3e5d81cf	0.2163155
177	0xbec1a8e6	-0.37824172
178	0x3d641f1a	0.055693723
179	0xbe6e9431	-0.23298718
180	0xbd61ac29	-0.055095825
181	0x3dd89aac	0.10576376
182	0xbe68ad97	-0.2272247
183	0xbdebf9db	-0.115222655
184	0x3dc37bc9	0.095450945
185	0x3e9edb8d	0.3102688
186	0x3e3b8071	0.18310715
187	0xbe907560	-0.2821455
188	0x3bcdc7c5	0.006279918
189	0xbe35a59a	-0.17738953
190	0xbf064c2e	-0.5245999
191	0xb95e3a07	-0.00021193187
192	0x3e8fdd34	0.28098452
193	0xbe8c9cea	-0.27463466
194	0xbe4dd011	-0.20098902
195	0xbe444c28	-0.19169676
196	0xbec9613a	-0.3933199
197	0x3ec64a09	0.3872836
198	0x3d8f9cd6	0.07012336
199	0x3e70e72c	0.23525685
200	0xbeafe324	-0.34352982
201	0xbeb09509	-0.34488705
202	0x3e77f477	0.2421435
203	0xbd8a9ccc	-0.06768188
204	0x3eadb8c0	0.33930016
205	0xbdddf706	-0.108381316
206	0xbc605472	-0.013692008
207	0xbe34ed3f	-0.17668627
208	0xbe82b395	-0.25527635
209	0xbe32e6bd	-0.17470832
210	0x3a7e92d6	0.00097112113
211	0x3d18d495	0.03731211
212	0x3d08490f	0.0332728
213	0x3e8a0590	0.2695737
214	0x3e8f7c56	0.28024548
215	0x3d015297	0.031572904
216	0x3d85e056	0.06536929
217	0xbcd02131	-0.025406452
218	0xbeac3270	-0.3363223
219	0x3e4906d2	0.19631508
220	0x3f0b431c	0.54399276
221	0xbe923177	-0.28553364
222	0x3ea668c2	0.325018
223	0xbd16cddd	-0.03681742
224	0xbe57605e	-0.21032855
225	0xbe2a1cc5	-0.16612537
226	0xbedf88ea	-0.43659145
227	0x3e58167a	0.21102324
228	0xbee8ccc9	-0.4546874
229	0x3eaf1512	0.34195763
230	0x3c7e74e7	0.015530801
231	0xbe83913c	-0.25696743
232	0xbee31f72	-0.44359928
233	0x3e47522a	0.19464937
234	0x3cef3d88	0.029204145
235	0xbd84ba82	-0.06480886
236	0x3e951359	0.29116324
237	0xbed40ed8	-0.41417575
238	0x3c30d7c2	0.010793628
239	0x3ef007bd	0.46880904
240	0xbd324735	-0.04352494
241	0x3dfed7a6	0.124434754
242	0x3e5c551b	0.2151684
243	0x3e9ff609	0.31242397
244	0x3e19dae0	0.150249
245	0xbd4a14e0	-0.049336314
246	0x3e6a6171	0.22888733
247	0xbe18c2c3	-0.14918046
248	0x3e967017	0.29382393
249	0xbbddad5d	-0.0067650513
250	0xbc5f308a	-0.013622412
251	0x3ddb02de	0.10693906
252	0xbeff8934	-0.49909365
253	0x3e8c308a	0.27380782
254	0x3f0aa847	0.5416302
255	0xbe9ae0b9	-0.30249575
