W3-Design/checkpoints/epoch_9.pt (torch, 384133 bytes, 24 tensors)

encoder_cnn.0.weight f4 [32, 3, 3]
0	0xbe1fe496	-0.15614542
1	0xbcc321e7	-0.023819877
2	0xbe08377d	-0.13302417
3	0x3e813788	0.2523768
4	0xbe6f0316	-0.23341021
5	0x3e83f38b	0.25771746
6	0x3e1bd46c	0.15217751
7	0x3e49b424	0.19697624
8	0x3e54a1bf	0.20764826
9	0x3b34d953	0.0027595356
10	0x3cf4fdcb	0.029906174
11	0xbd920373	-0.07129564
12	0xbd89b0bf	-0.06723165
13	0xbdca976f	-0.09892165
14	0x3e0f9d12	0.14024761
15	0xbd315ff4	-0.0433044
16	0x3ebb6b0e	0.36605114
17	0x3d0d9375	0.034564454
18	0x3db3e935	0.08784715
19	0x3e7d3c03	0.24729924
20	0x3efaa473	0.4895359
21	0x3e5d30b4	0.2160061
22	0x3ea38bf8	0.31942725
23	0xbe7fa5c7	-0.24965583
24	0xbdfdfdcc	-0.124019235
25	0x3e0f67be	0.14004418
26	0xbd5193b3	-0.051166248
27	0xbb743a8f	-0.003726635
28	0x3e22a81d	0.15884443
29	0xbde587a5	-0.11207513
30	0x3c16c619	0.009202504
31	0x3d2b97dd	0.041892875
32	0x3cb5173e	0.02210581
33	0x3ded99e4	0.11601618
34	0x3e4889d1	0.19583823
35	0xbd344d38	-0.044018954
36	0xbdc296ef	-0.095014445
37	0x3e156ae4	0.14591557
38	0xbcf5c730	-0.030002207
39	0x3ee02e95	0.4378554
40	0xbe1363b3	-0.14393501
41	0x3ea6f809	0.3261111
42	0x3d3399e4	0.043847933
43	0x3dce632f	0.100775115
44	0xbea93a84	-0.33052456
45	0xbdb557ee	-0.08854662
46	0xbe28dcea	-0.16490522
47	0x3e636ba4	0.2220903
48	0xbe94c5ff	-0.2905731
49	0xbe807fc0	-0.25097466
50	0xbb60e163	-0.0034314028
51	0x3e58c4e8	0.21168864
52	0x3e8f81ab	0.28028616
53	0xbe910047	-0.28320524
54	0xbdb4bdf6	-0.08825295
55	0xbdbceba2	-0.09224631
56	0x3e49d419	0.19709815
57	0x3e472e0f	0.19451164
58	0x3e175ea4	0.14782196
59	0xbe028ab0	-0.12748218
60	0x3d2ccdc5	0.042188425
61	0x3e558279	0.20850553
62	0xbe7bc7aa	-0.24587885
63	0x3db8f04f	0.0903021
64	0xbd966541	-0.073435314
65	0x3e8541c6	0.26026744
66	0x3ebdb394	0.3705107
67	0xbe4deead	-0.20110579
68	0xbea5352e	-0.32267135
69	0xbd8ce53b	-0.0687966
70	0xbd39f98d	-0.045404006
71	0x3edc6984	0.43049252
72	0xbc8722bd	-0.016496057
73	0x3dd70a2c	0.10499987
74	0xbdf7050b	-0.12061509
75	0xbdf253ee	-0.118324146
76	0xbe98ade0	-0.29820156
77	0x3eb7449e	0.35794538
78	0xbea6e771	-0.3259845
79	0x3e546d8d	0.20744915
80	0xbd9879cd	-0.07445107
81	0xbdac9913	-0.08427634
82	0x3e5d1719	0.21590842
83	0xbe1aa7a0	-0.15103006
84	0x3e9e9126	0.30970114
85	0x3ce8bc51	0.028410109
86	0xbe33b7ea	-0.17550626
87	0x3e1696c5	0.14705952
88	0x3e29223c	0.16516966
89	0x3d384db9	0.044995997
90	0xbd99cb90	-0.075095296
91	0x3cb31319	0.021859692
92	0x3d5ed1ee	0.054399423
93	0x3e70779a	0.23483124
94	0xbea83476	-0.32852525
95	0xbeb92613	-0.3616186
96	0xbe91cd84	-0.28477108
97	0x3dc22d41	0.09481288
98	0xbe1200b8	-0.14258087
99	0xbd15efb6	-0.03660556
100	0x3d2586b2	0.04041166
101	0x3e6f97a4	0.2339769
102	0x3caf5d8a	0.021406908
103	0x3e91aa95	0.28450456
104	0x3bc69a3f	0.006060868
105	0xbe93b60a	-0.28849822
106	0xbebc3fb0	-0.3676734
107	0x3bc7941c	0.006090654
108	0xbe0a9529	-0.13533463
109	0x3e77d46f	0.2420213
110	0x3e0fbd20	0.14036989
111	0xbdb52a60	-0.08845973
112	0xbebc500c	-0.3677982
113	0xbeeb5283	-0.4596139
114	0x3eb31fdc	0.34985244
115	0xbd59a781	-0.05313826
116	0xbe6d2994	-0.23160392
117	0x3df22cc2	0.11824943
118	0xbdb378a2	-0.08763243
119	0x3e6bcb51	0.23026778
120	0xbcaa130f	-0.020761041
121	0xbea6b791	-0.32561925
122	0xbe7b914d	-0.24567147
123	0xbe581f9d	-0.2110581
124	0xbeb63c12	-0.35592705
125	0xbeaa6e4f	-0.33287284
126	0xbe0826f6	-0.13296112
127	0xbe51b41e	-0.20478866
128	0xbe091179	-0.13385572
129	0x3eb99aec	0.3625101
130	0xbbfb7c8e	-0.00767476
131	0xbe40f0f7	-0.18841921
132	0x3e0c2f8e	0.13690016
133	0x3e41c6d4	0.18923503
134	0xbdfda6e3	-0.12385347
135	0x3eeccd9c	0.46250618
136	0x3e8477bc	0.258726
137	0xbd8051f8	-0.06265634
138	0xbea64d93	-0.3248106
139	0x3dd36669	0.103222676
140	0xbe178ff7	-0.14801012
141	0xbeb3d7f6	-0.35125703
142	0xbb09d344	-0.0021030465
143	0xbd821087	-0.063508086
144	0x3e64f665	0.22359617
145	0xbe1ca734	-0.15298158
146	0xbe9d9150	-0.30774927
147	0x3e293ef8	0.16527927
148	0xbd451b45	-0.04812171
149	0xbdeb2095	-0.11480824
150	0x3e3ca528	0.18422377
151	0xbe26c5f3	-0.16286449
152	0x3e186431	0.1488197
153	0x3d9b4c59	0.075829215
154	0x3e996d77	0.29966328
155	0x3d70d9de	0.058801524
156	0x3e4d4961	0.20047523
157	0xbecc71be	-0.39930528
158	0x3e931f92	0.28735024
159	0xbde40cea	-0.11135276
160	0xbeb8395d	-0.35981265
161	0xbdc79da5	-0.09746865
162	0x3e802038	0.2502458
163	0x3e38157c	0.17976946
164	0xbe3a0e4b	-0.18169515
165	0xbe3fa322	-0.18714574
166	0xbefd28d2	-0.49445206
167	0xbe370fd4	-0.17877132
168	0x3d8c7d7f	0.06859874
169	0xbe97cc1d	-0.29647914
170	0xbdd3a0e1	-0.103334196
171	0xbe043d9e	-0.1291413
172	0x3e0c9318	0.13727987
173	0x3db3d461	0.087807424
174	0xbe859966	-0.26093596
175	0xbed6ac51	-0.41928342
176	0x3de428b1	0.11140574
177	0xbeb20b6d	-0.34774342
178	0xbd002cde	-0.03129279
179	0x3df97010	0.12179577
180	0xbd940bfc	-0.07228848
181	0xbdbab931	-0.09117354
182	0xbdb53cdf	-0.08849501
183	0xbdcb146d	-0.09916005
184	0x3e99fadd	0.30074206
185	0x3de867bc	0.11347911
186	0x3e85796e	0.26069206
187	0x3e6bfc46	0.23045453
188	0xbde4a019	-0.11163349
189	0x3eaf706a	0.34265453
190	0xbdde3e21	-0.10851694
191	0xbd82c933	-0.06386032
192	0xbe264914	-0.16238815
193	0x3e663b3e	0.22483537
194	0x3d83fd6e	0.06444822
195	0xbe04aa80	-0.12955666
196	0xbee18911	-0.44049886
197	0xbeab9d91	-0.3351865
198	0x3e20fb23	0.15720801
199	0xbebeb9d1	-0.37251142
200	0x3ddf7e6b	0.10912784
201	0x3df49339	0.11942143
202	0x3e50e25d	0.2039885
203	0xbd97c348	-0.07410294
204	0xbd4157e8	-0.047202975
205	0xbe166bb1	-0.14689519
206	0xbe72ec31	-0.23722912
207	0x3e48a462	0.19593957
208	0xbe5b86b2	-0.21438101
209	0xbe3749b1	-0.17899205
210	0xbde8f8f7	-0.11375611
211	0x3d68abd6	0.0568045
212	0xbc3b848d	-0.011445177
213	0x3de0d79a	0.10978623
214	0x3e5a28b3	0.21304588
215	0x3e93c1e4	0.28858864
216	0x3ddfe47b	0.10932251
217	0x3e2d1ae0	0.16904783
218	0xbdd6189d	-0.10453913
219	0x3de56f1c	0.11202833
220	0x3c7d65d3	0.015466171
221	0xbe55b420	-0.20869493
222	0x3bec118d	0.0072042407
223	0x3d152d42	0.036420114
224	0x3d95b25e	0.073094115
225	0x3e8f6a23	0.28010663
226	0x3c395437	0.011311582
227	0x3eaa3aa7	0.33247873
228	0x3e4640d9	0.19360675
229	0x3e528e3e	0.20562074
230	0xbd4690db	-0.04847799
231	0xbe886431	-0.2663894
232	0x3ddde800	0.10835266
233	0x3ea67f92	0.32519203
234	0xbed83eb5	-0.42235342
235	0xbceb618c	-0.028733037
236	0xbe256ba2	-0.1615434
237	0x3eba727a	0.36415464
238	0x3e4861f7	0.1956862
239	0xbe274c44	-0.16337687
240	0x3eaca2bb	0.33717903
241	0x3c37966a	0.011205295
242	0xbda3cdcd	-0.07998238
243	0xbe6cd8d3	-0.23129587
244	0xbd2b6b24	-0.041850224
245	0xbdb0a0c1	-0.086244114
246	0xbdcc5ca7	-0.099786095
247	0xbdac7cd8	-0.084222496
248	0x3e8a8131	0.2705169
249	0xbe157aaa	-0.14597574
250	0x3ea04357	0.31301376
251	0x3e141d88	0.1446439
252	0x3ea4c1bd	0.3217906
253	0xbcc1880b	-0.02362444
254	0xbd465158	-0.04841742
255	0xbd12890f	-0.03577524

encoder_cnn.0.bias f4 [32]
0	0xbe341ae9	-0.1758839
1	0xbdc5277f	-0.09626674
2	0x3f369b63	0.7133085
3	0xbf726260	-0.9468136
4	0xbe1c276e	-0.15249416
5	0x3d812c73	0.06307306
6	0xbf2114e0	-0.6292248
7	0xbe3eae0f	-0.18621086
8	0x3dc88110	0.09790242
9	0xbebeef11	-0.37291768
10	0x3e3b055f	0.18263768
11	0x3d95cbf2	0.0731429
12	0x3ea2c33e	0.31789583
13	0xbe035c13	-0.12828092
14	0xbf07fb03	-0.5311739
15	0x3edc7384	0.4305688
16	0xbece1619	-0.40251234
17	0x3e9de5fb	0.30839524
18	0x3ebcaabd	0.36849013
19	0xbeafde9b	-0.34349522
20	0xbefb1541	-0.49039653
21	0x3f13c3b4	0.57720494
22	0x3dd0ab3c	0.1018891
23	0xbef30775	-0.47466627
24	0xbe47e6a9	-0.19521584
25	0x3c9e3fa2	0.019317452
26	0xbf08975d	-0.5335596
27	0xbf117386	-0.568169
28	0xbf0a5e02	-0.54049695
29	0xbe560c10	-0.20903039
30	0xbee83064	-0.4534942
31	0x3dd3c99e	0.1034119

encoder_cnn.2.weight f4 [64, 32, 3]
0	0xbe234dad	-0.159476
1	0x3d353203	0.044237148
2	0x3c82fa65	0.015988538
3	0x3d49e126	0.049286984
4	0x3dae382d	0.085068084
5	0x3e20bf14	0.1569789
6	0x3e42a399	0.1900772
7	0x3e1744e4	0.14772373
8	0x3d2ea2f9	0.04263589
9	0x3d204109	0.039124522
10	0xbe41073d	-0.18850417
11	0x3c24385a	0.010023201
12	0x3db11a0f	0.086475484
13	0x3dd155f6	0.10221474
14	0xbd86196a	-0.06547816
15	0xbda02983	-0.07820418
16	0x3d547ce6	0.051876925
17	0xbda6c764	-0.081434995
18	0x3eb5e6c7	0.35527632
19	0x3e52191e	0.20517394
20	0x3e751ef4	0.23937589
21	0x3c339bbb	0.010962422
22	0xbd006379	-0.031344865
23	0xbe0348ea	-0.12820783
24	0x3df37122	0.11886813
25	0xbd718d91	-0.0589729
26	0x3d5aec90	0.05344826
27	0x3d7450e8	0.05964747
28	0x3ce04ab7	0.027379377
29	0x3e31f543	0.17378716
30	0x3d3c8587	0.04602578
31	0x3e3ac699	0.18239821
32	0x3dc8602e	0.0978397
33	0x3d578268	0.0526146
34	0xbc80d40b	-0.01572611
35	0xbe0bed46	-0.13664731
36	0x3db3b940	0.08775568
37	0x3c12338c	0.008923423
38	0x3ce2f283	0.02770353
39	0x3e5e0e32	0.21685103
40	0x3e53e921	0.206944
41	0x3e506d49	0.20354189
42	0x3e3927b7	0.18081556
43	0xbc4cd91b	-0.012502934
44	0x3dec9fcc	0.11553916
45	0x3e2a8511	0.16652323
46	0x3e03fc5b	0.12889235
47	0xbd7b04c9	-0.06128386
48	0x3e455eaa	0.19274393
49	0x3e232674	0.15932637
50	0x3e20601a	0.1566166
51	0x3dbf3e32	0.09338035
52	0x3c1b7014	0.009487171
53	0xbd8b2528	-0.06794196
54	0xbd6553f9	-0.055988286
55	0xbcf820e7	-0.030289127
56	0xbd243d4e	-0.040097527
57	0x3d68ded1	0.05685312
58	0x3c2b1882	0.010442855
59	0x3e0637c3	0.13107209
60	0x3d42a497	0.047520246
61	0xbe02eb81	-0.1278515
62	0x3d96483c	0.07337996
63	0x3ca3555e	0.019938167
64	0xbbbb0a71	-0.005708032
65	0xbdbe19b3	-0.092822455
66	0x3e96754b	0.29386362
67	0x3d8a379d	0.06748889
68	0x3e24559d	0.16048284
69	0xbd2bcaef	-0.04194158
70	0xbdcdd345	-0.10050062
71	0x3cf1601e	0.029464778
72	0x3d9a7dc2	0.07543518
73	0xbdda40d6	-0.10656898
74	0x3d85fdd5	0.06542555
75	0x3d677ecd	0.05651741
76	0x3e1e2108	0.15442288
77	0xbde3764b	-0.11106547
78	0xbd92d150	-0.071688294
79	0x3db24113	0.08703818
80	0xbd078a3b	-0.03309081
81	0x3e1ddc0b	0.15415971
82	0x3cc90837	0.02454005
83	0xbc9a51e2	-0.018837873
84	0xbdfb3388	-0.12265688
85	0xbec98bc6	-0.3936445
86	0xbe70a2c2	-0.23499587
87	0x3db2440c	0.08704385
88	0xbcd5344f	-0.02602592
89	0x3dbfef08	0.093717635
90	0x3e8893b5	0.26675192
91	0x3db18896	0.0866863
92	0x3e38759f	0.18013619
93	0x3e1f11bb	0.15534107
94	0x3dad8c74	0.08474055
95	0x3d77c789	0.060493026
96	0xbda30e57	-0.079617195
97	0xbc2bc2af	-0.010483428
98	0x3d9cd52a	0.07657845
99	0xbda346ad	-0.07972465
100	0xbd6bfe88	-0.057615787
101	0xbcca823b	-0.024720302
102	0xbefec4b1	-0.4975944
103	0xbea0244a	-0.31277686
104	0xbe82be6c	-0.25535905
105	0xbd83936c	-0.06424603
106	0x3cf05fed	0.029342616
107	0xbdb8b2a2	-0.090184465
108	0xbea28fec	-0.3175043
109	0xbe93b8d8	-0.28851962
110	0xbe5d4c92	-0.2161124
111	0x3ccb7ed8	0.024840757
112	0x3d918f68	0.07107431
113	0x3e12db16	0.14341387
114	0x3dcca944	0.09993222
115	0xbda94312	-0.08264746
116	0xbe32d978	-0.1746577
117	0xbe2f4b9f	-0.17118691
118	0x3dca4309	0.09876067
119	0x3bd9950f	0.0066400836
120	0x3e13f999	0.14450683
121	0xbe2e8064	-0.17041165
122	0x3c476081	0.012169004
123	0x3ccd1554	0.025034584
124	0x3d17981d	0.0370103
125	0xbc742686	-0.014901763
126	0xbc617e5d	-0.0137630375
127	0xbd0205cd	-0.031743813
128	0xbce89646	-0.028391968
129	0xbeaf17b1	-0.34197763
130	0xbe3834d9	-0.1798891
131	0xbee0c618	-0.43901134
132	0x3d0746a6	0.03302636
133	0x3d16bd02	0.036801346
134	0x3c1e6247	0.009666986
135	0x3a403ef5	0.00073336
136	0x3d68afca	0.05680827
137	0x3dbaa7cf	0.09114038
138	0xbe02ad7f	-0.12761496
139	0xbd5d9fd3	-0.0541075
140	0xbe2d616f	-0.16931699
141	0xbddf133b	-0.1089234
142	0xbd0ac7a5	-0.033881802
143	0xbdc22e2a	-0.09481461
144	0xbe189551	-0.1490071
145	0x3d60fab2	0.05492658
146	0xbd97309b	-0.07382318
147	0xbe851802	-0.2599488
148	0xbea1b0a4	-0.3158008
149	0xbe8a3b20	-0.26998234
150	0x3d3b0502	0.045659073
151	0x3da03cc5	0.07824091
152	0x3dccfb4b	0.10008868
153	0x3e15bfeb	0.14623992
154	0x3dd5b5e7	0.10435086
155	0x3e024ffd	0.12725826
156	0xbcf4b56f	-0.02987167
157	0xbc1c0167	-0.009521819
158	0xbced7b86	-0.028989565
159	0xbe7fb7ec	-0.24972504
160	0xbe6161e2	-0.22009996
161	0xbe59f04e	-0.21283075
162	0xbc0b4881	-0.008501173
163	0xbdb9e178	-0.09076208
164	0xbdb01a34	-0.08598748
165	0x3cb3b5db	0.021937301
166	0xbd74f101	-0.05980015
167	0x3a0556d3	0.0005086485
168	0xbce578b9	-0.028011667
169	0x3d907c50	0.07054961
170	0x3d459c12	0.048244543
171	0xbe547d75	-0.20750983
172	0x3c4810a6	0.012211001
173	0x3cd12fb5	0.025535444
174	0xbda1278f	-0.07868873
175	0xbd815342	-0.06314708
176	0xbe5fb20b	-0.21845262
177	0xbe4052a5	-0.18781526
178	0xbd9f4916	-0.07777612
179	0xbd540391	-0.051761214
180	0xbdba03b3	-0.09082737
181	0xbcd32651	-0.025775107
182	0x3e2aebf4	0.16691571
183	0x3d0a9ee2	0.03384293
184	0xbc6bb620	-0.014386684
185	0x3d0d49b6	0.034494124
186	0xbdc7fe26	-0.09765272
187	0xbd9b6194	-0.07586971
188	0xbde1f7b4	-0.11033574
189	0xbd99bf1d	-0.07507155
190	0xbe03a6d5	-0.1285661
191	0xbe3b677a	-0.18301192
192	0x3e89a50e	0.2688374
193	0x3e639d1b	0.222279
194	0x3de12ddc	0.10995075
195	0x3e02955d	0.1275229
196	0x3e9b512b	0.30335364
197	0xbda7770c	-0.08177003
198	0xbe813cf8	-0.25241828
199	0xbe1b6d5a	-0.15178433
200	0xbeb30d1d	-0.34970942
201	0x3dcfd8bc	0.10148761
202	0xbdbb28b7	-0.09138625
203	0xbca38b09	-0.019963758
204	0xbe2bfb97	-0.16795193
205	0xbeb2e2cd	-0.3493866
206	0xbf3737a8	-0.715693
207	0xbe0e1961	-0.13876869
208	0x3ec974ee	0.39347023
209	0xbda94c30	-0.08266485
210	0xbcc77218	-0.024346396
211	0x3db0c776	0.08631794
212	0x3dc6fbe7	0.09716015
213	0xbcaba117	-0.020950837
214	0x3ea6909f	0.32532212
215	0xbe37980f	-0.179291
216	0x3d7a07fc	0.06104277
217	0xbe74cdbb	-0.23906605
218	0xbdfa95c5	-0.122355975
219	0x3e66211e	0.2247357
220	0xbd291157	-0.041276302
221	0xbd82577d	-0.06364343
222	0x3c4fdfd6	0.012687644
223	0x3e35d27a	0.17756072
224	0x3d1481e1	0.036256675
225	0xbdd84270	-0.10559547
226	0x3de44ab4	0.11147061
227	0xbe713546	-0.23555478
228	0xbe42875b	-0.18996947
229	0xbd63318e	-0.05546718
230	0x3d61fcda	0.05517278
231	0xbea7cf7c	-0.32775486
232	0xbe4edfe3	-0.20202594
233	0xbe4344c3	-0.190692
234	0x3ecff9ed	0.40620366
235	0x3e0b2414	0.13587981
236	0xbda65661	-0.08121944
237	0x3d3ecbc9	0.046581063
238	0xbe317a4e	-0.17331812
239	0xbebebaab	-0.3725179
240	0x3e951322	0.2911616
241	0x3e24b3a4	0.16084152
242	0xbe3789eb	-0.17923705
243	0xbd259b48	-0.04043129
244	0xbdd5db5f	-0.10442232
245	0xbedd2d29	-0.43198517
246	0xbea799e0	-0.32734585
247	0xbe8f40cd	-0.27979127
248	0xbc07c858	-0.008287512
249	0xbe76dd84	-0.24107939
250	0x3d98044a	0.07422693
251	0x3deeca10	0.11659634
252	0x3e81021c	0.25196922
253	0x3e5b1598	0.21394956
254	0xbd795b28	-0.06087795
255	0xbd96c291	-0.07361329

encoder_cnn.2.bias f4 [64]
0	0x3e01eb30	0.12687373
1	0xbdd5b985	-0.10435776
2	0xbcac3e7a	-0.021025885
3	0x3cf8b9af	0.030361978
4	0x3cee58d7	0.029095097
5	0x3de84148	0.113405764
6	0xbdb68f04	-0.08913997
7	0xbcc22dc5	-0.023703465
8	0xbe211984	-0.1573239
9	0xbc81c6eb	-0.015841922
10	0x3e8cda77	0.27510425
11	0xbd506ac2	-0.050883062
12	0x3db8d4fa	0.09024997
13	0xbdbea1fc	-0.0930824
14	0xbdaa5e71	-0.083187945
15	0xbda9ec9a	-0.08297081
16	0x3dad2bd8	0.08455628
17	0xbcbdfd1f	-0.023191987
18	0xbd586bbe	-0.052837126
19	0xbdb45fc1	-0.08807326
20	0xbe12c0da	-0.1433138
21	0xbc1b20f3	-0.009468305
22	0x3df6a178	0.120425165
23	0x3d9e9471	0.07743157
24	0xbe7d71d1	-0.24750449
25	0x3de99c8c	0.11406812
26	0xbe43d043	-0.19122414
27	0xbd9f5670	-0.077801585
28	0x3db11c47	0.086479716
29	0xbdeab9fa	-0.114612535
30	0xbd40cee6	-0.047072314
31	0xbe77cc97	-0.24199139
32	0xbdba0800	-0.09083557
33	0x3da64a3b	0.08119627
34	0x3e9f4721	0.31108955
35	0xbe00e057	-0.12585579
36	0xbdbd2146	-0.09234862
37	0xbe8a3243	-0.26991472
38	0x3e33f6a8	0.1757456
39	0x3aa7f1c5	0.0012813142
40	0xbe2db980	-0.16965294
41	0xbe6f1f85	-0.23351867
42	0x3de6c30a	0.112676695
43	0xbe2eff92	-0.1708968
44	0xba92b0fc	-0.0011191661
45	0xbec12eda	-0.37731057
46	0xbe719987	-0.23593722
47	0xbe18be69	-0.14916386
48	0xbe37eb76	-0.17960915
49	0x3e8e2c32	0.27768093
50	0xbe11f75e	-0.1425452
51	0xbe473f0f	-0.19457649
52	0xbe8e537e	-0.27798074
53	0xbd698a3b	-0.057016592
54	0xbdc647c4	-0.09681657
55	0x3cf66d3c	0.030081384
56	0xbd65587a	-0.05599258
57	0xbe0055f1	-0.12532784
58	0xbde0819c	-0.10962221
59	0xbe028728	-0.1274687
60	0xbea46978	-0.32111716
61	0x3e9de775	0.3084065
62	0xbe763e63	-0.24047236
63	0xbe60edf4	-0.21965772

encoder_lstm.weight_ih_l0 f4 [128, 64]
0	0x3e95b346	0.29238337
1	0x3d371a7d	0.044702996
2	0x3d8e3114	0.06942955
3	0x3cf516e8	0.02991815
4	0x3ed0862c	0.40727365
5	0x3dcccb8e	0.099997625
6	0xbd999293	-0.0749866
7	0x3e3ef958	0.18649805
8	0x3e94b196	0.29041737
9	0x3d59abfe	0.05314254
10	0x3e2ba1d3	0.1676095
11	0xbe3c66c1	-0.18398573
12	0x3e5197d2	0.20468071
13	0xbe12791b	-0.1430401
14	0xbdc14017	-0.09436052
15	0x3e735b9e	0.23765418
16	0x3e4e25e7	0.20131646
17	0xbe02c495	-0.12770303
18	0xbd966ffb	-0.07345577
19	0x3c56eb6b	0.013117651
20	0xbc4cb5d6	-0.012494525
21	0x3df793a5	0.12088708
22	0x3ef71341	0.48256877
23	0xbda882c5	-0.08228067
24	0x3dd88e40	0.10574007
25	0x3e047de4	0.12938648
26	0xbeba7a24	-0.3642131
27	0x3df188b6	0.11793654
28	0x3db60831	0.08888281
29	0xbdccf1fa	-0.10007091
30	0x3e2cdb27	0.16880475
31	0x3e099a04	0.13437659
32	0x3e185300	0.14875412
33	0x3e778a8b	0.24173944
34	0xbd75f93e	-0.06005215
35	0xbb99d661	-0.0046947454
36	0xbd0b937f	-0.03407621
37	0xbd7d14d4	-0.06178744
38	0x3e14c33b	0.145276
39	0xbe01c596	-0.1267303
40	0x3d809455	0.06278292
41	0x3e150f4d	0.14556618
42	0x3e4eb9cb	0.20188062
43	0xbcc011fe	-0.02344608
44	0x3d24ffd7	0.04028305
45	0xbba5d710	-0.005061038
46	0xbde0c75b	-0.10975524
47	0x3e6b4c10	0.22978234
48	0x3ea329c7	0.3186781
49	0x3e80bbbe	0.25143236
50	0x3dfd14cd	0.12357483
51	0xbb02c90a	-0.0019956254
52	0x3e3f057a	0.18654433
53	0xbd199f03	-0.03750516
54	0xbe046036	-0.12927327
55	0x3dd94252	0.10608353
56	0xbaeb392f	-0.0017946119
57	0xbe5b7a5b	-0.21433394
58	0xbdbc74e3	-0.09201982
59	0xbd2bc367	-0.041934397
60	0x3d0ad9a6	0.033898972
61	0x3e956935	0.2918183
62	0xbd7040d6	-0.058655582
63	0xbde20ead	-0.110379554
64	0xbde83962	-0.1133907
65	0xbd5e10fc	-0.054215416
66	0xbdc63f46	-0.09680037
67	0xbd85c185	-0.065310515
68	0xbbcf7546	-0.0063311188
69	0xbe671ff9	-0.2257079
70	0x3e209087	0.15680133
71	0x3e016a92	0.1263831
72	0x3df0daac	0.11760458
73	0x3e20b939	0.15695657
74	0xbd60b715	-0.0548621
75	0xbe1a8134	-0.1508835
76	0x3e08b684	0.13350874
77	0xbcd44fcc	-0.025916956
78	0x3db5affa	0.088714555
79	0x3dd429ea	0.10359557
80	0x3e6ab834	0.2292183
81	0x3e553732	0.20821837
82	0xbe640e3e	-0.22271058
83	0xbd448402	-0.047977455
84	0x3e53c36e	0.2068002
85	0xbe0afb75	-0.13572486
86	0xbea6d2c1	-0.32582667
87	0xbd2f9748	-0.042868882
88	0x3e3c29f5	0.1837538
89	0xbe8e00ce	-0.2773499
90	0x3e835b93	0.25655803
91	0x3e5f0285	0.21778305
92	0x3d0b3c87	0.03399327
93	0xbd68adf3	-0.056806516
94	0xbe0d24c9	-0.13783564
95	0x3dcab2da	0.098973945
96	0x3bacb0b6	0.005270089
97	0x3dbbff53	0.091795586
98	0xbe89d26a	-0.26918346
99	0xbc688f43	-0.0141943125
100	0xbe5b7cce	-0.21434328
101	0xbd2097f6	-0.03920742
102	0x3e186004	0.14880377
103	0x3b22f591	0.0024865607
104	0xbcd9ce7d	-0.02658772
105	0x3e0e9637	0.1392449
106	0x3dd02da5	0.10164956
107	0xbe1437c1	-0.14474393
108	0x3e947ac9	0.28999928
109	0xbd1426cd	-0.036169816
110	0x3eecd26d	0.46254292
111	0xbd00b806	-0.0314255
112	0xbd388b16	-0.045054518
113	0xbde0e2c5	-0.10980753
114	0xbe919a5e	-0.28438085
115	0x3daeedff	0.08541488
116	0xbe28e91b	-0.16495173
117	0xbd8b9adb	-0.06816646
118	0x3e251b96	0.16123804
119	0x3deafd75	0.11474124
120	0x3d6b0ed8	0.057387203
121	0x3d782c97	0.0605894
122	0x3dd7d349	0.10538346
123	0xbe1bd702	-0.15218738
124	0x3e3b8d75	0.1831568
125	0xbe4f9081	-0.20269968
126	0xbedb1a56	-0.4279353
127	0xbe4173d8	-0.18891847
128	0x3df86b4b	0.121298395
129	0xbd820244	-0.063480884
130	0x3e643e82	0.2228947
131	0xbe024a42	-0.1272364
132	0x3e8a888a	0.27057296
133	0x3d4128bb	0.047157984
134	0x3e790a41	0.24320318
135	0xbcd3d1c1	-0.025856854
136	0xbd877d9c	-0.06615755
137	0x3e1040f2	0.14087275
138	0x3de5e460	0.112252
139	0x3d8bff48	0.068358004
140	0xbe29a5fc	-0.16567224
141	0xbdf87d7e	-0.12133311
142	0x3d503a7e	0.050837032
143	0x3d457d36	0.048215114
144	0x3cfa1972	0.030529711
145	0x3d3f50cf	0.046707924
146	0xbd746e2b	-0.059675377
147	0x3e551857	0.20810066
148	0x3deb401e	0.11486839
149	0xbcd30263	-0.025757974
150	0xbd2b6a61	-0.041849498
151	0xbe0ee58b	-0.13954751
152	0x3d566d28	0.052350193
153	0xbd7b4de0	-0.061353564
154	0x3e14ef92	0.14544514
155	0xbc0754cd	-0.008259964
156	0x3e1fd207	0.15607463
157	0x3dff311f	0.12460541
158	0xbe6a658c	-0.228903
159	0xbb9b9c2a	-0.004748841
160	0xbe26b8c7	-0.16281424
161	0xb9da83e3	-0.00041678463
162	0xbe71f196	-0.23627314
163	0x3c9aabf6	0.018880825
164	0x3e0059ea	0.125343
165	0xbcca14b5	-0.024668077
166	0xbdc0ea73	-0.09419718
167	0x3cb1d229	0.021706657
168	0x3ea523af	0.32253787
169	0x3e25e998	0.1620239
170	0xbe1ece09	-0.15508284
171	0xbc1f6a55	-0.009729941
172	0x3e4fd42b	0.2029578
173	0xbf1d6c62	-0.61493504
174	0x3cc95371	0.02457592
175	0xbdedd812	-0.11613478
176	0x3d3bbde4	0.04583539
177	0x3daa86ea	0.08326514
178	0x3e802167	0.25025484
179	0x3cf31582	0.029673342
180	0xbdc128b1	-0.094315894
181	0xbd2b3653	-0.041799854
182	0x3dd61b44	0.10454419
183	0x3c114834	0.008867312
184	0x3b581ad1	0.0032974968
185	0x3dd4da45	0.10393194
186	0x3c0f7ad1	0.008757309
187	0xbcfd0c93	-0.030889785
188	0xbd6d0511	-0.05786616
189	0xbe24b0e9	-0.16083111
190	0x3db92991	0.09041131
191	0xbdb7d284	-0.089756995
192	0xbe9ff482	-0.31241232
193	0x3e5d7c2d	0.216294
194	0x3dad58e3	0.084642194
195	0x3e5aa32f	0.21351312
196	0xbe4dfb04	-0.20115286
197	0xbd2a2a11	-0.041544024
198	0xbdd75db5	-0.1051592
199	0xbe8c563e	-0.27409548
200	0xbcbb1a0c	-0.022839569
201	0x3d1a0d24	0.037610188
202	0xbe43bb46	-0.19114408
203	0x3efe1d3f	0.49631688
204	0x3dacef75	0.0844411
205	0xbe3026dc	-0.17202324
206	0x3d76ec9e	0.06028425
207	0xbd18e144	-0.037324205
208	0xbee72d2b	-0.45151648
209	0xbe34bcfd	-0.17650218
210	0x3ce612fe	0.028085228
211	0x3de2125a	0.110386565
212	0x3c71f17e	0.014767049
213	0x3e822161	0.2541609
214	0x3e974679	0.29545954
215	0x3deb212f	0.11480939
216	0x3e5efa51	0.21775176
217	0xbe5806c9	-0.21096338
218	0xbe011e25	-0.12609155
219	0x3d83e21d	0.06439612
220	0x3d6f74d1	0.058461014
221	0x3dca6ff5	0.09884635
222	0xbe9f6e5f	-0.31138894
223	0x3d3873f8	0.04503247
224	0xbe71e514	-0.23622543
225	0xbe9503aa	-0.29104358
226	0x3cb91fa9	0.022598105
227	0xbc1baf01	-0.009502173
228	0xbe3059dc	-0.17221779
229	0xbd982e7f	-0.074307434
230	0xbe288a6a	-0.16459051
231	0x3d98ab1e	0.07454513
232	0x3e2ca594	0.16860038
233	0x3dd6e744	0.10493329
234	0xbe0406b7	-0.12893187
235	0x3e97eddd	0.29673663
236	0xbce40f94	-0.02783946
237	0x3e265a5e	0.1624541
238	0x3e383152	0.17987564
239	0x3d8c1e62	0.068417326
240	0x3c5488ff	0.012972116
241	0x3e7b9e7f	0.2457218
242	0x3d2e80df	0.04260337
243	0x3e2954e4	0.1653629
244	0x3e2be5f4	0.16786939
245	0x3ce85414	0.028360404
246	0xbd1afb9c	-0.03783761
247	0xbdf11836	-0.11772196
248	0x3d96f679	0.0737123
249	0x3e031210	0.12799859
250	0x3e99e69f	0.30058762
251	0xbdb4692e	-0.08809124
252	0xbcf352ef	-0.029702632
253	0xbe6a1287	-0.2285863
254	0xbed5ba4a	-0.4174369
255	0xbe631ed7	-0.22179733

encoder_lstm.weight_hh_l0 f4 [128, 32]
0	0x3d8876f9	0.06663317
1	0x3bba77fa	0.005690572
2	0xbe4d88c9	-0.2007171
3	0x3c792725	0.015207087
4	0x3e23ba55	0.15989049
5	0xbc836c91	-0.01604298
6	0xbe13b7e9	-0.14425625
7	0xbcd99e49	-0.026564734
8	0xbdb8a765	-0.09016303
9	0x3e9de4aa	0.3083852
10	0x3d56647d	0.052341927
11	0xbe1b1b17	-0.15147053
12	0xbe597ae2	-0.21238282
13	0xbc41afe3	-0.01182172
14	0xbd819c44	-0.063286334
15	0xbea8aa02	-0.32942206
16	0xbdd4c9fe	-0.103900895
17	0xbe78b4ae	-0.24287674
18	0x3e22a076	0.15881523
19	0xbd1ba158	-0.037995666
20	0x3e89982e	0.26873916
21	0x3dac7096	0.084199116
22	0x3e97749e	0.2958116
23	0xbdc91ee3	-0.09820344
24	0xbe272222	-0.16321614
25	0xbee3808f	-0.4443402
26	0xbe317d54	-0.17332965
27	0xbe76e07b	-0.2410907
28	0x3e0baf56	0.13641104
29	0x3e539f87	0.20666324
30	0x3e73389f	0.23752068
31	0xbead86bb	-0.33891854
32	0xbe0ed73b	-0.13949291
33	0x3d3dfb1b	0.04638205
34	0xbeccfeec	-0.4003824
35	0x3e341030	0.175843
36	0x3db1fb47	0.086905055
37	0xbda7ccd8	-0.08193368
38	0x3e1411b5	0.1445988
39	0xbdc1f077	-0.09469693
40	0x3e88ff97	0.267575
41	0xbd74740e	-0.05968099
42	0xbd594001	-0.053039555
43	0x3d529c8b	0.051418822
44	0x3e49c970	0.19705749
45	0x3e5a90b5	0.21344264
46	0x3e2839d1	0.16428305
47	0x3e39efe4	0.18157917
48	0xbe171137	-0.1475266
49	0x3e0ecb19	0.13944663
50	0x3e2a0d13	0.1660655
51	0xbe05ce11	-0.1306689
52	0xbde18703	-0.110120796
53	0x3c84e672	0.016223166
54	0x3d88d05d	0.06680367
55	0xbe1ac188	-0.15112889
56	0x3daed21a	0.085361674
57	0x3c7c38e4	0.015394423
58	0x3e3ad368	0.18244708
59	0xbe028d51	-0.1274922
60	0x3d888b39	0.066671796
61	0xbe6d015b	-0.23145048
62	0xbe5d5d20	-0.21617556
63	0x3e1836ea	0.14864698
64	0xbe745884	-0.23861891
65	0x3e940e76	0.28917283
66	0xbe2eab4c	-0.17057532
67	0xbef7dfe6	-0.48413008
68	0x3be0ea3c	0.0068638604
69	0xbd9d7142	-0.07687618
70	0x3e87907c	0.2647742
71	0x3ebfb71f	0.37444398
72	0x3e810ee2	0.25206667
73	0xbbd1e99f	-0.0064060236
74	0xbe9e02e3	-0.30861577
75	0x3e87277a	0.26397306
76	0x3df5d699	0.12003822
77	0x3e002fe1	0.12518264
78	0xbe7f3ffa	-0.24926749
79	0x3e01802b	0.12646548
80	0xbe22aa17	-0.15885197
81	0x3ec07fa3	0.3759738
82	0xbe76a6e2	-0.24087098
83	0xbdf3404f	-0.118775
84	0xbd8912f8	-0.06693071
85	0xbe5a7a45	-0.21335705
86	0xbd0e240f	-0.034702357
87	0xbe3c4841	-0.18386938
88	0x3e07b6ca	0.13253322
89	0x3e1a34e2	0.15059236
90	0xbe9f0af1	-0.31063035
91	0xbd3537c3	-0.04424263
92	0xbbb611e1	-0.0055563306
93	0xbe0f1bd6	-0.13975462
94	0xbed6402b	-0.4184583
95	0x3dd99275	0.106236376
96	0xbe1dd9d4	-0.15415126
97	0xbe1f428d	-0.15552731
98	0xbdbc9cfb	-0.09209629
99	0x3e07555d	0.13216157
100	0xbe86c178	-0.2631948
101	0x3c57f769	0.013181546
102	0xbd2fcc30	-0.042919338
103	0x3eea1ad0	0.4572358
104	0xbeaa8024	-0.3330089
105	0xbdda87c7	-0.10670429
106	0xbe6629e4	-0.22476918
107	0xbda0fcc3	-0.078607105
108	0x3d279263	0.04091109
109	0xbd1ed57f	-0.038777824
110	0xbe4200d0	-0.18945622
111	0x3df48b28	0.119406044
112	0x3e053282	0.13007548
113	0x3e148e04	0.145073
114	0xbcea26eb	-0.02858301
115	0xbe4c29e3	-0.19937854
116	0x3dd43efb	0.10363575
117	0xbe511064	-0.20416409
118	0xbe3b785a	-0.18307629
119	0xbeb29a9c	-0.34883583
120	0x3ea56e4d	0.32310715
121	0x3d7692ff	0.06019878
122	0xbedb1538	-0.42789626
123	0xbe8626e3	-0.26201543
124	0xbdd37881	-0.10325719
125	0x3e1f6c98	0.15568769
126	0x3e891953	0.26777133
127	0xbd26d61a	-0.040731527
128	0x3ed5bd83	0.41746148
129	0xbda756e6	-0.081708714
130	0x3c836316	0.016038459
131	0x3eaab88f	0.33343932
132	0x3e7be2fb	0.24598305
133	0xbe9f24a5	-0.31082645
134	0xbded79e2	-0.11595513
135	0x3d3ff78e	0.046866946
136	0x3e7dc765	0.24783094
137	0x3d9600af	0.07324349
138	0x3e01ec31	0.12687756
139	0x3e8cca9f	0.27498338
140	0xbe9d7e04	-0.30760205
141	0xbc312f56	-0.010814508
142	0x3e943c54	0.28952277
143	0xbd324631	-0.04352397
144	0x3e46418a	0.19360939
145	0xbcf4564d	-0.029826308
146	0x3dd2a738	0.10285801
147	0xbe192b34	-0.14957887
148	0x3ec214b4	0.3790642
149	0x3e012c0c	0.12614459
150	0xbe838fdc	-0.25695693
151	0xbc4b4c1a	-0.012408281
152	0xbe004691	-0.12526919
153	0x3e6c787b	0.23092835
154	0xbc5ba60d	-0.013406289
155	0xbe43085e	-0.1904616
156	0x3ef74f48	0.48302674
157	0xbdeb9c1c	-0.11504385
158	0xbcb92c95	-0.022604266
159	0xbcb5769f	-0.02215129
160	0x3c778678	0.015107743
161	0x3da987a4	0.082778245
162	0x3e5edb0c	0.21763247
163	0x3e26b86b	0.16281287
164	0x3ea1b4ce	0.31583256
165	0x3c73a000	0.01486969
166	0xbe042bc4	-0.1290732
167	0x3ca45618	0.020060584
168	0x3e30c90e	0.17264196
169	0x3e12a656	0.14321265
170	0x3ea7c1c4	0.3276502
171	0xbe380341	-0.17969991
172	0x3ecd7d0f	0.40134475
173	0x3d77884f	0.06043273
174	0x3e95133f	0.29116246
175	0xbd377120	-0.04478562
176	0xbd16c63d	-0.03681015
177	0x3ccee11a	0.025253821
178	0xbde8ed7b	-0.11373421
179	0x3e9a6882	0.30157858
180	0x3e39800a	0.1811525
181	0x3e51a3e3	0.20472674
182	0x3dfed6c0	0.12443304
183	0x3ea6a88d	0.3255047
184	0xbd6e4d6d	-0.058179308
185	0x3d50fce3	0.05102242
186	0x3e1cc4a4	0.15309387
187	0xbc91393e	-0.01772749
188	0x3e5a1e11	0.21300532
189	0xbd410050	-0.04711944
190	0x3e1b5a71	0.1517122
191	0x3d50b979	0.05095813
192	0x3e0ce99f	0.13760994
193	0xbe91aeda	-0.28453714
194	0x3ec5740c	0.385651
195	0x3cb067f1	0.021533938
196	0x3e5e2a4e	0.21695825
197	0xbed48a0e	-0.41511577
198	0x3da15a01	0.07878495
199	0xbe007daf	-0.12547944
200	0xbe25520f	-0.16144584
201	0x3ef3bb97	0.47604057
202	0x3d602d1f	0.05473053
203	0xbf02e1d3	-0.5112583
204	0x3dfad238	0.12247127
205	0x3e8c5453	0.27408084
206	0x3d5d91f0	0.054094255
207	0xbeddfa67	-0.43355104
208	0xbe3afbcb	-0.18260114
209	0xbeec1849	-0.46112278
210	0x3e90939b	0.28237614
211	0xbd42aaab	-0.047526043
212	0x3b6fe00a	0.0036602044
213	0x3ea2f931	0.31830743
214	0x3ea7c25a	0.32765466
215	0xbd8e56e8	-0.0695017
216	0x3dbe0d51	0.09279884
217	0xbde50ef6	-0.11184494
218	0x3db1409c	0.086549014
219	0xbe6475ad	-0.22310515
220	0x3e058d48	0.13042176
221	0x3de32387	0.11090761
222	0xbd834967	-0.06410485
223	0x3e3b28f2	0.18277338
224	0xbe268f53	-0.16265611
225	0xbd254d2c	-0.0403568
226	0xbd918498	-0.071053684
227	0xbcdc32a2	-0.026879612
228	0xbc24e5c5	-0.010064547
229	0x3ce3ba14	0.02779869
230	0x3df8f2ae	0.121556625
231	0x3ea87aa1	0.32906058
232	0xbe965249	-0.29359654
233	0xbe8f2337	-0.27956554
234	0x3cc84979	0.024449097
235	0xbdb84f39	-0.089994855
236	0x3d95160f	0.07279598
237	0x3e41d393	0.18928365
238	0xbd14bde6	-0.036313914
239	0xbd8ade6a	-0.06780703
240	0x3e72725c	0.23676437
241	0xbd8aa749	-0.06770188
242	0xbe56298c	-0.20914286
243	0x3e6f1032	0.23346022
244	0x3d210c69	0.039318476
245	0xbea7e37e	-0.3279075
246	0x3cf01554	0.029307045
247	0xba34ae9f	-0.00068924756
248	0x3e2a99dd	0.16660257
249	0xbdfec5bc	-0.124400586
250	0x3db77376	0.08957569
251	0xbe627b06	-0.22117242
252	0x3d19bfb9	0.037536357
253	0xbe1686cb	-0.14699857
254	0x3e41316b	0.18866508
255	0xbde198c4	-0.11015466

encoder_lstm.bias_ih_l0 f4 [128]
0	0xbdbdf7d9	-0.09275789
1	0x3c8b2389	0.016984718
2	0xbd129b34	-0.035792544
3	0xbe592232	-0.2120445
4	0x3e086e8c	0.1332342
5	0x3ea7eaea	0.32796413
6	0x3ca83408	0.020532623
7	0x3d98363a	0.07432218
8	0xbd6ac4cc	-0.057316586
9	0x3ddd8cd2	0.10817875
10	0x3bb9a0b0	0.0056649074
11	0xbd1b682d	-0.037941147
12	0xbe0f8c80	-0.1401844
13	0xbea6570a	-0.3248828
14	0xbc9fcf5f	-0.019508062
15	0xbd912def	-0.07088839
16	0xbd70e698	-0.05881366
17	0x3e503706	0.2033349
18	0xbe0d1ee5	-0.13781317
19	0xbdbc1b3e	-0.091848835
20	0x3c3de06f	0.011589154
21	0x3e233988	0.15939915
22	0xbd8762ee	-0.06610666
23	0x3e76d4da	0.24104634
24	0x3e99f5e7	0.3007042
25	0xbd650293	-0.055910658
26	0xbd13d052	-0.03608734
27	0xbdc15106	-0.09439282
28	0x3e821b81	0.2541161
29	0xb9ea0a89	-0.00044639807
30	0x3d308503	0.0430956
31	0xbddff886	-0.10936074
32	0x3eb19e82	0.34691244
33	0xbe052f91	-0.13006426
34	0xbeaa2305	-0.33229843
35	0xbd3b8407	-0.045780208
36	0x3e8ad143	0.2711278
37	0x3d4fe042	0.05075098
38	0x3e939768	0.2882645
39	0x3c71878c	0.01474179
40	0x3d14e3da	0.03635011
41	0xbe4f0c80	-0.20219612
42	0x3ead767d	0.33879462
43	0xbd9cb45e	-0.0765159
44	0x3da8bfa1	0.08239675
45	0xbea29a27	-0.31758234
46	0xbdc0db3a	-0.09416814
47	0xbe2cb921	-0.16867496
48	0x3df6a2d1	0.120427735
49	0x3c19afa8	0.009380259
50	0x3e17ccdf	0.14824246
51	0x3dbdbed8	0.09264916
52	0xbd85a99d	-0.06526492
53	0xbc813187	-0.015770687
54	0xbe1ee001	-0.15515138
55	0x3db90173	0.090334795
56	0xbdbc8907	-0.092058234
57	0xbe68e589	-0.2274381
58	0xbd60a2ff	-0.054842945
59	0xbe102745	-0.1407748
60	0xbe1bf479	-0.15229978
61	0x3e8b144c	0.27163923
62	0xbb9c4cde	-0.0047699055
63	0x3ed94693	0.42436656
64	0x3d7cc42d	0.061710525
65	0x3e6522d3	0.22376566
66	0xbe80c471	-0.25149873
67	0x3e0e71a3	0.13910536
68	0x3e8f030f	0.2793202
69	0xbecc8f02	-0.39952856
70	0xbe9e0d74	-0.3086964
71	0xbeab2f22	-0.33434397
72	0xbd679b67	-0.056544688
73	0x3e1dc921	0.15408756
74	0x3e4a46a1	0.19753505
75	0x3d80b00f	0.062835805
76	0xbedba217	-0.42897102
77	0xbe7838f6	-0.24240479
78	0x3e0ecce7	0.13945352
79	0xbe8c964d	-0.2745842
80	0x3e220090	0.15820527
81	0x3db439eb	0.088001095
82	0x3e9ec52b	0.31009802
83	0x3c8ca988	0.017170683
84	0xbd656b1e	-0.056010358
85	0x3e3aa619	0.18227424
86	0xbd82cd54	-0.063868195
87	0x3e124001	0.14282228
88	0xbe3368fe	-0.1752052
89	0x3e5354fb	0.20637886
90	0xbb886592	-0.0041624987
91	0xbe80de0c	-0.25169408
92	0x3ea33a5a	0.31880456
93	0xbcb3cd28	-0.021948412
94	0x3e3ba967	0.1832634
95	0xbe5ee72b	-0.21767871
96	0x3dbcb291	0.09213746
97	0xbe6238df	-0.22092007
98	0xbed8b1d9	-0.42323187
99	0xbc18d0d7	-0.009327135
100	0x3e81b957	0.25336716
101	0x3d389261	0.045061473
102	0x3e1c08d6	0.15237746
103	0x3e8b0c1c	0.27157676
104	0xb9f12e19	-0.00046001447
105	0xbb61bfbc	-0.0034446558
106	0x3eaee43b	0.341585
107	0xbc3cd205	-0.011524682
108	0xbeb79c02	-0.35861212
109	0xbe91eaf9	-0.28499582
110	0x3e21ecaf	0.15812944
111	0xbe18232f	-0.14857171
112	0x3cdbe718	0.026843593
113	0x3e2c3438	0.16816795
114	0x3e1cf7ea	0.15328947
115	0xbea5176d	-0.32244435
116	0xbd1b5b02	-0.03792859
117	0xbdd20b62	-0.10256077
118	0xbe909210	-0.28236437
119	0x3f034b65	0.5128692
120	0xbea7b4ec	-0.3275522
121	0x3dcec05e	0.10095285
122	0xbe1df871	-0.15426804
123	0xb94148f7	-0.00018433096
124	0x3f13960e	0.5765084
125	0xbda15b9e	-0.07878803
126	0xbe8d4cfb	-0.27597794
127	0x3e63c2c7	0.2224227

encoder_lstm.bias_hh_l0 f4 [128]
0	0x3e193b39	0.14963998
1	0xbe1c146d	-0.15242167
2	0xbdf782b1	-0.12085474
3	0xbe6ff451	-0.23433043
4	0x3e3995de	0.18123576
5	0x3d5bcff1	0.053665105
6	0x3e870c4b	0.26376566
7	0xbd6af59c	-0.057363138
8	0x3e53e99a	0.2069458
9	0x3d148b83	0.03626586
10	0xbd91785f	-0.07103037
11	0xbe6cd8db	-0.23129599
12	0xbe5debbe	-0.2167196
13	0xbe20a059	-0.15686168
14	0xbde16d02	-0.1100712
15	0xbd36c2ec	-0.044619486
16	0xbe449aae	-0.1919963
17	0x3e2be985	0.167883
18	0xbe44bf35	-0.19213565
19	0xbe357719	-0.17721213
20	0xbdef1ddf	-0.11675619
21	0x3e0434c2	0.1291075
22	0xbd82c680	-0.06385517
23	0x3e101987	0.14072238
24	0x3e5cf3bd	0.21577354
25	0x3e4fe541	0.20302297
26	0xbe5e163b	-0.21688168
27	0xbda896f8	-0.0823192
28	0x3ed381bf	0.41309926
29	0xbe6548db	-0.22391073
30	0xbe44cf5a	-0.19219723
31	0x3e1e7de1	0.15477706
32	0x3e7723d5	0.24134763
33	0x3c855174	0.016274191
34	0xbeb7758f	-0.35831878
35	0xbe31eb3f	-0.17374896
36	0x3dc680ad	0.09692512
37	0x3c8d3e5d	0.017241651
38	0x3e206108	0.15662014
39	0xbc8fdfc5	-0.017562756
40	0x3e621e26	0.22081813
41	0xbd26cba7	-0.04072156
42	0x3eb00008	0.34375024
43	0xbdd484fa	-0.10376926
44	0x3e4e9174	0.20172673
45	0xbe9805d4	-0.29691947
46	0x3e56cdae	0.20976898
47	0xbe52442d	-0.2053382
48	0xbdd20aa0	-0.10255933
49	0xbe84f003	-0.25964364
50	0x3e1246da	0.1428484
51	0xbd388135	-0.045045096
52	0xbe4b1c2e	-0.19834968
53	0x3da8f310	0.082494855
54	0xbe4e8235	-0.20166858
55	0x3db1e08d	0.08685408
56	0x3afbd7f6	0.0019214142
57	0xbea7aed8	-0.32750583
58	0xbe53e8e7	-0.20694314
59	0xbeb21264	-0.34779656
60	0x3e292765	0.16518934
61	0x3ebe98a4	0.3722583
62	0x3e415b82	0.18882564
63	0x3e900502	0.2812882
64	0x3e8ff878	0.28119254
65	0x3d887d10	0.06664479
66	0xbd3276c5	-0.0435703
67	0xbe074534	-0.13209993
68	0x3d20c8fa	0.039254166
69	0xbea1284f	-0.31476066
70	0xbe9cd673	-0.30632362
71	0xbe89d1f0	-0.26917982
72	0x3e4f6674	0.20253927
73	0x3d64e584	0.055882946
74	0x3ea6e7f0	0.3259883
75	0x3e075240	0.1321497
76	0xbed2f904	-0.4120561
77	0xbc954c08	-0.018224731
78	0x3e631cf6	0.22179016
79	0xbe56b01a	-0.20965615
80	0x3e479e30	0.19493937
81	0xbe0f55dc	-0.13997597
82	0x3ec048e5	0.37555614
83	0xbe453849	-0.19259752
84	0x3ce9159a	0.028452683
85	0xbc9a0511	-0.018801244
86	0xbe0d225c	-0.13782638
87	0x3ec49a80	0.38399124
88	0xbe7f4314	-0.24927932
89	0x3d2b1930	0.041772068
90	0xbd7e5e7d	-0.06210183
91	0xbe496971	-0.19669129
92	0x3e9e72be	0.30946916
93	0xbe8d73cd	-0.2762741
94	0xbe108d1e	-0.14116332
95	0xbcd64474	-0.026155688
96	0x3da0e0eb	0.078554
97	0xbc840d8c	-0.01611974
98	0xbe7ac8ba	-0.24490634
99	0x3e403758	0.18771112
100	0x3e67b290	0.2262671
101	0x3e4916de	0.1963763
102	0x3e6cb349	0.23115267
103	0x3e2ba632	0.16762617
104	0xbe0de9f5	-0.13858779
105	0xbe21f978	-0.15817821
106	0x3e099771	0.13436677
107	0x3e36cffd	0.17852779
108	0xbd46ab7c	-0.048503384
109	0xbe9df44a	-0.3085044
110	0x3e7eba65	0.24875791
111	0xbd385ed0	-0.045012295
112	0xbe8087de	-0.25103658
113	0x3ebeb85c	0.3725003
114	0x3dbf0a5e	0.09328149
115	0xbe106786	-0.14101991
116	0x3d2a2571	0.041539613
117	0xbd25390e	-0.040337615
118	0xbe2cd397	-0.1687759
119	0x3eb74ed0	0.35802317
120	0xbe6069fd	-0.21915431
121	0x3e059d1c	0.13048214
122	0xbcfa36c7	-0.030543698
123	0x3df93644	0.121685535
124	0x3f0b52ab	0.54423016
125	0xbdbd9ace	-0.09258042
126	0xbe12fe92	-0.14354923
127	0x3e6d15bf	0.23152827

encoder_lstm.weight_ih_l1 f4 [128, 32]
0	0xbd18b7a1	-0.037284497
1	0xbd33abc5	-0.043864984
2	0x3df97757	0.121809654
3	0x3d0bdfdc	0.034149036
4	0x3efc36e4	0.49260628
5	0x3cd0031c	0.025392108
6	0xbeecbfc0	-0.46240044
7	0x3eac1cef	0.33615825
8	0xbdbc1073	-0.09182825
9	0xbdedca3f	-0.11610841
10	0x3ea509a0	0.32233906
11	0xbe45c0b5	-0.19311793
12	0xbdfa9f34	-0.12237397
13	0x3d0445d7	0.032293167
14	0x3d85b8de	0.06529401
15	0x3c824bb0	0.015905231
16	0x3dc4688e	0.09590255
17	0xbdb8f13d	-0.090303876
18	0xbe88c831	-0.26715234
19	0xbb79fbd6	-0.003814449
20	0x3eb082d7	0.34474823
21	0x3d472d17	0.048626985
22	0xbe239911	-0.15976359
23	0x3ce80679	0.028323399
24	0x3de24cef	0.1104983
25	0xbd91282c	-0.0708774
26	0x3e7bdb25	0.24595316
27	0xbe4b4c02	-0.19853213
28	0x3f03025b	0.5117547
29	0xbe97e266	-0.29664916
30	0x3d3d645a	0.04623828
31	0xbc6cbad1	-0.014448837
32	0x3e0a3fbb	0.13500874
33	0x3da1e616	0.079052135
34	0xbe044265	-0.12915953
35	0x3e1527f4	0.14566022
36	0x3ea84ba0	0.32870197
37	0xbe065a48	-0.13120377
38	0xbe8f4b9c	-0.27987373
39	0x3e7143a2	0.23560956
40	0xbe08157a	-0.13289443
41	0xbe4905d7	-0.19631134
42	0x3db822d7	0.0899102
43	0xbc97623e	-0.018479463
44	0x3e5003b9	0.2031392
45	0xbe111c24	-0.14170891
46	0xbd46cb26	-0.04853358
47	0x3d3f0e6a	0.046644606
48	0xbe24d1e6	-0.16095695
49	0xbded7fd3	-0.11596646
50	0x3d03a289	0.032137427
51	0xbdc1bf3b	-0.094603024
52	0x3e216702	0.1576195
53	0xbeacf4bc	-0.33780468
54	0xbddf5549	-0.10904939
55	0x3d55a612	0.05216033
56	0x3e2ca1f7	0.1685866
57	0xbdcd4b05	-0.100240745
58	0xbe3cafb2	-0.18426397
59	0x3d987644	0.074444324
60	0x3e41887e	0.18899724
61	0xbd935597	-0.07194059
62	0xbea5419f	-0.32276627
63	0xbcb163e2	-0.021654073
64	0xbc3c4c51	-0.011492805
65	0x3e07347a	0.13203612
66	0xbe54b6cd	-0.20772858
67	0x3e870f6a	0.26378947
68	0x3e90e919	0.2830284
69	0x3ecf68e8	0.40509725
70	0x3e5f6311	0.21815135
71	0x3e872aa0	0.26399708
72	0x3c87f755	0.01659743
73	0x3df1480d	0.11781321
74	0x3cdc24b4	0.02687297
75	0xbd824fbd	-0.06362865
76	0xbe4582e1	-0.19288208
77	0xbde5280a	-0.111892775
78	0x3e8476a7	0.25871775
79	0xbd9b2857	-0.075760536
80	0xbca9053f	-0.020632384
81	0x3dbd2a74	0.09236613
82	0x3e21c7af	0.1579883
83	0x3dd582ae	0.10425316
84	0x3e687fdf	0.22705029
85	0xbebb3b2e	-0.36568588
86	0xbe01a6dc	-0.12661308
87	0xbe82f94b	-0.2558082
88	0xbe89414a	-0.26807624
89	0xbda64c7a	-0.081200555
90	0xbe72c75d	-0.23708864
91	0x3e3a1834	0.18173295
92	0xbc84fba7	-0.016233278
93	0xbefa78ae	-0.48920196
94	0xbe08c4c5	-0.13356312
95	0x3e382b2d	0.1798522
96	0xbb5656e2	-0.0032705595
97	0x3e88e651	0.26738217
98	0xbe380269	-0.1796967
99	0x3e5f9005	0.21832283
100	0x3ede460b	0.43412814
101	0x3da5b03c	0.08090255
102	0xbdb89c9f	-0.09014248
103	0x3d9973d5	0.07492796
104	0xbe825439	-0.25454882
105	0xbe00cb8a	-0.12577644
106	0x3e608619	0.21926154
107	0xbe3baa94	-0.18326789
108	0x3eee5f65	0.46557155
109	0x3d174cb7	0.036938395
110	0x3ddf8d83	0.10915663
111	0x3d92d114	0.07168785
112	0xbe4e7f91	-0.2016585
113	0x3da29d92	0.079402104
114	0x3d2c48b4	0.042061523
115	0xbe4307d4	-0.19045955
116	0x3c40fbf0	0.011778817
117	0xbe3c9662	-0.18416741
118	0x3d7124e8	0.058873087
119	0x3e2caeb4	0.16863519
120	0x3e5e00b9	0.21679963
121	0x3db4bb2d	0.088247634
122	0xbe2f9dd6	-0.17150053
123	0x3e910289	0.28322247
124	0x3ef43f74	0.4770466
125	0xbefd2989	-0.4944575
126	0x3e4e1330	0.20124507
127	0x3e9f93ad	0.31167355
128	0x3d9ae80e	0.07563792
129	0x3e7da8a1	0.24771358
130	0xbdd8535a	-0.10562773
131	0x3dbe4f08	0.09292418
132	0x3e78483f	0.2424631
133	0x3cd900cf	0.026489643
134	0xbe9d2d5b	-0.30698666
135	0xbe1eefef	-0.15521215
136	0xbf1b9bcc	-0.607846
137	0xbe607056	-0.21917853
138	0x3ea59bf1	0.32345536
139	0xbdba3288	-0.09091669
140	0x3a11e22d	0.0005565014
141	0x3e8bdefa	0.27318555
142	0x3e9fb311	0.31191304
143	0x3cc3c9c5	0.023899922
144	0xba29a9aa	-0.00064721203
145	0x3d9079e8	0.07054502
146	0x3a761c58	0.0009388379
147	0x3e6dc113	0.23218183
148	0xbdef9c44	-0.11699727
149	0xbe82915b	-0.25501522
150	0xbe2aec8f	-0.16691802
151	0x3e5d9334	0.21638185
152	0x3e792723	0.24331336
153	0x3e085a0b	0.13315599
154	0xbe07b590	-0.13252854
155	0x3cfc3ba8	0.030790165
156	0x3da44166	0.08020286
157	0xbe9d34d3	-0.30704364
158	0x3e977cdb	0.29587445
159	0x3e9c3ebc	0.30516613
160	0xbd207443	-0.039173376
161	0x3dc88a1a	0.09791966
162	0xbe7368dc	-0.2377047
163	0x3e1a319f	0.15057991
164	0xbde4abfd	-0.11165617
165	0x3e330f8a	0.17486396
166	0x3e5d26a3	0.2159677
167	0x3d2d2989	0.04227594
168	0xbe085b1d	-0.13316007
169	0xbeaa89e7	-0.33308336
170	0xbdc9a62a	-0.098461464
171	0x3d51e791	0.05124623
172	0x3dcd1924	0.10014561
173	0xbe3be75e	-0.18349978
174	0xbe5d507c	-0.21612734
175	0x3e4829fd	0.19547267
176	0xbdacf54f	-0.084452264
177	0x3e38b67b	0.18038361
178	0x3ea28731	0.31743768
179	0x3e35b2d2	0.17743996
180	0xbe653f14	-0.22387344
181	0xbe09bab6	-0.13450131
182	0x3d55367d	0.052053917
183	0xbd675cd5	-0.056485016
184	0xbd54ac7f	-0.051922318
185	0x3d61f5c7	0.055166032
186	0x3dbe5da8	0.09295207
187	0x3e6c2bb7	0.23063551
188	0xbe95620d	-0.2917637
189	0x3d92fdd7	0.07177322
190	0xbd96bda4	-0.0736039
191	0x3dd7edd6	0.105434105
192	0x3ea03189	0.31287792
193	0x3e758c70	0.23979354
194	0xbdbb27a3	-0.091384195
195	0x3e138c75	0.14409049
196	0x3d9d75e4	0.076885015
197	0xbc960126	-0.018311094
198	0xbe593a3e	-0.21213624
199	0x3e052285	0.1300145
200	0xbcaa3f06	-0.020782005
201	0x3db8b004	0.09017947
202	0x3e78db5a	0.24302426
203	0xbd8ae8a3	-0.06782653
204	0x3c404094	0.011734147
205	0xbd3727b5	-0.044715602
206	0x3dca3683	0.098736785
207	0xbe557dac	-0.20848721
208	0x3e8661ab	0.2624639
209	0xbe6794ff	-0.22615431
210	0xbd32659e	-0.04355394
211	0x3d828936	0.06373827
212	0x3d4f765a	0.05064998
213	0x3e260b84	0.1621533
214	0xbd864c52	-0.06557526
215	0x3e744bb7	0.23857008
216	0xbdcfdf6c	-0.10150036
217	0xbe27c9d5	-0.16385587
218	0x3dbb68ed	0.091508724
219	0xbeaea54b	-0.34110484
220	0x3e82cf48	0.25548768
221	0x3dcebbe3	0.1009443
222	0x3db1086d	0.08644185
223	0xbe972733	-0.29522094
224	0x3d72a527	0.059239533
225	0x3ea4aac0	0.32161522
226	0xbc9e25c4	-0.019305117
227	0x3e4402f9	0.19141759
228	0x3e541a56	0.20713171
229	0x3e23f155	0.1601003
230	0x3e46b54f	0.19405101
231	0x3ea3fc50	0.32028437
232	0xbebc22d0	-0.3674531
233	0xbd417464	-0.04723014
234	0xbdb8505d	-0.08999703
235	0xbd516b5f	-0.051127788
236	0xbbc21ef6	-0.005924101
237	0x3d511945	0.05104949
238	0xbc63a9ae	-0.013895435
239	0xbdfdf65f	-0.12400507
240	0x3e425af7	0.18980013
241	0xbdf75764	-0.12077215
242	0x3db6a963	0.08919027
243	0xbd942e8b	-0.0723544
244	0x3d35d071	0.04438824
245	0xbd5e23fe	-0.054233544
246	0xbcb3b3b3	-0.021936273
247	0xbe70c1c0	-0.2351141
248	0x3e5251c4	0.20539004
249	0x3cd60c1f	0.026128827
250	0xbe0f768e	-0.14010069
251	0x3d59caef	0.05317205
252	0x3e8de35d	0.27712527
253	0xbddc00cb	-0.10742339
254	0x3e6a23c3	0.22865205
255	0x3e23b76f	0.15987943

encoder_lstm.weight_hh_l1 f4 [128, 32]
0	0xbcab07e0	-0.020877779
1	0x3d88d16a	0.066805676
2	0xbe095ab4	-0.13413507
3	0xbe108d42	-0.14116386
4	0xbe0712b1	-0.13190724
5	0x3d7a6c8b	0.06113867
6	0xbbf4ae47	-0.0074670645
7	0xbe0dac03	-0.13835149
8	0xbd7a2a4d	-0.061075497
9	0x3e0ce9b3	0.13761024
10	0x3e94129c	0.28920448
11	0x3e5edd08	0.21764004
12	0x3d4a95da	0.049459316
13	0xbe385583	-0.1800137
14	0x3e043f72	0.12914827
15	0xbc5256b1	-0.012838052
16	0xbe731663	-0.23739009
17	0x3e3850c5	0.17999561
18	0xbe4f94c3	-0.20271592
19	0x3c2ca6d6	0.010537824
20	0x3e60d95a	0.21957913
21	0xbda6f28d	-0.08151732
22	0xbe03b0cd	-0.12860413
23	0x3df66961	0.12031818
24	0x3c90f537	0.017695053
25	0xbe5af842	-0.21383765
26	0xbd9b6ebe	-0.07589482
27	0x3e41ecb0	0.18937945
28	0xbe122c6c	-0.14274758
29	0x3da302ee	0.07959543
30	0x3bf98def	0.0076157968
31	0xbe1fc835	-0.15603717
32	0x3de52a28	0.11189681
33	0xbe07dd16	-0.13267931
34	0x3e0f84d3	0.14015512
35	0xbdc3866e	-0.09547125
36	0xbe0dac26	-0.138352
37	0x3e240743	0.16018395
38	0xbe481882	-0.19540599
39	0x3c960a82	0.018315557
40	0x3dd65967	0.10466271
41	0xbd374e9d	-0.044752706
42	0xbdb72c8c	-0.089440435
43	0x3e12eabd	0.14347358
44	0x3d976517	0.07392328
45	0x3d283f2b	0.041075867
46	0x3da3b365	0.07993201
47	0x3c5a75bf	0.013333737
48	0x3e903fa0	0.28173542
49	0x3d859178	0.065218866
50	0xbe0a4f28	-0.13506758
51	0xbc10d161	-0.008838982
52	0x3d41dafa	0.047327973
53	0x3e226d79	0.15862073
54	0x3c899763	0.01679582
55	0x3cd69672	0.026194785
56	0xbdee3903	-0.11631968
57	0x3e907b9a	0.282193
58	0xbd1409c9	-0.036142144
59	0x3e1107ea	0.14163175
60	0x3d28bcdd	0.04119574
61	0xbdec9445	-0.11551718
62	0x3d1c650a	0.038182296
63	0x3e83ca31	0.25740197
64	0xbe1486e9	-0.14504589
65	0xbca75d24	-0.020430155
66	0xbe3da02a	-0.18518129
67	0xbe175706	-0.1477929
68	0xbe8a09b4	-0.26960528
69	0x3e1f3f14	0.15551406
70	0xbe42f4a7	-0.1903864
71	0xbd9578b0	-0.0729841
72	0x3e4f4ea7	0.20244847
73	0x3d9f815d	0.07788346
74	0x3e6db01e	0.23211715
75	0xbe5e35fe	-0.21700284
76	0x3e018700	0.12649155
77	0x3db2f094	0.08737293
78	0xbdeb10a5	-0.11477784
79	0x3eaac8ee	0.33356422
80	0x3ecc8b04	0.3994981
81	0x3c9b14f2	0.018930886
82	0x3d736c6c	0.05942957
83	0xbdacde34	-0.084408194
84	0x3da7b4b9	0.08188767
85	0xbd095966	-0.033532523
86	0x3de9c2fd	0.11414144
87	0xbdbb0826	-0.091324136
88	0xbd7676d0	-0.060171902
89	0x3e1d0792	0.15334919
90	0x3dbc35b5	0.09189931
91	0xbd0c69e8	-0.034280688
92	0x3e460c99	0.19340743
93	0xbdffdeab	-0.124936424
94	0xbc9268c4	-0.017872222
95	0xbd533c95	-0.051571447
96	0xbe1f7118	-0.15570486
97	0x3da1b486	0.0789576
98	0x3c0b3d77	0.008498541
99	0xbe5b5285	-0.21418197
100	0x3df099f1	0.11748112
101	0xbeb7ea7f	-0.35921094
102	0xbe476d7e	-0.19475362
103	0xbe40710b	-0.18793122
104	0x3e920c70	0.28525114
105	0xbe280736	-0.16409001
106	0xbda3f9f2	-0.08006658
107	0xbe329ce6	-0.17442665
108	0x3e00afcb	0.1256706
109	0x3e7b16b9	0.24520387
110	0x3e6e4aaf	0.23270677
111	0xbe7c3e22	-0.24633077
112	0x3e58ba95	0.21164925
113	0x3e03f12b	0.12884967
114	0xbe063c54	-0.13108951
115	0xbe3ddf96	-0.18542323
116	0x3dd66fb4	0.104705244
117	0x3e370873	0.17874317
118	0x3dcb9ec2	0.0994239
119	0x3d90b5f1	0.070659526
120	0x3e6076ce	0.2192032
121	0x3e486b93	0.19572286
122	0x3e05dbbe	0.13072106
123	0xbe6c2eb9	-0.23064698
124	0xbe647f83	-0.22314267
125	0xbe2036a7	-0.15645848
126	0xbd76ea37	-0.06028196
127	0x3e1cbf52	0.15307358
128	0xbdb48fe3	-0.08816507
129	0xbe8f7f05	-0.28026596
130	0xbd6b7c1c	-0.057491407
131	0xbc0c947d	-0.008580324
132	0x3d36ce7d	0.044630516
133	0xbe9d270d	-0.30693856
134	0xbe08de4f	-0.13366054
135	0x3d837fc9	0.064208575
136	0x3e03dd37	0.12877356
137	0x3ced839b	0.028993418
138	0xbd6238c0	-0.055229902
139	0xbe1393ce	-0.14411852
140	0xbde6d5ca	-0.11271246
141	0x3ea62648	0.3245108
142	0xbe3b5de3	-0.18297534
143	0x3e03ef98	0.12884367
144	0x3f016be2	0.5055524
145	0xbe379f09	-0.17931761
146	0x3df0c66c	0.11756596
147	0xbe914216	-0.28370732
148	0x3d418643	0.047247183
149	0x3d1cff8b	0.038329642
150	0xbe94029a	-0.28908235
151	0x3d15fe36	0.036619388
152	0xbdc5761a	-0.09641667
153	0x3e8f0d30	0.2793975
154	0xbe270b1b	-0.1631283
155	0xbdc07fef	-0.093994014
156	0x3e0136be	0.12618539
157	0xbe7ec284	-0.2487889
158	0xbd939c79	-0.07207579
159	0x3e8e26ab	0.27763876
160	0xbe4d3d36	-0.20042881
161	0xbe676d0f	-0.22600196
162	0xbd86a177	-0.06573766
163	0xbd6fe497	-0.05856761
164	0xbc2b6147	-0.010460204
165	0xbe983267	-0.29725954
166	0xbeaa768b	-0.33293566
167	0x3ebf3040	0.373415
168	0x3eb9b697	0.36272117
169	0x3e96fe4f	0.29490897
170	0xbcca2d6e	-0.024679866
171	0xbe0e35c7	-0.13887702
172	0x3dbfd504	0.093668014
173	0x3e04711e	0.12933776
174	0xbd2926b3	-0.041296672
175	0x3c18d07f	0.009327053
176	0x3ea0c146	0.31397456
177	0xbe9532ee	-0.2914042
178	0x3dfd204d	0.123596765
179	0xbdd116cb	-0.102094255
180	0xbe1dd27e	-0.15412328
181	0x3d662d35	0.056195457
182	0xbbe02749	-0.0068406207
183	0x3d48c120	0.049012303
184	0x3d2e5734	0.042563632
185	0x3e96bea4	0.29442322
186	0x3e738bd9	0.23783816
187	0xbe97c94f	-0.29645774
188	0xbe292d56	-0.165212
189	0xbd32f7bd	-0.043693293
190	0xbe9a3fa8	-0.3012669
191	0xbddbe62f	-0.107372634
192	0x3e8ca901	0.2747269
193	0xbd72be51	-0.05926353
194	0x3daaf837	0.083481245
195	0xbe382489	-0.17982687
196	0xbe8ce457	-0.2751796
197	0x3e793325	0.24335916
198	0x3cb4fb61	0.022092523
199	0x3dc1594d	0.09440861
200	0xbe3dcc5d	-0.1853499
201	0x3d93afe6	0.07211284
202	0x3e51e3f0	0.20497108
203	0x3dfc2ca7	0.12313204
204	0x3e63cebd	0.22246833
205	0xbd0577d0	-0.032584965
206	0xbe82a291	-0.25514653
207	0x3e322591	0.17397143
208	0xbe02d5ce	-0.12776873
209	0xbe25d081	-0.16192819
210	0xbcc328e6	-0.023823213
211	0x3e0fb6d2	0.14034584
212	0x3e17b7e8	0.14816248
213	0x3e992eb5	0.29918447
214	0x3e1f0879	0.15530576
215	0xbe03fb70	-0.12888885
216	0xbe5a8ffc	-0.21343988
217	0x3cdf8540	0.027285218
218	0xbed1d547	-0.4098303
219	0x3e4cf29f	0.20014428
220	0x3e41ba1c	0.18918651
221	0xbe2d8f3d	-0.16949172
222	0x3e968746	0.2940008
223	0x3d5f3de6	0.05450239
224	0xbe69b017	-0.22821079
225	0xbdae6afc	-0.085164994
226	0xbd6d9a5d	-0.05800854
227	0x3e3849d0	0.17996907
228	0xbe7d6369	-0.24744953
229	0x3e8c4217	0.27394173
230	0xbbcddd3e	-0.0062824776
231	0xbe131b3f	-0.14365862
232	0xbdf538ab	-0.11973699
233	0xbe480f31	-0.19537045
234	0x3d56ea06	0.052469276
235	0xbe0526b7	-0.1300305
236	0x3d993374	0.07480517
237	0xbe04fba6	-0.12986621
238	0xbdd7fc69	-0.1054619
239	0x3e0a590d	0.13510533
240	0x3add1fad	0.0016870402
241	0x3da16021	0.07879663
242	0x3d266c03	0.04063035
243	0x3e6ce71a	0.23135033
244	0x3d59678b	0.053077262
245	0xbda8266f	-0.082104556
246	0x3d040a8c	0.03223662
247	0x3d2c0b39	0.04200289
248	0x3de4eb2f	0.1117767
249	0x3d86c756	0.06580989
250	0xbd857a30	-0.06517446
251	0xbd522cb5	-0.051312167
252	0xbe6efa51	-0.23337676
253	0x3e2a610c	0.16638583
254	0x3e4515d6	0.19246611
255	0xbea48456	-0.32132214
