W3-Design/checkpoints/epoch_19.pt (torch, 384725 bytes, 24 tensors)

encoder_cnn.0.weight f4 [32, 3, 3]
0	0xbe55a31e	-0.20863006
1	0xbd81b596	-0.06333463
2	0xbe79d2ba	-0.24396792
3	0x3e78baa0	0.24289942
4	0xbe7f995b	-0.24960844
5	0x3e1668bd	0.14688392
6	0x3e19f29a	0.15033951
7	0x3e39817b	0.18115799
8	0x3dbdf6ae	0.09275566
9	0x3e483946	0.19553098
10	0x3e3bccfd	0.18339916
11	0x3d80a552	0.06281532
12	0xbe9d844f	-0.30765006
13	0xbeb1c134	-0.34717715
14	0xbc9b4586	-0.01895405
15	0xbe9b83a9	-0.30373886
16	0x3dcc8f27	0.09988242
17	0xbe398517	-0.18117176
18	0x3dcbc153	0.09948983
19	0x3e69571d	0.22787137
20	0x3ed3ff68	0.41405797
21	0x3d96f9ad	0.073718406
22	0x3e5ba2b6	0.21448788
23	0xbeb781b7	-0.35841152
24	0xbe6cbfa6	-0.23119983
25	0x3d58f4ba	0.052967764
26	0xbe112a87	-0.14176379
27	0xbde8dd5b	-0.11370345
28	0x3c54706f	0.012966259
29	0xbe4336ca	-0.19063869
30	0xbd954868	-0.07289201
31	0xbd690c0f	-0.056896266
32	0xbb45a16b	-0.0030156027
33	0x3dc3001f	0.095215075
34	0x3e443c2c	0.19163579
35	0xbc7392ab	-0.014866511
36	0xbdef5f91	-0.1168815
37	0x3dd87f33	0.10571136
38	0xbdd2bff4	-0.102905184
39	0x3f0f8180	0.56056976
40	0xbd67e3bc	-0.05661367
41	0x3f012223	0.50442713
42	0x3da4d848	0.08049065
43	0x3dee9986	0.11650376
44	0xbecf060c	-0.404343
45	0x3d46d774	0.048545316
46	0xbdcc72f9	-0.09982867
47	0x3eb5ef4a	0.35534126
48	0xbebd8831	-0.37017968
49	0xbea69932	-0.32538754
50	0x3d1333f0	0.035938203
51	0x3da707e5	0.08155803
52	0x3e1a61bf	0.1507635
53	0xbeab96aa	-0.33513385
54	0x3da3cfd1	0.07998622
55	0xbde9cd86	-0.114161536
56	0x3e4b1f3c	0.19836134
57	0x3e5b651b	0.21425287
58	0x3e1e0d38	0.1543473
59	0xbdea6a06	-0.114460036
60	0xbe1f6aef	-0.15568136
61	0x3e1644fb	0.14674751
62	0xbeb525f0	-0.35380507
63	0x3e5d430b	0.21607606
64	0xbd99a537	-0.07502215
65	0x3e7da5ae	0.24770233
66	0x3e7eef20	0.24895906
67	0xbe9b9ac6	-0.3039152
68	0xbefc14bf	-0.49234578
69	0xbdf58d3f	-0.11989831
70	0xbddfb3da	-0.10922976
71	0x3ea3b541	0.31974223
72	0x3d5ca077	0.05386397
73	0x3e2cf040	0.16888523
74	0x3ccdeef6	0.02513836
75	0xbe238ff4	-0.15972883
76	0xbeaa4f59	-0.33263662
77	0x3e9054e2	0.2818976
78	0xbeaf623c	-0.34254634
79	0x3e562d52	0.20915726
80	0xbdc77ede	-0.09740995
81	0x3d93b5a6	0.07212381
82	0x3ea8129f	0.32826707
83	0x3d5b946a	0.053608336
84	0x3e8fe0fa	0.2810133
85	0xbe0c5171	-0.13702942
86	0xbeaf4775	-0.34234205
87	0x3df0a45b	0.11750098
88	0x3d0d7c2f	0.03454226
89	0xbd830a7e	-0.063984856
90	0x3b1c18c3	0.002381847
91	0x3be2cc74	0.0069213454
92	0x3d94ef1a	0.072721675
93	0x3ee0f170	0.43934202
94	0xbe3177b8	-0.17330825
95	0xbe467c53	-0.19383363
96	0xbe2d2794	-0.16909629
97	0x3e39a755	0.18130238
98	0xbd315b0c	-0.04329972
99	0xbde0bd31	-0.109735854
100	0x3c11b4f4	0.00889324
101	0x3e51e826	0.20498714
102	0x3d7e794f	0.062127408
103	0x3eb5fb18	0.35543132
104	0x3b220ee5	0.0024728116
105	0xbe41d1fe	-0.18927762
106	0xbe79dbb9	-0.24400224
107	0x3cb30acb	0.021855732
108	0xbd90de92	-0.07073702
109	0x3e9b86be	0.30376238
110	0x3e24bb82	0.16087154
111	0xbce6878c	-0.028140806
112	0xbe90ea67	-0.28303835
113	0xbec5d60d	-0.3863987
114	0x3ed8045f	0.42190835
115	0x3d018af2	0.03162665
116	0xbe170683	-0.14748578
117	0x3ddeff11	0.10888494
118	0xbd740e79	-0.059584115
119	0x3dc86378	0.09784597
120	0x3e27be26	0.1638113
121	0xbdceb83a	-0.10093732
122	0xbe365af3	-0.17808132
123	0x3d93d37e	0.07218073
124	0xbce39116	-0.027779143
125	0xbe15d88a	-0.14633384
126	0xbe305752	-0.1722081
127	0xbe62bbc2	-0.22141936
128	0xbde19e16	-0.110164806
129	0x3ea7b632	0.32756191
130	0xbd638d9f	-0.055554982
131	0xbe60f4b9	-0.21968354
132	0x3e334cbc	0.1750974
133	0x3e4fbb47	0.20286284
134	0xbdf162fd	-0.11786459
135	0x3ea5dcf5	0.3239514
136	0x3e426337	0.1898316
137	0xbe0b18ff	-0.13583754
138	0xbee18a5c	-0.44050872
139	0x3c2bd9c8	0.010488935
140	0xbe6f685e	-0.23379657
141	0xbedb90fc	-0.42884052
142	0xbd9cbe4c	-0.07653484
143	0xbe041073	-0.128969
144	0x3e056ac0	0.13029003
145	0xbe5779d6	-0.2104257
146	0xbea9d2b7	-0.33168575
147	0x3e305834	0.17221147
148	0xbc819b5b	-0.01582115
149	0xbdac2b29	-0.0840667
150	0x3e7f96a8	0.24959815
151	0xbdb36faa	-0.087615326
152	0x3e5ab94b	0.21359746
153	0xbcc1e474	-0.023668505
154	0x3e4f8fb8	0.20269668
155	0xbd3c6d79	-0.04600284
156	0x3dceab3d	0.10091255
157	0xbf0437df	-0.5164775
158	0x3e171a6f	0.14756177
159	0xbe2dc464	-0.16969448
160	0xbed758f7	-0.42060062
161	0xbe232438	-0.15931785
162	0x3e8eb562	0.2787276
163	0x3e36abef	0.17839025
164	0xbe5a57ff	-0.2132263
165	0xbddbd26d	-0.10733495
166	0xbece958c	-0.4034847
167	0xbde89a6f	-0.11357581
168	0x3e3ce2a4	0.18445832
169	0xbe33f20a	-0.175728
170	0xbd20c9f7	-0.03925511
171	0xbdbacfb6	-0.09121649
172	0x3e39d07b	0.18145935
173	0x3dbb2efe	0.091398224
174	0xbd5178a9	-0.05114046
175	0xbe2dd013	-0.16973905
176	0x3e3f9642	0.18709663
177	0xbe1daf98	-0.15399015
178	0x3e29d00d	0.16583271
179	0x3e24a68b	0.16079156
180	0xbe3246b6	-0.17409787
181	0xbe335fd2	-0.17517021
182	0xbe46e8a8	-0.19424689
183	0xbe38ba63	-0.18039851
184	0x3e686ae9	0.22697033
185	0xbac68832	-0.001514679
186	0x3e632330	0.22181392
187	0x3e3aca47	0.18241225
188	0xbe5c5e46	-0.21520337
189	0x3e61e34c	0.22059363
190	0xbe2f27b2	-0.17104986
191	0xbdf568a2	-0.11982848
192	0xbe544b0e	-0.20731756
193	0x3e5b2710	0.2140162
194	0x3da9dd60	0.08294177
195	0xbe2a5ca8	-0.16636908
196	0xbee90704	-0.45513165
197	0xbea6a5e2	-0.32548434
198	0x3d173785	0.036918182
199	0xbead35f7	-0.33830234
200	0x3d51a17c	0.051179394
201	0x3dd2019a	0.10254212
202	0x3e64f589	0.22359289
203	0xbdaae6bd	-0.08344791
204	0xbdf3bde0	-0.1190145
205	0xbe496ea4	-0.19671112
206	0xbeac932a	-0.33706027
207	0x3ddfb9c2	0.10924102
208	0xbe92dc15	-0.28683534
209	0xbe90a6a1	-0.28252128
210	0xbe22f5e1	-0.15914108
211	0x3c160d29	0.009158411
212	0xbde21d82	-0.110407844
213	0x3e00f112	0.12591961
214	0x3e67e031	0.22644116
215	0x3e8a7acc	0.27046812
216	0x3d7f5e3f	0.06234574
217	0x3e3b8c2b	0.18315189
218	0xbe49cb84	-0.19706541
219	0x3e2a3a23	0.1662374
220	0x3e0a5ab9	0.1351117
221	0xbe55ac52	-0.20866516
222	0x3ca8aad9	0.020589279
223	0x3d7b2880	0.06131792
224	0x3da178da	0.07884379
225	0x3f02de7e	0.51120746
226	0x3e85a9de	0.2610616
227	0x3ed93466	0.4242279
228	0x3e89a054	0.26880133
229	0x3e806ce1	0.25083068
230	0x3d404adc	0.04694639
231	0xbec13231	-0.37733606
232	0xbd185ca0	-0.03719771
233	0x3e4fdd1e	0.20299193
234	0xbee691d5	-0.45033136
235	0xbd83d346	-0.064367816
236	0xbe6047d3	-0.21902399
237	0x3eb3027f	0.34962842
238	0x3e3a347a	0.1818408
239	0xbe4bab7c	-0.19889635
240	0x3ea92631	0.3303695
241	0xbb85260b	-0.004063373
242	0xbe09c767	-0.13454972
243	0xbe789037	-0.24273764
244	0xbca0daf9	-0.019635664
245	0xbdacf11d	-0.08444426
246	0xbe2b59cb	-0.16733472
247	0xbe0c6549	-0.13710512
248	0x3e15b592	0.14620045
249	0xbe263927	-0.1623274
250	0x3e9cb145	0.30603996
251	0x3d25d8d7	0.040489998
252	0x3e3e33a9	0.18574394
253	0xbd6e9a6b	-0.058252733
254	0x3ca94974	0.020664908
255	0xbd641d10	-0.05569178

encoder_cnn.0.bias f4 [32]
0	0xbea3f699	-0.32024077
1	0xbdb75fc0	-0.0895381
2	0x3f8c959a	1.0983155
3	0xbf9d1145	-1.2270895
4	0x3cba805e	0.022766288
5	0x3dd5be25	0.10436658
6	0xbf632d15	-0.88740665
7	0xbe1e1787	-0.15438662
8	0xbe43b4aa	-0.19111887
9	0xbec849be	-0.3911876
10	0xbe709e55	-0.23497899
11	0xbe801a09	-0.25019863
12	0xbdb57e86	-0.08862023
13	0xbf354cd7	-0.70820373
14	0xbf4a8812	-0.79113877
15	0x3ea1824d	0.31544724
16	0xbf5a9eb9	-0.8539844
17	0x3e70a174	0.2349909
18	0xbdd75ec2	-0.105161205
19	0xbf6da144	-0.92824197
20	0xbf32ec35	-0.69891673
21	0x3f0666d0	0.5250063
22	0xbc9888bb	-0.018619886
23	0xbf33f93f	-0.70302194
24	0xbf0f70b9	-0.56031376
25	0x3ee66686	0.45000094
26	0xbf36fe3a	-0.7148167
27	0xbf54dc5d	-0.8314875
28	0xbf69ada9	-0.9128061
29	0xbe993751	-0.29925016
30	0xbdafcbf3	-0.08583822
31	0x3dc608b8	0.09669632

encoder_cnn.2.weight f4 [64, 32, 3]
0	0xbe11f5cf	-0.14253925
1	0xbc925902	-0.017864708
2	0xbc1b9319	-0.00949552
3	0x3ea86580	0.32889938
4	0x3e946121	0.28980353
5	0x3e9d76f6	0.30754822
6	0x3eec9913	0.46210536
7	0x3e6837d9	0.22677554
8	0x3e0212e3	0.12702517
9	0xbd2b27c6	-0.041785978
10	0xbedbf317	-0.429589
11	0xbdb56310	-0.08856785
12	0x3d1fab84	0.03898193
13	0x3cdc0428	0.02685745
14	0xbe40a273	-0.1881197
15	0xbe111375	-0.14167579
16	0xbe5f701d	-0.21820112
17	0xbcd70f58	-0.026252434
18	0x3e0e0f32	0.13872984
19	0x3d7f0b7b	0.062266808
20	0x3de49df0	0.11162937
21	0xbdfed343	-0.12442639
22	0xbe225854	-0.15854007
23	0xbe3e97fe	-0.18612668
24	0x3edb2639	0.428026
25	0x3dca859e	0.09888767
26	0x3e23c4ba	0.15993014
27	0x3e0f73a3	0.14008956
28	0x3dfb33d3	0.12265744
29	0xbb90e50d	-0.004421836
30	0xbda57f0b	-0.08080872
31	0x3e44c704	0.19216543
32	0x3e092b9d	0.13395543
33	0x3dcd3b83	0.100211166
34	0xbd5292ed	-0.05140965
35	0xbd970bad	-0.07375274
36	0x3d410164	0.047120467
37	0xbe0b0aa3	-0.13578276
38	0xbd833dbc	-0.06408259
39	0x3e795a4f	0.24350856
40	0x3e56963b	0.20955746
41	0x3e736a03	0.23770909
42	0x3dac9cee	0.084283695
43	0xbd268145	-0.040650625
44	0x3d370b2b	0.044688385
45	0x3e95bb47	0.29244444
46	0x3e936d15	0.2879416
47	0x3c98441a	0.01858716
48	0x3e3793dd	0.17927499
49	0x3dfba53c	0.12287375
50	0x3d752e4b	0.0598586
51	0x3e861e56	0.2619502
52	0x3e1b7649	0.15181841
53	0x3cc17dda	0.023619581
54	0xbe009aea	-0.12559095
55	0xbd2c6b65	-0.042094607
56	0xbda7a24a	-0.08185251
57	0xbe913743	-0.28362474
58	0xbe2f3413	-0.17109708
59	0xbd542459	-0.051792476
60	0x3d30d454	0.043171242
61	0xbe0460e4	-0.12927586
62	0x3d8e00eb	0.06933769
63	0xb95e5048	-0.00021201477
64	0x3c5b6c88	0.013392575
65	0xbe08c72c	-0.13357228
66	0x3e5dd22c	0.21662205
67	0x3c049199	0.008091354
68	0x3da0e92e	0.078569755
69	0xbe4d0974	-0.20023137
70	0xbe4ac54b	-0.19801824
71	0xbd9a3903	-0.07530405
72	0x3e855e4d	0.26048508
73	0x3d880a65	0.066426076
74	0x3e81c54c	0.25345838
75	0x3dc5808c	0.09643659
76	0x3df04e22	0.11733653
77	0xbe8aefce	-0.2713608
78	0xbe05375a	-0.13009396
79	0x3d579e9a	0.05264149
80	0xbdb3785c	-0.08763191
81	0x3e13805d	0.14404435
82	0xbd84adb2	-0.06478442
83	0x3d880b0e	0.066427335
84	0xbdf06522	-0.117380396
85	0xbe7f10f3	-0.2490881
86	0xbe4bc8bf	-0.19900797
87	0x3ddc44b6	0.10755293
88	0xbe26148b	-0.16218774
89	0x3da9ab8e	0.082846746
90	0x3ebfc3a8	0.3745396
91	0x3d3af6d1	0.04564554
92	0xbced4ee9	-0.028968291
93	0x3de8247e	0.11335085
94	0xbdb4bcb4	-0.08825055
95	0xbdf1f7cb	-0.11814841
96	0xbd6ba59c	-0.057530984
97	0xbc5aa83b	-0.013345773
98	0x3d999175	0.07498447
99	0xbda66853	-0.08125367
100	0xbd74cd82	-0.0597663
101	0xbce43769	-0.027858453
102	0xbeffd37c	-0.49966037
103	0xbe759ebb	-0.23986332
104	0xbe3e55f0	-0.1858747
105	0xbd83a91f	-0.06428742
106	0x3cefef78	0.029288992
107	0xbdba4320	-0.09094834
108	0xbea28fec	-0.3175043
109	0xbe93b8d8	-0.28851962
110	0xbe5d4c92	-0.2161124
111	0xbd380da3	-0.04493488
112	0xbbbbf5ad	-0.005736074
113	0x3d91665b	0.07099601
114	0x3d708e93	0.05872972
115	0xbe0296e0	-0.12752867
116	0xbe42def3	-0.19030361
117	0xbe777282	-0.24164775
118	0x3d9f4ecf	0.077787034
119	0x3c1d0191	0.009582893
120	0x3dc3cb39	0.09560246
121	0xbe4b407b	-0.19848816
122	0xbd461e1e	-0.048368566
123	0x3cc5c898	0.024143502
124	0x3d198dad	0.03748863
125	0xbc7bb009	-0.015361794
126	0xbd53a7ec	-0.051673815
127	0xbd9b9def	-0.07598483
128	0xbd9d1058	-0.07669133
129	0xbeaf714f	-0.34266135
130	0xbe385bfe	-0.18003842
131	0xbef4708f	-0.47742125
132	0xbbc8d624	-0.006129043
133	0xbc814fea	-0.015785176
134	0xbd32a7a9	-0.043616924
135	0xbd12e032	-0.03585834
136	0x3c8334d6	0.016016405
137	0x3d235047	0.03987148
138	0xbdfa8c01	-0.12233735
139	0xbd5a3583	-0.05327369
140	0xbe134637	-0.14382254
141	0xbe2cbed3	-0.16869669
142	0xbd9e48f7	-0.07728761
143	0xbe2a2688	-0.16616261
144	0xbe359a56	-0.17734656
145	0x3d45a4cc	0.048252866
146	0xbd7e2fe5	-0.062057395
147	0xbea699b7	-0.3253915
148	0xbeb8fbc7	-0.3612959
149	0xbeb22118	-0.34790874
150	0x3b54e5cb	0.00324856
151	0x3cf64546	0.030062329
152	0x3d3547f5	0.044258077
153	0x3ddc163e	0.1074643
154	0x3d883718	0.06651133
155	0x3d966c63	0.07344892
156	0xbcf49eee	-0.02986094
157	0xbc1bc99d	-0.009508518
158	0xbcf541e1	-0.02993864
159	0xbe9a2c30	-0.30111837
160	0xbe8bb982	-0.2728997
161	0xbe8ebb3c	-0.27877223
162	0xbcae2662	-0.021258537
163	0xbde38e74	-0.11111155
164	0xbdf1bc8a	-0.11803539
165	0x3d328f1c	0.04359351
166	0xbd1612b3	-0.036638927
167	0x3cc031d2	0.023461256
168	0xbd054a2d	-0.032541443
169	0x3d5a090b	0.05323128
170	0x3d4bf02c	0.049789593
171	0xbe7f1118	-0.24908864
172	0x3d20c695	0.039251883
173	0x3d889368	0.066687405
174	0xbd380008	-0.044921905
175	0xbd35656e	-0.044286184
176	0xbe411eb2	-0.18859366
177	0xbe44d7c3	-0.19222932
178	0xbdab2051	-0.08355773
179	0xbd96ce16	-0.073635265
180	0xbe347c73	-0.17625599
181	0xbd9bd529	-0.076090164
182	0x3d88635a	0.06659575
183	0xbc2ff0e6	-0.010738587
184	0xbdd7d258	-0.10538167
185	0xbc29d221	-0.01036504
186	0xbe0b06b5	-0.13576777
187	0xbde02d95	-0.10946194
188	0xbe366c03	-0.1781464
189	0xbe2cf3de	-0.16889903
190	0xbe2efc44	-0.17088419
191	0xbe62b75a	-0.22140256
192	0x3eb1b564	0.34708703
193	0x3e5d24b0	0.21596026
194	0xbd5118ef	-0.05104917
195	0x3d0f8107	0.03503516
196	0x3e881448	0.26577973
197	0x3e020fcb	0.12701337
198	0xbeba80dd	-0.3642644
199	0xbe772e0c	-0.24138659
200	0xbdf8e8d7	-0.12153786
201	0x3d658a73	0.05604024
202	0xbe184189	-0.1486875
203	0xbd79eaf8	-0.0610151
204	0xbe413d09	-0.1887094
205	0xbeb73a23	-0.35786542
206	0xbfb1c5bf	-1.3888472
207	0xbdaedb5d	-0.08537934
208	0x3f149a4d	0.58047944
209	0xbcb074ed	-0.02154013
210	0xbd983b57	-0.07433193
211	0x3e998a73	0.2998844
212	0xbcc269b0	-0.023732036
213	0xbbba3083	-0.0056820526
214	0x3e57c098	0.21069562
215	0xbef6182e	-0.48065323
216	0xbdcfc4fd	-0.101449944
217	0xbe426b96	-0.18986353
218	0xbe0f66cb	-0.14004056
219	0x3cbe527d	0.023232693
220	0xbe0a12b9	-0.13483705
221	0xbecf30d8	-0.40466952
222	0xbe13a417	-0.14418064
223	0x3db8fd54	0.090326935
224	0xbe042b40	-0.12907124
225	0x3d124372	0.035708852
226	0x3e177a29	0.14792694
227	0xbe4eb7c4	-0.20187289
228	0xbe87b104	-0.2650224
229	0xbe0570d5	-0.13031323
230	0xbd913bbe	-0.07091473
231	0xbef53711	-0.47893575
232	0xbe57d3b3	-0.2107685
233	0xbea80ccc	-0.32822263
234	0x3ededcce	0.43527836
235	0x3df9bb1f	0.12193894
236	0xbe515eff	-0.20446394
237	0x3d14959f	0.036275502
238	0x3e0778f2	0.1322973
239	0xbe8bf543	-0.27335557
240	0x3e6de2b5	0.23231013
241	0x3d4d2c3e	0.05009102
242	0xbeb5da65	-0.35518184
243	0x3e8f51e6	0.2799217
244	0x3d9efa70	0.07762611
245	0xbde3d143	-0.11123898
246	0xbee3b5ea	-0.44474727
247	0xbecdd6ea	-0.4020303
248	0xbdeb6d15	-0.11495415
249	0xbe51af5a	-0.20477048
250	0x3e3bdefb	0.18346779
251	0xbd7886cb	-0.060675424
252	0x3ea4c545	0.32181755
253	0x3e6228fa	0.22085944
254	0xbe3647dd	-0.17800851
255	0xbe0827de	-0.13296458

encoder_cnn.2.bias f4 [64]
0	0xbcac5cf9	-0.021040427
1	0xbe15a8b7	-0.14615141
2	0x3d83ade5	0.06429652
3	0xbd90fdfe	-0.07079695
4	0x3e2077e1	0.1567073
5	0x3dac99d0	0.08427775
6	0xbec16ada	-0.37776834
7	0xbe169164	-0.147039
8	0xbe419ab0	-0.18906665
9	0xbc81c6eb	-0.015841922
10	0xbd94e047	-0.0726934
11	0xbe276207	-0.16345988
12	0x3e1af878	0.15133846
13	0xbdebe8dc	-0.11519024
14	0xbd9eabfc	-0.07747647
15	0xbc3c7d37	-0.011504463
16	0x3e439fdc	0.1910395
17	0x3d951c73	0.07280817
18	0xbe26066b	-0.16213386
19	0xbdf522be	-0.11969517
20	0xbe12c0da	-0.1433138
21	0x3e556be7	0.20841943
22	0x3e83fe1c	0.25779808
23	0x3e9dca4c	0.30818403
24	0xbe2bd674	-0.16781026
25	0xbdcb0ee9	-0.09914953
26	0xbe82129b	-0.2540482
27	0xbe0b5c81	-0.13609506
28	0x3e973f4e	0.29540485
29	0xbdfbfa94	-0.12303653
30	0xbdc16607	-0.09443288
31	0xbeafbf69	-0.34325722
32	0xbe288919	-0.16458549
33	0xbdbc2b08	-0.09187895
34	0x3e386a36	0.18009266
35	0xbe5c9fea	-0.21545377
36	0xbd397a8f	-0.045282897
37	0xbee897fe	-0.4542846
38	0x3e35a7c6	0.17739782
39	0xbae0fa56	-0.001716445
40	0xbe440288	-0.1914159
41	0xbed07bd9	-0.40719488
42	0x3e3493e1	0.17634536
43	0xbe0054f5	-0.12532409
44	0xbe225b70	-0.15855193
45	0xbedd0310	-0.431664
46	0xbe85970b	-0.260918
47	0xbe2a0344	-0.16602808
48	0xbe836b7b	-0.2566794
49	0x3d6f7c01	0.05846787
50	0xbeb11fe2	-0.34594637
51	0xbed72389	-0.420193
52	0xbe8e537e	-0.27798074
53	0xbdb57cb3	-0.08861675
54	0xbe7cdf29	-0.24694504
55	0xbcc3cb73	-0.023900723
56	0xbd65587a	-0.05599258
57	0xbe477c9a	-0.19481125
58	0xbe11c3a6	-0.1423479
59	0xbe028728	-0.1274687
60	0xbe7ef786	-0.2489911
61	0x3e353570	0.17696166
62	0xbea4b407	-0.321686
63	0xbe60edf4	-0.21965772

encoder_lstm.weight_ih_l0 f4 [128, 64]
0	0x3eef4e4a	0.46739417
1	0x3d48d84c	0.0490344
2	0x3e263e53	0.16234712
3	0xbdbf3fff	-0.09338378
4	0x3e996407	0.29959127
5	0xbde4e964	-0.11177328
6	0x3d804da0	0.06264806
7	0x3e69ade3	0.22820239
8	0x3e922a4c	0.28547895
9	0x3d59abfe	0.05314254
10	0x3e6ed2f8	0.23322666
11	0xbeafb19c	-0.34315193
12	0x3e7138b1	0.23556782
13	0xbe22a986	-0.1588498
14	0x3d5db8dc	0.054131374
15	0x3ea0562e	0.3131575
16	0x3ea9697a	0.33088285
17	0xbd862c9f	-0.065514795
18	0xbd967010	-0.07345593
19	0x3c50d778	0.012746684
20	0xbc4cb5d6	-0.012494525
21	0xbc05bf9c	-0.008163359
22	0x3f842ff3	1.0327133
23	0xbf6039e1	-0.87588316
24	0x3ee9c5e2	0.45658785
25	0x3e7053fc	0.23469537
26	0xbe4b2b62	-0.19840768
27	0x3e3ac06e	0.18237469
28	0xbe76eb9c	-0.24113315
29	0xbdccf1fa	-0.10007091
30	0x3e5f9e95	0.21837838
31	0x3e182e7e	0.14861485
32	0x3e83883c	0.25689876
33	0x3e9c2564	0.30497277
34	0xbd88c8e9	-0.066789456
35	0x3dc5c602	0.096569076
36	0x3f0e1e8d	0.55515367
37	0xbdd18770	-0.10230911
38	0x3ed38b0a	0.41317016
39	0xbe01c596	-0.1267303
40	0x3d80daeb	0.06291755
41	0x3e6da6d6	0.23208174
42	0x3dd468fc	0.10371587
43	0x3e0542f7	0.13013826
44	0xbe720131	-0.23633267
45	0x3e0d82ee	0.13819477
46	0xbc672058	-0.014106832
47	0x3e6b4c10	0.22978234
48	0x3eca81e4	0.39552224
49	0xbc8b1ab5	-0.016980508
50	0x3e39846f	0.18116926
51	0x3e0c63ef	0.13709997
52	0x3e3f057a	0.18654433
53	0xbd199f03	-0.03750516
54	0x3e43009f	0.19043206
55	0x3dbc4657	0.09193104
56	0xbaeb392f	-0.0017946119
57	0xbe20b478	-0.15693843
58	0xbd6312c7	-0.05543783
59	0xbd2bc367	-0.041934397
60	0x3c74823c	0.014923628
61	0x3deb86b4	0.11500302
62	0xbdb565b5	-0.0885729
63	0xbde20ead	-0.110379554
64	0x3dc6fc98	0.09716147
65	0x3c583f98	0.013198756
66	0xbe769310	-0.24079537
67	0xbd98aa6c	-0.074543804
68	0x3d86a842	0.065750614
69	0x3e3f5564	0.18684918
70	0x3d5b83a9	0.053592358
71	0x3e297e4f	0.16552089
72	0x3debd356	0.115149185
73	0x3e20b939	0.15695657
74	0x3c7593fc	0.0149888955
75	0xbe9198f7	-0.28437015
76	0x3d5a7efb	0.053343754
77	0xbd3ea9b0	-0.046548545
78	0x3dbf8e41	0.09353305
79	0x3dfbf9c1	0.12303496
80	0x3e9e4b8d	0.30917016
81	0xbe45cdda	-0.19316807
82	0xbe5b6000	-0.2142334
83	0xbd46db90	-0.048549235
84	0x3e53c36e	0.2068002
85	0x3dd71d6c	0.10503659
86	0xbe8823a6	-0.26589698
87	0xbc94cf92	-0.018165383
88	0x3e578a87	0.21048938
89	0xbe8b6b20	-0.27230167
90	0x3e0b8470	0.1362474
91	0x3e2fee2b	0.17180698
92	0x3e5fe5af	0.21864961
93	0xbd68ae88	-0.05680707
94	0xbf035e15	-0.5131543
95	0x3db174dc	0.08664867
96	0x3e774e71	0.24151017
97	0x3e3dc9b3	0.18533973
98	0xbd3e9a61	-0.046533946
99	0x3bf1c63c	0.0073783677
100	0xbe83cf6f	-0.25744197
101	0xbdb4daf5	-0.08830825
102	0x3e9513d2	0.29116684
103	0x3b22f591	0.0024865607
104	0xbd69824d	-0.05700903
105	0x3d3db5ae	0.04631584
106	0xbdd43724	-0.1036208
107	0xbe491fc2	-0.19641021
108	0xbd505ee1	-0.050871734
109	0xbce0cf10	-0.027442485
110	0x3ea9f414	0.3319403
111	0xbd00b806	-0.0314255
112	0xbddbdcdf	-0.10735487
113	0x3d4d315a	0.050095893
114	0xbdcd325d	-0.10019372
115	0x3e56d413	0.20979337
116	0xbe28e91b	-0.16495173
117	0xbd8b9adb	-0.06816646
118	0xbcbe07d3	-0.02319709
119	0x3e993ba2	0.2992831
120	0x3d6b0ed8	0.057387203
121	0x3d7c43fc	0.061588272
122	0x3e0c7b81	0.13718988
123	0xbe1bd702	-0.15218738
124	0x3de02e77	0.109463625
125	0xbe7ac052	-0.24487427
126	0xbedb1718	-0.42791057
127	0xbe4173d8	-0.18891847
128	0xbd159aae	-0.036524467
129	0xbd824f3f	-0.06362771
130	0x3ea9a4c4	0.3313352
131	0xbdadb980	-0.08482647
132	0x3ea5cc0b	0.32382235
133	0x3dfdcd5e	0.12392686
134	0x3c9c3132	0.019066427
135	0x3b1fe16f	0.0024395844
136	0xbd8700e9	-0.065919705
137	0x3e1040f2	0.14087275
138	0x3e0e6240	0.13904667
139	0xbcb3313c	-0.021874063
140	0xbee4f58e	-0.44718593
141	0xbda232a7	-0.079198174
142	0x3bf9829d	0.0076144473
143	0x3e858dd1	0.2608476
144	0x3e212834	0.15737993
145	0x3e9d6628	0.30742002
146	0xbd0e2fa8	-0.034713417
147	0x3e5500fd	0.20801158
148	0x3deb401e	0.11486839
149	0x3da26f2c	0.079313606
150	0x3d63f7e4	0.05565633
151	0x3e0a9c73	0.13536243
152	0xbe1a8562	-0.15089944
153	0x3d303aaa	0.043024696
154	0x3dfc05e3	0.1230581
155	0xbd675ec3	-0.056486856
156	0x3e2db75f	0.16964482
157	0x3dff311f	0.12460541
158	0xbe377ba5	-0.1791826
159	0xbb9e9485	-0.0048394823
160	0xbe1a3507	-0.15059291
161	0x3d2e4b4a	0.04255227
162	0x3ceea67f	0.029132126
163	0xbd379728	-0.04482189
164	0x3e809751	0.25115445
165	0xbda5bb78	-0.080923975
166	0xbdb0ca74	-0.08632365
167	0x3cb1d229	0.021706657
168	0x3eb3a4b1	0.35086587
169	0x3d84dc58	0.0648734
170	0x3d9585fe	0.073009476
171	0xbd1e051b	-0.038579088
172	0x3e8cbe78	0.27489066
173	0xbf16cf2f	-0.5890989
174	0x3e0a8333	0.13526611
175	0xbdedd812	-0.11613478
176	0x3e165f89	0.14684881
177	0x3df4bffa	0.11950679
178	0x3eaeebbd	0.3416423
179	0x3cd7c5ff	0.02633953
180	0xbdc128b1	-0.094315894
181	0xbd2ae316	-0.041720472
182	0x3eef4b2b	0.46737036
183	0x3e32c9ae	0.17459747
184	0x3b581ad1	0.0032974968
185	0xbe8a6171	-0.27027467
186	0x3c2e828b	0.010651241
187	0xbcfd0c93	-0.030889785
188	0xbd527ca2	-0.05138839
189	0xbe3f5b58	-0.18687189
190	0x3dd9eddd	0.10641072
191	0xbdb7d284	-0.089756995
192	0xbe0b33ef	-0.1359403
193	0x3e71f0c9	0.23627008
194	0x3dcbbc4e	0.09948026
195	0xbacee635	-0.001578516
196	0x3dc55ac6	0.09636454
197	0x3cdaea63	0.026723092
198	0xbdf7048e	-0.120614156
199	0xbe2892f2	-0.16462305
200	0x3bc696af	0.0060604434
201	0x3d1a0d24	0.037610188
202	0xbdf2b69e	-0.11851238
203	0x3eaf86e5	0.34282604
204	0x3e993038	0.299196
205	0xbdd12911	-0.10212911
206	0x3e1d42cf	0.15357517
207	0x3ccd8dd6	0.025092047
208	0xbda78391	-0.08179391
209	0x3f110257	0.56644195
210	0xbc0b9bab	-0.008521001
211	0x3de78dd0	0.113063455
212	0x3c71f17e	0.014767049
213	0x3ea579e2	0.32319552
214	0x3e9414af	0.2892203
215	0x3e4dcb9f	0.20097207
216	0x3ee1d784	0.44109738
217	0xbe5aa80b	-0.21353166
218	0xbe1a2d61	-0.15056373
219	0x3e659577	0.22420298
220	0x3e179fb9	0.14807023
221	0x3e00181c	0.12509197
222	0xbde6c5fa	-0.1126823
223	0x3db35d53	0.087580346
224	0xbebb9ddd	-0.36643878
225	0xbea2d289	-0.3180125
226	0x3dae4fa7	0.08511286
227	0xbd670ba9	-0.056407604
228	0xbdccc4dc	-0.099984854
229	0xbe71b41f	-0.23603867
230	0xbe2be252	-0.16785553
231	0x3d98ab1e	0.07454513
232	0x3e4a9d4a	0.19786564
233	0xbd1ed433	-0.038776588
234	0x3dab2b2a	0.08357842
235	0x3e7251ad	0.2366397
236	0xbd2d51aa	-0.04231421
237	0x3e8a8c1f	0.2706003
238	0x3d7db2c0	0.061938047
239	0x3d8c1e62	0.068417326
240	0x3e349c5e	0.17637774
241	0x3e09b64f	0.13448451
242	0x3ac818d9	0.0015266194
243	0x3c33ee5b	0.010982121
244	0x3e2be5f4	0.16786939
245	0x3ce5480b	0.027988454
246	0xbddc6b08	-0.10762602
247	0x3df60d34	0.12014237
248	0x3d96f679	0.0737123
249	0x3d65c181	0.056092743
250	0x3e8cc1bd	0.2749156
251	0xbdb4692e	-0.08809124
252	0xbd4ac7f8	-0.04950711
253	0xbcdc50c1	-0.026893975
254	0xbede592c	-0.43427408
255	0xbe631ed7	-0.22179733

encoder_lstm.weight_hh_l0 f4 [128, 32]
0	0xbd2cbc73	-0.042171907
1	0x3e568598	0.209494
2	0xbe9c2ea9	-0.3050435
3	0x3ee936f3	0.45549735
4	0x3f439830	0.76404095
5	0xbe8f7f10	-0.28026628
6	0x3d841a40	0.06450319
7	0xbe91d2b2	-0.2848106
8	0x3d9412fd	0.07230184
9	0x3f14a454	0.58063245
10	0x3ed7e912	0.42170006
11	0xbf0eab1c	-0.5572984
12	0xbe20d864	-0.15707546
13	0xbe7c5435	-0.24641497
14	0xbca99258	-0.020699665
15	0x3e3c2c1a	0.18376198
16	0x3b8488f2	0.0040446455
17	0xbe563d23	-0.2092176
18	0x3e977c93	0.2958723
19	0xbd1cd2f0	-0.038287103
20	0x3f09c95b	0.5382287
21	0x3eb2bbb9	0.34908846
22	0x3ef7e3e1	0.48416045
23	0x3d3463e9	0.044040594
24	0xbe905ff8	-0.28198218
25	0xbf41a245	-0.7563823
26	0x3d085638	0.03328535
27	0xbe454ae4	-0.1926685
28	0x3e23a3b7	0.15980421
29	0x3f005f93	0.50145835
30	0xbf0831c2	-0.53200924
31	0xbece977f	-0.40349957
32	0xbe169501	-0.14705278
33	0x3e62d546	0.2215167
34	0xbf08760f	-0.53305143
35	0x3d39e07b	0.045380097
36	0x3dddf7e4	0.10838297
37	0xbeadcebc	-0.33946788
38	0x3c4762b8	0.0121695325
39	0xbeb71ff9	-0.3576658
40	0x3ec07deb	0.37596068
41	0x3e9417af	0.2892432
42	0x3e029581	0.12752344
43	0xbe9f2ff7	-0.31091282
44	0xbe539600	-0.20662689
45	0x3f0e3e69	0.5556398
46	0x3e9d2260	0.3069029
47	0x3ea9bdd3	0.33152637
48	0xbdc83d10	-0.09777272
49	0x3ec327e8	0.38116384
50	0xbe098b75	-0.13432105
51	0xbd30167f	-0.042990204
52	0x3abe17b1	0.001450291
53	0x3df62057	0.12017887
54	0x3c4cb5ae	0.012494488
55	0xbb21b95f	-0.002467714
56	0xbd39e1cc	-0.045381352
57	0x3f00283a	0.5006138
58	0x3dae81d1	0.08520854
59	0xbe4318b7	-0.19052397
60	0x3eb80895	0.35944048
61	0xbe977320	-0.2958002
62	0xbde7426a	-0.11291964
63	0xbda292d9	-0.07938165
64	0xbeacc73c	-0.33745754
65	0x3e9497d4	0.29022086
66	0xbe4fdde9	-0.20299496
67	0xbed1402b	-0.4086927
68	0x3d2fe2ff	0.04294109
69	0xba6c8e46	-0.0009023886
70	0x3e1a87ec	0.15090913
71	0x3ee22e36	0.4417588
72	0x3c8e92eb	0.01740404
73	0xbd3c73c1	-0.04600883
74	0xbe8c6f5b	-0.27428707
75	0x3e50ac93	0.20378332
76	0x3e99ebce	0.30062717
77	0x3e5d31ab	0.21600978
78	0xbe857bb4	-0.2607094
79	0x3d0c7b0a	0.034297027
80	0xbe7c671e	-0.24648711
81	0x3e656e93	0.22405462
82	0xbeebef04	-0.46080792
83	0xbe99f127	-0.30066797
84	0xbe57ad25	-0.21062143
85	0xbedd7da3	-0.43259916
86	0xbe264bfa	-0.1623992
87	0xbe837cbe	-0.25681108
88	0x3e8b3bd7	0.27194092
89	0x3e750ffc	0.23931879
90	0xbf406fdf	-0.751707
91	0xbda96de2	-0.082729116
92	0xbe0070a1	-0.12542965
93	0xbd256609	-0.04038051
94	0xbee8669d	-0.45390788
95	0x3d8f1767	0.069868855
96	0xbf1e2d5f	-0.6178798
97	0xbf294cbb	-0.66132706
98	0xbe466b78	-0.19376934
99	0x3f67bd8c	0.905236
100	0xbed61390	-0.418118
101	0x3e31122e	0.17292091
102	0xbe9ec54b	-0.31009898
103	0x3f8ad53a	1.0846322
104	0xbf40ce95	-0.7531522
105	0xbe685552	-0.22688797
106	0xbf0dcfe3	-0.55395335
107	0x3e026b8f	0.12736343
108	0x3f2b8dd7	0.67013305
109	0x3f2294ba	0.6350819
110	0xbec57738	-0.3856752
111	0xbe21136e	-0.15730068
112	0x3eeb4bd2	0.45956284
113	0xbe470c30	-0.19438243
114	0xbf1aec90	-0.60517216
115	0xbed64682	-0.41850668
116	0xbd4f9fe0	-0.050689578
117	0xbf5007b4	-0.81261754
118	0xbf33daae	-0.70255554
119	0xbf4c2369	-0.7974153
120	0x3f847912	1.0349448
121	0x3e5c2ee5	0.21502264
122	0xbf58cb51	-0.84685236
123	0xbddd6020	-0.1080935
124	0xbec2ee64	-0.38072503
125	0x3ebfcd6c	0.37461412
126	0x3e9b8473	0.30374488
127	0x3db29cab	0.08721288
128	0x3f4b7de5	0.79488975
129	0xbd66cbfd	-0.056346882
130	0x3f025ab3	0.50919646
131	0x3e2612ae	0.16218063
132	0xbebd786d	-0.3700594
133	0xbee892e1	-0.4542456
134	0xbc2d0739	-0.010560804
135	0xbd45b765	-0.0482706
136	0x3ee83288	0.45351052
137	0xbef8d571	-0.48600343
138	0xbc5b4abf	-0.01338452
139	0x3f481a90	0.7816553
140	0xbddbff11	-0.107420094
141	0xbc961827	-0.018322064
142	0x3ed91b20	0.42403507
143	0xbf3f48dd	-0.74720556
144	0x3da59cfc	0.08086583
145	0x3e2d5d0a	0.16930023
146	0x3f0499ac	0.51796985
147	0xbf1d930b	-0.61552495
148	0x3e62de11	0.22155024
149	0x3f12c560	0.5733242
150	0x3d048f72	0.032363363
151	0x3e06950e	0.13142797
152	0x3d9eec6c	0.07759938
153	0xbe2a5d0f	-0.16637062
154	0xbe5413ea	-0.20710722
155	0xbef0938c	-0.4698757
156	0x3f2e1332	0.6799804
157	0xbe298c66	-0.16557464
158	0xbda74189	-0.08166797
159	0xbe0086a4	-0.12551361
160	0x3eae8902	0.34088904
161	0x3ef48174	0.47755015
162	0xbd9d63bb	-0.07685038
163	0xbed87ce1	-0.42282775
164	0x3ed270ff	0.41101834
165	0xbef82f37	-0.48473522
166	0xbea87a60	-0.32905865
167	0xbec25a85	-0.37959686
168	0x3ee45a5f	0.44600198
169	0x3e55e75a	0.20889035
170	0x3f3d03ce	0.7383393
171	0xbe494ec6	-0.19658956
172	0xbd52f50e	-0.051503234
173	0xbec4e2ce	-0.38454288
174	0x3ee3a533	0.44461975
175	0xbe7c8815	-0.24661286
176	0xbe596b85	-0.21232422
177	0x3e660ffd	0.22467037
178	0x3e707c64	0.23484951
179	0x3f005ae3	0.5013868
180	0x3e6c4295	0.23072274
181	0x3edba060	0.42895794
182	0x3f37c4e0	0.7178478
183	0x3f67c5ea	0.9053637
184	0xbec8ab6f	-0.39193293
185	0x3e0726d1	0.13198401
186	0x3ed67f0f	0.41893813
187	0xbe8ff4ae	-0.28116363
188	0x3f22372d	0.6336544
189	0xbea8550a	-0.3287738
190	0xbf08e074	-0.5346749
191	0x3e13f3e3	0.14448504
192	0x3e136cd5	0.14396985
193	0xbea9ba39	-0.3314989
194	0x3f1d3bd2	0.61419404
195	0x3f110361	0.5664578
196	0xbe8b38ad	-0.27191678
197	0x3e381974	0.1797846
198	0x3f8e9e37	1.1142033
199	0x3de0fb54	0.10985437
200	0xbe62044d	-0.22071953
201	0x3eb1e756	0.34746808
202	0xbe1e71de	-0.15473124
203	0xbf1dc7b6	-0.6163286
204	0x3e96a26c	0.29420793
205	0x3e1e1e24	0.15441185
206	0xbd8778e3	-0.06614854
207	0xbf403987	-0.7508778
208	0xbd16ac02	-0.036785133
209	0xbf31c27c	-0.69437385
210	0xbdb813cb	-0.0898815
211	0xbe9c2e08	-0.3050387
212	0xbe09128a	-0.13385978
213	0x3ead5bcb	0.33859095
214	0x3e90a216	0.28248662
215	0xbe3aaeb6	-0.1823071
216	0x3e4e931b	0.20173304
217	0xbe80e3d5	-0.25173822
218	0x3db083cd	0.08618889
219	0x3e84203f	0.25805852
220	0xbe79002e	-0.24316475
221	0x3e01998b	0.12656228
222	0x3cdea2eb	0.027177295
223	0x3e0a043b	0.13478176
224	0x3d66b00d	0.05632024
225	0x3d72854c	0.059209153
226	0xbdffd1a9	-0.124911614
227	0xbe624970	-0.22098327
228	0x3e3ea188	0.18616307
229	0xbee41320	-0.4454584
230	0xbe19f729	-0.1503569
231	0x3eb8bc31	0.3608108
232	0xbd99791e	-0.074938044
233	0xbed7ccc3	-0.42148408
234	0x3e433837	0.19064413
235	0xbdeb9ef8	-0.1150493
236	0xbe4fbfcb	-0.20288007
237	0x3e92e1d3	0.28687915
238	0x3e480947	0.19534789
239	0x3ee461d8	0.446059
240	0x3e98a166	0.29810637
241	0x3e8036e9	0.25041893
242	0xbde8deba	-0.11370607
243	0x3e1b4737	0.15163885
244	0x3e8336e5	0.2562782
245	0xbd2b5d60	-0.041837096
246	0x3eb4080a	0.35162383
247	0x3e5dbfe3	0.2165523
248	0x3e9aafb7	0.30212185
249	0xbd3c752d	-0.046010185
250	0x3e3d9b92	0.18516377
251	0xbf0c150d	-0.5471962
252	0x3e2f0f3b	0.17095654
253	0xbe907d3a	-0.2822054
254	0xbdb31a6f	-0.08745276
255	0xbebd2444	-0.3694173

encoder_lstm.bias_ih_l0 f4 [128]
0	0xbd8ab0da	-0.06772013
1	0x3de23b43	0.110464595
2	0x3c90d0d5	0.017677704
3	0x3da30edc	0.079618186
4	0x3e1f7ad2	0.15574196
5	0x3f51b011	0.8190928
6	0x3c1bae88	0.009502061
7	0x3eacd301	0.33754733
8	0xbed71bc1	-0.42013362
9	0x3e65376a	0.2238442
10	0x3db3aedc	0.08773586
11	0x3d10db81	0.035365585
12	0x3d06fdce	0.03295689
13	0x3d89cc2b	0.06728395
14	0xbe7b129d	-0.24518819
15	0xbdcffa8b	-0.10155209
16	0xbd7196e5	-0.058981795
17	0x3e03b67b	0.1286258
18	0x3da80dae	0.08205734
19	0x3cf96a68	0.030446246
20	0x3dbbcb1e	0.09169601
21	0x3e72eb52	0.2372258
22	0x3eae9dc0	0.3410473
23	0x3eae0f55	0.33996072
24	0x3efa1d13	0.48850307
25	0xbe0a50fc	-0.13507456
26	0xbe514481	-0.20436288
27	0x3bd989cf	0.0066387425
28	0xbe2ac407	-0.16676341
29	0xbca38292	-0.019959722
30	0x3c189871	0.009313689
31	0xbe381479	-0.1797656
32	0x3f01dd95	0.5072873
33	0x3e86e384	0.26345456
34	0xbe880dfe	-0.26573175
35	0x3f028e88	0.50998735
36	0x3e7059e9	0.23471798
37	0x3e4f41fc	0.20240015
38	0x3d6b6186	0.057466052
39	0x3e2df290	0.16987062
40	0x3d80555c	0.06266281
41	0xbe2502f0	-0.16114402
42	0x3ec21e88	0.37913918
43	0xbdc1e007	-0.09466558
44	0x3e491677	0.19637476
45	0xbd3864eb	-0.045018118
46	0xbe317d30	-0.17332911
47	0xbe91b1f6	-0.28456086
48	0xbd8f766b	-0.07005008
49	0xbe814051	-0.25244382
50	0x3ee3377f	0.44378278
51	0xbd30b218	-0.043138593
52	0xbd8b2a23	-0.06795146
53	0xbdf310e2	-0.118684545
54	0x3dc11f75	0.09429828
55	0x3da60893	0.08107104
56	0xbd242deb	-0.040082853
57	0xbe881194	-0.2657591
58	0xbd84c45f	-0.06482767
59	0xbea9dde2	-0.33177096
60	0xbde85f58	-0.113463104
61	0x3e6ba69c	0.23012775
62	0x3da0781a	0.078354076
63	0x3f0b6c71	0.54462343
64	0xbe8e92f3	-0.27846488
65	0x3eb6b262	0.3568297
66	0xbe9fb72b	-0.31194434
67	0xbe35ef41	-0.1776705
68	0x3c2ef1ef	0.010677799
69	0xbeda819d	-0.42677012
70	0xbd0946dc	-0.033514842
71	0xbecbc068	-0.39795232
72	0x3e4063a8	0.18788016
73	0x3e749944	0.23886591
74	0xbd214e09	-0.03938106
75	0xbd0e8b5f	-0.034800883
76	0xbf1b8a38	-0.6075778
77	0xbf0d0532	-0.5508605
78	0xbd86f09f	-0.065888636
79	0x3db2b0b7	0.08725112
80	0x3d7c2f28	0.06156841
81	0x3d542df2	0.05180163
82	0x3db8e4f7	0.090280466
83	0xbc701df8	-0.014655583
84	0xbdaced32	-0.08443679
85	0x3e040d0e	0.12895605
86	0xbcb9857b	-0.022646656
87	0x3e59c29d	0.21265645
88	0xbe78cac3	-0.24296097
89	0x3e1f54af	0.15559648
90	0x3e353b03	0.17698292
91	0xbe9525c0	-0.29130363
92	0x3e9d8220	0.3076334
93	0xbe3c518b	-0.18390481
94	0xbe1bb382	-0.15205196
95	0xbe82b6f1	-0.25530198
96	0x3e33b0fd	0.17547984
97	0xbcb6213e	-0.022232648
98	0xbf0c3113	-0.5476238
99	0x3e6ee3c3	0.23329072
100	0x3e84e2bf	0.25954244
101	0x3ea665ee	0.3249964
102	0x3e6cf49e	0.23140189
103	0x3eea84b2	0.45804363
104	0xbdd635ad	-0.104594566
105	0xbd178349	-0.036990438
106	0x3eb787ef	0.35845897
107	0xbe6b7d25	-0.22996958
108	0xbb66ed15	-0.0035236527
109	0xbd3e39ff	-0.046442028
110	0xbd938454	-0.07202974
111	0xbe7935ff	-0.24337004
112	0x3bf7618b	0.00754947
113	0xbcabf942	-0.020992879
114	0x3ed0bf9e	0.40771192
115	0xbde91cfa	-0.1138248
116	0xbe3040af	-0.17212175
117	0xbcb6f9a0	-0.022335827
118	0xbdcfecd5	-0.10152594
119	0x3eb82675	0.3596684
120	0xbe5d805f	-0.21631001
121	0xbe5640cc	-0.20923156
122	0xbe6ea53b	-0.23305218
123	0x3df70c08	0.12062842
124	0x3f56bc05	0.83880645
125	0x3dc67934	0.096910864
126	0xbeaf51f0	-0.342422
127	0x3e87b5b3	0.26505813

encoder_lstm.bias_hh_l0 f4 [128]
0	0x3e32de94	0.1746772
1	0xbd716c97	-0.05894145
2	0xbd8a010d	-0.06738482
3	0x3d6ad55b	0.057332378
4	0x3e50a1ab	0.20374171
5	0x3f0b77ad	0.54479486
6	0x3e81666c	0.25273454
7	0x3e52cd40	0.20586109
8	0xbe1f9c8e	-0.15587065
9	0x3e1b93b9	0.1519307
10	0x3c34e4e5	0.011040901
11	0xbe21c815	-0.15798981
12	0xbd327f01	-0.04357815
13	0x3e70f468	0.23530734
14	0xbeabe761	-0.33574966
15	0xbd9a2df8	-0.07528299
16	0xbe44c68d	-0.19216366
17	0x3dbed1a9	0.09317333
18	0x3ce33652	0.027735863
19	0xbd60f01c	-0.054916486
20	0xbd161d45	-0.036649007
21	0x3e53e66f	0.20693372
22	0x3eafc4e0	0.3432989
23	0x3e756354	0.23963672
24	0x3ecea146	0.40357417
25	0x3dfda8bf	0.123857014
26	0xbec5332a	-0.38515598
27	0x3c994a55	0.018712202
28	0xbbfee0a7	-0.0077782455
29	0xbe794442	-0.24342445
30	0xbe6767a1	-0.22598125
31	0x3daccb15	0.08437172
32	0x3ecdae1e	0.40171903
33	0x3ed1d061	0.40979293
34	0xbe95607d	-0.29175177
35	0x3ec397e1	0.38201812
36	0x3d77deee	0.060515337
37	0x3e2cf1a9	0.16889061
38	0xbd97eb47	-0.074179225
39	0x3e0cde17	0.13756596
40	0x3e7d0f57	0.24712883
41	0x39ad3635	0.0003303752
42	0x3ec4a813	0.3840948
43	0xbdf9b07a	-0.12191863
44	0x3ea1a3c4	0.31570256
45	0xbcc785d9	-0.024355816
46	0x3e05be0f	0.13060783
47	0xbea47752	-0.32122284
48	0xbe9608af	-0.293035
49	0xbf057f28	-0.5214715
50	0x3ee0747e	0.43838876
51	0xbe392c36	-0.18083271
52	0xbe4ddbf6	-0.2010344
53	0xbca746ea	-0.020419557
54	0x3d43b5e5	0.04778089
55	0x3d9ee7b1	0.077590354
56	0x3d5cc293	0.053896498
57	0xbebb4d90	-0.36582613
58	0xbe5e2215	-0.21692689
59	0xbf09ee90	-0.5387964
60	0x3e50ec60	0.2040267
61	0x3ea95799	0.33074644
62	0x3e8b3d15	0.2719504
63	0x3ecd979b	0.40154728
64	0xbd7199c3	-0.05898453
65	0x3e4c8034	0.1997078
66	0xbdd50460	-0.10401225
67	0xbee5d32b	-0.4488767
68	0xbe6ae477	-0.22938715
69	0xbeaf1ab6	-0.34200066
70	0xbcff1d76	-0.031141978
71	0xbeaa6369	-0.3327897
72	0x3ee4d8cf	0.44696662
73	0x3e100916	0.14065966
74	0x3db66b6c	0.08907208
75	0x3d0d5dab	0.034513157
76	0xbf1735bc	-0.5906637
77	0xbea742af	-0.32668063
78	0x3c86bf27	0.01644857
79	0x3e1bd4d6	0.15217909
80	0x3dc9527f	0.09830188
81	0xbe3467a6	-0.17617664
82	0x3e1f7a69	0.1557404
83	0xbe65ce34	-0.22441941
84	0x37e017ad	2.6713906e-05
85	0xbd93b2b1	-0.07211817
86	0xbdc5d8f9	-0.09660525
87	0x3ee85c22	0.45382792
88	0xbea25287	-0.31703588
89	0xbc13a435	-0.009011318
90	0x3df3cd6c	0.119044155
91	0xbe71f8f3	-0.23630123
92	0x3e98ba65	0.29829708
93	0xbee05fd2	-0.43823105
94	0xbef3f4d3	-0.47647724
95	0xbd829e82	-0.06377889
96	0x3e25c827	0.16189633
97	0x3e3af39a	0.18256989
98	0xbebd1547	-0.36930296
99	0x3edc5447	0.4303305
100	0x3e6e0591	0.23244311
101	0x3ef3dec2	0.47630888
102	0x3e9ecf92	0.3101774
103	0x3eb54bd9	0.3540943
104	0xbe788c87	-0.24272357
105	0xbe4452f0	-0.19172263
106	0x3e1adee3	0.15124087
107	0xbd23816f	-0.03991836
108	0x3e9cf8da	0.3065861
109	0xbd8f41fc	-0.069950074
110	0x3c985b3d	0.018598193
111	0xbe0f2a44	-0.13980967
112	0xbe8a68e0	-0.27033138
113	0x3e3bbe17	0.18334232
114	0x3eb20667	0.3477051
115	0x3d8a719b	0.0675995
116	0xbdbdc106	-0.09265332
117	0x3d236124	0.039887562
118	0x3c459a0b	0.0120606525
119	0x3e51bdb2	0.2048252
120	0xbddd00f9	-0.10791201
121	0xbe3803d4	-0.1797021
122	0xbddfe67b	-0.109326325
123	0x3e785108	0.24249661
124	0x3f4e78a2	0.8065282
125	0x3daa39d0	0.08311808
126	0xbe5708b7	-0.20999418
127	0x3e8c5f3a	0.27416402

encoder_lstm.weight_ih_l1 f4 [128, 32]
0	0x3e5e5aee	0.21714374
1	0xbdcc2346	-0.099676654
2	0x3e8ccf6e	0.27502006
3	0xbe874c1a	-0.26425248
4	0x3ec1d824	0.37860215
5	0x3e5495c2	0.20760253
6	0xbe9922ba	-0.29909307
7	0x3e915078	0.28381705
8	0xbc80085a	-0.015628982
9	0x3da69d61	0.081354864
10	0x3de3d9dd	0.111255385
11	0x3e12672a	0.14297166
12	0xbd6015bc	-0.054708228
13	0xbf07dfa1	-0.53075606
14	0x3db29db1	0.087214835
15	0x3d6a5a92	0.05721528
16	0xbd69dd50	-0.057095826
17	0xbe52e1ae	-0.20593902
18	0xbe96c02a	-0.29443485
19	0x3d905070	0.07046592
20	0x3e83b01b	0.25720295
21	0x3e5f19c7	0.21787177
22	0x3dd0c05d	0.101929404
23	0x3d43bd94	0.047788218
24	0x3ec287af	0.37994143
25	0x3e691ec2	0.2276564
26	0x3efd9f7a	0.49535733
27	0xbf12aa35	-0.57290965
28	0x3ec17d68	0.3779099
29	0xbe5a1302	-0.21296313
30	0xbe62564e	-0.22103235
31	0xbc9b52f4	-0.018960454
32	0x3e4d44ae	0.2004573
33	0xbe5b7650	-0.21431851
34	0x3d8c0923	0.0683768
35	0x3c042bd9	0.008067095
36	0x3f06c52b	0.52644604
37	0xbec86d4a	-0.3914588
38	0xbef2ce6c	-0.47423112
39	0x3e8d6e95	0.2762343
40	0xbe1db25c	-0.1540007
41	0xbe4d0b66	-0.2002388
42	0x3e0c9a82	0.13730815
43	0x3db6ac0a	0.089195326
44	0x3e14a2cc	0.14515227
45	0x3d2cb77b	0.042167168
46	0xbdfcffa9	-0.12353451
47	0xbcf242f1	-0.029572936
48	0xbe30bb91	-0.17259051
49	0xbe9fa8c2	-0.3118344
50	0x3e1d9e13	0.15392332
51	0xbe5a53d3	-0.21321039
52	0x3e1ab016	0.15106234
53	0xbe8cad46	-0.27475947
54	0xbd1e2540	-0.038609743
55	0x3d3be56f	0.0458731
56	0x3ed6bf32	0.41942745
57	0xbed73cef	-0.42038676
58	0xbe3f691b	-0.18692438
59	0xbdd1c6c0	-0.10242987
60	0x3e2c9793	0.16854696
61	0xbe0de5ba	-0.13857165
62	0xbf4a9adf	-0.79142565
63	0x3e1583ff	0.14601134
64	0xbd8a07bb	-0.06739756
65	0x3e35d9e5	0.17758901
66	0x3d7c5a65	0.061609644
67	0x3f493200	0.7859192
68	0x3d55cd61	0.052197818
69	0x3f2a04b9	0.66413456
70	0x3e9a0ede	0.30089468
71	0x3ef70d77	0.4825246
72	0x3dc68b92	0.0969459
73	0x3d0492e7	0.03236666
74	0xbd1b5834	-0.037925914
75	0x3e7f1063	0.24908595
76	0x3e114b3b	0.14188854
77	0xbe68ca33	-0.22733383
78	0x3ea3771c	0.3192681
79	0xbc5da0f7	-0.013527147
80	0x3e0bf861	0.13668968
81	0x3d9859b6	0.07438986
82	0x3bf52cb1	0.0074821343
83	0x3e92425d	0.28566256
84	0x3e005204	0.12531286
85	0xbe81677f	-0.25274274
86	0xbdc670a2	-0.09689452
87	0xbe9b2a81	-0.30305865
88	0xbe258e66	-0.16167602
89	0xbd14d9f0	-0.036340654
90	0xbe3fbddd	-0.18724771
91	0x3eb2d53a	0.34928304
92	0xbc07175c	-0.008245315
93	0xbf0935d0	-0.53597736
94	0xbde02772	-0.109450236
95	0x3e095448	0.13411057
96	0x3d12d94a	0.035851754
97	0x3f094a2d	0.5362881
98	0xbea4b94d	-0.32172623
99	0xbe7b70ff	-0.24554823
100	0x3ec69fb9	0.38793734
101	0xbeb1c1f6	-0.34718293
102	0xbebcbae8	-0.36861348
103	0xbdae0eab	-0.084988914
104	0xbe50ee8a	-0.20403495
105	0xbcbff13f	-0.023430465
106	0x3eb2d73e	0.34929842
107	0xbd2da8c2	-0.042397268
108	0x3f34d0d2	0.70631135
109	0xbd669a7c	-0.05629967
110	0x3e8c7c6b	0.27438673
111	0x3d449c15	0.048000414
112	0xbe9f8a24	-0.3116008
113	0xbd7e6884	-0.062111393
114	0x3e814a1a	0.25251848
115	0xbea01c0c	-0.31271398
116	0x3e5f2d81	0.21794702
117	0xbe32583f	-0.17416476
118	0x3df14f0d	0.11782656
119	0x3e884375	0.26613966
120	0x3e03b4e6	0.12861976
121	0x3deb3ac2	0.114858165
122	0xbe67b9d8	-0.22629488
123	0x3e67c0ac	0.22632092
124	0x3ef3f29c	0.47646034
125	0xbeb154e5	-0.34635082
126	0x3df7c8de	0.12098859
127	0x3e4633d1	0.19355704
128	0xbd9ab1a2	-0.07553412
129	0x3e8930a3	0.2679492
130	0xbebe1c20	-0.37130833
131	0xbd065f8e	-0.03280597
132	0x3e06dfc1	0.13171293
133	0xbe0d716c	-0.13812798
134	0xbe048f9b	-0.12945406
135	0xbe9d7dd4	-0.30760062
136	0xbf64c5c0	-0.8936424
137	0xbdbac98a	-0.09120472
138	0x3e84db74	0.2594868
139	0xbea5bcaa	-0.32370502
140	0xbe586642	-0.21132758
141	0x3db223ce	0.086982355
142	0x3e181f86	0.14855775
143	0x3e0efe58	0.13964212
144	0xbe267ece	-0.1625931
145	0x3e5883b0	0.21143985
146	0x3e7ab62d	0.24483557
147	0xbdc16fcc	-0.09445152
148	0xbea209d8	-0.31648135
149	0xbee24255	-0.44191232
150	0xbe49ad2b	-0.19694965
151	0x3dff63f9	0.1247024
152	0xbdf865cd	-0.12128792
153	0x3eb03397	0.3441436
154	0xbe7f0e83	-0.2490788
155	0x3e186462	0.14882043
156	0x3e7f39ea	0.24924436
157	0xbefdf62a	-0.4960187
158	0x3d8dfd67	0.06933098
159	0x3ecb911f	0.39759156
160	0xbdd628c6	-0.10456996
161	0x3dd67b96	0.10472791
162	0xbe75db6f	-0.24009489
163	0x3d502c69	0.050823603
164	0x3d3581c2	0.0443132
165	0xbd49c36c	-0.049258634
166	0x3d8513a9	0.064978905
167	0xbda8139b	-0.082068644
168	0xbdbc779a	-0.092025
169	0xbdcc4366	-0.09973793
170	0x3b2c3361	0.0026275741
171	0xbe5dd94a	-0.2166492
172	0x3c35f0d7	0.011104784
173	0xbdce3bd0	-0.10070002
174	0xbdc5c383	-0.096564315
175	0x3e6cd1f9	0.23126973
176	0xbdc10a20	-0.09425759
177	0x3eca58aa	0.3952077
178	0x3ee04067	0.43799135
179	0x3ec9a855	0.3938624
180	0xbdf14d8a	-0.117823675
181	0xbe4a7c3d	-0.19773956
182	0x3c9d25b3	0.019183015
183	0x3d8ec0d2	0.06970371
184	0xbe61ec94	-0.22062904
185	0x3dc1dd50	0.0946604
186	0x3dca545f	0.09879374
187	0x3eada668	0.3391602
188	0xbe35962c	-0.17733067
189	0x3d9a88d4	0.07545629
190	0x3d5e0939	0.054208014
191	0x3c5cd0dd	0.013477531
192	0xbdc435b0	-0.095805526
193	0x3db32763	0.08747747
194	0xbecbd461	-0.3981047
195	0x3f4106b9	0.7540088
196	0xbefec992	-0.4976316
197	0x3f10899d	0.5645998
198	0xbde56657	-0.112011604
199	0x3e595220	0.21222734
200	0xbba05287	-0.0048926505
201	0x3dc9f6ac	0.09861502
202	0x3e19ad38	0.15007484
203	0x3e454278	0.19263637
204	0x3e0f4564	0.13991314
205	0x3e3baf09	0.1832849
206	0x3d3069f5	0.0430698
207	0xbe80319a	-0.25037843
208	0x3e1f4af9	0.15555944
209	0xbe8f3c56	-0.2797572
210	0xbe8d0aac	-0.27547204
211	0x3e5d18e9	0.21591534
212	0x3dc9e1a3	0.0985749
213	0xbd4fc3c4	-0.050723806
214	0xbe400e69	-0.18755497
215	0x3e256646	0.16152295
216	0x3d82002b	0.06347688
217	0xbdcbe607	-0.099559836
218	0x3d92fc50	0.07177031
219	0xbe743cb2	-0.23851278
220	0xbea4238b	-0.32058367
221	0x3ec37b41	0.38179973
222	0x3e713297	0.23554455
223	0xbf027f0b	-0.509751
224	0xbdb5b4b2	-0.088723555
225	0x3e462b5e	0.19352481
226	0xbd4b025e	-0.049562804
227	0x3e6cf7f9	0.23141469
228	0x3e4bcbfe	0.19902036
229	0x3e503d5e	0.2033591
230	0x3f08f292	0.5349513
231	0x3f0d18ee	0.55116165
232	0xbee4a4d2	-0.44656998
233	0xbeb29e63	-0.34886464
234	0xbe35c682	-0.17751506
235	0x3dc19c2d	0.09453616
236	0x3e0d38d9	0.13791217
237	0xbbfe7c24	-0.0077662636
238	0xbdd029e6	-0.101642415
239	0xbd836c1d	-0.06417105
240	0x3ed3aa77	0.41340992
241	0xbe5d5092	-0.21612766
242	0xbeb2f260	-0.34950542
243	0x3dba625d	0.091007926
244	0x3cc37f07	0.023864282
245	0x3da4bddd	0.08044026
246	0x3d43211d	0.047639
247	0xbef3f926	-0.47651023
248	0x3e9a139d	0.3009309
249	0xbdf82955	-0.121172585
250	0xbe01bb40	-0.12669086
251	0xbe22daca	-0.15903774
252	0x3e7d4eb3	0.24737053
253	0x3e11172c	0.14168996
254	0x3d07c732	0.03314895
255	0x3dea3e6d	0.11437688

encoder_lstm.weight_hh_l1 f4 [128, 32]
0	0xbd844c94	-0.064599186
1	0xbe4490b2	-0.19195822
2	0xbe672e9d	-0.22576375
3	0xbd28f1a6	-0.04124608
4	0xbe6b99af	-0.23007844
5	0x3d017dec	0.03161423
6	0x3dd424a1	0.10358549
7	0xbdd3539d	-0.10318682
8	0x3cae402d	0.021270836
9	0xbd6bcbc0	-0.057567358
10	0x3e848542	0.25882918
11	0x3e1c08e6	0.1523777
12	0xbd48d69c	-0.049032792
13	0xbdf83f53	-0.12121453
14	0x3e859157	0.26087448
15	0xbe3f37d1	-0.18673636
16	0xbec19341	-0.37807658
17	0x3e6b8b76	0.23002419
18	0xbe5697f5	-0.20956405
19	0x3e2ebae7	0.17063485
20	0x3bd05a5b	0.0063584275
21	0xbe4267f4	-0.18984967
22	0xbd3fc89c	-0.046822175
23	0x3e68e9ae	0.22745392
24	0x3d373443	0.044727575
25	0xbe5f471d	-0.21804471
26	0x3dd40db2	0.10354175
27	0x3e6e85b6	0.23293194
28	0xbe5e6151	-0.21716811
29	0x3e634c4a	0.2219707
30	0x3d19df21	0.037566308
31	0xbe9be610	-0.3044896
32	0x3dc57ffa	0.0964355
33	0xbe620336	-0.22071537
34	0x3e80be6d	0.25145283
35	0xbc9569cb	-0.018238923
36	0xbe522a72	-0.20524004
37	0x3e90dc74	0.28293192
38	0xbe4438d8	-0.19162309
39	0xbe219604	-0.15779883
40	0x3e06247b	0.13099854
41	0xbe106eb4	-0.1410473
42	0xbe08ec3c	-0.13371366
43	0x3dc964ad	0.098336555
44	0x3da0b030	0.07846105
45	0x3cf39807	0.029735578
46	0x3d9bb483	0.07602789
47	0xbd9464cd	-0.07245789
48	0x3e847bba	0.25875646
49	0x3dc01c9f	0.09380459
50	0xbe672630	-0.22573161
51	0x3e3c66c2	0.18398574
52	0x3d312757	0.043250408
53	0x3db71d32	0.089411154
54	0x3de1e1ec	0.11029419
55	0x3d8feca8	0.070275605
56	0xbe386c52	-0.18010071
57	0x3e7d7572	0.24751833
58	0x3e110a46	0.14164075
59	0x3e0fad42	0.14030936
60	0xbb288b42	-0.002571777
61	0xbd9e2de4	-0.07723597
62	0x3e03f004	0.12884527
63	0x3e0e45cf	0.13893817
64	0xbdedac86	-0.11605172
65	0x3db21a92	0.08696474
66	0xbebb24d3	-0.36551532
67	0xbe4998b2	-0.19687155
68	0xbeaed017	-0.34143135
69	0x3e3606be	0.1777601
70	0xbd920b4e	-0.071310624
71	0xbd27a0ce	-0.04092484
72	0x3e877ab5	0.26460806
73	0x3e4380f0	0.19092155
74	0x3cd1775d	0.025569612
75	0xbe4cf428	-0.20015013
76	0x3d4f09c0	0.050546408
77	0x3db87a0e	0.09007655
78	0xbb02cd3b	-0.0019958753
79	0x3eca3e38	0.39500594
80	0x3edaed13	0.42758998
81	0xbe44c1fe	-0.19214627
82	0x3e5739b1	0.21018101
83	0xbd4f49d0	-0.050607502
84	0x3e3bc700	0.18337631
85	0xbe5dd825	-0.21664484
86	0x3e14fb85	0.14549072
87	0x3c397a3b	0.011320646
88	0xbbedfa8b	-0.007262533
89	0x3e279469	0.16365208
90	0x3e89c806	0.26910418
91	0x3dcb73cf	0.09934198
92	0x3e29b8e7	0.16574441
93	0x3c21936a	0.009861806
94	0x3c1eb4b2	0.009686636
95	0xbdaa33d6	-0.08310668
96	0xbdb16369	-0.08661539
97	0x3e3d3e32	0.18480757
98	0x3cd1b165	0.025597284
99	0xbe7812ff	-0.24225996
100	0x3e73f389	0.2382337
101	0xbec2aa0e	-0.38020366
102	0xbded113b	-0.11575552
103	0xbe665a2a	-0.22495332
104	0x3e2f36db	0.1711077
105	0xbe4b242b	-0.19838016
106	0x3d23aee0	0.039961696
107	0xbd299540	-0.0414021
108	0x3da4efbf	0.080535404
109	0x3e26da32	0.16294172
110	0x3e4075c5	0.18794926
111	0xbe267d19	-0.16258658
112	0x3da8f2b5	0.08249418
113	0x3d98c4dd	0.07459424
114	0xbdf41326	-0.11917715
115	0xbe93e2ef	-0.28884074
116	0x3e252564	0.16127545
117	0x3e9a0a4f	0.3008599
118	0xbca658de	-0.020306047
119	0x3e095c97	0.13414226
120	0x3e85c697	0.26128075
121	0x3e07a2ee	0.13245746
122	0x3dba8d87	0.091090254
123	0xbe069797	-0.13143764
124	0xbcd3c7ee	-0.02585217
125	0xbe6e1bf5	-0.23252852
126	0xbc8e1781	-0.017345192
127	0x3e6238ff	0.22092055
128	0xbe4df946	-0.20114622
129	0xbeddbd36	-0.4330842
130	0xbe852df3	-0.2601162
131	0x3e277e8b	0.16356866
132	0xbc92c6a9	-0.017916994
133	0xbe406643	-0.1878901
134	0xbd97d7c7	-0.07414203
135	0xbe2b520b	-0.16730516
136	0x3db4733f	0.08811044
137	0xbe34b795	-0.17648156
138	0xbe140e97	-0.1445869
139	0xbeab247f	-0.33426282
140	0xbde58291	-0.11206544
141	0x3ee63388	0.4496119
142	0xbccaf81f	-0.024776516
143	0x3e2e6e28	0.17034209
144	0x3f279816	0.6546644
145	0x3dfe29bd	0.12410305
146	0xbcbfb946	-0.023403775
147	0xbe9d3917	-0.3070762
148	0xbd755bb8	-0.059901923
149	0xbe36c675	-0.17849143
150	0xbe7db923	-0.24777655
151	0x3cbea8d9	0.023273872
152	0xbdd59094	-0.10427967
153	0x3dfe0482	0.124032035
154	0xbd3bb76f	-0.045829233
155	0xbd270f8b	-0.040786307
156	0xbb4c2795	-0.0031151522
157	0xbcc691c4	-0.024239428
158	0x3c6f6595	0.014611621
159	0x3db17492	0.08664812
160	0xbde951c3	-0.11392548
161	0xbdd4fea5	-0.10400132
162	0xbe848d37	-0.25888988
163	0xbe66a900	-0.22525406
164	0x3dbb2bcc	0.09139213
165	0xbd9e6fd5	-0.07736174
166	0xbe8ab4ba	-0.27091008
167	0x3eea3007	0.45739767
168	0x3eb468f4	0.35236323
169	0x3ea045c1	0.31303218
170	0x3e2899e8	0.1646496
171	0xbd86a06b	-0.06573566
172	0x3e0ff6a3	0.14058928
173	0x3beaabe6	0.007161605
174	0x3d1771eb	0.036973875
175	0xbd008847	-0.031379964
176	0x3e68c322	0.22730687
177	0xbec392de	-0.38197988
178	0x3d6a8bb4	0.057262138
179	0xbe245665	-0.16048582
180	0xbd42cf9e	-0.04756128
181	0x3b931375	0.0044884034
182	0xbe37bedd	-0.17943902
183	0xbe115561	-0.14192726
184	0x3e2bf13e	0.16791245
185	0x3e8e93a7	0.27847025
186	0x3e6b8b10	0.23002267
187	0xbe81ef5f	-0.25377938
188	0xbcd211d7	-0.025643272
189	0xbe1ce6e1	-0.15322448
190	0xbed469d8	-0.41487002
191	0x3d5a5aee	0.053309374
192	0x3e765590	0.24056077
193	0xbe5cd9d8	-0.21567476
194	0xbe1c4188	-0.15259373
195	0xbe2c2e95	-0.16814645
196	0xbed96a8d	-0.42464104
197	0x3ec18abd	0.3780116
198	0x3e1664cb	0.14686887
199	0x3e34b986	0.17648897
200	0xbeb7f2d0	-0.3592744
201	0xbe5494ab	-0.20759837
202	0x3e434195	0.19067986
203	0xbd2ef6e0	-0.042715907
204	0x3ea69125	0.3253261
205	0xbd8278ad	-0.06370673
206	0xbcad4384	-0.021150358
207	0xbde0498f	-0.1095153
208	0xbdf9833b	-0.12183233
209	0xbe3b1a79	-0.18271817
210	0xbbee51bd	-0.0072729276
211	0x3db75adb	0.08952876
212	0x3c225b89	0.009909519
213	0x3e87c37b	0.26516327
214	0x3e8b11a9	0.2716191
215	0x3a9e5700	0.0012080371
216	0xbcbb3d51	-0.022856386
217	0xba97f736	-0.001159406
218	0xbecd18f7	-0.4005811
219	0x3e784b9d	0.24247594
220	0x3f1062c5	0.5640071
221	0xbe5f47f3	-0.2180479
222	0x3ec5110c	0.38489568
223	0xba9632df	-0.0011459253
224	0xbe7bbde5	-0.24584158
225	0xbe71668e	-0.23574278
226	0xbea0accc	-0.31381834
227	0x3e969bcb	0.29415736
228	0xbead3e8a	-0.33836776
229	0x3e7ab1e1	0.24481918
230	0xbd37d922	-0.04488481
231	0xbe516306	-0.2044793
232	0xbeb4cb41	-0.3531132
233	0x3dfd0c08	0.123558104
234	0xbdb75275	-0.08951274
235	0xbdf7a00d	-0.12091074
236	0x3ea6a5e3	0.32548437
237	0xbea61a1e	-0.324418
238	0xbd58fc46	-0.05297496
239	0x3eff8449	0.49905613
240	0x3ca2da9f	0.019879637
241	0xbcf56d3b	-0.029959312
242	0x3e177951	0.14792372
243	0x3e8ef48a	0.27920943
244	0x3d65150b	0.05592827
245	0xbe24989d	-0.16073842
246	0x3e3a7eb8	0.18212402
247	0xbe2cd67f	-0.16878699
248	0x3eab35ea	0.3343957
249	0xbda7ff73	-0.0820302
250	0x3c66a62a	0.014077703
251	0x3d03de05	0.032194156
252	0xbe835b04	-0.25655377
253	0x3ea81e22	0.3283549
254	0x3ec817d0	0.39080667
255	0xbec9813e	-0.39356416
